maml_omniglot/output/maml-omniglot-5way-1shot-TESTOR/train_iter_500.pth (torch_old, 310758 bytes, 20 tensors)

features.conv1.weight f4 [64, 3, 3, 3]
00000000: ee79 403d 657b b4bc 12ea 3fbd 8850 b2bc
00000010: a180 173d 4705 413c 0622 493d e67d e63c
00000020: 6287 413d 9e5c d73d 2e94 c7bd 7040 64bd
00000030: aeaf 3c3d 2e9e 65bc a138 34bd e09e ab3d
00000040: 15a2 d43d e950 913c 23d2 593d 5297 1f3d
00000050: fa32 15be 46c1 7a3d 06af b33d dfbf 383d
00000060: cce8 9539 17bb 8abd cda3 2dbd 382c 8b3c
00000070: b0b9 073d 6ee6 3ebd 4e21 db3d 32ee fe3d
00000080: 093b acbd e90b 7c3c 22ef 863d da44 433c
00000090: 67a2 3c3d baad 963d b6f5 89bd c1b9 bfb9
000000a0: a01b 5abd f6b4 cbbd 9c9c 7f3d db5b a7bd
000000b0: c3c3 87bd 0135 903d 3e0b e9bc 32d7 24bd
000000c0: 2cd8 e93d 1fb5 90bd 02c4 0d3d aa3e 643c
000000d0: f24b a9bd 3bdf 033e fba1 213e 4293 10be
000000e0: 8fb6 813d b8ee 8dbd 9810 593d ef19 823b
000000f0: 12c6 5a3d f937 043e 5e65 c33d c250 ebbc
00000100: 7115 b3bd b16c 553c 447f 883c a58f 523a
00000110: 818f 52bc a731 0f3d ca6d c13c 5553 7fbd
00000120: 7445 e83d 642e 8fbd 3c9a 14bc 5ee5 783d
00000130: aabb a2bd a9fc 8e3d fa5b 833c a3d5 553d
00000140: b8cf 163e 4942 2bbd d425 063d 3773 d1bc
00000150: 7abe 0ebd 241f a1bd 23fd 173d 98ca 63bd
00000160: 21af 3c3d 8251 dc3b edf0 6e3d f45f 93bd
00000170: 2b05 aabd fa62 083d 149b 80bd dfe4 e2bc
00000180: 1fb2 11be d40d 60bd 7a36 8c3c 462a b23d
00000190: f755 ccbc f6fc d0bd 4af7 293d 27ad 36bb
000001a0: 54b0 65bc e2a5 54bd ae61 303d a629 de3d
000001b0: 746f 3a3c 4fcb f93d daa9 19bd 1975 06be
000001c0: 3e37 2cbd 36a0 183c d9fe 5e3d 979f 0bbe
000001d0: e69a 6e3c 3d1e 003d dc0b 07be b759 0e3d
000001e0: 269f b43d c854 c7bb 2294 de3c a559 1ebd
000001f0: 872e 83bd ba6d c03c 5572 e6bc 82bb e9bd
00000200: 2699 f7bd 41d8 bd3d 90f2 5d3d 5fd1 90bc
00000210: 3d48 a23d 3e3f 983d 37da 2abb 7b74 e5bd
00000220: ecfc 313d 9cda 523c 40f1 1d3d 221e 933d
00000230: 71eb a83b 3d23 96bd 40b9 7c3d 7edd 633d
00000240: 639e f93d e131 d03d 892e a7bd 3530 26bd
00000250: 903b ce3c 099b 00bd 2be8 87bd 2008 ae3d
00000260: cea1 61bd 7832 3dbb c805 f03d 9e25 aebb
00000270: 8f86 afbd 1856 dabb bf89 a53d 9c5f 90bd
00000280: 1fff 0ebd 92cb ec3b 4281 30bd d635 163e
00000290: 8f6c 29be e0d2 373d cf30 e7bc 396c 6fbc
000002a0: 9070 33bd d036 9f3d 7ff7 25bd 01b3 57bd
000002b0: 7944 91bd 1ac9 08bc 2955 c1bd 8b45 7dbd
000002c0: 81ac a7bc ec8d e6bd 99dd 0cbd 8998 afbc
000002d0: 542f 923b 2c15 803d 68b0 dabd c1f4 bb3d
000002e0: 7c42 9c3d 3d5b 7f3d d7f7 e3bb 0a24 f3bd
000002f0: 7dee 92bd bfb3 1b3e 3fef 7d3d bc01 473d
00000300: 2b36 8ebc dc94 49bd a06f ff3d ec30 823d
00000310: 38c3 0c3d 08ce 1f3d 5697 80ba d1bb 853d
00000320: 80a2 b5bc f683 01be 5baa 163d caee 4a3d
00000330: 8ca6 bbbd afd8 afbd 63db 8f3d 4857 073d
00000340: 6986 4a3d 4b44 87bd 7777 40bd a4fa 64bd
00000350: 08f9 683d d33a 8e3c 5ba8 333d a782 f23d
00000360: 250c 24bc ba72 413d fa95 59bd 097a 34bd
00000370: 4ffb 113b 05ab 863c c1e7 8dbd 7b09 c83b
00000380: f7d3 0bbd 5900 58bd 347b 59bb 1635 61bd
00000390: 8b4e f1ba 2219 ae3d 20c8 aebb ecd8 80bd
000003a0: 5d92 9f3d ddda b6bd 7fd8 60bb 3b79 e9bd
000003b0: f7b2 c1bd 31d0 703b 1471 203c 2616 f4bc
000003c0: 6808 543d 7303 df3c 49b5 41bd f64d a8bd
000003d0: 7aa3 a63b 376f 76bc 4cef 1cbc ce5f 60bd
000003e0: cd8e 08bd 54a0 d5bb 59dc 44bd 5998 cdbd
000003f0: bd14 563d e6b0 07be adca f1bc dbac 603d
0.04699128 -0.022031495 -0.046854086 -0.021766916 0.036987904 0.011781043 0.049104713 0.028136205
0.04724825 0.10515712 -0.0974506 -0.055725515 0.04606598 -0.014014764 -0.043999318 0.083799124
0.10382477 0.017738776 0.053178918 0.03896267 -0.14570227 0.061219476 0.087736174 0.045104858
0.00028592942 -0.06773966 -0.04239254 0.016988859 0.03313607 -0.046606474 0.10699712 0.12447776
-0.084096976 0.015383699 0.0658858 0.011918271 0.046053316 0.073573545 -0.06736319 -0.00036568756
-0.053249 -0.09946625 0.062405214 -0.08171817 -0.066291355 0.0704136 -0.028447744 -0.04024429
0.11418185 -0.07065796 0.034610756 0.013930956 -0.082664385 0.12878124 0.15784447 -0.14118674
0.063336484 -0.069302976 0.05299434 0.0039703767 0.05341155 0.12911977 0.09540819 -0.028725032
-0.08744324 0.013026402 0.016662247 0.0008032269 -0.012851597 0.03495946 0.023611922 -0.06233533
0.11341372 -0.0699127 -0.009069975 0.060765617 -0.0794595 0.06981785 0.016035069 0.052205693
0.14727676 -0.04181126 0.03275092 -0.025567634 -0.03484962 -0.07867268 0.037106644 -0.05561313
0.046065453 0.0067235837 0.058335233 -0.07196036 -0.08301767 0.033297516 -0.06279579 -0.027697025
-0.14228104 -0.054700688 0.01711582 0.08699469 -0.024943335 -0.102044985 0.0414956 -0.0027874203
-0.014019091 -0.05191601 0.043061905 0.108477876 0.011379112 0.12196981 -0.0375155 -0.13130607
-0.04204487 0.009315541 0.05444226 -0.13635097 0.014563298 0.031278837 -0.13188118 0.034753527
0.08819418 -0.0060831048 0.027170245 -0.03865971 -0.06405359 0.023489822 -0.02813069 -0.114127174
-0.120897576 0.09269763 0.054186404 -0.01767796 0.079239346 0.074339375 -0.0026070008 -0.112038575
0.043454096 0.012869503 0.038560152 0.07183482 0.00515502 -0.0733094 0.061700106 0.055631153
0.12188413 0.10165764 -0.08163173 -0.040573318 0.025174886 -0.031397853 -0.066360794 0.084976435
-0.05508595 -0.0028869193 0.11719853 -0.005314543 -0.08570587 -0.006663095 0.080829136 -0.07049486
-0.03491127 0.007226416 -0.04309202 0.14668974 -0.16545318 0.04487884 -0.028221516 -0.014613205
-0.04380852 0.077741265 -0.040519234 -0.052660946 -0.07093138 -0.008348728 -0.09440071 -0.0618339
-0.020467998 -0.11257538 -0.03439102 -0.02143504 0.0044612084 0.06254038 -0.10678178 0.091775425
0.076298684 0.06234287 -0.006957035 -0.11872108 -0.07174394 0.15205286 0.06199574 0.04858564
-0.017359814 -0.04921423 0.12472463 0.06356987 0.034365863 0.039014846 -0.0009810727 0.06529964
-0.022172213 -0.12647995 0.036783557 0.049544133 -0.09162626 -0.08586251 0.070242666 0.033042222
0.04944459 -0.06604823 -0.04698893 -0.055903092 0.05687812 0.017362034 0.04386173 0.11841326
-0.010012661 0.047228552 -0.053121544 -0.044061694 0.0022275036 0.01643897 -0.06928969 0.006104646
-0.034137692 -0.052734707 -0.0033185007 -0.054982267 -0.0018410248 0.085008875 -0.0053339154 -0.062913746
0.077915885 -0.089284636 -0.003430873 -0.11400076 -0.09457963 0.0036745185 0.009792585 -0.029795717
0.05176583 0.027223324 -0.047292028 -0.08217995 0.005085406 -0.015041164 -0.009578537 -0.054778866
-0.03333931 -0.0065193567 -0.048061702 -0.10038824 0.05226587 -0.13251075 -0.029515589 0.054852348

features.conv1.bias f4 [64]
00000000: 1f8c c13a 643f 05bb 204e 2a3a 22c2 6bb7
00000010: 9d7c a3ba 4c9e b5b9 369d 8739 4438 f7b9
00000020: 3dfd 05ba 1385 1cbb 4511 fcb9 2f0c b6ba
00000030: bc80 5b39 4ea2 38ba 4926 a5b8 588e c5ba
00000040: a9fb 753a 7bbb bdb9 a88a 91ba fbc8 3f3a
00000050: dab6 3cba 011f 07ba 362c d2ba db44 53ba
00000060: 7f0c 82ba 09d3 56ba b03f a93a f576 f2b9
00000070: 3d76 adba 7dd5 3eb9 91c5 19b9 58b4 163b
00000080: 1022 3339 bf19 c4b7 10c6 a0ba dfeb cbba
00000090: 542c 8db9 03e1 acb8 8053 1ab9 294f 083b
000000a0: 6ba7 083a 13ee d139 d91d 61ba 2746 8b3a
000000b0: 81ea 3c3a 2790 2e3a 1d49 cd39 0dfd 57ba
000000c0: 9254 86ba ffec 90b9 80cf 2d3a 9c17 90ba
000000d0: 048b 6d39 b30d 0aba 80dc af3a 1ca8 32ba
000000e0: 4291 19ba 45c3 373a 25b8 0fba 903a 36ba
000000f0: 5bc0 89b9 0e3c 293a 4fdf cdb8 bc56 2abb
0.0014766491 -0.0020331973 0.0006496627 -1.4052292e-05 -0.0012473051 -0.0003464095 0.00025866338 -0.00047153432
-0.0005111283 -0.002388303 -0.00048078052 -0.0013889129 0.00020933425 -0.0007043228 -7.874944e-05 -0.0015072329
0.00093835086 -0.00036188573 -0.0011103945 0.000731602 -0.0007198878 -0.0005154461 -0.0016034904 -0.00080592715
-0.0009921937 -0.0008194899 0.0012912657 -0.00046246467 -0.001323409 -0.00018199343 -0.00014664816 0.0022995677
0.0001708346 -2.337701e-05 -0.0012266058 -0.0015557966 -0.00026926643 -8.243511e-05 -0.0001471769 0.0020799136
0.00052129355 0.00040040966 -0.00085875165 0.0010625765 0.00072065747 0.00066590536 0.0003915512 -0.00082393066
-0.0010248593 -0.00027642396 0.0006630346 -0.0010993364 0.00022653869 -0.00052663236 0.0013417155 -0.00068152114
-0.0005858132 0.00070099934 -0.0005482457 -0.00069514755 -0.00026273992 0.0006455787 -9.816756e-05 -0.002599164

features.bn1.weight f4 [64]
00000000: c655 843f 3f5c 813f ecd9 833f 514c 7b3f
00000010: 2c30 6b3f 3d7e 823f 7d84 7b3f 1835 903f
00000020: ae5b 7a3f b781 7c3f 38ea 793f 6d60 7f3f
00000030: 810e 703f 5ed0 833f efe6 823f 6686 833f
00000040: 744a 7e3f 04b3 723f b2c3 763f 87f6 753f
00000050: 32f9 783f ff9c 833f b869 6a3f bf2f 873f
00000060: 24d5 863f b7bf 793f 61ca 833f 0e92 833f
00000070: 00b3 7a3f 6777 6d3f 42ca 823f 17c9 903f
00000080: 5063 863f 1c00 763f ad75 8c3f 073d 883f
00000090: f1cc 843f fb6b 763f a89c 713f 4b55 753f
000000a0: bdee 783f d460 803f 6058 843f f117 933f
000000b0: dfc3 833f c2d9 863f e77c 713f 2a0a 733f
000000c0: 4eb9 743f 6cf5 773f a933 823f 69fe 853f
000000d0: e5e8 853f b2ac 873f 1ab8 863f 86a5 823f
000000e0: c5e8 833f 6927 783f 19f9 723f bf87 6e3f
000000f0: 6ccc 843f 001c 783f 42da 8b3f ad4c 873f
1.0338676 1.0106276 1.030088 0.98163325 0.9187038 1.0194775 0.98249036 1.1266203
0.9779614 0.9863543 0.97623014 0.9975651 0.9377213 1.0297964 1.0226725 1.027539
0.99332356 0.94804406 0.9639236 0.96079296 0.9725524 1.0282286 0.91567564 1.0561446
1.0533795 0.9755816 1.0296136 1.0278947 0.9792938 0.9276032 1.0217974 1.1311368
1.0499058 0.96093917 1.0973412 1.0643624 1.0375043 0.96258515 0.94379663 0.9583327
0.97239286 1.002955 1.033947 1.1491681 1.029415 1.0535204 0.9433121 0.94937384
0.9559525 0.9685886 1.0172015 1.0468265 1.0461699 1.0599577 1.0524933 1.0206764
1.0305411 0.96935135 0.9491134 0.9317588 1.0374885 0.96917725 1.0925982 1.0570275

features.bn1.bias f4 [64]
00000000: 184f abbd f5de 2cbd b9a6 99bc 5f49 b6bd
00000010: 9344 45bd e073 f63b 4600 d9bd d168 48bd
00000020: f203 54bd ff62 8bbc a7e5 a2bd ce29 c33c
00000030: 563a f2bd fcbe 80bd 0c01 36bc 4df1 66bd
00000040: f7a1 b93c 6f93 f1bc 91e9 67bd ee57 4f3d
00000050: 9414 9dbd eaee 8dbc e959 c8bd e537 42bd
00000060: a6cd 4dbd 53b3 15bc 8965 c3bd 66de 24bd
00000070: 1b09 71bd fce9 993c ace1 55bd 132a 1d3d
00000080: a6d0 e4bc 6c22 a3bb e5c8 4fbd 52fd a2bc
00000090: ef47 01bc b54c 0e3d 054a 68bd 6eda fdbc
000000a0: 9778 19bd 9390 f2bd 55dc 4abd a80a c5bc
000000b0: 66fc 81bd 0e29 94bd ff84 8dbc 66d6 3bbd
000000c0: 9de9 6a3c 187c ce39 b309 02bd f704 4e3a
000000d0: 7e92 abbc f6ae acbd 8b96 2cbd b3eb 49bd
000000e0: b011 143d a5d8 68bc ecd5 18bd e6d5 11bd
000000f0: cf37 09bd 6604 0f3c 43f8 ffbc de3f e33c
-0.08364695 -0.042204816 -0.018756257 -0.08900713 -0.0481611 0.0075211376 -0.10595755 -0.048928086
-0.051761575 -0.017014978 -0.07953959 0.023823645 -0.11827533 -0.062864274 -0.011108648 -0.056382466
0.022660239 -0.029489247 -0.05661923 0.050620966 -0.076699406 -0.017325837 -0.09782774 -0.047416586
-0.05024495 -0.0091369925 -0.09540851 -0.04025116 -0.058846574 0.01878833 -0.05221717 0.038370203
-0.027931523 -0.0049784686 -0.050728697 -0.019896183 -0.007890685 0.034741122 -0.056711216 -0.030987944
-0.03746852 -0.118439816 -0.04952653 -0.024052933 -0.06346969 -0.07234393 -0.017275332 -0.045858763
0.014337924 0.0003938384 -0.03174753 0.0007859016 -0.020943876 -0.08431809 -0.042135756 -0.049297046
0.03614968 -0.014211808 -0.037313387 -0.03560438 -0.03350049 0.008729076 -0.03124631 0.027740415

features.bn1.running_mean f4 [64]
00000000: b7d4 66bd 7b6b d23d ce98 493e 21e7 583e
00000010: f17a 893d 0452 50bd ccf9 213e 9af4 f03c
00000020: 5587 d3bd 9b28 39be 0b17 7b3d d7ef b83e
00000030: 0df4 09be b670 1fbe 5530 63be 9443 d13c
00000040: 74d5 a9be f603 6d3e 285c ac3c 0d91 e8bc
00000050: 7f67 243d 6971 2ebe 7dea 763e 29a0 4cbc
00000060: a49f 32be 0008 923b 4fdf 4c3e f09b 19be
00000070: f4f5 d1bc 09ed 26be 77c9 833e 99a6 99be
00000080: 54ad a4be e681 223e 9793 873e 4597 08be
00000090: e389 c53e 3167 6a3e ad65 833e cb4a f93c
000000a0: 77e7 2abe eaa3 f03d 467a 94bd 0dbd 0bbe
000000b0: 907f 753c 3690 66be 2877 af3e fefd e0bd
000000c0: b214 acbd c209 12be 1984 ca3e b3e2 3cbe
000000d0: 5228 20be c805 493e d3d0 523e 9c4c 0b3e
000000e0: 6097 703b 5b72 d93b e6af 723e fda3 82be
000000f0: 8ab8 2ebe cd82 c13d a42c 013e f9cf 783e
-0.056355204 0.102744065 0.19687197 0.21181919 0.06712902 -0.050859466 0.15817946 0.02941351
-0.10328547 -0.18081896 0.061301272 0.36120483 -0.13472004 -0.1557034 -0.22186406 0.02554492
-0.33170664 0.23146042 0.021040037 -0.028389478 0.040137764 -0.1703545 0.24112888 -0.012489357
-0.1744371 0.00445652 0.2000706 -0.15000892 -0.025629975 -0.16301359 0.25739643 -0.30009916
-0.3216349 0.15869865 0.2647979 -0.13338955 0.38581762 0.22890927 0.2566351 0.030431172
-0.1668986 0.11750014 -0.07249884 -0.13646336 0.014984027 -0.2251595 0.34270597 -0.10985945
-0.08402385 -0.14261535 0.39553908 -0.18445854 -0.15640381 0.19631112 0.20587473 0.13603443
0.003671132 0.0066359467 0.23699912 -0.25515738 -0.17062584 0.094487764 0.12614685 0.24298085

features.bn1.running_var f4 [64]
00000000: edcc 933f 8bb8 733f 6c69 373f 7849 8f3f
00000010: 31d4 bc3e 9425 213f baae b23f 7632 a63f
00000020: be77 e83e 7bb1 743f e44d 1440 4d4d f73e
00000030: e8da 0440 1f15 5c3f 060e c13e 8d95 e03f
00000040: 67e6 c23e ed06 ac3f 5915 223f 8ed1 943f
00000050: 4554 1c3f 77cc 853f 1045 b83e b812 993f
00000060: 67e3 793f 8355 6d3f 0596 3e3f 7c92 5e3f
00000070: f8ea 8e3f 8c4b 0e3f a02f b23f 907a 673f
00000080: 50b2 4e3f 4510 e23f 0a33 953f 254e 3e3f
00000090: c8d8 0a3f 4e13 783f f531 0f40 1497 e93e
000000a0: 04e8 2d40 1709 f53e 1929 933f 928f 923f
000000b0: 6f46 4b3f d769 963f 6cfd 8c3f 6869 ba3f
000000c0: 821e 0040 ac6e bb3e dc1d 8d3f db15 9e3f
000000d0: 5746 443f 166e 523f 7092 263f d945 423f
000000e0: 9113 ed3e 35d1 2a3f 3e6d 1640 8889 513f
000000f0: 1f36 293f bbde a73f 34c8 9c3f cee4 eb3e
1.1546913 0.95203465 0.71645236 1.1194296 0.3688064 0.62947965 1.3959572 1.298415
0.45403856 0.95583314 2.317254 0.48301163 2.075861 0.8596973 0.37706012 1.7545639
0.38066408 1.3439614 0.63313824 1.1626451 0.61066085 1.0453023 0.3599019 1.1958838
0.97612613 0.92708606 0.7444766 0.8694227 1.1165457 0.55584025 1.3920784 0.9042139
0.80740833 1.7661215 1.1656201 0.7433799 0.5423703 0.96904457 2.2374241 0.45623076
2.717286 0.47858498 1.1496917 1.1450064 0.7940435 1.175105 1.1014838 1.4563417
2.001862 0.36607873 1.1024737 1.235042 0.7666983 0.8219923 0.65067196 0.7588783
0.4630399 0.66725475 2.3504176 0.8185048 0.6609821 1.3114847 1.2248597 0.46073002

features.conv2.weight f4 [64, 64, 3, 3]
00000000: b9fd b03b d779 7d3c e2d1 0fbc c817 983b
00000010: d4ee 413d 10a5 1b3d 41bc 883d a4a3 d63a
00000020: 07ee 413c 602c 3fbd 858b d63b 36a4 fa3c
00000030: 31c0 de3c 572c ca3d 1b3b 20bd 2686 be3c
00000040: 88ed 273d d74d 7f3a 5137 85bc 0e4a 94bc
00000050: 3d19 44bd 8850 8c3d edcd 6fbc 00ca b43c
00000060: a88a f03c 0155 bbbd 4963 d63c 54ee 85bc
00000070: 9044 9e3d d1ad 19bd 94d5 afbb 114c 2abd
00000080: 63f7 753d 0e7b 803c af76 15bc 00ac 42bd
00000090: 61ad 03bc 2b24 4a3d beb3 a4bd f6c8 94bd
000000a0: fcce 16bc 6998 b23b c9fc e63c 8754 26bd
000000b0: df01 f43c 4115 643d f38c c43c 667e 903c
000000c0: a46d ac3d ce5a ba3d 007e 923d f595 f53d
000000d0: 9361 a23d 0b26 4f3a 251f 6bbb f55e 5abd
000000e0: 420b a63b c939 efba c210 acbd ae93 813d
000000f0: bb73 b439 3785 423c 2826 073d ccb3 453d
00000100: 84de 58bc 23dc a6bd 21db 23bd 6ff4 e63d
00000110: edf4 88bc 4b50 c63d 4686 13bd 1aee 15be
00000120: 83c8 403c 1b89 97bd 1ef9 343d 356f b73d
00000130: b328 59bd 30b3 d03d 68b2 3d3d f87a 813d
00000140: 02ed 923c 62ca bd3d 1568 d0ba e1d1 80bb
00000150: 7e8d 0f3d 1950 9039 224b 3fbd efac 983d
00000160: 3316 393d 4f89 b2bd 79ff f43c 1073 e5bd
00000170: 6561 273d 1ad7 fb3d f1f6 be3d daa9 11bd
00000180: 0d3a 293d 5b32 7dbd ec45 e03d aec6 e2bc
00000190: 9871 873c 204f 0bbd cc52 663c 6f90 d2bd
000001a0: c692 0c3b ed49 743d 763a ed38 cad7 813d
000001b0: 5262 823c d0c6 87bd 80e0 f2b9 185f fd3b
000001c0: 8295 473d 5372 85bc 7d36 9f3d fcf4 29bd
000001d0: a8fe a03c cc32 6abc dcc9 6d3d f243 09bd
000001e0: 32e1 ad3c 87a2 7ebd 7c8f 76bc 6f2c 063d
000001f0: a1fb 583d 70bc 183c 81ed dabd ad51 e03b
00000200: cb53 09be d673 5fbd cd6f 6b3d c94c 5abd
00000210: 13a0 063b f76f f2bc e4b1 dabb 4682 12bd
00000220: 99fd a1bd b0ee 9b3d 8edc 813c 39ae 2c3d
00000230: 7d98 583c 2569 383c 5452 ec3d a30b fd3d
00000240: b9ff 113d d794 3bbd 4467 ddbd 858e e8bc
00000250: c0a3 79bd 233a 3c3d f952 aebc 19bd dcbd
00000260: 3a0b d7bc 33da 5abc 14b8 b83b 6b6b 123e
00000270: d55b cebc df5b 05bd 590f 8ebd 916c f33d
00000280: ef02 b13c 41b9 7d3d 77ae 8d3d 4cc8 633b
00000290: 2221 133d 500d 93bb 1898 e03c 3b32 513c
000002a0: bd77 11bd d8bc 113e 68af b33c 76ec 1b3c
000002b0: d002 8d3c ea9b 65bd 247d 003d 7950 37bb
000002c0: 49e8 733d eb8e 18bd d8a9 90bd fa26 103e
000002d0: 7a33 183d c060 813d fee6 46bc f450 b03d
000002e0: 0235 27bd 7979 c7bd 5dad 313d 4c18 b5bd
000002f0: 43d7 9ebd 7598 cd3d 088b 303d d8e4 b93c
00000300: 69d7 7f3d 6d85 8e3d eedd a23d 4cfd a9bd
00000310: 81fb 46bd da56 2f3e 9352 8c3c 7825 89bd
00000320: f833 a3bb 4b52 d33c 1aaf 483c a746 3b3d
00000330: e4b8 54bd 2802 753b 56eb 043d 72f9 863d
00000340: a65c a43c 486a 023c 2ef5 093d ab7e a4bc
00000350: 2bcc 1e3d 71f4 e03b 5606 b3bd c6ea 5ebd
00000360: 5d12 a0bd 414c 93bc acec 813c 0e1c 093d
00000370: 68ad 94bc 6d8f 7c3c b85e ab3d 4ae2 40bc
00000380: c4a8 94bd bc15 59bd 043e 83bd f408 6ebb
00000390: 7117 54bc 88fe 9ebd 7c87 873b 9d54 16bd
000003a0: 31c4 363d c0d1 3a3d 6ced 3b3d bb4c 31bd
000003b0: 8626 bfbd 075f d33d 491a b2bd b91e a13c
000003c0: 5545 b33d 4249 203d 9b2d babd ad91 f53c
000003d0: 581b 5a3d 567b 7dbd 9374 b03c 2b4f 4ebd
000003e0: 34f5 cdbd 14e1 65bc 3f87 94bd 518b 8ebd
000003f0: fcba 7bbd b770 ce3d bf47 233d 4b38 893c
0.00540134 0.015470943 -0.008778067 0.004641507 0.047346905 0.037999213 0.066765316 0.0016375673
0.011836535 -0.04667318 0.0065473937 0.03059588 0.027191253 0.098717384 -0.039118867 0.023257326
0.04099801 0.0009739077 -0.016261728 -0.018101718 -0.04787563 0.068512976 -0.014636499 0.022068977
0.029362991 -0.091470726 0.02617039 -0.016348995 0.07727921 -0.03751928 -0.0053660367 -0.04157645
0.06005038 0.015683677 -0.009122535 -0.047527313 -0.008036942 0.0493509 -0.080420956 -0.07264893
-0.009204622 0.0054502976 0.02819671 -0.040607955 0.029786048 0.05568433 0.023992991 0.017638396
0.0841935 0.09099351 0.07152939 0.11991493 0.07928767 0.0007902092 -0.0035876718 -0.053313214
0.00506726 -0.0018251474 -0.08401634 0.06326996 0.000344185 0.011872581 0.032995373 0.04826717
-0.013236646 -0.081474565 -0.0400039 0.11277091 -0.016718352 0.096832834 -0.036016725 -0.1464161
0.011766556 -0.07399198 0.04418289 0.08956758 -0.05301733 0.10190427 0.04631272 0.063222826
0.01793528 0.09267117 -0.001590016 -0.0039312695 0.035047047 0.00027525498 -0.04670251 0.074548595
0.045187186 -0.08717596 0.029906975 -0.11203587 0.040864367 0.12296887 0.09324444 -0.035562374
0.041315127 -0.0618156 0.109508365 -0.027682628 0.016533658 -0.034011006 0.014057826 -0.10281455
0.0021449788 0.059640814 0.0001131193 0.063399866 0.015916023 -0.06629717 -0.00046325102 0.0077322833
0.048726566 -0.016289866 0.07774065 -0.0414934 0.01965268 -0.0142943375 0.058053836 -0.033512063
0.021225546 -0.062166717 -0.015048858 0.03275722 0.052974347 0.009322271 -0.106898315 0.006845674
-0.1341087 -0.05455383 0.05747967 -0.053295884 0.002054219 -0.029594405 -0.0066740382 -0.03576877
-0.07909698 0.076138854 0.015852239 0.04215834 0.01321995 0.011255537 0.1153914 0.12355735
0.035644267 -0.04579624 -0.10810712 -0.028388271 -0.06094718 0.04595388 -0.021279799 -0.10778255
-0.02625047 -0.013357687 0.005637178 0.14298789 -0.025190273 -0.03255832 -0.06936521 0.11885942
0.021607844 0.06194425 0.06918042 0.0034756837 0.03592027 -0.004487671 0.027416274 0.0127683235
-0.035514582 0.14232194 0.021934226 0.009516826 0.017213255 -0.056056894 0.031369343 -0.002797155
0.059547696 -0.037245672 -0.07063645 0.14077368 0.037158467 0.06317282 -0.012140034 0.086091906
-0.040822037 -0.09739966 0.043378223 -0.08842525 -0.07755902 0.100388445 0.04310134 0.022692129
0.06246129 0.06959043 0.07952486 -0.08300266 -0.048579697 0.17122975 0.017129218 -0.066966
-0.0049805604 0.025796076 0.012248779 0.045721676 -0.051934138 0.0037385318 0.032450996 0.06590547
0.02006371 0.00795991 0.033681087 -0.020079931 0.03876893 0.006865077 -0.08741443 -0.054423116
-0.078160025 -0.017980697 0.015859924 0.03347402 -0.018149093 0.015415055 0.083676755 -0.0117727015
-0.07258752 -0.052999243 -0.06408313 -0.0036321254 -0.012945042 -0.07763392 0.004136024 -0.036701787
0.044620696 0.04561019 0.04588072 -0.043286067 -0.0933352 0.103208594 -0.0869642 0.01966797
0.087534584 0.039132364 -0.0909073 0.02997669 0.053248733 -0.0618852 0.021539962 -0.05036847
-0.100565344 -0.014030714 -0.07252359 -0.06960166 -0.06145762 0.100800924 0.039863344 0.016750475

features.conv2.bias f4 [64]
00000000: 64ca dbb8 0449 2939 c505 c7b6 fb2c fbb6
00000010: 88ca ae38 c3ed 6fb9 5a23 b2b9 e878 8537
00000020: 7e1e ac38 5f73 6139 1865 a7b8 29fc 71b9
00000030: 8142 89b8 c177 fcb7 204f 55b9 ec83 adb8
00000040: 8da4 f1b6 2838 9ab8 1ca6 ca38 4297 bd38
00000050: 0e00 0db9 b38d 8438 4672 7037 3e20 73b9
00000060: 43a1 52b9 8940 b539 8c83 b338 6781 0039
00000070: fe5f 6eb8 f718 bab9 e1af 0eb7 0bff b4b8
00000080: 1b72 9bb8 2487 5e39 6dff 58b8 22f7 d5b8
00000090: 64ed 9938 dcfd 49b6 9930 ddb8 e9e6 61b8
000000a0: f59a 6ab9 61cf 3db9 10cc a6b9 e300 9037
000000b0: f83b 55b9 ffe2 58b7 5ab8 0638 f0ad d2b7
000000c0: 001b bdb9 3a6a b639 658d 8b39 3d6a 6138
000000d0: 90b2 a939 ee7d 7d38 5483 bcb9 43f3 aab9
000000e0: f9d8 02b8 e8c1 1bb9 102b 5538 b198 0f39
000000f0: 21b5 78b9 133a 96b9 83ee bb38 0261 3739
-0.00010480432 0.00016144296 -5.931334e-06 -7.4856193e-06 8.334691e-05 -0.0002288139 -0.00033977145 1.5911137e-05
8.207279e-05 0.00021500651 -7.982011e-05 -0.00023077488 -6.5450564e-05 -3.0096506e-05 -0.0002034274 -8.273855e-05
-7.201516e-06 -7.353752e-05 9.663051e-05 9.040396e-05 -0.00013446828 6.320644e-05 1.4331721e-05 -0.00023186297
-0.00020087235 0.00034571093 8.559888e-05 0.00012255237 -5.683302e-05 -0.00035495285 -8.50481e-06 -8.630574e-05
-7.41223e-05 0.00021221914 -5.1736297e-05 -0.000102026635 7.339826e-05 -3.00991e-06 -0.00010547153 -5.3859232e-05
-0.00022373705 -0.00018101699 -0.00031814026 1.716655e-05 -0.00020335603 -1.2927455e-05 3.211978e-05 -2.5114947e-05
-0.00036069006 0.0003479289 0.00026617493 5.3743122e-05 0.0003236723 6.043718e-05 -0.00035956 -0.0003260617
-3.1196487e-05 -0.00014854188 5.0823262e-05 0.00013694425 -0.00023718599 -0.00028653498 8.961281e-05 0.00017488378

features.bn2.weight f4 [64]
00000000: 1fb1 7f3f cff0 763f 6d85 803f a319 873f
00000010: a9f6 843f ca4a 833f e8aa 863f 781d 8a3f
00000020: c389 883f 6f1b 7a3f edfd 7f3f 37f9 733f
00000030: 6325 883f 3645 6e3f a0c1 713f e993 6c3f
00000040: 4212 803f ff29 733f d575 7e3f dd23 803f
00000050: e3a5 713f 3743 7e3f 2aee 883f 5c0c 803f
00000060: e437 8f3f ef58 8a3f 868f 7f3f 53ae 813f
00000070: c8b3 753f cd14 753f f312 6d3f d346 7a3f
00000080: 52b5 733f c200 773f eaa0 823f b774 7a3f
00000090: 8b55 793f c348 6e3f 8804 813f f5f5 6c3f
000000a0: 910c 863f d5c7 823f 86a2 6d3f e993 743f
000000b0: cd52 793f 9ece 663f 93cc 793f 6d7f 733f
000000c0: 49d7 8c3f 42c6 8c3f 65d5 803f f20b 773f
000000d0: 91b9 793f e9a3 843f 5a0c 8d3f d25d 783f
000000e0: e802 743f 360e 753f ef3e 763f 486d 7b3f
000000f0: 0e38 783f f192 813f 1366 803f 6112 7d3f
0.9987964 0.96461195 1.0040718 1.0554699 1.0387775 1.0257199 1.0520906 1.0790243
1.0667042 0.9769811 0.99996835 0.95302147 1.063641 0.9307436 0.94436073 0.92413193
1.0005572 0.94985956 0.9939855 1.0010945 0.9439375 0.9932131 1.0697682 1.0003772
1.1188931 1.080839 0.99828374 1.0131325 0.9597745 0.95734864 0.9260704 0.9776432
0.9519855 0.9648553 1.0205357 0.9783434 0.97396153 0.93079776 1.0079508 0.925628
1.0472585 1.0217234 0.92826116 0.95538193 0.9739197 0.9015902 0.9757778 0.9511631
1.10032 1.0998003 1.0065123 0.965026 0.97548777 1.0362521 1.1019394 0.9701816
0.95316935 0.9572481 0.9618978 0.98213625 0.9696053 1.0122968 1.003115 0.9885617

features.bn2.bias f4 [64]
00000000: 1aec 48bc 889d 04be 1a89 2abe e100 81be
00000010: 16a6 30bd baf2 40be 5205 f2bd b63d 32be
00000020: abc8 613d dc18 12be 0e38 98bc 5374 b6bd
00000030: af7a 90bd 9a81 19be 3ce1 04be e6a4 c7bd
00000040: 093e 31be 6046 bebd a308 e3bc b5f9 f1bd
00000050: 6ec5 d03b 0bb3 e7bd 29bb 67bd f6ae 4dbd
00000060: f35a 35be cbb9 80bd fc0c 05be c9e7 cfbd
00000070: 8f9b a83d 9dde 90bd 9f91 c0bd 6d1b 67bc
00000080: c1ce 19bd 1d85 0c3d eff2 ecbd 4414 0abe
00000090: 386f acbc 151a 24bd 5be7 17bd f207 90bd
000000a0: 7075 b33c 278c 4bbb 2421 83bd 0f33 f5bc
000000b0: ffe9 e6bd 89e4 98bd e191 1bbe b6a0 01be
000000c0: 7a4b d3bd 9bec a0bc d98c 17be 47da c4bd
000000d0: 4a2d 40bd 5226 df3b 5fb1 103d 766c a73d
000000e0: cdb1 a7bd f22e b7bd d2b4 5bbd dcf8 553d
000000f0: 2566 f0bd e791 dbbd 4077 533d b036 e1bd
-0.012263322 -0.12950718 -0.16653863 -0.25195983 -0.043127142 -0.18842593 -0.11817421 -0.17406353
0.055123013 -0.14267296 -0.018581416 -0.08908906 -0.0705465 -0.14990845 -0.12976545 -0.09748249
-0.17308821 -0.09290767 -0.02771408 -0.11815206 0.0063711917 -0.113134466 -0.056574974 -0.050215684
-0.17710476 -0.06285437 -0.12993234 -0.101516314 0.082327954 -0.0707371 -0.09402775 -0.01410566
-0.03755069 0.034306634 -0.115697734 -0.13484293 -0.021049127 -0.040063936 -0.037085872 -0.070327654
0.021906585 -0.003105888 -0.064028054 -0.029931573 -0.112751 -0.074654646 -0.15192367 -0.12658963
-0.103171304 -0.019644072 -0.14799823 -0.096119456 -0.04691819 0.006809988 0.035325404 0.08174984
-0.0818821 -0.08944501 -0.05363924 0.052239284 -0.117382325 -0.10721188 0.051627398 -0.10996759

features.bn2.running_mean f4 [64]
00000000: 33b8 3940 22bb 593f 4e8d 3140 2f05 843f
00000010: 249e 093f 4a3a 03bf cce1 953f 8bd0 1ac0
00000020: fdc7 bdc0 6fd7 50bf 9679 8ec0 c266 76bf
00000030: dd86 013f bc03 1b40 fc20 9740 fbd7 92c0
00000040: 45eb aabf 388f d0bf 06ea f73f 20b1 ae3f
00000050: 1d83 1b40 288d 4940 dc1b 0040 b5bc 673f
00000060: b064 9a3f 9899 fd3f df98 2340 97ec 08bf
00000070: 9a03 7b40 836c d63f 4586 7940 ab6f 1040
00000080: 3309 ab3f b53b 8440 ce95 a4bf 7cbf 6840
00000090: 16c7 a3c0 5cbd 3bc0 6f80 41be f2ab 88c0
000000a0: f508 d73f 4dca 7d3f 98b5 8540 cb0f c53f
000000b0: 3a7b 6340 d602 85bf 34a0 1940 57ee 0dbd
000000c0: cca3 953f 8dc3 c03f 4068 2140 2d09 4640
000000d0: 4234 fbbf a8aa 00bf 9880 1b40 ecaf d53f
000000e0: a4ac d73c 9311 a8bf 29f8 203f 040b 0e40
000000f0: 4db2 7440 ebe5 36bf 4255 2440 d650 bd3f
2.9018676 0.85051167 2.7742496 1.0314082 0.5375693 -0.5126082 1.1709533 -2.4189785
-5.9306626 -0.81578726 -4.452342 -0.96250546 0.5059641 2.422103 4.7227764 -4.588865
-1.3353049 -1.6293707 1.9368293 1.3647804 2.4298775 3.1492405 2.0017004 0.9052232
1.2061977 1.9812498 2.5562055 -0.5348601 3.9220948 1.6751865 3.8988202 2.2568157
1.3362182 4.1322885 -1.2858217 3.6366873 -5.1180525 -2.9334326 -0.1889665 -4.2709894
1.6799608 0.9913681 4.178417 1.5395445 3.5543962 -1.039149 2.400403 -0.034651127
1.1690612 1.5059677 2.521988 3.09431 -1.9625323 -0.502604 2.4297237 1.6694312
0.026327439 -1.3130363 0.6287866 2.2194223 3.8233826 -0.71444577 2.5677037 1.4790294

features.bn2.running_var f4 [64]
00000000: bf5a d740 69e3 1d41 6f89 7841 1c1a fd40
00000010: 662a 4941 1758 df40 a972 7440 89bb ec40
00000020: 40c0 c541 a252 c140 c6aa 3c41 3f36 9d40
00000030: ac9a 8340 4c49 4541 410b 5e41 43f6 6741
00000040: a6ab 5640 4675 8040 d125 d040 135d c140
00000050: ac84 f040 c9d0 4441 93ce 5040 9920 bf40
00000060: 155e 9740 8e4d d040 4fd4 4041 5783 1e41
00000070: d568 c440 d811 e040 3230 2441 6aa9 b240
00000080: 2a05 0641 ad7d 1d41 b078 0041 a60d 8041
00000090: 853e b741 836e 2d41 cfdc 8d40 34bc 5a41
000000a0: 578e 9d40 df2b 9b40 8e4f 8541 dd07 9e40
000000b0: 6f85 1241 39e4 df40 2df3 6041 32c5 a140
000000c0: 596a b540 fd8b 9540 7e5b c040 0444 3c41
000000d0: d3d6 0041 795f 7f40 2bbb 4740 7d03 8640
000000e0: cd43 e140 fd72 f540 3e68 b540 766d 3840
000000f0: 9883 8a41 3d63 a240 98cd a940 2a5a d940
6.7298274 9.86802 15.533553 7.909437 12.572851 6.979503 3.8194983 7.3978925
24.718872 6.041337 11.791693 4.912872 4.112631 12.330395 13.877748 14.4976225
3.3542266 4.0143156 6.5046163 6.0426116 7.5161953 12.300973 3.2626083 5.972729
4.7302346 6.509467 12.051833 9.907065 6.137797 7.002178 10.261766 5.5831804
8.376261 9.843183 8.029465 16.006664 22.905527 10.83948 4.433204 13.670948
4.9236255 4.8491054 16.663845 4.93846 9.157577 6.996609 14.059369 5.0553217
5.669232 4.6733384 6.0111685 11.766605 8.052447 3.9902022 3.1207988 4.187926
7.0395265 7.6702867 5.668975 2.881681 17.314255 5.074614 5.306347 6.7922564

features.conv3.weight f4 [64, 64, 3, 3]
00000000: ecaf 58bb 143f 8fbc e354 823a f706 a73c
00000010: 974f 00bd 8399 0ebe 294d 27bd 256a b73d
00000020: e679 d03d 5496 563c c8d5 a3bd 792c 2f3d
00000030: 5f2f 303d ca60 f63b ee73 9d3d 7249 fd3c
00000040: 7c13 9dbd 8d2e 7dbd 306f b8bc 49f4 f03c
00000050: bcdf c73c cfc0 58bd 5900 bc3c f947 8b3d
00000060: 1a84 76bd 2371 3fbc 065d 30bc 4eb9 00ba
00000070: f67d 043d 0bc1 87bd 81e7 ba3c 8d64 c33d
00000080: ca02 153d 9f93 b23c 05e5 283d 4db1 fd3b
00000090: 21b7 07bc cb14 c93b 9b01 0abd edc4 e23c
000000a0: f380 8d3d 9c38 7f3d 6c55 9b3c 0503 9e3d
000000b0: d959 be3d f312 4a3d 18ef 583c 5e5d 86bd
000000c0: fa1b 1abd f33d dfbc e56e 56ba 02ec ac3d
000000d0: 8043 d03d 3b88 e83d 920a 84bd 9759 543d
000000e0: f946 96bc f0d8 d6bc 7646 b0bd 95f0 863d
000000f0: 756c dd3d 698e ff3b b473 16bd 5951 19bc
00000100: 6993 963d 9a8b cabd fdfc 8d3a db6e 19bc
00000110: f904 463d d6fa 6b3d 1260 a33d 8a76 d63c
00000120: fa36 ad3d b437 713d 1670 fabd 749f bebd
00000130: ba11 f03d 4f49 a2bc 0f2a 4abd 390a 9dbc
00000140: 87d4 babc dbac 743d ef10 fabc 70fa 703c
00000150: c9fe 073e 3ac3 67bc 512f ee3c b4e1 a13b
00000160: 5f9c 8ebd 9897 c1bd 318c 84bd 6aa6 e1bd
00000170: ee64 91bc faa3 62bd 4e45 543d 5293 19bd
00000180: c462 09be 06c0 813c 7b3c a43d 1ad1 f63c
00000190: af71 d93c 57fc 5e3d 1b93 fd3d c5fd 09bd
000001a0: 4207 ccbc b7e5 2b3e 8844 403d 08b1 2e3d
000001b0: e2e3 503d bc05 113e aca5 4f3c 817f 983c
000001c0: 1b36 163d c107 71bc 264a 69bd 418e b23d
000001d0: 24a7 9ebd d8c6 c83c 8147 a93d 39a8 82bd
000001e0: e652 213c d91d 91bb 8361 bb3c 7e61 943a
000001f0: dd2a e2bc 353a f7bc 3be5 5f3c fbad fb3c
00000200: 4abe c13d 08e6 c73c 3d0e 8d3c d8f5 f0bd
00000210: f12e 48bc 0c7c 773d 69d3 c43d 7c57 993c
00000220: 8d13 07bd b61b f9bb 4990 ca3c 380d 4cbc
00000230: 15bd 4f3d cb88 7ebb 8176 b5bd b0d1 773d
00000240: b82a 673d 9ace f03c 5a0a 4abc 52bd 233d
00000250: ffea 283d 4771 6a3d 74c6 083e 6b1a 6f3d
00000260: 1b94 ebba 2be6 c7bc 4841 d23c cadc 903d
00000270: 86e2 d63c 928a 4ebd 1286 ffbc e402 053c
00000280: 37d7 e3ba 7edd 233d 923b e63d 8ee7 c9bd
00000290: d33c 0c3d 6e10 a03c 16e3 3dbc a249 b0bd
000002a0: 9a52 6f3d 8281 cc3d 39c0 033b 68c7 83bd
000002b0: ce77 403c 0d99 ca3c 7afe 9fbb 5f49 193d
000002c0: 14ae a1bc 322d 6c3d 7b4c 903d 11e1 8bba
000002d0: c281 03bd 2348 0f3d 6516 b8bc c309 07bd
000002e0: b488 ebbc fdc7 833c 25bc b73c 1ad1 9fbd
000002f0: 4bef 86bd 6b86 52bd a8d9 3abd 6bc7 afbc
00000300: 7ce4 d1bd 4dd8 d7bc 5d11 b53d db2f a33c
00000310: 6b94 f63c e451 a13c a7fa 0dbc 694e 36bc
00000320: 961d 673d b2f1 a2bd efca 56bd dcf5 323c
00000330: 3331 e8bc bd04 92bb 77a8 813d cc24 3b3c
00000340: 5883 763d a312 423d cc5e 333d 22b5 a63d
00000350: 8348 9a3d b0e2 1f39 7299 ab3c d0f6 963d
00000360: 6ce5 5b3c 873f e0bd 14d5 a43d 2edf 93bd
00000370: 733e 74bd 4581 c6bb c473 97bd 93f4 32bd
00000380: 4c0c 953c 4653 e7bc 86be e2ba af41 1c3c
00000390: 1aba f5bd c625 293c 07f0 2c3d 7a4b 38bd
000003a0: 53c6 fbbd feb1 913d 372a 34bd 4505 14be
000003b0: 2015 ea3b d874 d8bd cd24 53bd de7b 913d
000003c0: a996 4a3b c2c1 843b d213 0ebd 35fc 37bd
000003d0: 85ea a33c 7908 053c 7be2 713a ac2f 5b3b
000003e0: 3e29 4abc 1f77 b6bd c148 91bd da00 663d
000003f0: 805d 643d 0f92 59bd 189b 80bd 63d1 cebb
-0.0033063842 -0.017486133 0.0009943511 0.020389063 -0.031325903 -0.13925748 -0.04084507 0.08955792
0.101795 0.013097364 -0.0799976 0.04276702 0.043013927 0.0075188624 0.076881275 0.03091881
-0.07669732 -0.061811972 -0.022513956 0.02941336 0.024398677 -0.05291825 0.022949385 0.06800837
-0.060184576 -0.011684689 -0.010764366 -0.0004910425 0.03234669 -0.06628617 0.022815468 0.09540663
0.036379613 0.021798907 0.041234035 0.007742083 -0.008283407 0.006136512 -0.033692937 0.027681792
0.06909361 0.062309846 0.01896163 0.0771542 0.09294481 0.049334478 0.013240598 -0.06560777
-0.037624337 -0.02725122 -0.0008179977 0.084434524 0.101691246 0.11354109 -0.064473286 0.051843252
-0.01834439 -0.02622649 -0.08607189 0.06588856 0.10811702 0.007798959 -0.036731437 -0.009357774
0.07352335 -0.09889908 0.0010832843 -0.009364809 0.048344586 0.057612263 0.07977308 0.02617957
0.084577516 0.058891013 -0.1222841 -0.09307757 0.11722131 -0.019810347 -0.049356516 -0.019169914
-0.022806419 0.05973516 -0.030525653 0.014708146 0.13280787 -0.014145667 0.029075297 0.004940236
-0.06963419 -0.09452742 -0.06472052 -0.11018069 -0.017748322 -0.05533216 0.051823907 -0.03749401
-0.13416582 0.015838634 0.08019348 0.030129004 0.026543466 0.05443987 0.12381574 -0.03368928
-0.024905805 0.16786848 0.046940356 0.0426493 0.050998576 0.14162344 0.012673777 0.018615486
0.036672693 -0.014711321 -0.05695548 0.08718539 -0.07746723 0.024508879 0.082655914 -0.06379742
0.009846425 -0.004428607 0.022873646 0.0011320559 -0.02760833 -0.030179122 0.013665493 0.030722609
0.09460123 0.02440168 0.017218703 -0.11765641 -0.012218223 0.060421035 0.09610636 0.018718474
-0.03297763 -0.0076021804 0.024727004 -0.0124543235 0.050717432 -0.003883886 -0.088604935 0.060502708
0.056437224 0.02939539 -0.01233157 0.03997547 0.041239735 0.057236936 0.13356954 0.058374804
-0.0017973216 -0.024401745 0.025665894 0.07073362 0.026231062 -0.05042512 -0.03119186 0.008118365
-0.0017382865 0.040006153 0.11241831 -0.09858619 0.034237694 0.019539084 -0.011589786 -0.08607794
0.058428384 0.09985639 0.0020103587 -0.06434518 0.011747314 0.024731183 -0.004882631 0.037423488
-0.019736327 0.05766029 0.070458375 -0.0010671933 -0.03210617 0.034980904 -0.022471616 -0.032968294
-0.028751709 0.016086573 0.022428581 -0.07803555 -0.0658861 -0.051397722 -0.04561773 -0.021457395
-0.10248658 -0.026348257 0.088412024 0.01992028 0.030100068 0.019692369 -0.008665717 -0.011127093
0.0564247 -0.07956256 -0.052439626 0.010922875 -0.028343773 -0.0044561313 0.0633096 0.011422347
0.060183853 0.047381055 0.043791577 0.08140017 0.07533362 0.0001524787 0.020947192 0.073712945
0.013421398 -0.10949617 0.08048454 -0.072203025 -0.05962987 -0.0060578906 -0.073951274 -0.043690275
0.01819434 -0.02823795 -0.0017299212 0.009537145 -0.11998387 0.010323947 0.042221095 -0.044993855
-0.12293687 0.071140274 -0.04398557 -0.14455135 0.0071436316 -0.10569161 -0.051548768 0.07103704
0.0030912554 0.004051418 -0.03468687 -0.044918258 0.020009289 0.008119696 0.00092271686 0.0033445163
-0.0123389345 -0.08909439 -0.07093955 0.056153156 0.05575323 -0.053117808 -0.06279582 -0.006311582

features.conv3.bias f4 [64]
00000000: d51f 553b a7f2 083b bf79 be3a 3cba 943a
00000010: 80de 093b 4a64 d73a a6e0 443a f389 9e38
00000020: c302 fe39 18f7 9639 1506 07b9 f800 e7ba
00000030: fe31 b73a 195b 08bb 629b 293b 27b9 6f3a
00000040: 2a3d a23a 0312 ffba 3425 db3a 1547 0b3a
00000050: a85b bb39 83d0 153b f169 ce3a fbc2 b93a
00000060: 212f d33a 0245 0c3b ed0f b1ba fb66 cfba
00000070: bc61 4e3b 6c2e 81b9 01ea f13a 7d80 d239
00000080: 7300 03ba b755 dd3a 8eed ec39 a175 94ba
00000090: 8c68 a93a dad8 15ba 0c6e e9ba 3e82 cc3a
000000a0: 7a9f 533b 7dfd 94ba 7b3e 683b 8ddf b1ba
000000b0: f217 c538 04ef aaba b7e7 4039 de73 c6b7
000000c0: 3417 cfba 5367 ca3a a2fe f43a d947 133b
000000d0: eb58 62bb 0682 003b 0496 153a b408 6739
000000e0: 9983 253b ba9f 523a 56de e43a 4fc9 c23a
000000f0: d006 203b 911b a7ba bd61 633a 5fa6 03ba
0.0032520194 0.0020896585 0.0014532133 0.0011347006 0.0021037161 0.0016433087 0.0007510282 7.559722e-05
0.00048448713 0.0002879433 -0.00012876869 -0.001762419 0.0013976691 -0.0020806252 0.002587997 0.00091447163
0.0012377847 -0.0019460324 0.0016719461 0.0005313021 0.0003573571 0.0022859878 0.0015748126 0.0014172489
0.0016112068 0.0021403437 -0.0013508775 -0.0015823537 0.003149136 -0.00024639384 0.001845658 0.00040150053
-0.00049973204 0.0016886507 0.0004519042 -0.001132656 0.0012924834 -0.00057162123 -0.0017809286 0.001560278
0.00322911 -0.0011367049 0.0035437632 -0.0013570652 9.398152e-05 -0.0013041203 0.00018396867 -2.3657394e-05
-0.0015799762 0.001544217 0.0018691609 0.0022473244 -0.0034537863 0.001960875 0.0005706253 0.00022033119
0.002525544 0.00080346654 0.0017461281 0.001486102 0.0024418123 -0.0012749304 0.0008673927 -0.00050220446

features.bn3.weight f4 [64]
00000000: ed3a ab3f 0915 ac3f b692 ac3f aeca ab3f
00000010: 54a2 af3f 9017 ad3f 2bbe aa3f be0a a63f
00000020: fe76 a53f 886b a93f b668 ab3f c65a b03f
00000030: d5f5 ae3f 8137 b13f 41a5 ad3f fd0b ad3f
00000040: c759 af3f 7df1 a83f 7500 ac3f f945 ad3f
00000050: 696b a93f e5bc ac3f d68d ad3f 7808 a93f
00000060: c449 ac3f 2eab ab3f 08fb b03f 77fc aa3f
00000070: 5732 af3f 3afd ab3f c1b6 ad3f 3638 ac3f
00000080: 36ca af3f 114e ad3f c009 ad3f 2e9a af3f
00000090: 6260 a93f 9814 ad3f 57b6 a93f 88d5 ac3f
000000a0: 8fef a83f 2ec4 ae3f 7b53 b23f a5e9 ad3f
000000b0: 3089 b13f c956 b13f f5f2 a73f 9c0f a83f
000000c0: 9bdf af3f 76ad af3f 998f aa3f 9c3f b33f
000000d0: daaa ac3f 47ca a73f f476 ac3f eebb ae3f
000000e0: 48cd a93f 9d1f a93f d599 a93f be9c ad3f
000000f0: fa46 ad3f 1d45 aa3f ae38 ac3f 565c ab3f
1.3377358 1.344392 1.3482273 1.3421228 1.3721414 1.3522816 1.3339285 1.2972028
1.2926939 1.3235941 1.339133 1.3777702 1.3668772 1.3845063 1.3566056 1.3519284
1.3699273 1.3198696 1.343764 1.3536979 1.3235904 1.3495146 1.355891 1.320571
1.3460011 1.3411615 1.3826609 1.3358296 1.3687238 1.3436654 1.3571397 1.3454654
1.3733585 1.3539449 1.35186 1.3718927 1.3232539 1.352191 1.3258771 1.3502665
1.3198107 1.3653619 1.3931726 1.3586928 1.3869991 1.385461 1.312102 1.3129764
1.3740114 1.3724811 1.3325073 1.4003787 1.348964 1.3108605 1.3473802 1.3651102
1.3265772 1.3212773 1.3250071 1.3563459 1.3537285 1.3302342 1.3454797 1.3387554

features.bn3.bias f4 [64]
00000000: 7b1c 7a3e 52c5 773e 98ac 933e 0d52 6d3e
00000010: 04d3 963e 78f9 7c3e cd2f 8a3e 9354 883e
00000020: 3f16 743e 0b40 953e 560e 8a3e e4fa a43e
00000030: e970 6c3e 2f6a b63e ad8c 603e 31eb 863e
00000040: f8b4 8f3e c516 b23e fc18 7b3e e914 4b3e
00000050: 0652 973e 4706 823e 7125 8c3e bce7 7b3e
00000060: f57d 913e b98d 733e 1b12 b13e 4927 8a3e
00000070: 8c7a 7e3e 61c6 813e a4ba 8a3e 5d53 8f3e
00000080: 236b a33e 9993 9e3e 681b 643e 4343 aa3e
00000090: 0e09 933e b3b1 9c3e bb52 9c3e 919f 5b3e
000000a0: 5c3c 663e 1348 a93e 073c 953e 6dc8 ac3e
000000b0: 3051 9c3e 2b0d 9e3e bbb9 7b3e ff85 a23e
000000c0: 3dbc a73e b390 623e 9de7 5d3e 32e1 923e
000000d0: a159 a73e 4912 603e 2fb5 8b3e 45d6 903e
000000e0: 0b7c 813e f5a2 753e 0bc8 5f3e 9057 8a3e
000000f0: 46c1 733e 6bd5 a23e cf22 7a3e d507 903e
0.24424927 0.24196365 0.28842616 0.23175831 0.29457867 0.2470454 0.26989594 0.26627025
0.23836611 0.29150423 0.26964062 0.32222664 0.23089947 0.35627887 0.21928664 0.26351312
0.28067756 0.34782997 0.2452125 0.19832195 0.29554766 0.25395414 0.27372316 0.24600118
0.2841641 0.23784532 0.34584126 0.26983097 0.24851435 0.25346664 0.2709552 0.2799329
0.31917676 0.30971983 0.2227608 0.33254442 0.28717846 0.30604324 0.30531868 0.21447589
0.22483963 0.330628 0.2914736 0.33746663 0.3053069 0.3086942 0.2458257 0.31742856
0.32760802 0.22125511 0.21670385 0.28687435 0.3268557 0.21881975 0.2728667 0.28288475
0.2528995 0.23987944 0.21853654 0.2701993 0.23804197 0.3180345 0.24427341 0.28130975

features.bn3.running_mean f4 [64]
00000000: 32d1 983f 5aea eb3f 9442 ba3f 4099 f83f
00000010: 8ac7 a73f a7a7 833f 4c34 3c40 6b5b 42bf
00000020: c944 443f ff5f f5be a71a 00be 2453 e4be
00000030: 00d1 0f40 6f3e db3d 6a0d 633f 92bf 993f
00000040: eadf fd3e eecc 75bf fce1 0140 282a 6abd
00000050: d623 cc3f 04a6 0740 354e 063f 14be 1b40
00000060: 6b8f 5a40 f22b bb3f 2234 5d3f 09a0 a1bf
00000070: 7846 fd3f 426a d2be 8628 3640 548b ab3f
00000080: 3225 7a3d 260f a43f 8312 763f 33f3 2dbf
00000090: 22ae dd3e 0246 26bf 56b7 743e 9416 1f3c
000000a0: 4dc5 5d40 e2dc 31bf d04d 5840 9394 65bf
000000b0: 5ada 1b3f 4724 633f 1c1a a53e bc85 713f
000000c0: 8a39 3e3f 2d1d 1c40 19d8 ad3f fe6e dc3f
000000d0: 5bf7 debe 3865 0940 d0b6 4b3f 5e0b cd3f
000000e0: 80da fb3f 45b0 163f de2e 7b40 6faa 1340
000000f0: b98d 4040 18ab c6be 6149 f53e 0c97 0440
1.1938841 1.8430893 1.4551568 1.9421768 1.310777 1.0285538 2.940692 -0.7592074
0.7666746 -0.47924802 -0.12510167 -0.4459468 2.2471313 0.10705268 0.88692343 1.2011588
0.49584895 -0.9601582 2.029418 -0.05716911 1.5948436 2.1195078 0.52463084 2.4334764
3.4150035 1.4622786 0.86407673 -1.2626964 1.978713 -0.41096693 2.8462234 1.3401895
0.06107063 1.2817123 0.96121997 -0.6794922 0.43296915 -0.64950573 0.23898062 0.009709973
3.4651673 -0.69477665 3.3797493 -0.8967983 0.60880053 0.8872723 0.32246482 0.9434469
0.7430655 2.4392807 1.3581573 1.7221372 -0.43548092 2.146803 0.79575825 1.6019094
1.9676056 0.58862716 3.9247355 2.3072774 3.00865 -0.3880241 0.47907546 2.0717192

features.bn3.running_var f4 [64]
00000000: d5e4 c03f 2e1e 1240 7b7d fb3f 4f34 2840
00000010: 1c3e 0640 9088 2740 c0c2 5840 c049 a53f
00000020: 518e 0c40 6750 b93f 2c8d a640 333f 8c40
00000030: 2284 3840 ece5 0840 5db9 0040 8344 c33f
00000040: 4d45 0140 a4f2 2c40 1353 d73f b8cb 6c40
00000050: f260 2c40 f198 3040 e4ee 1e40 fd4c 3840
00000060: 73e3 2c40 c039 e93f 2602 3a40 c69f 2f40
00000070: 6ef5 7040 97e5 4940 d0ff 2e40 42df 4d40
00000080: 643d 0140 6f67 773f 8e83 f23f 82d1 2c40
00000090: c7c2 8640 fff4 0d40 121a 2740 94ae 2f40
000000a0: 56f8 2b40 b294 4240 a81c 1840 20ab 4640
000000b0: 8c11 3540 69e4 f23f 434b cd3f 9ff9 2340
000000c0: 2289 2440 3ef2 2140 ae45 7b40 ebd7 2540
000000d0: 25cb 1b40 71b5 fc3f 2cdd e63f c9b8 d93f
000000e0: 1836 dc3f a83f aa3f 269b 7c40 d691 3d40
000000f0: c1a9 1740 b188 1440 f65c b13f 7589 2040
1.5069834 2.283092 1.9647669 2.6281927 2.0975409 2.61771 3.3868866 1.2913132
2.1961863 1.4477662 5.204733 4.3827147 2.8830647 2.1390333 2.0113137 1.5255283
2.0198548 2.7023096 1.6822227 3.699934 2.693417 2.7593348 2.4833307 2.879699
2.7013824 1.8220749 2.9063811 2.7441268 3.7649798 3.154638 2.7343636 3.2167516
2.019372 0.966422 1.8946397 2.7002873 4.2112765 2.2180784 2.6109662 2.7450304
2.6870322 3.0403256 2.376749 3.1041946 2.829196 1.8975955 1.6038593 2.5621107
2.57087 2.5304103 3.926128 2.5913036 2.434274 1.9742872 1.8036246 1.7009517
1.7204008 1.3300676 3.9469695 2.9620261 2.369736 2.320843 1.3856494 2.5083897

fc.weight f4 [5, 64]
00000000: b0bf 403c 39ce d03b f08f 8e3c 246d 783c
00000010: 6803 f43c 660c 443c 5858 593c d03a 423c
00000020: c787 703b 5ef6 403c 1eb4 a73c 4ddd 4a3c
00000030: 0d75 403c 4ef7 ac3c 49d0 af3c 56e0 7d3c
00000040: 0dc2 3d3c 3266 843c 031d 143c d7a9 863c
00000050: 294d d23c 90ae 073c 8687 c33c 899e 1e3c
00000060: 6a61 8c3c acc2 ae3c 3e5a 933b bf33 6f3c
00000070: 97b6 fd3c 6a22 fe3b 5f94 9f3c 8890 423c
00000080: 2644 b23c e882 cb3c 1a64 123c cb8f da3c
00000090: 8cbb f33c 3e61 223c 0ea2 47ba 72b8 a13c
000000a0: a662 393c afe8 6f3c 1aaf 853c f15a d63c
000000b0: bd8b 763c bbdd 833b 3473 963c f081 3b3c
000000c0: fadb 5c3c 2721 0c3c 1dc9 9c3c 83ea 343c
000000d0: 6e20 663c 9612 703c bcde 793c a3d7 b43c
000000e0: 4ae5 c83c 0e6b f63c 13d3 5b3c 33e8 5b3c
000000f0: 1e06 853c 8f05 ad3c d257 7c3c 75e0 5e3c
00000100: b378 fdbc 3ff3 bebc 4559 ecbc d456 a4bc
00000110: e560 9abc 7819 e8bc a156 7ebc c1c1 03bd
00000120: 42c5 dbbc 81ac 89bc f117 d6bc bfad aebc
00000130: cf9e 86bc fa2a 99bc ed2b cbbc 2f80 a4bc
00000140: 22fa dfbc 8a0d a7bc 229a 5fbc 5989 d8bc
00000150: 5dc4 12bd 3a3a 9fbc 5311 d3bc b507 b9bc
00000160: ad23 15bd 021e c3bc c5d8 0fbd 1f5e c4bc
00000170: b34b c7bc 15fb 5ebc db10 94bc 0900 6bbb
00000180: 53c2 fbbc 91c9 23bc d1ca bfbc e6f5 0abd
00000190: f47c d8bc f382 e4bc ae15 f0bc 4a40 a3bc
000001a0: f3b3 b5bc e83c 26bd 190d f4bc 9fbc eebc
000001b0: f94d fabc e4af 30bc 2243 efbc 0ac2 1dbd
000001c0: 36bf 13bd f8c3 cfbc eb68 59bc bf0b b0bc
000001d0: 345b 74bc ebb3 bfbc 19e9 01bd 5d3e cdbc
000001e0: e3f6 bfbc 75fb cebc 44a5 03bd 7f1a 9cbc
000001f0: 3cff 12bc 6ffa 95bc b5c6 e9bc ef5b a8bc
00000200: e13c 683c f7f0 653c 6c18 c63b 5c28 d43c
00000210: d0e0 b03c ca47 7b3c 42f0 293c 7644 343c
00000220: 19eb d13b af69 983c 12b7 1c3c 5010 9b3c
00000230: e729 883c a2b6 d43c 1174 db3c e619 7e3c
00000240: 7d24 8a3c e859 803c dc07 af3c faa2 a53b
00000250: 3bff b33c 7ee9 943c 9048 2abb 9cd1 323c
00000260: 68c1 b73c 61eb a83c 092b d43c d9c0 2c3a
00000270: 031b 823c 23da 993c cd60 8a3c 4d85 4f3c
00000280: 273a b53c 0b4c c33c 3233 e83b 23ca b23c
00000290: a185 b73c 7b7d 803c f45b 913c e774 e93c
000002a0: a49d c23c 79b4 9c3c 220b a43c 0a4d 5b3c
000002b0: fd7e 273c 696e 023c ab7d 703c 573d 103c
000002c0: d4f2 903c bf79 593c b1d1 a33c 5540 1a3c
000002d0: fc5c 983c efd8 903c 8561 9b3c 201f ab3c
000002e0: 9995 013d 4ec2 dc3c 9634 173c c455 8c3c
000002f0: 1c49 9e3c 50b9 813c c9cf f63b eaa1 0b3c
00000300: 7b58 8bbb a814 86bb dde9 60bb cbb3 8139
00000310: e9f0 033b c9d7 62bc 26dd e83b 609d 46bc
00000320: bbf5 1b3c e1f0 31ba 6685 663a e713 99bc
00000330: 5efe 83ba ed59 04bc b6a6 f3bb dd95 0c3c
00000340: 96ee 3fbc 09c5 e539 857e 29bc 64be 5cbc
00000350: 759c 86bb febb 123c 9df1 00bc 2906 69bc
00000360: 9f52 433b 4bd3 babc e4d7 92bb 5635 debc
00000370: f7db 463c bd2b f0bb fc38 77b8 f7dc e83c
00000380: cfc2 74b9 0914 20bb 25a1 f73b 9a18 fe3a
00000390: b7c2 3ebc 6709 593b f456 c3bc 308f 3cbc
000003a0: 8325 34bc 837e 99bb c443 a0ba c5aa 10bc
000003b0: 9c5e 1338 d362 903c 82a4 28bc dc51 413c
000003c0: a0a4 26bc 8980 30bc 9955 4bba 9900 b0bb
000003d0: bd7e 10b8 4b58 4939 63c1 7d3b 1c0b aeb9
000003e0: 1592 3cbb eb7b 90bc c6b9 93bb d9ca 61bc
000003f0: 0e08 c93b ed36 183c b389 88bc 39c9 783b
0.011764452 0.00637224 0.01740262 0.01516274 0.02978678 0.011965847 0.013265692 0.011854842
0.0036702023 0.0117774885 0.020471629 0.012381864 0.011746657 0.021114018 0.021461623 0.01549538
0.01158191 0.016162012 0.00904012 0.016438408 0.025671558 0.008281365 0.023868334 0.009681352
0.017136294 0.021333061 0.0044968417 0.01459974 0.030970855 0.0077555673 0.019479929 0.011875279
0.021761011 0.024842694 0.008934999 0.026679894 0.029752515 0.00991088 -0.00076153956 0.01974127
0.0113150235 0.014642878 0.016318846 0.026166411 0.015047965 0.004024235 0.01836548 0.011444554
0.013480181 0.008552826 0.019138867 0.01104224 0.014045818 0.014652869 0.015250858 0.02207548
0.024523396 0.030080345 0.013417023 0.01342206 0.016238268 0.021120815 0.015401797 0.013603319
-0.030941343 -0.023309348 -0.02885116 -0.020060934 -0.018845031 -0.028332457 -0.015523584 -0.0321672
-0.026827458 -0.01680589 -0.026134463 -0.021323083 -0.016433148 -0.01869725 -0.024801219 -0.020080654
-0.027340952 -0.020392198 -0.013647588 -0.02643268 -0.035831798 -0.019436944 -0.025765097 -0.022586683
-0.036410976 -0.02381802 -0.035118837 -0.023970662 -0.024328088 -0.013609667 -0.018074444 -0.0035858175
-0.03073231 -0.009996788 -0.02341214 -0.033925913 -0.02642677 -0.027894473 -0.029307213 -0.019928116
-0.022180533 -0.04058543 -0.029791402 -0.029142676 -0.030554758 -0.010784123 -0.029206816 -0.03851513
-0.036071025 -0.025362 -0.013269643 -0.021489976 -0.014914323 -0.023401221 -0.03171644 -0.025054151
-0.023433154 -0.025266388 -0.03214003 -0.019055603 -0.008971985 -0.018307893 -0.028537134 -0.02055165
0.014174671 0.014034501 0.006045392 0.025898151 0.021591574 0.01533694 0.010372223 0.0110026505
0.0064061997 0.018605081 0.009565132 0.018928677 0.016621543 0.025965992 0.026788743 0.015509104
0.016863102 0.01566787 0.021366052 0.0050548287 0.02197229 0.018177744 -0.0025983192 0.010914233
0.02243109 0.02062005 0.025899427 0.0006590016 0.01588202 0.018780774 0.016891861 0.012666059
0.022122456 0.023839971 0.007086181 0.021824902 0.022402586 0.015684834 0.017744042 0.028498126
0.02375681 0.019129025 0.02002484 0.013385067 0.010223147 0.007960894 0.014678399 0.008803687
0.017693914 0.013273655 0.01999745 0.009414752 0.018599026 0.017681567 0.0189674 0.020888865
0.031636808 0.02694812 0.009228846 0.01713074 0.01932197 0.015835434 0.007532094 0.00852249
-0.004252491 -0.004091818 -0.003431908 0.00024738754 0.0020132607 -0.0138453925 0.007106441 -0.012122482
0.009519036 -0.0006787908 0.00087936816 -0.018686248 -0.0010070314 -0.008078081 -0.007435645 0.008580652
-0.011714598 0.00043825086 -0.010345106 -0.013473127 -0.0041080066 0.008955954 -0.007870105 -0.01422266
0.0029803885 -0.02280583 -0.0044813026 -0.027125042 0.012137405 -0.0073294328 -5.894246e-05 0.028425677
-0.00023342225 -0.0024426004 0.0075570517 0.0019385994 -0.011643103 0.0033117176 -0.023845173 -0.011508748
-0.010995272 -0.004684271 -0.0012227227 -0.008829777 3.5135643e-05 0.017625248 -0.010293128 0.011799302
-0.010171086 -0.010772833 -0.00077565905 -0.005371165 -3.445031e-05 0.00019201745 0.0038720004 -0.00033196143
-0.0028773595 -0.017637214 -0.00450823 -0.013781273 0.0061349934 0.009290439 -0.016667223 0.0037961735

fc.bias f4 [5]
00000000: 76c9 833f c79e 643f 175d 873f 522e 7a3f
00000010: 3931 833f
1.0295856 0.89304775 1.0575284 0.9772693 1.0249397
