maml-notebook_original_test/maml-notebook/model/model-epoch_00032-train_loss_0.141-train_acc_0.852-test_loss_0.518-test_acc_0.855.pt (torch_old, 305688 bytes, 20 tensors)

conv1.weight f4 [64, 1, 3, 3]
0	0x3b9affe7	0.004730213
1	0x3d57e5f4	0.052709535
2	0x3d630468	0.055424124
3	0xbdabf9d4	-0.0839726
4	0x3d80b29a	0.062840655
5	0x3cdb43f6	0.026765805
6	0xbbff2e46	-0.0077874986
7	0xbce3a3a9	-0.027788
8	0x3d067a28	0.03283134
9	0x3ce175ec	0.02752205
10	0xbc467b15	-0.012114306
11	0xbc3f2a07	-0.011667735
12	0xbb04aa62	-0.0020243158
13	0xbce5d289	-0.028054493
14	0xbdb4f073	-0.088349245
15	0xbd3e5339	-0.046466086
16	0x3b28dda5	0.0025766876
17	0xbc13abfc	-0.009013172
18	0xbd78951a	-0.06068907
19	0x3e09ee4a	0.13469806
20	0x3e071dfa	0.13195029
21	0xbdb4f2ac	-0.088353485
22	0xbd319fdb	-0.04336534
23	0xbdadfc34	-0.084953696
24	0xbc930261	-0.01794547
25	0x3dc23bdd	0.09484074
26	0x3c05394f	0.008131339
27	0xbcfad8a5	-0.030620882
28	0xbd04adb7	-0.03239223
29	0x3b5dcb8a	0.0033843243
30	0xbd466ad0	-0.048441708
31	0x3dc19e65	0.094540395
32	0xbdff4387	-0.12464052
33	0xbd189508	-0.037251502
34	0x3c7760f9	0.015098804
35	0x3aadc2cc	0.0013256907
36	0xbd844f9d	-0.064604975
37	0x3ba20d0a	0.004945402
38	0xbe0e4452	-0.1389325
39	0xbd446126	-0.04794421
40	0x3c25a48f	0.010110035
41	0x3d8d5353	0.069006585
42	0xbcb06482	-0.0215323
43	0xbcdd0eed	-0.026984656
44	0x3a2e4028	0.0006647133
45	0x3dd57bc0	0.10423994
46	0xbd9bdf10	-0.07610905
47	0xbd3574ca	-0.04430083
48	0xbdc7d7cc	-0.09757957
49	0x3c7dc870	0.015489683
50	0x3d379723	0.04482187
51	0x3e66eda3	0.22551589
52	0xbb1b0bab	-0.0023658078
53	0x3c0f2cd3	0.008738714
54	0xbcd850af	-0.02640566
55	0x3cc7c65c	0.024386577
56	0x3dd7a0c5	0.10528711
57	0xbcf9f465	-0.030512044
58	0xbde7a35b	-0.113104545
59	0xbde76d38	-0.11300129
60	0x3d7707b1	0.06031007
61	0x3d81b9c2	0.063342586
62	0x3d3f7f4a	0.04675225
63	0x3c000819	0.007814431
64	0xbcccd1dc	-0.025002412
65	0x3c3dbac2	0.011580171
66	0xbd0537a8	-0.03252378
67	0x3c7dd593	0.015492815
68	0xbd9504dc	-0.072763175
69	0xbd436a51	-0.047708813
70	0x3b2461f1	0.0025082792
71	0xbc408f7c	-0.011752959
72	0xbdaece10	-0.08535397
73	0x3cd2772f	0.025691597
74	0x3d0e0a01	0.03467751
75	0xbb7205d4	-0.0036929743
76	0xbd82ac35	-0.06380502
77	0x3ca8527a	0.02054714
78	0xbdc496e1	-0.0959909
79	0xbc41f638	-0.011838488
80	0x3d07872e	0.0330879
81	0xbd5b7ac6	-0.053583883
82	0xbdcccf78	-0.10000509
83	0x3d55cbc4	0.05219628
84	0x3ddee56a	0.10883601
85	0x3d734ab4	0.059397414
86	0xbd788ce1	-0.060681228
87	0x3d2b4538	0.04181406
88	0x3dc6c910	0.097063184
89	0x3d0f03c0	0.034915686
90	0x3d2c1188	0.042008907
91	0x3d8cd143	0.06875851
92	0xbd17c531	-0.03705329
93	0xbd2e2fc9	-0.04252604
94	0x3ce25f5f	0.027633367
95	0x3c9506c2	0.018191699
96	0x3c8a9484	0.01691652
97	0x3c7bd5b4	0.015370775
98	0x3cdbf9c0	0.026852489
99	0x3dded13b	0.10879751
100	0xbce660df	-0.028122364
101	0xbd8a63e4	-0.06757334
102	0xbe17e142	-0.14832023
103	0xbe0fc2c0	-0.14039135
104	0xbc8618b4	-0.016369201
105	0xbce98a27	-0.028508259
106	0x3cc3aa54	0.02388493
107	0x3cb5e8a7	0.022205664
108	0xbbb38017	-0.005477916
109	0x3ce12760	0.027484596
110	0x3c8c7a86	0.017148267
111	0x3cd19e63	0.02558822
112	0x3c85b76d	0.016322816
113	0x3a1de2c8	0.0006022868
114	0xbcd6bc90	-0.02621296
115	0x3dd12ab4	0.10213223
116	0xbd6d4724	-0.057929173
117	0xbc008141	-0.0078433165
118	0x3cb79077	0.022407753
119	0x3de9ba53	0.11412492
120	0x3d7fcd10	0.062451422
121	0x3b1236fe	0.002231061
122	0xbc598c80	-0.013278127
123	0x3e18c796	0.14919886
124	0xbd9be0c5	-0.07611231
125	0x3d18d26f	0.03731006
126	0x3d92540b	0.07144936
127	0x3dee5d73	0.11638918
128	0xbd7a2f92	-0.061080523
129	0x3d67cf23	0.056594025
130	0xbc39fbde	-0.011351554
131	0x3d1b0cbe	0.03785395
132	0xbcceb039	-0.025230514
133	0xbcaf69ac	-0.021412693
134	0xbd97730a	-0.07394989
135	0xbd08116e	-0.033219747
136	0x3ca59872	0.020214293
137	0x3ceae759	0.028674768
138	0xbe05fdfc	-0.13085169
139	0x3d61d5f2	0.055135675
140	0x3dc9ca20	0.098530054
141	0xbd5ed6cc	-0.054404065
142	0x3ccea6bf	0.025225995
143	0x3cb6841d	0.022279793
144	0xbd95a9f0	-0.07307804
145	0xbcc6850c	-0.024233364
146	0x3c8ca6d6	0.017169397
147	0x3d926fde	0.07150243
148	0x3c89b4f5	0.01680992
149	0xbd5a8bd6	-0.053356014
150	0x3d982a39	0.07429928
151	0xbb3b76ba	-0.0028604702
152	0x3d8f7e8a	0.07006557
153	0xbcb1d063	-0.021705812
154	0x3c84690b	0.01616337
155	0xbd84ea24	-0.06489971
156	0x3d8394ef	0.06424891
157	0x3d99c097	0.07507437
158	0x3cfab38e	0.030603196
159	0xbcfd4cd5	-0.030920425
160	0xbdae83bb	-0.08521219
161	0x3d2b6c41	0.041851286
162	0x3d715d23	0.058926713
163	0x3c3f826a	0.011688808
164	0x3db63105	0.088960685
165	0xbcf128d3	-0.029438412
166	0x3d8c2400	0.06842804
167	0xbc973177	-0.018456204
168	0x3d7ee364	0.062228575
169	0x3c84c52c	0.0162073
170	0xbd836105	-0.064149894
171	0xbd342485	-0.04398014
172	0x3d61b437	0.055103507
173	0x3d01d634	0.03169842
174	0xbd24b3c3	-0.040210497
175	0x3c120d2b	0.008914272
176	0xbd93a7a0	-0.07209706
177	0x3c7ac8b5	0.015306641
178	0x3cb47ffa	0.02203368
179	0xbdaab959	-0.083361335
180	0xbdc76300	-0.097356796
181	0x3cbcc17f	0.023041485
182	0x3d96e5a7	0.073680215
183	0xbc17bd0b	-0.00926138
184	0x3c912915	0.017719785
185	0x3bc3749b	0.005964828
186	0xbd8d28c7	-0.06892543
187	0x3c7eb029	0.01554493
188	0x3d1819aa	0.03713385
189	0x3cee7c13	0.029111898
190	0xbd8de576	-0.06928532
191	0x3d2fa602	0.042882927
192	0xbcfbd481	-0.030740978
193	0x3bca6343	0.0061763837
194	0x3cbaf593	0.022822177
195	0x3da71119	0.08157558
196	0xbd1f1b7d	-0.038844574
197	0x3d199e5e	0.037504546
198	0xbd6e9dd6	-0.058255993
199	0x3d551739	0.0520241
200	0xbdbe06d9	-0.0927865
201	0xbcc07e1f	-0.02349764
202	0x3cad45e5	0.021151492
203	0xbcb7d97b	-0.02244257
204	0xbcf857b3	-0.030315256
205	0x3c71ba6e	0.014753921
206	0xbb2e4236	-0.0026589758
207	0x3be52c2b	0.0069937906
208	0xbcb4838e	-0.022035386
209	0xbcf77ce3	-0.030210918
210	0x3d8d58a2	0.06901671
211	0x3d93c0d8	0.072145164
212	0x3d13d6ca	0.03609351
213	0xbd57358b	-0.052541297
214	0xbbe70c67	-0.007051039
215	0x3980cde5	0.00024567466
216	0x3c1d2e73	0.009593594
217	0xbd54da86	-0.051966213
218	0xbd5a16f4	-0.053244546
219	0xbb2503a5	-0.0025179174
220	0xbddbccd0	-0.10732424
221	0x3db902b6	0.0903372
222	0xbcb70719	-0.022342252
223	0xbd16ab4c	-0.036784455
224	0x3d9f5ac2	0.077809826
225	0xbd43a19d	-0.04776155
226	0xbddd47e4	-0.10804728
227	0xbd2a3847	-0.041557577
228	0x3d2e3531	0.042531196
229	0x3ca3d900	0.020000935
230	0x3df87969	0.12132532
231	0xbc1c9e05	-0.009559159
232	0xbcb5d51e	-0.022196349
233	0xbcc2abb6	-0.023763519
234	0xbe10bd04	-0.14134604
235	0xbd4d8df6	-0.050184213
236	0xbda83243	-0.08212712
237	0x3d097c6c	0.033565924
238	0xbd824c69	-0.0636223
239	0xbd84c9fe	-0.064838395
240	0xbceb2d78	-0.028708205
241	0x3b3742a9	0.0027963317
242	0x3ddab7fa	0.10679622
243	0xbd598ec8	-0.053114682
244	0xbc2d56d1	-0.010579781
245	0xbd0fd2c1	-0.0351131
246	0xbd5701f7	-0.05249211
247	0xbdaebe57	-0.08532398
248	0xbceb5214	-0.028725661
249	0x3da2d2fd	0.07950399
250	0x3dc28b2b	0.094992004
251	0x3ced4d94	0.028967656
252	0xbca08bd3	-0.019597923
253	0x3d6fd58a	0.058553256
254	0xbd6c9e73	-0.057768296
255	0xbcc9244f	-0.024553446

conv1.bias f4 [64]
0	0xbbab66b3	-0.0052307486
1	0xbaa271a5	-0.0012393488
2	0x3bd50128	0.006500382
3	0x3b8049c4	0.0039150435
4	0x3b98b05b	0.004659695
5	0x3b7a573d	0.003819897
6	0x3a4efe9d	0.00078962167
7	0xbc6f9829	-0.01462368
8	0x3c206d73	0.00979172
9	0x3b28cda9	0.0025757349
10	0xbc436842	-0.0119267125
11	0x3bb07314	0.005384812
12	0x3be0aa04	0.006856205
13	0x3ad60eff	0.0016331373
14	0x3b3d6478	0.0028898995
15	0x3bfcc2ee	0.007713667
16	0x3aeee308	0.001822562
17	0x3bd79d47	0.006580028
18	0x3c5cfbcc	0.013487767
19	0xbbe1ad6e	-0.0068871295
20	0xbbcdb0fd	-0.006277202
21	0xbbb7b0b9	-0.005605784
22	0x3c0307dc	0.007997479
23	0xbbd462c0	-0.0064814985
24	0xbb8e6c55	-0.0043464103
25	0xbbc1e4ba	-0.005917159
26	0xbbd05edc	-0.0063589644
27	0xbbf1f710	-0.0073841885
28	0x3aef3e1e	0.0018252765
29	0xbae13462	-0.0017181749
30	0xbb136d25	-0.0022495475
31	0x3a50fef3	0.00079725607
32	0xbb6cc433	-0.0036127686
33	0xbbcf78c9	-0.0063315374
34	0xbbbab286	-0.005697551
35	0x3bf12435	0.0073590525
36	0xbaa304b6	-0.0012437317
37	0xbb7e9460	-0.0038845763
38	0x3b915a8a	0.004435842
39	0x3bd44998	0.0064784996
40	0x3894fcec	7.1043e-05
41	0x3c0e7cbc	0.008696731
42	0xb7d54875	-2.542532e-05
43	0x3a35f9a3	0.0006941801
44	0xbbe2b113	-0.0069180815
45	0x3accd421	0.0015627184
46	0x3c13e60d	0.009027016
47	0xbb951c65	-0.004550504
48	0x3c318aaa	0.010836283
49	0xbb95b231	-0.004568361
50	0xbaf21b2d	-0.0018471234
51	0x3b1a1319	0.0023509918
52	0xbb7cd094	-0.003857647
53	0x3b92f9a6	0.004485327
54	0x3b2bbe7a	0.0026206062
55	0x3c257acc	0.010100078
56	0x3b145e7f	0.0022639332
57	0x3b1ceb53	0.0023943975
58	0x3ae585af	0.0017511154
59	0xbb96768a	-0.0045917677
60	0x3b1e4958	0.0024152603
61	0xb9653bdb	-0.0002186144
62	0xbc04d4ea	-0.008107403
63	0xbbeb7d62	-0.0071865777

conv2.weight f4 [64, 64, 3, 3]
0	0xbb030a15	-0.0019995023
1	0xbcc31b74	-0.023816802
2	0xbc13e66a	-0.009027103
3	0x3cfdeed2	0.030997667
4	0x3d52f3fe	0.05150222
5	0xb9c2540a	-0.00037065177
6	0x3ca4643e	0.02006733
7	0x3bd2043a	0.0064091953
8	0x3d022b69	0.03177968
9	0xbdac5132	-0.08413924
10	0x3d4c3af6	0.049860917
11	0x3d10b4a4	0.035328522
12	0x3dd4eace	0.10396348
13	0xbd0f2dee	-0.03495591
14	0x3cb3a073	0.021927094
15	0xbd02aa66	-0.031900786
16	0x3c8efca5	0.017454455
17	0x3be764b4	0.0070615653
18	0x3d570b46	0.052500986
19	0xbcb83daf	-0.02249035
20	0x3c9c233a	0.019059766
21	0xbcc96da3	-0.024588412
22	0x3d1849a1	0.037179593
23	0x3cb707a1	0.022342505
24	0xbd1d264f	-0.038366612
25	0x3bcc9908	0.0062438287
26	0xbd1702ff	-0.03686809
27	0x3d0fe26b	0.03512804
28	0xbc031878	-0.008001439
29	0x3c7f793b	0.015592868
30	0x3d8a6e4d	0.067593195
31	0x3d7f8097	0.062378492
32	0x3c61a802	0.013772966
33	0xbc9f8d8f	-0.01947668
34	0x3d324b62	0.043528922
35	0x3d073d3d	0.033017386
36	0x3d7b1c70	0.061306417
37	0xbcae09d6	-0.021244925
38	0x3c073898	0.008253239
39	0x3cb6542e	0.022256937
40	0x3ca59234	0.020211317
41	0x3d2ac662	0.0416931
42	0xbcee5096	-0.02909116
43	0x3c8d2eef	0.017234294
44	0xbc56ce54	-0.013110716
45	0x3db547a1	0.08851553
46	0xbc1d84c3	-0.009614172
47	0x3c7cc803	0.015428546
48	0x3e124f20	0.14287996
49	0x3c2ce4af	0.010552569
50	0x3c9171e7	0.017754508
51	0xbd0f3006	-0.034957908
52	0xbc8e523d	-0.017373199
53	0xbcc53f51	-0.024078043
54	0xbd8c27bb	-0.068435155
55	0x3afcff06	0.0019302077
56	0x3baf69fa	0.0053532096
57	0xbd0e3996	-0.034722887
58	0x3d959448	0.07303673
59	0xbd1f870a	-0.038947143
60	0x3d108e55	0.03529199
61	0x3c5d8e8a	0.0135227535
62	0x3b464c4f	0.0030257886
63	0x3cf0bf2a	0.02938803
64	0xbdc0a70e	-0.09406863
65	0xbc067a12	-0.008207815
66	0xbcbf80e1	-0.023376884
67	0x3ca0e93e	0.019642469
68	0x3c3c20cf	0.011482432
69	0x3d14ffd3	0.036376785
70	0xbd07eb3c	-0.03318332
71	0x3cd52dfd	0.026022905
72	0xbbe6cbea	-0.0070433514
73	0xbd0a1dd1	-0.03371984
74	0xbbeef70f	-0.0072926353
75	0x3c3d62a8	0.011559166
76	0xbcb2bc02	-0.021818165
77	0x3cf7e461	0.030260267
78	0xbbe15435	-0.0068764933
79	0xbbb1f569	-0.0054308665
80	0x3ce3def9	0.027816283
81	0xbda8afd9	-0.08236665
82	0x3d886d0f	0.06661426
83	0x3d4ea838	0.050453395
84	0x3d0da27e	0.034578793
85	0xbc3d8095	-0.011566301
86	0xbce4748a	-0.027887601
87	0xbd255726	-0.040366314
88	0x3c856544	0.016283639
89	0xbd513073	-0.051071595
90	0xbc474d26	-0.01216439
91	0x3d0d6c71	0.034527246
92	0x3d17395b	0.036919933
93	0xbb0377ab	-0.0020060341
94	0x3d3eec04	0.0466118
95	0xbcaa8cfc	-0.02081918
96	0xbc84a71c	-0.016192965
97	0xbce4960f	-0.027903585
98	0x3cebd7cd	0.028789425
99	0x3c6def99	0.014522457
100	0x3cf7f5fe	0.030268665
101	0x3d20cf4b	0.03926019
102	0xbd1b2e6f	-0.03788608
103	0xbcaededc	-0.021346502
104	0xbcd7188e	-0.026256826
105	0xbd10fefa	-0.035399415
106	0x3bf7b9ed	0.007560006
107	0x3d5ed1e0	0.05439937
108	0x3cc97f86	0.02459694
109	0xbd2418f5	-0.040062863
110	0x3ca28ae8	0.019841626
111	0x3d7b73a7	0.06138959
112	0xbab2bc23	-0.0013636391
113	0xbd0bd86a	-0.034141935
114	0x3d802040	0.06256151
115	0x3c458593	0.012055772
116	0xbbd8d433	-0.006617093
117	0x3c269d80	0.010169387
118	0x3cc3d3c8	0.023904696
119	0xbd40544a	-0.046955384
120	0x3c793bbd	0.015211997
121	0x3d7c862e	0.0616514
122	0xbc3b3ff6	-0.011428824
123	0x3d7d19d1	0.0617922
124	0x3ce061fe	0.027390476
125	0x3bd8d2bf	0.0066169198
126	0x3d25f17a	0.040513493
127	0x3d9136c6	0.07090525
128	0xbc39d988	-0.011343367
129	0x3d1f8f1c	0.03895484
130	0x3d071ba6	0.032985352
131	0x3d314749	0.043280873
132	0xbcc2e5ca	-0.023791213
133	0x3ad79075	0.001644625
134	0xbb854043	-0.0040664985
135	0x3d2d4ba1	0.042308453
136	0x3d868341	0.065680034
137	0x3d7e6872	0.062111326
138	0xbc0c3b52	-0.008559065
139	0xbd868b8c	-0.06569585
140	0x3d0b8fb9	0.03407261
141	0xbd3f88ff	-0.04676151
142	0x3d2510a4	0.040299073
143	0x3db05ee9	0.08611853
144	0xbd96069e	-0.07325481
145	0xbca5398f	-0.020169048
146	0xbca79fb8	-0.020461902
147	0x3d6c8596	0.057744585
148	0x3af2d1cf	0.0018525663
149	0x3cb37327	0.021905495
150	0x3c902615	0.017596284
151	0xbd061711	-0.03273684
152	0xbd1614f5	-0.03664108
153	0x3c14decb	0.009086321
154	0x3c0eaf7e	0.008708833
155	0xbba25d04	-0.004954936
156	0xbc3db866	-0.011579609
157	0x3c35d96e	0.011099203
158	0xbc924d08	-0.017858997
159	0x3de6b23b	0.112644635
160	0xbca88fc9	-0.020576375
161	0x3dc8f117	0.09811609
162	0xbc035d89	-0.008017906
163	0xbc594564	-0.013261173
164	0xbdae03b0	-0.08496797
165	0x3d075efc	0.03304957
166	0xbd89ad5e	-0.0672252
167	0xbd11b475	-0.035572488
168	0xbd7348f2	-0.059395738
169	0xbd917be8	-0.07103711
170	0x3d4df64e	0.050283723
171	0x3d0e264e	0.0347045
172	0x3cfcc496	0.030855458
173	0xbc937478	-0.017999873
174	0xbbe7cb3c	-0.007073788
175	0xbdb830e7	-0.089937024
176	0xbdc7d19a	-0.09756775
177	0xbd963609	-0.07334525
178	0x3d0f1867	0.03493538
179	0xba6db876	-0.00090683193
180	0xbd1b7b65	-0.037959475
181	0x391689ef	0.00014356499
182	0x3cac646a	0.021043975
183	0x3cdec300	0.027192593
184	0xbdce020b	-0.100589834
185	0x3d0cdf28	0.034392506
186	0x3d4e88d3	0.050423454
187	0xbb9fd4b7	-0.0048776525
188	0x3deb79d5	0.11497847
189	0xbccbcbef	-0.024877517
190	0x3cd98841	0.026554229
191	0x3d1ed5a5	0.038777966
192	0xbd12cce7	-0.03583994
193	0xbc6a7e7d	-0.014312384
194	0x3d753752	0.05986721
195	0x3b1d1d11	0.0023973624
196	0xbd56589c	-0.0523306
197	0x3d67e76d	0.05661719
198	0xbd604fb9	-0.05476353
199	0x3d0dcea2	0.03462089
200	0x3d05b41d	0.032642473
201	0x3d558789	0.05213121
202	0xbb915f93	-0.004436442
203	0xbbe04eb6	-0.0068453206
204	0x3cc07d13	0.02349714
205	0xbc032289	-0.008003839
206	0xbcc6e599	-0.024279403
207	0xbc74829d	-0.014923719
208	0xbc13a76c	-0.009012084
209	0xbc4c43b3	-0.012467313
210	0xbcb662ce	-0.02226391
211	0xbda403c8	-0.08008534
212	0x3a0eaf5a	0.00054429995
213	0xbdd02968	-0.101641476
214	0xbc9a28c9	-0.018818276
215	0xbca61293	-0.020272529
216	0xbd03702e	-0.032089405
217	0x3d8fcc28	0.070213616
218	0x3d0de11c	0.03463851
219	0x3cc6c37e	0.02426314
220	0xba484a53	-0.00076404697
221	0xbcd41058	-0.0258867
222	0x3d1478ea	0.036248125
223	0xbc2a09e6	-0.0103783365
224	0x3e095799	0.13412322
225	0xbcc58894	-0.024112977
226	0xbcbd77b0	-0.02312836
227	0x3d583608	0.052785903
228	0x3c0d6510	0.008630052
229	0x3d06ac6e	0.032879286
230	0x3d3d92a5	0.04628243
231	0xbcbe7bf4	-0.023252465
232	0xbd672bd5	-0.056438286
233	0x3d261b90	0.04055363
234	0x3c9a6ddb	0.018851211
235	0x3c46c0e7	0.012130952
236	0x3b4afaed	0.0030972317
237	0x3c9ed146	0.019386899
238	0xbc597a3c	-0.013273772
239	0xbc7d4bc5	-0.015459959
240	0x3d85ab05	0.0652676
241	0xbcde9848	-0.027172223
242	0xbc901b10	-0.01759103
243	0xbca54cd7	-0.020178242
244	0x3ce4589a	0.02787428
245	0xbd212f51	-0.039351765
246	0xbd2e9a43	-0.042627584
247	0xbcb9bfb7	-0.022674425
248	0x3d1822e0	0.037142634
249	0xbc993dd7	-0.018706245
250	0x3d8c3371	0.06845749
251	0x3d010139	0.031495307
252	0xbbf9438d	-0.0076069296
253	0x3db3bd95	0.08776394
254	0x3d08591c	0.033288106
255	0x3d074c43	0.033031713

conv2.bias f4 [64]
0	0x3a098c0a	0.00052470027
1	0x3bba6897	0.0056887376
2	0x3b02e773	0.001997438
3	0x3a80bea4	0.000982244
4	0xbbd06364	-0.0063595045
5	0x3b86ce75	0.004113967
6	0x3aeb3815	0.0017945791
7	0x3b30a6ee	0.0026954967
8	0x3ac1d3f1	0.0014787895
9	0x3b6d8033	0.0036239743
10	0x3b3b8ed5	0.002861907
11	0x3bbaad7f	0.005696952
12	0x3bb8ffe4	0.005645739
13	0x3bbbb563	0.00572841
14	0x3b921f52	0.0044593
15	0x3baafc4d	0.005218065
16	0x3a9a6d08	0.0011781761
17	0x3bb76d38	0.0055977367
18	0xbb61096e	-0.0034337896
19	0xbb23bef3	-0.002498564
20	0xbb94d93f	-0.0045424993
21	0xba96659e	-0.0011474376
22	0x3b48227a	0.0030538128
23	0x3b30296a	0.0026880153
24	0xbad1df07	-0.0016011902
25	0xbb800123	-0.0039063855
26	0x3bc2ec59	0.005948585
27	0x3947993c	0.00019035203
28	0xbb5d2090	-0.0033741333
29	0x399b77bb	0.0002965311
30	0x3b9d2666	0.004795837
31	0x3b307d93	0.0026930317
32	0x3b9424c3	0.004520984
33	0xbb20307f	-0.0024442968
34	0x3b589087	0.003304513
35	0xbb1169f9	-0.0022188409
36	0x3aaba15e	0.0013094356
37	0xbac7fe31	-0.001525825
38	0x3b615acb	0.0034386392
39	0xbb85e00c	-0.0040855464
40	0x3b5798d8	0.0032897498
41	0xb989533b	-0.00026192688
42	0x3a45ed4b	0.0007550313
43	0x3b52cab9	0.003216429
44	0xb762dd7d	-1.3522219e-05
45	0xba1acf0a	-0.0005905485
46	0xbae9df1d	-0.0017842982
47	0x3ba0f426	0.0049119173
48	0xbb42f171	-0.002974596
49	0x3c1bfa47	0.00952012
50	0xba68e97f	-0.0008884891
51	0xb98f04f7	-0.00027278785
52	0xbb0beb85	-0.0021350097
53	0x3a0ff623	0.00054916943
54	0xbb13e6f5	-0.002256808
55	0xbb199564	-0.002343499
56	0x3a63701e	0.00086760696
57	0xba065635	-0.000512454
58	0x3b36845e	0.0027849893
59	0xb8576bd3	-5.1360414e-05
60	0x3b0b8dd3	0.002129425
61	0xba35523f	-0.00069168577
62	0xbb94a8d4	-0.0045367274
63	0x3b2ed6cf	0.002667833

conv3.weight f4 [64, 64, 3, 3]
0	0x3d4e7da6	0.050412796
1	0x3d16a0d5	0.036774475
2	0x3d025dc5	0.031827707
3	0x3b3b7d12	0.0028608483
4	0x3a956775	0.001139863
5	0xbc26876b	-0.010164122
6	0x3c4a8d1b	0.012362744
7	0xbca1e878	-0.01976417
8	0x3c55d118	0.01305034
9	0x3cd0a28d	0.025468135
10	0x3c7693d0	0.01504989
11	0x3d1a23e1	0.037631873
12	0x3cbf3daf	0.023344843
13	0xbc83ee33	-0.016104793
14	0xbca47f8e	-0.020080354
15	0xbde95896	-0.113938496
16	0xbd2b614a	-0.04184083
17	0x3ce9998c	0.0285156
18	0x3b3e2a02	0.0029016738
19	0x3a944fbf	0.001131527
20	0x3d1cff6b	0.038329523
21	0xbd9f95f8	-0.07792276
22	0xbd901ae8	-0.07036382
23	0xbc767b17	-0.015043995
24	0xbb33077b	-0.002731769
25	0xbc5bb2b9	-0.01340931
26	0x3c94b953	0.018154776
27	0x395c18da	0.00020990093
28	0xbd20fac5	-0.039301652
29	0xbd8df3e3	-0.06931283
30	0x3ccbb47a	0.024866331
31	0xbc2b19bd	-0.010443148
32	0x3d563f60	0.052306533
33	0xbdbdedfe	-0.09273909
34	0xbc10d40c	-0.008839618
35	0x3c52c251	0.012863711
36	0x3b9ecdac	0.0048462953
37	0xbca12004	-0.019668587
38	0xbc929613	-0.017893827
39	0xbd064431	-0.032779876
40	0xbb98356d	-0.0046450407
41	0x3d670dec	0.05640976
42	0x3d0b0912	0.033944197
43	0xbd08acbd	-0.03336786
44	0x3ca0f723	0.019649094
45	0xbd82993e	-0.06376885
46	0x3dce1ae1	0.100637205
47	0x3dc17776	0.094466135
48	0x3ce9aea1	0.028525652
49	0x3c13edb0	0.009028837
50	0x3d2c4ca7	0.04206529
51	0xbcca0cb3	-0.024664259
52	0xbb7b448b	-0.0038340415
53	0x3d32c119	0.043641184
54	0x3c5820e1	0.013191433
55	0xbd297239	-0.041368697
56	0xbd4dd875	-0.050255258
57	0x3cdb898f	0.026798991
58	0x3d839505	0.064249076
59	0xbc779071	-0.015110121
60	0xbbd59975	-0.0065185376
61	0xbd284481	-0.041080955
62	0xbcd6f4ba	-0.026239742
63	0xbd68bca1	-0.056820516
64	0xbd01ee17	-0.0317212
65	0x3c7a6998	0.015283965
66	0x3dea3f59	0.11437864
67	0xbb2fe02d	-0.00268365
68	0x3b30e0d4	0.0026989477
69	0x3c662fed	0.014049512
70	0x3c2bdbdb	0.010489429
71	0xbca628c6	-0.020283114
72	0x3dc1417a	0.09436317
73	0xbba9b04c	-0.005178487
74	0xbd9d15db	-0.07670184
75	0xbc6afeff	-0.014343022
76	0x3ab7765b	0.0013997065
77	0xbbea50f0	-0.007150762
78	0x3d3334c4	0.043751493
79	0xbd2314fe	-0.03981494
80	0x3d12e811	0.035865847
81	0xbd61be5d	-0.055113185
82	0xbbab70a4	-0.0052319337
83	0x3cdcac3b	0.026937595
84	0xbca23e7d	-0.019805187
85	0x3d06f373	0.032947015
86	0x3d9a0903	0.0752125
87	0xbb89c4f8	-0.0042043887
88	0x3c0e7f76	0.008697381
89	0xbc0df62b	-0.008664648
90	0x3c3d1145	0.011539762
91	0xbce86e7e	-0.028373
92	0xbd2f248c	-0.042759463
93	0x3bd5fdd1	0.0065305014
94	0xbda43ea2	-0.08019759
95	0xbd22d6f3	-0.039755773
96	0xbdf06d2d	-0.11739574
97	0xbbda6a2c	-0.0066654887
98	0xbcd5a713	-0.026080644
99	0x3ce2c619	0.027682351
100	0x3ccd60d0	0.025070578
101	0xbc0fbd5c	-0.008773174
102	0xbd4bbb5c	-0.049739227
103	0x3d3061f2	0.043062158
104	0xbc369287	-0.011143333
105	0xbbf88849	-0.007584606
106	0x3b0f72da	0.0021888525
107	0xbc58c0dc	-0.013229575
108	0xbc77b30b	-0.015118371
109	0xbbda25b5	-0.006657327
110	0x3ccc110c	0.024910472
111	0x3be18a78	0.006882962
112	0xbc878e00	-0.016547203
113	0x3d67ea77	0.056620087
114	0x3d83745d	0.06418679
115	0x3cf297c1	0.029613378
116	0xbda35306	-0.0797482
117	0x3d5febbf	0.054668184
118	0x3d952874	0.072831064
119	0x3d191a59	0.037378643
120	0x3d7e19da	0.062036373
121	0x3d5ef26a	0.054430403
122	0xbccb9678	-0.024852023
123	0x3c427cac	0.011870544
124	0x3bd2bfbf	0.0064315493
125	0x3d4212b9	0.047381137
126	0x3d804b34	0.06264344
127	0x3b0355fd	0.0020040267
128	0x3cb7cc7d	0.022436375
129	0xbcabb22b	-0.02095898
130	0x3cb064bc	0.021532409
131	0xbd25134f	-0.040301617
132	0x3cf3932b	0.029733261
133	0xbcb87c20	-0.022520125
134	0x3b7a1746	0.0038160845
135	0x3d81df1a	0.06341381
136	0x3cec8fb2	0.028877113
137	0xbd278155	-0.040894825
138	0xbd58f59e	-0.052968614
139	0x3bec4ced	0.0072113187
140	0x3dac1418	0.0840227
141	0x3d502432	0.05081577
142	0xbc11b603	-0.008893493
143	0x3d2d5a45	0.042322416
144	0xbd781988	-0.060571223
145	0x3c180e86	0.009280806
146	0x3bfcc6b0	0.007714115
147	0x3d69b0a1	0.057053212
148	0xbb054513	-0.002033536
149	0x3d2a4cd3	0.04157717
150	0x3c063267	0.008190728
151	0xbd84fd97	-0.06493681
152	0x3d98d477	0.074623995
153	0x3d190448	0.0373576
154	0xbcdad8c2	-0.026714686
155	0x3cfbe3d2	0.030748282
156	0xbd547567	-0.051869776
157	0x3d874a33	0.06605949
158	0x3dbaebd4	0.09127012
159	0x3c4fa728	0.0126741305
160	0xbd614417	-0.054996576
161	0x3cee6713	0.029101884
162	0x3dd5cd2a	0.104395226
163	0xbbf8059a	-0.007569027
164	0xbc3f8dd5	-0.01169153
165	0x3d3bfe2f	0.045896705
166	0x3d1ff328	0.03905025
167	0x3c440780	0.011964679
168	0x3c7e09dc	0.01550528
169	0xbd00d47f	-0.031452652
170	0xbd7b918c	-0.0614181
171	0xbb4da1f4	-0.003137705
172	0xbd94eeb6	-0.07272093
173	0xbc945a1d	-0.018109376
174	0x3a8f7cd7	0.0010947239
175	0xbd6505c1	-0.05591369
176	0xbdbd3a0b	-0.092395864
177	0x3c8acdb6	0.016943794
178	0x3c431446	0.011906689
179	0xbdbe8bc5	-0.09304003
180	0x3c813a7a	0.015774954
181	0xbd9c2dc6	-0.07625918
182	0x3d00fd35	0.031491477
183	0x3c24429a	0.010025645
184	0xbcd1adaf	-0.025595514
185	0xbd289d96	-0.04116591
186	0x3db26fd0	0.08712733
187	0xbc4544b2	-0.012040304
188	0xbcb4289f	-0.021992026
189	0x3cc26973	0.023731923
190	0x3da39e5a	0.079891875
191	0xbc288d32	-0.01028757
192	0x3ce08f07	0.02741195
193	0x3d9f413d	0.07776115
194	0x3d1232cd	0.03569298
195	0xbba180ed	-0.004928699
196	0x3caa820e	0.020813968
197	0x3b8cb152	0.004293599
198	0xbc19680a	-0.009363184
199	0xbd657d59	-0.056027744
200	0x3c1b181d	0.009466198
201	0xbc236efa	-0.009975189
202	0xbd474a0a	-0.048654594
203	0xbb8607f2	-0.0040903026
204	0x3c902afc	0.017598622
205	0x3d4f469c	0.050604448
206	0x3c049ea2	0.008094462
207	0xbd2868c3	-0.041115534
208	0xbcac3557	-0.021021528
209	0x3dd3c8ee	0.10341059
210	0xbcc58a64	-0.024113841
211	0x3d9963b1	0.07489718
212	0x3a3fe08d	0.00073195325
213	0xbd0ef26c	-0.03489916
214	0x3c840bff	0.016119001
215	0x3d22f8ee	0.03978818
216	0x3d8b6676	0.06806652
217	0xbcfc32b0	-0.030785888
218	0xbb9d50a1	-0.0048008715
219	0xbd9cdf0a	-0.07659729
220	0xbd6faa98	-0.0585123
221	0x3d7e7ed9	0.06213269
222	0x3c9a0805	0.018802652
223	0x3d4fbf39	0.050719474
224	0x3d689a4f	0.056787785
225	0xbdf46e92	-0.11935152
226	0xbbc064c1	-0.005871386
227	0x3d8d644a	0.06903894
228	0x3da5d673	0.080975436
229	0x3b99f4c0	0.004698366
230	0xbdc0b9e8	-0.09410459
231	0x3d8eaa71	0.06966103
232	0x3d0107b5	0.03150149
233	0x3c1495b7	0.009068898
234	0xbd71f57f	-0.059072014
235	0xbc305d04	-0.010764364
236	0x3d341639	0.043966506
237	0x3d59c31d	0.05316459
238	0x3d387348	0.045031816
239	0x3d2b5f5f	0.041839
240	0xbd015777	-0.031577554
241	0xbb4f8134	-0.0031662704
242	0xbccd8242	-0.025086526
243	0x3d284ef9	0.04109094
244	0x3d6bd27d	0.057573784
245	0xbd0b5632	-0.03401775
246	0x3cd9cc79	0.026586758
247	0x3c656837	0.014001898
248	0xbd06f4ce	-0.032948308
249	0x3ceb0a05	0.028691301
250	0x3d102bfe	0.035198204
251	0x3d9c8d9d	0.07644198
252	0xbd003c91	-0.03130776
253	0xbdc2b9f8	-0.09508127
254	0xbc4d1f9a	-0.012519741
255	0x3cb603c5	0.022218594

conv3.bias f4 [64]
0	0x3cdedea2	0.027205769
1	0x3ce6eb5f	0.028188406
2	0x3ceb0cef	0.02869269
3	0xbc9249b4	-0.01785741
4	0xbcb39850	-0.021923214
5	0xbc2201ce	-0.009888126
6	0x3c80e5ff	0.01573467
7	0x3ceb70c7	0.0287403
8	0x3cee1240	0.029061437
9	0xbcc19ad6	-0.023633402
10	0x3caf318a	0.021385927
11	0xbcb9d7a1	-0.022685828
12	0xbcc663a1	-0.024217429
13	0xbc83d2d9	-0.016091751
14	0x3ccfddac	0.025374256
15	0x3ce234dd	0.027613098
16	0x3c5d2487	0.013497478
17	0x3cbe5d9e	0.023238
18	0x3cc0fcd3	0.023558056
19	0xbacfbea2	-0.001584966
20	0x3cdd75fe	0.027033802
21	0x3c9b570e	0.01896241
22	0x3c0c6b0c	0.008570444
23	0x3b639b9b	0.00347302
24	0x3cb26324	0.02177579
25	0xbc90d618	-0.017680213
26	0x3cefa695	0.029254237
27	0x3c92434c	0.017854355
28	0x3cdbcb1c	0.026830249
29	0x3cebc7f7	0.028781874
30	0x3bd6fd90	0.0065609887
31	0x3ce7b4fa	0.028284539
32	0xbccd52b3	-0.025063848
33	0xbca9d4f8	-0.020731434
34	0xbca20b44	-0.019780762
35	0x3c901233	0.017586803
36	0x3ce5fefa	0.028075684
37	0x3ce4028c	0.027833246
38	0x3cea3642	0.028590325
39	0x3ccf4fb4	0.02530656
40	0x3cddacb2	0.027059887
41	0xbaf0c0e9	-0.0018368039
42	0x3cebaa2d	0.02876767
43	0x3cdd4980	0.027012587
44	0x3cb89a52	0.022534523
45	0x3cc5e92e	0.02415904
46	0x3b95d3e9	0.004572381
47	0x3bed7341	0.0072464054
48	0x3cd9b5a0	0.026575863
49	0x3cd33639	0.025782691
50	0xbc984dba	-0.01859175
51	0x3c898688	0.016787782
52	0xbcb2fe20	-0.021849692
53	0x3cbbd528	0.02292879
54	0xbca08c07	-0.01959802
55	0xbcaa7380	-0.020807028
56	0xbcadc926	-0.02121408
57	0x3c72e3cb	0.014824818
58	0xbac77215	-0.0015216494
59	0x3cdb0df1	0.026740046
60	0x3c58633f	0.013207256
61	0x3c4ffbb5	0.012694289
62	0x3cc31401	0.02381325
63	0xbbffed4d	-0.007810271

bn1.weight f4 [64]
0	0x3f816c15	1.0111109
1	0x3f7ba873	0.9830391
2	0x3f7bdcbc	0.9838369
3	0x3f7d7edc	0.990217
4	0x3f8220f3	1.0166305
5	0x3f7a49f1	0.97769076
6	0x3f80a62e	1.0050714
7	0x3f7a9d0a	0.9789587
8	0x3f819993	1.0124992
9	0x3f82621f	1.0186194
10	0x3f7e20e9	0.99268967
11	0x3f80fa91	1.0076467
12	0x3f81e9bf	1.0149459
13	0x3f7def02	0.9919282
14	0x3f7d1fbd	0.98876554
15	0x3f82a4d7	1.0206555
16	0x3f79ef43	0.9763071
17	0x3f7e8554	0.9942219
18	0x3f818c17	1.0120877
19	0x3f7e50ae	0.9934186
20	0x3f812543	1.0089496
21	0x3f7a2e88	0.9772725
22	0x3f829c4b	1.0203947
23	0x3f82e56e	1.0226266
24	0x3f7dd2c6	0.9914974
25	0x3f8215c9	1.0162898
26	0x3f7c1050	0.9846239
27	0x3f824a64	1.0178952
28	0x3f809fce	1.0048769
29	0x3f7e2b4a	0.99284804
30	0x3f81990e	1.0124834
31	0x3f7c82db	0.9863717
32	0x3f7f993c	0.9984319
33	0x3f7b1d2e	0.980914
34	0x3f7e8e0b	0.9943549
35	0x3f7b0134	0.9804871
36	0x3f7ce9e5	0.98794395
37	0x3f81a1ee	1.0127542
38	0x3f8286fa	1.0197442
39	0x3f7bc668	0.9834962
40	0x3f824f3b	1.0180429
41	0x3f7d1028	0.9885278
42	0x3f8180f9	1.0117484
43	0x3f7d2857	0.9888968
44	0x3f832308	1.0245066
45	0x3f7ef3e1	0.9959088
46	0x3f7d681a	0.9898697
47	0x3f7ba728	0.98301935
48	0x3f7b40d5	0.981458
49	0x3f7b8f29	0.9826532
50	0x3f809a9f	1.0047187
51	0x3f836c66	1.0267456
52	0x3f83ec02	1.0306399
53	0x3f79bc87	0.97553295
54	0x3f82f5eb	1.0231298
55	0x3f7d2684	0.98886895
56	0x3f82ed5a	1.0228684
57	0x3f82980e	1.0202653
58	0x3f818ee2	1.0121729
59	0x3f7d4600	0.98934937
60	0x3f7d5a39	0.98965794
61	0x3f7afbcc	0.9804046
62	0x3f7a2270	0.977088
63	0x3f81ccf3	1.014067

bn1.bias f4 [64]
0	0xbc47aee9	-0.012187698
1	0xbc17ce49	-0.009265491
2	0xbcaecb66	-0.021337222
3	0x3c849c02	0.016187672
4	0x3be7176b	0.007052352
5	0xbcc5c558	-0.024141952
6	0xbcce320d	-0.02517035
7	0xbb475bd4	-0.0030419724
8	0x3bae135e	0.0053123673
9	0x3cb8e48b	0.022569915
10	0x3c2364bf	0.00997275
11	0x3c0d7b74	0.008635391
12	0x3c89f24b	0.016839167
13	0x3ba5b43a	0.005056885
14	0x3afadef6	0.0019139934
15	0xbce4fff6	-0.027954083
16	0xbcc62b05	-0.024190435
17	0xbc945c9c	-0.018110566
18	0xbc276f63	-0.010219428
19	0x3c70ca67	0.014696694
20	0xbca168fa	-0.019703377
21	0xbc904232	-0.01760969
22	0x3ca57cae	0.020201053
23	0x3bddcbe3	0.00676869
24	0x3c248dd6	0.010043582
25	0x3c62f158	0.013851486
26	0x3c1ac4c6	0.0094463285
27	0xbc1662a2	-0.009178789
28	0x3c94b659	0.018153356
29	0xbc88ea93	-0.016713416
30	0xbcb386a4	-0.021914788
31	0xbc7c9f30	-0.015418813
32	0x3c6d3022	0.014476808
33	0x3b80d94e	0.0039321547
34	0xbc07b411	-0.008282677
35	0xbcc002e8	-0.023438886
36	0xb82d3e0b	-4.1304196e-05
37	0xbcd18ee9	-0.02558084
38	0x3c8273d8	0.01592438
39	0x3a45ffc6	0.0007553067
40	0x3c642b94	0.013926405
41	0xbc95b045	-0.018272528
42	0x3c14d61e	0.009084253
43	0xbc8df887	-0.017330421
44	0x3ca3a57f	0.019976376
45	0xbb94d58b	-0.004542058
46	0x3b55851b	0.0032580558
47	0x3c449fa5	0.012000953
48	0x3cd78764	0.026309676
49	0xbb9283bc	-0.0044712704
50	0x3c2a8b41	0.010409177
51	0x3c03b458	0.008038603
52	0x3cba44c5	0.02273787
53	0x3cb2b734	0.021815874
54	0xbb8f1400	-0.004366398
55	0xbbc4677e	-0.0059937825
56	0xbcf718c8	-0.030163184
57	0x3c87f1a6	0.01659472
58	0x3c3950e3	0.011310789
59	0xbc8c630b	-0.017137071
60	0xbae3d45b	-0.0017382012
61	0xbc95dbff	-0.018293379
62	0xbcbecc78	-0.023290858
63	0x3c4aca9e	0.012377409

bn1.running_mean f4 [64]
0	0x3b2a0d0b	0.0025947716
1	0xbc424ecd	-0.011859608
2	0x3c3f806d	0.011688334
3	0xbbd25224	-0.0064184833
4	0xbc21c472	-0.009873496
5	0x3c78cb3c	0.015185174
6	0x3b04aba6	0.0020243912
7	0xbcc41579	-0.02393602
8	0x394af83d	0.00019356697
9	0x3c5cfefa	0.0134885255
10	0xbb34dd7e	-0.002759784
11	0xbc4ce6fb	-0.012506242
12	0x3c58c112	0.013229625
13	0x3ca9b919	0.020718144
14	0x3c16c394	0.009201903
15	0x3c240297	0.010010383
16	0x3bfaef84	0.007657947
17	0x3c000eca	0.007816026
18	0x3cd80ecb	0.026374241
19	0xbc5e52cd	-0.013569546
20	0xbbd64672	-0.0065391595
21	0xb999b49a	-0.00029316993
22	0xbabce6ef	-0.0014412085
23	0xbb1bef6a	-0.0023793825
24	0xbc30d4b8	-0.010792904
25	0xbc30887a	-0.010774726
26	0xbcd00e81	-0.025397541
27	0xbc429dbb	-0.011878426
28	0xba8cf7ed	-0.001075504
29	0xba7044f3	-0.00091655477
30	0x3b79b788	0.0038103778
31	0x3bd96d85	0.00663537
32	0xbb902a01	-0.0043995385
33	0xbc8e1b44	-0.017346986
34	0xba9b4dbd	-0.0011848729
35	0x3c805847	0.015667094
36	0xbb8719c4	-0.0041229445
37	0xbaf62e03	-0.0018782023
38	0xbbb76dce	-0.0055978065
39	0x3b5ca30e	0.0033666524
40	0x3bbb07e2	0.005707727
41	0x3c4d894c	0.012544941
42	0x3b897d1c	0.0041958224
43	0x3c88d748	0.016704217
44	0xbbc094bb	-0.005877105
45	0x3d177aa6	0.0369822
46	0x39750192	0.00023365606
47	0xbc8da7ef	-0.017291991
48	0xb9cace08	-0.00038681948
49	0xbcf2b9a6	-0.02962954
50	0xbcd77005	-0.026298532
51	0x3bd66b44	0.006543549
52	0x3b772d4a	0.0037716203
53	0xbbe72fc1	-0.0070552533
54	0xbc276a0d	-0.010218156
55	0xbbc77da4	-0.0060879756
56	0x3bbc5b09	0.005748157
57	0x3bf59296	0.007494281
58	0xbb7f4421	-0.003895052
59	0xbb802991	-0.003911205
60	0xbc6fafb6	-0.014629295
61	0xba553c0b	-0.0008134252
62	0xbb13f5a3	-0.002257683
63	0xbd2a3384	-0.041553035

bn1.running_var f4 [64]
0	0x3c93ea42	0.018056039
1	0x3c7cad62	0.015422197
2	0x3d1bb6ef	0.038016256
3	0x3c7a1c56	0.015265545
4	0x3ccf0bd8	0.025274202
5	0x3d306a9c	0.04307042
6	0x3cbe705e	0.02324694
7	0x3c222e3d	0.009898719
8	0x3cbb9c94	0.02290181
9	0x3d15f172	0.036607213
10	0x3c2f4292	0.010697024
11	0x3d763a35	0.060114104
12	0x3c1ed30c	0.009693872
13	0x3d29afec	0.041427538
14	0x3cd6b728	0.026210383
15	0x3d0c709a	0.034287073
16	0x3c7b13e9	0.015324571
17	0x3c364393	0.011124509
18	0x3cc11e78	0.023574099
19	0x3c654456	0.013993343
20	0x3c900572	0.017580722
21	0x3c0e146c	0.008671861
22	0x3c460597	0.012086294
23	0x3c28fe8a	0.010314593
24	0x3cc1eae9	0.023671584
25	0x3caae321	0.020860257
26	0x3d60c593	0.05487592
27	0x3cd73dad	0.026274526
28	0x3c6ac61a	0.014329458
29	0x3ca92a89	0.020650165
30	0x3bb7be4e	0.005607403
31	0x3cf99a82	0.030469183
32	0x3c5ed8b6	0.013601473
33	0x3c97b84b	0.018520495
34	0x3cfab4c2	0.03060377
35	0x3cb81604	0.022471435
36	0x3c0ff0c1	0.008785428
37	0x3c4f419c	0.01264992
38	0x3c967d1f	0.01837021
39	0x3cb273dc	0.021783762
40	0x3c275d91	0.010215179
41	0x3cbe981f	0.023265896
42	0x3cc1bb8b	0.023648998
43	0x3d2488d4	0.040169552
44	0x3c28e51a	0.010308528
45	0x3dd56b3a	0.104208425
46	0x3cc7a4fb	0.024370661
47	0x3ca0d87e	0.019634482
48	0x3cde8889	0.027164714
49	0x3dad83fa	0.08472438
50	0x3d7c588e	0.06160789
51	0x3cdb92e8	0.026803449
52	0x3c5c9b72	0.013464795
53	0x3cf6c45b	0.030122926
54	0x3cb98f2e	0.022651281
55	0x3d4c3089	0.049850974
56	0x3cb7b459	0.022424864
57	0x3c221b86	0.009894257
58	0x3cbb4b13	0.022862947
59	0x3bbdc34c	0.0057911035
60	0x3d0ca7ab	0.034339588
61	0x3c95942e	0.018259134
62	0x3cb31291	0.02185944
63	0x3dca483d	0.098770596

bn2.weight f4 [64]
0	0x3f7f65a0	0.9976444
1	0x3f822a57	1.0169171
2	0x3f7ee9f1	0.99575716
3	0x3f7fb63d	0.9988745
4	0x3f830cea	1.0238316
5	0x3f81102d	1.0083061
6	0x3f7f795c	0.99794555
7	0x3f803b47	1.001809
8	0x3f7b6f47	0.9821667
9	0x3f830ac6	1.0237663
10	0x3f7ef9be	0.99599826
11	0x3f824dc5	1.0179983
12	0x3f7dcd38	0.99141264
13	0x3f7a75ee	0.97836196
14	0x3f7d7ede	0.9902171
15	0x3f801a86	1.0008094
16	0x3f7d1430	0.9885893
17	0x3f7d61a7	0.9897713
18	0x3f7ad422	0.9797994
19	0x3f80e759	1.0070602
20	0x3f7c52de	0.98563945
21	0x3f7c37cc	0.9852264
22	0x3f792538	0.97322416
23	0x3f80da9c	1.0066714
24	0x3f7f3ffe	0.9970702
25	0x3f82e250	1.0225315
26	0x3f7a6506	0.978104
27	0x3f82a2a1	1.020588
28	0x3f7d5cf7	0.9896998
29	0x3f7a048f	0.97663206
30	0x3f81beec	1.013639
31	0x3f81175e	1.0085256
32	0x3f7f8272	0.9980842
33	0x3f7c8008	0.9863286
34	0x3f7d3383	0.98906726
35	0x3f7ed5bb	0.99544877
36	0x3f8086e1	1.0041162
37	0x3f826080	1.01857
38	0x3f81038d	1.0079209
39	0x3f7a9d4b	0.9789626
40	0x3f807cb5	1.0038058
41	0x3f826f74	1.0190263
42	0x3f7f37de	0.9969462
43	0x3f7d4d12	0.98945725
44	0x3f7c1b82	0.98479474
45	0x3f82bcf2	1.0213912
46	0x3f82558d	1.0182358
47	0x3f7f8f84	0.9982836
48	0x3f81a1c2	1.012749
49	0x3f7e6f78	0.9938884
50	0x3f8094d8	1.0045424
51	0x3f7d58bf	0.9896354
52	0x3f7c994d	0.9867142
53	0x3f81cea8	1.0141191
54	0x3f8088d0	1.0041752
55	0x3f7c513a	0.9856144
56	0x3f817d02	1.0116274
57	0x3f7b0d99	0.98067623
58	0x3f7f6648	0.99765444
59	0x3f8025dc	1.0011554
60	0x3f7cb4c1	0.9871331
61	0x3f79f1f8	0.9763484
62	0x3f80e8e7	1.0071076
63	0x3f7e7b4d	0.9940689

bn2.bias f4 [64]
0	0x3c757ad5	0.014982899
1	0x3b0f0b9f	0.0021826995
2	0xbc8b8a67	-0.017033769
3	0xbca873e1	-0.020563068
4	0x3cf97bf8	0.03045462
5	0xbb880173	-0.0041505634
6	0xbceb9131	-0.028755756
7	0x3c0c6e41	0.008571208
8	0xbbac8372	-0.005264693
9	0xba10138b	-0.0005496076
10	0x3d01f4d0	0.031727612
11	0xbc7ade09	-0.015311726
12	0x3c6941c4	0.014236871
13	0xbbca722f	-0.0061781625
14	0x3c15ead2	0.009150224
15	0xbc06474a	-0.008195708
16	0xbc2e4fb0	-0.010639116
17	0xbb07ae0f	-0.0020703112
18	0xbcdbdd8b	-0.026839038
19	0x3b4a9dca	0.0030916804
20	0xbcb0c770	-0.021579474
21	0xbc5d09f1	-0.01349114
22	0xbced8bdd	-0.028997356
23	0xbc809adf	-0.015698848
24	0x3c95000f	0.018188505
25	0xbc6cb679	-0.014447802
26	0xbc89c327	-0.016816689
27	0xbccc09e2	-0.024907056
28	0x3c27b973	0.010237086
29	0xbc49deeb	-0.012321214
30	0xbc9f61eb	-0.01945587
31	0x3cabbfb9	0.020965444
32	0xbc44e969	-0.01201854
33	0x3c97cb64	0.018529601
34	0x3bed647e	0.0072446456
35	0x3c05ac77	0.008158795
36	0xbc89b660	-0.016810596
37	0x3c185f0f	0.0093000075
38	0xbc6d2b20	-0.014475614
39	0xbcac3c2b	-0.021024784
40	0xbc231bb0	-0.009955332
41	0xbc66c48c	-0.014084946
42	0x3cac0345	0.020997653
43	0xbc152a6b	-0.0091043515
44	0xbc9fd900	-0.019512653
45	0xba03819c	-0.0005016567
46	0x3ce2b171	0.027672501
47	0xbcf26ebf	-0.029593823
48	0x3c771ec3	0.015083018
49	0x3cea727b	0.028619042
50	0xbc1c7f36	-0.009551814
51	0xbcb88248	-0.02252306
52	0xbca9677a	-0.020679224
53	0x3b9ed336	0.0048469556
54	0x3c567ec7	0.0130917495
55	0xbc12dba0	-0.0089634955
56	0xbc993c7c	-0.018705599
57	0x3c15fac4	0.009154025
58	0x3cc153ea	0.023599584
59	0xbca907ae	-0.020633545
60	0xbbe677ec	-0.007033339
61	0x3c383355	0.011242707
62	0xbc19bd96	-0.00938358
63	0x3bdde4be	0.006771653

bn2.running_mean f4 [64]
0	0x3ff9175f	1.9460257
1	0xbdd7df0e	-0.10540591
2	0xbe5901ae	-0.21192047
3	0xc00f7dbb	-2.242049
4	0x3eb8020d	0.35939065
5	0x3fd8cbaf	1.6937159
6	0xbd066c25	-0.03281798
7	0x3ff871d7	1.9409741
8	0x3fe7d1c9	1.8110896
9	0xbea3b4f4	-0.31973994
10	0x3f3c3f70	0.735343
11	0x3f569171	0.83815676
12	0xbe66d987	-0.22543918
13	0xbec0d8aa	-0.37665302
14	0x3f75f2e2	0.96073735
15	0x3fb26d35	1.3939577
16	0xc0014dd8	-2.0203762
17	0x3fafb3f2	1.372679
18	0xbf7e52f0	-0.993453
19	0xbee68098	-0.45019984
20	0xbf8ccf1f	-1.1000708
21	0xc033dfaf	-2.8105276
22	0xbe847893	-0.2587324
23	0x403db9f8	2.9644756
24	0x3f1da263	0.6157591
25	0x3f89e0fc	1.0771785
26	0xbe3911bd	-0.18073173
27	0xbf17f743	-0.59361666
28	0x3febafe0	1.8413048
29	0x3fb58306	1.418061
30	0x3f5cb6ff	0.8621673
31	0xbc858de3	-0.016303008
32	0xc05eb45b	-3.479758
33	0x3ef8e44a	0.4861167
34	0x3f521875	0.8206857
35	0xbe13a43b	-0.14418118
36	0xbf1b5d6e	-0.6068944
37	0x3ea559ba	0.32295018
38	0x4032e060	2.7949448
39	0xbea47086	-0.321171
40	0x3ff418f9	1.9070121
41	0x3fd617ab	1.6725973
42	0x3f8fa9bd	1.1223675
43	0xc00a060e	-2.1566195
44	0x40111b59	2.2672942
45	0x4032cc82	2.7937322
46	0x3f248b44	0.64275
47	0x40183e3c	2.3787985
48	0xbe4f86b8	-0.20266235
49	0x3fbec7f5	1.4904772
50	0x3fdb999a	1.715625
51	0x401fb396	2.495336
52	0xbe3856e1	-0.18001892
53	0x3e1b2297	0.15149914
54	0x40152856	2.330587
55	0x3fdaa24a	1.7080777
56	0x4015ba9e	2.3395152
57	0xbee79c86	-0.45236605
58	0x40275a26	2.6148772
59	0x3d93764d	0.072002985
60	0xc04de45b	-3.2170627
61	0x403d2a06	2.95569
62	0x40145efe	2.3182979
63	0x3f39f69f	0.7264194

bn2.running_var f4 [64]
0	0x410d31bb	8.824641
1	0x4085474a	4.1649523
2	0x4073cfd8	3.8095608
3	0x410c3beb	8.764628
4	0x40882a60	4.2551727
5	0x40cb5c48	6.355015
6	0x404008c9	3.0005362
7	0x41038749	8.220529
8	0x41056b51	8.3387
9	0x4042932c	3.0402327
10	0x3fb5811d	1.4180027
11	0x4056a091	3.3535502
12	0x3feb7b67	1.8397034
13	0x407cfc51	3.9529002
14	0x40275ee7	2.6151674
15	0x40476176	3.1153235
16	0x40e15a50	7.0422745
17	0x40957de9	4.67162
18	0x403d6c1e	2.959724
19	0x4015ddca	2.341662
20	0x409cd9b1	4.9015737
21	0x40e8d986	7.276553
22	0x406e0b5e	3.7194438
23	0x41252071	10.32042
24	0x3fc36cbe	1.526756
25	0x4067e61d	3.62342
26	0x4019fa8a	2.4059167
27	0x406e998d	3.728122
28	0x40eb1e98	7.3474846
29	0x40f5f9e4	7.686754
30	0x40af3b83	5.4760146
31	0x407d1234	3.954236
32	0x415de93b	13.869441
33	0x4070be30	3.7616081
34	0x4001cee2	2.0282521
35	0x402bd22c	2.6847029
36	0x40343cbd	2.8162072
37	0x4011042d	2.2658799
38	0x4109685d	8.587979
39	0x40709c5c	3.7595434
40	0x40e5b760	7.1786346
41	0x408679ed	4.2023835
42	0x4091e8e3	4.5596786
43	0x40eb12d8	7.3460503
44	0x40c10243	6.031526
45	0x410578f1	8.342027
46	0x400b36c6	2.175218
47	0x41103c3d	9.014707
48	0x40670d6e	3.6101947
49	0x405c8821	3.4458086
50	0x40b3da0d	5.6203675
51	0x40f6633e	7.6996145
52	0x401c9ad0	2.446949
53	0x40b3dfd7	5.621074
54	0x40f4719d	7.638869
55	0x40b73c74	5.7261295
56	0x41109719	9.036889
57	0x40660ae0	3.5944138
58	0x4123d49b	10.239406
59	0x40a2000d	5.062506
60	0x4137935b	11.473475
61	0x4152e42b	13.180705
62	0x410778a9	8.466958
63	0x40339cc4	2.8064432

bn3.weight f4 [64]
0	0x3f842593	1.0323967
1	0x3f845ef8	1.0341482
2	0x3f845a07	1.0339974
3	0x3f843261	1.0327874
4	0x3f842bec	1.0325904
5	0x3f846809	1.0344249
6	0x3f8458d0	1.0339603
7	0x3f845def	1.0341166
8	0x3f8455a9	1.0338641
9	0x3f845f7f	1.0341643
10	0x3f84462b	1.0333914
11	0x3f844793	1.0334343
12	0x3f846315	1.0342737
13	0x3f845c0b	1.0340589
14	0x3f8451ac	1.0337424
15	0x3f843b4c	1.0330596
16	0x3f8453c5	1.0338064
17	0x3f842ebf	1.0326766
18	0x3f846e71	1.0346204
19	0x3f8460a4	1.0341992
20	0x3f843fbe	1.0331953
21	0x3f8430ae	1.0327356
22	0x3f848016	1.0351589
23	0x3f8424f8	1.0323782
24	0x3f847129	1.0347034
25	0x3f844be3	1.0335659
26	0x3f844399	1.0333129
27	0x3f8470a2	1.0346873
28	0x3f84229e	1.0323064
29	0x3f845d13	1.0340904
30	0x3f84251d	1.0323826
31	0x3f8446b3	1.0334076
32	0x3f846d75	1.0345904
33	0x3f84423a	1.0332711
34	0x3f845915	1.0339686
35	0x3f84222d	1.032293
36	0x3f8469fd	1.0344845
37	0x3f8464cc	1.0343261
38	0x3f846697	1.0343808
39	0x3f845d7b	1.0341028
40	0x3f8438cc	1.0329833
41	0x3f845622	1.0338786
42	0x3f846e44	1.034615
43	0x3f844335	1.033301
44	0x3f8460f2	1.0342085
45	0x3f8442dd	1.0332905
46	0x3f848086	1.0351722
47	0x3f844fa3	1.0336803
48	0x3f844ceb	1.0335974
49	0x3f8442e0	1.0332909
50	0x3f844351	1.0333043
51	0x3f847370	1.0347729
52	0x3f8465d9	1.0343581
53	0x3f8448cd	1.0334717
54	0x3f844f00	1.0336609
55	0x3f846eac	1.0346274
56	0x3f84588e	1.0339525
57	0x3f8439e7	1.033017
58	0x3f8453eb	1.033811
59	0x3f844181	1.033249
60	0x3f8455e8	1.0338717
61	0x3f84530b	1.0337843
62	0x3f8454df	1.0338401
63	0x3f8443e1	1.0333215

bn3.bias f4 [64]
0	0x3d057b9a	0.03258858
1	0x3d02e60c	0.03195767
2	0x3d02e9ba	0.03196118
3	0x3cf1263b	0.029437175
4	0x3d0166c6	0.031592153
5	0x3ce2e08a	0.02769496
6	0x3d01bc70	0.03167385
7	0x3d03c311	0.03216845
8	0x3cff0990	0.03113249
9	0x3d0458f5	0.0323114
10	0x3cf8f278	0.030389056
11	0x3d04b144	0.032395616
12	0x3d0a55a9	0.0337731
13	0x3d0af7f1	0.03392786
14	0x3d09a883	0.03360797
15	0x3d0dbfb5	0.034606654
16	0x3d0f17ef	0.034934934
17	0x3d0e44d0	0.034733593
18	0x3d0beb55	0.034159977
19	0x3d104cf0	0.035229623
20	0x3d11c4c0	0.035588026
21	0x3cd75d5e	0.026289638
22	0x3cf16723	0.029468125
23	0x3d00a060	0.031402946
24	0x3d0ebacb	0.03484611
25	0x3cfd328e	0.030907895
26	0x3d0d3e3c	0.03448318
27	0x3d01147a	0.03151367
28	0x3d0b341a	0.033985235
29	0x3cfa01e4	0.03051848
30	0x3cd81ad6	0.026379984
31	0x3d039c10	0.032131255
32	0x3d04982e	0.032371692
33	0x3d07f30f	0.033190783
34	0x3d07d543	0.033162367
35	0x3d092870	0.03348583
36	0x3d0ea795	0.034827787
37	0x3c9d5467	0.019205285
38	0x3d095b65	0.033534426
39	0x3d0b88f4	0.034066156
40	0x3d02a6bc	0.03189729
41	0x3ceedf32	0.029159162
42	0x3caac555	0.020846048
43	0x3d0d9c4f	0.034572896
44	0x3d042a2f	0.032266792
45	0x3ce1195c	0.027477913
46	0x3cf9df9e	0.030502137
47	0x3d028e7d	0.03187417
48	0x3d01c73d	0.03168415
49	0x3d0b9830	0.034080684
50	0x3cfc29a9	0.030781584
51	0x3d0b0c79	0.03394744
52	0x3cf866bb	0.030322423
53	0x3d0e8fd6	0.03480514
54	0x3d0a296c	0.03373091
55	0x3d0935d8	0.033498615
56	0x3d07922e	0.033098392
57	0x3d03eb1b	0.032206636
58	0x3d10c1c2	0.03534103
59	0x3d0403a1	0.032230023
60	0x3ccc18d1	0.024914177
61	0x3ce84c6a	0.02835675
62	0x3d0d0b4f	0.034434613
63	0x3cf3e97f	0.029774426

bn3.running_mean f4 [64]
0	0x400478cc	2.0698729
1	0x3f849bf0	1.0360088
2	0x3fd1e30d	1.6397415
3	0xbe76e7bc	-0.24111837
4	0xbf147f1e	-0.58006465
5	0xbde190d9	-0.110139556
6	0x3fda0179	1.70317
7	0x3ff92d39	1.9466926
8	0x3ffa8921	1.9573098
9	0xbffbfd9a	-1.9686768
10	0x3fee4610	1.8615131
11	0xbe9a3cac	-0.30124414
12	0xbfe5e81e	-1.7961462
13	0xbf20410a	-0.6259924
14	0x3fc1f36c	1.5152411
15	0x401a5469	2.411402
16	0x3eaed431	0.34146264
17	0x3f2f07bc	0.68371177
18	0x3f84a158	1.0361738
19	0xbedb4f6b	-0.4283403
20	0x4006c56e	2.1058002
21	0x3efaba1e	0.4897012
22	0x3e08f74d	0.13375588
23	0xbf2004a1	-0.62507063
24	0x3f036c53	0.51337165
25	0xbee0567b	-0.4381598
26	0x402750bb	2.6143024
27	0x3f8237ca	1.0173275
28	0x40479b78	3.118864
29	0x3f6069e7	0.87661594
30	0x3fb18084	1.3867345
31	0x3ff614c5	1.9225088
32	0xbe9c4d4e	-0.3052773
33	0xbf67a3c0	-0.9048424
34	0xc02d3fac	-2.7070112
35	0x3e1f6bd6	0.1556848
36	0x3fc4c353	1.5372108
37	0x4010c232	2.2618527
38	0x3f8c1b5f	1.0945853
39	0x3fc6c1a5	1.5527846
40	0x3fef8a89	1.8714153
41	0x3f6a9828	0.9163842
42	0x402029b5	2.5025456
43	0x401d10f0	2.4541588
44	0x40093407	2.1438005
45	0x3f882ae2	1.0638087
46	0x3fdd48be	1.7287824
47	0x3fc02022	1.5009806
48	0x3fa95d3d	1.3231579
49	0x3fbd38a1	1.4782907
50	0xbf655061	-0.89575773
51	0x3fb2742f	1.3941706
52	0xbe9b8ce3	-0.30380926
53	0x3f9e7e49	1.2382289
54	0xc001a282	-2.0255437
55	0xbf33f1a3	-0.70290583
56	0xbfc8695d	-1.5657154
57	0x3f05abdb	0.52215356
58	0x3f157c42	0.5839273
59	0x40066d03	2.1004035
60	0x3f8517cc	1.0397887
61	0x3d564cd3	0.05231936
62	0x3fc3b6ca	1.5290158
63	0xbf36e01b	-0.7143571

bn3.running_var f4 [64]
0	0x3fc06cca	1.50332
1	0x3f40f712	0.75377
2	0x3fd508a6	1.6643264
3	0x3fc88c86	1.5667884
4	0x3f28cdd3	0.6593906
5	0x3fb75171	1.4321729
6	0x3f70ea7d	0.941078
7	0x3f80cb66	1.0062072
8	0x3f6bfb54	0.9218037
9	0x3faa27f1	1.3293439
10	0x3f8a8986	1.0823219
11	0x3ed915a3	0.4239932
12	0x4070049a	3.7502809
13	0x3f677d1f	0.90425295
14	0x3fa04aaa	1.2522786
15	0x400e2a3c	2.2213278
16	0x3f6fd746	0.93687856
17	0x3fae5dda	1.3622391
18	0x3fc2d204	1.5220342
19	0x3fa40962	1.2815363
20	0x3f5b7be1	0.857359
21	0x3f71cd8f	0.9445428
22	0x3f8098b5	1.0046602
23	0x3fda5563	1.7057308
24	0x3fa5a491	1.2940847
25	0x3f582269	0.84427506
26	0x400baaa6	2.1822906
27	0x3fd6dd98	1.6786375
28	0x3fefe5d1	1.8742009
29	0x3fabfb05	1.343598
30	0x3ff9865e	1.9494131
31	0x3fcbe334	1.5928712
32	0x3fcb7162	1.5893977
33	0x40192df2	2.3934293
34	0x3fa26ac3	1.2688831
35	0x3fbd207b	1.4775537
36	0x3f259670	0.64682674
37	0x3f8d6c74	1.1048722
38	0x3f8aa5de	1.0831869
39	0x3fa45bb2	1.2840483
40	0x3f888c0d	1.066774
41	0x3f9fbc91	1.2479421
42	0x3fbbdffd	1.4677731
43	0x3febd13f	1.8423232
44	0x3fb3a0c8	1.4033442
45	0x3fc24f70	1.5180492
46	0x3f8eaacc	1.1145873
47	0x3fa51faf	1.2900294
48	0x3f2c7a42	0.6737405
49	0x3f9ecb26	1.2405746
50	0x3fa1816d	1.2617623
51	0x3f39926b	0.7248904
52	0x3fcec66f	1.6154307
53	0x3fd30bc8	1.648797
54	0x4046fa0f	3.1090124
55	0x3fa9ac57	1.3255719
56	0x3f432a6e	0.7623662
57	0x3f64e862	0.8941709
58	0x3fb5eb91	1.4212514
59	0x40001f2a	2.001902
60	0x3fa633e4	1.2984586
61	0x3f6e7043	0.9314005
62	0x3f02f202	0.51150525
63	0x3fa9ee28	1.3275805
