maml-notebook_original_test/maml-notebook/model/model-epoch_00019-train_loss_0.157-train_acc_0.828-test_loss_0.607-test_acc_0.820.pt (torch_old, 305688 bytes, 20 tensors)

conv1.weight f4 [64, 1, 3, 3]
0	0x3a53634f	0.00080638094
1	0x3d5550fe	0.052079193
2	0x3d81c0b8	0.06335586
3	0xbd9fff0f	-0.078123204
4	0x3d917f26	0.0710433
5	0x3c99ae9c	0.018760018
6	0xbb5087cd	-0.0031819225
7	0xbce68107	-0.028137697
8	0x3cd7e4ff	0.026354311
9	0x3d0d1f35	0.03445359
10	0xbc3992f2	-0.011326538
11	0xbb471bbc	-0.0030381521
12	0xbb84e4c4	-0.0040555913
13	0xbcceaca5	-0.025228808
14	0xbda86ca7	-0.08223849
15	0xbd39ebe4	-0.04539098
16	0x3b03b1de	0.002009503
17	0xbc0886df	-0.008332937
18	0xbd7fe3fc	-0.062473282
19	0x3e0ad0c8	0.13556206
20	0x3e0a3d25	0.13499887
21	0xbdafd724	-0.08585957
22	0xbd1d975b	-0.038474422
23	0xbdaaf13a	-0.083467916
24	0xbca5619a	-0.020188142
25	0x3db7fc39	0.089836545
26	0x3aa3c31f	0.0012494064
27	0xbd1039d9	-0.035211418
28	0xbd1ba342	-0.03799749
29	0x3c1b18f1	0.009466396
30	0xbd4f1da4	-0.050565377
31	0x3dbdbc2f	0.09264409
32	0xbdeee0f0	-0.11663997
33	0xbd03ff58	-0.032225937
34	0x3c471a0b	0.012152205
35	0x3bcfd52b	0.0063425503
36	0xbd7fb690	-0.062429965
37	0x3b8b42ae	0.004249892
38	0xbe0b93ea	-0.13630643
39	0xbd5112e2	-0.0510434
40	0x3a1a7eca	0.0005893527
41	0x3d90588a	0.070481375
42	0xbc6c1c39	-0.014411026
43	0xbcd45b60	-0.025922477
44	0x3c3ebca5	0.011641656
45	0x3dd2e65d	0.102978446
46	0xbd9f7416	-0.077858135
47	0xbd497e62	-0.049192794
48	0xbdd1585e	-0.10221933
49	0x3c3d7ecc	0.011565875
50	0x3d1f5e36	0.038908206
51	0x3e620cf9	0.22075261
52	0xbba5a860	-0.0050554723
53	0x3ba0c926	0.0049067913
54	0xbd016a68	-0.031595618
55	0x3ca48d1d	0.02008682
56	0x3dce7162	0.1008022
57	0xbceca5f8	-0.028887734
58	0xbdf25b5c	-0.11833832
59	0xbdefb25b	-0.117039405
60	0x3d6891b5	0.056779582
61	0x3d670a14	0.056406096
62	0x3d33f7f0	0.043937624
63	0x3c6bdd45	0.0143960165
64	0xbcdc0871	-0.026859494
65	0x3c7fa349	0.015602895
66	0xbce3c86b	-0.027805528
67	0x3c9291c5	0.017891774
68	0xbd82a5b2	-0.0637926
69	0xbd32a067	-0.043610003
70	0x3b7b1640	0.0038312823
71	0xbbc09290	-0.0058768466
72	0xbdb10153	-0.08642831
73	0x3d02e78a	0.031959094
74	0x3d082e43	0.033247244
75	0xbb8c0f46	-0.0042742817
76	0xbd7baa8c	-0.061441943
77	0x3ca11916	0.019665282
78	0xbdbd3dc2	-0.09240295
79	0xbc2606ee	-0.010133488
80	0x3ceb0b4f	0.028691916
81	0xbd7cbed6	-0.061705433
82	0xbdbf7cb3	-0.09349956
83	0x3d623b88	0.055232555
84	0x3dd20902	0.10255624
85	0x3d907f32	0.070555106
86	0xbd5c92d0	-0.05385095
87	0x3d102dd1	0.035199944
88	0x3dd08a9f	0.1018269
89	0x3d1a747a	0.037708737
90	0x3d2f956d	0.042867113
91	0x3d98f732	0.07469024
92	0xbd13689e	-0.035988443
93	0xbd28b215	-0.041185457
94	0x3cc8efef	0.024528472
95	0x3c569e84	0.0130993165
96	0x3c9b3bce	0.018949416
97	0x3c943506	0.01809169
98	0x3cb8f1a1	0.022576155
99	0x3dcf1ba1	0.10112692
100	0xbd1b6624	-0.037939206
101	0xbd8cb0db	-0.0686967
102	0xbe1a1e91	-0.15050723
103	0xbe176f8c	-0.14788646
104	0xbc5b592b	-0.0133879585
105	0xbcada59e	-0.021197136
106	0x3c8bc904	0.017063625
107	0x3c9023a2	0.017595116
108	0xbc378d7b	-0.011203165
109	0x3c93ab1b	0.018025925
110	0x3c01d80f	0.007925048
111	0x3c9447ef	0.018100707
112	0x3c0127a8	0.00788299
113	0xba168938	-0.0005742493
114	0xbccf0ad0	-0.02527371
115	0x3dcd2ec0	0.100186825
116	0xbd74ad3d	-0.059735525
117	0xbc15eccb	-0.009150694
118	0x3caa5c7b	0.020796051
119	0x3de80c1a	0.11330433
120	0x3d72cd08	0.059277564
121	0x3a3b8b0f	0.0007154205
122	0xbc47f9e7	-0.012205577
123	0x3e179836	0.14804158
124	0xbd9bf74b	-0.07615527
125	0x3d246492	0.040134974
126	0x3d8e9a8e	0.06963073
127	0x3def2107	0.11676221
128	0xbd85dde8	-0.06536466
129	0x3d5f97dc	0.054588184
130	0xbb904e69	-0.0044038785
131	0x3d2cf68d	0.042227317
132	0xbcbaf15d	-0.02282017
133	0xbc57cdd0	-0.013171628
134	0xbd8b0eeb	-0.06789955
135	0xbd05cbd5	-0.032665092
136	0x3c854077	0.01626609
137	0x3cd8993a	0.026440252
138	0xbe00161a	-0.12508431
139	0x3d7e7a51	0.06212837
140	0x3dd31f5b	0.10308715
141	0xbd5afb36	-0.05346223
142	0x3cc59c45	0.024122367
143	0x3c86d1f6	0.016457539
144	0xbd8a7ca2	-0.06762053
145	0xbcfb7a20	-0.030697882
146	0x3cc79d4c	0.024366997
147	0x3d8d701d	0.069061495
148	0x3c06dca6	0.008231318
149	0xbd5843ef	-0.05279916
150	0x3d8773e9	0.06613905
151	0xbc3d7a8b	-0.011564861
152	0x3d8ba508	0.068185866
153	0xbc94e41c	-0.018175177
154	0x3bb83871	0.0056219627
155	0xbd71c3ee	-0.059024744
156	0x3d7cda57	0.061731663
157	0x3d8d677b	0.06904503
158	0x3d179bc9	0.037013803
159	0xbce3ceca	-0.027808566
160	0xbdb8baf7	-0.09020036
161	0x3d41b6b4	0.04729338
162	0x3d9741ed	0.07385621
163	0x3cd73670	0.026271075
164	0x3da92043	0.082581066
165	0xbca548ac	-0.020176254
166	0x3d9e0749	0.07716233
167	0xbc20cab0	-0.0098139495
168	0x3d9a94db	0.07547923
169	0x3cf59e1e	0.029982623
170	0xbd4f694b	-0.050637525
171	0xbd2b70a7	-0.04185548
172	0x3d5a7b78	0.053340405
173	0x3d07b2ab	0.033129375
174	0xbd2b9a1d	-0.04189502
175	0x3ba20b04	0.004945161
176	0xbd91bbdc	-0.071159095
177	0x3c8209c9	0.015873807
178	0x3c972c84	0.018453844
179	0xbda9e0b5	-0.082948126
180	0xbdc09c61	-0.09404827
181	0x3c9cb849	0.019130843
182	0x3d867eb8	0.065671384
183	0xbb38b614	-0.00281847
184	0x3ca222a4	0.019791909
185	0xb92090d3	-0.0001531274
186	0xbd9f4cbf	-0.0777831
187	0x3c0deef8	0.008662932
188	0x3cdfcfc9	0.02732076
189	0x3ccce9e5	0.025013873
190	0xbd87074d	-0.065931894
191	0x3d197ccd	0.037472535
192	0xbd173c33	-0.036922645
193	0x3c47293c	0.012155827
194	0x3c928239	0.01788436
195	0x3db90acf	0.09035265
196	0xbd02f7f8	-0.031974763
197	0x3d16f127	0.036851075
198	0xbd68765c	-0.0567535
199	0x3d3c1ccf	0.04592591
200	0xbdc610c8	-0.096711695
201	0xbcabc241	-0.02096665
202	0x3c78cf35	0.015186121
203	0xbc8ab441	-0.016931655
204	0xbcd0661c	-0.025439315
205	0x3c072227	0.008247889
206	0x3ba9a3e3	0.0051770075
207	0x3b591341	0.0033123048
208	0xbc9e4243	-0.019318705
209	0xbcc9bae7	-0.024625255
210	0x3d7e836c	0.062137052
211	0x3d9edad8	0.07756585
212	0x3ce2fc49	0.02770819
213	0xbd4f7874	-0.050651982
214	0x3a94d8b5	0.0011356088
215	0x3b49a630	0.0030769221
216	0x3bc31795	0.005953739
217	0xbd3ac2c1	-0.045595888
218	0xbd70353d	-0.058644522
219	0xbc0ef60d	-0.008725655
220	0xbde36fd2	-0.111053124
221	0x3daa43c6	0.08313708
222	0xbca209e9	-0.019780116
223	0xbd0a24d7	-0.03372654
224	0x3d9db08b	0.076996885
225	0xbd467ad6	-0.04845699
226	0xbddfce8b	-0.10928067
227	0xbd22efff	-0.03977966
228	0x3d1b5417	0.03792199
229	0x3c8d18a9	0.017223673
230	0x3df9ccf6	0.12197296
231	0xbc86d464	-0.016458698
232	0xbcb9c86e	-0.02267858
233	0xbc88db5e	-0.016706165
234	0xbe0de9cc	-0.13858718
235	0xbd634149	-0.055482183
236	0xbd9e39d6	-0.07725875
237	0x3d25f667	0.04051819
238	0xbd833867	-0.06407242
239	0xbd870711	-0.06593145
240	0xbce323de	-0.027727064
241	0x3b6b8e57	0.0035942995
242	0x3ddf11bc	0.108920544
243	0xbd5e1c83	-0.05422641
244	0xbc0e7ab8	-0.008696251
245	0xbd2a4452	-0.04156906
246	0xbd50dd99	-0.050992582
247	0xbdb79e4d	-0.0896574
248	0xbd149e33	-0.036283683
249	0x3d9b9bbc	0.07598063
250	0x3db1b528	0.08677131
251	0x3cb4c310	0.02206567
252	0xbcf65b7b	-0.030072918
253	0x3d59e356	0.05319532
254	0xbd7e40c7	-0.062073495
255	0xbcd016fe	-0.025401589

conv1.bias f4 [64]
0	0xbb6c9c9e	-0.0036104093
1	0xba3c8377	-0.00071912206
2	0x3bd07492	0.0063615525
3	0x3ba4b593	0.005026528
4	0x3b660e5f	0.003510378
5	0x3b9faba0	0.004872754
6	0x3b222e27	0.0024746747
7	0xbc236ee9	-0.0099751735
8	0x3c17e904	0.009271864
9	0xbab15c10	-0.0013531465
10	0xbc0a7b07	-0.008452184
11	0x3abe6ada	0.0014527694
12	0x3bd4ba59	0.006491941
13	0x3b081155	0.0020762284
14	0x3b881478	0.0041528307
15	0x3bfaf066	0.0076580523
16	0x3a4300d3	0.00074387825
17	0x3bc9e25c	0.0061610173
18	0x3c1b35ff	0.009473323
19	0xbb8c7fb9	-0.0042876867
20	0xbbe1e3f8	-0.006893631
21	0xbb8ae1a7	-0.0042383256
22	0x3c03432d	0.008011621
23	0xbbead17a	-0.007166085
24	0xbb70f015	-0.0036764194
25	0xbb27a67f	-0.0025581417
26	0xbb9eebd1	-0.004849889
27	0xbbb9b687	-0.005667511
28	0x3b6c5f04	0.0036067376
29	0xbb18dbdd	-0.0023324408
30	0xbb049b66	-0.0020234226
31	0x3a503ebb	0.0007943918
32	0xbba1ba21	-0.0049355184
33	0xbb90b5b2	-0.004416191
34	0xba30d097	-0.00067449495
35	0x3bb1c14d	0.0054246546
36	0xbb13cce2	-0.002255254
37	0xbb4d6a86	-0.003134401
38	0x3ba3d7e1	0.0050001
39	0x3b3970a7	0.0028295906
40	0x3a9a4a74	0.0011771456
41	0x3bace74b	0.0052765957
42	0xbac277b5	-0.0014836701
43	0xba6a222a	-0.00089314824
44	0xbbbcef34	-0.00576582
45	0x3ae8ae46	0.0017752133
46	0x3c20d2ef	0.0098159155
47	0xbb9e1694	-0.004824469
48	0x3c153a74	0.009108175
49	0xbb8ae02c	-0.004238149
50	0xbb6e7ea9	-0.0036391413
51	0x3ab9f142	0.001418628
52	0xbbabead3	-0.005246499
53	0x3bb95c6d	0.00565677
54	0x3b40c4a1	0.0029414075
55	0x3c0d03d8	0.008606873
56	0x3b951064	0.004549073
57	0x3b914e24	0.004434364
58	0x3b2db3c6	0.0026504858
59	0xbb3871b5	-0.0028143947
60	0x3b3f6658	0.0029205289
61	0xbb353d6d	-0.002765502
62	0xbba9deec	-0.005184045
63	0xbb7b86e5	-0.0038379964

conv2.weight f4 [64, 64, 3, 3]
0	0xbae6fdbc	-0.0017623226
1	0xbca8fbb3	-0.020627832
2	0xbbabf44e	-0.0052476292
3	0x3d0cdf68	0.034392744
4	0x3d47bd7e	0.0487647
5	0xbb915cef	-0.0044361274
6	0x3c8c1533	0.017099952
7	0x394722b1	0.00018991042
8	0x3cd8eab4	0.026479103
9	0xbda52d5c	-0.08065292
10	0x3d536a43	0.05161501
11	0x3d0ba721	0.034094933
12	0x3dcff8f5	0.10154907
13	0xbd0f8b7e	-0.03504514
14	0x3cc1815d	0.023621256
15	0xbd0115f5	-0.03151508
16	0x3c993a4a	0.018704552
17	0x3bf74bd6	0.007546882
18	0x3d6fe860	0.05857122
19	0xbc95678c	-0.018237852
20	0x3caee312	0.02134851
21	0xbcdd2c23	-0.026998585
22	0x3cf00257	0.02929799
23	0x3cb8d6f6	0.022563439
24	0xbd168ee5	-0.03675737
25	0x3be95c3e	0.007121592
26	0xbd1111e7	-0.035417464
27	0x3d319ac9	0.043360505
28	0xbbeea1d4	-0.007282475
29	0x3c775d66	0.0150979515
30	0x3d8143aa	0.06311734
31	0x3d6a0e6c	0.05714266
32	0x3c5359a5	0.012899791
33	0xbc9b1ffc	-0.01893615
34	0x3d292547	0.041295316
35	0x3ceccbb7	0.028905733
36	0x3d896b05	0.067098655
37	0xbc98be6c	-0.018645488
38	0x3c321286	0.010868674
39	0x3cd9c543	0.02658332
40	0x3cbddde3	0.023177093
41	0x3d28178d	0.041038085
42	0xbd0399a4	-0.032128945
43	0x3ca09d96	0.019606393
44	0xbc52ef8f	-0.012874498
45	0x3dbf592f	0.09343182
46	0xbb199a9d	-0.0023438104
47	0x3c7dd5c7	0.015492863
48	0x3e0f6e40	0.14006901
49	0x3c3c4117	0.011490128
50	0x3c2d8de2	0.0105929095
51	0xbd03ef56	-0.03221067
52	0xbc40c0c0	-0.011764705
53	0xbca30c21	-0.019903244
54	0xbd830b41	-0.06398631
55	0x3c1ec986	0.009691602
56	0x3b9125ca	0.0044295536
57	0xbd24c40d	-0.04022603
58	0x3d84a13e	0.06476067
59	0xbd35b144	-0.044358507
60	0x3d26fe87	0.04077008
61	0x3c9a5809	0.018840807
62	0x3bec87c6	0.007218334
63	0x3d0f207e	0.034943096
64	0xbdbf2f34	-0.09335175
65	0xbbfd5ec4	-0.007732244
66	0xbcdf9b06	-0.0272956
67	0x3c8676a6	0.016413998
68	0x3c4f9236	0.012669137
69	0x3d16b7ac	0.036796257
70	0xbd075615	-0.03304108
71	0x3cc3c0f9	0.023895727
72	0xbbc5c139	-0.006034997
73	0xbcdb6355	-0.026780764
74	0xbbe14e46	-0.006875786
75	0x3c2f7962	0.010710092
76	0xbcae2f9d	-0.021262938
77	0x3d022cc1	0.031780962
78	0xbc0f7032	-0.008754777
79	0xbb92cb5e	-0.0044798097
80	0x3cbb576d	0.022868836
81	0xbd9fd0ba	-0.07803483
82	0x3d9367f3	0.07197561
83	0x3d654f78	0.05598399
84	0x3d028866	0.03186836
85	0xbc02d913	-0.007986325
86	0xbcedde62	-0.029036704
87	0xbd0aff08	-0.033934623
88	0x3c9cdb1d	0.01914745
89	0xbd3fc6ef	-0.046820577
90	0xbbf73838	-0.0075445436
91	0x3d09abb7	0.033611026
92	0x3d2ee543	0.04269911
93	0x3b2a87b0	0.0026020817
94	0x3d378da6	0.04481282
95	0xbcc9d500	-0.0246377
96	0xbc7549b7	-0.014971188
97	0xbd008e86	-0.03138592
98	0x3cda9aa5	0.026685068
99	0x3c878d23	0.016546791
100	0x3d071227	0.032976296
101	0x3d204c5d	0.039135326
102	0xbd33f7ff	-0.04393768
103	0xbcdcaef6	-0.026938897
104	0xbcf2e199	-0.029648589
105	0xbd1bd6aa	-0.038046516
106	0x3c5ca24a	0.013466427
107	0x3d75b753	0.059989285
108	0x3ceca4f8	0.028887257
109	0xbd349b25	-0.04409327
110	0x3c622486	0.013802653
111	0x3d6d04b8	0.05786583
112	0xbbe847a9	-0.0070886207
113	0xbd2ccf96	-0.042190157
114	0x3d7899f7	0.060693707
115	0x3ba549bd	0.0050441907
116	0xbc8bc868	-0.017063335
117	0x3c20531b	0.009785439
118	0x3cdc3119	0.02687888
119	0xbd5eda6a	-0.054407515
120	0x3c35d80e	0.011098875
121	0x3d6d0e04	0.057874694
122	0xbc601473	-0.0136767505
123	0x3d7469a5	0.059671063
124	0x3cb3c89d	0.021946246
125	0xb98a8383	-0.00026419395
126	0x3d36907d	0.04457139
127	0x3d893757	0.06700008
128	0xbc050435	-0.008118679
129	0x3d25cd19	0.0404788
130	0x3cf2d2a1	0.029641451
131	0x3d37b11f	0.04484665
132	0xbca7d8c4	-0.020489104
133	0xb99de8ce	-0.00030118827
134	0xbc239c1b	-0.009985949
135	0x3d27698e	0.04087215
136	0x3d841b7a	0.06450553
137	0x3d7e6cd5	0.06211551
138	0xbc178b35	-0.009249498
139	0xbd897a85	-0.06712822
140	0x3d03730b	0.032092135
141	0xbd6756d1	-0.05647928
142	0x3d0fc7e5	0.035102744
143	0x3da88228	0.0822795
144	0xbd90179f	-0.07035755
145	0xbc7fd369	-0.015614369
146	0xbcb30de8	-0.021857217
147	0x3d5b3a4c	0.053522393
148	0xb9bfe856	-0.00036603463
149	0x3c98ccc3	0.018652325
150	0x3cb0552e	0.021524992
151	0xbceac42c	-0.028657995
152	0xbd0ee8e3	-0.034890067
153	0x3c2bd53a	0.010487849
154	0x3c04dc48	0.00810916
155	0xbb4ed73e	-0.00315614
156	0xbc0c2833	-0.008554506
157	0x3c322b37	0.010874561
158	0xbc9b74ff	-0.018976687
159	0x3deaa704	0.11457637
160	0xbc98030e	-0.018556144
161	0x3dbe4580	0.092906
162	0xbc21a872	-0.009866821
163	0xbc8926ab	-0.016742071
164	0xbdb490d3	-0.088166855
165	0x3d0c8b30	0.034312427
166	0xbd85f01b	-0.06539937
167	0xbce4b1ba	-0.027916778
168	0xbd6026a3	-0.054724347
169	0xbd86b2db	-0.06577083
170	0x3d5bb95d	0.053643573
171	0x3d27550e	0.0408526
172	0x3d01fe80	0.03173685
173	0xbca98c9a	-0.020696927
174	0xbc108e46	-0.008822983
175	0xbdc79dd8	-0.09746903
176	0xbdc8bb00	-0.098012924
177	0xbd95a952	-0.07307686
178	0x3d00a1c7	0.031404283
179	0xbbb355aa	-0.0054728584
180	0xbd182f71	-0.03715462
181	0x3b0817b7	0.0020766088
182	0x3ca587cb	0.020206353
183	0x3ce06f15	0.027396718
184	0xbdd13d6f	-0.10216796
185	0x3d09cac3	0.033640634
186	0x3d3a2062	0.04544104
187	0xbbebc28e	-0.0071948236
188	0x3de2e184	0.1107817
189	0xbcaf5fc0	-0.021407962
190	0x3cfed1cd	0.0311059
191	0x3d0f991c	0.035058126
192	0xbd2800db	-0.04101644
193	0xbc82ca89	-0.015965717
194	0x3d585ad8	0.05282101
195	0xb974e372	-0.00023354383
196	0xbd568d45	-0.05238082
197	0x3d647153	0.055772137
198	0xbd3cf48c	-0.046131656
199	0x3d0eb5cc	0.034841344
200	0x3d14c0d3	0.036316704
201	0x3d6217f2	0.055198617
202	0xbbc83164	-0.0061094034
203	0xbc0f731f	-0.008755474
204	0x3cb227c8	0.021747485
205	0xbc340e99	-0.0109898085
206	0xbce4c3ab	-0.027925333
207	0xbbe33847	-0.006934199
208	0xbc06ec5b	-0.0082350625
209	0xbbb08f32	-0.005388164
210	0xbc41a7e5	-0.011819814
211	0xbd9c913f	-0.07644891
212	0xba8a65ae	-0.0010558867
213	0xbdba399a	-0.09093018
214	0xbc94f27b	-0.01818203
215	0xbcd64e4a	-0.026160378
216	0xbcfc8a9c	-0.030827813
217	0x3d9775ad	0.07395492
218	0x3d029f05	0.031889934
219	0x3c9a1834	0.01881037
220	0xbaa1a1d2	-0.0012331551
221	0xbd0387aa	-0.0321118
222	0x3ce737bd	0.02822482
223	0xbb4bd44c	-0.003110188
224	0x3e0659fd	0.13120265
225	0xbca62893	-0.02028302
226	0xbc98333c	-0.018579118
227	0x3d52f14c	0.05149965
228	0x3c0e8c2e	0.008700414
229	0x3d18a125	0.037263054
230	0x3d3d2d0f	0.04618555
231	0xbcb56a2a	-0.02214535
232	0xbd6cd6df	-0.057822105
233	0x3d225906	0.03963568
234	0x3cd98520	0.026552737
235	0x3c990049	0.018676894
236	0x3b6f6dd6	0.0036533973
237	0x3c8cf63e	0.017207261
238	0xbc5ed15f	-0.013599723
239	0xbc493a5e	-0.012281982
240	0x3d8de8bb	0.069291554
241	0xbca01180	-0.019539595
242	0xbc688589	-0.0141919935
243	0xbc4ecf1c	-0.012622621
244	0x3d0ce517	0.034398165
245	0xbd1c9f6e	-0.03823798
246	0xbd312ffe	-0.04325866
247	0xbce17d5d	-0.027525598
248	0x3d05d8bd	0.0326774
249	0xbc50254f	-0.012704208
250	0x3d99fb9e	0.07518695
251	0x3d1d4752	0.038398094
252	0xbc23328f	-0.009960785
253	0x3dbc3927	0.091905884
254	0x3d014332	0.031558223
255	0x3cf848f8	0.030308232

conv2.bias f4 [64]
0	0x3a0fe42f	0.0005489019
1	0x3b8065cb	0.0039183847
2	0x3a854eee	0.0010170618
3	0xb9a00268	-0.0003051937
4	0xbb8de559	-0.004330319
5	0x3b05fdd7	0.002044549
6	0x3a43d7ab	0.00074707967
7	0x3af887c1	0.0018961356
8	0x3a546723	0.0008102527
9	0x3b09656b	0.002096499
10	0x3b648887	0.0034871416
11	0x3b92650f	0.0044676135
12	0x3b5a0279	0.0033265634
13	0x3ba6fa72	0.0050957734
14	0x3b853720	0.0040654093
15	0x3b630d01	0.0034645202
16	0x3ac69fe7	0.0015153856
17	0x3b4ff2a1	0.0031730311
18	0xbaa0db6f	-0.0012272428
19	0xbb2456b3	-0.002507609
20	0xbb85b042	-0.0040798495
21	0xba8b8654	-0.0010644891
22	0x3b133cff	0.0022466776
23	0x3b17770d	0.0023111731
24	0xbad397fb	-0.0016143316
25	0xbb2846c5	-0.0025676948
26	0x3b8f4d10	0.0043732002
27	0xba92ca0d	-0.0011199132
28	0xbb07dbea	-0.0020730444
29	0xb8371072	-4.3645916e-05
30	0x3b977fa7	0.0046233716
31	0x3a4ab803	0.00077331084
32	0x3b43a709	0.00298542
33	0xbb27f39d	-0.0025627383
34	0x3a762544	0.0009389708
35	0x39efc7cb	0.0004573449
36	0x3937f179	0.00017542196
37	0xbb262c44	-0.0025355974
38	0x3b5f880b	0.0034108188
39	0xbb81e26a	-0.0039637582
40	0x3b41f304	0.0029594311
41	0x3ad7f578	0.0016476354
42	0x39a0b01f	0.000306488
43	0x3b56aab7	0.0032755563
44	0x39006cf3	0.00012247618
45	0x395accc4	0.00020866381
46	0xbb0878b3	-0.0020823895
47	0x3b398665	0.0028308865
48	0xbb182028	-0.0023212526
49	0x3bdbeda9	0.006711681
50	0x3a3aae54	0.0007121314
51	0x3acef576	0.0015789706
52	0xba932885	-0.0011227286
53	0x3a7dc1aa	0.0009680042
54	0xbae90239	-0.0017777152
55	0xbb0c6fb0	-0.0021428876
56	0x3a1f4ece	0.00060771115
57	0xb9986b39	-0.00029071586
58	0x3b45a26c	0.0030156625
59	0x3a1332fc	0.0005615202
60	0x3acc92c2	0.0015607702
61	0xb8d79efe	-0.000102816135
62	0xbb6c7088	-0.0036077816
63	0x3b204aca	0.002445864

conv3.weight f4 [64, 64, 3, 3]
0	0x3d4de8d9	0.05027089
1	0x3d3253df	0.043537017
2	0x3d0abacb	0.033869546
3	0x3b63d210	0.0034762658
4	0x3b084950	0.002079565
5	0xbc05e1af	-0.008171483
6	0x3c9a2d39	0.018820392
7	0xbcc437c5	-0.023952374
8	0x3b90b99e	0.0044166585
9	0x3d01562d	0.031576324
10	0x3c90c833	0.017673587
11	0x3d3ecaf0	0.046580255
12	0x3cf7d298	0.030251786
13	0xbc2b72f9	-0.010464423
14	0xbcc1a00c	-0.023635887
15	0xbdddb6a2	-0.1082585
16	0xbd1860db	-0.037201744
17	0x3d024a7f	0.031809326
18	0x3c1c8f22	0.00955561
19	0x3c113a0e	0.008863939
20	0x3d2b5d37	0.041836943
21	0xbdae39d1	-0.08507121
22	0xbd9c645e	-0.07636331
23	0xbcc49d49	-0.02400078
24	0x3bd24937	0.0064174193
25	0xbc7021c2	-0.014656486
26	0x3cbacbd6	0.022802275
27	0xb91f05db	-0.00015165603
28	0xbd0ecb06	-0.034861587
29	0xbd8bd6e3	-0.06828096
30	0x3cf913d0	0.030404955
31	0xbc801722	-0.01563603
32	0x3d574b88	0.052562267
33	0xbdc80f0e	-0.097684965
34	0xbc35e109	-0.011101016
35	0x3c34170e	0.010991825
36	0x3a5596ac	0.0008147757
37	0xbc9d65a2	-0.019213501
38	0xbc48e95f	-0.012262671
39	0xbcec0be7	-0.02881427
40	0xb9e4d5b0	-0.00043646758
41	0x3d8121ce	0.06305276
42	0x3d1008a2	0.035164483
43	0xbd030d74	-0.03199525
44	0x3c3573bf	0.011074959
45	0xbd820f9f	-0.06350636
46	0x3dcef53f	0.10105371
47	0x3dbb26a3	0.09138229
48	0x3cdf400c	0.02725222
49	0x3bbda859	0.005787891
50	0x3d0a6b1e	0.03379356
51	0xbcbe67db	-0.023242882
52	0xbc3c45ba	-0.0114912335
53	0x3d09444e	0.033512406
54	0x3c4f8bd5	0.012667616
55	0xbd0a992c	-0.033837482
56	0xbd491b6d	-0.04909842
57	0x3cbfa7c0	0.02339542
58	0x3d83a293	0.06427493
59	0xbc00facb	-0.007872294
60	0xbc2302f1	-0.009949432
61	0xbd4c5977	-0.049890008
62	0xbcdfa788	-0.027301565
63	0xbd746fcf	-0.05967694
64	0xbcf7a4d8	-0.03022997
65	0x3c78f0d9	0.015194141
66	0x3de1eae1	0.11031128
67	0xbb88fc9a	-0.004180503
68	0x3be11b09	0.006869678
69	0x3c6d31e6	0.014477229
70	0x3bc82294	0.0061076377
71	0xbce5dc9b	-0.028059294
72	0x3dc37a86	0.09544854
73	0xba11225e	-0.0005536432
74	0xbda0fb00	-0.078603745
75	0xbc69779a	-0.014249707
76	0x3b738eb9	0.0037163927
77	0xbbb8b58a	-0.0056368755
78	0x3d322970	0.04349655
79	0xbd37a9f3	-0.04483981
80	0x3d1cbd28	0.03826633
81	0xbd5b1b51	-0.053492848
82	0x3b3950e7	0.0028276981
83	0x3cf63b91	0.0300577
84	0xbc522b76	-0.012827745
85	0x3d3d0ca9	0.04615465
86	0x3da833b0	0.082129836
87	0xbc2d1300	-0.010563612
88	0x3bc4ddf6	0.006007905
89	0xbbb57023	-0.0055370494
90	0x3c61c7ff	0.013780593
91	0xbcbb69b2	-0.022877548
92	0xbd16e589	-0.036839996
93	0x3c703592	0.01466121
94	0xbd9dfc28	-0.077141106
95	0xbd140028	-0.03613296
96	0xbde9a309	-0.114080496
97	0xbaf9573b	-0.0019023189
98	0xbcd2b386	-0.02572037
99	0x3cd6ad17	0.026205583
100	0x3cb64df1	0.022253962
101	0xbc3871d2	-0.011257606
102	0xbd5f4211	-0.054506365
103	0x3d18c1dd	0.037294257
104	0xbc9994d2	-0.01874772
105	0xbbdb593e	-0.006693988
106	0xb98c903b	-0.0002681034
107	0xbc8bd0d8	-0.017067358
108	0xbc24c6d5	-0.010057171
109	0x39079125	0.00012928674
110	0x3d0192f0	0.03163427
111	0x3c06f474	0.008236993
112	0xbccba587	-0.024859203
113	0x3d6fe5a6	0.05856862
114	0x3d8bffad	0.06835876
115	0x3ca377b1	0.019954534
116	0xbdb7a31b	-0.08966657
117	0x3d5bf43c	0.053699717
118	0x3d8db701	0.06919671
119	0x3cfc830a	0.030824203
120	0x3d892e21	0.066982515
121	0x3d56d32d	0.052447487
122	0xbccd90b0	-0.025093406
123	0x3c8ad3e9	0.01694675
124	0x3b0382b6	0.0020066923
125	0x3d455df4	0.048185304
126	0x3d8e7787	0.06956392
127	0x3c22a471	0.009926901
128	0x3ce581b9	0.028015958
129	0xbcad6581	-0.021166565
130	0x3cf01d35	0.029310802
131	0xbcf3a17f	-0.029740093
132	0x3cc1c4f8	0.023653492
133	0xbd0df100	-0.034653664
134	0x3be4b305	0.0069793486
135	0x3d85754d	0.06516514
136	0x3cde416d	0.027130807
137	0xbd398c13	-0.0452996
138	0xbd58b6f3	-0.05290885
139	0xbac5c1a8	-0.0015087621
140	0x3d960696	0.07325475
141	0x3d725252	0.059160538
142	0xbc779662	-0.015111538
143	0x3cec67e1	0.028858127
144	0xbd7e5632	-0.06209392
145	0x3bd94d56	0.0066315336
146	0x3bd04860	0.006356284
147	0x3d6cddbd	0.057828654
148	0xbbbd7eba	-0.0057829292
149	0x3d17dba3	0.037074696
150	0x3c1221ad	0.008919162
151	0xbd84bed9	-0.06481714
152	0x3d9f74a9	0.07785923
153	0x3d135b48	0.035975724
154	0xbcdd06c9	-0.026980774
155	0x3cfcd33d	0.030862445
156	0xbd4b9af6	-0.04970833
157	0x3d815b4d	0.06316242
158	0x3dbfbd3e	0.09362267
159	0x3c88647f	0.016649483
160	0xbd60032e	-0.054690532
161	0x3cd918f9	0.026501166
162	0x3ddbc471	0.107308276
163	0xbb97e45f	-0.0046353783
164	0xbc18b0d0	-0.009319499
165	0x3d424aee	0.04743474
166	0x3d2b85da	0.041875698
167	0x3c1a53b3	0.0094193695
168	0x3c9c7748	0.019099846
169	0xbcf1c05c	-0.02951067
170	0xbd5b8762	-0.053595908
171	0xbba93f02	-0.005164982
172	0xbd96fa8b	-0.07372006
173	0xbc822658	-0.015887424
174	0x3b0d232e	0.0021535861
175	0xbd327601	-0.04356957
176	0xbdb30b3c	-0.08742377
177	0x3c3d8e36	0.01156955
178	0x3ca34b77	0.019933445
179	0xbdab9de9	-0.08379728
180	0x3c992d21	0.018698277
181	0xbda4e827	-0.08052092
182	0x3d1b81f9	0.03796575
183	0x3c9e69f0	0.019337624
184	0xbcabddb1	-0.020979734
185	0xbcf5b264	-0.02999229
186	0x3da30e53	0.079617165
187	0xbc2d842a	-0.010590592
188	0xbcb98a1d	-0.022648865
189	0x3ceaf5a8	0.028681591
190	0x3da43ca5	0.080193795
191	0xbc49f536	-0.012326529
192	0x3cd82402	0.026384357
193	0x3d8ed2a8	0.06973773
194	0x3cf3b8b1	0.029751154
195	0xbb834e16	-0.0040071113
196	0x3cad3902	0.021145348
197	0x3bf85d5f	0.00757949
198	0xbc2a4a69	-0.010393717
199	0xbd682ad6	-0.056681477
200	0x3ca8dfb2	0.020614479
201	0x3b26c967	0.0025449635
202	0xbd37da3b	-0.044885855
203	0x3be76839	0.007061985
204	0x3c977327	0.018487526
205	0x3d704f01	0.058669094
206	0x3b955f53	0.0045584827
207	0xbd2c77df	-0.042106505
208	0xbc9860e3	-0.018600887
209	0x3dd8d9dc	0.105884284
210	0xbcd7342c	-0.026269995
211	0x3d94e623	0.072704576
212	0x3bbefaaf	0.0058282237
213	0xbd0a8aa4	-0.033823624
214	0x3c58d286	0.013233786
215	0x3d195671	0.037435953
216	0x3d9697f4	0.073532015
217	0xbcddfc21	-0.027097763
218	0xbac286bb	-0.0014841178
219	0xbd9c7dd6	-0.07641189
220	0xbd66e251	-0.056368176
221	0x3d882be2	0.06648995
222	0x3ca56aea	0.020192582
223	0x3d558c71	0.05213589
224	0x3d5b81ad	0.053590465
225	0xbdf2c0ac	-0.118531555
226	0xb8baf111	-8.914073e-05
227	0x3d97603b	0.073914014
228	0x3daa9743	0.08329632
229	0x3c140ed7	0.009036741
230	0xbdb6a804	-0.08918765
231	0x3d7e2294	0.062044695
232	0x3cd24948	0.025669709
233	0x3c612f0a	0.013744125
234	0xbd75b19c	-0.059983835
235	0xbc09fb78	-0.008421771
236	0x3d2b6af2	0.041850038
237	0x3d596cf3	0.053082418
238	0x3d2653d3	0.040607285
239	0x3d0c01bf	0.034181353
240	0xbcde2d2e	-0.027121153
241	0xbc2cc15d	-0.010544148
242	0xbcedd4c2	-0.029032115
243	0x3d2925fb	0.041295987
244	0x3d778a76	0.06043478
245	0xbd28e129	-0.041230354
246	0x3cfb914e	0.030708935
247	0x3c9349ae	0.01797947
248	0xbd05ebc9	-0.032695565
249	0x3cd935c7	0.0265149
250	0x3cf2f68e	0.029658582
251	0x3d8f71d2	0.070041314
252	0xbcea9446	-0.028635155
253	0xbdb87019	-0.09005756
254	0xbc1de6d7	-0.009637556
255	0x3cab5f9a	0.02091961

conv3.bias f4 [64]
0	0x3c869491	0.016428264
1	0x3c805eea	0.015670259
2	0x3c91e22b	0.01780804
3	0xbc447628	-0.011991061
4	0xbc77c28d	-0.015122068
5	0xba81955c	-0.0009886432
6	0x3b78583f	0.0037894396
7	0x3c8b2c41	0.016988875
8	0x3c8c61ee	0.01713654
9	0xbc6159bb	-0.013754304
10	0x3c0f33be	0.008740364
11	0xbc606509	-0.013695964
12	0xbc6713c5	-0.0141038345
13	0xbbb34b47	-0.0054716202
14	0x3c6a68a0	0.014307171
15	0x3c9249c9	0.01785745
16	0x3bd8347b	0.006598053
17	0x3c7732ee	0.015087826
18	0x3c4ab3a3	0.01237193
19	0x3b911d8d	0.0044285716
20	0x3c86d33d	0.016458148
21	0x3c3093e7	0.01077745
22	0x3bb837e9	0.0056218994
23	0x3bd3ec8a	0.0064674066
24	0x3c514e76	0.012775054
25	0xbc576f26	-0.013149058
26	0x3c946828	0.018116072
27	0x3c154124	0.009109769
28	0x3c853c1b	0.016264012
29	0x3c8e0346	0.017335545
30	0x3a3e7d96	0.00072666386
31	0x3c88e6fa	0.0167117
32	0xbc7b053e	-0.015321074
33	0xbc48a9a8	-0.01224748
34	0xbc17ed11	-0.00927283
35	0x3c36424d	0.011124206
36	0x3c7c2239	0.015389019
37	0x3c7682c9	0.01504583
38	0x3c8825b7	0.016619546
39	0x3c53192e	0.012884421
40	0x3c8755fa	0.016520489
41	0xbbe698d2	-0.0070372606
42	0x3c8289e5	0.015934894
43	0x3c8713f5	0.016489008
44	0x3c26f8f2	0.010191189
45	0x3c6708a1	0.014101178
46	0xb97d2cab	-0.000241446
47	0xbb71a6cd	-0.0036873103
48	0x3c7247de	0.014787642
49	0x3c8894e3	0.016672557
50	0xbc5c18dd	-0.013433662
51	0x3bec01f5	0.0072023817
52	0xbc3be19a	-0.011467362
53	0x3c6dfb2d	0.014525217
54	0xbc28a95d	-0.010294286
55	0xbc2be48e	-0.010491503
56	0xbc1c4e18	-0.009540103
57	0x3bf11475	0.007357175
58	0x3a61684b	0.000859861
59	0x3c85492e	0.016270246
60	0x3c03eb5c	0.0080517195
61	0x3b5c6344	0.0033628503
62	0x3c56d511	0.013112322
63	0xbb8f5649	-0.0043742997

bn1.weight f4 [64]
0	0x3f80546b	1.0025762
1	0x3f7cfe42	0.98825467
2	0x3f7c3de7	0.98531955
3	0x3f7ece55	0.9953359
4	0x3f81e1f5	1.0147082
5	0x3f7bb27b	0.98319215
6	0x3f810c9f	1.0081977
7	0x3f7cc068	0.9873109
8	0x3f81668f	1.0109423
9	0x3f81fec8	1.0155878
10	0x3f7ce1e7	0.987822
11	0x3f80e567	1.0070008
12	0x3f81d863	1.0144161
13	0x3f7e2a4d	0.99283296
14	0x3f7d5f90	0.9897394
15	0x3f820064	1.0156369
16	0x3f7bbe8f	0.98337644
17	0x3f7e03d5	0.992246
18	0x3f7facca	0.9987303
19	0x3f7ec5c8	0.9952054
20	0x3f80a720	1.0051003
21	0x3f7b88a4	0.9825537
22	0x3f81f77b	1.015365
23	0x3f819b6c	1.0125556
24	0x3f801652	1.0006812
25	0x3f81d0cd	1.0141846
26	0x3f7f4111	0.9970866
27	0x3f81934f	1.012308
28	0x3f80a6b8	1.0050879
29	0x3f7e8ba9	0.99431854
30	0x3f81aa6a	1.0130131
31	0x3f7cbc3d	0.9872473
32	0x3f7f008b	0.99610204
33	0x3f7d4469	0.9893251
34	0x3f7fe245	0.99954635
35	0x3f7be044	0.9838908
36	0x3f7d6760	0.9898586
37	0x3f810bd5	1.0081736
38	0x3f820f62	1.0160944
39	0x3f7d3e26	0.98922956
40	0x3f81a7d3	1.0129341
41	0x3f7d83ad	0.99029046
42	0x3f807e99	1.0038635
43	0x3f7d3b7d	0.98918897
44	0x3f82204f	1.016611
45	0x3f7ded2d	0.99190027
46	0x3f7eeb38	0.99577665
47	0x3f7c2e00	0.9850769
48	0x3f7caecd	0.98704225
49	0x3f7c356e	0.9851903
50	0x3f80887b	1.004165
51	0x3f825517	1.0182217
52	0x3f824f7d	1.0180508
53	0x3f7b6b59	0.98210675
54	0x3f81ad52	1.0131018
55	0x3f7e0d36	0.9923891
56	0x3f82093d	1.0159069
57	0x3f819737	1.0124272
58	0x3f817c22	1.0116007
59	0x3f7ef092	0.9958583
60	0x3f7d3037	0.98901695
61	0x3f7cf432	0.9881011
62	0x3f7b58b0	0.981822
63	0x3f819892	1.0124686

bn1.bias f4 [64]
0	0xbc3709e6	-0.011171794
1	0xbbd95780	-0.0066327453
2	0xbc6fc6b3	-0.014634776
3	0x3c325af6	0.010885945
4	0x3bcb4043	0.006202729
5	0xbc89afbc	-0.01680743
6	0xbc83931f	-0.016061364
7	0xbb8622bb	-0.0040934957
8	0x3b804d7a	0.003915486
9	0x3c8939fd	0.016751284
10	0x3af5f9f6	0.0018766511
11	0x3c08d8ec	0.008352499
12	0x3c72fe97	0.014831207
13	0xba00515e	-0.0004894937
14	0x3bbedfc0	0.005825013
15	0xbc9cf7ab	-0.019161066
16	0xbc445a2f	-0.011984392
17	0xbc889443	-0.01667226
18	0xbc3e433a	-0.011612708
19	0x3bfaec7a	0.0076575847
20	0xbc4f1df7	-0.0126414215
21	0xbc45d808	-0.012075432
22	0x3c75f5c0	0.015012205
23	0x3bf12bba	0.007359949
24	0x3c6ac1f4	0.014328469
25	0x3c623849	0.013807365
26	0x3c045172	0.008076059
27	0xbc16f174	-0.00921284
28	0x3c3d2e2d	0.011546654
29	0xbc393f1f	-0.011306553
30	0xbc762f04	-0.015025858
31	0xbc4e84b2	-0.012604879
32	0x3bc47e22	0.0059964815
33	0x3c13b515	0.009015341
34	0xbb345dcc	-0.0027521728
35	0xbc9346c4	-0.01797808
36	0xbc011452	-0.00787838
37	0xbc8baaf1	-0.017049285
38	0x3c420c98	0.011843823
39	0xbabb5028	-0.0014290856
40	0x3c7039f7	0.014662257
41	0xbc71dac3	-0.0147616295
42	0x3bc057d9	0.0058698473
43	0xbc846029	-0.016159134
44	0x3c791395	0.015202423
45	0xbc0f27c8	-0.008737512
46	0x3baf544b	0.0053506247
47	0x3c46118e	0.012089146
48	0x3c8195b0	0.015818447
49	0xbc122d12	-0.008921878
50	0x3c246ac8	0.010035224
51	0x3b7dc07c	0.0038719466
52	0x3c8f7270	0.017510623
53	0x3c40aea8	0.011760391
54	0xb8408a05	-4.5904908e-05
55	0xbb44ae3e	-0.0030011083
56	0xbca093bb	-0.019601693
57	0x3c7a3918	0.015272401
58	0x3c16d3cc	0.00920577
59	0xbc2a9bd1	-0.010413126
60	0xbb7911d6	-0.0038005016
61	0xbc348970	-0.011019096
62	0xbc94e971	-0.01817772
63	0x3c48f859	0.012266242

bn1.running_mean f4 [64]
0	0xbc88120f	-0.016610174
1	0x3c62116a	0.013798097
2	0xba5f9425	-0.000852885
3	0x3cacf8a7	0.02111466
4	0x3cc69f5a	0.024245907
5	0xbc1c5df1	-0.009543882
6	0x3bab55f2	0.0052287513
7	0x3b06672d	0.0020508275
8	0x3cc3503d	0.023841972
9	0xbcb27cf8	-0.021788105
10	0xbcb7dc28	-0.022443846
11	0x3d07c86f	0.033150133
12	0x3a628016	0.0008640302
13	0xbce2478e	-0.02762201
14	0xbbfd2963	-0.007725881
15	0x3b6b91b1	0.0035944993
16	0xbbd41a07	-0.0064728293
17	0x3b5a46ba	0.0033306316
18	0xbcad0f67	-0.021125508
19	0x3bee59a8	0.0072738715
20	0xbb409829	-0.002938757
21	0xbc4ec8a5	-0.01262108
22	0x3cb90d4e	0.022589352
23	0xbc806f9f	-0.015678225
24	0x3c085bf3	0.008322704
25	0x3bb3f9d9	0.0054924306
26	0x3cc501fe	0.024048802
27	0x3bac0811	0.005249985
28	0x3c2a8dbd	0.01040977
29	0x3b3d2f95	0.0028867472
30	0xbc16e117	-0.009208939
31	0xbc03a5c5	-0.008035128
32	0x3942338a	0.00018520482
33	0x3c36fb92	0.0111683775
34	0xbb1a42a1	-0.002353825
35	0xbbeb674b	-0.0071839443
36	0x3b22ecd2	0.0024860394
37	0xbbbb0c8c	-0.005708283
38	0x3c9b4083	0.01895166
39	0x3c14ddcc	0.009086084
40	0xbc2423f0	-0.010018334
41	0xbb5281f6	-0.003212092
42	0xbc4f52e1	-0.012654037
43	0xbce73091	-0.0282214
44	0xbbd24066	-0.0064163683
45	0xbd5a8aae	-0.05335491
46	0x3cbb067c	0.02283024
47	0x3c5c2222	0.013435872
48	0x3cd4520b	0.025918027
49	0x3d0b6550	0.034032166
50	0x3d0841f6	0.03326603
51	0xbc047f31	-0.008086965
52	0xbcbd62a2	-0.02311832
53	0x3cad770a	0.021174926
54	0x3cc269cf	0.023732094
55	0x3d15be66	0.03655853
56	0x3a9ae7a1	0.0011818298
57	0x384ad254	4.8356436e-05
58	0x3c7a49ba	0.015276367
59	0xbaa4082c	-0.0012514642
60	0x3ced7478	0.0289862
61	0xb9e854fb	-0.00044313804
62	0xbc4a499a	-0.01234665
63	0x3d560f65	0.052260775

bn1.running_var f4 [64]
0	0x3cfba36a	0.03071757
1	0x3c99a9b4	0.018757679
2	0x3d7f416c	0.06231825
3	0x3cc2b76e	0.023769107
4	0x3d122820	0.035682797
5	0x3d675b70	0.056483686
6	0x3cf52c4b	0.029928347
7	0x3c1e5004	0.009662632
8	0x3d162ae8	0.036662012
9	0x3d64f51f	0.05589783
10	0x3c8cfe4a	0.017211098
11	0x3dc49ad8	0.095998466
12	0x3c440c11	0.0119657675
13	0x3d7f156e	0.062276296
14	0x3d296081	0.0413518
15	0x3d788407	0.060672786
16	0x3c92db06	0.017926704
17	0x3c6e9aa3	0.014563235
18	0x3d774542	0.060368784
19	0x3cc76400	0.024339676
20	0x3ce7352e	0.0282236
21	0x3c5d731b	0.013516213
22	0x3c9fa825	0.019489357
23	0x3c68a944	0.014200512
24	0x3d2cfb90	0.042232096
25	0x3cf4f438	0.029901609
26	0x3da50fe9	0.08059675
27	0x3d14e020	0.036346555
28	0x3cb993d1	0.022653492
29	0x3d03a23a	0.032137133
30	0x3bb76a07	0.0055973562
31	0x3d408593	0.047002386
32	0x3c9d957d	0.01923632
33	0x3cbf1550	0.023325592
34	0x3d33f36c	0.043933317
35	0x3d18daab	0.037317913
36	0x3c693c39	0.01423555
37	0x3c83d53a	0.016092885
38	0x3cc2ec25	0.023794243
39	0x3d0d819c	0.034547433
40	0x3cacf3a0	0.021112263
41	0x3d0add82	0.033902653
42	0x3d31ac7b	0.04337738
43	0x3d86dc4a	0.065849856
44	0x3c3f8407	0.011689193
45	0x3e237bdb	0.15965216
46	0x3d2ca304	0.04214765
47	0x3cdd48a6	0.02701218
48	0x3d187e1f	0.037229653
49	0x3e0b09f1	0.13578011
50	0x3dc531ac	0.09628615
51	0x3d1acdb7	0.03779384
52	0x3d03ee8c	0.032209918
53	0x3d2ca3ed	0.04214852
54	0x3d1bdb55	0.03805097
55	0x3dabf0b0	0.08395517
56	0x3ced5357	0.028970404
57	0x3c5ee82c	0.013605159
58	0x3d368c83	0.044567596
59	0x3bc6cd33	0.006066942
60	0x3d59ebc2	0.05320335
61	0x3cc9147c	0.0245459
62	0x3d098ab7	0.033579554
63	0x3e25e79f	0.16201638

bn2.weight f4 [64]
0	0x3f7f9aaa	0.99845374
1	0x3f81590f	1.0105304
2	0x3f800ad8	1.0003309
3	0x3f7f83b2	0.99810326
4	0x3f823a91	1.0174123
5	0x3f8110a0	1.0083199
6	0x3f7e2a74	0.9928353
7	0x3f7f9395	0.9983457
8	0x3f7cc2ad	0.9873455
9	0x3f820117	1.0156583
10	0x3f7cda33	0.98770446
11	0x3f817d11	1.0116292
12	0x3f7eb8a4	0.9950049
13	0x3f7d3335	0.9890626
14	0x3f7d141d	0.98858815
15	0x3f80872d	1.0041252
16	0x3f7deacd	0.991864
17	0x3f7e80cb	0.9941527
18	0x3f7c4eaf	0.9855756
19	0x3f80cec6	1.0063102
20	0x3f7cb08b	0.98706883
21	0x3f7ce380	0.9878464
22	0x3f7b3222	0.9812337
23	0x3f806d75	1.0033404
24	0x3f7eefa9	0.9958444
25	0x3f824c44	1.0179524
26	0x3f7cae51	0.98703486
27	0x3f81f710	1.0153522
28	0x3f7d174b	0.9886367
29	0x3f7b788e	0.98230827
30	0x3f815cda	1.0106461
31	0x3f813410	1.0094013
32	0x3f7eb4a6	0.994944
33	0x3f7db3f9	0.9910274
34	0x3f7d3a60	0.989172
35	0x3f7dccf8	0.9914088
36	0x3f7f8d70	0.9982519
37	0x3f820dc7	1.0160455
38	0x3f80bebf	1.0058211
39	0x3f7b8c69	0.98261124
40	0x3f7faeae	0.99875915
41	0x3f820a25	1.0159346
42	0x3f809ddf	1.0048178
43	0x3f7d2f2c	0.98900104
44	0x3f7c15b5	0.9847062
45	0x3f81e06e	1.0146616
46	0x3f819eb3	1.0126556
47	0x3f7ff05a	0.9997612
48	0x3f81d129	1.0141956
49	0x3f80720c	1.0034804
50	0x3f80a71c	1.0050998
51	0x3f7d6da5	0.9899543
52	0x3f7e503e	0.9934119
53	0x3f80945a	1.0045273
54	0x3f801b2b	1.0008291
55	0x3f7c9ce6	0.9867691
56	0x3f8126b7	1.008994
57	0x3f7c9ba3	0.9867498
58	0x3f804218	1.002017
59	0x3f7f9197	0.9983153
60	0x3f7ce81d	0.98791677
61	0x3f7c30b5	0.9851182
62	0x3f80e3d7	1.0069531
63	0x3f7fd70f	0.9993753

bn2.bias f4 [64]
0	0x3bef5d79	0.007304844
1	0x3b99291e	0.004674091
2	0xbbc58dbf	-0.0060288603
3	0xbc5913e9	-0.013249376
4	0x3c9fa57d	0.01948809
5	0xbc02784f	-0.007963254
6	0xbc9b0451	-0.018922957
7	0x3bb0c866	0.005394983
8	0xbc11138b	-0.008854757
9	0x3c114aa6	0.008867895
10	0x3c9572a6	0.018243145
11	0xbc325e7c	-0.010886785
12	0x3c0555d6	0.008138141
13	0x3b952f8b	0.0045527867
14	0xbaca6b04	-0.001544327
15	0xb9cd1ea6	-0.00039123482
16	0xbb94b7b4	-0.0045385007
17	0xb97c82c7	-0.00024081311
18	0xbc93fa2c	-0.018063627
19	0x3b8e8988	0.004349891
20	0xbc6b8b4b	-0.014376472
21	0xbc31398f	-0.010816946
22	0xbc94f0ed	-0.018181289
23	0xbb68245c	-0.0035422063
24	0x3bccd77d	0.006251274
25	0xbb162a05	-0.002291323
26	0xbbe97474	-0.007124478
27	0xbc57b796	-0.013166329
28	0x3ac6c72e	0.0015165561
29	0xbc19c789	-0.009385952
30	0xbc7ff5de	-0.015622584
31	0x3c5aa491	0.0133449
32	0xbc3cb8a5	-0.011518632
33	0x3c018bd5	0.007906874
34	0xbb77aadb	-0.0037791047
35	0x3a211df7	0.00061461277
36	0xbbe56ac2	-0.007001252
37	0x3c3eef1c	0.011653688
38	0xbbebe8d0	-0.0071993843
39	0xbc562791	-0.013070957
40	0xbba26acc	-0.004956579
41	0xbc2b4ef1	-0.010455833
42	0x3c788172	0.015167581
43	0xbc15f7a8	-0.009153284
44	0xbc881a45	-0.016614089
45	0x3b9e71f3	0.004835361
46	0x3c83b725	0.016078541
47	0xbc97b25a	-0.018517662
48	0x3c7dd09d	0.015491632
49	0x3c99c666	0.018771362
50	0xbac0dd41	-0.0014714376
51	0xbc5b11e0	-0.013370961
52	0xbc58e86f	-0.01323901
53	0xbb165a1b	-0.002294189
54	0x3c352bb1	0.01105778
55	0xbbcb16a8	-0.006197769
56	0xbc1de35b	-0.009636725
57	0x3ba7c4bb	0.0051198876
58	0x3c88f1b1	0.01671681
59	0xbc5475f3	-0.012967574
60	0xbb2ef85b	-0.0026698324
61	0x3c0027a5	0.007821952
62	0x38bc1217	8.967908e-05
63	0x3c2d69db	0.01058432

bn2.running_mean f4 [64]
0	0x400c892d	2.1958725
1	0xbe7380ad	-0.23779555
2	0xbeccc13d	-0.3999118
3	0xc01ac1df	-2.418083
4	0x3f088b41	0.53337485
5	0x3fa1d78b	1.2643903
6	0xbea92e61	-0.33043197
7	0x4019ef17	2.405218
8	0x3ff38ba0	1.9026985
9	0xbf57f32c	-0.84355426
10	0x3f46e595	0.77694064
11	0x3f8c621e	1.0967443
12	0xbe80cf46	-0.25158137
13	0x3db17b13	0.08666053
14	0x3e93ff4a	0.28905708
15	0x3f72d78b	0.9486014
16	0xc016ddd6	-2.3572898
17	0x3f6fce21	0.936739
18	0xbf910a2b	-1.1331228
19	0xbc76f9eb	-0.0150742335
20	0xbfaff1d3	-1.3745674
21	0xc04bdd63	-3.1853874
22	0xbf2bde1b	-0.6713578
23	0x40340026	2.812509
24	0x3f5a296a	0.8521944
25	0x3f82dafb	1.0223078
26	0x3f1a8649	0.6036115
27	0xbe228856	-0.1587232
28	0x3ff38c71	1.9027234
29	0x3fb96c0e	1.4486101
30	0x3fa63895	1.2986017
31	0x3c9809d8	0.018559381
32	0xc05fe591	-3.4983866
33	0x3f554bdc	0.8331888
34	0x3f1557c0	0.5833702
35	0x3d8baa15	0.0681955
36	0xbf8de5f9	-1.1085807
37	0x3f219666	0.63120115
38	0x40217486	2.522737
39	0xbf34fb27	-0.7069573
40	0x40139395	2.3058827
41	0x3fc42a12	1.5325339
42	0x3f33b384	0.70195794
43	0xc02254ce	-2.536426
44	0x4011a0fe	2.2754512
45	0x403ecaaf	2.9811208
46	0x3f4b1185	0.7932361
47	0x40076398	2.1154537
48	0x3ee2e4ab	0.44315085
49	0x3f6b8c60	0.9201107
50	0x3fcdc9f1	1.6077253
51	0x401da9ce	2.463489
52	0xbd04ee07	-0.032453563
53	0x3de2aedf	0.1106851
54	0x40192558	2.3929043
55	0x3feb6329	1.8389636
56	0x400f5baf	2.239971
57	0xbf32e5e1	-0.6988202
58	0x401fc634	2.4964724
59	0x3ec5d0e2	0.38635927
60	0xc047687b	-3.115752
61	0x4034537b	2.8175952
62	0x40133100	2.2998657
63	0x3f8c5d27	1.0965928

bn2.running_var f4 [64]
0	0x40dc1578	6.8776207
1	0x403b697c	2.9283133
2	0x401463fb	2.3186023
3	0x40be9312	5.955453
4	0x4012d81a	2.2944398
5	0x4050ea79	3.264311
6	0x3ff47bff	1.9100341
7	0x40dddfdc	6.9335766
8	0x40a1eef1	5.0604177
9	0x401b8bd2	2.430409
10	0x3f2a9db4	0.66646886
11	0x40433465	3.050073
12	0x3f57319a	0.8406006
13	0x400429ee	2.0650592
14	0x3fe2dbc7	1.7723321
15	0x3fb19fd5	1.3876902
16	0x4099c4b7	4.805263
17	0x40435367	3.0519655
18	0x400d0e5c	2.2040014
19	0x3fcba1d6	1.5908763
20	0x404fa213	3.2442672
21	0x40bc75d6	5.8893843
22	0x4022256d	2.5335343
23	0x40c90739	6.2821317
24	0x3f794bd0	0.97381306
25	0x4027ad4e	2.6199527
26	0x3fed0fc6	1.8520439
27	0x4058ad70	3.3855858
28	0x409d93ff	4.924316
29	0x40aeb371	5.4594045
30	0x408bf014	4.3730564
31	0x401d735d	2.4601662
32	0x41131ee0	9.195038
33	0x4001015b	2.0157077
34	0x3f8c247b	1.0948633
35	0x3fcd159a	1.6022217
36	0x4035f505	2.8430798
37	0x4009715a	2.1475434
38	0x4091ed50	4.560219
39	0x40102297	2.2521112
40	0x40b7df54	5.7460117
41	0x4013c424	2.3088465
42	0x400e5088	2.2236652
43	0x40af2657	5.47343
44	0x40844e90	4.13459
45	0x40bf08cd	5.9698243
46	0x3fb4e9b4	1.413382
47	0x4094d4a1	4.6509557
48	0x3fb8ccd2	1.4437506
49	0x3fc0f737	1.5075444
50	0x40836e8b	4.107244
51	0x409e392a	4.944478
52	0x3fada088	1.3564615
53	0x404a8f14	3.1649828
54	0x40936dca	4.607152
55	0x407ccf3c	3.9501486
56	0x40ca3dbc	6.320036
57	0x4024d109	2.5752585
58	0x40be3311	5.9437337
59	0x4078eff3	3.8896453
60	0x40eddb9d	7.4330583
61	0x4108cd35	8.550099
62	0x40a83c74	5.2573795
63	0x401b3da1	2.4256365

bn3.weight f4 [64]
0	0x3f827ec0	1.0194931
1	0x3f829fde	1.0205038
2	0x3f829a2d	1.0203301
3	0x3f8295c6	1.0201957
4	0x3f827f13	1.019503
5	0x3f829990	1.0203114
6	0x3f829d98	1.0204344
7	0x3f8299fb	1.0203241
8	0x3f829060	1.020031
9	0x3f829c09	1.0203868
10	0x3f82924c	1.0200896
11	0x3f827dff	1.0194701
12	0x3f8290a6	1.0200393
13	0x3f828646	1.0197227
14	0x3f829bdb	1.0203813
15	0x3f82952d	1.0201775
16	0x3f82929d	1.0200993
17	0x3f828efb	1.0199884
18	0x3f82aa5b	1.0208238
19	0x3f8298cb	1.0202879
20	0x3f8292a5	1.0201002
21	0x3f8291f7	1.0200795
22	0x3f82a8f2	1.0207808
23	0x3f828da5	1.0199476
24	0x3f82a478	1.0206442
25	0x3f82878d	1.0197617
26	0x3f8294b3	1.0201629
27	0x3f8292e4	1.0201077
28	0x3f827a1c	1.0193515
29	0x3f829450	1.0201511
30	0x3f829110	1.020052
31	0x3f828072	1.0195448
32	0x3f829bc1	1.0203782
33	0x3f8298a2	1.020283
34	0x3f828ff8	1.0200186
35	0x3f82856d	1.0196968
36	0x3f829d49	1.020425
37	0x3f82a1c5	1.0205618
38	0x3f829f2e	1.0204828
39	0x3f82a4b4	1.0206513
40	0x3f829874	1.0202775
41	0x3f828dc9	1.0199519
42	0x3f829f1c	1.0204806
43	0x3f829de7	1.0204438
44	0x3f8294b9	1.0201637
45	0x3f829b34	1.0203614
46	0x3f82a6e4	1.0207181
47	0x3f829a71	1.0203382
48	0x3f828dc4	1.0199513
49	0x3f829dc5	1.0204397
50	0x3f829053	1.0200294
51	0x3f829f3d	1.0204846
52	0x3f829d17	1.020419
53	0x3f8299e9	1.020322
54	0x3f829323	1.0201153
55	0x3f82a1c3	1.0205616
56	0x3f82940d	1.0201432
57	0x3f82892f	1.0198115
58	0x3f829b12	1.0203574
59	0x3f829782	1.0202487
60	0x3f82a0b6	1.0205295
61	0x3f8299ec	1.0203223
62	0x3f82974c	1.0202422
63	0x3f82869a	1.0197327

bn3.bias f4 [64]
0	0x3c9453b8	0.018106326
1	0x3c9683c3	0.018373376
2	0x3c989c8a	0.018629331
3	0x3c83cbd8	0.016088411
4	0x3c9eb1a0	0.019371808
5	0x3c5081d6	0.012726268
6	0x3ca2574e	0.01981702
7	0x3c8e93f6	0.017404538
8	0x3c8b1209	0.016976373
9	0x3ca46e68	0.020072177
10	0x3c8a6278	0.016892657
11	0x3ca37279	0.019952046
12	0x3ca7fc0e	0.020505931
13	0x3ca53454	0.020166554
14	0x3ca573af	0.020196764
15	0x3ca8cb2f	0.020604698
16	0x3ca99a76	0.020703536
17	0x3ca72c72	0.020406935
18	0x3caa6f51	0.020805033
19	0x3ca7bd4a	0.020476002
20	0x3caafd67	0.020872785
21	0x3c5cd919	0.0134794945
22	0x3c78c679	0.015184038
23	0x3c9b0c1c	0.018926673
24	0x3ca6d8b7	0.02036701
25	0x3ca03fda	0.019561697
26	0x3ca71d1c	0.020399623
27	0x3c8b07f4	0.016971566
28	0x3ca0a95b	0.019612005
29	0x3c8581ea	0.0162973
30	0x3c58dfa1	0.013236911
31	0x3c976977	0.018482907
32	0x3ca51950	0.020153672
33	0x3ca7b0a3	0.02046997
34	0x3ca4a34e	0.020097401
35	0x3ca08f16	0.019599479
36	0x3ca44214	0.02005104
37	0x3baa6b74	0.0052007977
38	0x3ca68f78	0.020332083
39	0x3ca9cd99	0.02072792
40	0x3c9cc863	0.01913852
41	0x3c9c6d20	0.019095004
42	0x3bcf58a3	0.006327705
43	0x3caa0cbb	0.020758023
44	0x3c8ffee4	0.017577596
45	0x3c60e901	0.013727427
46	0x3c8c3eea	0.017119844
47	0x3ca16070	0.019699305
48	0x3c9092d5	0.01764814
49	0x3ca5dc2a	0.020246584
50	0x3c9b8226	0.018982958
51	0x3ca470f3	0.02007339
52	0x3c88607b	0.016647568
53	0x3ca279db	0.019833496
54	0x3ca6b787	0.020351185
55	0x3ca81893	0.02051953
56	0x3ca1c28c	0.019746087
57	0x3ca03e1a	0.019560862
58	0x3ca9f21e	0.020745333
59	0x3ca0cb6e	0.019628253
60	0x3c2dc57b	0.010606165
61	0x3c74a5ff	0.014932155
62	0x3ca30a5e	0.019902404
63	0x3c8b5fb8	0.017013416

bn3.running_mean f4 [64]
0	0x40205d29	2.505686
1	0x3f995d45	1.1981589
2	0x3fd71443	1.6803058
3	0xbe5f51a7	-0.21808492
4	0xbee5212b	-0.44751868
5	0xbf868d33	-1.051184
6	0x3f5e6c13	0.8688366
7	0x4003c54e	2.0589175
8	0x400df3b5	2.2179997
9	0xbfff17b6	-1.9929111
10	0x3fa76518	1.3077726
11	0xbf056353	-0.5210468
12	0xc007ca50	-2.1217232
13	0xbf4bda03	-0.79629534
14	0x3fe3f87b	1.7810205
15	0x3fda8536	1.7071903
16	0x3e9e18f6	0.3087842
17	0x3f990018	1.1953154
18	0x3f269f03	0.6508638
19	0xbe873958	-0.26410937
20	0x4017d136	2.3721442
21	0x3f1f5c16	0.62249887
22	0xbe85b027	-0.26110956
23	0xbf21eb8c	-0.6325004
24	0x3ffe3ee7	1.9862946
25	0xbe96b267	-0.29432985
26	0x401a8ce2	2.4148488
27	0x3f1abfee	0.6044911
28	0x40500e53	3.2508743
29	0x400c701d	2.1943429
30	0x3d97cc58	0.07412022
31	0x3ff80e1e	1.9379308
32	0xbfae8b82	-1.3636324
33	0xc01801d0	-2.3751106
34	0xc02fb989	-2.7456992
35	0x3e99211c	0.29908073
36	0x3fbc9c83	1.4735264
37	0x4010e3f1	2.2639124
38	0x400d9438	2.2121716
39	0x3f697c56	0.91205347
40	0x3fc7b46c	1.5601935
41	0x3e053ae7	0.1301075
42	0x40285c99	2.6306517
43	0x3ff31a80	1.8992462
44	0x3ffe7f63	1.9882625
45	0x3f9141ac	1.1348166
46	0xbec95bea	-0.39327937
47	0x3eef2967	0.46711275
48	0x3ff45083	1.908707
49	0x3f819f04	1.0126653
50	0xbf2d540a	-0.6770636
51	0x3e2b1811	0.167084
52	0xbf800e69	-1.0004398
53	0x3fa63e6e	1.2987802
54	0xc031faee	-2.7809405
55	0xbfc93d6a	-1.5721867
56	0xbfef5960	-1.869915
57	0x3f27996e	0.6546849
58	0xbebcb79a	-0.36858827
59	0x3ffc139e	1.9693487
60	0x3f59e249	0.8511091
61	0x3f3dcdcd	0.7414215
62	0x3ffb7e7e	1.9647977
63	0xbe9f5556	-0.31119794

bn3.running_var f4 [64]
0	0x3fc536b7	1.5407323
1	0x3f2cee31	0.6755095
2	0x3f847d42	1.0350726
3	0x3f9d918b	1.2310041
4	0x3f07dfc4	0.53075814
5	0x3f7293f9	0.9475704
6	0x3f58332b	0.84453076
7	0x3fa7a2c8	1.3096552
8	0x3fc12b8c	1.5091414
9	0x3fb27536	1.394202
10	0x3f5cf914	0.86317563
11	0x3f966466	1.1749389
12	0x40456f95	3.0849354
13	0x3f5a2fc6	0.85229146
14	0x3f918fc7	1.1372002
15	0x3f56f664	0.8396971
16	0x3f52db7f	0.82366174
17	0x3fe79c5a	1.809459
18	0x3f4f17a0	0.80895424
19	0x3fb37a1a	1.4021637
20	0x3f247d8e	0.6425408
21	0x3f2e7e80	0.68161774
22	0x3f0f3282	0.55936444
23	0x3fcf0e82	1.6176302
24	0x3fd71d3b	1.6805795
25	0x3fa6eb64	1.3040586
26	0x3f4aa238	0.79153776
27	0x3f76c1d2	0.96389496
28	0x3fc2de23	1.5224041
29	0x3f78de7a	0.9721447
30	0x3f7da1de	0.99075115
31	0x3fa7fabe	1.3123395
32	0x3f92b19d	1.1460453
33	0x3fd7d1fd	1.6860958
34	0x3fee8914	1.8635583
35	0x3fda2ff4	1.7045884
36	0x3fb42a6d	1.4075447
37	0x3f808159	1.0039474
38	0x3f70474c	0.9385879
39	0x3fc1b4d4	1.5133309
40	0x3f8a4838	1.080329
41	0x3f6137d7	0.8797583
42	0x3f71726e	0.9431523
43	0x3f6b604e	0.91943824
44	0x3f7f979d	0.9984072
45	0x3f5c7687	0.8611836
46	0x3fc0ca0b	1.5061659
47	0x3f49c73d	0.7881964
48	0x3f8b3972	1.0876906
49	0x3f5ad1f1	0.85476595
50	0x3fe43c0e	1.7830827
51	0x3f3037fe	0.6883544
52	0x3fd36220	1.651432
53	0x3fb1a485	1.3878332
54	0x402bd664	2.6849604
55	0x3f92ac68	1.1458864
56	0x3f903319	1.1265594
57	0x3f3d5814	0.7396252
58	0x3ee31167	0.44349214
59	0x3fd6dd5d	1.6786305
60	0x3f80eabf	1.0071639
61	0x3f86ac64	1.052136
62	0x3fe46049	1.7841884
63	0x3f9381cc	1.1523986
