mnist_test/maml_mnist64/output/mnist-5wayTEST/train_iter_500.pth (torch_old, 307453 bytes, 20 tensors)

features.conv1.weight f4 [64, 1, 3, 3]
0	0x3c69395c	0.014234867
1	0x3ad30114	0.0016098344
2	0xbc8d2347	-0.017228736
3	0xbd43d8b6	-0.047814094
4	0x3d349d7a	0.044095494
5	0x3bb3a40c	0.0054822024
6	0x3d7a5ebd	0.061125506
7	0x3c01db28	0.007925786
8	0x3cae2927	0.021259857
9	0x3d983aac	0.07433066
10	0xbda2d0b5	-0.07949964
11	0xbd4debb8	-0.050273627
12	0x3d8a7679	0.06760878
13	0xbc1b36b7	-0.009473494
14	0xbdffdfc3	-0.12493851
15	0x3dc0fda4	0.09423378
16	0x3d96270e	0.07331668
17	0xbd26a506	-0.040684722
18	0x3d7154f1	0.058918897
19	0x3d9072e6	0.07053165
20	0xbdff5f2c	-0.124693245
21	0x3d06bf15	0.032897074
22	0x3dbb65a4	0.09150246
23	0x3d822a16	0.063556835
24	0xbca29293	-0.019845283
25	0xbe010d8c	-0.12602824
26	0xbdb2be03	-0.08727648
27	0xbcd16fb4	-0.02556596
28	0xb8a471c6	-7.841321e-05
29	0xbd556921	-0.052102212
30	0x3ddb3264	0.107029706
31	0x3e44077a	0.19143477
32	0xbc6f1630	-0.014592692
33	0xbd9bdd54	-0.07610574
34	0xbd35b8ed	-0.044365812
35	0x3d5db8b8	0.05413124
36	0xbd28f618	-0.04125032
37	0x3cdecee6	0.027198266
38	0xbda338f3	-0.079698466
39	0x3c1816f0	0.0092828125
40	0xbd917188	-0.071017325
41	0xbe0b22bd	-0.1358747
42	0x3c794933	0.015215206
43	0xbd9d4801	-0.07679749
44	0xbd936a80	-0.07198048
45	0x3d910b21	0.07082201
46	0xbd16c4ff	-0.036808964
47	0xbd4162ef	-0.04721349
48	0x3de9b65c	0.114117354
49	0xbd9d27db	-0.076736175
50	0x3d96268d	0.07331572
51	0xbca3b393	-0.019983089
52	0xbdc357d0	-0.09538233
53	0x3e1e236a	0.15443197
54	0x3e12c7aa	0.14333978
55	0xbdb5695d	-0.08857987
56	0x3ddcf65f	0.10789179
57	0xbd87d78b	-0.066329084
58	0x3bec3de5	0.007209527
59	0x3cb8a3d9	0.022539066
60	0x3db9728f	0.090550534
61	0x3d997108	0.07492262
62	0x3e171d0f	0.14757179
63	0xbd059a81	-0.03261805
64	0xbd3320da	-0.0437325
65	0x3c9c0744	0.019046433
66	0xbd659df4	-0.05605884
67	0xbd208b93	-0.03919561
68	0xbd514621	-0.05109227
69	0xbcb4960a	-0.0220442
70	0xbd61b294	-0.055101946
71	0xbd571d57	-0.052518215
72	0x3e022a1a	0.12711373
73	0xbcf84663	-0.030307
74	0x3b827f73	0.0039824783
75	0x3d764247	0.0601218
76	0xbdd9a0b3	-0.10626354
77	0x3d94c073	0.07263269
78	0x3d13926e	0.036028318
79	0xbc6b3f26	-0.0143583175
80	0x3dfe5f80	0.12420559
81	0xbddc66a7	-0.10761767
82	0xbcb2674b	-0.02177777
83	0x3d805ead	0.06268058
84	0xbe0d7d97	-0.1381744
85	0xbcd099c3	-0.025463944
86	0x3dcc675a	0.0998065
87	0xbdc97b0f	-0.09837925
88	0x3d15c793	0.036567282
89	0x3c6a58dd	0.014303413
90	0xbd185340	-0.03718877
91	0xbd2b5b97	-0.041835394
92	0xbc4bd8ca	-0.012441823
93	0xbd892727	-0.06696921
94	0xbdf35c73	-0.11882868
95	0xbd1a936a	-0.03773824
96	0xbd94d218	-0.07266635
97	0xbdba0ded	-0.090846874
98	0xbc78cfbd	-0.015186247
99	0x3d97a5a8	0.07404643
100	0xbc0afebb	-0.008483584
101	0xbd9bad30	-0.07601392
102	0xbbcf714f	-0.006330646
103	0x3d1106ce	0.03540688
104	0xbbbafb2d	-0.005706212
105	0xbc341ed7	-0.010993681
106	0x3d447c5a	0.047970153
107	0x3dd25023	0.10269191
108	0x3cde19f3	0.027111983
109	0x3e3edd72	0.18639162
110	0x3c87108a	0.016487379
111	0xbe0f91c1	-0.14020444
112	0xbc574491	-0.013138906
113	0x3d1df5e8	0.038564593
114	0x3c9ed547	0.019388808
115	0xbe1b5973	-0.15170841
116	0xbc5bb6e2	-0.013410302
117	0x3d404b42	0.04694677
118	0xbddd2b42	-0.107992664
119	0x3c0965c0	0.0083860755
120	0x3e063565	0.13106306
121	0xbbd12ec1	-0.0063837473
122	0x3c59a56c	0.013284069
123	0xbd4d6b51	-0.050151173
124	0xbdbe34d9	-0.09287424
125	0xbcf446bd	-0.029818887
126	0xbd993ec7	-0.07482677
127	0xbe06d33b	-0.13166516
128	0xbe2af610	-0.16695428
129	0x3d9889c8	0.07448155
130	0x3d6d8326	0.0579864
131	0xbcfeb076	-0.031090003
132	0x3df39ff7	0.11895745
133	0x3da34db1	0.07973803
134	0xbbfde7e9	-0.007748593
135	0xbe0d117c	-0.13776201
136	0xbd8b6a1f	-0.0680735
137	0xbc8f2609	-0.017474191
138	0x3d8c8155	0.068606056
139	0x3cb49ccc	0.022047423
140	0x3cd9f4be	0.02660596
141	0xbd29450e	-0.04132562
142	0x3d9901c1	0.07471038
143	0x3d990a62	0.074726835
144	0x3e09df7e	0.13464162
145	0x3dbd5d6b	0.09246334
146	0xbdf026f7	-0.11726182
147	0x3b2ba186	0.0026188805
148	0x3d14d75d	0.0363382
149	0xbd91989b	-0.07109185
150	0xbd0b68e2	-0.03403557
151	0x3d928af2	0.07155408
152	0xbdd54bbb	-0.10414835
153	0xbb02b6bd	-0.0019945346
154	0x3db77154	0.089571625
155	0x3d0f5144	0.03498961
156	0xbda6dc0f	-0.081474416
157	0xbd223834	-0.03960438
158	0x3e02b36e	0.1276376
159	0xbdd09c39	-0.10186047
160	0xbd3d8e05	-0.04627802
161	0x3d0e1a6b	0.034693163
162	0xbc55292b	-0.0130103035
163	0x3e1041a0	0.14087534
164	0xbe5c3d6b	-0.21507804
165	0x3caccd9a	0.021094132
166	0x3a0016bf	0.0004886202
167	0xbd3bdb60	-0.04586351
168	0x3c1b376f	0.009473666
169	0x3e2175f9	0.15767659
170	0xbd3852c4	-0.045000806
171	0x3cf1debd	0.029525155
172	0xbdfe87bb	-0.12428232
173	0xbd407745	-0.046988744
174	0xbd859c6b	-0.06523975
175	0xbe2a1b23	-0.16611914
176	0xbd521e1a	-0.05129824
177	0xbabbaddf	-0.0014318785
178	0x3c278abd	0.010225949
179	0x3cdb22c3	0.026749974
180	0x3d9384cb	0.072030626
181	0x3ce48cfa	0.027899254
182	0xbdf3af7d	-0.11898706
183	0x3e020bfa	0.12699881
184	0xbc8b9605	-0.017039308
185	0x3d0eac5b	0.03483234
186	0x3d300f51	0.042983357
187	0xbdec532a	-0.115393
188	0xbd8ad1ad	-0.06778274
189	0x3dbdaaf9	0.09261126
190	0xbd00e104	-0.03146459
191	0x3d5f6be5	0.054546256
192	0xbd0b37a0	-0.033988595
193	0xbde0e6b7	-0.10981505
194	0x3e0de78d	0.13857861
195	0x3ddc9421	0.10770441
196	0x3c5dd6e3	0.0135400025
197	0xbda9141d	-0.082557894
198	0xbd9d5677	-0.076825075
199	0xbbc2ba53	-0.0059426217
200	0xbb1d61f6	-0.0024014688
201	0xbdd8d102	-0.1058674
202	0x3c39277b	0.011300917
203	0x3cad894e	0.021183636
204	0xbde57ea6	-0.11205797
205	0xbda17d3f	-0.07885217
206	0xbcade37c	-0.021226637
207	0x3c3933ff	0.011303901
208	0xbc80969f	-0.015696822
209	0xbe07e933	-0.13272552
210	0xbd9fef4a	-0.07809313
211	0xbd88288e	-0.0664836
212	0x3dd674cb	0.10471495
213	0x3d823213	0.06357207
214	0x3dc74bb5	0.09731237
215	0x3c2b2b8d	0.010447395
216	0xbc03e656	-0.008050522
217	0x3ca616d3	0.020274555
218	0xbc15c53b	-0.009141262
219	0xbd10ac94	-0.035320833
220	0xbd246bee	-0.040141992
221	0xbc468aab	-0.012118022
222	0xbd905c99	-0.070489116
223	0xbdaf36a2	-0.08555342
224	0xbd7108df	-0.05884635
225	0xbcb52c77	-0.022115929
226	0xbb1e4875	-0.0024152074
227	0xbd15475a	-0.036445
228	0x3bc2605f	0.0059318985
229	0x3d6189d6	0.05506309
230	0xbd0094d8	-0.03139195
231	0xbc97db07	-0.018537058
232	0x3d66803c	0.056274638
233	0xbddd4afd	-0.108053185
234	0x3c9a2e2c	0.018820845
235	0xbdcfcf5f	-0.10146975
236	0xbe05e99b	-0.13077395
237	0xbc5e5893	-0.013570922
238	0xbd14fed4	-0.036375836
239	0xbd7f1560	-0.062276244
240	0x3d9b2efe	0.075773224
241	0xbbad64e2	-0.005291567
242	0xbd10ad5a	-0.03532157
243	0xbcb14c9a	-0.021642972
244	0xbc87924e	-0.016549256
245	0x3c3c6253	0.011498052
246	0x3b8abfe3	0.0042343005
247	0xbd96f7bc	-0.0737147
248	0xbd07f39f	-0.03319132
249	0xbd1ab4c8	-0.037770063
250	0xbe110da1	-0.14165355
251	0xbd842c16	-0.06453721
252	0x3d4b0db2	0.049573608
253	0xbe126af2	-0.14298609
254	0xbd679b85	-0.0565448
255	0x3d7a8780	0.06116438

features.conv1.bias f4 [64]
0	0x3b5b4e55	0.0033463438
1	0xb9b70542	-0.00034908397
2	0xbab6a299	-0.0013933956
3	0x3b022c1e	0.0019862722
4	0x3a814969	0.0009863797
5	0x39bd5840	0.0003611464
6	0x3b0d5b67	0.0021569373
7	0xba636c70	-0.0008675521
8	0x3b793d97	0.0038031095
9	0xbb1e881c	-0.0024190014
10	0x39bde846	0.00036221946
11	0x3c5ef7f1	0.0136089185
12	0xbbedac48	-0.0072532035
13	0x3c32f3d6	0.010922393
14	0x39e36834	0.0004337445
15	0x3983efca	0.00025164924
16	0x3b2ff8d3	0.0026851192
17	0xbc576f82	-0.013149144
18	0x3b826a4e	0.0039799577
19	0x3b4aad40	0.003092602
20	0x3bad3a20	0.00528647
21	0xbbe9481f	-0.007119193
22	0xba16efb2	-0.0005757763
23	0x3bdf6bf0	0.006818287
24	0xbadc652e	-0.0016814822
25	0x3ba36c5f	0.004987284
26	0x38267b2d	3.96922e-05
27	0xbb4db265	-0.003138685
28	0x3c0f979f	0.008764177
29	0xbabde7f4	-0.0014488683
30	0x3bd572c9	0.0065139276
31	0x39e30c93	0.00043306182
32	0x3a2acfed	0.00065159687
33	0xbb288c2a	-0.002571831
34	0xba3ca904	-0.0007196816
35	0xba8ad047	-0.0010590636
36	0x3b28e8c4	0.0025773505
37	0xba9bf1ff	-0.0011897682
38	0x3a0f2ea7	0.0005461969
39	0xb95654fc	-0.0002044029
40	0x3bebc7a0	0.007195428
41	0xbb058622	-0.002037414
42	0xbbeb9bda	-0.00719021
43	0x3aaffea1	0.0013427326
44	0x3af440e2	0.0018635059
45	0xbafdadf1	-0.0019354207
46	0x3a13675d	0.00056230073
47	0xbaf7d494	-0.0018907958
48	0x3abac948	0.001425066
49	0x3b160d41	0.0022896084
50	0x3b77f28e	0.0037833783
51	0x3a1fca24	0.000609549
52	0x3b856207	0.0040705237
53	0xbb838a16	-0.004014264
54	0xbb29bab0	-0.0025898628
55	0x3bb6c8f3	0.005578154
56	0x3bf1b220	0.0073759705
57	0xbb758b49	-0.0037467054
58	0x3ac3cee2	0.0014938975
59	0xbb1ddd4b	-0.00240882
60	0x3c06150a	0.008183727
61	0xb9a02720	-0.00030546729
62	0x3bfec8a7	0.0077753845
63	0x3b4e0537	0.0031436214

features.bn1.weight f4 [64]
0	0x3f757aef	0.95890707
1	0x3f76f588	0.964684
2	0x3f71003d	0.9414099
3	0x3f6ce66c	0.92539096
4	0x3f8bcd5c	1.0922046
5	0x3f69bb80	0.9130173
6	0x3f6e0d8b	0.92989415
7	0x3f885462	1.0650752
8	0x3f6bfca8	0.921824
9	0x3f87ef34	1.0619874
10	0x3f8e4b47	1.1116723
11	0x3f622a03	0.88345355
12	0x3f800a26	1.0003097
13	0x3f717206	0.9431461
14	0x3f8ab4ba	1.0836403
15	0x3f7a3fc6	0.9775356
16	0x3f7af31d	0.9802721
17	0x3f7bf39b	0.9841859
18	0x3f81cffb	1.0141596
19	0x3f8f4a24	1.1194501
20	0x3f78a42b	0.971255
21	0x3f6ea59c	0.9322145
22	0x3f8c02c7	1.0938348
23	0x3f73a30d	0.9517067
24	0x3f8a1e84	1.0790563
25	0x3f774986	0.9659656
26	0x3f8c9df8	1.0985708
27	0x3f884274	1.064528
28	0x3f725119	0.94654995
29	0x3f8cfe85	1.1015173
30	0x3f8e0c15	1.1097437
31	0x3f8fd803	1.1237797
32	0x3f8ea45f	1.1143912
33	0x3f7e9f0f	0.99461454
34	0x3f80185a	1.0007432
35	0x3f6cb3dc	0.92461944
36	0x3f900b6d	1.1253487
37	0x3f85d0e1	1.045437
38	0x3f884406	1.0645759
39	0x3f6bb473	0.9207222
40	0x3f770edb	0.9650704
41	0x3f838f97	1.0278195
42	0x3f6206ce	0.88291633
43	0x3f6e0c6b	0.929877
44	0x3f8d4ea7	1.1039628
45	0x3f85d5b3	1.0455841
46	0x3f83bb9c	1.0291629
47	0x3f87a29a	1.0596497
48	0x3f7e2681	0.992775
49	0x3f6ea885	0.9322589
50	0x3f9216ed	1.1413246
51	0x3f8f3e7f	1.1190947
52	0x3f6c6e36	0.9235567
53	0x3f720b7b	0.9454877
54	0x3f79daf0	0.975997
55	0x3f79ec8c	0.97626567
56	0x3f6c7c00	0.9237671
57	0x3f824745	1.0178
58	0x3f90c5b6	1.1310337
59	0x3f85c7d6	1.045161
60	0x3f78e0c7	0.97217983
61	0x3f76478d	0.9620293
62	0x3f7793b1	0.96709734
63	0x3f6ecc17	0.93280166

features.bn1.bias f4 [64]
0	0x3c741b72	0.014899122
1	0xbd55505b	-0.052078586
2	0x3d0af694	0.03392656
3	0x3d323654	0.043508843
4	0xbe166bd0	-0.14689565
5	0x3d22c69f	0.0397402
6	0x3cf50868	0.029911235
7	0xbe550fbb	-0.20806782
8	0x3bf6fdf7	0.007537599
9	0xbdf5f1b5	-0.120089926
10	0xbe744142	-0.23853019
11	0x3d5a95be	0.05336546
12	0xbd93764b	-0.07200297
13	0xbd3fc636	-0.046819888
14	0xbd41ea1f	-0.047342416
15	0x3ca98bfd	0.020696634
16	0x3c92011a	0.01782279
17	0xbcd2c416	-0.025728267
18	0x3d6f18bd	0.0583732
19	0xbe01aaaf	-0.12662767
20	0x3daf7e7e	0.08569048
21	0x3da02ff8	0.07821649
22	0xbe588f49	-0.21148409
23	0xbd2c8732	-0.04212112
24	0xbe17b458	-0.1481489
25	0xbd3bffe6	-0.04589834
26	0xbe02ce55	-0.12774022
27	0xbe258d0a	-0.16167083
28	0x3ccd5e05	0.025069246
29	0xbe8cad4f	-0.27475974
30	0xbc81f164	-0.015862174
31	0xbd82cab0	-0.06386316
32	0xbe44653d	-0.19179244
33	0x3c9e27d7	0.019306106
34	0xbdde4bf6	-0.10854332
35	0xbc898451	-0.016786726
36	0xbe7ad2c0	-0.24494457
37	0xbdeb9a53	-0.115040444
38	0xbdda791b	-0.1066763
39	0x3de8fc13	0.11376204
40	0x3d8a226c	0.06744847
41	0xbe0c3e6b	-0.13695686
42	0x3d28bc85	0.04119541
43	0x3dbe56d5	0.09293906
44	0xbdee6421	-0.11640192
45	0xbe0f3a96	-0.13987193
46	0x3bcfd573	0.006342584
47	0xbdb111f1	-0.08646
48	0x3d2ab759	0.04167876
49	0x3dd3b49f	0.10337185
50	0xbe3066fd	-0.17226787
51	0xbe43dfdc	-0.19128364
52	0xbd92825a	-0.07153769
53	0xbc62cbec	-0.013842564
54	0xbdbedf1d	-0.09319899
55	0x3d361d75	0.044461686
56	0xbd75fdd0	-0.060056508
57	0x3cca2779	0.024677025
58	0xbe1b2343	-0.1515017
59	0xbe1dfb52	-0.15427902
60	0x3cb641b9	0.022248136
61	0xbe0ce45b	-0.13758986
62	0x3de91d55	0.11382548
63	0x3de9489c	0.11390802

features.bn1.running_mean f4 [64]
0	0x3d768320	0.060183644
1	0x3be43dc3	0.0069653704
2	0xbcd2eb90	-0.02574709
3	0x3db8a6eb	0.09016212
4	0xbe8b3b5e	-0.2719373
5	0x3d9ebf80	0.077513695
6	0x3e8ecc00	0.27890015
7	0xbe5756b9	-0.21029176
8	0x3e2aba7c	0.166727
9	0xbdea5e18	-0.11443728
10	0xbe9e5c7c	-0.30929935
11	0x3dd48227	0.10376387
12	0xbcbc31d8	-0.022972986
13	0xbd3603be	-0.044437163
14	0xbd5f4bb0	-0.05451554
15	0x3b5a80e0	0.0033340976
16	0x3b512b74	0.003191677
17	0xbba72eae	-0.005102
18	0x3c80f0c6	0.01573981
19	0xbe7b2c6f	-0.24528669
20	0x3b2c1d83	0.0026262708
21	0x3dc078b5	0.09398023
22	0xbe6e987e	-0.23300359
23	0x3bd87dfe	0.0066068163
24	0xbe410040	-0.18847752
25	0xbd6d2939	-0.05790064
26	0xbe3d6937	-0.18497168
27	0xbe735a75	-0.23764975
28	0x3c06a3fd	0.008217809
29	0xbe71edbd	-0.23625846
30	0xbde864ef	-0.113473766
31	0xbf01aafa	-0.50651515
32	0xbe546f08	-0.2074548
33	0xbdc06538	-0.09394306
34	0xbe2bbfd7	-0.167724
35	0x3e282205	0.16419227
36	0xbe85ad05	-0.26108566
37	0xbe7b826b	-0.2456147
38	0xbe6be81a	-0.23037758
39	0x3cb9f4bc	0.022699706
40	0x3d0ed7fc	0.034873948
41	0xbe2a8c44	-0.1665507
42	0x3c5373d4	0.012906034
43	0xbb6eb2e4	-0.0036422545
44	0xbe3d0db5	-0.1846226
45	0xbc2b8030	-0.010467574
46	0x3be1db36	0.006892587
47	0xbdfcc6de	-0.123426184
48	0x3b91cdf5	0.004449601
49	0x3e1911d5	0.14948209
50	0xbe2e8f2f	-0.17046808
51	0xbe972568	-0.29520726
52	0x3dd44ccb	0.103662096
53	0x3c9ac19a	0.018891145
54	0xbdaa9da6	-0.0833085
55	0x3b72eda1	0.0037067907
56	0xbd7720fe	-0.0603342
57	0x3b27a506	0.002558054
58	0xbe928313	-0.28615627
59	0xbdac8767	-0.084242634
60	0x3e280703	0.16408925
61	0xbd0860aa	-0.03329531
62	0x3d92511e	0.07144378
63	0x3e0f64ac	0.14003247

features.bn1.running_var f4 [64]
0	0x3c2d1fcb	0.010566662
1	0x3d290394	0.041263178
2	0x3cb51c1a	0.022108126
3	0x3d0b79d8	0.034051746
4	0x3e61e0b7	0.22058378
5	0x3cee8d04	0.029119976
6	0x3e5e730a	0.21723571
7	0x3e002b95	0.12516625
8	0x3da4f302	0.080541626
9	0x3db16052	0.0866095
10	0x3e8f95fe	0.28044122
11	0x3ce601e9	0.028077083
12	0x3cc55fd3	0.024093544
13	0x3cba9d0f	0.02277997
14	0x3d76a590	0.060216486
15	0x3ca40523	0.02002198
16	0x3d23154e	0.03981524
17	0x3d08b49f	0.03337538
18	0x3d240b92	0.040050097
19	0x3e45d18e	0.1931822
20	0x3d0d0c22	0.0344354
21	0x3d12afa4	0.035812035
22	0x3e2ca9f2	0.16861704
23	0x3c4fcec2	0.012683572
24	0x3dd2ac58	0.10286778
25	0x3c8d0c87	0.017217888
26	0x3df64a5f	0.12025904
27	0x3e2891a6	0.1646181
28	0x3c988068	0.018615916
29	0x3e337980	0.17526817
30	0x3d59d343	0.05317999
31	0x3f3cb93f	0.73720163
32	0x3e025a4a	0.12729755
33	0x3cd6be32	0.026213739
34	0x3daa1b18	0.08305949
35	0x3de1ee9f	0.110318415
36	0x3e5098a4	0.20370728
37	0x3e3b67a2	0.18301252
38	0x3e258e4c	0.16167563
39	0x3c18880d	0.009309781
40	0x3d0b3130	0.033982456
41	0x3dec5c14	0.11541
42	0x3c863f5e	0.016387638
43	0x3cbdd61f	0.02317339
44	0x3def338f	0.11679756
45	0x3d20f2c9	0.039294038
46	0x3d79014b	0.06079225
47	0x3d7da2fc	0.061923012
48	0x3d900c94	0.07033649
49	0x3d8c9832	0.068649665
50	0x3dca76bb	0.09885927
51	0x3e80cccd	0.2515625
52	0x3cea709c	0.02861815
53	0x3c508c33	0.012728739
54	0x3cabae4c	0.020957135
55	0x3ceeeee7	0.029166652
56	0x3c90f321	0.017694058
57	0x3d7487d1	0.059699837
58	0x3e931ae6	0.2873146
59	0x3d1463e7	0.036228087
60	0x3d9459c3	0.07243683
61	0x3ccc1271	0.024911137
62	0x3cc361a1	0.023850264
63	0x3d75b3e2	0.059986003

features.conv2.weight f4 [64, 64, 3, 3]
0	0xbd82e65f	-0.06391596
1	0x3c856b4f	0.01628652
2	0xbd62f829	-0.055412445
3	0x3cd958c1	0.026531579
4	0x3b273003	0.0025510795
5	0xbe0dba5c	-0.13840622
6	0x3cf1a370	0.029496878
7	0x3dd8b954	0.105822235
8	0xbd635157	-0.055497494
9	0xbd858cfc	-0.06521031
10	0xbd54cb58	-0.051951736
11	0x3d2641d2	0.040590115
12	0x3b5078fb	0.0031810391
13	0xbcfcc085	-0.03085352
14	0x3cd6d2b1	0.026223512
15	0xbc4fbae6	-0.012678837
16	0x3c274bff	0.01021099
17	0xbd22ec92	-0.039776392
18	0xbdd4fe71	-0.10400093
19	0x3d84d29b	0.06485482
20	0xbe092367	-0.13392411
21	0xbdee772e	-0.116438255
22	0xbd60096d	-0.05469649
23	0xbb413ec0	-0.0029486865
24	0x3c9dd869	0.019268231
25	0xba89903f	-0.0010495259
26	0xbd8d5ffa	-0.06903072
27	0xbb88093f	-0.004151493
28	0xbdcdbd5e	-0.100458845
29	0x3d36692d	0.044533897
30	0x3d123d1e	0.035702817
31	0xbbc99e80	-0.006152928
32	0x3db06330	0.086126685
33	0xbdb57ee8	-0.08862096
34	0x3da61d6e	0.08111082
35	0xbd90a921	-0.07063509
36	0xbc9dc996	-0.019261163
37	0xbd986a42	-0.07442142
38	0x3df874d4	0.12131658
39	0xbd70df26	-0.05880656
40	0x3dd7c2f5	0.10535232
41	0x3c812659	0.015765356
42	0xbd756c88	-0.059917957
43	0xbca78a1f	-0.020451603
44	0xbd4fde71	-0.050749246
45	0xbd196286	-0.037447475
46	0xbe0cb5ac	-0.13741177
47	0xbcdfbb44	-0.027310975
48	0x3c33239d	0.010933784
49	0x3d7f8a71	0.062387887
50	0x3b501a0a	0.0031753802
51	0x3c842126	0.016129088
52	0x3d34b3aa	0.044116654
53	0x3e278157	0.16357933
54	0xbdab2354	-0.08356348
55	0xbd42a354	-0.047519043
56	0xbd32af14	-0.043624
57	0xbd676964	-0.056496993
58	0xbb338f60	-0.002739869
59	0xbcdc74bf	-0.026911138
60	0xbce3079e	-0.027713593
61	0x3d1c4cf6	0.038159333
62	0x3d0391a7	0.032121327
63	0x3ca26ff1	0.019828768
64	0xbdbe14af	-0.09281289
65	0xbcda843f	-0.026674388
66	0x3d8b6327	0.06806021
67	0xbdd1e14e	-0.102480516
68	0xbda42623	-0.080150865
69	0xbca9722d	-0.020684326
70	0xbe195205	-0.14972694
71	0xbca35354	-0.019937195
72	0xbca31be1	-0.019910755
73	0xbe3dba17	-0.18528019
74	0xbdd160f7	-0.10223573
75	0x3c1a579d	0.009420303
76	0xbcdee4e3	-0.027208751
77	0xbd6ee041	-0.058319334
78	0x3d5f2ab4	0.054484084
79	0x3d3cb46e	0.04607051
80	0x3ca8f637	0.020625217
81	0xbdc82bd3	-0.09773984
82	0x3d55fbe8	0.05224219
83	0x3deb2d85	0.114832915
84	0x3cedf0fe	0.029045578
85	0xbdb1ae9f	-0.086758845
86	0xbda69811	-0.08134473
87	0xbc0ad8a9	-0.008474507
88	0xbc710fca	-0.014713237
89	0x3e53f14a	0.20697513
90	0xbc978f99	-0.01850109
91	0xbda57d38	-0.08080524
92	0xbe181cf6	-0.14854798
93	0xbb0475e9	-0.0020211881
94	0xbdec417a	-0.11535926
95	0xbd2fbd5b	-0.042905193
96	0xbdccec7f	-0.100060456
97	0xbd7cb8f9	-0.06169984
98	0xbd8d9ab9	-0.06914277
99	0x3d3ef7aa	0.04662291
100	0xbc638da0	-0.0138887465
101	0xbd925dd7	-0.07146805
102	0x3d75737f	0.0599246
103	0xbd4c5d4d	-0.049893666
104	0xbdeda8cf	-0.11604463
105	0xbda8163b	-0.08207365
106	0x3d806b1c	0.062704295
107	0xbb940470	-0.0045171306
108	0x3cd2d363	0.025735563
109	0x3c959a7e	0.018262144
110	0xbd924c2f	-0.07143437
111	0xbdff97b9	-0.12480111
112	0x3d51f5b8	0.051259726
113	0xbbce0f69	-0.006288458
114	0xbcc9cb25	-0.024633
115	0xbc9a4c56	-0.018835228
116	0x3c5c0d54	0.013430912
117	0xbba19068	-0.0049305446
118	0xbe088923	-0.13333564
119	0x3d7ab1dc	0.061204776
120	0x3d3aee9f	0.045637723
121	0x3d352c7e	0.044231884
122	0xbd039654	-0.032125786
123	0xbc7d895c	-0.015474644
124	0x3c901f13	0.017592942
125	0xbe0ba2b5	-0.13636287
126	0xbd3e0ee4	-0.04640092
127	0x3c68e560	0.0142148435
128	0x3d24debe	0.040251486
129	0x3e017360	0.12641668
130	0x3d6a20fa	0.057160355
131	0xbc812239	-0.015763389
132	0x3dcc6571	0.09980286
133	0x3b825b39	0.0039781597
134	0x3cfae2d1	0.030625733
135	0x3d696c30	0.05698794
136	0x3d4df9ab	0.05028693
137	0xbdb537fd	-0.088485695
138	0x3d968e1b	0.07351323
139	0xbbc3264a	-0.005955492
140	0x3dd43f16	0.10363595
141	0xbb92a7ae	-0.0044755554
142	0xbdd6da1d	-0.104908206
143	0xbd327e57	-0.04357752
144	0xbdacb3eb	-0.08432754
145	0xbdd8ab8c	-0.10579595
146	0xbd83c9c4	-0.06434968
147	0x3d748ec7	0.059706476
148	0x3d2f8fa9	0.042861614
149	0x3ba8ed8c	0.005155271
150	0x3d5601a3	0.052247655
151	0x3d1c2749	0.038123403
152	0x3d9e66d3	0.07734456
153	0xbde14b2a	-0.110006645
154	0xbdee4a71	-0.11635292
155	0x3d1fd615	0.039022524
156	0xbca34a19	-0.019932793
157	0x3cfbe3b6	0.03074823
158	0x3c18cabf	0.009325682
159	0xbd8f8103	-0.07007029
160	0x3bdab19a	0.006674004
161	0x3d2d6549	0.04233292
162	0x3c1c8d1d	0.009555128
163	0x3cbe59e8	0.02323623
164	0xbd1bb883	-0.03801776
165	0xbd4d0075	-0.050049264
166	0x3d27b099	0.0409399
167	0xbb6be20e	-0.0035992893
168	0x3daa5597	0.08317106
169	0x3d875e17	0.06609743
170	0xbd2dc546	-0.042424463
171	0x3ceff585	0.029291878
172	0xbd083327	-0.033251908
173	0xbd6fd7e7	-0.05855551
174	0xbe14c6ab	-0.14528911
175	0xbc6120de	-0.013740746
176	0xbde3aa80	-0.11116505
177	0xbac578c7	-0.0015065902
178	0x3da6e318	0.081487834
179	0xbdf2f198	-0.118624866
180	0xbe3b92c6	-0.18317708
181	0xbd21ba4b	-0.039484303
182	0xbd2535eb	-0.040334623
183	0xbd6736f7	-0.056448903
184	0x3c816d9d	0.015799338
185	0x3c81f8d0	0.015865713
186	0xbbf9bf89	-0.0076217097
187	0xbdbde96e	-0.09273039
188	0xbd9831f3	-0.07431402
189	0x3b8dcb46	0.0043272106
190	0xbd8981c0	-0.06714201
191	0xbc9be994	-0.019032277
192	0x3cf9d0bc	0.03049504
193	0x3d81e989	0.063433714
194	0x3c643306	0.013928181
195	0xbcfd47f6	-0.030918103
196	0x3c1e898c	0.009676348
197	0xbd62e50e	-0.055394225
198	0xbcbe79e7	-0.023251487
199	0x3c15a0bf	0.009132563
200	0x3c3156f5	0.010823955
201	0xbbb12f94	-0.005407283
202	0xbce865c2	-0.028368834
203	0xbcc4c355	-0.024018923
204	0xbe3a7979	-0.182104
205	0xbd315056	-0.043289505
206	0x3c1c6b18	0.0095470175
207	0x3dc93dc4	0.09826234
208	0x3d5618fe	0.05226993
209	0xbdfbf489	-0.12302501
210	0x3d993d65	0.07482413
211	0x3d34f7a8	0.044181496
212	0x3bf7da03	0.007563831
213	0x3dafcf4e	0.08584462
214	0x3ca027ad	0.019550169
215	0xbd1f08d6	-0.038826786
216	0xbb441e72	-0.0029925373
217	0xbe10b3ca	-0.14131084
218	0xbbf7c3c5	-0.0075611793
219	0xbd7a35db	-0.061086517
220	0xbdfbc9ec	-0.12294373
221	0x3d74c21f	0.05975544
222	0xbda080e0	-0.07837081
223	0x3c99e183	0.01878429
224	0xbdcfe24a	-0.10150583
225	0x3d518df6	0.051160775
226	0xbdc35b57	-0.09538906
227	0x3d0a48c5	0.033760805
228	0xbbdfe2c6	-0.0068324534
229	0xbd43aa68	-0.047769934
230	0xbd84e5e8	-0.06489164
231	0x3e07aef1	0.13250329
232	0xbd7b5a64	-0.0613655
233	0xbdd6add3	-0.10482373
234	0x3d1adec1	0.03781009
235	0x3ca76b98	0.020437047
236	0xbdc75169	-0.09732325
237	0xbbbb9ee9	-0.0057257307
238	0xbd233b39	-0.0398514
239	0xbda5651a	-0.08075924
240	0xbd377fce	-0.04479962
241	0x3de0a057	0.109680824
242	0xbd6a5ff0	-0.0572204
243	0x3d8be2bf	0.06830358
244	0xbd93056e	-0.0717877
245	0xbbe483ff	-0.006973743
246	0x3d5093bc	0.05092214
247	0xbd8b8fff	-0.068145745
248	0xbdb60eee	-0.08889566
249	0xbd082ddf	-0.03324687
250	0x3d921bcb	0.07134207
251	0xbd3d1de6	-0.04617109
252	0x3d45cfb7	0.048293795
253	0xbd257b6d	-0.04040091
254	0x3961b688	0.0002152567
255	0x39ad8a84	0.00033100334

features.conv2.bias f4 [64]
0	0x392d194d	0.00016507991
1	0xb95a74e6	-0.00020833648
2	0xb97f42d8	-0.00024343596
3	0xb92e506a	-0.0001662389
4	0x38b3bd44	8.5706386e-05
5	0x380c9eed	3.3526612e-05
6	0xb9ab31e9	-0.00032652848
7	0x3848d611	4.788308e-05
8	0xb8db124d	-0.000104461426
9	0x39c40d2d	0.0003739385
10	0xb9b8af14	-0.00035225658
11	0x395d7d5d	0.00021122904
12	0x38830ce1	6.248966e-05
13	0xb80ac5ee	-3.30861e-05
14	0xb8430004	-4.6491637e-05
15	0x399e6c46	0.00030216778
16	0x394bf14a	0.00019449476
17	0x38873268	6.4466905e-05
18	0x38058ee9	3.1842766e-05
19	0xb990d610	-0.0002762531
20	0x38be6300	9.078346e-05
21	0x39102c53	0.00013749422
22	0x382f287b	4.176095e-05
23	0xb6e499c3	-6.8128297e-06
24	0x35f4014c	1.8179794e-06
25	0x399c61b4	0.00029827433
26	0x396c91ca	0.00022561025
27	0x37427e2f	1.15926805e-05
28	0x385e81a2	5.3049655e-05
29	0x3981f946	0.0002479052
30	0x39dedd1b	0.00042507876
31	0x391f26e0	0.00015177904
32	0x3883b601	6.280468e-05
33	0xb92691d8	-0.00015885325
34	0xb99156f5	-0.00027721343
35	0x381d83e4	3.755455e-05
36	0x360855c8	2.031551e-06
37	0xb91bb0dc	-0.00014847837
38	0x36b30966	5.33571e-06
39	0x39078e78	0.00012927677
40	0xb8df89d1	-0.00010659139
41	0xb71444b9	-8.837488e-06
42	0xba70df26	-0.0009188525
43	0x39be221d	0.0003626504
44	0xb8330338	-4.2679923e-05
45	0x3918ce9b	0.00014572816
46	0x39ba8d72	0.0003558207
47	0x399bed30	0.00029740622
48	0x39919b74	0.00027772377
49	0xb9d0a56b	-0.00039796098
50	0xb8c66c5b	-9.4615585e-05
51	0x3942b8a1	0.00018570061
52	0x3964f1e0	0.0002183388
53	0xb9cac836	-0.0003867761
54	0xb9afeb8b	-0.00033554094
55	0xb97c4423	-0.00024057976
56	0x3956bb7b	0.00020478472
57	0xb9aac24f	-0.00032569698
58	0xb916636d	-0.00014342154
59	0xb924c07a	-0.00015711962
60	0xb8bf4a66	-9.1214475e-05
61	0xb95a7f3c	-0.00020837499
62	0xb9b5a3fe	-0.00034645194
63	0x39513c06	0.00019954154

features.bn2.weight f4 [64]
0	0x3f77c4ec	0.96784854
1	0x3f88c6df	1.0685691
2	0x3f805d9d	1.0028569
3	0x3f7ee70a	0.9957129
4	0x3f867674	1.0504899
5	0x3f7d4510	0.98933506
6	0x3f85e63c	1.0460887
7	0x3f800deb	1.0004247
8	0x3f7fb261	0.9988156
9	0x3f800ff2	1.0004866
10	0x3f732e6f	0.9499273
11	0x3f73456f	0.9502782
12	0x3f6d8b30	0.9279051
13	0x3f712f00	0.9421234
14	0x3f80b5ef	1.0055522
15	0x3f8b9dad	1.0907494
16	0x3f82f385	1.0230566
17	0x3f7fff94	0.99999356
18	0x3f857dc1	1.0429002
19	0x3f770bbf	0.965023
20	0x3f94e647	1.1632775
21	0x3f8a0271	1.0781995
22	0x3f70f8ea	0.9412981
23	0x3f84c935	1.0373904
24	0x3f77ef7e	0.9684981
25	0x3f8453c7	1.0338067
26	0x3f6f8315	0.9355939
27	0x3f7b2366	0.9810089
28	0x3f81360e	1.0094621
29	0x3f7eb30d	0.9949196
30	0x3f83c911	1.0295736
31	0x3f7a0faa	0.9768015
32	0x3f7d55c3	0.98958987
33	0x3f7bca6d	0.9835575
34	0x3f745b54	0.95451856
35	0x3f7ef584	0.9959338
36	0x3f78b4c1	0.9715081
37	0x3f6bf2a1	0.921671
38	0x3f84dae9	1.0379306
39	0x3f894bb0	1.0726223
40	0x3f7ca263	0.9868528
41	0x3f73feba	0.95310557
42	0x3f8621f6	1.0479114
43	0x3f75eb4f	0.9606218
44	0x3f76c537	0.96394676
45	0x3f88fc2f	1.070196
46	0x3f7a3881	0.9774247
47	0x3f781985	0.9691394
48	0x3f80cb2a	1.0062001
49	0x3f80555e	1.0026052
50	0x3f6c47a5	0.9229682
51	0x3f771f9b	0.965326
52	0x3f7bcd38	0.98360014
53	0x3f7420bf	0.95362467
54	0x3f899345	1.0748068
55	0x3f82d4d0	1.0221195
56	0x3f8abb2a	1.0838368
57	0x3f71b882	0.9442216
58	0x3f7edfac	0.99560046
59	0x3f7ce062	0.9877988
60	0x3f7668be	0.96253574
61	0x3f7081c9	0.93948036
62	0x3f8ed802	1.115967
63	0x3f6aff36	0.9179567

features.bn2.bias f4 [64]
0	0x3bf29304	0.0074027795
1	0xbe326741	-0.174222
2	0xbe7f0aa2	-0.249064
3	0xbe071dab	-0.13194911
4	0xbd77ead5	-0.060526688
5	0xbe16579c	-0.14681858
6	0xbe785198	-0.24249876
7	0xbe150e3a	-0.14556208
8	0x3d625918	0.055260748
9	0xbe58a60f	-0.21157096
10	0xbda5ba7d	-0.080922104
11	0xbaec786c	-0.001804126
12	0xbe1ba041	-0.15197851
13	0xbda8250b	-0.082101904
14	0xbdf934eb	-0.121682964
15	0xbd9b3141	-0.07577754
16	0xbe375448	-0.17903244
17	0x3c2d84be	0.01059073
18	0xbdb18a7b	-0.08668991
19	0xbe1f8909	-0.15579619
20	0xbe9cbe45	-0.30613914
21	0xbd051ffb	-0.032501202
22	0xbb8e879c	-0.004349662
23	0xbcc85cd8	-0.024458334
24	0xbe4c6c09	-0.19963087
25	0xbe73fd5f	-0.23827122
26	0xbd66178a	-0.056174792
27	0xbe08c4f6	-0.13356385
28	0xbd91a14b	-0.07110842
29	0xbe03cb80	-0.12870598
30	0x3d6d0128	0.05786243
31	0xbdb27ac2	-0.087148204
32	0xbd894998	-0.0670349
33	0xbe2f88e6	-0.17142066
34	0x3d862fb5	0.06552068
35	0xbe85c24e	-0.26124805
36	0xbd01c4c4	-0.03168179
37	0xbc96044c	-0.018312596
38	0xbdf381ca	-0.1188999
39	0xbe6dfb78	-0.23240459
40	0xbd53bb36	-0.05169221
41	0xbe2e762b	-0.17037265
42	0xbd823513	-0.06357779
43	0x3d56c890	0.052437365
44	0xbda10582	-0.07862379
45	0xbe127d10	-0.1430552
46	0xbd422e3a	-0.047407366
47	0xbe15ad7f	-0.14616965
48	0xbe222270	-0.1583345
49	0xbcb64ec7	-0.02225436
50	0xbd923cd5	-0.07140509
51	0xbe252471	-0.16127183
52	0xbd1a41e3	-0.03766049
53	0x3c56712c	0.013088506
54	0xbe242fc9	-0.16033854
55	0xbd6a8f17	-0.057265367
56	0xbe224574	-0.15846807
57	0xbd9d3dd8	-0.076778114
58	0xbd15a9f3	-0.03653903
59	0xbd8beac3	-0.068318866
60	0xbd138379	-0.036014054
61	0xbdf276c6	-0.118390605
62	0xbe0a50f0	-0.13507438
63	0xbe05c7f9	-0.13064565

features.bn2.running_mean f4 [64]
0	0xc0590758	-3.3910732
1	0x4007711b	2.1162784
2	0x3e77cb99	0.2419876
3	0xbe8a359f	-0.26994035
4	0xbe997b75	-0.29977003
5	0x3e204eac	0.15655011
6	0x3f2b8c2b	0.67010754
7	0xbfcad2a7	-1.5845536
8	0xc03a4891	-2.910679
9	0x3fde3736	1.7360599
10	0xc05024d2	-3.2522473
11	0xbfafc39c	-1.373157
12	0x3fa9e4d3	1.3272957
13	0xc03a40be	-2.9102015
14	0xbe27ee34	-0.16399461
15	0x400bea4c	2.1861753
16	0x3e4e72b7	0.20160948
17	0xbfaad78a	-1.3347027
18	0xbfc70c61	-1.5550653
19	0x3f034a55	0.51285297
20	0x3fc8fe72	1.570265
21	0x3fb894ed	1.4420449
22	0xbfdc518a	-1.7212384
23	0xbf0bef33	-0.54661864
24	0x3f50a2ee	0.8149861
25	0x3e75542b	0.23957889
26	0xbfad8f52	-1.3559363
27	0xbefe2b56	-0.49642438
28	0xbe75587e	-0.23959538
29	0x3ee6a615	0.45048586
30	0xbf4c3234	-0.79764104
31	0x3f9e2a9a	1.2356751
32	0x3fb30d17	1.398837
33	0x3f4895df	0.78353685
34	0xbf2fa354	-0.68608594
35	0xbed624f0	-0.41825056
36	0x3fd7f184	1.687058
37	0xbfcadba9	-1.5848285
38	0x3fcc08d3	1.5940193
39	0x3e0f85bb	0.14015858
40	0xbf8c3990	-1.0955067
41	0xc058cc50	-3.3874702
42	0xbf659d18	-0.8969283
43	0xbfd977df	-1.6989707
44	0xbecdd176	-0.4019887
45	0x404bf381	3.1867373
46	0xbe6f8dc2	-0.2339392
47	0xc089240f	-4.2856517
48	0x3e7ad1da	0.24494115
49	0xbf39b2b0	-0.7253828
50	0xc00ee210	-2.2325478
51	0xbfc6be91	-1.5526906
52	0x3eae5322	0.340478
53	0xc0302925	-2.7525113
54	0xbf6e408b	-0.93067235
55	0xbe5c894e	-0.21536753
56	0x40105263	2.2550285
57	0xbf2f195e	-0.6839808
58	0x3f2b01fe	0.66799915
59	0xbfa3d91c	-1.2800632
60	0xbf287262	-0.65799534
61	0xbfbfb469	-1.4976932
62	0x3fb22496	1.3917415
63	0xbe4fd248	-0.2029506

features.bn2.running_var f4 [64]
0	0x40a7c949	5.243321
1	0x401bad4e	2.4324527
2	0x401a04e3	2.4065483
3	0x4043eb16	3.0612235
4	0x4071e707	3.7797258
5	0x40144ce9	2.3171942
6	0x3f948a48	1.16047
7	0x409f6eda	4.9822817
8	0x402c5b6a	2.6930795
9	0x400628b5	2.0962346
10	0x4029802b	2.6484478
11	0x40150ed0	2.329029
12	0x40489893	3.1343124
13	0x408b62b2	4.355798
14	0x408887ac	4.2665615
15	0x4043fafb	3.0621936
16	0x403ede22	2.982308
17	0x4019b48b	2.4016445
18	0x405cabb1	3.4479792
19	0x4041a8d4	3.0259295
20	0x4010b4a1	2.2610247
21	0x405b285b	3.424338
22	0x4078e665	3.8890622
23	0x3fe27bba	1.7694008
24	0x40632989	3.54941
25	0x3fdce040	1.7255936
26	0x40045c36	2.068128
27	0x4018010d	2.3750641
28	0x40a3281d	5.0986466
29	0x4037f47b	2.874297
30	0x403ba97c	2.9322195
31	0x404ef7b1	3.233868
32	0x408caf9c	4.3964367
33	0x405527d3	3.3305557
34	0x403aea93	2.9205673
35	0x40841662	4.1277323
36	0x407f5b3c	3.9899435
37	0x40a123ea	5.035634
38	0x402ebc03	2.7302253
39	0x40518d5e	3.2742534
40	0x40235782	2.552216
41	0x40984e7d	4.759581
42	0x40545308	3.3175678
43	0x40916d9f	4.5446315
44	0x40172ee3	2.3622367
45	0x40826a33	4.075464
46	0x404cdc2c	3.2009382
47	0x408d6f47	4.4198337
48	0x4007a13c	2.119216
49	0x4011697b	2.272063
50	0x400f1db8	2.236189
51	0x4059e7da	3.404776
52	0x40097c48	2.1482105
53	0x404d3712	3.2064862
54	0x409091ff	4.517822
55	0x40394402	2.8947759
56	0x404e9811	3.2280314
57	0x3ffe96ec	1.9889808
58	0x4063d47f	3.5598447
59	0x3fd4a824	1.6613812
60	0x400c44e7	2.1917055
61	0x40185ffd	2.3808587
62	0x405252be	3.2863002
63	0x40352a19	2.8306944

features.conv3.weight f4 [64, 64, 3, 3]
0	0xbd77db5f	-0.060511943
1	0xbde6a69a	-0.112622455
2	0xbdccce54	-0.100002915
3	0x3cd8fe54	0.02648846
4	0xbdfc277f	-0.12312221
5	0xbae2fa40	-0.0017317012
6	0x3d9c2860	0.076248884
7	0xbd85bf95	-0.06530682
8	0xbc0c09df	-0.008547275
9	0xbd3c2b3a	-0.04593966
10	0xbd0099b3	-0.03139658
11	0x3d87bccb	0.06627806
12	0x3df6e51a	0.120554164
13	0xbda74ca0	-0.08168912
14	0xb9a1a532	-0.00030831393
15	0x3dba63a4	0.09101036
16	0xbda60828	-0.081070244
17	0xbcefd638	-0.029276952
18	0x3e44ffbc	0.1923818
19	0x3cfe14c7	0.031015767
20	0xbc8c20b8	-0.017105445
21	0x3dfaa1f8	0.12237924
22	0xbd9ffe94	-0.07812229
23	0xbb59d055	-0.0033235748
24	0x3d33d2f9	0.04390237
25	0x3d6ee29c	0.05832158
26	0xbcfce14f	-0.030869154
27	0x3cf95fa4	0.030441113
28	0x3d28ec0e	0.041240744
29	0x3c0ed1f4	0.008717049
30	0x3b658df0	0.0035027228
31	0xbd936604	-0.07197192
32	0xbccf9783	-0.025340801
33	0x3cbba6aa	0.02290662
34	0xbbcd4dcf	-0.006265379
35	0xbd1e3e02	-0.038633354
36	0x3d30816a	0.04309217
37	0xbd9d0ed2	-0.076688424
38	0x3de5bcff	0.11217689
39	0x3d05ae51	0.032636944
40	0x3d87c9a6	0.06630258
41	0x3cbf1a37	0.02332793
42	0xbc666c01	-0.014063836
43	0xb8e85d6c	-0.00011080023
44	0xbd4cb78f	-0.049979743
45	0x3ca5c260	0.020234287
46	0x3c98100d	0.018562341
47	0xbd81e754	-0.063429505
48	0x3d37f2af	0.044909175
49	0x3e0b0307	0.13575374
50	0xbd54a27a	-0.051912762
51	0xbd244182	-0.040101536
52	0x3ddb0ed3	0.10696187
53	0xbd7d6d32	-0.061871715
54	0x3ddd1fc3	0.10797074
55	0xbb3c8bbb	-0.002876981
56	0xba62a86f	-0.00086463144
57	0x3ce6b9f1	0.028164836
58	0x3bb09b09	0.0053895754
59	0x3df18a2d	0.11793933
60	0xbd0a656c	-0.03378813
61	0x3c256425	0.010094677
62	0x3b1eb8ec	0.0024219109
63	0x3d00b215	0.031419832
64	0xbe25d23d	-0.16193481
65	0x3c92e3e0	0.017930925
66	0xbc88e947	-0.016712798
67	0xbdb559a9	-0.08854992
68	0x3b84c24b	0.004051482
69	0xbbf58375	-0.0074924775
70	0x3cbd585c	0.023113422
71	0x3b8ac0c2	0.0042344043
72	0xbd25fc14	-0.040523604
73	0x3d4e3929	0.05034748
74	0xbcf45ada	-0.029828478
75	0x3caaa4ca	0.02083053
76	0x3ca53bc5	0.020170102
77	0xbd67184b	-0.056419652
78	0x3dbc739f	0.092017405
79	0xbcf8b2d2	-0.030358706
80	0xbd1bdb6a	-0.038051046
81	0xbdbeed0c	-0.09322557
82	0xbd73539c	-0.059405908
83	0x3d3e0fb5	0.0464017
84	0xbd63a0a0	-0.055573106
85	0x3bc12e84	0.0058954377
86	0xbd2f148a	-0.042744197
87	0xbd2a46d1	-0.041571442
88	0xbc9d1eb6	-0.019179683
89	0xbc70a7db	-0.014688457
90	0x3dc346c6	0.09534983
91	0xbd5825de	-0.052770488
92	0x3d6151a0	0.055009484
93	0xbb5a0940	-0.0033269674
94	0x3d087ce8	0.033322245
95	0xbcf108ba	-0.029423106
96	0x3d2aad07	0.041668918
97	0xbd8ee9de	-0.069782004
98	0x3de834dd	0.11338208
99	0xbe0b91ac	-0.13629788
100	0x3d086747	0.033301618
101	0x3cf276de	0.029597696
102	0xbd6bc77a	-0.057563283
103	0x3abce43e	0.0014411283
104	0xbd417ac3	-0.047236215
105	0x3d2b6339	0.041842673
106	0x3d35dc3c	0.044399485
107	0xbd48dc4d	-0.04903822
108	0x3c9db7cb	0.019252678
109	0xbbbf92fe	-0.0058463803
110	0x3cf225f6	0.029559117
111	0xbd32e38c	-0.043674037
112	0xbc6a6822	-0.014307054
113	0x3c4054d2	0.011738973
114	0xbd99610c	-0.07489213
115	0xbc358ff3	-0.011081683
116	0x3d97b4b3	0.074075125
117	0xbcd3a841	-0.025837066
118	0x3d839f41	0.0642686
119	0x3d81eac2	0.063436046
120	0x3d535e63	0.051603686
121	0xbb6af118	-0.003584927
122	0xbdd668ad	-0.10469184
123	0x3b328ba5	0.002724388
124	0xbd011105	-0.03151037
125	0x3d85cdac	0.065333694
126	0x3dce3e0b	0.100704275
127	0x3dbc2324	0.0918639
128	0xb9da3db8	-0.00041626184
129	0x3c6791f4	0.014133919
130	0x3da128a1	0.078690775
131	0x3d656729	0.056006584
132	0x3bf8c143	0.007591398
133	0x3e0211ea	0.12702146
134	0xbd3c1b05	-0.045924205
135	0xbba974e9	-0.0051714075
136	0xbd50fa2b	-0.05101983
137	0xbdca2d86	-0.09871964
138	0xbd84c367	-0.064825825
139	0xbcca705b	-0.024711778
140	0xbc8d015f	-0.017212568
141	0x3d41186d	0.047142435
142	0xbd196735	-0.03745194
143	0x3d710986	0.058846973
144	0xbcd97803	-0.026546484
145	0xbb55c6a6	-0.0032619624
146	0x3d381cd6	0.044949375
147	0x3d0e3b36	0.034724437
148	0xbd84ff18	-0.06493968
149	0x3ce39c2e	0.027784433
150	0x3d5dc469	0.05414239
151	0x3ca89184	0.0205772
152	0xbc6f1d8f	-0.01459445
153	0xbcddc283	-0.02707029
154	0x3d91b680	0.07114887
155	0xbc87a7bb	-0.016559472
156	0xbdf1298f	-0.11775505
157	0x3e080ad7	0.13285385
158	0xbd4452f6	-0.04793068
159	0x3d39c031	0.045349304
160	0x39e08719	0.00042825265
161	0xbc1dd088	-0.009632237
162	0x3ce451ad	0.027870977
163	0x3dadc693	0.08485141
164	0x3d1619da	0.036645748
165	0x3dc74dff	0.097316734
166	0xbd1ffbec	-0.03905861
167	0xbd23bc1d	-0.03997432
168	0x3ce107c5	0.027469525
169	0xbbfd7a9d	-0.007735564
170	0xbd9512a6	-0.072789475
171	0xbd4014e8	-0.046894938
172	0x3d25e4f6	0.040501557
173	0xbd37e525	-0.044896264
174	0xbd8700e3	-0.06591966
175	0xbbfa0548	-0.007630024
176	0xbc7e1e78	-0.015510194
177	0x3d82b407	0.06381994
178	0x3dc0d58c	0.09415731
179	0x3c7d6149	0.015465089
180	0xbd1a3928	-0.037652165
181	0x3d83aeda	0.06429835
182	0x395d49fa	0.00021103761
183	0x3b81402e	0.0039444184
184	0xbccf035d	-0.025270158
185	0xbd79e6c7	-0.061011102
186	0x3d2be6fb	0.041968327
187	0x3d84ff1a	0.06493969
188	0xbd24b555	-0.040211994
189	0xbd645976	-0.05574938
190	0x3d6b9718	0.05751714
191	0xbd4d2824	-0.05008711
192	0xbcad7e1c	-0.021178298
193	0xb9d6a11c	-0.00040937297
194	0x3c85af7c	0.016319029
195	0x3de8d62b	0.11368974
196	0xbc1db1c9	-0.009624907
197	0xbd7c2727	-0.061560776
198	0x3ccd1a7d	0.025037045
199	0xbcf218ca	-0.029552836
200	0x3d2aa25f	0.041658755
201	0xbdea5c75	-0.11443416
202	0xbddff85a	-0.10936041
203	0xbbbc658e	-0.005749411
204	0xbd115739	-0.035483573
205	0xbca1ce6f	-0.019751756
206	0x3c013043	0.007885042
207	0xbc11314b	-0.00886185
208	0xbc4fc546	-0.012681311
209	0x3e363279	0.17792691
210	0x3d1bef71	0.038070146
211	0xbc043822	-0.008070024
212	0xbccc2956	-0.024922054
213	0xbda8e5db	-0.082469665
214	0x3c2a68d2	0.010400968
215	0xbe03a027	-0.12854062
216	0xbcbabfad	-0.022796476
217	0x3d58b6e0	0.05290878
218	0xbdc7db5d	-0.09758637
219	0x3bf68b79	0.0075239507
220	0x3c1789c3	0.009249154
221	0xbc531a70	-0.012884721
222	0x3d33f853	0.043937992
223	0x3cf7f57a	0.03026842
224	0xbdc1897d	-0.09450052
225	0x3b6076a2	0.0034250398
226	0x3dbbd86d	0.09172139
227	0x3c51f566	0.012814855
228	0x3d1291cd	0.035783578
229	0x3d7205ef	0.05908769
230	0xbd63e398	-0.055636972
231	0x3da07ff0	0.07836902
232	0xbc83a3f0	-0.016069382
233	0xbcfd39be	-0.030911323
234	0xbc444c69	-0.011981108
235	0x3ba01814	0.004885683
236	0x3e22a10d	0.15881748
237	0xbd48a572	-0.048985906
238	0xbc7076e5	-0.014676784
239	0xbcc11491	-0.023569377
240	0xbd0a7cae	-0.03381031
241	0x3d14cbb5	0.036327083
242	0x3de9116a	0.113802746
243	0xbd1532f3	-0.036425542
244	0xbb8f6e19	-0.0043771383
245	0x3d7c129e	0.061541192
246	0xbc419183	-0.011814478
247	0x3c56292a	0.013071338
248	0xbd3d6772	-0.04624123
249	0x3cc05d6b	0.023482045
250	0xbb3815e9	-0.0028089231
251	0xbc51cdd5	-0.012805422
252	0xbd167f4c	-0.036742494
253	0xbe029841	-0.12753393
254	0xbc830df1	-0.015997859
255	0x3dca7b1d	0.09886763

features.conv3.bias f4 [64]
0	0xb9f52d96	-0.00046764006
1	0xbb19ec3a	-0.002348675
2	0x3a4bfd6b	0.00077815977
3	0xba3f1c96	-0.00072903314
4	0xbb1335ad	-0.0022462413
5	0xba87aa15	-0.0010350371
6	0x3afac80c	0.0019133105
7	0x3aada516	0.0013248052
8	0xbb8eb58d	-0.0043551386
9	0x3ae5c64e	0.0017530413
10	0xbb08c720	-0.002087064
11	0xb8760f6d	-5.8665337e-05
12	0xb92b3c78	-0.00016330357
13	0xbac3b6a8	-0.0014931755
14	0xbaae4b32	-0.0013297556
15	0xbb03e62a	-0.0020126202
16	0xba91bdc1	-0.0011119173
17	0xb98069d4	-0.0002449291
18	0x3ac28853	0.0014841653
19	0xbb8b2735	-0.004246617
20	0xbb4e9fe2	-0.0031528403
21	0xbb281b5f	-0.002565108
22	0xbae88d16	-0.0017742242
23	0xbb43a725	-0.0029854265
24	0xb7adfe8f	-2.0741745e-05
25	0xbb547911	-0.0032420794
26	0xbb46233c	-0.0030233404
27	0x392e24ed	0.00016607689
28	0xbb3d5631	-0.0028890485
29	0xbb14cf8d	-0.0022706718
30	0x3bc3aacb	0.005971288
31	0xbb1d82bd	-0.0024034225
32	0xb9845464	-0.00025239878
33	0xba7c1298	-0.0009615808
34	0xbb19c727	-0.0023464651
35	0x3b0ef1ce	0.0021811607
36	0xbb29fc1a	-0.0025937618
37	0xbb2ef303	-0.002669514
38	0xbb4a1bcd	-0.0030839324
39	0x3b05f610	0.0020440854
40	0xbb800ec3	-0.0039080097
41	0xbb53356f	-0.0032227894
42	0xba670886	-0.0008813221
43	0x38e05043	0.00010696102
44	0x3bb76a94	0.005597422
45	0xb93e5c1a	-0.00018154123
46	0xbaf4fe6e	-0.0018691549
47	0xbad83d2c	-0.0016497723
48	0xba662b23	-0.00087802316
49	0x3af70cae	0.0018848383
50	0xbb36d9d4	-0.0027900832
51	0xbb6a5fd4	-0.0035762684
52	0x39e490f6	0.00043595553
53	0xba68551a	-0.0008862779
54	0x39ad23e3	0.0003302387
55	0xbab79ee9	-0.0014009151
56	0x3a638b71	0.0008680141
57	0xba6d4d58	-0.00090523576
58	0x3b30fbb4	0.0027005496
59	0x3b179601	0.002313018
60	0xba8785db	-0.0010339575
61	0xbabc70a0	-0.0014376827
62	0x3af30e94	0.0018543773
63	0xb7d91c3b	-2.5881562e-05

features.bn3.weight f4 [64]
0	0x3fa6a462	1.3018916
1	0x3fa606b1	1.2970792
2	0x3fa1b159	1.2632247
3	0x3f9d71b6	1.2300327
4	0x3f9ccd92	1.2250235
5	0x3f96e05e	1.1787221
6	0x3fa8a0a8	1.3174028
7	0x3fa5def2	1.2958663
8	0x3fac19cf	1.3445376
9	0x3fa18299	1.261798
10	0x3fa88d0a	1.3168042
11	0x3fa6c681	1.3029329
12	0x3fac6314	1.3467736
13	0x3f9e9165	1.2388121
14	0x3fae9ec9	1.3642207
15	0x3fa1cf91	1.2641469
16	0x3fa2570e	1.2682817
17	0x3f9dda31	1.2332212
18	0x3faa5fb8	1.3310461
19	0x3fab57d5	1.3386179
20	0x3fa877ee	1.31616
21	0x3fa5c17b	1.294967
22	0x3f9fdaf0	1.248869
23	0x3fad915f	1.3559989
24	0x3fa12823	1.2590374
25	0x3fa31f1d	1.274387
26	0x3fb0d2cb	1.3814329
27	0x3fb2b50b	1.39615
28	0x3fa7992f	1.3093623
29	0x3facc7be	1.3498456
30	0x3fa2cd50	1.2718906
31	0x3fa4d30a	1.2876904
32	0x3fb4273f	1.4074477
33	0x3fa1fd2d	1.2655388
34	0x3fa72cb5	1.3060519
35	0x3fa535be	1.2907026
36	0x3faa5dfe	1.3309934
37	0x3fa6b22e	1.3023126
38	0x3fa874e0	1.3160667
39	0x3fa77cc4	1.308495
40	0x3fac1bec	1.3446021
41	0x3fa0bfe8	1.2558565
42	0x3fa564c4	1.2921376
43	0x3facd6cd	1.3503052
44	0x3fa61b14	1.2977014
45	0x3fa3b160	1.2788506
46	0x3fa08a51	1.2542211
47	0x3facd265	1.3501707
48	0x3f9cc192	1.2246573
49	0x3fa68ec3	1.3012317
50	0x3face470	1.3507214
51	0x3fa4ed7f	1.2884978
52	0x3f9c07ef	1.2189921
53	0x3f9934e1	1.1969262
54	0x3fb676de	1.4255025
55	0x3fad3c97	1.3534116
56	0x3fab5a84	1.3386998
57	0x3fa8f008	1.3198252
58	0x3fa79eba	1.3095315
59	0x3fa6382a	1.298589
60	0x3fadeb4c	1.3587432
61	0x3f982fae	1.1889551
62	0x3faa6dd6	1.3314769
63	0x3fa78679	1.3087913

features.bn3.bias f4 [64]
0	0x3e1b2058	0.15149057
1	0x3e4fe568	0.20302355
2	0x3e40c5aa	0.18825403
3	0x3e36f373	0.17866306
4	0xbc9ae9a6	-0.01891024
5	0x3de1d318	0.11026591
6	0x3e1a384d	0.1506054
7	0x3ddf1d56	0.10894267
8	0x3db5e30d	0.08881197
9	0x3defc5ff	0.11707687
10	0x3c9a42f2	0.01883075
11	0x3e233373	0.15937595
12	0x3dedf9b9	0.116198964
13	0x3e51fba3	0.20506148
14	0xbe4fe606	-0.2030259
15	0xbd8b85d0	-0.06812632
16	0x3d9ff021	0.07809473
17	0x3d1d4a83	0.038401138
18	0x3dd4570a	0.10368164
19	0x3c654d73	0.013995516
20	0x3e0998c5	0.13437183
21	0x3e661496	0.2246879
22	0x3ba8ce33	0.005151534
23	0x3dcfd9f8	0.10148996
24	0x3e24c509	0.16090788
25	0x3dace2cf	0.08441698
26	0x3dab73e4	0.08371714
27	0x3dc77ace	0.0974022
28	0x3e4ab44a	0.19795337
29	0x3e1f6816	0.1556705
30	0x3e0e7df8	0.13915241
31	0x3dc45379	0.09586234
32	0xbbeccbe9	-0.0072264564
33	0x3d967f89	0.07348544
34	0x3c1a02a1	0.009400041
35	0x3cad2456	0.02113549
36	0xbda40625	-0.080089845
37	0x3e123a88	0.1428014
38	0x3dac4f31	0.08413542
39	0x3b3c4fcd	0.0028734088
40	0x3e60c286	0.21949205
41	0xbcbad8a3	-0.022808379
42	0x3db0c7f6	0.086318895
43	0xbdb1bc18	-0.08678454
44	0x3de0de4f	0.10979902
45	0xbdde363a	-0.10850187
46	0x3e27ddcd	0.16393204
47	0x3e3c9fd0	0.18420339
48	0x3def34f5	0.116800226
49	0x3d85701b	0.06515523
50	0x3d652181	0.055940155
51	0xbe111f8e	-0.14172193
52	0x3dbaaf5b	0.09115478
53	0x3dd508b3	0.1040205
54	0x3e280816	0.16409335
55	0x3e22e4d8	0.1590761
56	0xbd0df989	-0.034661803
57	0xbde4d08f	-0.11172592
58	0x3db62a91	0.08894838
59	0x3cc13c30	0.02358827
60	0x3cf36bd5	0.029714504
61	0x3d2a83bf	0.04162955
62	0x3df9dfab	0.122008644
63	0x3ddc6528	0.107614815

features.bn3.running_mean f4 [64]
0	0xbd66be9b	-0.05633412
1	0xbfbd5671	-1.4792005
2	0x3f5eec6c	0.870795
3	0xbf684c6a	-0.907416
4	0xbfb20194	-1.3906732
5	0xbf3fb193	-0.7488033
6	0xbd1bf239	-0.0380728
7	0x3e71e067	0.23620759
8	0xbf0f9171	-0.560813
9	0x3f1bd27d	0.60868055
10	0x3e4a7ce6	0.19774207
11	0x3e9ce28f	0.306416
12	0x3d7124ae	0.05887287
13	0xbf1d39b3	-0.6141617
14	0x3e256dbd	0.16155143
15	0xbf4829e0	-0.78188896
16	0xbf00baa9	-0.5028482
17	0xbeb5a19f	-0.3547487
18	0x3ec0e690	0.37675905
19	0xbed21ccd	-0.41037598
20	0xbf81803d	-1.011726
21	0xbfa077bc	-1.253654
22	0xbe0fc061	-0.1403823
23	0xbf6aa0b9	-0.91651493
24	0x3f1af3bc	0.6052816
25	0xbf50275a	-0.81310046
26	0xbea8709e	-0.3289842
27	0xbd023c6e	-0.03179591
28	0xbfb1631f	-1.3858374
29	0xbf43f1fd	-0.7654112
30	0x3f8e6368	1.1124086
31	0xbf37b3ed	-0.7175892
32	0xbf0f38d9	-0.5594612
33	0x3d9869a5	0.07442025
34	0xbf510601	-0.81649786
35	0x3fce9f37	1.6142339
36	0xbe54df41	-0.2078829
37	0xbfe04aec	-1.7522864
38	0xbe970951	-0.29499295
39	0x3f712399	0.9419494
40	0xbfc79bd5	-1.5594431
41	0x3d60836f	0.054812845
42	0xbe0464c7	-0.12929069
43	0x3cd830a6	0.026390385
44	0x3f9511df	1.1646079
45	0xbc7eb7d6	-0.01554676
46	0xbf88d348	-1.0689478
47	0x3dd84663	0.105603
48	0xbe4b240c	-0.1983797
49	0x3fabf12b	1.3432974
50	0xbec819c2	-0.39082152
51	0xbec0ced1	-0.37657788
52	0x3f74d085	0.95630676
53	0x3ee9bb78	0.4565084
54	0x3f334877	0.7003245
55	0xbf1fb89a	-0.62391055
56	0x3f40b29e	0.7527255
57	0xbdfed38e	-0.124426946
58	0x3fa5d949	1.2956935
59	0x3f15779e	0.58385646
60	0xbea3b22e	-0.31971878
61	0xbef91499	-0.48648527
62	0x3ea1e438	0.3161943
63	0x3f323e34	0.69626164

features.bn3.running_var f4 [64]
0	0x3f3acca7	0.72968525
1	0x3f851448	1.0396814
2	0x3fed5947	1.854287
3	0x3ff502a2	1.9141428
4	0x3f2b2a45	0.66861373
5	0x3f99c26e	1.201246
6	0x3f713d38	0.9423404
7	0x3f561803	0.8363039
8	0x3f85d8e8	1.045682
9	0x3f9e85db	1.23846
10	0x3f8987be	1.074455
11	0x3f96dbf9	1.178588
12	0x3f71b5f8	0.9441829
13	0x3f82f2f6	1.0230396
14	0x3f431a12	0.76211655
15	0x3f5a5702	0.85289013
16	0x3f4f440c	0.80963206
17	0x3f7702e8	0.9648881
18	0x3f5c72e5	0.86112815
19	0x3f969062	1.1762812
20	0x3f81e06e	1.0146616
21	0x3f9c54b2	1.2213347
22	0x3f832bd7	1.0247754
23	0x3f178719	0.5919052
24	0x3fcb4448	1.5880213
25	0x3f8e1035	1.1098696
26	0x3f3617b1	0.711299
27	0x3f823593	1.01726
28	0x3f5841ef	0.84475607
29	0x3f85af38	1.0444098
30	0x3f4b57cb	0.79430836
31	0x3f9ac93d	1.2092663
32	0x3f065a52	0.5248157
33	0x3fa7c60f	1.3107318
34	0x3f566d0e	0.83760154
35	0x3f390ac0	0.7228203
36	0x3f2f3205	0.684357
37	0x3fa4764a	1.2848599
38	0x3f8033d2	1.0015814
39	0x3f335f00	0.70066833
40	0x3f569142	0.83815396
41	0x3f3c3e59	0.73532635
42	0x3f46d719	0.7767196
43	0x3f62768d	0.88462144
44	0x3f295cf6	0.6615747
45	0x3f4f1066	0.808844
46	0x3f648b5f	0.89275163
47	0x3f2ab58c	0.6668327
48	0x401c592e	2.442943
49	0x3f286f42	0.65794766
50	0x3fa6841a	1.3009064
51	0x3f5bb243	0.8581888
52	0x3ff103d4	1.8829293
53	0x40060132	2.093823
54	0x3ec4ce4f	0.3843865
55	0x3f4d6a43	0.8024027
56	0x3f27e920	0.65590096
57	0x3f818fb2	1.0121977
58	0x3f309ed2	0.6899234
59	0x3f61cd5c	0.8820398
60	0x3f27836c	0.6543491
61	0x3f6d1bdd	0.9262064
62	0x3f5ac144	0.8545115
63	0x3f41f72d	0.75767785
