maml_omniglot/output/maml-omniglot-5way-1shot-TEST/train_iter_0.pth (torch_old, 310758 bytes, 20 tensors)

features.conv1.weight f4 [64, 3, 3, 3]
0.011652044 -0.0031241337 -0.022190975 -0.052928947 0.037873555 0.00050319836 0.05724524 0.004791646
0.020281017 0.069817856 -0.07854326 -0.03106241 0.014903936 -0.0131290965 -0.05527719 0.091939636
0.080480196 -0.009228448 0.017840479 0.05786973 -0.1210397 0.030058265 0.08862199 0.033827092
0.008426186 -0.09108375 -0.069359526 -0.018730696 0.025385283 -0.046237383 0.090779655 0.1488199
-0.04007324 -0.013806541 0.06052335 0.006162247 0.01033376 0.06582275 -0.066994086 -0.016583215
-0.028906886 -0.055442516 0.03321496 -0.08708062 -0.07204739 0.03469467 -0.036198813 -0.039875373
0.09796414 -0.04631693 0.078633375 -0.015258771 -0.08802684 0.123025365 0.16180894 -0.103915215
0.08453578 -0.08999428 0.047386955 -0.01346435 0.044897035 0.08934874 0.0938547 -0.02476044
-0.050171625 0.034225754 -0.004029115 -0.004804159 -0.030286327 0.026444964 -0.016159095 -0.06388878
0.11737808 -0.03264162 0.012128652 0.04007442 -0.08506688 0.05238331 0.0075204624 0.012435201
0.14572337 -0.073105484 0.05855426 0.031762414 -0.09289743 -0.075873494 0.04167744 -0.010557387
0.019324295 -0.021145817 0.027041042 -0.046157 -0.025687609 -0.02475028 -0.05999665 -0.023126205
-0.09722523 -0.08144185 -0.010753587 0.055701494 0.0008591359 -0.044716846 -0.016548736 1.186481e-05
-0.009447935 -0.0068626436 0.016321799 0.08060937 0.008124828 0.14877628 -0.03873945 -0.11531969
-0.018420057 0.0014689773 0.055578556 -0.11004852 0.008838415 0.028024556 -0.10507469 0.033529583
0.104180515 0.017541707 0.019323679 -0.037523415 -0.037751015 0.01776492 -0.03138498 -0.0873212
-0.122121416 0.10868416 0.077811055 -0.02552431 0.08037572 0.10064182 -0.008331752 -0.10013438
-0.002567846 0.005363375 0.060972903 0.038945258 0.017069826 -0.045031086 0.042810842 0.05130579
0.1337885 0.05563568 -0.089137875 -0.018160567 -0.00771467 -0.01948304 -0.038082488 0.06608718
-0.059411317 0.009016856 0.07117693 -0.012820523 -0.06329368 -0.039552875 0.09274407 -0.042217232
-0.05380039 0.0029011003 -0.0043163304 0.13895787 -0.15947984 0.029032776 -0.04699313 -0.013498175
-0.00073427067 0.121645905 -0.010283404 -0.013885269 -0.07866326 -0.0023753021 -0.110246696 -0.08060553
-0.019352978 -0.06950113 0.009513561 0.008800745 0.043235578 0.054809075 -0.10080815 0.07592977
0.057527438 0.06345766 0.036115788 -0.07481812 -0.0415095 0.124995835 0.031135198 0.07283552
0.010253664 -0.019182507 0.104801424 0.08099254 0.06255258 -0.037236217 -0.0280381 0.034439113
0.0020776424 -0.09886644 0.06681525 0.02962095 -0.07420359 -0.057675805 -0.006008424 0.0059861355
0.018584583 -0.04180161 -0.01937641 -0.025872959 0.036953118 0.03478443 0.07204775 0.042164437
0.028709278 0.052344736 -0.015154937 -0.04501107 -0.03336771 0.022795666 -0.03374021 -0.022468945
-0.033287536 -0.01401278 0.0017976712 -0.017015666 -0.0027903644 0.049413603 0.00102278 -0.027364269
0.04934225 -0.08843446 0.035290692 -0.1088842 -0.056613307 0.0027256773 -0.025801437 -0.02343888
0.08731535 -0.0013494517 -0.046441276 -0.06949777 0.026170619 -0.017612569 0.00024731894 -0.050731726
-0.020002218 0.0117829535 -0.05381859 -0.07258446 0.064948 -0.1114255 -0.032086957 0.064678214
00000000: 37e8 3e3c 44be 4cbb d9c9 b5bc 06cc 58bd
00000010: 4d21 1b3d 12e9 033a fc79 6a3d 3d03 9d3b
00000020: 6024 a63c aafc 8e3d 4adb a0bd 9876 febc
00000030: a32f 743c 6c1b 57bc 566a 62bd d94a bc3d
00000040: cdd2 a43d eb32 17bc 3226 923c cf08 6d3d
00000050: aae3 f7bd c03c f63c 727f b53d 478e 0a3d
00000060: fc0d 0a3c 1e8a babd 5e0c 8ebd 1e71 99bc
00000070: ccf4 cf3c 6963 3dbd afea b93d 3e64 183e
00000080: d623 24bd d534 62bc 55e7 773d adec c93b
00000090: ee4e 293c 14ce 863d 3234 89bd 86d9 87bc
000000a0: 22ce ecbc b117 63bd 690c 083d 5357 b2bd
000000b0: 958d 93bd 001c 0e3d 3545 14bd 5c54 23bd
000000c0: 6ca1 c83d d2b6 3dbd 890a a13d edff 79bc
000000d0: 6a47 b4bd b9f4 fb3d 3eb1 253e 80d1 d4bd
000000e0: 1821 ad3d ec4e b8bd d318 423d 9499 5cbc
000000f0: f4e5 373d 79fc b63d e536 c03d 68d6 cabc
00000100: c380 4dbd 4e30 0c3d ab06 84bb 356c 9dbb
00000110: 081b f8bc 1ca3 d83c 1460 84bc 1fd8 82bd
00000120: eb63 f03d 38b3 05bd 41b7 463c 1325 243d
00000130: 8b37 aebd e28f 563d 366e f63b 03bd 4b3c
00000140: 8238 153e 54b8 95bd 97d6 6f3d 4e19 023d
00000150: 0241 bebd 9063 9bbd f7b5 2a3d e4f8 2cbc
00000160: fc4d 9e3c fe39 adbc 2d85 dd3c 1f0f 3dbd
00000170: d26e d2bc 19c1 cabc 0cbf 75bd 2b73 bdbc
00000180: 051e c7bd fcca a6bd d02f 30bc 4027 643d
00000190: a237 613a 0329 37bd 3791 87bc f90e 4737
000001a0: 83cb 1abc 07e0 e0bb 4bb5 853c 8616 a53d
000001b0: 001e 053c cf58 183e 42ad 1ebd bb2c ecbd
000001c0: a9e5 96bc b38a c03a 57a6 633d 1e61 e1bd
000001d0: 00cf 103c c193 e53c 6631 d7bd 5156 093d
000001e0: 985c d53d a0b3 8f3c b14c 9e3c 27b2 19bd
000001f0: cfa0 1abd bd87 913c 898d 00bd 75d5 b2bd
00000200: cb1a fabd cd95 de3d 675b 9f3d 5c18 d1bc
00000210: 079c a43d 4c1d ce3d e781 08bc 4113 cdbd
00000220: 4f49 28bb 40bf af3b b9be 793d 1085 1f3d
00000230: 05d6 8b3c 8472 38bd 6c5a 2f3d 0526 523d
00000240: daff 083e 3de2 633d eb8d b6bd 78c5 94bc
00000250: 58cb fcbb e59a 9fbc 62fc 1bbd b758 873d
00000260: 4859 73bd 6fbb 133c 36c5 913d 2c0d 52bc
00000270: 1ea0 81bd 3202 22bd 9af0 bd3d faeb 2cbd
00000280: cc5d 5cbd 6320 3e3b 0170 8dbb f94a 0e3e
00000290: af4e 23be 25d6 ed3c de7b 40bd 7327 5dbc
000002a0: 127c 40ba 7d21 f93d b97b 28bc 0a7f 63bc
000002b0: 341a a1bd f5aa 1bbb 05c9 e1bd 8314 a5bd
000002c0: 238a 9ebc 9c56 8ebd c4de 1b3c 0031 103c
000002d0: ca17 313d 7b7f 603d 8174 cebd 1181 9b3d
000002e0: e4a1 6b3d 17f6 813d 26ee 133d 3e3a 99bd
000002f0: de05 2abd d1fd ff3d 3e0f ff3c ca2a 953d
00000300: fcfe 273c a224 9dbc 21a2 d63d 6bdf a53d
00000310: 911b 803d 0185 18bd 28b0 e5bc 0710 0d3d
00000320: 0e29 083b 7d7a cabd 6fd6 883d a2a7 f23c
00000330: 0df8 97bd 773d 6cbd 50e2 c4bb 5827 c43b
00000340: b23e 983c 2a38 2bbd 47bb 9ebc 87f3 d3bc
00000350: 275c 173d 1e7a 0e3d c58d 933d 9eb4 2c3d
00000360: b82f eb3c 6f67 563d 6a4c 78bc 875d 38bd
00000370: 94ac 08bd fabd ba3c 2d33 0abd cb10 b8bc
00000380: 8358 08bd dc95 65bc d69f eb3a 7064 8bbc
00000390: 8cde 36bb eb65 4a3d cd0e 863a 082b e0bc
000003a0: 191b 4a3d 201d b5bd f98c 103d aefe debd
000003b0: 5be3 67bd 47a1 323b 895d d3bc e502 c0bc
000003c0: 64d2 b23d 16e0 b0ba 3539 3ebd d954 8ebd
000003d0: c463 d63c 3c48 90bc 96aa 8139 12cc 4fbd
000003e0: b1db a3bc 4a0d 413c e270 5cbd 29a7 94bd
000003f0: 7503 853d 0d33 e4bd 9d6d 03bd 0376 843d

features.conv1.bias f4 [64]
1.17556065e-05 7.067973e-06 7.5582834e-06 1.7756936e-06 2.7934714e-06 -4.3697233e-07 2.4158048e-06 -7.929236e-06
1.1938148e-05 -7.7310515e-06 -1.5621405e-06 -1.9834258e-06 -5.268389e-06 -1.1213201e-05 -7.855634e-06 2.7570045e-06
-2.2039574e-06 -3.157992e-06 -3.3165823e-06 -5.8741857e-06 8.033959e-06 1.0599819e-05 -1.2877873e-05 -3.250866e-06
1.0085737e-05 1.7685288e-06 1.7570649e-06 -1.7198058e-06 -1.3116025e-05 -5.602664e-06 1.5793428e-06 -6.7588007e-06
-3.777779e-06 -5.346639e-07 6.4082665e-06 1.0770123e-05 4.3583077e-06 -6.798521e-06 -1.1404994e-06 6.1910105e-06
-3.0765339e-06 -3.4308503e-06 8.067919e-06 -4.0260484e-06 -1.436654e-05 1.1232821e-06 -4.366861e-06 -3.2937253e-06
2.4487188e-06 -1.5259819e-05 -1.2136669e-06 9.015016e-06 -5.248467e-06 -7.419458e-06 -3.9333186e-06 1.1132382e-06
-1.3482836e-05 2.3700075e-06 1.2380535e-06 -1.4793843e-05 2.7505691e-06 -6.60698e-06 -7.726803e-06 -2.2749367e-05
00000000: f239 4537 6d29 ed36 299d fd36 5e54 ee35
00000010: 7977 3b36 0599 eab4 361f 2236 cf07 05b7
00000020: f549 4837 9db4 01b7 bdaa d1b5 ff1a 05b6
00000030: 1ec7 b0b6 5520 3cb7 b1cb 03b7 fa04 3936
00000040: b3e7 13b6 e4ed 53b6 7392 5eb6 df1a c5b6
00000050: 97c9 0637 e0d5 3137 0b0e 58b7 7429 5ab6
00000060: e935 2937 305e ed35 4ad4 eb35 14d4 e6b5
00000070: e60c 5cb7 84fe bbb6 cef9 d335 a8c9 e2b6
00000080: c085 7db6 d385 0fb5 9706 d736 53b1 3437
00000090: 943d 9236 da1e e4b6 4313 99b5 60bc cf36
000000a0: 7376 4eb6 8f3d 66b6 735b 0737 7e17 87b6
000000b0: d207 71b7 aec3 9635 0d87 92b6 c509 5db6
000000c0: ab54 2436 3602 80b7 47e5 a2b5 333f 1737
000000d0: fd1b b0b6 a9f4 f8b6 f3fa 83b6 936a 9535
000000e0: 5734 62b7 6b0c 1f36 322b a635 1233 78b7
000000f0: 6b96 3836 87b1 ddb6 5ea2 01b7 e5d5 beb7

features.bn1.weight f4 [64]
0.99900013 0.9990001 1.0009998 0.99900013 0.99900013 1.0009999 1.0009999 1.0009998
0.9990001 1.0009999 1.0009999 1.0009999 0.999 0.99900013 0.99900043 1.0009999
0.9990002 0.9990001 0.99900013 0.9990001 0.9990001 1.0009999 0.9990007 0.999
1.0009999 1.0009999 1.0009997 1.0009999 1.0009999 0.999 0.99900025 0.9990012
0.99900097 0.999 0.99900013 1.0009997 1.0009999 1.0009999 0.999001 1.0009998
0.9990002 0.999 0.9990001 0.99900013 1.0009999 1.0009999 0.9990001 0.9990001
0.99900013 1.0009999 0.999 0.9990004 1.0009997 0.9990001 1.0009997 1.0009999
1.0009999 1.0009999 0.9990003 0.99900115 0.99900013 1.0009999 0.99900025 0.9990004
00000000: 79be 7f3f 78be 7f3f c320 803f 79be 7f3f
00000010: 79be 7f3f c420 803f c420 803f c320 803f
00000020: 78be 7f3f c420 803f c420 803f c420 803f
00000030: 77be 7f3f 79be 7f3f 7ebe 7f3f c420 803f
00000040: 7abe 7f3f 78be 7f3f 79be 7f3f 78be 7f3f
00000050: 78be 7f3f c420 803f 83be 7f3f 77be 7f3f
00000060: c420 803f c420 803f c220 803f c420 803f
00000070: c420 803f 77be 7f3f 7bbe 7f3f 8bbe 7f3f
00000080: 87be 7f3f 77be 7f3f 79be 7f3f c220 803f
00000090: c420 803f c420 803f 88be 7f3f c320 803f
000000a0: 7abe 7f3f 77be 7f3f 78be 7f3f 79be 7f3f
000000b0: c420 803f c420 803f 78be 7f3f 78be 7f3f
000000c0: 79be 7f3f c420 803f 77be 7f3f 7dbe 7f3f
000000d0: c220 803f 78be 7f3f c220 803f c420 803f
000000e0: c420 803f c420 803f 7cbe 7f3f 8abe 7f3f
000000f0: 79be 7f3f c420 803f 7bbe 7f3f 7dbe 7f3f

features.bn1.bias f4 [64]
-0.00093269255 -0.0009996343 -0.0009981226 -0.0009996184 0.000999722 0.0009998798 0.0009998312 0.0009998995
0.0009986731 0.0009997546 0.0009996681 0.0009998945 -0.0009993118 -0.0009997558 0.000999921 0.0009989933
-0.0009993835 -0.0009996104 -0.0009998712 -0.0009994586 0.0009999251 -0.0009997984 0.0009997946 -0.0009998817
0.0009997402 0.0009999052 -0.000999878 0.0009998361 0.0009999356 -0.0009999363 0.0009983877 -0.0009997886
-0.0009993934 -0.0009977629 -0.0009999587 0.0009998329 0.0009999204 0.0009982929 -0.0009998528 -0.000999848
-0.0009985677 -0.0009998659 -0.0009996486 -0.0009999144 -0.000999872 -0.0009997059 -0.0009989904 0.0009998429
0.0009996804 0.0009990614 -0.0009995747 -0.0009997047 0.0009998427 -0.0009994619 -0.0009999136 0.0009998147
0.0009999054 0.0009998942 -0.0009998492 0.0009991865 -0.0009998811 0.000999918 -0.000999828 -0.0009998672
00000000: f07f 74ba 2906 83ba 70d3 82ba a105 83ba
00000010: 1b09 833a 660e 833a c50c 833a 0f0f 833a
00000020: e9e5 823a 330a 833a 4c07 833a e40e 833a
00000030: 57fb 82ba 3d0a 83ba c80f 833a a7f0 823a
00000040: bffd 82ba 5c05 83ba 1c0e 83ba 4400 83ba
00000050: eb0f 833a ab0b 83ba 8a0b 833a 760e 83ba
00000060: b709 833a 400f 833a 570e 83ba ef0c 833a
00000070: 4510 833a 4b10 83ba 55dc 823a 570b 83ba
00000080: 14fe 82ba 5ec7 82ba 0c11 83ba d30c 833a
00000090: c30f 833a 27d9 823a 7e0d 83ba 550d 83ba
000000a0: 5fe2 82ba ef0d 83ba a406 83ba 8f0f 83ba
000000b0: 230e 83ba 9008 83ba 8ef0 82ba 290d 833a
000000c0: b507 833a f0f2 823a 2904 83ba 8608 83ba
000000d0: 270d 833a 6000 83ba 880f 83ba 370c 833a
000000e0: 420f 833a e20e 833a 5f0d 83ba 23f7 823a
000000f0: 710e 83ba ae0f 833a a90c 83ba fa0d 83ba

features.bn1.running_mean f4 [64]
-0.040744215 0.09837004 0.27464786 0.03636752 0.084549434 -0.017415874 0.07377765 0.14998847
-0.13805991 -0.23436199 -0.23050506 0.27843797 -0.260564 -0.07776999 -0.13586459 -0.09121752
-0.22710162 0.11165137 0.014567652 -0.11422706 0.10403909 -0.11884309 0.21687977 -0.10040402
-0.25053006 -0.12756263 0.2260905 -0.18454213 -0.11577248 -0.20208275 0.307417 -0.16784012
-0.15341073 -0.00054667774 0.37062895 0.015212439 0.38930917 0.06361814 0.07045013 0.07159523
-0.25840715 0.10374241 -0.018464804 0.014466824 0.053993784 -0.17192891 0.17103294 -0.16329025
-0.16428763 -0.17988384 0.28060153 -0.013341162 0.10628004 0.22068325 0.24124564 0.099454135
-0.052235454 -0.01871477 0.3281153 -0.23672955 -0.09253492 -0.015658686 0.26556292 0.23064734
00000000: 68e3 26bd 3b76 c93d a59e 8c3e 1cf6 143d
00000010: 4128 ad3d bcab 8ebc bd18 973d 9496 193e
00000020: 945f 0dbe 97fc 6fbe 8509 6cbe 6c8f 8e3e
00000030: a568 85be df45 9fbd 1620 0bbe 40d0 babd
00000040: 548d 68be 79a9 e43d 29ad 6e3c e0ef e9bd
00000050: 7212 d53d 0264 f3bd bb15 5e3e 9fa0 cdbd
00000060: 7a45 80be c79f 02be 4584 673e 9df8 3cbe
00000070: 1f1a edbd c8ee 4ebe c365 9d3e 48de 2bbe
00000080: b417 1dbe ec4e 0fba 14c3 bd3e 983d 793c
00000090: 8853 c73e 3a4a 823d 2848 903d 85a0 923d
000000a0: f14d 84be e776 d43d 8043 97bc 4206 6d3c
000000b0: 9628 5d3d 220e 30be 4223 2f3e 8f35 27be
000000c0: 043b 28be 7833 38be 01ab 8f3e e494 5abc
000000d0: 5aa9 d93d cafa 613e 1909 773e 9cae cb3d
000000e0: d8f4 55bd b84f 99bc bbfe a73e 3b69 72be
000000f0: f382 bdbd a546 80bc ddf7 873e d12e 6c3e

features.bn1.running_var f4 [64]
0.3424098 0.34576708 0.21756963 0.96990037 0.06928791 0.18303107 0.4079514 0.4904341
0.13190049 0.25559568 2.200138 0.21322455 1.0044624 0.2627045 0.21970727 1.1663893
0.428065 0.6124333 0.1327198 0.37132236 0.22516619 0.5888925 0.090320624 0.50197875
0.45079392 0.54677904 0.26663387 0.16850905 0.37165624 0.17536154 0.6274462 0.48191947
0.67295086 0.793739 0.60218287 0.5237177 0.23234749 0.6297712 1.2405839 0.0839548
0.8414578 0.1459188 0.3205127 0.637793 0.43695784 0.38788968 1.019277 0.39413133
0.5226022 0.09269004 0.4369175 0.85241485 1.2406714 0.23392631 0.4077184 0.11939045
0.11314961 0.19863191 0.42221886 0.1014939 0.1996309 0.48574588 0.4870496 0.08243123
00000000: 5650 af3e 6208 b13e 93ca 5e3e 644b 783f
00000010: d2e6 8d3d 7f6c 3b3e 02df d03e 2e1a fb3e
00000020: ec10 073e 70dd 823e 10cf 0c40 8957 5a3e
00000030: 3992 803f 3481 863e f1fa 603e 3f4c 953f
00000040: 562b db3e 6ec8 1c3f b3e7 073e f71d be3e
00000050: f791 663e a9c1 163f 05fa b83d ae81 003f
00000060: 76ce e63e b6f9 0b3f 3c84 883e a38d 2c3e
00000070: ba49 be3e fa91 333e 50a0 203f 26be f63e
00000080: 8246 2c3f 7b32 4b3f a828 1a3f 5d12 063f
00000090: 80ec 6d3e af38 213f 74cb 9e3f 7ff0 ab3d
000000a0: c769 573f bd6b 153e 3e1a a43e 6746 233f
000000b0: f0b8 df3e 7a99 c63e ab77 823f 95cb c93e
000000c0: 42c9 053f 47d4 bd3d a7b3 df3e dc37 5a3f
000000d0: 52ce 9e3f 618a 6f3e 77c0 d03e fb82 f43d
000000e0: fcba e73d 2a66 4b3e 122d d83e 09dc cf3d
000000f0: 0b6c 4c3e afb3 f83e 915e f93e b4d1 a83d

features.conv2.weight f4 [64, 64, 3, 3]
-0.031095162 -0.0038124043 -0.02132014 -0.021152958 0.035646547 0.027334811 0.07282029 0.011935503
0.0004692654 -0.06981129 -0.023052985 -0.009004349 0.0028390912 0.08019082 -0.08117533 0.011782655
0.023131462 -0.05046361 -0.04448077 -0.008321077 -0.004602595 0.056341752 0.009648554 0.037214212
0.040386587 -0.062895 0.06864255 -0.008426741 0.08338169 -0.040523402 -0.009911347 -0.03578444
0.07477084 0.0090618925 -0.015245656 -0.030212715 -0.027040314 0.037932973 -0.082082406 -0.10788979
-0.028379813 0.015162817 0.019043617 -0.08225703 0.034365803 0.01023395 -0.01034786 -0.0052274615
0.07274029 0.04322992 0.041019924 0.10551571 0.040367164 -0.009539093 0.011517503 -0.058750596
-0.010271151 0.013331238 -0.073794335 0.058294374 -0.012814832 0.01566807 0.026160134 0.037260585
-0.016746193 -0.029877653 -0.08160197 0.1315218 0.032484297 0.09257377 -0.0442193 -0.09991689
-0.0009782562 -0.088642895 0.023899166 0.06021852 -0.07195533 0.07948225 0.010065603 0.03657223
-0.04276938 0.09772332 -0.014794365 -0.025770389 0.043283943 0.020419328 -0.06532529 0.05651894
0.05107725 -0.11630809 0.051524963 -0.12629603 0.019501053 0.13319552 0.093448974 -0.041719202
0.018667834 -0.053106103 0.09010999 -0.04405242 -0.01553291 -0.035715494 -0.0018088877 -0.12428538
0.002676574 0.008590297 -0.044010144 0.006869519 0.017670913 -0.07468129 -0.00061367056 0.0075615416
0.05450761 0.003563576 0.07300054 -0.0464061 0.039381593 -0.039210387 0.03929462 -0.0032979676
-0.023110034 -0.07803366 -0.022430051 -0.0129558435 0.052504554 0.00900174 -0.14217073 -0.0067189927
-0.10688347 -0.034014773 0.055030353 0.0014904216 -0.0022077614 0.013262455 0.040962264 -0.043449514
-0.099761695 0.03889159 0.0055966107 0.0352369 -0.014927891 -0.0144405365 0.097778276 0.05990929
-0.007028039 -0.07643645 -0.085304804 -0.07471928 -0.053592727 0.033474997 -0.033567734 -0.07712381
-0.011927993 -0.017448148 0.009838864 0.14441575 -0.03398534 -0.041707233 -0.060489263 0.11531031
0.014918499 0.070389174 0.04734468 -0.04274349 0.026293285 -0.04558515 -0.0051985933 -0.002024744
-0.063040204 0.10671965 0.016658869 0.0035025591 0.0041796113 -0.08859762 0.043204848 0.0052248086
0.045355767 -0.046350874 -0.07944758 0.11838639 -0.00083725975 0.042676803 -0.0041957446 0.04594048
-0.0312601 -0.038686138 0.05934952 -0.052426066 -0.055338457 0.07759629 0.01179094 -0.01966094
0.030163765 0.04513237 0.04049915 -0.110498436 -0.07425942 0.11080107 0.023022832 -0.068372756
-0.029545754 0.00048263872 0.008767342 0.042755507 -0.08945048 0.0027824962 0.011972489 0.046586763
0.011701727 0.005154837 0.0041774134 -0.04341083 0.03439865 -0.04748415 -0.11514262 -0.042532403
-0.10599773 -0.019328913 0.015294526 0.0054830806 -0.0072988025 0.024115173 0.071233615 -0.007927038
-0.034515586 -0.044877626 -0.049002506 0.00017687769 -0.014068385 -0.0665049 -0.002830328 -0.05192074
0.06835351 0.053250447 0.02427534 -0.05422662 -0.10511671 0.04734201 -0.110085934 -0.016054219
0.06660877 0.024578748 -0.12124771 0.012757184 0.07223418 -0.04276143 0.004982078 -0.042401474
-0.097864136 -0.03573612 -0.05210334 -0.042999115 -0.059112146 0.120406955 0.04271748 0.00019051993
00000000: 48bb febc 88d9 79bb 93a7 aebc f848 adbc
00000010: 1d02 123d 41ed df3c ce22 953d 218d 433c
00000020: bc07 f639 39f9 8ebd 9dd9 bcbc fa86 13bc
00000030: 0c10 3a3b 163b a43d 403f a6bd 090c 413c
00000040: 317e bd3c eeb2 4ebd 7831 36bd 2055 08bc
00000050: 5ed1 96bb 9cc6 663d f814 1e3c ee6d 183d
00000060: 686c 253d 18cf 80bd 7794 8c3d 5010 0abc
00000070: 05c4 aa3d defb 25bd 3463 22bc b492 12bd
00000080: 7421 993d 5578 143c eac8 79bc a880 f7bc
00000090: a683 ddbc 9b5f 1b3d d21a a8bd 52f5 dcbd
000000a0: c87c e8bc 776d 783c 5c01 9c3c 6076 a8bd
000000b0: 28c3 0c3d 4cac 273c 128a 29bc 204b abbb
000000c0: dcf8 943d db11 313d 8204 283d 9f18 d83d
000000d0: 0a58 253d db49 1cbc e9b3 3c3c 77a4 70bd
000000e0: 5448 28bc 446b 5a3c 7c21 97bd 15c6 6e3d
000000f0: 4df5 51bc 535a 803c c74d d63c 8e9e 183d
00000100: 502f 89bc fbc1 f4bc ef1e a7bd a7ad 063e
00000110: 410e 053d 5197 bd3d 4c1f 35bd 3aa1 ccbd
00000120: d538 80ba 688a b5bd 2fc8 c33c b2a7 763d
00000130: 515d 93bd 97c7 a23d 33ea 243c c3cc 153d
00000140: f22e 2fbd 2a23 c83d 1064 72bc 6c1c d3bc
00000150: 814a 313d 6f46 a73c 44c9 85bd 6780 673d
00000160: 6136 513d f032 eebd d70b 533d bf53 01be
00000170: acc0 9f3c 6864 083e 2d62 bf3d c1e1 2abd
00000180: 49ed 983c c985 59bd 968b b83d 4f70 34bd
00000190: bf7d 7ebc 694a 12bd 3318 edba 5589 febd
000001a0: 7669 2f3b 51be 0c3c fb43 34bd b419 e13b
000001b0: 97c2 903c 81f2 98bd bcde 20ba cfc6 f73b
000001c0: 5f43 5f3d e28a 693b 4f81 953d 5314 3ebd
000001d0: 984e 213d 129b 20bd 65f3 203d b722 58bb
000001e0: 4151 bdbc 1dd0 9fbd 3abf b7bc bf44 54bc
000001f0: 040f 573d 097c 133c 3495 11be ff2a dcbb
00000200: b9e5 dabd 1353 0bbd 8267 613d 405a c33a
00000210: 17b0 10bb c54a 593c 0cc8 273d 1ef8 31bd
00000220: dc4f ccbd ca4c 1f3d c663 b73b 9154 103d
00000230: 1d94 74bc 0098 6cbc fa3f c83d 7263 753d
00000240: 774b e6bb b78a 9cbd 49b4 aebd 6c06 99bd
00000250: 0c84 5bbd 141d 093d 527e 09bd 17f3 9dbd
00000260: a16d 43bc 6bef 8ebc 3033 213c b9e1 133e
00000270: 3634 0bbd 34d5 2abd 97c3 77bd d027 ec3d
00000280: b86c 743c 3328 903d 7fec 413d cc13 2fbd
00000290: 0465 d73c 7fb7 3abd f658 aabb 91b1 04bb
000002a0: 391b 81bd d58f da3d 2e78 883c 318b 653b
000002b0: 1ff5 883b ab72 b5bd 91f7 303d df34 ab3b
000002c0: f8c6 393d 6ada 3dbd 6ab5 a2bd 9074 f23d
000002d0: 8d7b 5bba dfcd 2e3d 757c 89bb 162c 3c3d
000002e0: 970a 00bd 5b75 1ebd 7b18 733d b7bc 56bd
000002f0: 94aa 62bd ceea 9e3d c92e 413c fb0f a1bc
00000300: 001a f73c b8dc 383d 70e2 253d 014d e2bd
00000310: 5315 98bd aceb e23d 619a bc3c 0407 8cbd
00000320: f009 f2bc ac0a fd39 e6a4 0f3c 6620 2f3d
00000330: d031 b7bd 8a5a 363b 4228 443c c3d1 3e3d
00000340: 9ab8 3f3c e8e9 a83b afe2 883b 8ecf 31bd
00000350: 99e5 0c3d bd7e 42bd e5cf ebbd 7536 2ebd
00000360: 5615 d9bd ab57 9ebc e495 7a3c 6aab b33b
00000370: cb2a efbb 2f8d c53c eee2 913d 68e0 01bc
00000380: 3760 0dbd 9ad1 37bd dab6 48bd 3e78 3939
00000390: 157f 66bc b933 88bd 067d 39bb d8aa 54bd
000003a0: edfc 8b3d 241d 5a3d 14dd c63c bb1c 5ebd
000003b0: 6e47 d7bd b2e9 413d bc74 e1bd 2384 83bc
000003c0: 2e6a 883d 5f59 c93c b850 f8bd 8203 513c
000003d0: 84ef 933d 9c26 2fbd b340 a33b 2bad 2dbd
000003e0: fe6c c8bd 0a60 12bd 506a 55bd d71f 30bd
000003f0: 941f 72bd ec97 f63d 86f8 2e3d 4ec6 4739

features.conv2.bias f4 [64]
3.1914243e-07 7.6301524e-07 5.483104e-07 6.8260147e-07 -1.196452e-06 -1.8430371e-06 -7.72348e-07 1.0759311e-06
-5.2317176e-07 1.313358e-06 4.0392527e-07 -3.2294352e-06 -2.6596615e-07 9.0944974e-07 1.8115989e-07 -7.764799e-08
-1.871691e-06 4.1398332e-07 -4.1701345e-08 -3.4572844e-07 5.7488427e-07 -1.7540978e-07 -9.281099e-07 1.1605857e-06
-2.1278424e-07 4.3858215e-08 6.5100687e-07 -1.0400563e-06 -1.2007556e-06 2.633284e-06 -4.1542015e-07 -1.077366e-06
1.9447511e-06 1.7108491e-06 8.828938e-07 -1.0013084e-06 1.9089387e-06 2.8177593e-07 -4.5205832e-07 -1.6390938e-07
-1.9840978e-07 -1.0443614e-06 6.136652e-07 4.5133993e-07 -1.7842912e-06 -1.5388449e-06 -1.8978491e-07 4.0263426e-08
-8.103958e-07 -8.021404e-07 1.3228193e-07 7.070141e-07 1.2064941e-06 -2.9758513e-07 3.325153e-06 9.194977e-07
1.4115953e-06 -1.0472314e-06 7.271178e-07 1.7699618e-06 7.055782e-07 -1.4503112e-06 9.4963997e-07 -1.354233e-06
00000000: 9a56 ab34 02d2 4c35 9b2f 1335 043c 3735
00000010: c795 a0b5 465e f7b5 5a53 4fb5 b668 9035
00000020: 1770 0cb5 a346 b035 11db d834 46b9 58b6
00000030: 1cca 8eb4 e920 7435 da84 4234 6fbf a6b3
00000040: d036 fbb5 6f41 de34 1d1b 33b3 8e9c b9b4
00000050: bf51 1a35 4658 3cb4 3a23 79b5 6cc5 9b35
00000060: b079 64b4 9e5e 3c33 dac0 2e35 1098 8bb5
00000070: a629 a1b5 7ab7 3036 e906 dfb4 049a 90b5
00000080: 9282 0236 54a0 e535 0000 6d35 b264 86b5
00000090: 511b 0036 fd46 9734 6cb2 f2b4 11ff 2fb4
000000a0: 770a 55b4 fc2b 8cb5 c0ba 2435 b04f f234
000000b0: c77b efb5 4f8a ceb5 aec7 4bb4 1bee 2c33
000000c0: fa89 59b5 ab52 57b5 6109 0e34 a4c9 3d35
000000d0: d2ee a135 cac3 9fb4 b225 5f36 67d3 7635
000000e0: 0c76 bd35 998e 8cb5 282f 4335 6d8f ed35
000000f0: f766 3d35 50a8 c2b5 c3ea 7e35 17c3 b5b5

features.bn2.weight f4 [64]
1.0009999 0.999 1.0009999 1.0009999 1.0009999 0.999 1.0009998 0.9990002
1.0009996 1.0009996 1.0009998 0.999 1.0009996 0.999 0.999 0.99900025
0.9990001 1.0009992 1.0009999 1.0009999 1.0009998 1.0009999 1.0009998 0.99900025
1.0009998 1.0009999 0.999 0.99900013 1.0009998 0.999 1.0009999 0.99900055
1.0009997 0.9990001 0.9990003 1.0009998 0.999 1.0009995 0.9990009 0.9990001
1.0009999 0.9990001 0.9990003 0.999 1.0009999 0.999001 1.0009999 0.99900025
1.0009984 1.0009996 0.99900043 1.0009998 1.0009998 1.0009999 0.99900013 0.9990008
0.99900025 1.0009999 0.9990001 0.9990001 1.0009991 1.000999 1.0009999 1.0009999
00000000: c420 803f 77be 7f3f c420 803f c420 803f
00000010: c420 803f 77be 7f3f c320 803f 7abe 7f3f
00000020: c120 803f c120 803f c320 803f 77be 7f3f
00000030: c120 803f 77be 7f3f 77be 7f3f 7bbe 7f3f
00000040: 78be 7f3f be20 803f c420 803f c420 803f
00000050: c320 803f c420 803f c320 803f 7bbe 7f3f
00000060: c320 803f c420 803f 77be 7f3f 79be 7f3f
00000070: c320 803f 77be 7f3f c420 803f 80be 7f3f
00000080: c220 803f 78be 7f3f 7cbe 7f3f c320 803f
00000090: 77be 7f3f c020 803f 86be 7f3f 78be 7f3f
000000a0: c420 803f 78be 7f3f 7cbe 7f3f 77be 7f3f
000000b0: c420 803f 88be 7f3f c420 803f 7bbe 7f3f
000000c0: b720 803f c120 803f 7ebe 7f3f c320 803f
000000d0: c320 803f c420 803f 79be 7f3f 84be 7f3f
000000e0: 7bbe 7f3f c420 803f 78be 7f3f 78be 7f3f
000000f0: bd20 803f bc20 803f c420 803f c420 803f

features.bn2.bias f4 [64]
0.0009999352 -0.0009998097 0.0009942006 0.0009998988 0.0009999034 -0.0009999028 0.0009809395 0.000999868
-0.0009997514 0.0009996984 -0.0009998251 -0.0009998769 -0.0009998621 0.0009997152 -0.0009999338 0.0009990155
-0.0009998819 -0.0009997461 0.0009999586 0.0009979621 0.0009995865 0.0009998194 0.0009998537 -0.000994605
0.0009997344 0.0009998786 -0.0009999317 0.00099987 0.0009997581 -0.0009979386 0.0009997854 0.0009997799
-0.0009993535 -0.0009983719 0.0009998746 -0.0009996603 -0.000999667 -0.0009998104 -0.0009996883 -0.000999935
-0.0009995992 -0.0009997034 0.0009998385 -0.0009995984 0.0009985457 -0.0009997275 -0.0009294755 0.0009985195
0.000999403 0.0009999085 0.0009968069 -0.0009998104 -0.0009998899 0.000999844 -0.00099884 0.0009926222
-0.0009997851 0.0009997179 -0.0009998245 0.0009990052 -0.0009997172 0.0009997111 0.0009988459 0.0009999241
00000000: 4210 833a 0c0c 83ba d64f 823a 090f 833a
00000010: 310f 833a 2c0f 83ba de92 803a 010e 833a
00000020: 170a 83ba 5008 833a 900c 83ba 4d0e 83ba
00000030: ce0d 83ba e008 833a 3610 83ba 66f1 823a
00000040: 780e 83ba ea09 83ba 0b11 833a 0dce 823a
00000050: 8f04 833a 5f0c 833a 860d 833a 685d 82ba
00000060: 8509 833a 5c0e 833a 2410 83ba 120e 833a
00000070: 510a 833a 43cd 82ba 3b0b 833a 0c0b 833a
00000080: bdfc 82ba cddb 82ba 390e 833a 0907 83ba
00000090: 4207 83ba 120c 83ba f907 83ba 4010 83ba
000000a0: fc04 83ba 7b08 83ba 030d 833a f504 83ba
000000b0: a2e1 823a 4a09 83ba 0ba8 73ba c1e0 823a
000000c0: 66fe 823a 5d0f 833a 4aa7 823a 120c 83ba
000000d0: bd0e 83ba 330d 833a 82eb 82ba e01a 823a
000000e0: 390b 83ba f708 833a 8b0c 83ba 0df1 823a
000000f0: f108 83ba bd08 833a b5eb 823a e30f 833a

features.bn2.running_mean f4 [64]
0.057437763 0.8366883 1.294153 0.19639961 1.0451164 -0.0976386 -1.367069 -1.6696978
-1.4256564 1.2727672 -0.67858505 0.7343697 0.6530785 -0.052765787 0.52666104 -0.3926496
-0.32752228 0.4345471 2.1713586 0.72648466 -0.6740322 0.8101288 -0.043256585 -0.7463163
-0.28726938 0.013395678 1.4692262 -0.084580824 1.0777724 0.086494766 1.6635408 1.4639683
0.47020304 0.6162288 -1.833386 0.89557886 -0.547778 -0.475104 -0.5540463 -0.72452
-0.17465124 -0.5094992 0.52090734 0.7497111 0.78715557 -2.1329799 0.50877184 1.270075
-2.365529 -1.3057989 0.15934539 0.5279618 -1.1852493 0.057409983 0.1869205 -0.4570689
0.30767933 0.89530563 0.29157963 0.09691236 0.09024635 -0.4035396 0.5500443 0.22081089
00000000: dc43 6b3d 3431 563f cea6 a53f fb1c 493e
00000010: 60c6 853f bff6 c7bd 1efc aebf a8b8 d5bf
00000020: e97b b6bf 09ea a23f c0b7 2dbf a7ff 3b3f
00000030: 2730 273f f020 58bd 42d3 063f 5e09 c9be
00000040: 00b1 a7be f57c de3e 8af7 0a40 e6fa 393f
00000050: 608d 2cbf 9a64 4f3f d12d 31bd 960e 3fbf
00000060: f914 93be 8c79 5b3c 9b0f bc3f b638 adbd
00000070: 72f4 893f 2b24 b13d e8ee d43f 5063 bb3f
00000080: 74be f03e 2cc1 1d3f 64ac eabf a844 653f
00000090: 2e3b 0cbf d540 f3be fad5 0dbf 257a 39bf
000000a0: c6d7 32be 8a6e 02bf 2f5a 053f 11ed 3f3f
000000b0: 0783 493f be82 08c0 df3e 023f d191 a23f
000000c0: d464 17c0 6b24 a7bf 702b 233e 8128 073f
000000d0: 40b6 97bf bb26 6b3d 1668 3f3e ef04 eabe
000000e0: 2588 9d3e c032 653f ed49 953e fd79 c63d
000000f0: 14d3 b83d be9c cebe b4cf 0c3f 401c 623e

features.bn2.running_var f4 [64]
0.7705901 2.05301 6.3456545 1.7256626 2.0479755 1.9653994 4.553156 4.881756
2.2601416 1.442741 1.9650662 1.5936105 1.0366429 1.4312687 1.5105764 1.2458587
0.92610025 1.3494548 8.1309395 2.1474264 1.7448019 2.6479185 0.7668073 1.0125057
2.8074713 5.608501 2.8656676 1.1687734 1.4310424 1.4153705 3.1555417 3.2293282
1.2757008 1.8466356 7.2212625 2.828881 1.9747326 1.2783996 1.0196251 1.6866134
2.332213 1.7947783 1.3749188 1.133874 1.482203 4.209906 1.8526003 1.8225521
9.190839 6.09179 0.90997696 1.4263185 2.1114419 2.0982277 0.6600646 2.662447
1.7151028 5.366184 1.2734399 1.7009753 2.199654 1.4137355 1.5291706 1.3617488
00000000: 6545 453f 8464 0340 9a0f cb40 83e2 dc3f
00000010: 0812 0340 3592 fb3f 74b3 9140 5837 9c40
00000020: 29a6 1040 bdab b83f 4a87 fb3f 6efb cb3f
00000030: b7b0 843f d033 b73f 915a c13f 4c78 9f3f
00000040: e814 6d3f efba ac3f 5418 0241 6f6f 0940
00000050: ab55 df3f 7f77 2940 7c4d 443f c999 813f
00000060: 9cad 3340 d778 b340 1967 3740 5e9a 953f
00000070: 662c b73f dc2a b53f 65f4 4940 50ad 4e40
00000080: 2a4a a33f 8e5e ec3f 9514 e740 630c 3540
00000090: 0ac4 fc3f 99a2 a33f 1383 823f f3e2 d73f
000000a0: fa42 1540 4cbb e53f 57fd af3f c922 913f
000000b0: d4b8 bd3f 8db7 8640 0222 ed3f 6349 e93f
000000c0: ad0d 1341 f2ef c240 40f4 683f 9b91 b63f
000000d0: dd21 0740 5d49 0640 fef9 283f 8865 2a40
000000e0: 7d88 db3f c8b7 ab40 1400 a33f 8fb9 d93f
000000f0: 22c7 0c40 49f5 b43f ddbb c33f c94d ae3f

features.conv3.weight f4 [64, 64, 3, 3]
0.024579905 -0.025941024 -0.022009922 0.077451244 -0.017785616 -0.11556815 -0.009124102 0.069867305
0.13155419 0.058144815 -0.08683576 0.03780767 0.032862797 -0.012905845 0.052804813 0.08361682
-0.04260033 -0.05807392 0.022391582 0.022745103 0.025038376 -0.026382511 -0.0012162534 0.06681819
-0.049797826 -0.0049999147 0.05448983 0.0091995355 0.036987204 -0.060871832 0.0111682555 0.06568535
0.006292084 0.0043701236 0.008858944 -0.008381672 -0.02576846 0.0006564642 -0.036111902 0.014563481
0.07323013 0.07096918 -0.02855403 0.026497899 0.12577228 0.06097999 0.011697238 -0.060748473
-0.04418442 -0.081254914 -0.04267578 0.089665845 0.11392489 0.081171185 -0.04750706 0.05563698
-0.049716607 -0.023885261 -0.06027318 0.107348755 0.107297085 -0.0024699545 -0.018841896 -0.036310453
0.113673456 -0.08603006 -0.0199737 0.02247399 0.09695539 0.058032125 0.089574955 0.03855508
0.11100141 0.0876222 -0.08979049 -0.059271734 0.13633884 0.016142208 -0.00653064 8.016553e-06
0.013318924 0.010752734 -0.06438304 -0.019051822 0.059144 -0.05360367 0.06572122 -0.089641355
-0.09894237 -0.09899621 -0.043236095 -0.10495762 -0.00019582156 -0.05469387 0.078575 -0.029848382
-0.09615881 0.033440188 0.12488447 -0.001424127 0.019562298 0.012997606 0.07656356 -0.067726135
-0.02156207 0.07984895 0.035267606 0.03690831 -0.011100776 0.094181634 0.0125126345 -0.038694788
0.0014514858 -0.021165619 -0.1085969 0.029642774 -0.07313104 0.025600458 0.11568433 -0.07577949
0.018967101 0.002086336 0.0030604722 -0.020212235 -0.0064074523 -0.032793913 0.020590486 0.028052807
0.115895934 0.052412532 0.012972154 -0.10546242 -0.008575024 0.034431282 0.10606386 0.017423688
-0.017035782 0.008653844 0.02672955 0.0042348853 0.07687949 -0.022941668 -0.059688877 0.07554041
-0.0032135812 0.042574447 0.0063052806 -0.011345824 0.040781353 0.08424073 0.041092683 0.05075758
0.016360397 -0.05934432 -0.0042952164 0.07252886 0.0054793647 -0.054665484 0.0028817921 -0.05494948
-0.031904936 0.06833784 0.11131482 -0.099493615 0.035425268 0.0049807234 -0.01600527 -0.07407542
-0.014541875 0.046891417 0.022261143 -0.051800337 0.008952618 0.033996858 0.029845849 0.029310606
-0.062232032 0.094776876 0.08071652 -0.014540965 -0.037901334 0.04652937 -0.047289144 -0.04696357
-0.021425676 0.026493384 -0.013079864 -0.072537735 -0.07348322 -0.03342785 -0.0651689 -0.02705837
-0.03643813 -0.025301775 0.077976294 0.060829338 0.015387512 -0.007233059 -0.0006256784 -0.011180796
0.042518217 -0.0020086686 -0.011176632 -0.01781895 0.08392878 0.02176007 0.033050682 0.0016885931
0.0681153 0.050149195 0.056276307 0.1324197 0.07313321 -0.05071503 0.0020532396 0.053972002
-0.024593277 -0.082651414 0.12269391 -0.0779218 -0.040891267 0.017698007 -0.044287976 -0.04035408
-0.023513053 -0.035062365 0.025506474 0.04506731 -0.13754034 0.023634236 0.071907155 -0.009092261
-0.09933008 0.076299384 -0.024568917 -0.1351966 0.03491949 -0.06829044 -0.06774463 0.05651445
0.03972261 0.009711097 -0.075429365 -0.0029229096 0.03163782 0.010422956 0.041559674 0.006945789
-0.01237231 -0.023490053 -0.008215767 0.11296992 0.066073544 -0.09937772 -0.0751385 0.023067769
00000000: cc5b c93c 4582 d4bc 274e b4bc c29e 9e3d
00000010: 24b3 91bc ffae ecbd 427d 15bc 9716 8f3d
00000020: 24b6 063e 4229 6e3d f2d6 b1bd 37dc 1a3d
00000030: 249b 063d 0a73 53bc dc49 583d 4c3f ab3d
00000040: af7d 2ebd ebde 6dbd 8d6e b73c f053 ba3c
00000050: 481d cd3c 2320 d8bc b16a 9fba fad7 883d
00000060: cef8 4bbd 53d6 a3bb ba30 5f3d a6b9 163c
00000070: e57f 173d be54 79bd 0ffb 363c 0a86 863d
00000080: d42d ce3b 4133 8f3b 1b25 113c 4853 09bc
00000090: 6118 d3bc 9116 2c3a 13ea 13bd ab9b 6e3c
000000a0: aef9 953d 4a58 913d 24ea e9bc 1f12 d93c
000000b0: 73ca 003e 27c6 793d c6a5 3f3c 64d3 78bd
000000c0: b9fa 34bd fa68 a6bd cccc 2ebd baa2 b73d
000000d0: 7451 e93d 143d a63d c396 42bd 9ae3 633d
000000e0: a4a3 4bbd 06ab c3bc 03e1 76bd aad9 db3d
000000f0: 93be db3d f6de 21bb 525a 9abc 45ba 14bd
00000100: a1cd e83d 8730 b0bd e39f a3bc 601b b83c
00000110: 8c90 c63d 18b3 6d3d 1373 b73d eeeb 1d3d
00000120: b554 e33d 4573 b33d 14e4 b7bd ebc6 72bd
00000130: 699c 0b3e aa3c 843c fbfe d5bb d57e 0637
00000140: 9e37 5a3c 3c2c 303c 41db 83bd 9112 9cbc
00000150: fb40 723d 868f 5bbd d998 863d e395 b7bd
00000160: 4ca2 cabd 86be cabd 5518 31bd 05f4 d6bd
00000170: 7355 4db9 ae06 60bd eeeb a03d 9884 f4bc
00000180: e9ee c4bd 94f8 083d 6ec3 ff3d c6a9 baba
00000190: 1d41 a03c e9f3 543c 5bcd 9c3d 00b4 8abd
000001a0: f0a2 b0bc d987 a33d c474 103d 2b2d 173d
000001b0: 07e0 35bc 4de2 c03d cb01 4d3c 6d7e 1ebd
000001c0: c83f be3a 8563 adbc 0d68 debd 67d5 f23c
000001d0: bac5 95bd 0db8 d13c e8eb ec3d 4732 9bbd
000001e0: e560 9b3c e9ba 083b 3492 483b 2194 a5bc
000001f0: 9bf5 d1bb e952 06bd 61ad a83c 00cf e53c
00000200: d95a ed3d 86ae 563d 2889 543c aefc d7bd
00000210: 427e 0cbc d107 0d3d 0238 d93d 1fbc 8e3c
00000220: a08e 8bbc dac8 0d3c eef7 da3c cbc4 8a3b
00000230: fe72 9d3d 2af0 bbbc 537c 74bd eeb4 9a3d
00000240: f29a 52bb 8b62 2e3d 879c ce3b d6e3 39bc
00000250: 590a 273d 6786 ac3d cd50 283d 2ee7 4f3d
00000260: 3d06 863c 0813 73bd e3be 8cbb 038a 943d
00000270: 3e8c b33b eae8 5fbd 73dc 3c3b b512 61bd
00000280: c0ae 02bd b6f4 8b3d 06f9 e33d 4fc3 cbbd
00000290: 161a 113d 5635 a33b 7c1d 83bc dbb4 97bd
000002a0: 0b41 6ebc 3711 403d 005d b63c 972c 54bd
000002b0: 00ae 123c 4a40 0b3d 487f f43c cc1c f03c
000002c0: 04e7 7ebd 611a c23d b44e a53d 3a3d 6ebc
000002d0: 6e3e 1bbd 9595 3e3d 43b2 41bd df5c 40bd
000002e0: e684 afbc a708 d93c ed4c 56bc aa8e 94bd
000002f0: 5f7e 96bd a4eb 08bd 4677 85bd 84a9 ddbc
00000300: 2640 15bd ab45 cfbc 09b2 9f3d 2f28 793d
00000310: e71b 7c3c 4c03 edbb 9104 24ba a82f 37bc
00000320: 9527 2e3d dea3 03bb 311e 37bc 0cf9 91bc
00000330: dae2 ab3d 2d42 b23c 2760 073d c853 dd3a
00000340: 0980 8b3d 3e69 4d3d fc81 663d 0899 073e
00000350: ddc6 953d 90ba 4fbd a58f 063b bf11 5d3d
00000360: d777 c9bc 2545 a9bd f246 fb3d 7795 9fbd
00000370: 9a7d 27bd 69fb 903c 4f67 35bd 524a 25bd
00000380: 729e c0bc 8e9d 0fbd f4f2 d03c 8098 383d
00000390: 60d7 0cbe 969c c13c 0f44 933d b5f7 14bc
000003a0: 926d cbbd da42 9c3d c144 c9bc fa70 0abe
000003b0: bd07 0f3d dcdb 8bbd b2bd 8abd b27b 673d
000003c0: 2db4 223d 4b1b 1f3c b67a 9abd 498e 3fbb
000003d0: a996 013d 0cc5 2a3c 7a3a 2a3d 8099 e33b
000003e0: 3bb5 4abc 366e c0bc 6d9b 06bc c65c e73d
000003f0: 9151 873d 8c86 cbbd 37e2 99bd 9ef8 bc3c

features.conv3.bias f4 [64]
8.6993694e-08 -5.827843e-07 2.2069004e-07 2.0487835e-07 -2.1350296e-07 -9.316983e-07 1.5276814e-07 1.3850661e-06
-7.190135e-09 -7.7127123e-07 3.9368746e-07 -2.8608756e-07 -2.551865e-07 -8.843148e-08 -3.3854317e-07 -1.0752136e-06
-7.692908e-08 -6.341316e-07 -4.8222887e-07 -4.973135e-07 3.917117e-07 5.562109e-07 -5.0331055e-09 -8.2511156e-07
-5.003663e-07 3.8825505e-08 -6.6859957e-07 2.7321962e-08 1.2803689e-06 2.1278424e-07 -8.520296e-07 2.1476069e-07
1.3499304e-06 1.4881472e-07 -1.8874499e-06 -5.6231573e-07 -3.4529867e-06 5.429237e-07 3.988962e-07 -2.0132116e-08
5.2891784e-07 5.317909e-07 6.8044744e-07 -6.9552607e-07 -4.470297e-07 1.8133957e-07 -9.948502e-07 -5.6500903e-07
-6.5998273e-07 -4.1901222e-07 1.2107978e-06 -1.9225477e-06 -1.2688937e-06 1.9948789e-07 -1.2760656e-06 1.6130289e-06
3.927894e-07 0.0 4.7001723e-07 -8.1577974e-07 -2.2500221e-07 1.9855743e-06 1.0206827e-06 4.534951e-07
00000000: 4ad1 ba33 a270 1cb5 d1f6 6c34 88fc 5b34
00000010: 3f3f 65b4 d219 7ab5 9608 2434 82e6 b935
00000020: 190d f7b1 5b09 4fb5 fe5b d334 9397 99b4
00000030: 9100 89b4 b8e7 bdb3 05c1 b5b4 0f50 90b5
00000040: 3634 a5b3 3139 2ab5 8472 01b5 207f 05b5
00000050: 724c d234 864e 1535 aaef acb1 3c7d 5db5
00000060: e950 06b5 18c1 2633 d079 33b5 a1b1 ea32
00000070: 24d9 ab35 b079 6434 07b7 64b5 f898 6634
00000080: 412f b535 e1c9 1f34 4954 fdb5 0bf2 16b5
00000090: dcb9 67b6 6fbd 1135 e027 d634 feee acb2
000000a0: f5fa 0d35 64c0 0e35 fea7 3635 30b4 3ab5
000000b0: 4bff efb4 3eb6 4234 cb86 85b5 20ab 17b5
000000c0: ab29 31b5 9af4 e0b4 b282 a235 1e05 01b6
000000d0: db4e aab5 d032 5634 4845 abb5 407f d835
000000e0: 90e0 d234 0000 0000 ad56 fc34 f5fb 5ab5
000000f0: 2398 71b4 e83f 0536 64fe 8835 e477 f334

features.bn3.weight f4 [64]
1.0009999 1.0009992 1.0009999 1.0009999 1.0009999 1.0009999 1.0009999 1.0009999
1.0009999 1.0009999 1.0009999 1.0009998 1.0009999 1.0009999 1.0009999 1.0009998
1.0009999 1.0009999 1.0009998 0.99900013 1.0009999 1.0009999 1.0009999 1.0009999
1.0009999 1.0009999 1.0009999 1.0009999 1.0009999 1.0009999 0.99900013 1.0009999
1.0009999 1.0009999 1.0009999 0.99900013 1.0009999 1.0009999 1.0009999 1.0009999
1.0009999 1.0009999 1.0009993 1.0009999 1.0009999 0.9990001 1.0009999 1.0009998
1.0009999 1.0009999 1.0009999 1.0009999 1.0009999 1.0009999 1.0009998 1.0009991
1.0009999 1.0009999 1.0009999 1.0009996 0.9990001 1.0009999 0.99900043 1.0009999
00000000: c420 803f be20 803f c420 803f c420 803f
00000010: c420 803f c420 803f c420 803f c420 803f
00000020: c420 803f c420 803f c420 803f c320 803f
00000030: c420 803f c420 803f c420 803f c320 803f
00000040: c420 803f c420 803f c320 803f 79be 7f3f
00000050: c420 803f c420 803f c420 803f c420 803f
00000060: c420 803f c420 803f c420 803f c420 803f
00000070: c420 803f c420 803f 79be 7f3f c420 803f
00000080: c420 803f c420 803f c420 803f 79be 7f3f
00000090: c420 803f c420 803f c420 803f c420 803f
000000a0: c420 803f c420 803f bf20 803f c420 803f
000000b0: c420 803f 78be 7f3f c420 803f c320 803f
000000c0: c420 803f c420 803f c420 803f c420 803f
000000d0: c420 803f c420 803f c320 803f bd20 803f
000000e0: c420 803f c420 803f c420 803f c120 803f
000000f0: 78be 7f3f c420 803f 7ebe 7f3f c420 803f

features.bn3.bias f4 [64]
0.0009997905 0.0009997094 0.0009998364 0.0008985533 0.0009992974 0.0009997626 0.0009998666 -0.0009997884
0.0009997205 0.0009997827 0.0009998915 -0.0009984262 0.0009998125 0.0009995915 0.0009995784 0.0009995936
0.0009998105 0.0009997317 -0.0009997775 0.0009989378 0.0009998974 -0.0009997343 0.0009993714 0.0009998876
0.0009994394 0.000998141 0.0009999356 0.0009988142 0.0009996444 0.0009992722 0.0009969899 -0.0009997509
0.0009998512 -0.0009997009 0.0009991251 0.0009996797 0.0009997081 -0.0009995914 0.0009998678 0.0009998949
0.0009998169 -0.0009992482 0.0009992192 0.0009989875 0.0009998243 -0.0009998218 0.0009998293 0.0009998758
0.0009995913 -0.0009995365 0.0009996197 0.0009996129 0.0009999216 0.0009998872 -0.0009990948 0.0009983887
0.000998588 0.0009998967 0.0009995139 0.0009992655 0.0009987077 0.0009994056 0.000999851 0.0009998052
00000000: 670b 833a ae08 833a f10c 833a e48c 6b3a
00000010: dbfa 823a 770a 833a f50d 833a 550b 83ba
00000020: 0e09 833a 240b 833a cb0e 833a a0dd 82ba
00000030: 240c 833a ba04 833a 4904 833a cc04 833a
00000040: 130c 833a 6e09 833a f70a 83ba caee 823a
00000050: fd0e 833a 8409 83ba 57fd 823a a90e 833a
00000060: 9fff 823a 0ed4 823a 4510 833a a5ea 823a
00000070: 8006 833a 03fa 823a 6ead 823a 130a 83ba
00000080: 700d 833a 6508 83ba 13f5 823a af07 833a
00000090: a308 833a b904 83ba ff0d 833a e80e 833a
000000a0: 4a0c 833a 35f9 82ba 3cf8 823a 75f0 823a
000000b0: 890c 833a 740c 83ba b40c 833a 440e 833a
000000c0: b804 833a e102 83ba ac05 833a 7105 833a
000000d0: cd0f 833a a60e 833a 0ff4 82ba 5edc 823a
000000e0: 0ee3 823a f70e 833a 1f02 833a c9f9 823a
000000f0: 12e7 823a 7dfe 823a 6f0d 833a e50b 833a

features.bn3.running_mean f4 [64]
1.5974637 0.23260888 -0.5060962 -0.4056605 3.2069275 -0.19354759 0.599749 1.0419043
-0.06912415 -0.88007355 0.6003926 -1.2407547 -0.3290089 -1.1618233 -0.46980274 1.4729726
-0.79934007 -1.3397229 1.019116 -0.1316719 -1.0799531 0.49074635 1.5804952 0.6879024
-0.49768627 0.9932036 -2.7734895 -0.55996966 3.4296541 1.017223 2.3983982 -0.84443885
0.27667147 0.12909643 -1.4251078 -0.21590926 1.7168437 -0.19530183 -2.4320679 -0.30551952
0.40723258 2.1163225 0.19395466 0.09726637 -1.5837901 -1.9732653 -1.4664402 0.89716095
-1.7524035 0.54266137 0.94013953 -2.4494693 -3.3852866 2.9364307 -0.45875347 -1.7837013
-0.0606285 0.8909902 -0.4151659 -0.69448715 0.8560025 -0.92488897 -1.2015353 -1.5118963
00000000: b179 cc3f 0631 6e3e 858f 01bf bcb2 cfbe
00000010: 4d3e 4d40 5731 46be 2789 193f 1f5d 853f
00000020: f690 8dbd 804c 61bf 54b3 193f 0dd1 9ebf
00000030: db73 a8be a0b6 94bf fc89 f0be 5e8a bc3f
00000040: 8da1 4cbf 0a7c abbf 6572 823f 00d5 06be
00000050: e73b 8abf 1b43 fb3e ab4d ca3f 5f1a 303f
00000060: bcd0 febe 9742 7e3f da80 31c0 2c5a 0fbf
00000070: 747f 5b40 5d34 823f 5b7f 1940 252d 58bf
00000080: e2a7 8d3e db31 043e ef69 b6bf 5117 5dbe
00000090: 89c1 db3f 34fd 47be 00a7 1bc0 0e6d 9cbe
000000a0: ca80 d03e d471 0740 0d9c 463e 9733 c73d
000000b0: a2b9 cabf f593 fcbf 50b4 bbbf 57ac 653f
000000c0: c24e e0bf dbeb 0a3f fcac 703f 1bc4 1cc0
000000d0: 89a8 58c0 7bee 3b40 bce1 eabe 5350 e4bf
000000e0: 9755 78bd ef17 643f a090 d4be e9c9 31bf
000000f0: fb22 5b3f 86c5 6cbf e9cb 99bf d185 c1bf

features.bn3.running_var f4 [64]
1.3424804 1.1370498 2.3197496 1.3452882 2.794724 1.3762512 1.3376726 1.4865078
1.3974624 1.2582039 1.5734284 1.7971153 1.3001398 1.1931741 0.88834244 0.954316
1.4388367 1.3345908 0.95207393 1.4539535 2.626578 1.5838779 1.6852275 3.0784411
0.9151951 0.85306925 3.1129906 1.5517567 1.8162154 2.1080582 1.8911424 1.8559352
0.9645986 0.74646854 1.375893 1.7380149 1.3395165 1.0934831 1.9936097 1.0412726
1.347127 2.2827775 1.0660629 1.6654061 0.9976576 1.5551246 1.6741742 2.7691584
3.3306913 2.0639703 2.0187035 2.9908986 2.3877254 1.9692475 1.7472038 1.6122075
0.8534781 3.3620577 1.0290294 0.8831708 2.1103144 0.67291546 2.1104746 1.658324
00000000: 66d6 ab3f d98a 913f c776 1440 6732 ac3f
00000010: c2dc 3240 0029 b03f db38 ab3f e345 be3f
00000020: 0ce0 b23f d30c a13f 1a66 c93f e007 e63f
00000030: fb6a a63f eeb9 983f 696a 633f 0e4e 743f
00000040: cd2b b83f dfd3 aa3f 1ebb 733f 261b ba3f
00000050: db19 2840 83bc ca3f 89b5 d73f 2e05 4540
00000060: 3a4a 6a3f bf62 5a3f 3d3b 4740 f79f c63f
00000070: bf79 e83f 6dea 0640 f410 f23f 498f ed3f
00000080: efef 763f 9018 3f3f 431d b03f 4677 de3f
00000090: 4775 ab3f 41f7 8b3f 9a2e ff3f 6c48 853f
000000a0: a86e ac3f 0719 1240 c074 883f 072c d53f
000000b0: 7d66 7f3f 530e c73f 574b d63f e439 3140
000000c0: 0c2a 5540 1718 0440 7032 0140 e26a 3f40
000000d0: 7ed0 1840 4d10 fc3f 60a4 df3f d15c ce3f
000000e0: 8a7d 5a3f f42b 5740 3cb7 833f 7b17 623f
000000f0: 640f 0740 3044 2c3f 0412 0740 f643 d43f

fc.weight f4 [5, 64]
-0.011063687 0.0049629044 -0.003058453 -0.010544443 0.0015969898 0.007618882 -0.0039342353 0.011174576
-0.013191149 0.0021284178 0.007798444 -0.007578899 0.004616966 0.007408117 -0.009633175 0.0026404615
0.008049434 0.008405298 -0.0030732742 -0.0068623656 -0.0062856143 0.02933495 -0.007294893 0.005164139
0.0013572192 0.004955445 -0.0012259473 -0.003995836 0.021748397 0.00080397655 -0.002499025 0.025980942
0.011042586 0.003223645 -0.01145253 0.010156043 -0.0011940947 0.008841326 -0.028656289 0.011278344
0.0027747075 -0.006419591 0.008706233 -0.0038811492 0.0071005938 0.01086905 -0.0022527042 -0.0010748046
0.0050610607 -0.0019920585 0.010526454 -0.0021986875 -0.00019319619 0.0018603757 0.003672375 -0.009668013
0.012270255 0.0029370543 -0.0029025318 0.00094217097 -0.0014350215 0.010421788 -0.0064768554 0.009728085
-0.0025621797 0.018100342 -0.00022770694 0.006004115 0.008471586 -0.00822439 -0.0018123789 -0.005425459
-0.012675058 0.0086737685 -0.0009229416 0.007509061 -0.006225158 0.004044372 0.005904471 -0.0058356505
-0.011136283 0.008826335 -0.0036908325 0.007588019 0.005646625 -0.0052752774 -0.0038697368 -0.019758878
-0.0104246335 0.017264621 -0.005803391 0.004541098 0.0066431304 -0.011235579 -0.00022131056 -0.0027946632
0.0033573147 -0.0019713454 -0.0021396696 0.0019287204 -0.014829829 -0.019366996 -0.0072477898 0.006375684
0.003604044 -0.0045703794 -0.0016155374 -0.0066371625 -0.0082615325 -7.397729e-05 0.0028954335 -0.0058454056
0.01746258 -0.0048378785 -0.012977724 -0.016179854 0.026047219 0.014673147 2.4547246e-05 -0.008044312
-0.001011946 0.0024496494 -0.013257252 0.008245886 0.02066923 0.0068490733 0.00029512896 -0.008003358
0.008327986 -0.0018704019 -0.009766132 0.0051498264 0.0012895234 0.0019435976 0.0113246115 -0.018495774
0.005246 0.0017962711 0.0027827127 -0.0026620703 -0.00064848777 0.008189907 0.0011270252 0.012222157
-0.0017789408 0.010336222 0.0030157503 -0.014763799 0.0067936024 0.0025618023 0.0056088986 0.0062694233
0.0030347926 -0.01081927 -0.011624666 -0.015392827 0.008974897 -0.008869097 0.009544518 0.0036205521
-0.004673535 0.020032665 -0.015080805 0.00096976175 0.03888303 0.0224422 -0.014213694 -0.0020348665
-7.625219e-05 0.0031057736 0.016394991 -0.0046526226 -0.0021860937 0.004483443 -0.010980813 0.0058193253
-0.017369261 -0.013450704 0.0121506 0.0065327086 -0.0019018184 -0.00117581 -0.012098618 0.012334027
0.007303371 0.010597191 -0.007264758 0.0014070019 -0.01466947 0.022551589 -0.00077752006 0.008738357
-0.0028083888 -0.002801347 0.0035985447 0.011914084 0.0018522912 -0.023627073 -0.00576057 0.0069398093
0.007765741 -0.00021277799 0.00095337874 0.0029746578 -0.0023310964 -0.0044236607 0.00044787893 0.005885364
0.0038726532 0.005705918 0.0029901576 -0.0067643393 -0.007948678 -0.013911001 -0.019439282 -0.002957929
0.018121084 0.0021514443 -0.008634987 -0.009037805 -0.011975364 -0.006610761 -0.0024304222 0.0017349431
-0.013667175 0.013938137 0.020567233 -0.0025189223 -0.013894476 -0.0070415726 0.00036140197 -0.0100573
0.003528778 -0.0138583565 -0.02235031 0.0015934437 -0.016375832 -0.012752446 0.016036935 -0.00062932086
-0.013237856 -0.0009193024 0.015361262 -0.009292092 -0.013387092 0.0066418764 -0.0002726562 0.018335897
0.0031121378 0.0021601946 0.006698944 -0.009219093 0.018448673 0.012944817 -0.014469273 -0.0007487801
00000000: 7744 35bc dc9f a23b 5470 48bb 99c2 2cbc
00000010: 1652 d13a d1a7 f93b c2ea 80bb 9215 373c
00000020: b01f 58bc ed7c 0b3b 178a ff3b 6a58 f8bb
00000030: eb49 973b cabf f23b 77d4 1dbc 980b 2d3b
00000040: c6e1 033c 60b6 093c fc68 49bb b2dd e0bb
00000050: 8ef7 cdbb d94f f03c ff09 efbb f037 a93b
00000060: b8e4 b13a 4961 a23b f7af a0ba 80ef 82bb
00000070: b229 b23c f4c1 523a afc6 23bb fcd5 d43c
00000080: f6eb 343c ca43 533b 64a3 3bbc 8865 263c
00000090: 2b83 9cba 36db 103c 98c0 eabc cec8 383c
000000a0: ded7 353b 6f5b d2bb 97a4 0e3c e15a 7ebb
000000b0: 19ac e83b 1a14 323c 1ba2 13bb 75e0 8cba
000000c0: 41d7 a53b 328d 02bb 2677 2c3c db17 10bb
000000d0: b594 4ab9 dad7 f33a 3bac 703b 9666 1ebc
000000e0: 2e09 493c 987b 403b 6738 3ebb 06fc 763a
000000f0: 5517 bcba 26c0 2a3c cd3b d4bb 8c62 1f3c
00000100: 3eea 27bb 2b47 943c 9ec4 6eb9 2bbe c43b
00000110: 68cc 0a3c 98bf 06bc 588d edba 0cc8 b1bb
00000120: 0cab 4fbc 6c1c 0e3c 90f1 71ba 920e f63b
00000130: 69fc cbbb a786 843b 4b7a c13b fc38 bfbb
00000140: f574 36bc 559c 103c e5e1 71bb eba4 f83b
00000150: 5307 b93b 3cdc acbb 699b 7dbb 5fdd a1bc
00000160: 15cc 2abc 896e 8d3c 5f2a bebb 7ecd 943b
00000170: 9eae d93b 6f15 38bc 9a0f 68b9 ab26 37bb
00000180: 6506 5c3b b031 01bb b339 0cbb 1ecd fc3a
00000190: d0f8 72bc 89a7 9ebc de7e edbb 1deb d03b
000001a0: d331 6c3b 1fc3 95bb 71c0 d3ba 8e7c d9bb
000001b0: 615b 07bc 4124 9bb8 50c1 3d3b d18a bfbb
000001c0: af0d 8f3c 1187 9ebb 85a0 54bc 9d8b 84bc
000001d0: fa60 d53c a467 703c cfea cd37 4acc 03bc
000001e0: 46a3 84ba 4c8a 203b f234 59bc c119 073c
000001f0: 8452 a93c 316e e03b 8abb 9a39 8420 03bc
00000200: 1b72 083c 4628 f5ba 2002 20bc e0bf a83b
00000210: 3a05 a93a 50c0 fe3a dd8a 393c 7384 97bc
00000220: a3e6 ab3b db70 eb3a 2c5e 363b 2176 2ebb
00000230: 47ff 29ba f62e 063c b1b8 933a 713f 483c
00000240: 592b e9ba 4259 293c e5a3 453b dce3 71bc
00000250: de9c de3b e9e3 273b daca b73b bc6f cd3b
00000260: 5fe3 463b 4f43 31bc 6275 3ebc 3232 7cbc
00000270: 720b 133c b04f 11bc 9c60 1c3c c946 6d3b
00000280: 7424 99bb 8b1b a43c 7b15 77bc 9c37 7e3a
00000290: d043 1f3d b4d8 b73c 8ee0 68bc 655b 05bb
000002a0: 95e9 9fb8 3c8a 4b3b ca4e 863c 0775 98bb
000002b0: 9144 0fbb d9e9 923b dee8 33bc 0ab0 be3b
000002c0: fb49 8ebc 5760 5cbc 4f13 473c 5510 d63b
000002d0: 7046 f9ba a31d 9aba 4839 46bc a914 4a3c
000002e0: 1e51 ef3b d79f 2d3c 350d eebb 266b b83a
000002f0: 3758 70bc 1cbe b83c 7dd2 4bba 532b 0f3c
00000300: f20c 38bb ce96 37bb 90d5 6b3b 4a33 433c
00000310: 94c8 f23a 908d c1bc 2ac3 bcbb 5767 e33b
00000320: c277 fe3b 281d 5fb9 2aec 793a 7af2 423b
00000330: 4fc5 18bb 5bf4 90bb 4bd1 ea39 03da c03b
00000340: 57cc 7d3b b6f8 ba3b 85f6 433b 64a7 ddbb
00000350: 2c3b 02bc f8ea 63bc 213f 9fbc d0d9 41bb
00000360: ab72 943c 3fff 0c3b c379 0dbc 4d13 14bc
00000370: 5134 44bc 159f d8bb b847 1fbb 0867 e33a
00000380: 49ec 5fbc c95c 643c 9d7c a83c 8114 25bb
00000390: a8a5 63bc febc e6bb 8d7a bd39 60c7 24bc
000003a0: 1243 673b 290e 63bc ff17 b7bc 19db d03a
000003b0: 9c26 86bc a3ef 50bc e45f 833c 02f9 24ba
000003c0: 98e3 58bc 57fd 70ba cdad 7b3c dc3d 18bc
000003d0: 8955 5bbc 19a4 d93b 4cf3 8eb9 2a35 963c
000003e0: 02f5 4b3b 0d92 0d3b d182 db3b ae0b 17bc
000003f0: ac21 973c 7f16 543c 8810 6dbc c849 44ba

fc.bias f4 [5]
0.999 0.9990006 1.0009999 1.0009986 1.0009999
00000000: 77be 7f3f 81be 7f3f c420 803f b920 803f
00000010: c420 803f
