maml_omniglot_Original_omniglot_with_train_rot/output/maml-omniglot-5way-1shot-TEST/train_iter_500.pth (torch_old, 310758 bytes, 20 tensors)

features.conv1.weight f4 [64, 3, 3, 3]
0.03922358 -0.012850657 -0.040115934 -0.018607268 0.0201474 -0.018158572 0.06823732 0.0070567755
0.049142584 0.097389385 -0.08826977 -0.048987396 0.049225606 -0.03085522 -0.073938996 0.10293169
0.08274529 0.019633142 0.045411937 0.04814374 -0.13896473 0.06437976 0.07089649 0.015165542
0.019418463 -0.088816725 -0.040497847 -0.01678618 0.033351585 -0.05440247 0.08319301 0.14514506
-0.07270048 0.0007606012 0.08270633 -0.0034519348 0.012278277 0.07378903 -0.07515918 -0.024169888
-0.03258181 -0.08806969 0.047782127 -0.06489765 -0.08166154 0.0366401 -0.028232781 -0.04804997
0.09037729 -0.04999222 0.04600538 -0.0006923032 -0.06584427 0.11341084 0.112294786 -0.13335694
0.08473712 -0.09011177 0.033232555 0.026913082 0.1056913 0.103966296 0.13682558 -0.07427465
-0.07961328 0.034427006 -0.004146609 -0.018958578 0.010091094 0.08723923 -0.001541541 -0.020917756
0.067864835 -0.062083412 0.01232938 0.039956894 -0.09922154 0.09275981 0.06831216 0.02705221
0.18869182 -0.0888998 0.040382814 -0.032226447 -0.0578771 -0.023633251 0.0070236325 -0.027585909
0.011391766 -0.039067272 0.011246787 -0.064328484 -0.089676484 0.010270045 -0.0077563915 -0.05778003
-0.11425373 -0.08937439 -0.02867504 0.03990794 -0.017311187 -0.10870405 0.018470615 0.052249763
-0.044095688 -0.023890696 0.008390519 0.062688254 0.010490568 0.14467308 -0.035516478 -0.10630246
-0.026073568 -0.022591207 0.057809155 -0.14809884 -0.031447798 0.03039032 -0.10917795 0.03675255
0.113197744 0.009888209 -0.0047364994 -0.035292804 -0.07580133 -0.022521298 -0.02901896 -0.091424756
-0.11889899 0.11770137 0.07015759 -0.049584087 0.082609996 0.0625922 -0.04861881 -0.10242077
-0.0017735993 -0.021066621 0.08462138 0.07277213 0.023551472 -0.05594831 0.055019435 0.0860107
0.13150218 0.05642998 -0.11556788 0.005487861 0.02611219 -0.013001401 -0.048999734 0.078295805
-0.024706418 0.006730127 0.071970575 -0.039249744 -0.039645836 -0.0057268213 0.09922503 -0.053134993
-0.041592453 0.03760233 -0.011654289 0.13611487 -0.16814235 0.02855325 -0.026502008 -0.007290678
-0.030279024 0.1526096 -0.023178216 -0.021223193 -0.08150614 -0.011037864 -0.11072615 -0.060114473
-0.013145491 -0.09904591 0.04047723 -0.004094064 0.035897415 0.051970012 -0.1094703 0.07545037
0.078019395 0.06966621 0.0065706964 -0.043854192 -0.054404497 0.14783327 0.023677865 0.056441206
0.04427088 0.00040795436 0.12894636 0.09780006 0.07839628 -0.00728175 -0.00520072 0.02698179
-0.014316717 -0.06484919 0.08640576 0.053765755 -0.057396032 -0.041832097 0.023946065 0.02882034
0.011128812 -0.0581933 0.01463882 -0.0062836516 0.06109381 0.051594727 0.087891795 0.07211603
0.013170519 0.048844587 -0.049203712 -0.044540253 -0.012467613 0.017739436 -0.050338514 0.008445316
-0.061361812 -0.02955153 -0.0017024293 -0.05106445 -0.0023195585 0.07031365 -0.004033456 -0.043962557
0.080256514 -0.1165088 0.019752132 -0.112384275 -0.09066181 0.0031962064 -0.004901444 -0.02849877
0.07071364 0.029564474 -0.07451499 -0.09222618 0.025099471 -0.021532288 0.0013985324 -0.03484536
-0.051085778 -0.0001379859 -0.05601353 -0.10610865 0.04221951 -0.11249662 -0.036006663 0.065829426
00000000: e8a8 203d 908b 52bc 9b50 24bd 456e 98bc
00000010: 290c a53c 49c1 94bc 02c0 8b3d 863c e73b
00000020: bc49 493d 1674 c73d c8c6 b4bd 02a7 48bd
00000030: caa0 493d 16c4 fcbc 546d 97bd dacd d23d
00000040: 5d76 a93d afd5 a03c de01 3a3d 5f32 453d
00000050: c54c 0ebe 89d9 833d 2e32 913d e578 783c
00000060: 7813 9f3c 8be5 b5bd 12e1 25bd 2c83 89bc
00000070: ac9b 083d 20d5 5ebd 1961 aa3d e8a0 143e
00000080: fde3 94bd 1563 473a f061 a93d db39 62bb
00000090: d42a 493c b41e 973d 0eed 99bd eeff c5bc
000000a0: 8174 05bd e25d b4bd 31b7 433d 0fe9 84bd
000000b0: 2a3e a7bd ee13 163d 6f48 e7bc 0cd0 44bd
000000c0: bb17 b93d a4c4 4cbd 2370 3c3d ae7b 35ba
000000d0: 5cd9 86bd f143 e83d cffa e53d b98e 08be
000000e0: a88a ad3d 858c b8bd dc1e 083d d378 dc3c
000000f0: ae74 d83d 48ec d43d 011c 0c3e 4f1d 98bd
00000100: 4a0c a3bd 5503 0d3d 47e0 87bb 054f 9bbc
00000110: 1e55 253c 7baa b23d 880d caba b75b abbc
00000120: b8fc 8a3d 2d4b 7ebd 2b01 4a3c d7a9 233d
00000130: aa34 cbbd dbf8 bd3d 3fe7 8b3d 999c dd3c
00000140: 6e38 413e 1911 b6bd 7368 253d e1ff 03bd
00000150: 8a10 6dbd 859a c1bc 8026 e63b d8fb e1bc
00000160: 88a4 3a3c 0105 20bd 7244 383c a7be 83bd
00000170: 4ea8 b7bd b143 283c 5429 febb c1aa 6cbd
00000180: dcfd e9bd ec09 b7bd ebe7 eabc 8276 233d
00000190: 31d0 8dbc 3ba0 debd b04f 973c d903 563d
000001a0: ae9d 34bd 6cb6 c3bc 6378 093c b362 803d
000001b0: a2e0 2b3c 2e25 143e ba79 11bd 1bb5 d9bd
000001c0: 3c98 d5bc 3211 b9bc 4bc9 6c3d 39a7 17be
000001d0: 68cf 00bd 1ff5 f83c b098 dfbd d889 163d
000001e0: 38d4 e73d 2802 223c a334 9bbb 308f 10bd
000001f0: ba3d 9bbd 967e b8bc 2cb9 edbc e73c bbbd
00000200: 5081 f3bd 6a0d f13d c8ae 8f3d af18 4bbd
00000210: 6e2f a93d 5730 803d 8424 47bd fbc1 d1bd
00000220: 1e78 e8ba e893 acbc f94d ad3d 8e09 953d
00000230: 04ef c03c 0e2a 65bd 0f5c 613d 6126 b03d
00000240: 82a8 063e 1f23 673d daae ecbd 84d3 b33b
00000250: 3be9 d53c d403 55bc f2b3 48bd 8d59 a03d
00000260: 1d65 cabc 6688 dc3b 4f65 933d 57c4 20bd
00000270: ac63 22bd 0fa8 bbbb 7e36 cb3d 14a4 59bd
00000280: d95c 2abd e704 1a3d a2f1 3ebc b261 0b3e
00000290: 822d 2cbe 81e8 e93c bd1a d9bc a4e6 eebb
000002a0: b70b f8bc b145 1c3e 3ee0 bdbc 43dc adbc
000002b0: b1ec a6bd 28d8 34bc 64c4 e2bd 983a 76bd
000002c0: 2f60 57bc 95d8 cabd 74cb 253d 7f27 86bb
000002d0: 2b09 133d 82de 543d f731 e0bd b985 9a3d
000002e0: a2c8 9f3d 28ad 8e3d ff4e d73b 74a0 33bd
000002f0: 40d7 5ebd 9b61 173e 15f8 c13c e52e 673d
00000300: 6255 353d b5e2 d539 840a 043e 664b c83d
00000310: 3b8e a03d bf9b eebb cd6a aabb ea08 dd3c
00000320: aa90 6abc a7cf 84bd 81f5 b03d 7b39 5c3d
00000330: 1a18 6bbd 2258 2bbd 8a2a c43c a218 ec3c
00000340: 9f55 363c 195c 6ebd a9d7 6f3c 17e7 cdbb
00000350: 813d 7a3d fe54 533d 9d00 b43d 92b1 933d
00000360: 29c9 573c 4311 483d d589 49bd d76f 36bd
00000370: f644 4cbc 4b52 913c c22f 4ebd 395e 0a3c
00000380: 8656 7bbd 0d16 f2bc 0c24 dfba f528 51bd
00000390: bc03 18bb 9a00 903d 152b 84bb 1512 34bd
000003a0: 875d a43d 2a9c eebd 39cf a13c ba29 e6bd
000003b0: e6ac b9bd 7277 513b 4b9c a0bb 4176 e9bc
000003c0: 50d2 903d 3231 f23c 519b 98bd 14e1 bcbd
000003d0: 689d cd3c 7b64 b0bc f64e b73a 02ba 0ebd
000003e0: 523f 51bd 4fb0 10b9 716e 65bd 7e4f d9bd
000003f0: 5dee 2c3d a164 e6bd b97b 13bd 94d1 863d

features.conv1.bias f4 [64]
0.0010248126 -0.0008192657 0.0010858967 0.0013418804 -0.00020961098 0.0010289301 0.0021260057 -0.00038682218
0.0021559708 -0.00024232735 -0.0010256728 -0.002017837 -0.0002488731 -0.00047568794 -0.0002680398 0.00018623362
-0.00027063952 0.00086957327 -0.00012328473 -0.000405302 0.00060992845 -0.00031338815 8.63733e-05 0.00059809803
-0.00046354267 0.0011003793 0.00037045014 -0.001195555 -0.0012739971 0.000822592 -0.001831465 -0.00034607283
-0.00047532225 -0.0008540033 0.0021253452 9.2000955e-05 0.0016690708 0.0012619157 0.0009190753 0.00035168606
0.0005149358 -0.0007665429 -0.0003008263 -0.0013958397 -0.0025681949 0.00048495017 0.00024832855 -0.00014849596
-0.001275212 0.0010760607 -0.0006712563 -0.0001749743 0.00024190001 8.030232e-06 -0.0010234996 -0.0029265953
-0.00033467094 0.0004610569 -5.251134e-05 -6.209635e-05 0.00022872724 0.00055091147 0.0009029753 0.001880597
00000000: 0153 863a fec3 56ba a654 8e3a 09e2 af3a
00000010: 05cb 5bb9 2add 863a 7554 0b3b 65ce cab9
00000020: 304b 0d3b 4119 7eb9 de6f 86ba b03d 04bb
00000030: 2f7b 82b9 c165 f9b9 b187 8cb9 b547 4339
00000040: 9fe4 8db9 13f4 633a fe45 01b9 b77e d4b9
00000050: 9be3 1f3a 3f4e a4b9 5023 b538 aec9 1c3a
00000060: a507 f3b9 9a3a 903a fa38 c239 2bb4 9cba
00000070: 40fc a6ba 37a3 573a c50d f0ba 1c71 b5b9
00000080: ac34 f9b9 31df 5fba 6049 0b3b a3f0 c038
00000090: b9c4 da3a dd66 a53a 19ee 703a 8162 b839
000000a0: c2fc 063a d3f1 48ba 39b8 9db9 9cf4 b6ba
000000b0: 294f 28bb e940 fe39 1832 8239 95b5 1bb9
000000c0: 0425 a7ba 9b0a 8d3a 3ff7 2fba 4e79 37b9
000000d0: 8aa6 7d39 95b9 0637 f326 86ba 1fcc 3fbb
000000e0: c676 afb9 02ba f139 9f3f 5cb8 b939 82b8
000000f0: 80d6 6f39 0b6b 103a a6b5 6c3a 5d7e f63a

features.bn1.weight f4 [64]
1.0264205 1.0327653 1.0593777 0.98910326 0.94952786 1.0379454 0.9777846 0.9931048
0.9742484 0.9794101 1.0013322 0.9923302 0.93473774 1.0362928 1.0380129 1.0086858
1.0298007 0.98725563 1.019512 0.96678376 1.0190039 1.0127152 0.9202784 1.039044
0.9654191 0.94204575 1.1147519 0.9884054 0.96750516 0.95143855 1.0339628 1.0636759
1.0175258 0.97430927 1.0492584 1.0200669 1.0247073 0.9575489 0.96832645 0.9706858
0.9715407 1.0072206 1.0135114 1.0476303 1.0626602 1.0362593 0.9849045 0.9691341
0.9431547 0.9725282 0.9791949 1.0889122 1.0237342 0.98592603 1.0157075 1.0200084
0.98894054 0.9248132 1.0488188 0.922286 1.0704793 1.0062226 1.035437 1.0329709
00000000: bf61 833f a731 843f b099 873f df35 7d3f
00000010: 4214 733f 65db 843f 1750 7a3f 1e3c 7e3f
00000020: 5868 793f 9fba 7a3f a72b 803f 5a09 7e3f
00000030: f94a 6f3f 3ea5 843f 9bdd 843f 9e1c 813f
00000040: 82d0 833f c9bc 7c3f 5f7f 823f 247f 773f
00000050: b86e 823f a7a0 813f 5d97 6b3f 65ff 843f
00000060: b525 773f e929 713f 31b0 8e3f 2308 7d3f
00000070: 6bae 773f 7a91 733f e558 843f 8826 883f
00000080: 493e 823f 556c 793f 194e 863f 8d91 823f
00000090: 9c29 833f ed21 753f 3ee4 773f dd7e 783f
000000a0: e4b6 783f 9bec 803f beba 813f c018 863f
000000b0: 4005 883f 25a4 843f b422 7c3f 2c19 783f
000000c0: 9672 713f 9cf7 783f 84ac 7a3f 7a61 8b3f
000000d0: b909 833f a665 7c3f b402 823f a38f 823f
000000e0: 352b 7d3f 8fc0 6c3f b23f 863f ef1a 6c3f
000000f0: 7705 893f e7cb 803f 3389 843f 6438 843f

features.bn1.bias f4 [64]
-0.12545618 -0.033557694 -0.025060343 -0.14355636 0.052841492 -0.030348243 -0.108037174 -0.0067944666
-0.07348705 -0.057056393 -0.13026382 0.0019894606 -0.124381974 -0.06614535 -0.015410494 -0.015607585
-0.0714862 -0.057544768 -0.06773883 0.06311243 -0.029232645 -0.04305611 -0.0634601 -0.06220674
-0.08713774 -0.08957884 -0.06340716 -0.03658973 -0.046107 -0.101874515 -0.12652372 -0.011367443
-0.04767293 -0.086534165 -0.06893172 -0.0008643214 0.016088568 -0.123543344 -0.087973565 -0.03396165
-0.023034774 -0.0808952 0.008645341 -0.09706118 -0.12324103 -0.05763362 -0.060774755 -0.1159761
-0.028632136 -0.056928538 -0.009837495 -0.06346794 0.027789924 0.025104297 -0.05364758 -0.011141804
-0.055263374 -0.026802804 -0.0033959786 -0.012988324 -0.035482623 -0.17420386 -0.013369712 0.0051930486
00000000: 9677 00be cb73 09bd 594b cdbc 7000 13be
00000010: 5270 583d e19c f8bc 9842 ddbd 1ea4 debb
00000020: 6180 96bd f7b3 69bd e163 05be 9c61 023b
00000030: fabb febd 3777 87bd 4c7c 7cbc f5b6 7fbc
00000040: 5b67 92bd 10b4 6bbd a8ba 8abd 1741 813d
00000050: 4d79 efbc 9b5b 30bd 5ef7 81bd 7fcc 7ebd
00000060: 4575 b2bd 1c75 b7bd 9ddb 81bd 1ddf 15bd
00000070: b2da 3cbd 96a3 d0bd 6f8f 01be 833e 3abc
00000080: b144 43bd d338 b1bd 132c 8dbd a193 62ba
00000090: 2ccc 833c 4b04 fdbd 7c2b b4bd 5f1b 0bbd
000000a0: 6cb3 bcbc 62ac a5bd 30a5 0d3c 03c8 c6bd
000000b0: cb65 fcbd 3b11 6cbd f3ee 78bd e184 edbd
000000c0: f18d eabc e62d 69bd 722d 21bc 7bfb 81bd
000000d0: b2a7 e33c 87a7 cd3c 91bd 5bbd 1d8c 36bc
000000e0: d95b 62bd 8e91 dbbc 118f 5ebb fbcc 54bc
000000f0: 3a56 11bd 7f62 32be a30c 5bbc 732a aa3b

features.bn1.running_mean f4 [64]
-0.08487682 0.09613887 0.17421865 0.24669245 0.08151033 -0.06137204 0.22382757 0.0018923867
-0.07323707 -0.13722773 0.12235887 0.3636697 -0.07984229 -0.18403926 -0.23140779 0.02138829
-0.3368889 0.29087102 0.014634195 0.023416292 0.02962088 -0.17016916 0.26525524 -0.0155153815
-0.18165044 0.05378655 0.17799592 -0.15903981 0.02688845 -0.13269986 0.24359438 -0.3356417
-0.34147334 0.22613418 0.26145086 -0.15622221 0.39223424 0.22527406 0.33207878 0.0024024656
-0.08908515 0.11281804 -0.079598114 -0.16866814 0.012279901 -0.24042879 0.3546167 -0.053831093
-0.021085305 -0.13495226 0.3777525 -0.21046859 -0.17178337 0.17043482 0.18926902 0.12531717
0.007400569 0.0044896775 0.16492108 -0.21665223 -0.16086064 0.14841706 0.08697607 0.23595673
00000000: e6d3 adbd 75e4 c43d 6066 323e f29c 7c3e
00000010: e3ee a63d 4061 7bbd 0e33 653e f609 f83a
00000020: 51fd 95bd 6d85 0cbe 4a97 fa3d ea32 ba3e
00000030: 5b84 a3bd ca74 3cbe 2af6 6cbe 7f36 af3c
00000040: b47c acbe 0ced 943e 43c4 6f3c 86d3 bf3c
00000050: 7da7 f23c d340 2ebe 89cf 873e 3a34 7ebc
00000060: 9302 3abe 494f 5c3d 9044 363e 55db 22be
00000070: 2b45 dc3c 79e2 07be ce70 793e 3bd9 abbe
00000080: 98d5 aebe b88f 673e e3dc 853e b7f8 1fbe
00000090: edd2 c83e 3eae 663e 3b06 aa3e af72 1d3b
000000a0: 4672 b6bd 250d e73d 5604 a3bd 57b7 2cbe
000000b0: a331 493c f732 76be 5290 b53e fe7d 5cbd
000000c0: 17bb acbc ed30 0abe c768 c13e 1485 57be
000000d0: fbe7 2fbe 7786 2e3e bdcf 413e 2553 003e
000000e0: 7980 f23b 251e 933b 12e1 283e 15da 5dbe
000000f0: a7b8 24be a4fa 173e 8320 b23d a49e 713e

features.bn1.running_var f4 [64]
0.9812105 0.6408944 1.3273023 1.8631998 0.67346627 0.7588285 0.7111524 1.8961619
0.32555902 0.8989811 2.2178752 0.48387957 2.9449663 0.63842833 0.7647564 1.1573104
1.4251256 0.8648524 0.5362268 0.37735093 0.5793378 0.8350783 0.3947 1.4445131
1.4720486 0.4253299 1.2694905 0.8234835 0.6419132 0.55898577 1.1432579 0.9559534
1.0528136 0.65735996 1.5324602 0.91552144 0.3157725 1.0408101 1.4548677 0.33299214
1.5757817 1.1399975 1.1589909 1.4230223 1.2473836 1.0559084 1.3348396 0.7214202
1.5160573 0.8278249 0.72965604 1.2567462 1.105469 0.66281265 0.6339459 0.65577435
0.49201053 0.34997734 0.7131857 0.6927876 0.799871 0.76958185 0.7356305 0.4618353
00000000: 9c30 7b3f a811 243f 0be5 a93f 557d ee3f
00000010: 4968 2c3f 9642 423f 150e 363f 6fb5 f23f
00000020: acaf a63e a023 663f abf1 0d40 10bf f73e
00000030: 547a 3c40 0a70 233f 13c7 433f bf22 943f
00000040: 846a b63f f866 5d3f 2946 093f 2434 c13e
00000050: 7b4f 143f b1c7 553f 1e16 ca3e cee5 b83f
00000060: 176c bc3f d7c4 d93e aa7e a23f d1cf 523f
00000070: 6c54 243f b119 0f3f 4656 923f 5db9 743f
00000080: 99c2 863f be48 283f a827 c43f 9d5f 6a3f
00000090: efac a13e 4439 853f 1b39 ba3f f27d aa3e
000000a0: 37b3 c93f 70eb 913f d059 943f 9825 b63f
000000b0: 44aa 9f3f 0228 873f 06dc aa3f ffae 383f
000000c0: 2a0e c23f 55ec 533f bdca 3a3f 0fdd a03f
000000d0: 0280 8d3f 17ae 293f 474a 223f d4e0 273f
000000e0: cee8 fb3e 3b30 b33e 5793 363f 875a 313f
000000f0: 59c4 4c3f 5103 453f 4852 3c3f ad75 ec3e

features.conv2.weight f4 [64, 64, 3, 3]
-0.051423334 0.015191742 -0.020651637 -0.06137756 -0.017744793 -0.030541314 0.011395358 -0.05639332
-0.08573793 -0.08529037 0.016058324 -0.0030026296 -0.02766574 0.06775062 -0.07664155 -0.022215296
0.022392888 -0.038418762 -0.013841671 -0.037832707 -0.0077613825 0.07038671 0.020910336 -0.006303951
0.03892282 -0.07130149 0.011534317 0.011741083 0.09029106 -0.030994844 0.017569821 -0.019964458
0.06719748 0.042236432 0.0057328856 -0.020765595 -0.029752817 0.03861639 -0.08915079 -0.08056281
-0.020487163 0.00019174775 0.05480409 -0.074419506 0.04782122 -0.007765252 0.006093937 -0.014850919
0.073332235 0.011889644 0.00304615 0.036370393 -0.011095759 -0.08189822 0.024292763 -0.027368078
0.021717705 0.038444664 -0.031077981 0.07033855 0.033910297 0.047294587 0.033963595 0.037514567
-0.03072355 -0.022914033 -0.070250325 0.1389591 0.05721421 0.06942982 -0.024131048 -0.060051832
-0.009767047 -0.062855855 0.03764924 0.06340794 -0.037641168 0.07825655 0.023705259 0.09234303
-0.033163827 0.095836684 0.03354223 0.031362258 0.041257776 0.029916411 -0.0512267 0.052474543
0.05061059 -0.11018656 0.064162426 -0.10412839 0.044779126 0.13751882 0.12442378 -0.047519177
0.034736097 -0.029660491 0.096630216 -0.054206327 -0.022396864 -0.034343384 -0.001460562 -0.12820478
0.013073353 0.01614538 -0.018071368 0.01694181 0.0301882 -0.06893414 0.0066833817 0.020518797
0.07363075 -0.014716479 0.09982048 -0.035971727 0.0329572 -0.0349653 0.02525784 -0.041511957
-0.044956207 -0.09115771 -0.048779946 -0.023561178 0.0011878065 -0.02634814 -0.13170688 -0.022974933
-0.10068335 -0.06964089 0.01961743 -0.0038921554 -0.010651096 -0.0119062355 0.024699887 -0.04949357
-0.07534503 0.081161976 -0.011896416 0.025844365 -0.023858627 -0.03259206 0.08931859 0.06497232
-0.011903437 -0.08487457 -0.08789321 -0.1303275 -0.08504623 0.0051096007 -0.031104714 -0.116203025
-0.040610947 -0.0014809179 0.018923467 0.14866656 0.014960405 -0.016176276 -0.05689054 0.15285707
0.042875603 0.08313609 0.027807545 -0.0568973 0.043252047 -0.08867523 -0.022946358 -0.014529047
-0.066983454 0.08473268 0.006121541 0.008826541 0.021198167 -0.05379824 0.056708504 0.0059047695
0.039009623 -0.0568366 -0.110749654 0.0889909 -0.0074582584 0.028740745 -0.0044984883 0.05016246
-0.01819535 -0.07842667 0.01867488 -0.1261993 -0.107027926 0.037168626 0.03668768 -0.0301713
-0.028078163 0.009133771 0.0152221825 -0.16002913 -0.08295009 0.0948162 0.04362489 -0.06952358
-0.0042133373 0.026459824 0.047310375 0.04512335 -0.043933593 0.038045596 0.032579266 0.03615534
0.0025962938 0.039283644 -0.013025529 -0.06091179 0.03415694 -0.008297858 -0.11562053 -0.047496416
-0.11257318 -0.035968903 0.030751074 0.019629423 -0.008041165 0.003518923 0.084771834 -0.034662712
-0.06378486 -0.04005577 -0.006828109 0.017090315 0.010954414 -0.03972242 0.017834546 -0.03166044
0.08592081 0.062290598 0.005097633 -0.051719252 -0.1437845 0.057191253 -0.09881509 -0.04163779
0.0903769 0.021541117 -0.14028029 0.009162725 0.07538543 -0.022229463 0.027415618 -0.052928813
-0.108585045 -0.02657341 -0.0693405 -0.08946841 -0.038189504 0.12882456 0.05542155 0.056252014
00000000: 46a1 52bd c9e6 783c 9f2d a9bc 0967 7bbd
00000010: 875d 91bc c731 fabc 98b3 3a3c affc 66bd
00000020: 5e97 afbd b8ac aebd bf8c 833c c4c7 44bb
00000030: 43a3 e2bc d6c0 8a3d 3ff6 9cbd dafc b5bc
00000040: 4a71 b73c fe5c 1dbd 2dc8 62bc 78f6 1abd
00000050: 3253 febb e826 903d 274c ab3c 6091 cebb
00000060: 896d 1f3d 8406 92bd 6ffa 3c3c ac5d 403c
00000070: 85ea b83d e6e8 fdbc 96ee 8f3c 818c a3bc
00000080: d59e 893d 1c00 2d3d eeda bb3b 9c1c aabc
00000090: 2ebc f3bc 382c 1e3d b094 b6bd 1dfe a4bd
000000a0: b2d4 a7bc e50f 4939 417a 603d 4169 98bd
000000b0: 2fe0 433d a873 febb a6af c73b 4551 73bc
000000c0: 362f 963d c8cc 423c eba1 473b 1ff9 143d
000000d0: fdca 35bc 41ba a7bd 9e01 c73c 0533 e0bc
000000e0: 54e9 b13c 2778 1d3d 4097 febc a80d 903d
000000f0: 86e5 0a3d f8b7 413d 691d 0b3d e0a8 193d
00000100: f4af fbbc 36b6 bbbc 67df 8fbd 4b4b 0e3e
00000110: 7359 6a3d 3931 8e3d 7aae c5bc e9f8 75bd
00000120: f705 20bc 92ba 80bd 1736 1a3d 06dc 813d
00000130: a02d 1abd f844 a03d 8831 c23c 581e bd3d
00000140: cbd6 07bd 0646 c43d 9463 093d b675 003d
00000150: eafd 283d 4313 f53c 17d3 51bd 8cef 563d
00000160: 0d4d 4f3d 7ea9 e1bd 9767 833d 4441 d5bd
00000170: 516a 373d bcd1 0c3e e5d1 fe3d 78a3 42bd
00000180: 7047 0e3d 8ffa f2bc 10e6 c53d 7407 5ebd
00000190: a179 b7bc a6ab 0cbd 5470 bfba 1d48 03be
000001a0: 9e31 563c 5143 843c 680a 94bc 8dc9 8a3c
000001b0: 3e4d f73c 582d 8dbd 4500 db3b 0917 a83c
000001c0: b8cb 963d 631d 71bc ae6e cc3d 1757 13bd
000001d0: 21fe 063d c637 0fbd 88e9 ce3c 7108 2abd
000001e0: 0024 38bd e5b0 babd 7bcd 47bd 5f03 c1bc
000001f0: 2cb0 9b3a 0ed8 d7bc 2bde 06be ed35 bcbc
00000200: 1233 cebd e29f 8ebd bcb4 a03c 8813 7fbb
00000210: ef81 2ebc 5f12 43bc 6b57 ca3c c5b9 4abd
00000220: 7f4e 9abd 4038 a63d 2fe9 42bc 90b7 d33c
00000230: 2b73 c3bc 407f 05bd aaec b63d 3510 853d
00000240: a206 43bc b8d2 adbd 5b01 b4bd 9274 05be
00000250: b82c aebd 706e a73b 50cf febc dafb edbd
00000260: aa57 26bd 5c1b c2ba 6305 9b3c 0c3c 183e
00000270: 7d1c 753c 1c84 84bc 0e06 69bd 9086 1c3e
00000280: 549e 2f3d 4143 aa3d a6cc e33c 250d 69bd
00000290: 0f29 313d 5c9b b5bd 00fa bbbc 3d0b 6ebc
000002a0: 9f2e 89bd 5488 ad3d 3597 c83b 329d 103c
000002b0: c7a7 ad3c 8b5b 5cbd 2d47 683d cc7c c13b
000002c0: 8ec8 1f3d 7fcd 68bd b7d0 e2bd dc40 b63d
000002d0: 6864 f4bb b671 eb3c 0e68 93bb 2777 4d3d
000002e0: 6a0e 95bc 299e a0bd 10fc 983c 643a 01be
000002f0: 7531 dbbd 213e 183d d245 163d cd29 f7bc
00000300: 2d04 e6bc d0a5 153c 7666 793c adde 23be
00000310: bde1 a9bd ff2e c23d 03b0 323d 6162 8ebd
00000320: 0910 8abb 46c2 d83c 86c8 413d 43d3 383d
00000330: b6f3 33bd b3d5 1b3d d671 053d 9f17 143d
00000340: 9526 2a3b e3e7 203d 0769 55bc a47e 79bd
00000350: 26e8 0b3d bdf3 07bc 75ca ecbd 9a8b 42bd
00000360: c48c e6bd 2154 13bd ade9 fb3c e2cd a03c
00000370: 17bf 03bc bb9d 663b db9c ad3d 7dfa 0dbd
00000380: a3a1 82bd 8511 24bd 54be dfbb fd00 8c3c
00000390: 247a 333c fab3 22bd c119 923c 61ae 01bd
000003a0: 40f7 af3d 6d24 7f3d 0c0a a73b 91d7 53bd
000003b0: 3e3c 13be 6041 6a3d 915f cabd 638c 2abd
000003c0: 8617 b93d ff76 b03c a3a5 0fbe 411f 163c
000003d0: ad63 9a3d 901a b6bc b896 e03c e2cb 58bd
000003e0: d661 debd 7bb0 d9bc 6402 8ebd 373b b7bd
000003f0: 996c 1cbd 96ea 033e b501 633d 8368 663d

features.conv2.bias f4 [64]
-0.00039140714 -0.00044588678 0.00030921053 0.00012186741 -0.000228946 -3.828372e-05 -1.9694333e-05 -4.3501856e-05
-0.00015454485 -0.00013162101 8.946753e-05 2.6821512e-05 -9.658071e-05 0.00020623469 0.00072035735 -0.00010073907
-4.99021e-05 0.00012697959 -1.0451255e-05 -0.00023583301 3.9555576e-05 0.00015075794 4.5767654e-05 -4.0308747e-05
-7.465767e-08 -0.00017233055 5.4389035e-05 2.0471654e-05 0.00038953306 -8.079932e-05 -4.596306e-05 8.631263e-05
0.00010151371 -0.000170538 -0.00013189025 -9.4983414e-05 0.00021413925 -7.652443e-05 -0.000106251886 0.00015780334
-0.0001841932 2.0812395e-05 0.0005170414 0.00042385716 0.00019283828 -2.6655838e-05 8.843689e-06 -0.0002494937
8.441342e-05 0.00021502424 0.0002157668 0.000111148416 -0.00036726843 -1.6444967e-05 -0.00029246302 -0.00026075446
-0.00049119035 0.00017830452 0.0002026258 4.0024745e-05 -0.00012394163 -0.0003014913 -0.00036171387 0.00025258196
00000000: c735 cdb9 e9c5 e9b9 891d a239 1193 ff38
00000010: 3911 70b9 d592 20b8 4235 a5b7 c375 36b8
00000020: 510d 22b9 bf03 0ab9 84a0 bb38 c2fe e037
00000030: 608b cab8 b440 5839 5dd6 3c3a e043 d3b8
00000040: f94d 51b8 d325 0539 cc57 2fb7 f149 77b9
00000050: 7ae8 2538 c714 1e39 a5f6 3f38 3011 29b8
00000060: 7d53 a0b3 a1b3 34b9 c81f 6438 8bba ab37
00000070: 3e3a cc39 ce72 a9b8 76c8 40b8 be02 b538
00000080: c2e3 d438 72d2 32b9 054c 0ab9 d531 c7b8
00000090: 918a 6039 be7b a0b8 8cd3 deb8 0378 2539
000000a0: fc23 41b9 4796 ae37 108a 073a 2539 de39
000000b0: a234 4a39 fa9a dfb7 5b5f 1437 7ace 82b9
000000c0: 1c07 b138 2178 6139 763f 6239 5a18 e938
000000d0: ef8d c0b9 4cf3 89b7 b955 99b9 dfb5 88b9
000000e0: 3ac3 00ba 41f7 3a39 f377 5439 3ee0 2738
000000f0: 54f6 01b9 7a11 9eb9 6aa4 bdb9 fa6c 8439

features.bn2.weight f4 [64]
1.0469799 1.0057411 1.0545955 1.0331535 1.0608897 0.9541907 0.99935615 1.0987623
1.1424365 0.9145081 1.0825369 0.9234261 1.0312936 0.97219795 1.031069 1.0964173
0.98379576 0.9383924 0.9502815 0.9817056 1.0338469 0.9445735 0.95229584 1.0596524
0.9393156 0.99218297 0.9711102 1.0725957 0.9515621 0.9270491 1.0034895 0.9613199
0.9631606 0.9363555 1.0331433 1.0110619 1.0851164 1.0085263 1.0591084 1.0585386
1.0147648 1.0310243 1.0138564 0.95617956 0.98684806 1.0755267 0.9669203 0.9652155
1.0705447 1.0707936 0.96912134 0.9597363 0.95470846 0.9424187 0.95259273 1.0980392
0.9723882 0.97841024 0.9373669 0.9706621 0.9686065 0.98684597 0.9657863 0.9666698
00000000: 7003 863f 20bc 803f fcfc 863f 603e 843f
00000010: 3ccb 873f d745 743f ced5 7f3f 3ea4 8c3f
00000020: 5c3b 923f 341d 6a3f 9290 8a3f a765 6c3f
00000030: 6e01 843f f7e1 783f 12fa 833f 6757 8c3f
00000040: 0ada 7b3f 7c3a 703f a645 733f 0f51 7b3f
00000050: 1855 843f 92cf 713f a9c9 733f b1a2 873f
00000060: fd76 703f b4ff 7d3f ae9a 783f d14a 893f
00000070: 9399 733f 1753 6d3f 5872 803f 1019 763f
00000080: b191 763f feb4 6f3f 0a3e 843f 7a6a 813f
00000090: 18e5 8a3f 6417 813f dd90 873f 317e 873f
000000a0: d0e3 813f 9bf8 833f 0cc6 813f 2fc8 743f
000000b0: 13a2 7c3f dcaa 893f 1788 773f 5d18 773f
000000c0: 9c07 893f c40f 893f 5618 783f 47b1 753f
000000d0: c667 743f 5a42 713f 1edd 733f 8c8c 8c3f
000000e0: 6fee 783f 1879 7a3f 47f7 6f3f 507d 783f
000000f0: 98f6 773f f0a1 7c3f c53d 773f ac77 773f

features.bn2.bias f4 [64]
-0.3161964 -0.005809707 -0.26400194 -0.20510013 -0.06780547 -0.13027634 -0.025543509 0.09376408
0.109055385 -0.11202489 -0.084517606 -0.1084033 -0.042321112 -0.116610475 -0.17128335 0.062059157
-0.22419089 -0.18686083 -0.097252816 -0.11789484 -0.061258633 -0.07096043 -0.047830526 0.025973734
-0.03000527 -0.0119223185 -0.14975528 -0.27082095 0.0033100536 -0.1305602 -0.013673997 0.04792737
-0.07401372 -0.11297709 -0.07084028 -0.2782897 -0.11408155 -0.12221106 -0.016160127 -0.013345981
0.08196346 0.015523342 -0.16000049 -0.003352722 -0.031436436 0.037153106 -0.18118498 -0.10882405
-0.043565307 0.021488786 -0.06836786 -0.17312364 -0.06968361 -0.1757655 0.021858513 0.017638465
0.014973116 -0.12302314 0.004280021 -0.010146059 -0.030364543 -0.00615499 -0.17759365 -0.17343608
00000000: 7fe4 a1be 5b5f bebb 432b 87be c505 52be
00000010: 98dd 8abd 2967 05be 9f40 d1bc 6207 c03d
00000020: 6e58 df3d 4e6d e5bd 9117 adbd 8d02 debd
00000030: e758 2dbd 79d1 eebd e764 2fbe be31 7e3d
00000040: 4c92 65be 7258 3fbe 7c2c c7bd da72 f1bd
00000050: 55ea 7abd b453 91bd f1e9 43bd dec6 d43c
00000060: 9dcd f5bc d455 43bc 7359 19be 0ba9 8abe
00000070: 7ced 583b 93b1 05be e608 60bc 7d4f 443d
00000080: 8194 97bd 8860 e7bd b514 91bd fd7b 8ebe
00000090: 96a3 e9bd cb49 fabd 3e62 84bc 1aa9 5abc
000000a0: 75dc a73d 9e55 7e3c 2bd7 23be 57b9 5bbb
000000b0: 7ec3 00bd db2d 183d 8e88 39be 25df debd
000000c0: 8971 32bd 4009 b03c 7304 8cbd 5347 31be
000000d0: 48b6 8ebd dffb 33be a010 b33c 8b7e 903c
000000e0: cd51 753c 8ef3 fbbd 6b3f 8c3b a83b 26bc
000000f0: 10bf f8bc ccaf c9bb 1cdb 35be 3a99 31be

features.bn2.running_mean f4 [64]
1.3088996 1.5565547 -0.5958626 0.3252127 -0.7734219 3.5338864 -4.6760325 -4.9872274
-4.4682627 4.743688 -0.31415656 1.1538236 0.3321452 4.0083323 2.3439417 -1.860586
0.28841302 4.018185 4.053675 2.5603263 -2.2387912 2.8998108 0.72194856 -2.0924659
0.33899608 -6.000411 3.3929684 1.2841474 3.0006409 3.4013603 1.8159655 1.6115897
4.2243195 4.724461 0.13969643 2.9714677 -1.2801199 -1.2600806 -1.0163172 -1.180263
2.5448797 -1.8809139 1.1040449 2.478059 1.3941857 -5.273702 2.3962514 3.836667
-0.88909763 0.010975615 2.6603782 4.3491254 -1.0609885 2.085071 1.4693046 -0.42066076
1.1256225 3.3453677 1.3366282 0.82993966 2.7874565 1.6357937 3.2799816 2.6546535
00000000: 068a a73f 2f3d c73f 748a 18bf 4782 a63e
00000010: fafe 45bf 322b 6240 0fa2 95c0 5e97 9fc0
00000020: 02fc 8ec0 4bcc 9740 21d9 a0be 7eb0 933f
00000030: f00e aa3e 4244 8040 2403 1640 af27 eebf
00000040: dfaa 933e f994 8040 b5b7 8140 63dc 2340
00000050: 5b48 0fc0 8096 3940 9fd1 383f f6ea 05c0
00000060: e590 ad3e 5e03 c0c0 6526 5940 f15e a43f
00000070: 800a 4040 e3af 5940 8f71 e83f 9248 ce3f
00000080: a02d 8740 c92e 9740 950c 0f3e 872c 3e40
00000090: f8da a3bf 524a a1bf af16 82bf dc12 97bf
000000a0: 4fdf 2240 c9c1 f0bf 5851 8d3f 8598 1e40
000000b0: ad74 b23f 2bc2 a8c0 2f5c 1940 f48b 7540
000000c0: e79b 63bf 11d3 333c a343 2a40 092c 8b40
000000d0: 79ce 87bf ce71 0540 2c12 bc3f d960 d7be
000000e0: 6614 903f 811a 5640 a216 ab3f ed76 543f
000000f0: b065 3240 b061 d13f 38eb 5140 d8e5 2940

features.bn2.running_var f4 [64]
5.238982 3.3795686 4.362398 4.5234723 9.176318 8.551124 18.64776 12.321067
12.152916 11.134092 5.977639 6.6004167 5.0862646 10.268246 6.7045417 7.1146617
4.9170365 7.822425 15.191735 9.4482 7.2611074 6.6569076 5.2843184 8.36235
6.698401 16.29152 10.79059 2.5750966 2.434784 9.173457 3.8654048 2.3843758
8.655999 12.533028 4.343982 7.9043565 7.5645885 7.8965797 4.4485736 7.545704
5.31065 7.489644 3.9596074 3.3065414 5.446006 15.089092 9.68467 3.7426755
15.092405 9.200388 4.4490895 10.494927 4.777381 9.46137 2.405428 6.2848687
3.643192 10.169455 4.514196 6.2151513 14.147552 4.039376 5.246977 6.706773
00000000: bea5 a740 da4a 5840 c498 8b40 49c0 9040
00000010: 33d2 1241 67d1 0841 9d2e 9541 1723 4541
00000020: 5872 4241 3e25 3241 d248 bf40 9d36 d340
00000030: aec2 a240 bc4a 2441 9b8b d640 4fab e340
00000040: 5d58 9d40 4e51 fa40 5911 7341 d42b 1741
00000050: fe5a e840 6305 d540 2319 a940 30cc 0541
00000060: 4d59 d640 0855 8241 42a6 2c41 62ce 2440
00000070: 80d3 1b40 7bc6 1241 cb62 7740 9d99 1840
00000080: f97e 0a41 4887 4841 e701 8b40 7df0 fc40
00000090: 1c11 f240 c8b0 fc40 b75a 8e40 6876 f140
000000a0: d8f0 a940 2aab ef40 356a 7d40 609e 5340
000000b0: ae45 ae40 ec6c 7141 69f4 1a41 ff87 6f40
000000c0: 7e7a 7141 ca34 1341 f15e 8e40 39eb 2741
000000d0: 4ee0 9840 c661 1741 88f2 1940 a51d c940
000000e0: 0f2a 6940 16b6 2241 4b74 9040 85e2 c640
000000f0: 5f5c 6241 9142 8140 3ce7 a740 e29d d640

features.conv3.weight f4 [64, 64, 3, 3]
0.03966024 0.00940779 0.019442065 0.08807851 0.018292248 -0.07438248 0.019371783 0.11818276
0.18751791 0.023786249 -0.08905495 0.0042092325 0.014017853 -0.015806546 0.038307663 0.045183145
-0.08280607 -0.082156576 0.03952494 0.07224572 0.07024439 -0.0071538333 0.023657806 0.12244993
-0.0053554038 0.077708036 0.1612738 0.01944334 0.078070775 -0.026614638 0.03397011 0.10351167
0.022242187 0.03347413 0.03173515 0.035548627 -0.034942064 -0.022266753 -0.034987997 0.021363478
0.106360994 0.07256864 -0.014386524 0.04730143 0.12422829 0.06372902 0.031520337 -0.042016655
-0.03509972 -0.055351272 -0.033827823 0.10848379 0.12081773 0.0773734 -0.049323037 0.039314967
-0.04233387 -0.00958255 -0.04220887 0.12893388 0.1217798 0.06120724 -0.0038873483 -0.032720637
0.12874626 -0.06871459 -0.0018040742 0.06017034 0.101887465 0.065021254 0.17083542 0.10440528
0.11266813 0.1026706 -0.07174004 -0.046827752 0.15582642 0.021760896 0.015353207 0.0859689
0.08897441 -0.0033696564 -0.046707753 -0.009887161 0.05899773 -0.040489804 0.09163693 -0.07872364
-0.08272312 -0.078259155 -0.051628236 -0.13389146 -0.06824544 -0.040168263 0.042122774 -0.05589644
-0.10101893 -0.02468805 0.09778642 0.0037266212 0.025185682 0.031496648 0.10121157 -0.0340995
0.0033095991 0.10163908 0.045501154 0.06752977 0.0045451648 0.080235235 0.019160943 -0.03243003
0.002804958 -0.0005076765 -0.09823206 0.0073696664 -0.108210854 0.021691063 0.12927307 -0.065365426
0.016114939 -0.00081726664 0.030869205 0.003294001 -0.003121955 -0.0066616936 0.011730023 0.014951072
0.12601377 0.06278526 0.02339742 -0.042114154 0.0059307003 0.049737185 0.15568967 -0.008935065
-0.018377539 0.00699623 0.025741871 0.019891603 0.0742998 -0.008345473 -0.015036288 0.08583601
0.015491155 0.07286184 0.035784446 -0.006691382 0.047979575 0.11202968 0.06728381 0.09078812
0.059202537 -0.053808324 0.00982814 0.113084696 0.00069289934 -0.054193724 0.031227164 -0.051482823
-0.019058028 0.09164862 0.11277694 -0.09237503 0.049364105 0.00950609 -0.0046391487 -0.045553632
0.0017665969 0.06036516 0.05949564 -0.04020851 0.051510654 0.063975066 0.022086324 0.043775775
-0.029560378 0.12270363 0.10337334 0.041879106 -0.01727562 0.053504605 -0.0698069 -0.021689752
0.008383274 0.046888627 0.005990639 -0.059617907 -0.060288556 -0.04942809 -0.04503133 0.0003043866
-0.049353607 -0.008252234 0.10908796 0.06658797 0.024241822 0.0011484383 0.0034792495 -0.013723304
0.032135792 0.0050464603 -0.006670141 -0.048094403 0.07765723 0.03391019 -0.022280475 0.016809246
0.06447872 0.06280533 0.093431406 0.17097828 0.08894452 0.01870751 0.05654114 0.08447176
-0.04551698 -0.10976987 0.10264646 -0.06762535 -0.05041591 0.018526113 -0.030458992 -0.08042229
-0.05676224 -0.022597317 0.026905252 0.04897262 -0.13110125 0.080013104 0.08152869 -0.0024256194
-0.05834492 0.091075316 -0.0076876567 -0.10136491 0.065545134 -0.053452004 -0.035448268 0.091558
0.07514026 0.03648938 -0.026930328 -0.015040337 0.05386438 -0.0041078595 0.032737132 -0.022504827
-0.011965742 -0.031880964 -0.019325083 0.1459099 0.071942486 -0.08448255 -0.08514131 0.006686915
00000000: c772 223d 2223 1a3c f744 9f3c 8162 b43d
00000010: a0d9 953c d755 98bd 93b1 9e3c ce09 f23d
00000020: b204 403e 61db c23c 7162 b6bd 9aed 893b
00000030: 23ab 653c bb7c 81bc 7fe8 1c3d f611 393d
00000040: 3b96 a9bd b541 a8bd e7e4 213d 90f5 933d
00000050: 4adc 8f3d b46a eabb 04ce c13c 07c7 fa3d
00000060: 627c afbb 6425 9f3d f624 253e a447 9f3c
00000070: 92e3 9f3d f106 dabc 3e24 0b3d edfd d33d
00000080: 3f35 b63c 2b1c 093d b7fc 013d 709b 113d
00000090: 691f 0fbd c468 b6bc 934f 0fbd 7602 af3c
000000a0: cbd3 d93d de9e 943d 75b5 6bbc 25bf 413d
000000b0: 676b fe3d 5c84 823d 781b 013d a819 2cbd
000000c0: b9c4 0fbd 04b8 62bd 0b8f 0abd c02c de3d
000000d0: 496f f73d f275 9e3d f406 4abd bb08 213d
000000e0: 4866 2dbd 2100 1dbc 35e3 2cbd 3e07 043e
000000f0: b067 f93d 71b4 7a3d e2c2 7ebb 1306 06bd
00000100: 0fd6 033e 3cba 8cbd af76 ecba 2d75 763d
00000110: 60aa d03d dd29 853d 7bef 2e3e 6fd2 d53d
00000120: 8cbe e63d f744 d23d 71ec 92bd 75ce 3fbd
00000130: f690 1f3e e843 b23c 048c 7b3c 7610 b03d
00000140: 3738 b63d 74d5 5cbb a150 3fbd c2fd 21bc
00000150: 9ba7 713d a3d8 25bd 25ac bb3d dc39 a1bd
00000160: bd6a a9bd 5646 a0bd 2178 53bd d81a 09be
00000170: 44c4 8bbd 7a87 24bd ee88 2c3d aaf3 64bd
00000180: 03e3 cebd 983e cabc 3f44 c83d 543a 743b
00000190: 3452 ce3c a102 013d 0348 cf3d ebab 0bbd
000001a0: dce5 583b 2628 d03d 6b5f 3a3d 0c4d 8a3d
000001b0: 9bef 943b 5f52 a43d 69f7 9c3c 5ad5 04bd
000001c0: 63d3 373b 9815 05ba e42d c9bd 3e7d f13b
000001d0: a79d ddbd 75b1 b13c 2960 043e 4fde 85bd
000001e0: 7a03 843c d63d 56ba 6ae1 fc3c 2be0 573b
000001f0: b799 4cbb 564a dabb 482f 403c 57f5 743c
00000200: c109 013e 8f95 803d f2ab bf3c e47f 2cbd
00000210: 5256 c23b 38b9 4b3d 1d6d 1f3e 6164 12bc
00000220: 7e8c 96bc a240 e53b 9ee0 d23c b7f3 a23c
00000230: 7e2a 983d 73bb 08bc c35a 76bc caca af3d
00000240: 9dce 7d3c 9738 953d b692 123d 6143 dbbb
00000250: 3b86 443d d16f e53d 18cc 893d 1fef b93d
00000260: 5c7e 723d 1e66 5cbd 3506 213c f398 e73d
00000270: b0a3 353a 3dfa 5dbd 1cd0 ff3c a7df 52bd
00000280: 951f 9cbc 46b2 bb3d 99f7 e63d 1f2f bdbd
00000290: 0432 4a3d 6ebf 1b3c 0004 98bb 7296 3abd
000002a0: 288d e73a 7541 773d b3b1 733d aeb1 24bd
000002b0: d6fc 523d 5c05 833d 61ee b43c 3a4e 333d
000002c0: 9b28 f2bc 0a4c fb3d 67b5 d33d 6d89 2b3d
000002d0: 9a85 8dbc a527 5b3d ecf6 8ebd b5ae b1bc
000002e0: 005a 093c 4a0e 403d 1f4d c43b e831 74bd
000002f0: 22f1 76bd 1c75 4abd c672 38bd 1496 9f39
00000300: 0227 4abd 6134 07bc 8269 df3d 465f 883d
00000310: c996 c63c 3287 963a 1f04 643b b5d7 60bc
00000320: d2a0 033d c75c a53b 3391 dabb a3fe 44bd
00000330: c10a 9f3d 69e5 0a3d 8b85 b6bc 8bb3 893c
00000340: 6b0d 843d 15a0 803d f758 bf3d ee14 2f3e
00000350: 8b28 b63d 7e40 993c af97 673d 88ff ac3d
00000360: 0370 3abd 07cf e0bd 4f38 d23d 297f 8abd
00000370: ea80 4ebd 13c4 973c 2385 f9bc 71b4 a4bd
00000380: 867f 68bd 021e b9bc 6768 dc3c 8497 483d
00000390: 683f 06be e9dd a33d 84f8 a63d 24f7 1ebb
000003a0: 15fb 6ebd b285 ba3d bde8 fbbb 6898 cfbd
000003b0: 873c 863d 7df0 5abd 3432 11bd c382 bb3d
000003c0: 23e3 993d e375 153d fe9c dcbc bf6b 76bc
000003d0: e5a0 5c3d 399b 86bb 5f17 063d 0b5c b8bc
000003e0: f60b 44bc 9d95 02bd a34f 9ebc 6869 153e
000003f0: 9556 933d 3005 adbd 915e aebd e91d db3b

features.conv3.bias f4 [64]
0.00050895975 0.00090682297 -0.0006994069 -0.00012234692 0.002213334 0.0012475575 0.0014534653 -0.00080901163
0.0009083235 -0.0013455763 0.001157429 -0.0010330862 0.001896405 -0.0008321887 0.00071187486 0.0006629857
-0.0012316512 -0.0006747749 0.001995395 -0.0004547538 -0.0006639987 0.00089603063 0.0016162158 0.001939265
-0.00023805139 0.0007486895 -0.0011134206 -0.0010825553 0.0020840212 0.0024290786 0.0010091981 0.0010037426
0.0009966856 0.0017746625 -0.00055472075 -0.000530449 0.0017283758 0.0006674093 -0.0006582746 0.0008320636
0.00073839945 0.0012078868 0.00011310033 -0.0014245112 -0.0005934316 -0.0007687414 -0.00024600275 -0.0009051957
-0.0004350257 0.0014580429 0.0026569685 -0.00027075174 -0.00093034067 0.0016086935 3.3340028e-05 -0.00066565385
-0.00024088053 0.00096491876 0.0010936459 -0.0013286002 0.00034826284 -0.0017690203 0.0003980991 -0.00054454146
00000000: b66b 053a dcb7 6d3a 6758 37ba 404a 00b9
00000010: 950d 113b 1585 a33a 3482 be3a da13 54ba
00000020: 8f1c 6e3a 0c5e b0ba dfb4 973a 9f68 87ba
00000030: cb90 f83a 3d27 5aba 1d9d 3a3a 38cc 2d3a
00000040: 5b6f a1ba 61e3 30ba 2cc5 023b 066c eeb9
00000050: 3310 2eba 99e3 6a3a 34d7 d33a f02e fe3a
00000060: 6f9d 79b9 b443 443a 32f0 91ba 87e4 8dba
00000070: 1394 083b 2d31 1f3b 1247 843a 0390 833a
00000080: 38a3 823a cb9b e83a ae6a 11ba d40d 0bba
00000090: ab8a e23a 14f5 2e3a 1090 2cba d81e 5a3a
000000a0: 2691 413a f551 9e3a 4730 ed38 aab6 baba
000000b0: 8590 1bba 5d85 49ba eef9 80b9 a84a 6dba
000000c0: 2914 e4b9 cd1b bf3a 8920 2e3b aff3 8db9
000000d0: 1be2 73ba ccda d23a 95d6 0b38 467f 2eba
000000e0: e094 7cb9 9af2 7c3a ab58 8f3a 6d24 aeba
000000f0: 0c97 b639 79de e7ba f5b7 d039 8fbf 0eba

features.bn3.weight f4 [64]
1.1060183 1.2079662 1.1958425 1.3019874 1.3529017 1.2259821 1.3729898 1.1299613
1.2750407 1.199834 1.282869 1.2446698 1.3064156 1.2554866 1.3604752 1.1463176
1.2093291 1.1672045 1.2710236 1.3875109 1.1768076 1.2681342 1.2605318 1.3482928
1.0910894 1.3916315 1.27795 1.2301948 1.3252662 1.4051086 1.2938061 1.2710301
1.2956226 1.3054866 1.1680905 1.2171259 1.2850955 1.1753707 1.2383066 1.2883819
1.2319869 1.2981081 1.2771275 1.1998968 1.195772 1.1972926 1.124116 1.2169331
1.182234 1.3176368 1.3223934 1.1750658 1.2682705 1.2624985 1.2289928 1.2255181
1.0810491 1.2857171 1.3540579 1.204118 1.2417921 1.1791236 1.2220334 1.2416632
00000000: 0292 8d3f a39e 9a3f 5e11 993f 86a7 a63f
00000010: e22b ad3f fbec 9c3f 21be af3f 92a2 903f
00000020: 8934 a33f 2994 993f 0d35 a43f 5751 9f3f
00000030: a038 a73f c9b3 a03f 0d24 ae3f 89ba 923f
00000040: 4ccb 9a3f f566 953f e7b0 a23f f599 b13f
00000050: a2a1 963f 3952 a23f 1b59 a13f dc94 ac3f
00000060: d1a8 8b3f fb20 b23f de93 a33f 0677 9d3f
00000070: 53a2 a93f 99da b33f 709b a53f 1db1 a23f
00000080: f6d6 a53f 2f1a a73f fd83 953f c8ca 9b3f
00000090: 027e a43f 8c72 963f d580 9e3f b3e9 a43f
000000a0: bfb1 9d3f 6828 a63f ea78 a33f 3896 993f
000000b0: 0f0f 993f e240 993f 08e3 8f3f 77c4 9b3f
000000c0: 7253 973f 53a8 a83f 3044 a93f 8e68 963f
000000d0: b056 a23f 8d99 a13f a34f 9d3f c7dd 9c3f
000000e0: d15f 8a3f 6192 a43f c551 ad3f 8a20 9a3f
000000f0: 0bf3 9e3f 86ed 963f 976b 9c3f d2ee 9e3f

features.bn3.bias f4 [64]
0.0011782191 0.025090935 0.24772 0.0872716 -0.009197811 -0.1122692 0.30478406 0.2959434
0.029975256 0.31106237 -0.07348749 0.2744157 0.09981855 0.27922428 -0.11469572 0.048409857
0.30294225 0.23259833 0.03447649 -0.0055492227 0.26202235 0.105580375 0.022722328 0.04534367
0.19316652 0.08259058 0.31193542 0.26602453 -0.10146747 0.16924603 -0.031702705 0.090962484
0.002058312 -0.07249709 0.25493377 0.22363599 0.017401233 -0.03768309 0.2668289 0.078514494
0.11050769 0.08452726 0.29490992 0.26211166 0.24096462 0.25468564 0.1010173 0.3231897
0.28698957 -0.0016337225 -0.107280955 0.25306308 0.24789831 0.046993524 0.10250892 0.26911345
0.24887106 -0.059270855 0.0689956 0.33364537 0.10596023 0.20623557 0.026274713 0.21448348
00000000: 796e 9a3a 818b cd3c 50aa 7d3e 74bb b23d
00000010: 6ab2 16bc 65ed e5bd a80c 9c3e e585 973e
00000020: ab8e f53c 9143 9f3e 9c80 96bd 3780 8c3e
00000030: ab6d cc3d 7cf6 8e3e 97e5 eabd 6a49 463d
00000040: 3f1b 9b3e 422e 6e3e 3837 0d3d 41d6 b5bb
00000050: cb27 863e 863a d83d 2d24 ba3c 49ba 393d
00000060: 72cd 453e 4025 a93d 00b6 9f3e 5e34 883e
00000070: 2dce cfbd d54e 2d3e b2da 01bd 8a4a ba3d
00000080: bfe4 063b 5b79 94bd ae86 823e d500 653e
00000090: 088d 8e3c 9559 1abd cc9d 883e 35cc a03d
000000a0: db51 e23d a11c ad3d 6ffe 963e 8033 863e
000000b0: 6ebf 763e 2866 823e 28e2 ce3d 1f79 a53e
000000c0: 4cf0 923e a122 d6ba 1eb6 dbbd 7c91 813e
000000d0: 0ed9 7d3e 487c 403d 32f0 d13d 3dc9 893e
000000e0: 0ed8 7e3e ffc5 72bd 914d 8d3d 91d3 aa3e
000000f0: ad01 d93d 6b2f 533e 113e d73c 8fa1 5b3e

features.bn3.running_mean f4 [64]
3.4386218 3.139227 -3.3066487 -0.45180672 4.4988594 1.870162 0.08766338 -1.6321626
2.0112836 -1.9813243 3.5757048 -1.544627 1.8698554 -0.38529757 2.27763 3.5795166
-1.6675981 -0.36103535 2.527826 0.9599808 -2.0275283 2.9829895 1.9451305 2.7012937
-2.4178624 -0.37502083 -1.9461541 -2.9632487 4.559037 1.0971949 1.5821815 0.7792985
1.72336 2.2917407 -3.8678803 0.50894296 2.9401548 1.8157804 -3.5192564 1.5037774
2.3972347 3.709634 0.9073128 -0.7695818 -3.4808967 -3.426776 1.2991823 -0.08385972
-3.077436 3.424746 2.2597644 -6.1791334 -3.6052287 4.8999333 1.6811624 -4.638634
-2.4434385 2.4353805 1.5742768 -2.1260338 3.2646916 -2.1951978 1.1958084 -1.7989649
00000000: 6112 5c40 18e9 4840 22a0 53c0 3653 e7be
00000010: a8f6 8f40 7861 ef3f dc88 b33d b4ea d0bf
00000020: dfb8 0040 099c fdbf 59d8 6440 56b6 c5bf
00000030: 6c57 ef3f b945 c5be b1c4 1140 cd16 6540
00000040: db73 d5bf a0d9 b8be e7c7 2140 4dc1 753f
00000050: 06c3 01c0 4de9 3e40 09fa f83f ffe1 2c40
00000060: 42be 1ac0 bb02 c0be 941b f9bf dea5 3dc0
00000070: a2e3 9140 e270 8c3f ec84 ca3f 1b80 473f
00000080: 0f97 dc3f e1ab 1240 5a8b 77c0 164a 023f
00000090: 7f2b 3c40 7e6b e83f 7f3b 61c0 c77b c03f
000000a0: 4b6c 1940 a56a 6d40 a745 683f 5003 45bf
000000b0: 03c7 5ec0 4c50 5bc0 9b4b a63f a5be abbd
000000c0: b6f4 44c0 0a2f 5b40 fb9f 1040 76bb c5c0
000000d0: 11bc 66c0 41cc 9c40 5430 d73f b16f 94c0
000000e0: 4c61 1cc0 46dd 1b40 e781 c93f f010 08c0
000000f0: b5f0 5040 1f7e 0cc0 4010 993f 7b44 e6bf

features.bn3.running_var f4 [64]
1.4633917 2.573455 3.8566575 1.3918816 2.6075988 2.1518943 2.762696 2.8463118
3.3886566 1.2073013 2.9297795 2.4498355 2.385126 3.0079055 2.1753764 2.5820775
3.0163867 1.9997813 1.4526441 2.6864889 2.519068 2.6818786 1.2300371 1.4508202
5.0927124 2.036923 2.374079 2.073766 3.0363061 2.660902 1.8551567 1.8944027
1.9001687 2.195396 2.6539867 2.662074 2.1745906 3.2374537 2.3801475 3.4686723
2.3678255 3.3547266 1.7871964 2.0098495 2.6363678 3.0093367 3.2087 2.7344024
3.7592263 2.4707956 3.3058355 7.089258 3.6742465 3.520375 2.0519722 3.2753782
3.2348392 2.718232 2.7255058 2.7097652 3.6164632 1.3685414 2.8112564 1.3771832
00000000: 6b50 bb3f 7db3 2440 7ad3 7640 2d29 b23f
00000010: e6e2 2640 a3b8 0940 03d0 3040 f929 3640
00000020: c0df 5840 d988 9a3f 8281 3b40 1bca 1c40
00000030: e8a5 1840 8681 4040 5e39 0b40 c240 2540
00000040: 7b0c 4140 d5f8 ff3f 3ef0 b93f 6fef 2b40
00000050: 6938 2140 e6a3 2b40 db71 9d3f 7ab4 b93f
00000060: 80f7 a240 f25c 0240 e9f0 1740 95b8 0440
00000070: d752 4240 384c 2a40 c675 ed3f ca7b f23f
00000080: ba38 f33f 5e81 0c40 ebda 2940 6c5f 2a40
00000090: 7e2c 0b40 7132 4f40 5654 1840 bafe 5d40
000000a0: 748a 1740 d7b3 5640 dac2 e43f 60a1 0040
000000b0: 40ba 2840 f998 4040 575b 4d40 7300 2f40
000000c0: 2a97 7040 8421 1e40 cf92 5340 34db e240
000000d0: db26 6b40 d34d 6140 8353 0340 cc9f 5140
000000e0: 9b07 4f40 83f7 2d40 b06e 2e40 cb6c 2d40
000000f0: 2274 6740 5d2c af3f a0eb 3340 8a47 b03f

fc.weight f4 [5, 64]
0.013652842 0.010928477 0.0110517945 0.013810767 0.01949512 0.0120125795 0.017441945 0.0064507606
0.0032193 0.013581944 0.006115164 0.0043923114 0.0058662943 0.015718553 0.016562268 0.022780722
0.009565047 0.015267656 0.018212035 0.0048001925 -0.0012566493 0.012434785 -0.0021263664 0.002949784
0.002810851 0.023765016 0.0012041515 0.014538303 0.011507632 0.008777501 0.016459031 0.015751103
0.012252311 0.016336264 -5.2896794e-05 0.01183279 0.029343119 0.021594448 0.0039042446 0.012680317
0.0011812333 -0.0015097341 0.010530757 0.00407974 -0.002580269 0.014544407 0.008277154 0.014633451
-0.0061708367 0.007896781 0.009336724 -0.0027709617 0.011346679 0.015119218 0.007594171 0.0035163937
0.008527935 0.02045647 0.011274724 0.014900078 0.0028972032 0.015519604 0.014659496 0.010755092
0.016575806 0.013778712 0.0047382982 0.017106732 0.022028517 0.008616576 0.016738474 -0.0012010942
0.017561337 0.01104823 0.022116508 0.01026875 0.019175963 0.022618627 0.00078628334 0.016777623
0.0089103095 0.026849095 0.013447278 0.014360788 0.0077527477 0.023364343 0.0034717028 0.010179639
0.0064938907 0.0065005934 0.011610588 -0.008454416 0.030331813 0.017319398 0.023934878 0.027200496
0.02518309 0.017214905 0.004991091 0.03206954 0.017902333 0.01924038 0.0016165855 0.014676855
0.010904793 0.006741651 0.022921458 0.012962541 0.007081809 0.0017222058 0.009399823 0.016547782
0.005792246 0.010492335 0.01881886 0.015941711 0.023434011 0.0097416 0.021025961 0.025470825
0.012240725 0.027293954 0.013054809 0.016279344 0.037176184 0.021960102 0.013913118 0.008704038
-0.00025470162 -0.01012725 -0.013918091 0.00016960688 -0.004933036 -0.006931348 -0.015827786 -0.0029794537
-0.022762801 -0.0119088 0.0045574317 -0.0041739997 -0.011444175 0.0002662685 -0.0004158628 -0.013641184
-0.0035779497 -0.006813787 -0.0039047536 -0.01896739 0.009665388 -0.013444038 -0.006313019 -0.014543256
-0.0032334677 -0.0018006177 -0.015951928 -0.017232804 0.002806715 -0.014520425 -0.013038669 -0.0041087945
-0.008885064 -0.0011764056 0.001236703 -0.008512009 0.005245344 -0.0131909065 -0.016722973 -0.012474561
0.0005395935 -0.014305765 -9.7886405e-05 -0.018608803 -0.013061645 0.0006942338 -0.010585778 -0.002778858
-0.010349223 -0.013679001 -0.0058883135 -0.012643516 -0.005731697 -0.0016570437 -0.009040862 -0.007011502
-0.0031045915 0.0027758954 -0.014434828 -0.004047812 -0.012845751 -0.0042963736 -0.007287901 -0.0042280257
-0.01753817 -0.010508868 -0.016820533 -0.002453957 -0.0050567077 -0.027704872 -0.0008192676 -0.01887325
-0.0017302589 -0.006160196 -0.008747906 -0.000118876385 -0.011104505 -0.015803728 -0.012064237 -0.00062605937
-0.025623707 0.0016426578 -0.017126298 -0.014555778 -0.0074406625 -0.008626637 -0.01960172 -0.018033378
0.008050677 -0.0144799305 -0.015081083 -0.012574993 -0.011226558 -0.008088413 -0.007810904 0.0069394507
-0.0042048576 0.00081101985 -0.014349467 -0.01523584 -0.010025947 -0.003899994 -0.013081582 -0.01258136
-0.011893812 -0.011034509 -0.021669637 -0.015138296 -0.004086261 -0.013223249 -0.0021295992 -0.015778292
-0.0025582032 -0.0038583225 0.002245517 -0.006562991 -0.00065686036 0.0022110154 -0.024096427 -0.0061636027
0.008204301 -0.023991914 0.0006384734 -0.010922859 0.0014009298 0.008172416 -0.0226407 0.0025732312
00000000: 2bb0 5f3c 5b0d 333c 9612 353c 8e46 623c
00000010: 3bb4 9f3c 69d0 443c 69e2 8e3c e760 d33b
00000020: e4fa 523b cd86 5e3c b761 c83b 61ed 8f3b
00000030: 0b3a c03b 32c4 803c 98ad 873c a39e ba3c
00000040: b7b6 1c3c 3125 7a3c 6831 953c ef4a 9d3b
00000050: 27b6 a4ba 45bb 4b3c 825a 0bbb 2a51 413b
00000060: 4136 383b daae c23c 9fd4 9d3a 1032 6e3c
00000070: 828a 3c3c 82cf 0f3c 17d5 863c 7508 813c
00000080: ebbd 483c a1d3 853c 80dd 5db8 52de 413c
00000090: fb60 f03c d7e6 b03c 5bde 7f3b 1bc1 4f3c
000000a0: 9dd3 9a3a 45e2 c5ba 3289 2c3c 57af 853b
000000b0: bb19 29bb aa4b 6e3c e69c 073c 24c1 6f3c
000000c0: bb34 cabb 8061 013c 0ff9 183c 0699 35bb
000000d0: 6ce7 393c 99b6 773c 86d8 f83b 4c73 663b
000000e0: c0b8 0b3c 5494 a73c 9fb9 383c 751f 743c
000000f0: 01df 3d3b f045 7e3c 622e 703c 2036 303c
00000100: fcc9 873c 1bc0 613c ba43 9b3b 6b23 8c3c
00000110: 2675 b43c 8a2c 0d3c 201f 893c 096e 9dba
00000120: cbdc 8f3c a303 353c ae2d b53c 423e 283c
00000130: e916 9d3c b34a b93c 951e 4e3a 3a71 893c
00000140: 8cfc 113c a2f2 db3c f951 5c3c 8349 6b3c
00000150: c30a fe3b 9466 bf3c 8285 633b 80c8 263c
00000160: b4ca d43b ee02 d53b 563a 3e3c 6484 0abc
00000170: 6c7a f83c 69e1 8d3c 1413 c43c 93d3 de3c
00000180: c44c ce3c 4606 8d3c 4e8c a33b 5a5b 033d
00000190: eaa7 923c 009e 9d3c 9ce3 d33a 3177 703c
000001a0: 04aa 323c 11e9 dc3b c8c5 bb3c d660 543c
000001b0: 850e e83b a3bb e13a b701 1a3c 378f 873c
000001c0: e2cc bd3b 0be8 2b3c 032a 9a3c 3198 823c
000001d0: aff8 bf3c 3b9b 1f3c a33e ac3c 31a8 d03c
000001e0: 528d 483c 9297 df3c d6e3 553c 425c 853c
000001f0: 0e46 183d ace5 b33c d9f3 633c 629b 0e3c
00000200: 7989 85b9 c4ec 25bc b408 64bc 80d8 3139
00000210: 4ea5 a1bb 5c20 e3bb 46a9 81bc f042 43bb
00000220: 0e79 babc 211d 43bc 8256 953b 0cc6 88bb
00000230: 5980 3bbc f499 8b39 2908 dab9 467f 5fbc
00000240: 097c 6abb 3046 dfbb e5e6 7fbb 8061 9bbc
00000250: 935b 1e3c 6244 5cbc 71dd cebb d646 6ebc
00000260: 96e8 53bb b402 ecba 9ead 82bc cf2b 8dbc
00000270: ddf0 373b 14e7 6dbc 24a0 55bc 11a3 86bb
00000280: a992 11bc 9f31 9aba de18 a23a f475 0bbc
00000290: 22e1 ab3b ac1e 58bc 9efe 88bc 1a62 4cbc
000002a0: 8273 0d3a ba62 6abc 5d48 cdb8 7d71 98bc
000002b0: 8300 56bc 3efd 353a f96f 2dbc 801d 36bb
000002c0: ca8f 29bc e31d 60bc c1f2 c0bb c026 4fbc
000002d0: f6d0 bbbb 2931 d9ba 2020 14bc bec0 e5bb
000002e0: 6776 4bbb cceb 353b 0f80 6cbc 82a3 84bb
000002f0: fc76 52bc 98c8 8cbb 58cf eebb 408b 8abb
00000300: 35ac 8fbc 632d 2cbc 37cb 89bc 91d2 20bb
00000310: bdb2 a5bb 54f5 e2bc 1ec4 56ba 139c 9abc
00000320: dbc9 e2ba 78db c9bb 6153 0fbc 464d f9b8
00000330: abef 35bc d276 81bc 14a9 45bc 221e 24ba
00000340: cfe8 d1bc 734e d73a 734c 8cbc 5c7b 6ebc
00000350: cdd0 f3bb bd56 0dbc c993 a0bc bcba 93bc
00000360: fde6 033c 3b3d 6dbc a616 77bc 5807 4ebc
00000370: 99ef 37bc 4385 04bc 9df2 ffbb 5564 e33b
00000380: e7c8 89bb 9f9a 543a 071a 6bbc bf9f 79bc
00000390: df43 24bc 0b97 7fbb 2254 56bc 0c22 4ebc
000003a0: 43de 42bc 16ca 34bc 8684 b1bc 9e06 78bc
000003b0: 0be6 85bb 54a6 58bc bf90 0bbb 7a41 81bc
000003c0: 87a7 27bb e9db 7cbb 8629 133b 5c0e d7bb
000003d0: 2731 2cba afe6 103b df65 c5bc 0cf8 c9bb
000003e0: 556b 063c b18a c4bc 395f 273a cbf5 32bc
000003f0: 679f b73a 99e5 053c fd78 b9bc a8a3 283b

fc.bias f4 [5]
1.0266523 1.0511469 0.97831416 0.9492245 0.9767399
00000000: 5869 833f fb8b 863f cc72 7a3f 6000 733f
00000010: a00b 7a3f
