maml-notebook/completet_model/model1/model-epoch_00032-train_loss_0.138-train_acc_0.858-test_loss_0.512-test_acc_0.851.pt (torch_old, 305688 bytes, 20 tensors)

conv1.weight f4 [64, 1, 3, 3]
000000 6c 90 1f 3d 95 b9 d2 3d 4e 7f 2d bd 15 ff e2 bc
       0.03895609 0.10289303 -0.042357735 -0.027709523
000010 e3 59 55 3d 50 f2 25 3d 3b ae 3f bd 77 f3 5d 3c
       0.052087676 0.04051429 -0.04679702 0.013546816
000020 0c b9 ab 3c 04 31 01 bc e9 ee f9 bd ee 3b a8 bc
       0.02096226 -0.007885221 -0.122037716 -0.02053639
000030 a3 fe 37 3d ed 71 97 3d 48 a1 2f bd 82 40 61 3b
       0.044920575 0.073947765 -0.04287842 0.0034370725
000040 e0 a4 64 3d 4d 39 9e 3d 03 83 c9 bc 40 77 f4 bc
       0.0558213 0.07725773 -0.024598604 -0.02984202
000050 3d 4a 9a bd e0 b2 aa bc 21 e9 51 3d c6 76 a4 bd
       -0.07533691 -0.020837247 0.05124772 -0.08030467
000060 a8 ff 67 bd dc 66 e7 3c ae 39 04 bd e5 60 18 be
       -0.056640297 0.02824729 -0.03228157 -0.14880712
000070 96 4f 22 3d 3f f3 b6 bd a6 aa 4a 3c 48 bb da 3d
       0.03962668 -0.08933114 0.012369787 0.10680252
000080 80 12 45 bd b4 ae 03 3d 77 da 8f 3d d2 d0 c5 bc
       -0.048113346 0.03214903 0.07024091 -0.024147425
000090 78 54 13 bb 07 5f 99 3d a5 a4 11 bd d8 7e f0 3c
       -0.0022480767 0.07488828 -0.035557408 0.029357359
0000a0 e6 b6 04 bc cb fb 3f bd 95 8d 66 3d 50 be e0 3c
       -0.008100247 -0.046870988 0.056287367 0.027434498
0000b0 da 88 7c bd 33 1b 86 3b 64 4f 9e bd 33 d5 ca bc
       -0.06165395 0.004092598 -0.07729986 -0.024759864
0000c0 7a 90 f5 bd f0 3f 69 bd 7a 81 aa bc c3 92 34 3d
       -0.11990447 -0.05694574 -0.020813692 0.044085275
0000d0 9e 80 5e bb 59 fb e6 3c 94 47 a1 bd 94 ff 1b bb
       -0.0033951174 0.028196024 -0.078749806 -0.002380346
0000e0 3a e0 c1 bd 18 72 cb 3c 45 84 46 bd f0 68 06 3e
       -0.09466596 0.024834678 -0.048465986 0.13125968
0000f0 35 e6 ea bc d3 0c 79 3c a3 16 f9 bd 60 6d 62 bd
       -0.028674224 0.015200811 -0.12162521 -0.05528009
000100 ad 76 08 bd c3 90 20 bd a7 ea c4 3b c2 0c bc bc
       -0.033316303 -0.039200556 0.006009418 -0.022955302
000110 a3 90 bf 3d b4 ac 8b 3d 1a cb ba 3d 72 12 a5 39
       0.09353759 0.0682005 0.0912077 0.00031484995
000120 e2 64 42 3c e3 b0 02 bd 4b e8 a3 3c 7c 09 8b 3d
       0.011864873 -0.031906974 0.020008227 0.067889184
000130 57 49 b7 bc 93 97 c3 3d 5a 46 2e bc 8d 6a 30 3d
       -0.022373838 0.09550395 -0.01063689 0.043070365
000140 6d 25 60 bd f5 21 5d 3d 81 01 88 bd fc 72 15 3d
       -0.054723192 0.053987462 -0.06640912 0.03648661
000150 b3 83 d7 3d d3 12 82 3c 24 25 18 3e 26 54 87 39
       0.105231665 0.015878117 0.14857918 0.00025811902
000160 bb 3f 40 bd 0a 65 24 3d 4b 0c db bc b3 3e 2b bd
       -0.046935778 0.04013542 -0.02673926 -0.04180784
000170 57 39 d1 ba 7f 41 1c 3d 0f a5 ad 3d af 9a f1 3c
       -0.0015962523 0.0381484 0.08478748 0.029492704
000180 bd 4e 8d 3c d4 65 23 bd 4b d3 b6 bc f5 e4 87 bc
       0.01724946 -0.039892033 -0.02231755 -0.016588667
000190 01 bf fa 3c b4 cd 01 3d 73 68 f5 3c 37 a8 45 bd
       0.030608656 0.031690314 0.029957032 -0.048256125
0001a0 6e 81 48 3d f8 bc 74 3c 75 9f 8a 3d 4f 8d 37 bd
       0.04895156 0.014937632 0.06768695 -0.044812497
0001b0 22 51 5d 3c f0 e5 87 bc b2 b7 ab 3b 24 66 ad bd
       0.013508113 -0.016589135 0.005240404 -0.084667474
0001c0 d1 2a 39 bc 76 9f 8d bc ba 7d b8 bc ea 7d 29 3d
       -0.011301712 -0.017287951 -0.022520889 0.041379847
0001d0 36 54 54 bd 75 14 a5 3c a6 54 17 3d ec b1 88 3b
       -0.051838122 0.020151356 0.03694596 0.0041716006
0001e0 b8 f3 4f 3c c3 2f c5 bb 0e dc 97 3d e4 93 f8 bb
       0.012692384 -0.0060176565 0.07415019 -0.0075859893
0001f0 a8 dc cd bd dc 8d 59 bd 32 89 60 3d a0 c6 b1 3c
       -0.100518525 -0.053113803 0.05481834 0.021701157
000200 71 c7 05 3c dc 78 d1 bc 2d bd a1 bd 90 11 44 3d
       0.008165226 -0.025570326 -0.078974105 0.04786831
000210 94 6c f4 bc 75 30 a4 bd 91 fa 9a bd 3c 89 cf 3d
       -0.02983693 -0.08017055 -0.07567323 0.10133597
000220 4d c9 17 be 45 bf dc bc 37 11 5e 3d 24 b2 55 3d
       -0.14822884 -0.026946673 0.054215636 0.05217184
000230 15 45 13 3d 4d 76 6e bc 9f fe 95 3a b0 02 81 3d
       0.035954554 -0.014554572 0.0011443681 0.06299341
000240 7d c8 21 3b a4 8f e6 bd f4 0f 2e bd 50 b6 67 3c
       0.002468615 -0.11257866 -0.042495683 0.014142588
000250 a8 cf 35 3c 23 40 a5 bc 91 84 42 3d 1b cd fa bd
       0.011096872 -0.020172184 0.047489706 -0.12246152
000260 3a a2 08 bb 0f 3d cc 3d 46 a8 9a 3d 88 c3 08 3d
       -0.0020848648 0.099725835 0.07551627 0.033389598
000270 19 74 8e bd 0e cf 5b 3b 1a 45 05 3d 55 46 90 bc
       -0.069557376 0.0033540162 0.032536604 -0.017611662
000280 2e d0 64 bb 53 27 48 bc ce 31 2a bd ca 50 ad bd
       -0.0034914124 -0.012216407 -0.041551404 -0.08462675
000290 23 fb 9f bd f4 3c 2a bd 57 2e 4e 3d ea cd 1a bb
       -0.078115724 -0.041562036 0.050337162 -0.002362127
0002a0 9d 8a 5a 3d 12 78 42 3d b5 ab 92 3d 42 d7 ee bd
       0.05335485 0.04747779 0.07161657 -0.11662151
0002b0 15 8d 0c 3c b2 a8 cf 3c e7 70 85 3c bd 79 c0 3c
       0.008578558 0.025348995 0.016289188 0.02349555
0002c0 d7 d7 14 bd 05 bb a6 ba 06 22 25 3c 3a fa fd bc
       -0.036338653 -0.0012720531 0.010078913 -0.031003106
0002d0 8a ce 8c 3d 77 46 65 3d 1a 57 d6 3c 53 24 37 3d
       0.06875332 0.055975404 0.02616458 0.044712376
0002e0 3d ba 20 be df 7d 55 bd ef bf 92 3d 8f 9a 90 bc
       -0.15696044 -0.052121993 0.07165515 -0.017651824
0002f0 07 48 1a bd 7a 5a e2 bc 86 74 9c 3b d0 a8 fb 3d
       -0.037666347 -0.027631033 0.004774633 0.12288058
000300 83 57 ee bd 9f 1a 2c 3d bd 50 ba 3d 3f 32 d3 bd
       -0.11637785 0.042017575 0.09097431 -0.10312318
000310 ab 79 a3 3d 26 69 ee 3c a8 58 a7 3c b4 5b 33 3c
       0.07982191 0.029102873 0.020428017 0.010947157
000320 18 8a 99 bd 85 06 12 3d 58 9e d0 3d 79 53 d2 3d
       -0.074970424 0.03565075 0.10186452 0.102698274
000330 d8 a8 46 bd 0e e7 8e bc e2 c6 14 bc 2f 93 0f 3c
       -0.048500866 -0.01744416 -0.0090806205 0.008763119
000340 0c ba 3c ba 56 3d 3c bd e4 f5 fc 3a 4a 39 5f 3d
       -0.0007199354 -0.045956932 0.0019299355 0.054497994
000350 fe 6d 21 bc ee 2f 59 3c 48 49 3d 3d f5 eb c8 bd
       -0.009852884 0.013256056 0.046212465 -0.0981063
000360 39 3a 16 bd 52 b6 b3 bd 41 8d a1 bd bb cb 67 bc
       -0.03667662 -0.08775009 -0.0788827 -0.014147694
000370 ec 80 65 3d 5d c7 4b ba 20 7c 08 3d c2 26 01 3d
       0.056031153 -0.0007773543 0.0333215 0.031531103
000380 9b 76 88 3d 9c 3c 79 bd d9 00 8d 3d e2 b1 91 3c
       0.06663247 -0.060848817 0.06884927 0.017785016
000390 1e 4c 2a 3d f9 70 36 bd f5 40 88 3d 86 2d 6a 3d
       0.041576497 -0.044541333 0.066530146 0.05717232
0003a0 d8 93 00 3d 85 2b 81 bd c6 5c e7 ba b1 63 45 bb
       0.031390995 -0.06307129 -0.001765155 -0.0030119235
0003b0 93 b3 3d 3c f7 1d 99 bd ef 6f 29 3d 08 8f d7 3c
       0.011578458 -0.074764185 0.041366514 0.02631332
0003c0 64 89 91 bd df fa 4f 3c b4 9f 3d 3d 6c 10 a8 bc
       -0.07106283 0.01269409 0.046294883 -0.020515643
0003d0 c7 2b 9b 3c 8c c5 b7 3d ec a8 c9 3d cf 6d a4 3c
       0.018941773 0.08973226 0.098466724 0.020071892
0003e0 f7 54 95 ba 45 b8 7e bd c9 2a 94 bc 44 c9 bc bd
       -0.0011393119 -0.062187452 -0.018086808 -0.09218076
0003f0 7b ff ca 3d 30 ce 0b 3d 42 d5 c0 bd 93 c9 25 bd
       0.0991201 0.034132183 -0.09415676 -0.04047544

conv1.bias f4 [64]
000000 f4 6a be 3b 72 a1 8f b8 10 7a b8 b9 f5 33 14 3b
       0.0058110896 -6.848843e-05 -0.00035186158 0.0022613977
000010 01 ff a3 bb 95 67 e2 3a cb c5 00 3b a6 7d 37 3c
       -0.005004764 0.0017273301 0.0019649144 0.0111993905
000020 4f 66 1f 3b a0 2b 72 3c 79 8b 4f bb e1 10 98 b8
       0.0024322455 0.014780909 -0.0031668826 -7.251069e-05
000030 f9 04 ac bb 38 97 81 bb 66 bb 54 bb 46 80 6a bb
       -0.005249616 -0.0039547943 -0.003246033 -0.0035782023
000040 23 89 ad 3b fe 8f e8 3a a7 b3 82 3b 49 e6 d0 3b
       0.005295889 0.0017743108 0.0039887014 0.0063751084
000050 4e b3 00 3c 4a ed a0 b9 c3 70 f7 bb 57 8d 92 3b
       0.00785525 -0.00030694372 -0.007551284 0.0044724154
000060 e4 09 07 3c 92 b2 a8 3b 8d bf d8 bb 1b cc a2 3a
       0.008242104 0.0051482404 -0.0066146315 0.0012420447
000070 fc 27 15 39 0f 4c c9 3a b6 6a ad 3b 83 b0 81 39
       0.00014224643 0.001535775 0.005292262 0.0002473631
000080 ad a9 eb 3b 7e 68 0b bc 1e 60 7b 3b fb 66 65 bb
       0.007191858 -0.0085088 0.003835685 -0.0035004008
000090 8c 04 06 bc 70 83 da bb 94 1a 20 bb 52 76 1d bc
       -0.008179795 -0.0066685006 -0.0024429904 -0.009610729
0000a0 8f 9b 13 3c 0c 71 f4 ba fd 6c dd 3b 29 8f e8 ba
       0.009009256 -0.0018649413 0.006757377 -0.001774286
0000b0 4c d5 9d 3b bd 82 0a bb 31 ce 52 bc 6d 52 cd ba
       0.0048166867 -0.0021135055 -0.012866543 -0.0015664824
0000c0 b5 8b b0 3b 7d 48 78 b9 e8 1b 12 bb 95 5a 7c 3b
       0.005387748 -0.00023678127 -0.0022294465 0.003850614
0000d0 38 eb 32 3b fd cd 0a bc 16 ab 43 bb ef f6 0b 3c
       0.0027300846 -0.008471963 -0.0029856614 0.00854276
0000e0 d9 d2 9e 3a 7d 52 1d bb a1 d0 ee 3b 13 9f 14 3c
       0.0012117281 -0.0024005466 0.007288054 0.009071129
0000f0 b4 65 78 bb 7b 46 3d 3c b7 7e 0b bc 5a f4 03 bc
       -0.0037902417 0.011552448 -0.008514098 -0.008053863

conv2.weight f4 [64, 64, 3, 3]
000000 19 7f 39 bd 3a 2f 17 bd fa c1 84 38 33 02 4e 3d
       -0.045287225 -0.036910273 6.3303814e-05 0.050295066
000010 7d ed 36 bd c8 7e ad bd 28 2c 94 3d ee 87 2a bd
       -0.04466008 -0.08471447 0.07234985 -0.04163354
000020 07 f9 67 3d e2 ca b3 3a 47 55 25 bd 99 10 a9 bd
       0.056633975 0.001371708 -0.04036453 -0.08255119
000030 45 c6 8a 3c 4f ee da bc fd d0 91 bc da cc 9a bd
       0.016940245 -0.026724963 -0.017799849 -0.075586036
000040 c4 3c 13 bd 00 ea a1 3d b4 ec 20 3c c6 aa 9f bd
       -0.035946622 0.0790596 0.009822059 -0.07796244
000050 07 b5 1d bd 1f 50 1e bb 59 48 1d bd 3e b8 7a bd
       -0.03850272 -0.0024156643 -0.038399074 -0.061210863
000060 2b 60 a2 bc 90 5f 6a bd 09 08 be 3c 77 49 82 bd
       -0.019821247 -0.05722004 0.02319719 -0.063616686
000070 9b eb af 3c ee 26 17 bd 3c 51 23 3b 47 c7 8a 3c
       0.02147465 -0.03690236 0.0024920246 0.016940726
000080 a8 02 04 3b 9b 55 39 bc 39 76 92 bc 41 78 25 3d
       0.0020143185 -0.011311914 -0.017878639 0.040397886
000090 2b 13 91 bd f6 67 9a bd ba 58 76 bd 8d 6f 82 bc
       -0.07083734 -0.0753936 -0.06014321 -0.015922332
0000a0 7b ca 63 bd f2 c8 b6 bd db b1 0a 3c 65 0b d5 3a
       -0.055613022 -0.08925046 0.008465256 0.0016254006
0000b0 99 97 44 3d e4 1a 9c bc f4 8a 3d bc ee 6d 5d 3d
       0.047996137 -0.019055791 -0.011568774 0.054059915
0000c0 8a c2 04 bd bd f4 3e bc 9c 19 2a bd 21 df ae bc
       -0.03241209 -0.01165503 -0.04152833 -0.02134663
0000d0 68 83 d4 bc 33 06 28 bd ad 71 49 bc c1 c9 20 bd
       -0.025941566 -0.041021537 -0.012295169 -0.039254908
0000e0 8e ce 29 3d aa 5b b9 ba 6c 6c af 3c 75 da 21 bd
       0.04145675 -0.0014141698 0.021414004 -0.039514977
0000f0 90 f4 c5 bc 12 02 15 3d 3b ae 24 bc 51 5c 1c 3d
       -0.024164468 0.036378928 -0.010051305 0.038173977
000100 52 2c e6 3c 23 0b f1 bc ed f8 ac bc 91 2c 41 3b
       0.028097305 -0.029424256 -0.02111479 0.0029476027
000110 50 7f 2e 3d bb 8b 72 3d 81 8e 77 bd 50 27 ae bb
       0.042601883 0.05921529 -0.060438637 -0.005314745
000120 55 c6 3e bd f5 91 31 bd 47 da 6d 3d 8b 20 ca 3d
       -0.046575863 -0.043352086 0.058069494 0.09869488
000130 be c7 0d bd e1 d5 ed bc bd 63 3c 3d c7 5b 55 3c
       -0.034614317 -0.02903265 0.045993555 0.01302237
000140 a6 9d c6 bb 49 1a 51 3c 49 89 45 3d 45 a9 00 bb
       -0.0060612736 0.0127626145 0.04822663 -0.0019632143
000150 d7 97 42 bd a3 d8 a5 3c 46 7f a1 3c b9 02 42 bd
       -0.047508087 0.020244902 0.019714009 -0.047365878
000160 98 ab 10 3c 9f ec 9b bc d3 20 04 3d cb 68 e0 bd
       0.008829974 -0.019033728 0.032257866 -0.10957488
000170 cf ed c7 bc 9b 41 06 bd d4 c1 96 bc 42 f5 92 3c
       -0.024405388 -0.03277741 -0.018402971 0.017939214
000180 b0 22 45 3c 87 e1 31 3a 2d b5 5d 3c eb 2c 80 bd
       0.012032196 0.00067856204 0.013531965 -0.062585674
000190 e6 85 b5 bc 30 7a 8a bd 2c 0a 1e 3d 6a db 8b bc
       -0.022158574 -0.06761587 0.03858392 -0.017072398
0001a0 26 d5 ad 3b 7e 01 0a bd 1f 60 7a 3d b1 d1 82 3c
       0.0053049503 -0.03369283 0.061126824 0.01596913
0001b0 68 fe b4 3d 08 19 8d bd 7e 0c 85 bc 65 c2 92 3d
       0.08837587 -0.0688954 -0.016241308 0.07165984
0001c0 d8 72 a7 bd 10 bc 54 bc 25 a6 74 bd 98 56 07 bc
       -0.081762016 -0.012984291 -0.05972876 -0.008260392
0001d0 8e c1 b7 bc 37 2a 51 3c 2b d3 5a 3d 89 a0 e0 bc
       -0.022431161 0.012766412 0.05342404 -0.0274203
0001e0 71 57 58 3d c0 53 f2 bb 8e 43 96 3d 4a e3 df 3c
       0.052817766 -0.0073952377 0.07337104 0.02733006
0001f0 73 22 5c bd 9c 51 19 bd 3c 9f b6 3c 02 e9 4b bd
       -0.05374379 -0.037431344 0.022292726 -0.04978276
000200 af 44 a4 bc 94 49 33 3d 1c 73 35 3c d9 e3 b3 bd
       -0.020052282 0.04377134 0.0110748075 -0.08783693
000210 42 91 cf bd 7f ac 54 bc 8c 0f 93 bd 9d d3 f9 3c
       -0.101351276 -0.012980579 -0.071807 0.030496413
000220 89 b7 99 bd 41 0e 8a bb 49 0d 63 bd 51 25 e7 bc
       -0.0750571 -0.004213125 -0.05543259 -0.028216036
000230 72 9c 49 bd d8 06 22 bd e1 16 e6 bc ce da 3c 3c
       -0.049221464 -0.039557308 -0.028087081 0.0115267765
000240 61 94 a1 3c 17 34 78 bc fd 30 a5 bd 26 09 06 3a
       0.019724073 -0.015149138 -0.080659844 0.00051130576
000250 77 1f 1b be b8 33 1b be f3 08 aa 3c ea f8 65 bd
       -0.15148722 -0.15156448 0.02075622 -0.056145586
000260 ca 36 60 bd e4 e8 62 bc 23 f5 f5 3c c0 39 86 bd
       -0.05473975 -0.013849471 0.030024117 -0.06553984
000270 4f b8 86 bd e9 f6 a6 3c 50 f2 b1 bc a7 f1 08 3d
       -0.06578123 0.020381408 -0.021721989 0.033433583
000280 2a af 9e 3d 01 e6 c2 bc 96 a8 68 bc 0d 51 85 3b
       0.07748254 -0.023791315 -0.01420035 0.0040685
000290 71 8e c2 3c ba df 9c 3c e0 b0 fd 3c 6e 80 7a 3d
       0.023749562 0.01914965 0.03096813 0.061157636
0002a0 ca 08 88 bc 98 e7 f0 3c 72 53 e8 bd ae 7a 99 bd
       -0.016605753 0.029407308 -0.11344041 -0.074941024
0002b0 da 4b ea bc 8e dc 84 3b 54 35 a5 3d 10 96 75 bd
       -0.028600622 0.0040546125 0.08066812 -0.059957564
0002c0 a5 28 19 bd 88 64 25 bd e0 86 59 bb 11 c8 69 bd
       -0.037392277 -0.040379077 -0.0033191964 -0.057075564
0002d0 36 d0 8d 3d 67 97 f8 bc 61 29 27 bd e7 f5 c4 37
       0.06924479 -0.030345632 -0.040810946 2.3479528e-05
0002e0 21 50 b8 3b 98 04 0a 3d c0 fa ad bd 39 b4 45 bd
       0.0056247865 0.033695787 -0.084950924 -0.048267577
0002f0 35 25 8e 3c 46 12 64 3c d8 59 04 bd 63 77 35 bd
       0.017351726 0.013920372 -0.032312244 -0.04430331
000300 19 35 92 bc 72 0c 3f bc 26 f7 8d 3d 32 08 20 bd
       -0.017847585 -0.011660682 0.069319054 -0.039070316
000310 af bb 62 bd 4e a9 00 bd 7d e4 1d bc 20 f1 10 3c
       -0.05535477 -0.03141146 -0.009636995 0.008846551
000320 d2 ef c1 bc 08 13 6a bd d8 7a 4f 3d da a0 d9 bc
       -0.023673926 -0.057147056 0.050654262 -0.026565958
000330 77 60 90 3d 35 4f bb bd 8e c4 47 bd c4 3f 05 bc
       0.07049649 -0.09145967 -0.048771434 -0.008132879
000340 32 9c c0 bc a4 4b e8 bb 2c ff af 39 d7 19 a5 39
       -0.02351198 -0.007089095 0.0003356872 0.00031490505
000350 3d 00 2b 3c 9a 6e 43 3c ed f8 92 3c ca c0 aa bc
       0.0104370685 0.011928225 0.017940963 -0.020843882
000360 74 05 5b 3c 5a 2d 8b bc 8d f0 2d bc b8 ae 19 3c
       0.013367999 -0.016989399 -0.010616434 0.009380035
000370 73 7f 48 3c ae 8b 10 bd de 0a 24 bd 07 32 35 bc
       0.0122374175 -0.03528946 -0.040049426 -0.011059291
000380 3b 55 1e bd 33 a5 ea bd 06 04 80 bd 1f ae ec 3b
       -0.0386555 -0.114572905 -0.062507674 0.0072229053
000390 ce 11 b2 bb 51 87 0a 3d 6e fd 5c bd a2 c3 b3 3c
       -0.0054342514 0.033820454 -0.053952627 0.021943871
0003a0 a7 66 81 3c 59 fa 2b 3d 8b 1f b6 bc 2f 91 0d 3d
       0.015796019 0.041986797 -0.022231838 0.034562286
0003b0 d0 30 84 bb 45 7c a2 bc a6 35 79 3a db 61 21 bc
       -0.004034139 -0.019834647 0.00095065904 -0.009849991
0003c0 89 8a 1c 3d 46 6d 53 3d fb 90 0d bd bb 39 9c 3d
       0.038218055 0.051617883 -0.034562092 0.07628199
0003d0 64 ec f0 bb fc d8 43 bd 33 13 8a 3d 4a 2e 70 3a
       -0.0073523987 -0.047814354 0.06741943 0.0009162171
0003e0 52 b9 d8 bd f8 7e 20 3c 62 e8 be bc 0e 03 4f 3d
       -0.10582222 0.009795897 -0.023304168 0.050540023
0003f0 9b 20 ea 3b 59 47 ad 3a 12 f3 bd bc b5 d2 84 3c
       0.007145 0.0013220116 -0.023187194 0.016213754

conv2.bias f4 [64]
000000 83 50 32 3b d8 68 aa ba 7c ac c3 3a e6 5b b8 b9
       0.0027208633 -0.0013001217 0.0014928724 -0.00035163685
000010 75 6b b3 3b 1e 38 f0 ba 0e f3 3a 3b 3a 9f 7e bb
       0.0054754564 -0.0018327271 0.002852622 -0.003885223
000020 a3 18 1a 3b 64 ef 57 ba cb 88 b7 bb 0c 3b 03 3b
       0.002351322 -0.0008237271 -0.005601024 0.0020024208
000030 07 c5 2a 3b 25 e3 48 3b 09 74 89 3b a4 b4 22 b9
       0.002605738 0.0030652967 0.0041947407 -0.00015516818
000040 fe 60 2c bb 3f 4f 46 3a 1e 2a aa bb c6 d4 42 bc
       -0.002630293 0.0007564909 -0.005193009 -0.011891549
000050 10 fb 8b bb 38 3f 48 bb d1 e6 82 bb 62 c3 d1 ba
       -0.0042718723 -0.003055526 -0.0039948006 -0.0016003663
000060 54 d7 43 bb 52 67 86 bb cc 6e 80 3b a4 72 02 3a
       -0.0029882984 -0.004101672 0.003919458 0.0004976189
000070 85 8a 06 bb 9b 3a b2 39 98 a0 0c bb 51 74 02 3b
       -0.0020529341 0.0003399447 -0.0021458026 0.0019905756
000080 3b 78 36 bb 7a 56 ed 39 34 2e 99 bb 09 73 14 bb
       -0.002784266 0.00045268593 -0.0046746973 -0.0022651574
000090 00 15 f7 3b 50 02 c3 bb b6 29 c0 ba 7d e0 df 3a
       0.007540345 -0.0059512034 -0.0014660868 0.0017080453
0000a0 63 a3 da ba 65 d5 8f 39 fe b8 ba 3b d8 d7 aa 3b
       -0.0016680773 0.00027434077 0.0056983223 0.005213719
0000b0 b8 b4 e0 3a 15 5e 22 bb 1b 74 7e bb 8b 0a 65 3b
       0.0017143702 -0.0024775316 -0.0038826528 0.003494891
0000c0 a5 31 95 bb 2f e6 a0 3b 5b 79 a6 bb 63 ac a4 3a
       -0.004553037 0.0049102525 -0.0050803847 0.0012563582
0000d0 7e 8a 29 3a 79 29 49 bb 16 d5 30 bb 9e c4 41 bb
       0.00064674753 -0.0030694886 -0.0026982478 -0.0029566656
0000e0 ca e8 6f bb 5d 23 05 bb f4 24 1c 39 06 b7 8a bb
       -0.003660726 -0.0020315268 0.00014891085 -0.004233244
0000f0 d5 3d f9 3a fd 29 37 3a bf 3d da ba a4 8f 04 bb
       0.001901562 0.0006987153 -0.0016650482 -0.0020227218

conv3.weight f4 [64, 64, 3, 3]
000000 5b e6 50 bd ec 58 2d bb a5 5b d1 bc 86 1c e6 3b
       -0.051000934 -0.0026450707 -0.025556395 0.007022443
000010 4f d6 1d 3c 3e 94 30 3d 94 ff 56 3c fb 72 23 bb
       0.009633615 0.043110125 0.013122458 -0.002494036
000020 5a e6 09 3c 6d 4e 7c bd ce 47 c6 3c 7f 56 0d bd
       0.0084167365 -0.06159823 0.024204161 -0.034506317
000030 71 e7 b1 3c ec 5a 58 bc a6 8f 6e bb 90 f5 54 3d
       0.021716805 -0.013205271 -0.003640154 0.051992
000040 dc 11 28 3c 1b 39 77 bc bb bb 8c 3b 5e 86 0e 3d
       0.010258164 -0.015089299 0.00429484 0.03479611
000050 60 90 10 bd 16 35 b9 3b 8b a6 b2 bc a3 9e 54 bc
       -0.035293937 0.0056520803 -0.02180793 -0.012977275
000060 94 1e 98 3d 83 a0 86 3c 4e 5d 69 3c 9a 9d 3a bd
       0.07427707 0.01643396 0.014243437 -0.045560457
000070 87 30 55 3d ab 99 16 bd 49 e1 43 3d 82 f3 21 bd
       0.052048232 -0.036767643 0.04782227 -0.039538868
000080 68 a9 c1 bc de 12 b0 bd b9 d2 cb 3c 38 72 0d bd
       -0.02364035 -0.08597349 0.024880754 -0.034532756
000090 c2 6f 9b 3d d7 de 02 3d 3f 9f 1c 3c 10 ed 19 3b
       0.075896755 0.031950798 0.009559452 0.0023487248
0000a0 4c b8 65 3d 53 f6 07 bd d5 60 7f 3c 6d ce 13 bd
       0.056083962 -0.033193897 0.015587051 -0.036085535
0000b0 d1 62 de bc b9 59 a9 3c 5f 0c c9 bd 6d ea 89 bd
       -0.027146729 0.020672666 -0.09816813 -0.06734166
0000c0 ba 14 71 3b db 9c a4 3c 15 e5 f3 bc d9 1c 11 3b
       0.0036786036 0.020094326 -0.02977232 0.0022142439
0000d0 6f 84 d8 bc 37 ff 95 bd 05 c8 29 3d 32 5b 4e 3d
       -0.026430337 -0.07324069 0.04145052 0.05037994
0000e0 8d aa 6d 3c d6 aa 5f bc 39 a4 85 3d 2a 79 2f 3d
       0.0145059945 -0.01365157 0.065254636 0.04284016
0000f0 23 f7 b8 bc cf 8e 21 bd 95 ff d7 bc ae 9d 44 3d
       -0.022578781 -0.039442834 -0.026366988 0.048001938
000100 2d 57 f1 bc 7d 54 f1 3c 11 5e 83 3c a1 b3 64 bd
       -0.029460514 0.029459232 0.016036065 -0.05583537
000110 3a b2 cd bc 08 48 bf 3d 86 c9 c3 bc 49 c0 d5 bc
       -0.0251094 0.09339911 -0.023899805 -0.026092665
000120 5a e8 b1 3c 53 ce 30 bc a9 d8 48 3d a7 1d df bc
       0.02171724 -0.010791379 0.04903475 -0.027235819
000130 17 c6 2f bc fa f0 80 3d ba 8a 0a 3d 63 40 7d 3c
       -0.010728381 0.06295963 0.033823706 0.0154572455
000140 39 36 d0 3c ba 4e 81 3c 12 9b b6 3b 5f 01 ae 3d
       0.02541648 0.01578461 0.005572685 0.08496355
000150 fd 8c 8a 3c 03 f4 33 3d 15 f9 db 3b d8 c6 6f 3b
       0.016912932 0.04393388 0.0067130425 0.0036587026
000160 74 9b 98 bc ae 6f ba bd be 17 99 bc 32 04 e6 3c
       -0.018628813 -0.091033325 -0.018688079 0.028078172
000170 8c c3 20 bc 6a fc a0 3d d3 ec b5 3b a9 c9 ee 3c
       -0.009812247 0.07860644 0.0055519133 0.029148893
000180 8f 3d 14 3d f4 fc d9 3b 7d 27 8c 3c dc 9f 2e bd
       0.03619152 0.006652469 0.017108673 -0.042632923
000190 3f 4a 35 3d aa 32 99 3d 71 7f fa 3c 36 07 37 bc
       0.04426026 0.074803665 0.030578347 -0.011171153
0001a0 67 b0 a0 bd 20 ce 1b bd 32 61 fc bb 3f 42 e6 bc
       -0.07846146 -0.038038373 -0.0077020163 -0.02810776
0001b0 a4 07 16 bd 62 35 9c 3c 09 7a 5a 3d ac 7c 1e bd
       -0.03662838 0.019068424 0.053339038 -0.038693115
0001c0 14 f5 b1 3b ed 6b 1f bd 1a 9b 1f bc 86 e4 ac 3d
       0.005430827 -0.038921285 -0.009741569 0.08442025
0001d0 20 60 c5 3c 2e 9b a6 3d 45 55 8f bc 17 be 52 bd
       0.024093688 0.08135067 -0.017496714 -0.051450815
0001e0 4a 18 81 3b e1 d7 c0 3c 75 81 be bd d4 03 d1 3c
       0.003939663 0.02354044 -0.09302036 0.02551452
0001f0 3e 76 94 3d 00 f6 f3 bc c0 c8 c5 bc 24 e7 cc bb
       0.072491154 -0.029780388 -0.024143577 -0.00625314
000200 3d 73 b9 3c b3 e7 0a bd 7a 1c b3 bb 58 df d6 3c
       0.022637958 -0.03391237 -0.005466041 0.026229545
000210 b9 13 eb bc 24 e8 b6 3c 07 9f 43 3d ed 74 e3 3c
       -0.028695928 0.02232749 0.047759082 0.027765715
000220 2e 77 7e 3b 93 40 e6 3c a6 e1 49 3d e9 64 7d bb
       0.003882836 0.028106963 0.04928746 -0.0038664883
000230 85 2f 2f bb 31 5d 79 3c 02 17 2c 3d b5 ca 7e bd
       -0.0026731205 0.0152199725 0.04201413 -0.062205035
000240 6c 9f 6c bd 87 bf 66 3d 17 7e 80 3c 0f 3c a8 3c
       -0.057769224 0.056335 0.015685124 0.02053645
000250 43 b9 9b bd 6d 26 56 3a fb 1b 83 bd 71 16 0b bd
       -0.07603695 0.0008169178 -0.06401821 -0.03395695
000260 d4 bc 9f bc 13 07 9f bc 91 ae cb bc 3e ca da bc
       -0.01949922 -0.019412553 -0.024863513 -0.026707765
000270 fe 4a 07 bd 8a 1f 64 3b 0a 0d a6 3c 19 90 f9 3c
       -0.033030502 0.0034808838 0.02026989 0.030464219
000280 f8 45 02 bc 63 34 8f bc 88 3c a3 3b de 1a 56 3c
       -0.007951252 -0.017481035 0.004981581 0.013067929
000290 81 32 43 3c 76 7c 55 bc b3 e6 2f 3d 3d c4 9b 3d
       0.011913897 -0.013030162 0.04294462 0.07605789
0002a0 93 06 be 3d 19 e8 13 bc 03 4e 10 3b 80 e7 ef b9
       0.09278598 -0.009027504 0.0022019155 -0.00045758113
0002b0 70 09 e2 bb 84 2c 50 3d f0 41 96 bc 28 8f bb 3c
       -0.0068980977 0.050823703 -0.018341988 0.02289541
0002c0 a7 3a 8b bb 42 0f 4d bc cb 17 8c bd ac 7c ed 3c
       -0.0042489353 -0.012515845 -0.06840476 0.028990112
0002d0 06 bc 81 3c 9a 58 3b 3c 49 de 48 bd 0b 08 24 bd
       0.015836727 0.0114346985 -0.049040113 -0.040046733
0002e0 eb f6 83 bd 73 3c 4b 3c e4 0f fb bc 4c ba 9c 3c
       -0.0644358 0.012404549 -0.030647226 0.019131802
0002f0 6c 55 2f 3d 52 40 96 3d 83 0e bc ba ff 5a c3 bb
       0.042806074 0.07336487 -0.0014347587 -0.0059617753
000300 4f 5f 3b 3c 20 a8 8b bc 8c 43 c7 3a f7 39 09 3c
       0.011436298 -0.017047942 0.0015202626 0.008375636
000310 6a f2 b1 3a 0e 3a 76 3c b8 77 50 bd 0c 07 3d 3d
       0.0013576273 0.01502849 -0.050895423 0.0461493
000320 58 ea cb bc 28 02 18 3b 4a 18 bb bc 56 a7 e5 3c
       -0.024892017 0.0023194645 -0.02283873 0.028033894
000330 a0 96 10 bb 8e 93 48 3c a2 a5 b9 bc 74 3a 75 bc
       -0.0022062436 0.012242211 -0.022661988 -0.01496755
000340 b4 cf 3d bd f8 c7 8d 3c 8d 21 42 3b 21 3c 3c bc
       -0.04634066 0.017307267 0.0029622049 -0.011488945
000350 5f 47 0a bd 01 fb 0f bd e5 03 e7 3c 6d 8d 2d bd
       -0.03375947 -0.035151485 0.0282001 -0.042371202
000360 84 71 dd bc 95 38 bb 3d 23 49 07 bc 36 26 3c 3c
       -0.027031668 0.091416515 -0.008257183 0.01148372
000370 dd e5 10 bd 9d 94 bf 3b 7d 8f a9 bc 27 63 1d 3c
       -0.035375465 0.0058465735 -0.020698303 0.009606159
000380 83 d6 0c bd 79 ee e9 3b 9f 14 e6 bc 73 e2 4a 3d
       -0.03438426 0.007139024 -0.028086005 0.049532365
000390 17 1c 92 3d ed 0e ee bc 9f 3c 49 3d 07 85 ad 3c
       0.07134264 -0.029059852 0.04913008 0.021181596
0003a0 2a 02 0a bd c6 82 18 3d 01 0b 9b bd ce 74 b1 3b
       -0.03369347 0.03723409 -0.07570458 0.0054155355
0003b0 b5 bd 81 3d 77 12 a9 3c d6 c8 f1 3b f9 48 4c bc
       0.06335012 0.020638688 0.007378678 -0.01246857
0003c0 53 00 ce bd dc 72 91 bc 52 9d c3 3d 8f f6 5d 3c
       -0.100586556 -0.017754965 0.09551491 0.013547554
0003d0 31 5c bc bc e3 8f 81 3d 28 41 24 bc f4 97 2e bd
       -0.022993179 0.06326272 -0.0100253 -0.042625383
0003e0 9a 48 3e 3d c5 11 e9 bc 5d 46 6a bd 60 80 39 bc
       0.046455957 -0.028450856 -0.05719601 -0.011322111
0003f0 ed 61 25 3c 99 cd c4 bb 59 87 c1 3c 5b bd 97 bc
       0.010094148 -0.0060059545 0.02362411 -0.018522909

conv3.bias f4 [64]
000000 b1 f6 88 3c ec 0c 69 3c c5 e1 c4 bc 24 44 ce 3c
       0.016719194 0.014224272 -0.024033437 0.025178976
000010 93 c8 8a bc 31 18 d0 bc c3 79 c2 3c d9 5d ee 3c
       -0.016941344 -0.02540216 0.023739701 0.029097484
000020 48 c7 d1 3c 77 a2 99 3c 3a 4c c0 3c ce f4 d9 3c
       0.02560772 0.018754227 0.023473848 0.02660599
000030 dd 70 b1 3c d5 a7 bb bc 15 d4 d0 3c d5 7e bf 3c
       0.021660263 -0.022907177 0.025491754 0.023375908
000040 26 dc e6 bb 74 bc 6c ba 85 ee c3 bb 23 25 c1 3c
       -0.0070452867 -0.0009030767 -0.0059793615 0.023577278
000050 bf 76 ec 3c b7 c8 9a bc 8c 30 81 bc 14 2c ad 3c
       0.028865216 -0.018894536 -0.01577022 0.021139182
000060 b4 53 de 3c ee 65 6d bc 60 43 1d bc 02 a1 ba 3c
       0.027139522 -0.014489634 -0.009598583 0.022781853
000070 e5 29 e0 3c 8b 3b b4 3c 30 9a 00 bc 37 30 cd 3c
       0.027363727 0.022001049 -0.007849261 0.025047405
000080 99 38 dc 3c e3 86 bb 3c 12 8c b6 3c 0d e6 95 3c
       0.026882457 0.022891467 0.022283588 0.018298173
000090 7d 22 cd bc 0f 93 3f bc 61 01 db 3c fd 52 9f 3c
       -0.02504086 -0.011692776 0.026734056 0.019448752
0000a0 c5 81 1e bc 98 4a 31 bc 33 5d e3 3c d1 8b b7 3a
       -0.009674494 -0.010821007 0.027754402 0.001400346
0000b0 46 3d bf 39 0c 8e b9 bc be 26 a1 bc fe d1 e7 3c
       0.0003647601 -0.022650741 -0.019671794 0.028298374
0000c0 da 81 b2 3c b2 e9 35 3a eb 57 1e ba b0 8b d2 bc
       0.021790434 0.00069394254 -0.00060403225 -0.025701374
0000d0 0d 45 01 ba f5 fb e0 3c b3 c5 e8 bb 07 30 de 3c
       -0.0004931249 0.027463892 -0.0071036457 0.02712251
0000e0 0e 8a 7a 3a ae 0c 09 bc 55 cb 59 3c 4e ed ec 3c
       0.0009557315 -0.0083648395 0.013293107 0.02892175
0000f0 c1 7d d0 3c 6f 62 b6 bc c7 d9 e3 3c f3 31 1e 3c
       0.02545059 -0.022263734 0.027813805 0.0096554635

bn1.weight f4 [64]
000000 4a 8b 82 3f 83 e5 82 3f 22 75 7d 3f 9b e9 7c 3f
       1.0198758 1.0226291 0.99006855 0.98793954
000010 f6 a3 81 3f 23 0e 7d 3f e7 10 7c 3f 9b 03 82 3f
       1.0128162 0.98849696 0.9846329 1.015735
000020 ab bb 7b 3f 92 83 7d 3f 61 2b 82 3f 75 ac 82 3f
       0.98333234 0.99028885 1.0169488 1.020888
000030 78 5e 7e 3f 84 a1 7d 3f 78 7f 7e 3f fe 9c 7a 3f
       0.993629 0.9907458 0.9941325 0.978958
000040 0e 4a 81 3f 1b 63 81 3f bb dc 82 3f 2e 7d 7d 3f
       1.0100725 1.010837 1.0223612 0.99019134
000050 1f 1c 7b 3f 0d fb 82 3f 4c d0 7e 3f 71 c6 7f 3f
       0.98089784 1.0232865 0.99536586 0.9991217
000060 4c 17 81 3f 54 71 82 3f ea bb 7e 3f a8 94 80 3f
       1.0085235 1.0190835 0.99505484 1.0045366
000070 ec 18 82 3f 6f 97 7f 3f 62 73 80 3f ee 33 80 3f
       1.0163856 0.99840444 1.0035212 1.0015848
000080 e7 39 7e 3f 47 eb 7b 3f cd 08 7b 3f 4f 84 7c 3f
       0.993071 0.9840588 0.98060304 0.98639387
000090 36 e7 81 3f 48 d3 7c 3f 89 03 7c 3f 60 52 80 3f
       1.0148685 0.9875989 0.98442894 1.0025139
0000a0 4c 53 81 3f d0 12 7e 3f 56 19 82 3f c7 76 80 3f
       1.0103545 0.99247456 1.0163982 1.0036248
0000b0 34 0f 7f 3f 0a e9 82 3f eb 7e 82 3f 24 8a 80 3f
       0.99632573 1.0227368 1.0194982 1.0042157
0000c0 6b 59 7c 3f 09 1b 80 3f bd b5 82 3f a9 52 7d 3f
       0.9857394 1.000825 1.0211712 0.98954254
0000d0 3f 6e 80 3f f6 18 82 3f 75 57 83 3f 5c 5d 81 3f
       1.0033644 1.0163867 1.0261065 1.0106616
0000e0 35 f1 7b 3f 61 c6 80 3f 0f 7d 7d 3f 41 e3 81 3f
       0.9841493 1.006054 0.9901895 1.0147477
0000f0 73 b8 7f 3f 10 bb 7e 3f b6 25 7c 3f 22 a2 81 3f
       0.9989082 0.99504185 0.9849504 1.0127604

bn1.bias f4 [64]
000000 e2 99 6b 3c 8f 3d 6b bc 56 c0 77 bb 40 c7 18 bc
       0.01437995 -0.014357938 -0.003780385 -0.009324849
000010 aa 70 b9 bc f5 1d 8b 3c f1 2c 2c 3c 0a 8a 50 3c
       -0.02263673 0.016982058 0.010508762 0.012728224
000020 b1 17 58 bc cd fc 1d bc 1a 15 6b 3b 2d 3f 5e 3c
       -0.013189242 -0.009642792 0.0035870732 0.013564867
000030 a1 25 98 3a 6c 9f ac ba 2a 01 a5 3c 00 61 8c bc
       0.0011607894 -0.001317007 0.020142157 -0.017136097
000040 2c 9b 91 3c f1 ea ad 3b 35 89 cc 3b c8 6c 07 bb
       0.017774187 0.005307548 0.0062419423 -0.0020664204
000050 8c 43 b5 3b 2d b9 b0 bc 84 44 28 bc ad 12 7d 3b
       0.005531734 -0.021572674 -0.010270242 0.0038615868
000060 a3 df 7f 3b d2 18 4e bc 30 31 94 39 ce 2e 92 bc
       0.003904321 -0.01257916 0.00028265407 -0.017844584
000070 da 7f 32 3a 9d c8 af bc 90 2b 1e bb 08 96 f1 3a
       0.00068092125 -0.021457965 -0.0024134852 0.0018431554
000080 43 7d 66 3c ad 21 a6 bc 3c 97 01 3b c6 1b 01 bc
       0.014067951 -0.02027973 0.001977398 -0.007880157
000090 7f 9b 8e bc 73 f2 a8 bb 88 4c 22 3b 0f d1 6f 3c
       -0.01740813 -0.0051558553 0.0024764854 0.014637246
0000a0 47 85 9b 3c 00 58 9c bc ed f2 92 3b 8f 09 45 bb
       0.01898445 -0.01908493 0.0044845254 -0.0030065512
0000b0 57 7d 43 bc f6 7d 81 3c 59 2f ff b8 5c 7a 22 3b
       -0.011931739 0.015807133 -0.00012168167 0.002479217
0000c0 f3 2e 46 bc fc 3f ba bc c5 4e c4 bb 99 19 54 3c
       -0.0120961545 -0.022735588 -0.0059908354 0.012945556
0000d0 b0 8f d3 3b b1 e4 25 3a ff 04 90 3c 79 46 9f bc
       0.006456338 0.0006328328 0.017580507 -0.019442784
0000e0 f7 68 a6 3c 16 22 7a bc f3 02 a7 3c d3 72 4c 3c
       0.020313723 -0.015266916 0.020387148 0.012478548
0000f0 ef 72 23 3c bb 3e 11 bb 63 c5 b8 bc 11 4f a9 bc
       0.009976133 -0.0022162634 -0.022555059 -0.020667585

bn1.running_mean f4 [64]
000000 aa 4e 23 bc 16 13 cd bb 1c 72 c4 3c 3b ae f2 3b
       -0.009967485 -0.0062583787 0.023980193 0.007406024
000010 49 9a 08 bc c4 c4 cb 3c 90 57 b9 3c 4a 37 a6 b8
       -0.008337566 0.024874099 0.02262476 -7.925795e-05
000020 19 c6 1a bc 4c f4 6e bc 30 92 f0 bb b1 c6 38 bc
       -0.009446644 -0.014584612 -0.0073416457 -0.0112778405
000030 35 88 1a 3c b7 f9 00 bb 50 25 52 3c 14 d5 78 bc
       0.009431888 -0.0019680092 0.012826279 -0.0151875205
000040 28 04 e4 3c b0 04 59 bc 4c fc de 3b e3 cb 89 3c
       0.027834013 -0.0132457465 0.0068049785 0.016820854
000050 46 60 f6 3b 42 03 50 bc 67 e1 a4 bc dd c6 f1 3b
       0.007518801 -0.012696089 -0.020127011 0.0073784427
000060 cb 51 3e 3c fe 35 cf bb 92 86 a9 bb ff a8 01 bb
       0.011616181 -0.006323575 -0.0051735127 -0.0019784567
000070 fb fb 9a bc 12 c3 9a bc 56 79 db bb 67 cd 8a 3b
       -0.018918982 -0.018891845 -0.006697814 0.0042359116
000080 29 67 33 3d 31 79 e6 bc c5 06 dd 3c 7c 59 b6 bc
       0.043799553 -0.02813396 0.026980767 -0.022259466
000090 7c 1f 09 bc 44 83 56 3c 2a de e9 bb fb ea f2 3c
       -0.008369323 0.01309282 -0.0071370797 0.029653063
0000a0 7e fd cb 3c f7 4b 1e bb 38 da 8a bb d9 cc d6 bc
       0.024901148 -0.0024154165 -0.0042374395 -0.026220726
0000b0 6d 05 3a bc 1b 75 bd bc 1b 52 fd bc 64 f7 d1 bc
       -0.011353833 -0.02312713 -0.03092294 -0.02563066
0000c0 93 dc 90 3c 47 50 95 bb 6b 50 f9 bb 8e 9c 64 3b
       0.017683303 -0.004556689 -0.0076084635 0.0034883353
0000d0 c4 bd 5c bc 0d bc 1c bc b1 81 03 bd 6b 1b 1d 3c
       -0.013472978 -0.009566319 -0.032106105 0.0095890565
0000e0 bb e9 31 3d 8f ad 84 bc 29 f0 c3 3c ee d3 d6 39
       0.043435793 -0.01619604 0.023918228 0.0004097516
0000f0 01 95 6d 3c 2a 51 c3 3c d4 73 20 bc 1b be a4 bc
       0.014500857 0.023842413 -0.009793241 -0.02011018

bn1.running_var f4 [64]
000000 46 14 0f 3d da bc f3 3c c8 66 33 3d 9f cc 66 3d
       0.034931444 0.029753137 0.04379919 0.056347486
000010 51 54 d7 3c 66 a4 57 3d 3e f8 0d 3d cd 4e ff 3c
       0.026285322 0.052647017 0.03466057 0.031165505
000020 a8 f7 8a 3c 26 b3 a3 3d 37 7a 1d 3c 5e d3 33 3c
       0.016963795 0.07993154 0.009611658 0.010975687
000030 bd 4e 98 3c ee 53 9b 3c a1 d5 25 3d 84 b8 1a 3d
       0.018592233 0.01896092 0.040486936 0.037773624
000040 80 88 62 3d f8 8d fe 3c 5b 19 0d 3d c9 67 85 3c
       0.055305958 0.031073555 0.03444801 0.01628484
000050 aa cc 47 3d 6e 9e e3 3d bf 25 03 3d b4 c5 a6 3c
       0.048779167 0.111142024 0.03201842 0.020357944
000060 27 bf e9 3c 30 16 87 3c 6e 6f c5 3c bc 01 ca 3c
       0.028533531 0.016490072 0.024100985 0.02465903
000070 d1 40 28 3d 91 24 38 3d 92 02 0f 3d 21 a2 15 3c
       0.04107744 0.044956747 0.03491456 0.009132893
000080 55 5a b7 3d c8 16 14 3d a5 7f 8d 3d 57 1d 22 3d
       0.08952776 0.03615454 0.06909112 0.039578762
000090 8a 26 99 3c 3c d8 db 3c 25 0d 4b 3c 36 e2 df 3d
       0.018695135 0.026836507 0.012393271 0.10931818
0000a0 b9 28 54 3d 14 0f 1a 3d 5c 6e 21 3d ea eb 76 3d
       0.05179665 0.037612036 0.039411888 0.06028358
0000b0 ed 79 03 3d 5f 7e 25 3d e7 32 06 3d 03 0e 28 3d
       0.0320987 0.04040372 0.032763388 0.041028988
0000c0 d6 4d 43 3c 11 58 6d 3c 13 38 ee 3c 80 d5 03 3c
       0.011920413 0.014486329 0.029079473 0.008046508
0000d0 1a 7a 01 3d 79 a5 2d 3d 9b ff 86 3d 99 53 0a 3d
       0.031610586 0.042394135 0.065917216 0.03377113
0000e0 56 40 df 3d bf 1a 93 3d ba be 38 3d a7 e3 1a 3c
       0.10900943 0.07182836 0.045103766 0.009453691
0000f0 12 4b f5 3c 15 fe 04 3d 32 c3 ad 3c 14 3a 65 3d
       0.029943023 0.032468874 0.02121124 0.05596359

bn2.weight f4 [64]
000000 32 43 7f 3f 21 54 81 3f 72 ca 7d 3f 1d 90 80 3f
       0.99711907 1.0103799 0.9913703 1.004398
000010 1c 4b 80 3f db 91 7d 3f 27 c5 7e 3f 36 68 81 3f
       1.0022922 0.9905068 0.9951958 1.0109928
000020 b0 f5 80 3f a7 37 80 3f 55 e1 79 3f a2 43 81 3f
       1.0074978 1.0016984 0.97609454 1.0098765
000030 16 65 7c 3f 61 13 81 3f 01 f3 81 3f 34 79 83 3f
       0.98591745 1.0084039 1.0152284 1.0271363
000040 1f a2 82 3f c0 66 7b 3f 72 4a 7b 3f ee e7 7f 3f
       1.0205725 0.9820366 0.9816047 0.9996327
000050 21 1b 80 3f 4f 1f 7c 3f e7 b1 7c 3f fd dd 82 3f
       1.0008279 0.98485273 0.9870896 1.0223995
000060 8f ff 7e 3f 7a 84 7c 3f 1a 48 81 3f 54 70 80 3f
       0.996087 0.98639643 1.0100129 1.003428
000070 db ff 79 3f fd 04 7c 3f c1 72 7e 3f 18 fe 80 3f
       0.9765603 0.9844511 0.9939385 1.0077543
000080 83 c4 80 3f 54 22 7f 3f a3 0a 82 3f fa ff 7c 3f
       1.0059971 0.99661756 1.0159496 0.9882809
000090 df 6c 7f 3f cb ac 7d 3f 95 84 7d 3f 27 a5 7f 3f
       0.997755 0.99091786 0.9903043 0.9986138
0000a0 c6 fd 7b 3f a5 36 82 3f a3 2f 7f 3f fd 26 80 3f
       0.984341 1.0172926 0.9968206 1.0011898
0000b0 a0 09 7d 3f 02 2b 80 3f 78 e3 7a 3f ec 47 7f 3f
       0.9884281 1.0013125 0.9800334 0.9971912
0000c0 bd b0 7a 3f 7a b4 7e 3f 4a 8a 83 3f 60 ea 7d 3f
       0.9792593 0.99494135 1.0276577 0.9918575
0000d0 0f 67 81 3f 92 16 80 3f 18 5a 7b 3f 8d 94 81 3f
       1.0109576 1.0006888 0.9818435 1.0123459
0000e0 49 9d 81 3f 40 5e 82 3f 84 e0 7b 3f b9 33 7c 3f
       1.0126125 1.0185013 0.9838946 0.9851642
0000f0 8b 31 7f 3f 02 25 81 3f 79 d0 7a 3f 0d 10 83 3f
       0.9968497 1.0089419 0.97974354 1.0239273

bn2.bias f4 [64]
000000 14 02 32 3c f3 bd ad 3b 5b 1c dc bc 96 59 0f bc
       0.010864753 0.0053021847 -0.02686899 -0.008749386
000010 81 d9 80 3b 08 67 b6 bc 17 9e 28 bb 4f 9f 47 bc
       0.0039321785 -0.022265926 -0.0025728995 -0.012183978
000020 66 c7 05 bc da e8 eb bc b8 cd 37 bc 70 1a 7b 3c
       -0.008165216 -0.028797556 -0.011218481 0.015326127
000030 c1 5c e3 ba 2c 7a e3 bc 8a a9 cd 3c 63 75 78 3c
       -0.0017346368 -0.027768217 0.025105257 0.015164706
000040 11 f3 68 3c 77 2c d3 bc 29 fa a5 bc a6 6b a6 3c
       0.014218108 -0.025778038 -0.020260887 0.020315003
000050 54 52 70 3c e3 0c fa 3b 67 d1 20 bc 9a ee e4 3c
       0.014668066 0.0076309307 -0.00981555 0.027945805
000060 80 78 25 3c 9d b0 ab 3c ad 57 36 3b 9c fa 83 bc
       0.01009953 0.02095824 0.0027823255 -0.01611071
000070 b9 2c 82 3c c8 ee 60 3c 06 46 6c ba 12 c8 9c bc
       0.015890466 0.013728805 -0.000901312 -0.01913837
000080 4c 39 ff 3b c7 2c a5 3c 7f e4 da 3c a1 a7 92 bc
       0.0077888127 0.020162953 0.026720284 -0.017902197
000090 2b 5b ce bc 45 0c d0 3c 26 2e 3c bc 3f 09 2a 3c
       -0.025189957 0.025396476 -0.011485612 0.010378181
0000a0 bf ff 96 bc 97 2a 74 3c 95 21 1a 3c e8 5d b5 bc
       -0.018432496 0.014902732 0.009407421 -0.022139505
0000b0 5c 10 ed bb 04 2a ad 3c a8 10 80 bc a1 ec 0d bc
       -0.007234616 0.021138199 -0.015632942 -0.008662374
0000c0 77 ca 08 ba 49 84 76 bc 82 cb c9 3b e2 ab 24 bc
       -0.0005218158 -0.015046188 0.006158293 -0.010050746
0000d0 0a d9 2a 3c dc ad b9 3b d2 60 c2 ba fd 77 cd bc
       0.010427723 0.0056664776 -0.001482988 -0.025081629
0000e0 15 ea e9 bc 48 2e a7 3c 04 e7 32 3b d7 4f 7f bc
       -0.028554002 0.02040781 0.002729834 -0.015583
0000f0 b1 82 2e bc fc d2 77 bb c6 1f 47 3c 2f 54 03 3d
       -0.010651276 -0.0037814965 0.0121535715 0.032062706

bn2.running_mean f4 [64]
000000 30 8f 58 c0 ba 95 e2 be 6d 66 40 40 dd 3f 2c 40
       -3.3837395 -0.44254857 3.0062516 2.691398
000010 76 1d 32 3f 75 cb 1a 40 91 11 96 be 47 64 33 bf
       0.69576204 2.418668 -0.29310277 -0.70074886
000020 4f 0e 62 3c 2b 7f f3 be 87 da 9b 3f 6a d2 14 40
       0.013797357 -0.4755796 1.2176064 2.3253427
000030 7b ce e0 3f 07 ff e0 3f a5 df 3d 3f 94 0b 7a bd
       1.7563013 1.7577828 0.7416938 -0.061046198
000040 34 2b 47 3f cc 5d 16 bf 19 b8 d6 3f 00 6d 05 40
       0.778003 -0.5873687 1.6774932 2.0847778
000050 37 e5 20 40 a8 8b c3 bf 98 a8 66 c0 7d 40 3b 3f
       2.5139902 -1.5276995 -3.6040401 0.73145276
000060 e2 45 de 3e 7b 05 3b 40 7a 6f e2 3f 03 b6 7d 3f
       0.4341269 2.9222095 1.769027 0.9910585
000070 bd 1e 27 40 8c 3c df 3f 22 04 c6 3e 71 96 22 40
       2.611251 1.7440352 0.38675028 2.5404322
000080 10 c2 27 40 e2 d9 18 3f 32 36 1a 3f 46 17 06 bf
       2.6212196 0.5970746 0.60238945 -0.5237926
000090 bd ea e2 3f 2c a5 9e bd ad c8 94 3b 7c 57 e0 3f
       1.7727886 -0.07746348 0.004540524 1.7526698
0000a0 fa ca ce 3f a0 49 03 bc 74 0e 98 3f 84 a9 60 3d
       1.6155694 -0.008013159 1.1879411 0.054849163
0000b0 1a 4b d5 bf 93 ad a2 3f 93 04 2d c0 bd b5 f5 be
       -1.6663544 1.2709221 -2.7034042 -0.47990218
0000c0 f0 fa b6 3f f5 5c 9c 3f 7d e0 5b 3f b0 3c b2 3c
       1.429533 1.2215868 0.85889417 0.021757454
0000d0 36 0c a4 3f 36 7c ac 3e 4c 1e 3e 40 a8 f8 99 3e
       1.2816226 0.33688515 2.9705992 0.30072522
0000e0 17 bf 0c 3f 88 97 0f 3f 4b 06 62 40 c4 72 26 be
       0.5497908 0.56090593 3.531634 -0.16254717
0000f0 29 52 85 3d 89 cb a2 bf ca 0c 9a 3f bf 69 77 3f
       0.065098114 -1.2718364 1.2035153 0.9664573

bn2.running_var f4 [64]
000000 be 32 00 41 87 ea 1e 40 91 50 b8 40 0a 8c e5 40
       8.012388 2.4830644 5.759835 7.1733446
000010 68 f1 17 40 58 07 a5 40 fd a3 54 40 7a 3b 33 40
       2.3741093 5.1571465 3.322509 2.8005052
000020 45 b7 b8 3f ae 31 bf 3f c3 21 89 3f c2 eb 4d 40
       1.443093 1.4937036 1.0713428 3.2175145
000030 06 b5 9e 40 64 85 9f 40 25 a2 35 40 12 c3 13 40
       4.9595976 4.985033 2.8380215 2.3087811
000040 e1 1c 27 40 4d ec 71 40 e2 f6 92 40 d3 51 56 40
       2.6111376 3.7800477 4.592637 3.3487442
000050 45 ae d4 40 a3 4a 90 3f 95 c2 0f 41 db 26 4c 40
       6.646273 1.1272777 8.985005 3.1898715
000060 87 d6 01 40 db 13 ff 40 d7 67 95 40 ae d2 cb 3f
       2.0287187 7.971174 4.668926 1.5923669
000070 f5 a0 b2 40 f6 17 b9 40 05 09 69 40 1c 4d 04 41
       5.582148 5.784175 3.6411755 8.268826
000080 2c f6 ce 40 dc aa 14 40 4f 95 a9 3f f4 f0 26 40
       6.4675503 2.3229284 1.324869 2.6084566
000090 ec 96 50 40 6d af fd 3f 10 dd 0e 40 92 a1 5e 40
       3.2592115 1.9819161 2.2322426 3.4786115
0000a0 28 85 0e 40 71 95 03 40 21 3b 6a 40 87 37 02 40
       2.2268772 2.0559962 3.659859 2.0346391
0000b0 62 01 b6 40 45 57 60 40 50 2e ab 40 98 29 0f 40
       5.687669 3.5053265 5.3494034 2.2369137
0000c0 8c 73 6a 40 ff 3b 7e 40 78 ab 34 40 38 52 d3 3f
       3.6633024 3.9724119 2.8229656 1.6509466
0000d0 f5 5f 51 40 02 34 bc 3f 6b f5 06 41 a1 36 0f 40
       3.2714818 1.4703372 8.4349165 2.2377093
0000e0 c1 cc 1c 40 98 b2 49 40 b7 ee 03 41 5b 4d 1a 40
       2.4499972 3.1515255 8.24578 2.4109714
0000f0 12 2b 30 40 d7 10 b5 3f 30 1c 1a 40 e8 c2 13 40
       2.7526288 1.4145764 2.4079704 2.3087711

bn3.weight f4 [64]
000000 07 63 84 3f 9a 3a 84 3f 7c 77 84 3f 59 6b 84 3f
       1.0342721 1.0330384 1.0348964 1.034526
000010 a6 79 84 3f e9 48 84 3f 7e 16 84 3f 14 66 84 3f
       1.0349624 1.033475 1.0319364 1.0343652
000020 76 2e 84 3f 7f 55 84 3f 18 45 84 3f fb 4e 84 3f
       1.0326679 1.0338591 1.0333586 1.0336603
000030 a8 5a 84 3f e0 2b 84 3f 17 1c 84 3f 5c 3c 84 3f
       1.0340166 1.032589 1.0321072 1.033092
000040 69 46 84 3f 01 4b 84 3f 37 59 84 3f 8e 57 84 3f
       1.0333987 1.0335389 1.0339726 1.033922
000050 16 4c 84 3f 77 6c 84 3f 25 30 84 3f 47 21 84 3f
       1.033572 1.0345601 1.0327193 1.0322655
000060 1c 85 84 3f 80 22 84 3f d2 6b 84 3f 61 5e 84 3f
       1.0353122 1.0323029 1.0345404 1.0341302
000070 23 57 84 3f c4 36 84 3f f5 3e 84 3f 1d 43 84 3f
       1.0339092 1.0329213 1.0331713 1.0332981
000080 29 56 84 3f 20 3e 84 3f d5 43 84 3f 72 58 84 3f
       1.0338794 1.0331459 1.0333201 1.0339491
000090 66 5e 84 3f 5c 69 84 3f 0f 78 84 3f b3 0a 84 3f
       1.0341308 1.0344653 1.0349139 1.0315765
0000a0 76 6b 84 3f ae 50 84 3f bb 2c 84 3f 5f 34 84 3f
       1.0345294 1.0337121 1.0326151 1.0328482
0000b0 91 6d 84 3f 56 5d 84 3f ef 65 84 3f 93 69 84 3f
       1.0345937 1.0340984 1.0343608 1.0344719
0000c0 7c 24 84 3f 60 43 84 3f 36 27 84 3f 5e 35 84 3f
       1.0323634 1.0333061 1.0324466 1.0328786
0000d0 97 13 84 3f a8 1f 84 3f d5 56 84 3f 30 6c 84 3f
       1.0318478 1.0322161 1.0338999 1.0345516
0000e0 66 76 84 3f 54 75 84 3f f7 65 84 3f d7 3e 84 3f
       1.0348632 1.0348306 1.0343617 1.0331677
0000f0 3f 63 84 3f 0d 6f 84 3f 66 51 84 3f 41 74 84 3f
       1.0342788 1.034639 1.0337341 1.0347978

bn3.bias f4 [64]
000000 7b 60 0f 3d 4d 2d f3 3c d8 bd 09 3d de 15 02 3d
       0.03500412 0.029684687 0.033628315 0.031759135
000010 27 7b 0b 3d 3f d2 07 3d 23 a4 02 3d ab 93 0b 3d
       0.034052994 0.03315949 0.031894814 0.034076374
000020 13 ab f8 3c c0 3c 0b 3d 24 97 0c 3d 7f 65 00 3d
       0.030355012 0.033993483 0.034323826 0.031346794
000030 91 1e 0a 3d 08 98 0c 3d 60 4b 0b 3d 1b fd f1 3c
       0.033720557 0.034324676 0.03400743 0.029539635
000040 15 25 08 3d 7a 95 0a 3d be e5 0e 3d 46 de 09 3d
       0.03323849 0.03383396 0.034887068 0.033659242
000050 e7 c7 0b 3d 47 7e 03 3d 4d 57 05 3d 1d 45 00 3d
       0.03412619 0.03210285 0.03255396 0.03131591
000060 1a 97 04 3d 9a b9 0a 3d ca 28 0e 3d 0c e0 04 3d
       0.032370664 0.03386841 0.03470687 0.03244023
000070 fc 0f d6 3c 3a 37 09 3d a9 df cd 3c f6 b2 09 3d
       0.026130669 0.033499934 0.025131064 0.033617936
000080 86 ab 0f 3d de 24 05 3d 6a 32 e0 3c 7e 5d 0d 3d
       0.035075687 0.032505862 0.02736779 0.03451299
000090 bb 61 0c 3d c0 c2 de 3c 2d 1b 0d 3d 43 ec 01 3d
       0.03427289 0.027192473 0.034449745 0.031719457
0000a0 03 58 0c 3d ad 7d 0a 3d d4 bd 02 3d 5b 8a e6 3c
       0.034263622 0.03381126 0.031919315 0.028142145
0000b0 11 9d 03 3d 80 44 0d 3d 04 60 0b 3d d2 54 08 3d
       0.032132212 0.034489155 0.034027115 0.033284016
0000c0 f9 86 f8 3c 23 d4 0f 3d 27 e9 e8 3c 19 10 06 3d
       0.030337797 0.03511442 0.028431488 0.032730196
0000d0 ed 5b 07 3d f4 76 fc 3c 4a 43 05 3d 20 34 0a 3d
       0.03304665 0.03081844 0.032534875 0.033741117
0000e0 29 10 06 3d 2c fd fd 3c 71 4c 02 3d ef 1e 03 3d
       0.032730255 0.03100451 0.03181118 0.032011922
0000f0 61 fb 0d 3d b5 d4 fc 3c e6 70 10 3d 3d 13 00 3d
       0.03466356 0.030863145 0.03526392 0.031268347

bn3.running_mean f4 [64]
000000 9b ca 93 3f 39 84 dd 3f 36 57 27 bf b1 aa 58 3f
       1.1546205 1.7305976 -0.6536745 0.84635454
000010 5e 75 b8 3e f4 57 0d c0 ab e0 16 40 7b 44 a4 3f
       0.36027044 -2.2084932 2.3574626 1.2833399
000020 be 5b e3 3f 51 02 04 3f 53 50 8b 3f 1d 73 ec 3f
       1.7762372 0.51566035 1.0883888 1.847263
000030 21 ec cd 3f 57 42 7b bf 57 da 05 40 91 ce 64 3f
       1.6087686 -0.981481 2.0914514 0.89377695
000040 11 5f 4e bf e7 77 90 3f e3 a2 79 3e 8d c8 8f 3f
       -0.8061381 1.1286591 0.24378543 1.1233078
000050 cd d4 36 40 0c 06 0c 3b bf 53 ba bf 75 cd b9 3f
       2.8567383 0.002136591 -1.4556807 1.4515826
000060 59 d0 51 3f 03 62 54 3f 35 6b 2e c0 cf 3b c3 3f
       0.8195854 0.82962054 -2.7252934 1.5252627
000070 eb 10 2e 40 5e 37 10 40 9a 55 2a c0 c4 80 88 3f
       2.7197826 2.2533793 -2.6614747 1.0664296
000080 c0 35 c4 3f c5 00 fb 3f 06 68 e0 3f 39 38 12 3f
       1.5328903 1.960961 1.7531745 0.5711704
000090 11 fd 75 bf 6f 58 74 be ef 3b f0 3f 69 93 87 3f
       -0.96089274 -0.2386186 1.876829 1.0591861
0000a0 f0 3b 2e 3f ae 47 86 3f fb 3f 2d 40 00 a7 b3 3e
       0.6806021 1.0490625 2.70703 0.35088348
0000b0 e4 6e b0 3f 2b d0 2f bf ee cd a8 bf 00 dd 12 40
       1.3783841 -0.68677014 -1.3187845 2.2947388
0000c0 8f 82 f1 3f 7e 88 1d bf 82 d3 81 3f ff d0 93 bf
       1.8867968 -0.61536396 1.0142672 -1.1548156
0000d0 6c 1b 5e 3f 0c 41 3e 40 9b cb 00 3f 9b 02 81 3f
       0.8676059 2.9727201 0.5031068 1.007892
0000e0 34 0f d8 3e 56 63 ca 3f 42 4e 77 3f 71 ce 20 40
       0.421991 1.5811565 0.96603787 2.5126002
0000f0 80 62 fb 3f 17 2a 6e bf 4d f7 51 3f 3f 74 95 be
       1.9639435 -0.93032974 0.82017976 -0.2919025

bn3.running_var f4 [64]
000000 c7 47 26 3f 93 e6 78 3f 26 37 3e 3f 1d 6b 0f 3f
       0.64953274 0.9722683 0.743029 0.56022817
000010 c3 24 9a 3f f3 80 71 3f 58 c6 cc 3f d0 60 59 3f
       1.2042469 0.94337386 1.599803 0.8491335
000020 40 22 73 3f 56 c5 5d 3f c1 fd 97 3f c7 8c 80 3f
       0.94974136 0.86629236 1.1874315 1.0042962
000030 bc 5f 97 3f b7 e2 76 3f 9c f6 c2 3f 40 80 47 3f
       1.1826091 0.9643969 1.5231509 0.7793007
000040 c1 16 92 3f c7 d0 0c 40 fc bb 95 3f 60 d4 3f 3f
       1.1413194 2.2002428 1.1697993 0.74933434
000050 61 95 86 3f 6f cc 67 3f 86 3f ef 3f 82 07 ce 3f
       1.0514337 0.90546316 1.8691261 1.6096041
000060 09 34 54 3f a9 07 ee 3f 43 32 cd 3f d0 b8 43 3f
       0.828919 1.8596088 1.6030964 0.76453876
000070 86 c0 e3 3f 07 cc a7 3f ce 50 83 40 b9 de af 3f
       1.7793128 1.3109139 4.103614 1.3739845
000080 a9 21 a7 3f 96 ec 76 3f d2 cd c0 3f 57 db c6 3f
       1.3057147 0.9645475 1.5062811 1.5535687
000090 44 15 24 3f 9a 1a c0 3f d0 44 b4 3f dd 55 20 40
       0.6409495 1.5008118 1.40835 2.5052407
0000a0 80 bc cc 3e 7a 64 6c 3f 29 36 00 40 5a 0c 80 3f
       0.39987564 0.92340815 2.0033057 1.0003769
0000b0 13 36 85 3f 1d 92 50 3f 20 20 ab 3f c0 e7 78 3f
       1.0407127 0.8147295 1.3369179 0.9722862
0000c0 32 a7 d5 3f 65 ed 88 3f 56 59 ec 3f 3f 0a 20 3f
       1.6691649 1.0697447 1.8464763 0.62515634
0000d0 f7 6e b1 3f d0 ad 44 3f 74 8a 11 40 fd 90 2b 3f
       1.3861989 0.76827717 2.2740755 0.6701811
0000e0 56 29 70 3f ba 08 85 3f 8e 53 62 3f ac fe 23 3f
       0.93813074 1.0393288 0.88408744 0.64060473
0000f0 03 4a d3 3f 8f fa 58 3f dd ee 21 3f 45 e3 8d 3f
       1.6506962 0.8475732 0.632551 1.1084982
