maml-notebook/completet_model/model1/model-epoch_00021-train_loss_0.150-train_acc_0.834-test_loss_0.590-test_acc_0.824.pt (torch_old, 305688 bytes, 20 tensors)

conv1.weight f4 [64, 1, 3, 3]
000000 c5 a3 15 3d 4b 4f ea 3d 13 d9 0a bd 39 f8 a6 bc
       0.036533136 0.11440905 -0.033898424 -0.020382034
000010 75 50 81 3d 5a b6 31 3d 87 95 20 bd f5 e9 76 3c
       0.06314174 0.043386795 -0.0392051 0.015070428
000020 06 f7 8d 3c de b6 d5 bb f5 3e 00 be e5 41 80 bc
       0.017329704 -0.0065220436 -0.12524016 -0.015656421
000030 ea de 1e 3d 43 fa 8d 3d 6d f8 2f bd 65 5b cf 3b
       0.038786806 0.06932499 -0.042961527 0.0063280337
000040 94 39 50 3d 8a f3 aa 3d e1 62 8f bc 40 98 f0 bc
       0.05083616 0.08347233 -0.017503204 -0.029369473
000050 50 86 95 bd c7 48 a4 bc be 3b 42 3d 67 43 b3 bd
       -0.07301009 -0.020054234 0.047420256 -0.0875309
000060 f9 3f 58 bd 73 97 e5 3c 6f b2 cb bc bf 03 19 be
       -0.052795384 0.028026318 -0.024865357 -0.14942835
000070 83 85 2a 3d af 2b ab bd 80 3c 6b 3c be 30 dc 3d
       0.041631233 -0.08357941 0.014357686 0.10751484
000080 4e d7 2f bd bc dd 13 3d 1e e0 86 3d 81 dd c6 bc
       -0.04292994 0.036100134 0.06585716 -0.024275543
000090 1b 13 90 bb 49 e0 95 3d b5 5b 10 bd 7d 6d d5 3c
       -0.004396809 0.073181696 -0.03524371 0.026053185
0000a0 3b 86 43 bc 63 a6 3e bd d7 06 67 3d e7 94 e4 3c
       -0.0119338585 -0.046545397 0.056403007 0.027903033
0000b0 14 5f 6c bd 01 6b f2 3a 59 35 9e bd f2 bf c5 bc
       -0.05770786 0.0018495024 -0.07725019 -0.024139378
0000c0 40 e8 f1 bd d8 05 78 bd 71 17 8b bc 73 ad 2a 3d
       -0.11811876 -0.060552448 -0.016978951 0.04166932
0000d0 00 51 f1 bb 3c e0 db 3c b9 15 97 bd a3 37 6a bb
       -0.0073643923 0.026840322 -0.0737719 -0.0035738728
0000e0 cf 9a c0 bd 7f 62 ad 3c 6c 1c 69 bd fe f3 07 3e
       -0.094045274 0.02116513 -0.05691187 0.1327667
0000f0 ee da b4 bc 15 f6 9a 3c 8d 25 f2 bd cc 99 60 bd
       -0.02207705 0.01891617 -0.118235685 -0.054834172
000100 4b ca fc bc fe d6 10 bd b1 f0 ae 3a b5 ee cc bc
       -0.03085818 -0.035361283 0.0013346878 -0.025016168
000110 30 7d c2 3d 0e 90 8f 3d 0a 63 b9 3d 38 e5 17 39
       0.09496534 0.07009898 0.09052093 0.00014485873
000120 7a 4e 45 3c b1 e7 0f bd 5e 64 a4 3c bb d5 80 3d
       0.012042636 -0.035133068 0.02006739 0.06290766
000130 e1 34 d2 bc 3b 8a bc 3d 82 9f 5e bc ae b6 32 3d
       -0.02565998 0.09206053 -0.013587834 0.04363125
000140 6b 77 4f bd ee 68 71 3d bd cf 81 bd ba eb 0b 3d
       -0.050650995 0.05893796 -0.06338451 0.034160353
000150 88 5b dd 3d 42 2e 97 3c d4 08 19 3e a6 9e 1b bb
       0.10808474 0.018454675 0.14944774 -0.0023745685
000160 ae bf 33 bd 02 00 28 3d 75 59 c2 bc c1 76 16 bd
       -0.043883972 0.041015632 -0.023724297 -0.036734346
000170 6c 38 27 39 12 f3 16 3d 9e b2 b2 3d 2c 3d dc 3c
       0.0001594738 0.036852904 0.08725475 0.026884638
000180 68 34 77 3c 99 bf 11 bd 28 ba 92 bc b6 94 35 bc
       0.015088178 -0.035583112 -0.017911032 -0.011082819
000190 2c b2 d9 3c ec 77 da 3c bf 23 ec 3c 15 31 60 bd
       0.026574217 0.026668511 0.028825639 -0.05473431
0001a0 ea 79 2e 3d bc cf 58 3c 8e 01 8d 3d e0 d2 28 bd
       0.042596735 0.0132331215 0.06885062 -0.04121673
0001b0 42 ca 56 3c a6 5a a9 bc 1e 0c 05 3c 55 8b aa bd
       0.013109745 -0.020673107 0.008120565 -0.08327357
0001c0 3d 3c 80 bc 6a c3 6c bc 59 a4 a7 bc 69 6d 22 3d
       -0.015653724 -0.014450887 -0.02046411 0.039655123
0001d0 27 fb 3b bd 98 36 91 3c 56 30 0f 3d 79 9a 35 38
       -0.045893814 0.017726228 0.034958206 4.3297627e-05
0001e0 0a 79 0d 3c f0 ea 25 bc be 24 95 3d ff ab ca bb
       0.008634815 -0.010126814 0.07282399 -0.0061850543
0001f0 57 a8 c6 bd 81 af 5d bd b0 bd 64 3d 7f dd ac 3c
       -0.09700077 -0.05412245 0.055844963 0.021101711
000200 b0 95 9d 3b c5 0a ed bc d9 4e a7 bd cd b8 2b 3d
       0.004809104 -0.0289358 -0.08169336 0.041924287
000210 97 04 e2 bc 0c 46 96 bd b0 da 9d bd b6 98 d5 3d
       -0.02759008 -0.07337579 -0.07707727 0.10429518
000220 6b 93 1a be b5 7f d4 bc 08 1c 5a 3d c8 d8 3b 3d
       -0.15095298 -0.025939802 0.05324939 0.045861036
000230 23 4c 03 3d 1f 2e 70 bc 8c 1e 8f bb fd 07 67 3d
       0.03205503 -0.014659434 -0.004367655 0.056404103
000240 af 9e 90 3b 69 57 e3 bd 2e 07 26 bd af 02 34 3c
       0.004413448 -0.111006565 -0.04053419 0.010986968
000250 de a3 4d 3c 3a 15 ac bc 2d 69 40 3d 0e 37 fb bd
       0.012551276 -0.021006215 0.046975303 -0.1226636
000260 a7 86 07 bb 8d be e4 3d fa 25 b1 3d c7 78 21 3d
       -0.0020679624 0.11169157 0.086498216 0.039421823
000270 73 96 7a bd 50 d1 da 3b 41 c2 ec 3c 61 0f d1 bb
       -0.061178636 0.006677784 0.028901221 -0.006380007
000280 ff 8e d5 3b c2 e1 ca bb 5d 7a 23 bd 0a 69 a8 bd
       0.0065172906 -0.006191463 -0.039911617 -0.082231596
000290 ec b5 8f bd c6 75 43 bd ad d9 50 3d 4d 9b da bb
       -0.07017121 -0.04771974 0.05098884 -0.0066713453
0002a0 0a 44 59 3d f4 5b 4d 3d d3 3a 92 3d d1 94 e9 bd
       0.053043403 0.05013652 0.07140126 -0.114053376
0002b0 49 50 ea 3b aa 66 ec 3c 57 ff 98 3c 41 89 82 3c
       0.007150684 0.028857548 0.018676443 0.015934588
0002c0 2b d7 13 bd cc 94 83 3b 7a 48 21 3c 55 24 e9 bc
       -0.036093872 0.0040155407 0.00984394 -0.028459707
0002d0 02 e8 81 3d f0 73 62 3d e2 26 e4 3c 54 f2 26 3d
       0.0634308 0.055286348 0.027850572 0.040758446
0002e0 09 75 24 be 23 71 43 bd ba 3f 8a 3d b5 ee a9 bc
       -0.1606027 -0.047715317 0.06750436 -0.020743707
0002f0 5f 6f 28 bd 47 93 c0 bc f8 74 38 3b 32 ec 01 3e
       -0.041121837 -0.023507727 0.002814589 0.12687758
000300 8c a7 eb bd 23 df 14 3d f1 f4 b4 3d 10 3b d1 bd
       -0.115065664 0.036345612 0.08835781 -0.102163434
000310 0f 4a 9d 3d ba ce db 3c 43 76 aa 3c 02 03 69 3c
       0.07680141 0.026831973 0.020808345 0.0142219085
000320 1e 06 91 bd af 35 0e 3d ec 1a d2 3d 34 fb dc 3d
       -0.07081245 0.034719165 0.10259041 0.10790101
000330 77 8a 3f bd 87 cc 44 bc 08 75 5a bc ea b2 8d 3c
       -0.04676291 -0.012011654 -0.0133335665 0.017297227
000340 bd e6 01 bb b3 4a 3a bd ab 1a 90 3b 72 b2 4e 3d
       -0.0019821369 -0.045481395 0.0043977103 0.050463147
000350 d1 d4 11 bc bb 07 51 3c 29 51 1e 3d 9a 82 cd bd
       -0.008900837 0.012758191 0.03865162 -0.10034676
000360 0a 7e 0f bd 10 c6 c5 bd d5 9f a4 bd 63 97 86 bc
       -0.03503231 -0.09656918 -0.08038298 -0.016429609
000370 35 4d 42 3d 9a 73 f9 bb cd 0f 11 3d ad 8e bf 3c
       0.04743691 -0.0076126577 0.03541546 0.023383463
000380 4f 62 80 3d dc f0 65 bd 72 3d 94 3d 1e 5a 41 3c
       0.06268751 -0.056137905 0.07238282 0.011801271
000390 60 4d 1c 3d a2 85 43 bd 64 7f 84 3d 95 4c 59 3d
       0.038159728 -0.047734864 0.0646961 0.05305155
0003a0 20 69 e4 3c 98 ef 7c bd d6 c2 e9 ba 42 0a 19 bc
       0.027882159 -0.061751932 -0.0017834555 -0.009340825
0003b0 8a 49 91 3b 84 64 9f bd b4 f6 11 3d 4e cd ae 3c
       0.0044338154 -0.07782844 0.035635665 0.021338131
0003c0 fc cc 98 bd 2a 00 33 3c 7a da 2a 3d 4b 44 a1 bc
       -0.07460973 0.010925332 0.04171226 -0.019685885
0003d0 26 65 7e 3c 08 55 b7 3d 50 d1 c8 3d 05 ae 80 3c
       0.015527045 0.08951765 0.09805548 0.015707979
0003e0 3a af 85 bb 88 18 83 bd 70 58 6c bc 38 65 b7 bd
       -0.0040797265 -0.06401163 -0.014425382 -0.08954853
0003f0 dc f3 ba 3d 4a 92 d7 3c c3 18 b5 bd d8 33 42 bd
       0.09128544 0.026314873 -0.088426135 -0.047412723

conv1.bias f4 [64]
000000 01 30 ce 3b e2 3c fa 3a 3b 7b 2e 38 a1 0b 37 3b
       0.0062923436 0.0019091631 4.15996e-05 0.0027930515
000010 9f bc 4c bb 7f 9f 0e 3b d1 ad d2 3a f2 24 14 3c
       -0.0031240357 0.0021762548 0.001607353 0.009042012
000020 9e 96 a6 3b 6c 48 60 3c f5 1e 94 bb e2 b5 20 37
       0.005083873 0.013689142 -0.004520292 9.579091e-06
000030 f7 ce a8 bb a7 a4 56 bb 5c 62 75 bb 61 5f 7a ba
       -0.0051516253 -0.003275195 -0.003744266 -0.0009550956
000040 8c 06 41 3b 3c 79 bf 3a 16 1a b3 3b 89 d4 ba 3b
       0.0029453365 0.0014608274 0.005465756 0.0057016057
000050 50 df ce 3b cf 2a 17 b9 b3 76 e9 bb 7e 55 23 3b
       0.006313242 -0.0001441643 -0.0071247458 0.0024922783
000060 1e 84 04 3c fd 77 d3 3b 29 6e 03 bc 02 96 8b 3a
       0.00808814 0.0064535127 -0.00802187 0.0010649564
000070 44 62 ef ba 07 7f 21 3b 9e 5d 05 3b ec 9a 39 3a
       -0.0018263538 0.0024642365 0.002034999 0.0007080275
000080 d6 91 00 3c 4a e3 01 bc 70 0a a2 3b ff b2 0b bb
       0.00784727 -0.007927725 0.004945092 -0.0021316407
000090 fe f2 f1 bb e3 a9 f1 bb fa 0c 4f bb 92 f6 05 bc
       -0.0073837033 -0.0073749884 -0.0031593428 -0.008176463
0000a0 fa 7f e8 3b ad 93 f5 ba 8e a0 07 3c 03 58 29 bb
       0.007095334 -0.0018736027 0.008278025 -0.0025839813
0000b0 5a d6 7a 3b 44 7d 8e 3a d5 95 24 bc 36 a8 ce ba
       0.0038274736 0.0010871072 -0.010045488 -0.0015766684
0000c0 70 d7 a2 3b ac ec 51 3a d0 36 31 bb ef 1e 93 3b
       0.00496953 0.0008007984 -0.0027040727 0.0044897716
0000d0 54 81 88 3a 30 95 ac bb bc 22 41 bb 3b 7d c1 3b
       0.0010414519 -0.005266808 -0.0029470166 0.005904821
0000e0 e2 0f 31 3b af ef 30 bb 49 10 d0 3b d6 4f d8 3b
       0.0027017524 -0.0026998331 0.0063495976 0.006601314
0000f0 e7 f6 02 bb 6d a4 28 3c 97 e3 16 bc 24 6f 02 bc
       -0.001998359 0.010293108 -0.009209535 -0.007961068

conv2.weight f4 [64, 64, 3, 3]
000000 b4 a2 44 bd 30 f6 29 bd 22 5c b6 3a 8d f0 4c 3d
       -0.04800673 -0.04149455 0.0013912956 0.050034095
000010 5b 16 37 bd 04 88 af bd 65 f5 a0 3d cd f4 18 bd
       -0.044699054 -0.08570865 0.07859305 -0.037342835
000020 d7 c2 70 3d 41 d1 c9 39 7c 4d 2e bd 54 2b a1 bd
       0.058779564 0.00038493614 -0.042554364 -0.07869592
000030 d2 30 2a 3c b7 fe e1 bc d7 f0 82 bc a8 e3 9b bd
       0.010387616 -0.027587278 -0.015983982 -0.07611781
000040 b1 bb 0b bd 4d 34 a7 3d 1c e3 24 3c ba 1e a5 bd
       -0.034114543 0.081642725 0.010063913 -0.08062501
000050 26 68 1f bd 92 d0 1b bb 20 41 1a bd 80 5d 75 bd
       -0.038917683 -0.002377544 -0.037659764 -0.05990362
000060 27 d5 88 bc 5b da 5d bd db 73 d2 3c f5 0a 76 bd
       -0.016703201 -0.054163318 0.02569001 -0.060069043
000070 80 f5 a3 3c 54 53 1d bd 31 74 f1 3a e1 3f 54 3c
       0.020014524 -0.038409546 0.0018421469 0.012954683
000080 4c 40 00 3b 43 af 2d bc 22 d2 84 bc 97 b5 2c 3d
       0.0019569574 -0.010600868 -0.01621348 0.042165365
000090 cc 4b 8d bd b0 d4 9a bd f2 d9 75 bd 6f 82 4a bc
       -0.06899223 -0.07560098 -0.060022302 -0.012360199
0000a0 ce 9b 5f bd a1 a7 b2 bd ff 64 57 3c f1 0d fc 3a
       -0.054591946 -0.08723379 0.013146638 0.0019230229
0000b0 37 ea 4a 3d c2 df 99 bc f6 bb 72 bc 70 09 61 3d
       0.04953977 -0.018783454 -0.014815321 0.05494064
0000c0 78 53 0d bd 4f 74 34 bc 87 ff 23 bd 1c 50 ac bc
       -0.03450343 -0.011014058 -0.04003861 -0.021034293
0000d0 b2 55 c6 bc 4d 53 1e bd 24 ff 66 bc 3b ce 26 bd
       -0.024210785 -0.03865366 -0.014098916 -0.04072402
0000e0 8b 79 33 3d b3 85 b7 ba 93 6a af 3c 5d 78 1a bd
       0.043817084 -0.0014001637 0.021413123 -0.037712444
0000f0 57 e9 a1 bc 62 3e 24 3d 8e 03 dd bb 4b 03 06 3d
       -0.019764585 0.040098555 -0.0067448085 0.032717984
000100 34 fa c6 3c 8f bd e1 bc 05 26 d8 bc a4 76 08 bb
       0.024289228 -0.027556209 -0.026385317 -0.0020822668
000110 eb 49 27 3d e9 11 67 3d 43 6d 74 bd 51 38 04 bb
       0.040841978 0.056413565 -0.059674513 -0.0020175169
000120 d8 32 3a bd 40 33 38 bd ba 57 7a 3d cb 90 d2 3d
       -0.045458645 -0.04497075 0.06111882 0.10281523
000130 37 15 0f bd 06 55 d2 bc 33 6a 51 3d c0 c2 83 3c
       -0.03493234 -0.025675308 0.05112667 0.016084075
000140 c4 51 64 bb 26 55 7f 3c d3 3f 40 3d 98 f3 92 37
       -0.0034838775 0.015584266 0.046935868 1.7517988e-05
000150 75 2a 30 bd c5 f9 b3 3c 32 18 aa 3c 23 4e 25 bd
       -0.04300924 0.021969685 0.02076349 -0.04035772
000160 e3 b3 36 3c 6d 4d 88 bc 77 72 d9 3c 62 f8 e2 bd
       0.011151287 -0.016638482 0.026543839 -0.110825315
000170 cc 3a b5 bc a4 2e 10 bd 08 7a 91 bc e8 9f a4 3c
       -0.022122763 -0.03520073 -0.017758384 0.02009578
000180 15 f9 50 3c 09 35 50 3b ac 33 86 3c 55 15 83 bd
       0.012754698 0.0031769893 0.016382061 -0.06400553
000190 4d b4 c8 bc 7d 9d 80 bd 87 2d 30 3d 3c 0a 98 bc
       -0.024500037 -0.062800385 0.04301217 -0.018559568
0001a0 5d 8d 30 3c bb 5e 08 bd fb 7f 80 3d 96 c2 7a 3c
       0.010775891 -0.033293467 0.0627441 0.015305182
0001b0 87 d8 b6 3d 98 da 92 bd ef 95 86 bc e4 08 93 3d
       0.08928018 -0.071706 -0.016428916 0.0717943
0001c0 66 4b a5 bd b8 0f 3a bc 6a 87 6e bd d0 d4 a4 bb
       -0.08071022 -0.011356287 -0.05823461 -0.005030252
0001d0 c6 d6 a5 bc e8 42 ea 3b 6c a1 5a 3d e6 1b d0 bc
       -0.020244014 0.007149089 0.0533766 -0.025403928
0001e0 dd 02 5c 3d 1e 4c b4 bb bc 9c 9a 3d 61 d6 09 3d
       0.05371367 -0.005502238 0.07549426 0.033651713
0001f0 63 0d 4d bd 75 3a 0c bd 96 b4 90 3c 1e a8 51 bd
       -0.050061595 -0.034235436 0.017664235 -0.05118572
000200 6c 67 9b bc 93 c0 31 3d 1c 94 46 3c 95 12 b0 bd
       -0.018970214 0.043396544 0.012120273 -0.08597294
000210 74 78 c3 bd fc ad 14 bc 96 48 8d bd 31 8f 0e 3d
       -0.09544459 -0.009074684 -0.0689861 0.034804527
000220 18 53 a2 bd 71 9f c3 b8 60 2e 60 bd d9 79 e9 bc
       -0.07926005 -9.328023e-05 -0.054731727 -0.028500484
000230 3b ab 44 bd 0f f3 15 bd 67 51 ce bc 24 f4 5f 3c
       -0.04801486 -0.036608752 -0.0251853 0.0136690475
000240 98 f3 a4 3c 3c 98 8a bc be c7 a2 bd 55 1f 8f 3a
       0.020135686 -0.016918294 -0.07948254 0.0010919372
000250 8e f3 19 be 62 ea 19 be bf 0e c8 3c 95 a1 59 bd
       -0.15034315 -0.15030816 0.024421094 -0.053132612
000260 50 dc 56 bd a7 eb a4 bc e2 91 c0 3c 8f e7 8d bd
       -0.0524562 -0.020131899 0.023507062 -0.06928932
000270 93 a0 91 bd 5d c8 a8 3c 5f 40 ab bc e8 bb 08 3d
       -0.07110705 0.020603353 -0.020904718 0.033382326
000280 8b 0c a4 3d 13 39 c3 bc 0d ff 84 bc 96 e6 e8 39
       0.08010205 -0.023830926 -0.016234899 0.00044422288
000290 e6 33 df 3c a1 d9 65 3c 02 d7 f7 3c 9a 78 7e 3d
       0.027246427 0.014028938 0.03025389 0.062126733
0002a0 40 10 91 bc 11 db fc 3c fb 9e e2 bd 9b 31 91 bd
       -0.017707944 0.030866178 -0.11065479 -0.070895396
0002b0 85 54 f5 bc 19 49 e3 39 14 13 a3 3d 04 09 84 bd
       -0.029947529 0.00043351276 0.07962623 -0.06447032
0002c0 2a a7 15 bd 75 1f 27 bd c7 d6 d2 ba 0e 41 64 bd
       -0.036536373 -0.040801484 -0.0016085737 -0.055726103
0002d0 d1 df 8d 3d e5 81 fc bc 32 6e 20 bd 2d f2 01 3b
       0.06927455 -0.030823657 -0.03916759 0.0019828186
0002e0 78 44 f0 3b a9 d5 13 3d ee e8 a0 bd 1b a9 3b bd
       0.007332381 0.036092434 -0.07856928 -0.04581557
0002f0 9a 3e a0 3c d2 0c 9b 3c e1 04 13 bd 16 bc 3e bd
       0.0195611 0.018927012 -0.035893325 -0.04656609
000300 a7 62 77 bc 04 9c 41 bc fd 54 8c 3d bf 85 0c bd
       -0.015099204 -0.011816982 0.06852148 -0.034307238
000310 ab 04 55 bd 92 04 07 bd b0 20 68 bc ae 69 03 3c
       -0.052006405 -0.032963343 -0.01416795 0.0080208015
000320 61 20 a2 bc ce c8 6c bd 87 8f 55 3d b5 6f cb bc
       -0.01979083 -0.05780869 0.05213883 -0.02483354
000330 f5 5a 9d 3d ec a9 b0 bd f3 08 34 bd 7f 6c fc bb
       0.07683364 -0.0862616 -0.043953847 -0.0077033634
000340 1e 57 c0 bc fe bb b0 bb 0b 4e 91 3b ce e5 b1 3a
       -0.02347904 -0.005393504 0.0044343523 0.0013572515
000350 a9 b1 53 3c e9 28 8b 3c d9 ef a3 3c 5d df a1 bc
       0.012920775 0.01698728 0.02001183 -0.019759828
000360 1a 9e 40 3c 24 cc a3 bc 06 e3 db bb 4f cd 6c 3b
       0.011756444 -0.019994803 -0.006710413 0.0036133116
000370 d9 bc 40 3c 73 0f 0c bd 85 fd 25 bd 12 f3 1d bc
       0.011763775 -0.03419442 -0.04052498 -0.009640472
000380 bc e7 14 bd 56 1b e4 bd 3b 23 82 bd c7 17 fa 3b
       -0.03635381 -0.111380264 -0.06354376 0.007632229
000390 36 98 42 bb 27 51 e8 3c b1 40 50 bd 9b 28 bb 3c
       -0.0029692776 0.028359009 -0.050842945 0.02284651
0003a0 9b 1b 8a 3c 39 a5 2e 3d 79 a1 9c bc a0 50 f7 3c
       0.016858866 0.042638037 -0.019119965 0.030189812
0003b0 60 03 a1 bb 98 f8 95 bc 2d 26 fd 3a bf df 1b bc
       -0.0049137324 -0.018307015 0.0019313745 -0.009513794
0003c0 fa 4e 2b 3d 0d ec 64 3d b8 af 0b bd 92 9b 8f 3d
       0.041823365 0.055889178 -0.034103125 0.070120946
0003d0 49 5f 00 bc c7 fd 3c bd 2c 35 8b 3d 0d ed 23 3b
       -0.007835218 -0.04614046 0.06797251 0.002501312
0003e0 2c 70 d2 bd 4d 48 5c 3c 13 98 9f bc e8 e6 59 3d
       -0.10275301 0.013444972 -0.019481694 0.053198725
0003f0 75 e4 de 3a 6d 3a 73 bb d5 80 93 bc aa ac 29 3c
       0.0017005341 -0.0037113682 -0.018005768 0.010356108

conv2.bias f4 [64]
000000 3b 66 26 3b 3b 31 67 ba 06 4c 05 3b 7f b7 ef b9
       0.0025390524 -0.00088192866 0.0020339503 -0.00045722348
000010 69 f7 99 3b b3 31 3d bb 3f 11 42 3b 5e 9e 3a bb
       0.004698683 -0.0028868734 0.002961233 -0.0028475742
000020 e2 d2 67 3a 7b 26 f9 ba 69 39 7b bb 1a f3 47 39
       0.00088433747 -0.001900866 -0.003833378 0.00019068681
000030 b0 7d 0a 3b e3 80 20 3b fc 31 32 3b 5c 11 ca 3a
       0.0021132044 0.0024490885 0.0027190438 0.001541655
000040 36 0d 0b bb 53 6f c7 b9 7d f6 67 bb 70 58 14 bc
       -0.002121759 -0.0003803918 -0.0035394721 -0.009054288
000050 e6 de 92 bb d3 9e 67 bb 54 aa 2e bb 35 24 f1 ba
       -0.004482138 -0.003534247 -0.0026651816 -0.0018397631
000060 96 22 2e bb 80 78 85 bb d4 e1 2c 3b a1 20 17 39
       -0.0026570908 -0.0040732026 0.0026379721 0.00014412637
000070 d1 4c 00 bb df 0d 5a 3a 45 9c df ba 9b 09 e7 3a
       -0.0019577036 0.0008318107 -0.0017060122 0.0017626764
000080 6c 07 3c bb ee d0 a5 39 d6 ff b9 bb 05 55 13 bb
       -0.0028690947 0.00031626917 -0.00567625 -0.0022481096
000090 0a 01 c0 3b 95 80 95 bb 1d 12 15 bb ed 48 3d 3a
       0.005859499 -0.0045624473 -0.0022746392 0.00072206446
0000a0 6d 27 02 ba 7c 6d b7 ba 6c 9b 58 3b c8 6f ab 3b
       -0.00049649813 -0.0013994421 0.0033051623 0.005231831
0000b0 68 59 25 3a 1b d5 86 ba 67 13 66 bb 0e b2 24 3b
       0.0006307573 -0.0010286899 -0.003510678 0.0025130543
0000c0 17 c7 95 bb d2 81 99 3b fa 01 88 bb a7 88 a4 3a
       -0.0045708525 0.0046846652 -0.0041506262 0.0012552933
0000d0 1d 86 ac 3a 5f fd 14 bb a5 17 77 bb 3f 74 15 bb
       0.0013162527 -0.0022734029 -0.0037703302 -0.0022804884
0000e0 77 c4 79 bb 2d 68 e9 ba db 6f 03 ba 74 a1 52 bb
       -0.0038111487 -0.0017807536 -0.0005013921 -0.003213969
0000f0 7a a7 98 3a 76 fa 46 3b b5 29 ee b9 96 1a 6b bb
       0.0011646592 0.0030361689 -0.00045425972 -0.0035874

conv3.weight f4 [64, 64, 3, 3]
000000 e6 3b 67 bd ae 83 35 bc 73 12 b7 bc ef 6a 32 3c
       -0.056453608 -0.011078758 -0.022347664 0.010889753
000010 ed ad 3d 3c c9 e2 58 3d a9 a2 56 3c 0d 2e 1f 3a
       0.011577112 0.052950654 0.013100305 0.0006072231
000020 bd f4 96 3c 88 ce 8d bd ce 2e ac 3c 0b 0a 1b bd
       0.018427247 -0.06924158 0.021018412 -0.037851375
000030 b3 06 5e 3c dc 3d 4e bc ec d0 ae 3b ca ad 4e 3d
       0.013551402 -0.012587991 0.005334964 0.050458707
000040 55 11 43 3c 31 ee 15 bc 1d 25 59 3c 75 a7 29 3d
       0.011905988 -0.009151028 0.013253477 0.041419465
000050 5f 5f fb bc 71 e6 62 3c fd 39 b3 bc c5 3c 79 bc
       -0.030685125 0.013848887 -0.021878237 -0.0152122425
000060 46 07 98 3d ee c6 5f 3c 8f 0d 12 3c f2 0b 25 bd
       0.07423262 0.013658268 0.008914365 -0.040294595
000070 0f 60 79 3d 67 02 0f bd 9e 84 4f 3d bb c7 1c bd
       0.060882624 -0.0349144 0.050663583 -0.038276415
000080 d5 f7 ea bc 42 45 b1 bd 64 f0 bd 3c d3 58 34 bd
       -0.028682629 -0.08655788 0.023185916 -0.044030022
000090 00 92 9f 3d e1 6b 07 3d 32 26 13 3c 7a 69 a0 bb
       0.07791519 0.033061866 0.008981274 -0.0048953863
0000a0 aa 66 65 3d 94 ab ef bc 0f 42 6e 3c 42 dc 19 bd
       0.05600611 -0.02925662 0.014542117 -0.03756357
0000b0 61 09 c1 bc a6 a6 df 3c 4d 9f b9 bd 62 54 77 bd
       -0.023564043 0.027301144 -0.09063587 -0.060383208
0000c0 a3 b3 3c 3c 70 6b b7 3c fc bc f6 bc 88 a2 95 b9
       0.011517438 0.022390097 -0.030119412 -0.0002854059
0000d0 2b 3a 00 bd 88 01 a1 bd 9d 69 0b 3d 8c 9e 5d 3d
       -0.031305473 -0.0786162 0.034036268 0.05410628
0000e0 4e 76 bc 3c ef ad 71 bc d4 03 8c 3d 4d 33 52 3d
       0.02300563 -0.014750942 0.06836668 0.051318455
0000f0 75 2c 8e bc a0 7c 19 bd d3 06 f8 bc cc c1 28 3d
       -0.017355183 -0.037472367 -0.030276692 0.041200444
000100 31 6b e2 bc 78 98 d1 3c 50 fe 27 3c 88 b6 4f bd
       -0.027639003 0.025585398 0.010253504 -0.050711185
000110 22 09 a3 bc e8 32 b5 3d bb b2 a6 bc 29 e0 bb bc
       -0.019901816 0.088476 -0.020348897 -0.022934036
000120 6a 1a c1 3c ee ae 32 bc e3 63 20 3d d5 37 c2 bc
       0.023572166 -0.010905964 0.03915776 -0.023708263
000130 45 b2 66 bc 95 0b 5e 3d 2f 52 15 3d 76 9b 4c 3c
       -0.014080589 0.054210264 0.03645533 0.012488237
000140 82 16 8a 3c 3f 5e 55 3c 9b 4f ec 3b 71 86 a3 3d
       0.016856436 0.013022958 0.007211638 0.07984627
000150 0c e7 a5 3c 7a c8 28 3d 8a b3 9e ba ec b1 f9 3b
       0.020251773 0.041206814 -0.001210795 0.007620087
000160 63 4c c3 bc e6 2b cf bd cf 63 9d bc 74 96 19 3d
       -0.023840135 -0.10115795 -0.019212632 0.037497
000170 7f 1c 8c bc 05 79 a8 3d 0a 86 96 3b 40 30 a4 3c
       -0.017103432 0.08226208 0.0045936154 0.020042539
000180 34 46 f1 3c 4f 7a 58 3a be ae 53 3c 22 0e 27 bd
       0.02945242 0.00082579715 0.01292008 -0.040784962
000190 41 ee 4c 3d d0 ad a2 3d 8f e9 e8 3c 5c ef 31 bc
       0.050031904 0.07943308 0.028431682 -0.01086029
0001a0 26 6a 9e bd 21 7f 1e bd a2 bc c4 bb cd f7 e3 bc
       -0.0773509 -0.03869546 -0.006003932 -0.027828122
0001b0 5d 4f f2 bc 7e a2 d2 3c f0 39 60 3d aa 89 07 bd
       -0.029578859 0.025712248 0.054742754 -0.03309027
0001c0 2b 14 08 3c 68 f7 3f bd a8 da ae bb 36 ec a7 3d
       0.00830559 -0.046866804 -0.0053361244 0.081993505
0001d0 11 59 7d 3c 6c c9 ae 3d 66 6c 5a bc 94 5a 3c bd
       0.01546313 0.08534512 -0.013331508 -0.04598482
0001e0 d3 b3 95 ba f8 e6 b8 3c 4c 4e be bd bb 6c da 3c
       -0.001142139 0.022571072 -0.09292278 0.026663175
0001f0 71 58 96 3d 9c e8 0f bd 3c 4a 96 bc b0 1f bf 3a
       0.073410876 -0.035133943 -0.018345945 0.0014581587
000200 13 f2 88 3c 75 b8 f1 bc c0 d3 25 bb 85 89 90 3c
       0.016716992 -0.029506901 -0.0025303215 0.0176437
000210 b3 a3 dd bc 3f 7d 9e 3c 0f 77 16 3d 9f 6e a6 3c
       -0.027055597 0.019346831 0.036734637 0.02031642
000220 c4 57 4d 3b e2 c9 df 3c a6 17 23 3d 55 18 db 3a
       0.003133283 0.027317945 0.039817475 0.0016715626
000230 18 76 bc 3b c5 c9 1f 3c ed ef 43 3d f8 d2 53 bd
       0.0057513826 0.009752695 0.047836233 -0.051714867
000240 ba 56 85 bd cd 1d 7c 3d cc ce ba 3c 94 f7 aa 3c
       -0.065106824 0.061551858 0.022803687 0.020870008
000250 9a e8 94 bd 65 1f b9 3b 2f 01 6f bd 3c d7 da bc
       -0.07270928 0.0056494945 -0.05835074 -0.02671396
000260 a0 43 c3 bc 6c 2b ca bc 71 1c ed bc bd d9 a7 bc
       -0.023835957 -0.024678908 -0.028944226 -0.020489568
000270 7c ca ee bc 7c 9f 94 b9 d1 4a b1 3c 97 8b 1f 3d
       -0.029149286 -0.00028347585 0.02164212 0.038951483
000280 ee 48 f1 bb f2 93 ab bc 59 ca 24 3c ca 8c ac 3c
       -0.00736343 -0.02094457 0.010058009 0.021063227
000290 a3 b9 8a 3c 88 7b 5c bc 11 cc 41 3d 21 1e 9f 3d
       0.016934222 -0.0134571865 0.047313754 0.077694185
0002a0 60 54 bb 3d 9c 93 3f bc c0 05 9c ba 4e 82 5c 3b
       0.09146953 -0.011692908 -0.0011903569 0.0033647004
0002b0 6f a2 d4 3a 56 5b 56 3d 6f a5 bc bc 9c 08 e4 3c
       0.0016222725 0.0523332 -0.023028104 0.027836137
0002c0 83 b2 94 bb 7a fd 79 bc f8 c2 94 bd 78 20 c6 3c
       -0.004537882 -0.015258187 -0.0726375 0.024185404
0002d0 3d 6d 9f 3c fd 8c 8e 3c 6b bc 36 bd 6b c8 2b bd
       0.019461269 0.017401213 -0.044613283 -0.04193918
0002e0 d5 0b 79 bd 3d 80 43 3c be ab 00 bd 2e 3a a0 3c
       -0.0608023 0.01193243 -0.031413786 0.019558992
0002f0 c2 21 17 3d f7 71 98 3d 8b f3 88 bb 13 d9 41 bc
       0.03689743 0.07443612 -0.004179423 -0.01183154
000300 68 6c ae 3b 1a 98 ab bc 83 55 2a bb ea 0f 75 3c
       0.0053229816 -0.020946551 -0.002599091 0.0149574075
000310 3c 8f 17 3b 66 76 0e 3c 96 33 60 bd 37 3c 25 3d
       0.0023126146 0.008695221 -0.054736696 0.04034063
000320 51 5d c5 bc 13 94 92 3b 0e 3b bb bc 92 dd 18 3d
       -0.024092348 0.004473218 -0.022855308 0.03732068
000330 0b c9 3b bb 39 b9 89 3c a4 29 72 bc ae 14 93 bc
       -0.0028653766 0.016811954 -0.014780436 -0.017954197
000340 bb e7 36 bd 55 5d b7 3c bb 6c 8d bb f1 cf 0c bc
       -0.04465459 0.022383371 -0.00431594 -0.008594499
000350 d0 70 e2 bc 19 fd fd bc 52 d5 07 3d 91 66 2a bd
       -0.027641684 -0.031004475 0.033162422 -0.04160172
000360 81 f5 96 bc 01 a3 ce 3d e1 fc 11 ba 76 f0 9d 3c
       -0.018427612 0.10089684 -0.0005568993 0.0192797
000370 dd e6 08 bd 9b 3f 94 ba 83 ef 35 bc dc 13 25 3c
       -0.033423293 -0.001131046 -0.011104467 0.010075536
000380 9a a8 36 bd c8 0c 3f 3c 67 0f af bc 74 2e 45 3d
       -0.044594385 0.011660762 -0.02136965 0.048140004
000390 d4 4e 8e 3d 6d 57 e6 bc ef c1 30 3d ab b7 b5 3c
       0.06948629 -0.02811786 0.0431537 0.022182306
0003a0 65 cf 1c bd bd 8f e1 3c 6e a2 95 bd ac 22 63 3c
       -0.038283724 0.02753436 -0.07306372 0.013863247
0003b0 76 f2 80 3d 85 3c ab 3c 02 ef 10 3c c5 a4 99 bc
       0.06296246 0.020902881 0.008846046 -0.018755326
0003c0 29 e1 d2 bd 94 0f bd bc 56 a9 b0 3d 01 be 43 3c
       -0.10296852 -0.023078717 0.08626048 0.011947156
0003d0 fa b6 bb bc 4a f3 8d 3d c2 b0 6e bc b9 fc 1f bd
       -0.022914398 0.06931169 -0.0145685095 -0.039059374
0003e0 82 bc 4f 3d f9 2a 05 bd c1 7b 6d bd 28 4a 05 bc
       0.050716884 -0.032511685 -0.05797935 -0.008135356
0003f0 be 5f 8d 3c 78 7d 8a 3a 2b 52 ee 3c 30 81 a7 bc
       0.017257567 0.0010565957 0.029091915 -0.020447344

conv3.bias f4 [64]
000000 ad 4b 1b 3c ff f7 b1 3b 04 5f 83 bc cb 01 8d 3c
       0.009478492 0.0054311748 -0.016036518 0.017212769
000010 77 32 21 bc 97 cb 87 bc c0 da 85 3c be 47 a1 3c
       -0.009838692 -0.016576571 0.01633966 0.01968753
000020 d2 6b 8b 3c 1b 1e 1f 3c be fb 8a 3c d8 1f 96 3c
       0.017019186 0.009711768 0.016965743 0.018325731
000030 ff 83 4b 3c da f9 60 bc f9 38 8d 3c e8 b5 7a 3c
       0.012421607 -0.013731444 0.01723908 0.015302159
000040 b8 44 11 ba 62 9e 88 bb bb 2c 1e b9 5c 6f 88 3c
       -0.0005541551 -0.0041692713 -0.00015084718 0.016654663
000050 9f 46 9b 3c 86 b7 7d bc 6f cb 2b bc aa 9c 3e 3c
       0.018954573 -0.01548565 -0.010485514 0.011634031
000060 49 bd 85 3c 83 a4 43 bc 2f 89 98 ba 3a 78 4c 3c
       0.01632561 -0.011941078 -0.0011637564 0.012479836
000070 5f 67 8f 3c 7a ab 38 3c fb c2 8a ba f2 c6 90 3c
       0.017505346 0.011271352 -0.0010586673 0.01767299
000080 3b eb 92 3c 1e c6 6e 3c 03 42 77 3c d6 ed 59 3c
       0.017934432 0.014573602 0.015091422 0.013301333
000090 d8 3a 84 bc 5f 34 d2 bb d5 a9 8d 3c 77 f3 7d 3c
       -0.01614134 -0.0064149345 0.017292896 0.015499941
0000a0 29 c6 16 bc dd 65 2f bc ad 27 9f 3c 18 0c 80 39
       -0.0092025185 -0.010705438 0.019428099 0.00024423073
0000b0 62 57 fa bb bc 6f 64 bc c3 b3 27 bc ab 9c 9d 3c
       -0.0076398114 -0.013942655 -0.01023573 0.019239744
0000c0 51 ad 33 3c f1 a7 a5 3b 3f 26 56 bb da b2 91 bc
       0.010966615 0.0050554206 -0.0032676605 -0.017785478
0000d0 e5 49 a1 ba 7a e2 97 3c 29 eb ce bb 4b 72 94 3c
       -0.0012305347 0.01854061 -0.0063146544 0.018120905
0000e0 58 2a d3 b9 5b 3d 47 bc c5 44 c1 3b 9f 22 9e 3c
       -0.00040276605 -0.012160624 0.0058980905 0.019303618
0000f0 54 ef 81 3c 48 4b 52 bc 2e a1 9f 3c c0 cf 13 3c
       0.01586119 -0.012835331 0.019486036 0.009021699

bn1.weight f4 [64]
000000 3f 10 81 3f ea 59 82 3f e4 c1 7d 3f 7f 1d 7d 3f
       1.0083083 1.018369 0.9912398 0.9887313
000010 f8 12 81 3f 44 5e 7d 3f 26 24 7c 3f d4 88 81 3f
       1.0083914 0.9897196 0.9849266 1.0119882
000020 fd 2a 7d 3f c5 33 7d 3f ad 56 81 3f f4 e7 81 3f
       0.9889372 0.9890712 1.0104576 1.0148911
000030 da e3 7e 3f 25 0f 7f 3f ba ef 7e 3f 24 af 7b 3f
       0.99566424 0.99632484 0.99584544 0.9831412
000040 66 41 81 3f c1 0a 80 3f 1a 46 82 3f a5 28 7e 3f
       1.0098083 1.0003282 1.0177643 0.9928077
000050 cb 53 7c 3f dc 4c 82 3f 8d d1 7d 3f 3c c9 7f 3f
       0.9856536 1.0179706 0.99147874 0.99916434
000060 7b f0 80 3f b5 c2 81 3f 5a b9 7e 3f 3b bf 7f 3f
       1.0073389 1.0137545 0.99501574 0.9990117
000070 a9 72 81 3f 1c d2 7f 3f a5 91 80 3f fc dc 80 3f
       1.0113117 0.99929976 1.0044447 1.0067439
000080 c7 06 80 3f c1 98 7c 3f ee bb 7c 3f 0e 47 7c 3f
       1.0002068 0.98670584 0.9872426 0.9854592
000090 3f ca 81 3f ae 6c 7e 3f 2e 55 7e 3f 63 78 80 3f
       1.0139846 0.9938458 0.99348724 1.0036739
0000a0 df 8c 81 3f 8d e6 7e 3f 91 7d 81 3f b8 56 7e 3f
       1.0121115 0.9957054 1.0116445 0.9935107
0000b0 0d 78 7e 3f 3c 6c 81 3f ca 17 81 3f 8b f4 7e 3f
       0.9940193 1.0111156 1.0085385 0.9959189
0000c0 de ae 7d 3f 5b 2e 80 3f fc ff 81 3f 13 b3 7e 3f
       0.9909495 1.0014147 1.0156245 0.99491996
0000d0 f6 b4 7f 3f 87 c7 81 3f ba 27 82 3f 44 12 81 3f
       0.998855 1.0139016 1.0168374 1.0083699
0000e0 90 c8 7c 3f 9c 0c 80 3f b9 29 7f 3f ca 92 81 3f
       0.98743534 1.0003848 0.9967304 1.0122921
0000f0 6a 19 80 3f 5c 5e 7e 3f 6a 3e 7c 3f 31 ff 80 3f
       1.0007756 0.9936273 0.98532736 1.0077878

bn1.bias f4 [64]
000000 2e c4 bc 3b c5 c6 10 bc d5 1d cf 3a 4f 15 4c bc
       0.005760691 -0.008836453 0.0015801737 -0.012456252
000010 90 c5 95 bc fc 8c 64 3c 81 bf 08 3c 70 18 58 3c
       -0.018282682 0.013949629 0.008346439 0.01318942
000020 d9 fa 31 bc 35 55 3b bc 01 c8 8a 3a 5a 95 45 3c
       -0.010863029 -0.011433889 0.001058817 0.012059534
000030 d7 af 7f ba df 5f b1 3a 87 76 5b 3c 1f 27 11 bc
       -0.000975368 0.00135326 0.013394958 -0.008859425
000040 d3 25 70 3c cd 6f 1d b9 90 63 4e 3b 21 87 d9 ba
       0.0146574555 -0.00015014336 0.003149245 -0.0016596058
000050 2c 37 35 3b 8a 96 96 bc 6c 64 34 bc 31 07 85 ba
       0.0027651293 -0.01838233 -0.011010271 -0.0010149238
000060 1b 6b 84 3b 17 3f 0c bc 30 b7 26 bb 0b e2 58 bc
       0.0040410883 -0.008559964 -0.0025438778 -0.013237487
000070 2f ef 8c 3b 05 d5 92 bc 41 1a 9c ba d4 38 0b 3c
       0.004300974 -0.017923841 -0.001190968 0.008497436
000080 a7 47 6d 3c 06 24 87 bc 8f c4 f0 3a 41 02 0e bc
       0.014482415 -0.01649667 0.0018369126 -0.00866753
000090 e7 da 6d bc c0 64 d1 ba a5 b8 92 3b f6 d9 4d 3c
       -0.014517522 -0.001597546 0.0044775777 0.012564173
0000a0 60 c7 7f 3c 88 f1 62 bc 5b ca 14 3c 95 2a 88 3a
       0.0156115 -0.013851531 0.009081448 0.0010388667
0000b0 3b 11 2e bc 6d 12 4c 3c 45 3f 7d ba a4 6c a4 bb
       -0.010624225 0.012455565 -0.0009660612 -0.005017834
0000c0 14 f0 14 bc b7 39 63 bc d4 97 12 3b 3f 0b 23 3c
       -0.009090442 -0.013868741 0.0022368329 0.009951412
0000d0 56 fc 8f 3b 96 c0 91 bb 0f a1 51 3c cb f0 8a bc
       0.0043940945 -0.004448007 0.012794747 -0.016960522
0000e0 1b f4 7e 3c 8b 0a 58 bc 1e d6 95 3c 92 ee 6e 3c
       0.015561129 -0.013186107 0.018290576 0.014583247
0000f0 15 de 14 3c de 3b cb bb 3a 57 93 bc dd b2 89 bc
       0.009086152 -0.006202205 -0.017985929 -0.016808921

bn1.running_mean f4 [64]
000000 68 b4 94 bb 51 ee 80 ba f4 0a 47 3c 36 90 8f 3b
       -0.0045381077 -0.0009836649 0.0121486075 0.004381205
000010 fe 5d 90 bb 05 e0 6c 3c a3 cb 42 3c 26 7d 3a 3b
       -0.004405736 0.014457707 0.011889371 0.0028455942
000020 df 6b 0b b9 f2 e6 27 bb bc 06 ef bb 77 2e b2 bb
       -0.00013296258 -0.0025619832 -0.007294504 -0.005437668
000030 cc ae 12 3b 99 94 b0 ba 7d 8f a3 3b 4b 53 b8 bb
       0.002238202 -0.001347202 0.0049914704 -0.0056251637
000040 c5 0f 6e 3c ad 64 22 bc 97 01 df 3b ed 9a 2a 3c
       0.014530127 -0.009911698 0.0068056094 0.010412914
000050 25 8e e7 3b 65 af cf bb 8f d5 68 bc 1d 0d 87 3b
       0.0070665055 -0.0063380473 -0.014211073 0.0041214363
000060 23 4f 40 3c 98 01 a1 3a 95 10 b0 bb 75 76 cc b9
       0.011737618 0.00122838 -0.0053730705 -0.0003899817
000070 0e 5d 34 bc 7f 63 04 bc a9 31 75 bb 56 8f 39 3b
       -0.011008514 -0.008080362 -0.0037413633 0.0028314195
000080 75 33 d0 3c 92 ef 8a bc 32 41 8a 3c d6 e4 4e bc
       0.025415162 -0.01695994 0.01687679 -0.012627801
000090 0a 50 e8 bb dc b4 0a 3b 0b 39 ac bb b2 64 59 3c
       -0.0070896195 0.002116493 -0.0052558235 0.013268637
0000a0 f1 ec 88 3c db 44 dc ba cc 20 1c 3b 5d 6c 92 bc
       0.016714545 -0.0016805188 0.002382326 -0.017873937
0000b0 11 7b d9 bb a4 d5 43 bc ec 94 b1 bc 02 c6 87 bc
       -0.006636985 -0.011952791 -0.021677457 -0.01657391
0000c0 5f 25 23 3c 70 93 9f ba 83 70 bd bb f7 42 a7 3b
       0.00995764 -0.0012174677 -0.0057812347 0.0051044184
0000d0 7c 13 fc bb 9e a3 e7 bb 7b 4b a2 bc fb 8e ed 3b
       -0.0076927524 -0.0070690652 -0.019811383 0.0072497106
0000e0 50 f5 c2 3c 41 e1 1d bc 22 7a 7a 3c e5 25 28 3b
       0.023798615 -0.009636224 0.015287908 0.0025657353
0000f0 e8 84 02 3c 98 1d 7e 3c af a9 1c bc 9b 5c 6e bc
       0.007966258 0.015509985 -0.00956194 -0.014548446

bn1.running_var f4 [64]
000000 31 48 2b 3d 35 3a 00 3d aa 47 0e 3d d0 5f 48 3d
       0.041816894 0.03130551 0.034736313 0.0489195
000010 90 e7 9f 3c d1 c8 45 3d 64 df eb 3c 4d 3d fa 3c
       0.019519597 0.048287217 0.028793044 0.030546809
000020 00 d9 46 3c b9 6b 96 3d cc 34 30 3c f8 d4 e8 3b
       0.012136698 0.07344765 0.010754775 0.007105466
000030 bd 3e 67 3c 7d 7d 9e 3c c1 d6 1b 3d 9a 06 00 3d
       0.014114079 0.019346947 0.038046602 0.031256296
000040 f5 c2 3a 3d b0 5a 2c 3d 4e 96 17 3d 14 c6 3e 3c
       0.04559608 0.042078674 0.037008576 0.011643905
000050 04 97 38 3d dd d9 b2 3d c5 3d 15 3d ad 32 94 3c
       0.045065895 0.087329604 0.03643586 0.01809057
000060 8e 1c 09 3d 74 b5 35 3c 7d d8 a4 3c 3a 92 cd 3c
       0.033474497 0.011090625 0.02012276 0.02509414
000070 64 ee 05 3d c8 ea 15 3d f1 18 fe 3c 55 70 a3 3b
       0.03269805 0.036600858 0.031017752 0.0049877563
000080 08 e2 7e 3d a8 45 ca 3c 89 73 58 3d d0 39 23 3d
       0.06222728 0.024691418 0.052844558 0.039850056
000090 95 d9 9f 3c 52 5a a6 3c 78 88 06 3c 4a 8d ca 3d
       0.01951293 0.02030674 0.008211248 0.0989023
0000a0 89 63 44 3d f5 4a 12 3d 02 a5 29 3d fa c4 81 3d
       0.047946487 0.035716016 0.04141713 0.063363984
0000b0 c0 3f 1d 3d 77 4a 37 3d e7 e3 2f 3d fb 48 38 3d
       0.038390875 0.04474875 0.042941954 0.044991475
0000c0 a7 e0 ed 3b c1 e2 1d 3c 0a 69 ed 3c 7d ff d7 3b
       0.0072594467 0.009636582 0.02898075 0.006591736
0000d0 48 2f e4 3c 3b 6e 1d 3d 38 d8 7d 3d b2 b9 e5 3c
       0.027854577 0.038435202 0.06197378 0.028042648
0000e0 91 45 a5 3d 1c 88 90 3d 85 7b 2d 3d 07 89 d0 3b
       0.08069909 0.07057211 0.042354126 0.006363991
0000f0 7a 5d c2 3c f6 c5 e5 3c b4 4e ba 3c 53 a0 48 3d
       0.023726214 0.028048497 0.022742607 0.048981022

bn2.weight f4 [64]
000000 0b fb 7e 3f f6 50 81 3f 03 ee 7c 3f f6 57 80 3f
       0.9960181 1.0102832 0.9880068 1.0026844
000010 b9 db 80 3f 8f 78 7d 3f 30 eb 7f 3f c3 be 80 3f
       1.0067054 0.9901208 0.9996824 1.0058216
000020 60 33 80 3f a4 34 7f 3f 65 e6 7b 3f b0 70 81 3f
       1.0015678 0.996897 0.9839843 1.0112514
000030 14 b4 7d 3f 93 4d 80 3f c1 ec 81 3f fd ed 81 3f
       0.991029 1.0023674 1.0150377 1.0150753
000040 d1 1b 82 3f 35 bd 7c 3f 4d c4 7c 3f 4e 33 7f 3f
       1.0164739 0.98726207 0.9873703 0.9968766
000050 ab e2 7f 3f 9d dc 7d 3f fa 02 7e 3f ee 31 82 3f
       0.9995524 0.99164754 0.9922329 1.0171487
000060 19 3d 80 3f 2b 52 7e 3f 18 af 80 3f 48 e0 80 3f
       1.0018646 0.9934413 1.0053434 1.0068445
000070 ca b5 7b 3f 31 e9 7d 3f 10 13 7f 3f 2e 76 80 3f
       0.98324263 0.99183947 0.9963846 1.0036066
000080 0d f7 80 3f 3c ea 7d 3f 0e fe 81 3f bc f4 7c 3f
       1.0075394 0.9918554 1.0155656 0.98810935
000090 e8 6c 7f 3f dc fa 7d 3f 77 d3 7d 3f f2 af 7f 3f
       0.9977555 0.99210906 0.99150795 0.99877846
0000a0 ff aa 7d 3f 9d ef 81 3f cc 39 80 3f a7 cd 7e 3f
       0.99089044 1.0151249 1.0017638 0.9953255
0000b0 98 ab 7d 3f 62 ed 80 3f ba 20 7c 3f 91 c6 7e 3f
       0.99089956 1.0072443 0.98487437 0.9952174
0000c0 cc 5c 7c 3f 5b 15 7e 3f c6 49 82 3f 92 4e 7d 3f
       0.98579097 0.99251336 1.0178764 0.98948014
0000d0 1c 63 81 3f b7 63 80 3f 1b 2d 7c 3f c0 84 80 3f
       1.0108371 1.003043 0.98506325 1.0040512
0000e0 5d 8c 80 3f 1b 94 81 3f 0d 73 7c 3f c3 75 7d 3f
       1.0042835 1.0123323 0.98613054 0.99007815
0000f0 ab cc 7d 3f ef 99 81 3f 26 76 7c 3f e2 f9 81 3f
       0.99140424 1.0125102 0.9861778 1.0154383

bn2.bias f4 [64]
000000 b1 7c 2b 3c 38 b9 21 3c 70 30 a7 bc 65 f0 bf bb
       0.0104667405 0.00987082 -0.020408839 -0.0058575147
000010 e9 b5 bc 3a 00 ae 40 bc 12 1a 95 3b 3e d2 c1 bb
       0.0014397475 -0.011760235 0.004550227 -0.0059149554
000020 67 ee 0b 3a 7a 11 a9 bc 45 61 51 bc b0 32 77 3c
       0.0005337954 -0.020638216 -0.0127795385 0.015087768
000030 7d cc 49 3b aa 77 9c bc ad f2 90 3c 1a c0 51 3c
       0.003079205 -0.019100029 0.017693842 0.012802148
000040 c7 e2 c2 3b 89 c5 9c bc dc 4a 6b bc dc 2d 22 3c
       0.005947444 -0.01913716 -0.01436111 0.009898629
000050 d4 a5 2a 3c ca 45 99 3b d7 28 91 bb 79 91 97 3c
       0.010415513 0.004677509 -0.0044299173 0.018501984
000060 bc 5a fe 3b a4 0e 96 3c 03 57 1a 3b af 66 27 bc
       0.007762281 0.018317528 0.0023550398 -0.010217353
000070 27 29 5a 3c 68 e1 7c 3c 86 27 e6 ba f4 4f 17 bc
       0.013315476 0.0154346 -0.0017559386 -0.009235371
000080 11 1e 3d 3c 3c a7 12 3c 39 d4 94 3c 89 35 1d bc
       0.011542813 0.008951005 0.018167602 -0.009595283
000090 86 bd 91 bc 73 81 8b 3c 18 dc ae bb 11 c6 f3 3b
       -0.017790567 0.0170295 -0.005336296 0.007439383
0000a0 a6 e6 62 bc 97 36 91 3c c1 cd 4c 3c 1f bc 8e bc
       -0.013848936 0.017726226 0.012500227 -0.017423688
0000b0 78 3f 9a bb 4a 0b 91 3c 5d 84 0a bc c4 69 b2 3a
       -0.004707273 0.017705578 -0.008454409 0.0013611843
0000c0 ff e5 9a 39 cd ef 28 bc 94 20 b4 3b f5 73 10 bc
       0.0002954453 -0.010311079 0.0054970477 -0.008816709
0000d0 a7 cd 1f 3c 4e 16 58 3b 55 c7 d8 39 cc ff 65 bc
       0.009753621 0.003297228 0.00041347244 -0.0140380375
0000e0 b2 ea 9f bc c7 df 6b 3c 55 22 36 3b c9 5e 05 bc
       -0.019521091 0.014396614 0.002779146 -0.008140274
0000f0 57 7c ef bb b1 d6 d5 3b bb 65 4d 3b 87 54 b5 3c
       -0.0073085236 0.0065258374 0.0031341154 0.022135032

bn2.running_mean f4 [64]
000000 93 c7 36 c0 46 c7 fc be b4 7f 2d 40 1c 28 13 40
       -2.855931 -0.49370784 2.7109194 2.299323
000010 78 45 a4 3e 3c a2 05 40 d4 dc 95 be be eb 3e bf
       0.3208425 2.088027 -0.2927004 -0.74578464
000020 43 31 85 be 02 df 0a bf 1b fd 1a 3f a5 c2 01 40
       -0.26014146 -0.5424653 0.6054246 2.0275052
000030 18 9b b9 3f 4e 97 cc 3f 5b 8e 36 3f 39 56 6f bf
       1.4500456 1.5983675 0.7131097 -0.9349094
000040 51 30 1e 3f 09 ce 18 bf 94 c8 bf 3f 63 0b d4 3f
       0.61792475 -0.59689385 1.4983087 1.6565975
000050 2b 42 18 40 df da 9c bf 9b d1 44 c0 de cf 55 3f
       2.3790386 -1.2254294 -3.0752933 0.83520305
000060 91 fd 97 3e 64 87 18 40 c5 db dc 3f 24 da 31 3f
       0.29685643 2.3832636 1.7254568 0.6947348
000070 10 c3 00 40 d6 d2 d0 3f e2 55 bd 3e 74 e3 10 40
       2.0119057 1.6314342 0.36979586 2.2638826
000080 0a 99 1e 40 3e 1e 19 3f ac 82 f2 3e 38 82 32 bf
       2.4780908 0.5981177 0.4736532 -0.6972995
000090 f5 fd 90 3f 5f 1b 1d 3d 00 00 ef be be 82 bb 3f
       1.1327502 0.03835618 -0.46679688 1.4649274
0000a0 fd 68 91 3f e2 b5 7a 3d 23 35 5f 3f 7f 4f 74 3d
       1.1360165 0.061208613 0.87190455 0.059646126
0000b0 95 a8 e7 bf ac 2c 19 3f 29 08 0d c0 8f 71 1b bf
       -1.8098322 0.5983379 -2.203623 -0.6072015
0000c0 bb 23 93 3f de 85 8e 3f fb 06 0f 3f 32 e3 ab 3d
       1.1495279 1.1134603 0.55870026 0.083929434
0000d0 1a b6 61 3f 2a a0 9a 3e 95 8d 12 40 99 1b 1e bd
       0.8816849 0.3020032 2.2898915 -0.038600538
0000e0 be 7a 0f 3e 9a 69 8f 3e 72 f7 45 40 a0 9d 1c bf
       0.14011666 0.28010255 3.0932279 -0.61178017
0000f0 75 fb e8 be c9 04 2e bf 80 e7 57 3f 11 ef 03 3f
       -0.45504346 -0.6797605 0.84337616 0.5153666

bn2.running_var f4 [64]
000000 b3 7d c6 40 23 90 0a 40 aa 86 97 40 bc c8 ae 40
       6.202844 2.1650474 4.7351885 5.4620037
000010 34 65 00 40 9f e8 7e 40 e9 5d 84 40 9f 70 1c 40
       2.006177 3.982948 4.1364636 2.4443738
000020 58 eb ad 3f 3f 71 fb 3f 31 8f 33 3f 8f fb 26 40
       1.3587446 1.9643935 0.7014037 2.609104
000030 18 f4 2c 40 90 b0 70 40 aa bc 4a 40 8c a4 46 40
       2.7023983 3.7607765 3.1677651 3.1037931
000040 2e 2c 31 40 4f db 88 40 c7 20 62 40 18 08 38 40
       2.7683215 4.276771 3.5332506 2.875494
000050 ad b4 c2 40 e7 e1 89 3f dd 07 d0 40 52 c2 69 40
       6.084555 1.0772065 6.50096 3.6524854
000060 38 e4 a3 3f 87 40 cf 40 5e be 82 40 14 9d 9f 3f
       1.2804022 6.476627 4.085738 1.2469811
000070 0b ae 72 40 f8 5a 97 40 71 e1 29 40 b6 50 be 40
       3.7918727 4.7298546 2.6543849 5.9473524
000080 47 b1 8d 40 23 28 d3 3f 03 47 59 3f b3 a0 06 40
       4.4278903 1.6496624 0.8487398 2.1035583
000090 f1 97 ed 3f 87 a2 d9 3f 64 3f 13 40 32 56 31 40
       1.8561994 1.7002724 2.300744 2.770886
0000a0 05 3b dd 3f 9c bc cd 3f 87 01 15 40 e2 3c f8 3f
       1.7283636 1.6073184 2.3282182 1.939358
0000b0 e3 06 ba 40 1c 58 2a 40 f8 1f a0 40 54 4f 05 40
       5.8133407 2.6616278 5.0039024 2.0829668
0000c0 a3 89 67 40 13 76 52 40 3b 8c 2a 40 d5 15 af 3f
       3.6177757 3.2884567 2.664809 1.3678538
0000d0 89 8e 11 40 c4 fb a6 3f 9b ea ae 40 68 e7 b8 3f
       2.2743247 1.3045583 5.4661384 1.444562
0000e0 d0 e6 e4 3f f0 da 4e 40 1a 02 c3 40 62 d5 03 40
       1.7882938 3.232113 6.0940065 2.0598989
0000f0 fb 71 45 40 c9 cb f1 3f 7d c7 12 40 31 28 0c 40
       3.0850818 1.8890315 2.2934258 2.189953

bn3.weight f4 [64]
000000 aa d1 82 3f 9a d5 82 3f 86 f1 82 3f 12 ee 82 3f
       1.0220234 1.0221436 1.0229957 1.0228903
000010 11 f3 82 3f 87 d7 82 3f c5 ca 82 3f 9a ef 82 3f
       1.0230428 1.0222024 1.021813 1.022937
000020 a7 c6 82 3f 08 e2 82 3f 04 d5 82 3f 40 dd 82 3f
       1.0216874 1.0225229 1.0221257 1.022377
000030 79 cb 82 3f af bd 82 3f dd ca 82 3f b1 dc 82 3f
       1.0218345 1.0214137 1.0218159 1.02236
000040 e3 df 82 3f 69 df 82 3f 65 d5 82 3f a9 e4 82 3f
       1.0224575 1.0224429 1.0221373 1.0226032
000050 74 e3 82 3f 62 e5 82 3f b3 d0 82 3f 7c ca 82 3f
       1.0225663 1.0226252 1.021994 1.0218043
000060 35 ed 82 3f 3f ca 82 3f 78 db 82 3f c8 de 82 3f
       1.022864 1.0217971 1.0223227 1.0224237
000070 37 d9 82 3f 1d d6 82 3f 36 cc 82 3f b4 df 82 3f
       1.0222539 1.0221592 1.021857 1.0224519
000080 6e df 82 3f ae c6 82 3f 74 d0 82 3f e7 df 82 3f
       1.0224435 1.0216882 1.0219865 1.022458
000090 e1 e1 82 3f 3b e3 82 3f 94 f0 82 3f c9 c0 82 3f
       1.0225183 1.0225595 1.0229669 1.0215083
0000a0 bc e3 82 3f 0a db 82 3f 8b cc 82 3f 3e ce 82 3f
       1.0225749 1.0223095 1.0218672 1.021919
0000b0 a7 eb 82 3f 9b e1 82 3f 4e eb 82 3f d7 ed 82 3f
       1.0228165 1.0225099 1.0228059 1.0228833
0000c0 31 c8 82 3f 32 ce 82 3f a5 c9 82 3f 27 d3 82 3f
       1.0217344 1.0219176 1.0217787 1.0220689
0000d0 ce ba 82 3f 43 c6 82 3f 9b dc 82 3f 6b e8 82 3f
       1.0213258 1.0216755 1.0223573 1.0227178
0000e0 7f ea 82 3f a2 eb 82 3f 41 ea 82 3f 94 d3 82 3f
       1.0227813 1.022816 1.0227739 1.0220819
0000f0 6b e0 82 3f 00 ec 82 3f db e5 82 3f 71 ef 82 3f
       1.0224737 1.0228271 1.0226396 1.0229322

bn3.bias f4 [64]
000000 af d1 b9 3c ce 8a a9 3c d7 e0 b9 3c a6 78 a2 3c
       0.022682993 0.02069607 0.02269022 0.01983292
000010 4c 54 b7 3c dc 59 b4 3c 43 68 ae 3c 47 3d b2 3c
       0.022379063 0.022015505 0.02128995 0.021757735
000020 52 cc a7 3c ae 2a b6 3c fb e7 b6 3c f6 52 9e 3c
       0.02048317 0.022237148 0.022327414 0.019326668
000030 c7 65 b5 3c fd 5d b8 3c 99 2c b9 3c c7 cd 97 3c
       0.022143258 0.022505755 0.022604274 0.01853074
000040 da 7a b5 3c bd 9d ba 3c f6 ac b7 3c 21 75 b2 3c
       0.022153307 0.022780294 0.022421341 0.021784367
000050 11 fa b4 3c e2 a3 b4 3c 71 a7 b4 3c c6 55 ae 3c
       0.022091897 0.022050802 0.022052499 0.021281134
000060 c4 15 ae 3c 66 54 b9 3c 8f 67 b8 3c 29 10 af 3c
       0.021250613 0.022623252 0.022510318 0.02137001
000070 bf 6c 61 3c 69 19 b8 3c d1 98 50 3c 4e 74 b4 3c
       0.013758837 0.022473054 0.012731747 0.022028115
000080 81 9f ba 3c 19 97 a6 3c 89 aa 76 3c fc dd ba 3c
       0.022781136 0.02033572 0.015055307 0.022810929
000090 b0 4e ba 3c 11 71 7a 3c 5b 53 b7 3c 64 9b ae 3c
       0.0227426 0.015285746 0.022378614 0.02131433
0000a0 31 3c ba 3c 00 3c b9 3c 51 fc aa 3c 53 31 8f 3c
       0.02273378 0.022611618 0.020872267 0.017479574
0000b0 87 fa b4 3c dc 56 ba 3c 98 97 ba 3c 0e ec b2 3c
       0.022092117 0.022746496 0.022777364 0.021841075
0000c0 75 65 a8 3c 85 fa ba 3c 86 6a 8b 3c 52 39 b6 3c
       0.020556191 0.022824535 0.017018568 0.02224413
0000d0 b8 6a b2 3c 17 03 aa 3c 73 a1 b1 3c 67 9f b2 3c
       0.021779403 0.020753426 0.02168343 0.021804525
0000e0 d4 98 ae 3c 08 e7 af 3c 7a 87 af 3c b9 7c ad 3c
       0.021313109 0.021472469 0.021426905 0.021177636
0000f0 04 9d b8 3c 96 22 9e 3c 9a fd bc 3c 1f c5 9a 3c
       0.022535808 0.019303601 0.023070145 0.018892823

bn3.running_mean f4 [64]
000000 45 8b 3e 3f 17 98 72 3f 89 6f 77 bf c7 ef bc 3f
       0.7443126 0.9476332 -0.96654564 1.4760674
000010 b1 1d 3e be a3 c3 17 c0 ac 33 e5 3f 8d cd c8 3f
       -0.18566014 -2.3713157 1.7906394 1.5687729
000020 85 68 f2 3f de bb f4 3e 46 32 b4 3f fb 5c fc 3f
       1.8938147 0.4779958 1.4077842 1.9715875
000030 51 e8 d8 3f 2b d4 cf bf 36 5e cd 3f bf 19 51 3f
       1.6945897 -1.6236624 1.6044376 0.8167991
000040 36 70 12 bf 86 46 94 3f 4f 02 06 bf 6a 7d 56 3f
       -0.5720247 1.1584022 -0.5234727 0.83785117
000050 e2 9c 00 40 8d e1 18 bf a9 99 94 bf 9a 51 a5 3f
       2.0095754 -0.59719163 -1.1609393 1.2915528
000060 bf ce 48 3f c8 91 00 be 73 b3 0c c0 fc ec a0 3f
       0.7844047 -0.12555611 -2.1984527 1.2572322
000070 30 37 00 40 8e 68 a1 3f 94 31 ee bf 46 30 87 3f
       2.0033684 1.2610033 -1.860888 1.0561607
000080 3c 00 bc 3f e4 f5 e2 3f 22 df bf 3f 94 81 51 3f
       1.4687572 1.773129 1.498997 0.81838346
000090 57 5e 7c bf 07 12 0a bf 7f 36 ac 3f 86 e2 7d 3f
       -0.9858145 -0.5393376 1.3454131 0.9917377
0000a0 7d fc 1b 3e d0 9c 13 3f 34 5f e9 3f 39 57 94 3d
       0.15233035 0.5766115 1.8232179 0.07243199
0000b0 d7 bd ef 3e 8d 21 d3 be 5f d5 03 c0 ef 5e 02 40
       0.46824524 -0.41236535 -2.0598981 2.0370443
0000c0 ba 25 b0 3f 59 9a e1 be ff 69 43 3f b6 2e a7 bf
       1.3761513 -0.4406307 0.7633361 -1.306113
0000d0 50 e5 e6 be 27 56 1c 40 0c fd a9 bd 57 c4 a8 3f
       -0.45096827 2.4427583 -0.08300218 1.3184918
0000e0 86 c5 02 bf 89 02 14 3f 1d fc 0f 3f ec dc 20 40
       -0.51082647 0.5781637 0.5624407 2.513484
0000f0 6f 75 90 3f 3c f6 8d bf 09 58 a4 3f e4 19 c3 be
       1.1285838 -1.109077 1.2839366 -0.3810569

bn3.running_var f4 [64]
000000 cc 5b 6e 3f 14 f1 a8 3f 54 46 32 3f 69 9a 45 3f
       0.9310882 1.3198571 0.6963856 0.77188736
000010 f5 71 19 3f 4a bf 0b 40 62 39 18 40 a7 a8 66 3f
       0.5993951 2.1835504 2.3785024 0.90101093
000020 27 3b 9a 3f 66 a7 8e 3f 7e 6b 95 3f 2e b2 b2 3f
       1.2049302 1.1144836 1.1673429 1.3960626
000030 90 e1 a7 3f 0d 21 3a 40 0d 15 85 3f a1 1f 16 40
       1.3115711 2.9082673 1.0397049 2.3456805
000040 55 14 8a 3f c8 11 05 40 f6 cf bd 3f 8d a2 b1 3f
       1.0787455 2.0792103 1.482909 1.3877732
000050 c8 5d 9c 3f cd 59 e2 3f 53 af 9e 3f 7f b3 89 3f
       1.221612 1.7683655 1.2397255 1.0757903
000060 cc 25 90 3f 5b 12 d4 3f c0 eb 27 40 8d 9d 96 3f
       1.1261535 1.6568102 2.623764 1.1766831
000070 50 d5 f1 3f f6 87 46 3f fb fc 2a 40 c2 4c 1e 3f
       1.8893223 0.7755121 2.6716907 0.61835873
000080 a0 6a 9a 3f 63 36 31 40 15 ce 01 40 c4 3b ad 3f
       1.2063789 2.7689445 2.0282032 1.3533864
000090 3d 55 c8 3f f7 b1 27 3f b9 75 8e 3f 60 b9 be 3f
       1.5651013 0.6550593 1.1129676 1.4900322
0000a0 44 4e ac 3e b2 93 85 3f 3d 57 c5 3f ab 13 0a 40
       0.33653462 1.0435698 1.5417248 2.1574504
0000b0 12 f4 4f 3f 3a 04 83 3f cb 4e 0c 40 9d 36 1a 40
       0.81231797 1.0235665 2.1923091 2.4095833
0000c0 5d b4 79 3f d6 2e 75 3f 1b 31 b4 3f 15 93 88 3f
       0.9754084 0.9577459 1.4077486 1.0669886
0000d0 af 5c 72 40 87 ab 3f 40 3a 55 3a 3f 2c 14 f0 3f
       3.786907 2.9948442 0.72786295 1.8756156
0000e0 23 57 ae 3f 29 61 46 3f 3d 77 af 3f 2b 2e aa 3f
       1.3620342 0.77492005 1.3708264 1.3295339
0000f0 b1 4a 93 3f 1a 2d b5 3f 5d da 27 3f 4d 8d 29 3f
       1.1507169 1.4154389 0.6556757 0.6623123
