maml-notebook/completet_model/model1/model-epoch_00040-train_loss_0.131-train_acc_0.868-test_loss_0.493-test_acc_0.856.pt (torch_old, 305688 bytes, 20 tensors)

conv1.weight f4 [64, 1, 3, 3]
0.037918195 0.0947426 -0.049346384 -0.03327211 0.04662384 0.035372347 -0.051069003 0.015965963
0.025326543 -0.007308444 -0.1213012 -0.022010332 0.050317798 0.07509445 -0.04194136 0.00318382
0.057689473 0.07488556 -0.028542018 -0.032615617 -0.07699836 -0.02035211 0.05238718 -0.07583532
-0.05934315 0.027485693 -0.03356906 -0.14765769 0.03986427 -0.08975214 0.0128891645 0.10896745
-0.048719354 0.032368604 0.07495774 -0.02458862 -0.0026007304 0.072852716 -0.036464363 0.03139446
-0.0075635533 -0.047759075 0.058266617 0.026162878 -0.06415864 0.008116347 -0.077433966 -0.025504585
-0.12026435 -0.05417356 -0.022279367 0.045072537 -0.0011885785 0.031077819 -0.08004745 -3.3071377e-05
-0.09414272 0.02811476 -0.042652484 0.13200085 -0.032392655 0.013811073 -0.12254246 -0.055289324
-0.034970857 -0.04098933 0.007339051 -0.022953905 0.092849195 0.06564899 0.091633156 0.00082591176
0.0110828215 -0.030088611 0.020972531 0.06947161 -0.021048136 0.09662785 -0.010157137 0.04147389
-0.058887705 0.050593656 -0.06851708 0.038075007 0.10311897 0.01363911 0.147854 0.0017306898
-0.04878868 0.0397045 -0.029293036 -0.042104088 -2.2765513e-05 0.03840984 0.08798024 0.033268113
0.019310653 -0.03867786 -0.022203708 -0.016366564 0.035202898 0.034136325 0.03016422 -0.042672012
0.052887507 0.01657689 0.06935282 -0.047128692 0.01190306 -0.015848437 0.0035000457 -0.087114185
-0.009231224 -0.017562468 -0.021624438 0.04355834 -0.05437921 0.020702135 0.03692646 0.0053807558
0.013968085 -0.0043458333 0.073747166 -0.00729344 -0.10425107 -0.05248109 0.054814905 0.021887306
0.010365032 -0.0234386 -0.079102345 0.051241823 -0.030360874 -0.084237054 -0.07216528 0.09774011
-0.14799675 -0.028427996 0.0557945 0.056144595 0.03775933 -0.013788514 0.004046015 0.06597434
0.0012941497 -0.11141856 -0.043648183 0.015551626 0.011731955 -0.020946842 0.04836317 -0.12308784
-0.0044266167 0.09457204 0.07315139 0.029728254 -0.071270585 0.0034084553 0.0379954 -0.022998536
-0.01007346 -0.015958251 -0.040319286 -0.08354792 -0.08055011 -0.038239405 0.051463187 0.0034429603
0.054576207 0.048849545 0.07477468 -0.11798291 0.011264107 0.021315766 0.015511827 0.030357042
-0.035607684 -0.0052216146 0.010715558 -0.032828204 0.07075542 0.057167694 0.023730274 0.045906585
-0.15489064 -0.05621973 0.07351582 -0.016338479 -0.036858156 -0.02969876 0.004707392 0.12044077
-0.11906439 0.041787438 0.09205175 -0.10515449 0.07774496 0.030884452 0.021153511 0.010494922
-0.075903825 0.035761226 0.101594 0.099921934 -0.050617404 -0.021452915 -0.0060382946 0.004654979
0.00029953654 -0.043965776 3.2761345e-05 0.057158466 -0.009510486 0.015247437 0.050900947 -0.09790782
-0.035900496 -0.08138199 -0.07782525 -0.011957158 0.06065343 0.0035197202 0.034277175 0.03637088
0.06923488 -0.0606033 0.069633625 0.020307655 0.042907193 -0.041382458 0.06470712 0.06080282
0.03503834 -0.06622108 -0.0018146574 0.0015857627 0.016382942 -0.07333622 0.043048527 0.029469572
-0.07016225 0.010787865 0.04870711 -0.019888675 0.022059824 0.09225021 0.09815623 0.02336419
0.0026109698 -0.061622016 -0.018958459 -0.09112849 0.10421217 0.04033724 -0.09627439 -0.036833595
00000000: 1c50 1b3d 6908 c23d 6f1f 4abd 5648 08bd
00000010: a4f8 3e3d 98e2 103d bb2d 51bd 0dcb 823c
00000020: 9c79 cf3c ac7b efbb c36c f8bd 034f b4bc
00000030: 091a 4e3d 1ecb 993d b4ca 2bbd a3a7 503b
00000040: cc4b 6c3d 9a5d 993d f3d0 e9bc f497 05bd
00000050: 51b1 9dbd 78b9 a6bc f193 563d 8c4f 9bbd
00000060: ce11 73bd ad29 e13c b67f 09bd 9433 17be
00000070: b748 233d f8cf b7bd 132d 533c 542a df3d
00000080: f28d 47bd f194 043d 7283 993d 136e c9bc
00000090: 0471 2abb ce33 953d a85b 15bd 7a97 003d
000000a0: afd7 f7bb 059f 43bd faa8 6e3d 8853 d63c
000000b0: 9b65 83bd 6dfa 043c b395 9ebd feee d0bc
000000c0: 284d f6bd 18e5 5dbd 3883 b6bc fb9d 383d
000000d0: 14ca 9bba e996 fe3c ebef a3bd 1fb6 0ab8
000000e0: e6cd c0bd ed50 e63c 5fb4 2ebd 3b2b 073e
000000f0: 29ae 04bd d747 623c 8bf7 fabd 0f77 62bd
00000100: 9a3d 0fbd 6de4 27bd 6c7c f03b d409 bcbc
00000110: b827 be3d fa72 863d 2aaa bb3d 0082 583a
00000120: b994 353c 647c f6bc 96ce ab3c 2247 8e3d
00000130: 246d acbc d2e4 c53d 1f6a 26bc 87e0 293d
00000140: 3c34 71bd 4b3b 4f3d af52 8cbd 8af4 1b3d
00000150: 0a30 d33d 9376 5f3c 0a67 173e 50d8 e23a
00000160: a4d6 47bd 30a1 223d f3f7 efbc 5675 2cbd
00000170: 91f8 beb7 a353 1d3d fc2e b43d 2544 083d
00000180: 6031 9e3c ad6c 1ebd 8de4 b5bc 2c13 86bc
00000190: ea30 103d 88d2 0b3d f41a f73c d9c8 2ebd
000001a0: 92a0 583d 42cc 873c da08 8e3d 040a 41bd
000001b0: 0d05 433c 95d4 81bc 0661 653b ec68 b2bd
000001c0: 8f3e 17bc 2adf 8fbc bc25 b1bc 3b6a 323d
000001d0: bcbc 5ebd 8697 a93c 3340 173d 0d51 b03b
000001e0: 65da 643c 7e67 8ebb c108 973d cffd eebb
000001f0: 9681 d5bd 69f6 56bd 9885 603d 024d b33c
00000200: 18d2 293c 4f02 c0bc 6900 a2bd f2e2 513d
00000210: 5eb7 f8bc 7a84 acbd 64cb 93bd f72b c83d
00000220: 768c 17be d4e1 e8bc c688 643d e0f7 653d
00000230: 87a9 1a3d 38e9 61bc 6f94 843b 8e1d 873d
00000240: 75a0 a93a 6a2f e4bd 70c8 32bd 3fcc 7e3c
00000250: 6337 403c b698 abbc 7618 463d 7a15 fcbd
00000260: 270d 91bb fcae c13d 65d0 953d ab88 f33c
00000270: 50f6 91bd 6460 5f3b 11a1 1b3d 6d67 bcbc
00000280: 270b 25bc e1ba 82bc d625 25bd 2c1b abbd
00000290: 75f7 a4bd eca0 1cbd 10cb 523d 4aa3 613b
000002a0: 4d8b 5f3d 7616 483d 7823 993d 06a1 f1bd
000002b0: 178d 383c 679e ae3c 5125 7e3c 55af f83c
000002c0: 5dd9 11bd 141a abbb 4f90 2f3c de76 06bd
000002d0: 38e8 903d ac28 6a3d fe65 c23c 8b08 3c3d
000002e0: a79b 1ebe a946 66bd 768f 963d 46d8 85bc
000002f0: 94f8 16bd d04a f3bc 7740 9a3b a7a9 f63d
00000300: 08d8 f3bd 4e29 2b3d a185 bc3d 3d5b d7bd
00000310: c038 9f3d 6401 fd3c 214a ad3c e5f2 2b3c
00000320: 7773 9bbd 5d7a 123d 8410 d03d dfa3 cc3d
00000330: 3254 4fbd 06be afbc e3dc c5bb cb88 983b
00000340: 1d0b 9d39 7515 34bd 3a69 0938 ff1e 6a3d
00000350: dfd1 1bbc 63d0 793c 837d 503d e583 c8bd
00000360: 660c 13bd 9aab a6bd d862 9fbd f5e7 43bc
00000370: bb6f 783d 1bab 663b 3966 0c3d a2f9 143d
00000380: 04cb 8d3d 2a3b 78bd 139c 8e3d 3d5c a63c
00000390: 74bf 2f3d a780 29bd 2b85 843d 610c 793d
000003a0: 5d84 0f3d eb9e 87bd ccd9 edba 5ed9 cf3a
000003b0: 8535 863c 4d31 96bd a753 303d 2c6a f13c
000003c0: 3ab1 8fbd 96bf 303c 1b81 473d 93ed a2bc
000003d0: ceb6 b43c aeed bc3d 2206 c93d 4266 bf3c
000003e0: ce1c 2b3b 5e67 7cbd c54e 9bbc 93a1 babd
000003f0: 316d d53d a938 253d 822b c5bd d3de 16bd

conv1.bias f4 [64]
0.0036390822 -0.0013745463 -0.0010446484 0.0011788352 -0.0042435913 0.003867383 0.0021062407 0.012949448
0.0011888565 0.015381008 -0.0019771815 -0.0006098162 -0.0048777172 -0.0034333344 -0.0039219605 -0.0025917236
0.0076196357 0.0036940782 0.0035655072 0.0055097356 0.006932579 -8.616431e-06 -0.0075500775 0.005518033
0.00754812 0.0047982335 -0.00711425 0.0014379559 -0.00013234385 0.00082981406 0.007858289 -5.5061715e-05
0.007071495 -0.009266825 0.0041474765 -0.004100976 -0.009031836 -0.0058633965 -0.0009980499 -0.008991878
0.009699264 -0.0005722688 0.0050679957 -0.0034965295 0.005295462 -0.0039988956 -0.012059501 -0.0025500692
0.0068863193 -0.0006912557 -0.0015384622 0.003943963 0.0027397007 -0.0073643858 -0.0027006657 0.00980331
0.0012490246 -0.0022791473 0.007236278 0.011045099 -0.0041739442 0.0113666635 -0.007945438 -0.009298555
00000000: ab7d 6e3b 1f2a b4ba 95ec 88ba 2583 9a3a
00000010: d30d 8bbb ec73 7d3b db08 0a3b ec29 543c
00000020: 68d3 9b3a a000 7c3c 9a93 01bb 13dc 1fba
00000030: 42d5 9fbb cb01 61bb ca83 80bb e8d9 29bb
00000040: 23ae f93b 5918 723b 49ab 693b 038b b43b
00000050: b02a e33b 4a8f 10b7 a466 f7bb 9ed0 b43b
00000060: 3856 f73b 803a 9d3b a81e e9bb cb79 bc3a
00000070: c8c5 0ab9 e187 593a 0ec0 003c 11f2 66b8
00000080: 00b8 e73b e2d3 17bc 8ee7 873b 7b61 86bb
00000090: 44fa 13bc bc21 c0bb ffd0 82ba ab52 13bc
000000a0: a9e9 1e3c 4f04 16ba 6e11 a63b 0826 65bb
000000b0: 8e85 ad3b 2b09 83bb 3795 45bc 101f 27bb
000000c0: a2a6 e13b 6235 35ba 3aa6 c9ba 5c3c 813b
000000d0: 8d8c 333b f250 f1bb a7fd 30bb 109e 203c
000000e0: 50b6 a33a bf5d 15bb 4d1e ed3b 81f6 343c
000000f0: 95c5 88bb 3e3b 3a3c 952d 02bc f758 18bc

conv2.weight f4 [64, 64, 3, 3]
-0.0465697 -0.031457577 0.00072492636 0.046779804 -0.045029182 -0.083139606 0.066396475 -0.04491933
0.055787943 0.0020612795 -0.040036667 -0.08573036 0.020040113 -0.026196651 -0.019778525 -0.07456491
-0.036456563 0.07787998 0.008794393 -0.075526275 -0.03860441 -0.002230568 -0.038267486 -0.062019378
-0.021353235 -0.05745856 0.022127792 -0.06613364 0.02240826 -0.036822833 0.0015486605 0.019982016
0.0014535523 -0.011725113 -0.018112674 0.039533388 -0.07170784 -0.07480399 -0.060915772 -0.017505394
-0.055598408 -0.09051227 0.0062049967 0.0024684537 0.046786454 -0.019602306 -0.0095872665 0.052798636
-0.030868528 -0.011386552 -0.042189393 -0.021248646 -0.02581867 -0.041794017 -0.011356853 -0.03816032
0.039514747 -0.0017497013 0.022054885 -0.04064998 -0.026205607 0.035555054 -0.011346015 0.04091292
0.029832136 -0.03228237 -0.019205347 0.0052632648 0.0409999 0.06104581 -0.060261842 -0.006790399
-0.04728241 -0.042571984 0.055937123 0.095968835 -0.03440417 -0.031285804 0.043408133 0.011665813
-0.0075578 0.011010367 0.049290437 -0.002994457 -0.050080232 0.018931521 0.019137265 -0.05133897
0.006882701 -0.02205116 0.0355461 -0.109258145 -0.026631394 -0.03191982 -0.01853039 0.015265652
0.012495028 0.0003065206 0.012227884 -0.06197965 -0.021235507 -0.06959231 0.03557802 -0.016330404
0.0006189676 -0.033185847 0.06124549 0.015187859 0.086573355 -0.06653888 -0.015869118 0.07143918
-0.08181874 -0.013545376 -0.061190408 -0.008825146 -0.022425797 0.016251482 0.053554624 -0.029182434
0.05277282 -0.007949045 0.0724458 0.024511272 -0.05481893 -0.038551603 0.025110729 -0.048576348
-0.021074837 0.04466564 0.011095922 -0.08864135 -0.103913374 -0.0139815565 -0.07278494 0.027748836
-0.073696144 -0.0070089772 -0.05531515 -0.028196305 -0.050549764 -0.04085982 -0.029580746 0.010281133
0.020640926 -0.013704601 -0.08169005 0.0009818531 -0.1517299 -0.15256907 0.019456048 -0.05636359
-0.05595269 -0.010586135 0.035732824 -0.061560657 -0.062513694 0.020166555 -0.021771112 0.030949082
0.074569955 -0.023056978 -0.013867999 0.0057093157 0.020154938 0.021509344 0.031703413 0.05978153
-0.01550494 0.029267838 -0.114613056 -0.077865236 -0.027687903 0.0061864294 0.07956388 -0.056185033
-0.03771577 -0.040832836 -0.003722188 -0.057433523 0.07013508 -0.029526262 -0.042358372 -0.0004918848
0.0050013433 0.03235365 -0.088224016 -0.048293266 0.015966754 0.009100876 -0.029164778 -0.04155255
-0.021026198 -0.01095634 0.070628054 -0.043539144 -0.05716064 -0.029647581 -0.0077827564 0.008767946
-0.026260462 -0.05726768 0.049891848 -0.027414031 0.067198075 -0.09341552 -0.05081587 -0.0076523554
-0.022965161 -0.008970116 -0.0015409294 0.0004252636 0.0084416 0.010112996 0.01789671 -0.021781286
0.013930993 -0.015719183 -0.0141203655 0.012077075 0.012710919 -0.036512077 -0.039317936 -0.011261143
-0.039622296 -0.116853185 -0.06263973 0.007468868 -0.008534958 0.037188675 -0.055848673 0.021233765
0.015764205 0.041541457 -0.026015643 0.038202934 -0.002585903 -0.022065824 0.0010825691 -0.009378531
0.035201848 0.04954176 -0.033225395 0.0792758 -0.007211036 -0.049416054 0.06711335 0.00059213984
-0.10725549 0.007938763 -0.024808703 0.049709108 0.007305409 0.004195518 -0.025863864 0.018680312
00000000: dfbf 3ebd a9d9 00bd fc08 3e3a 2e9c 3f3d
00000010: 8570 38bd 1945 aabd e0fa 873d 55fd 37bd
00000020: e681 643d 8816 073b 7dfd 23bd 6693 afbd
00000030: 2a2b a43c 5c9a d6bc 9306 a2bc 7db5 98bd
00000040: 7a53 15bd 8a7f 9f3d 5c16 103c 85ad 9abd
00000050: a81f 1ebd b92e 12bb 5ebe 1cbd 0808 7ebd
00000060: fbec aebc ab59 6bbd 5845 b53c 1371 87bd
00000070: 8791 b73c 8ad3 16bd 6cfc ca3a 53b1 a33c
00000080: 1f85 be3a b01a 40bc 0861 94bc c3ed 213d
00000090: 8fdb 92bd d632 99bd d182 79bd 7967 8fbc
000000a0: 28bb 63bd 7f5e b9bd 4953 cb3b c8c5 213b
000000b0: 27a3 3f3d 0495 a0bc e913 1dbc 6243 583d
000000c0: ffdf fcbc a98e 3abc c9ce 2cbd a411 aebc
000000d0: ad81 d3bc 3430 2bbd 1812 3abc ff4d 1cbd
000000e0: 37da 213d 3c56 e5ba 72ac b43c 9880 26bd
000000f0: 24ad d6bc 2da2 113d a3e4 39bc 4e94 273d
00000100: 8662 f43c 853a 04bd 8854 9dbc 7777 ac3b
00000110: 83ef 273d 2c0b 7a3d 1fd5 76bd ff81 debb
00000120: 33ab 41bd f65f 2ebd 531e 653d 4f8b c43d
00000130: 63eb 0cbd 8b25 00bd bacc 313d f721 3f3c
00000140: 6ca7 f7bb d464 343c c5e4 493d a73e 44bb
00000150: ee20 4dbd 4716 9b3c c1c5 9c3c d048 52bd
00000160: 4888 e13b a2a4 b4bc ca98 113d bcc2 dfbd
00000170: 152a dabc 5bbe 02bd 0bcd 97bc c91c 7a3c
00000180: f2b7 4c3c 80b4 a039 7657 483c 60de 7dbd
00000190: 16f6 adbc 6a86 8ebd 42ba 113d 57c7 85bc
000001a0: 3642 223a e2ed 07bd 8ddc 7a3d 7fd6 783c
000001b0: 5f4d b13d 8945 88bd f4ff 81bc b44e 923d
000001c0: 9590 a7bd 6ded 5dbc cba2 7abd 5897 10bc
000001d0: 4eb6 b7bc d421 853c 185c 5b3d 0010 efbc
000001e0: 5028 583d b63c 02bc 775e 943d ddcb c83c
000001f0: d089 60bd 49e8 1dbd 04b5 cd3c fef7 46bd
00000200: 23a5 acbc 51f3 363d accb 353c 9989 b5bd
00000210: 89d0 d4bd e612 65bc 4510 95bd 8751 e33c
00000220: 01ee 96bd 90ab e5bb 2492 62bd f0fb e6bc
00000230: 450d 4fbd a05c 27bd 5253 f2bc 3372 283c
00000240: 2917 a93c 4389 60bc 1d4d a7bd 86b1 803a
00000250: 155f 1bbe 113b 1cbe 4a62 9f3c 82dd 66bd
00000260: a62e 65bd 7871 2dbc 955c 123d 0727 7cbd
00000270: 2e07 80bd 5534 a53c 5559 b2bc ee88 fd3c
00000280: 22b8 983d fde1 bcbc 9b36 63bc 3615 bb3b
00000290: f81b a53c 5d34 b03c 70db 013d 7add 743d
000002a0: 6f08 7ebc 1bc3 ef3c 40ba eabd cf77 9fbd
000002b0: bed1 e2bc 88b7 ca3b 63f2 a23d 4722 66bd
000002c0: da7b 1abd 5540 27bd f4ef 73bb 6a3f 6bbd
000002d0: fba2 8f3d 0fe1 f1bc f97f 2dbd d5f1 00ba
000002e0: 4fe2 a33b 4385 043d cbae b4bd 29cf 45bd
000002f0: b6cc 823c d71b 153c f9ea eebc 0233 2abd
00000300: 223f acbc 3882 33bc 71a5 903d 1a56 32bd
00000310: 4621 6abd 7cdf f2bc 7e06 ffbb 6ea7 0f3c
00000320: 2e20 d7bc 8491 6abd 655b 4c3d 6493 e0bc
00000330: 259f 893d a350 bfbd 4d24 50bd 9cc0 fabb
00000340: 6f21 bcbc 65f7 12bc 03f9 c9ba eaf5 de39
00000350: a34e 0a3c fbb0 253c 1f9c 923c ab6e b2bc
00000360: d23e 643c 84c5 80bc 1b59 67bc edde 453c
00000370: 7541 503c b08d 15bd d80b 21bd a880 38bc
00000380: fd4a 22bd b950 efbd 4249 80bd 68bd f43b
00000390: 35d6 0bbc 2753 183d 94c1 64bd 6ff2 ad3c
000003a0: ef23 813c 6027 2a3d c21e d5bc ae7a 1c3d
000003b0: 4178 29bb 63c3 b4bc fee4 8d3a 69a8 19bc
000003c0: d02f 103d 4dec 4a3d 5a17 08bd 5a5b a23d
000003d0: 8e4a ecbb 7d68 4abd b972 893d d539 1b3a
000003e0: c4a8 dbbd 9611 023c 9f3b cbbc c79b 4b3d
000003f0: 3662 ef3b 8e7a 893b 74e0 d3bc 7407 993c

conv2.bias f4 [64]
0.0024368127 -0.0021372794 0.0017586431 -0.0006858137 0.0057168836 -0.0014558056 0.0022204118 -0.0037493033
0.0023742148 -0.00048132238 -0.0057650413 0.0021109283 0.003313809 0.0033299425 0.004631783 -0.0020031699
-0.0024703313 0.0010929632 -0.00571867 -0.013504664 -0.0047703786 -0.0032745034 -0.004627374 -0.0015456119
-0.0022446476 -0.003980955 0.0042371443 -0.00052131177 -0.0012478251 -0.00015859577 -0.0021915582 0.0020784854
-0.0031462987 0.00068271044 -0.003551393 -0.0014220128 0.007995894 -0.006495456 -0.0014221029 0.0018775662
-0.0024579577 0.0010693204 0.006386099 0.005207231 0.0017562971 -0.0023463683 -0.0043176827 0.0044968263
-0.0047444957 0.0049701063 -0.0052614985 0.0005274937 0.00038805653 -0.0028254632 -0.0017543021 -0.003124867
-0.0039785155 -0.0022774413 0.0010622515 -0.004476796 0.0022486055 -0.0010662203 -0.0018148482 -0.0014375601
00000000: efb2 1f3b 9911 0cbb 4582 e63a 2ec8 33ba
00000010: b254 bb3b bbd0 beba 5484 113b dfb6 75bb
00000020: b798 1b3b ff59 fcb9 ace8 bcbb 8057 0a3b
00000030: 7d2c 593b 2a3b 5a3b 36c6 973b 9d47 03bb
00000040: 48e5 21bb c241 8f3a ae63 bbbb ab42 5dbc
00000050: d650 9cbb 0d99 56bb 3aa1 97bb 2196 caba
00000060: f01a 13bb ac72 82bb bed7 8a3b a4a8 08ba
00000070: 108e a3ba ba4c 26b9 3fa0 0fbb 3337 083b
00000080: 2232 4ebb ecf7 323a 7dbe 68bb d562 baba
00000090: 3601 033c d6d7 d4bb db65 baba ab18 f63a
000000a0: b015 21bb 7028 8c3a 7b42 d13b 6ba1 aa3b
000000b0: 8d33 e63a 87c5 19bb 597b 8dbb 1d5a 933b
000000c0: b777 9bbb 46dc a23b a668 acbb 8147 0a3a
000000d0: 1174 cb39 682b 39bb 9cf0 e5ba 92ca 4cbb
000000e0: 355e 82bb 2041 15bb 3f3b 8b3a 16b2 92bb
000000f0: 575d 133b 6bc0 8bba 33e0 edba 836c bcba

conv3.weight f4 [64, 64, 3, 3]
-0.048712965 -0.00027318476 -0.02598976 0.0032970253 0.004862066 0.03916755 0.009880135 -0.0051324386
0.004468255 -0.05633812 0.026100144 -0.03204727 0.027293867 -0.0126168495 -0.0061754584 0.054438017
0.011506605 -0.01709586 0.00016515482 0.031537652 -0.038232427 0.0032383432 -0.017619595 -0.014813366
0.07721241 0.018946726 0.014747082 -0.04676294 0.047517356 -0.039594132 0.049498837 -0.037815575
-0.024120528 -0.08354606 0.02440937 -0.03319198 0.074741766 0.032666173 0.010483094 0.0070664133
0.059101347 -0.03723115 0.018611358 -0.033629794 -0.028399158 0.017629284 -0.10135692 -0.0720667
0.0026807173 0.020871395 -0.032015946 0.0058030277 -0.023177983 -0.07469814 0.048832994 0.04972118
0.012195247 -0.009666069 0.06666359 0.038330022 -0.02373061 -0.036525656 -0.026821893 0.05169459
-0.030832862 0.03029338 0.020905547 -0.05932425 -0.029732164 0.097442 -0.02903213 -0.029143674
0.026023746 -0.00816998 0.055524968 -0.024575107 -0.011964291 0.066446654 0.030907217 0.01276266
0.030019527 0.018884461 0.008754718 0.08531766 0.016943095 0.047162384 0.0089128725 0.0019446404
-0.018041447 -0.08658107 -0.01862065 0.023612224 -0.0040420895 0.07474733 0.010905873 0.028643304
0.040754728 0.013207583 0.017577216 -0.042154837 0.044789877 0.071725346 0.03304032 -0.0077439444
-0.08033636 -0.037023976 -0.00861182 -0.030417623 -0.037244845 0.015919609 0.05232548 -0.03709151
0.0056639505 -0.03588043 -0.009714742 0.083613805 0.02639882 0.08080911 -0.016439212 -0.055802576
0.009741001 0.025780795 -0.092630684 0.027032986 0.071765974 -0.029933205 -0.02345354 -0.010225975
0.025092514 -0.03286444 -0.009279954 0.029607117 -0.028330643 0.020171085 0.053087335 0.033706218
0.005027937 0.030458 0.051296502 -0.001221552 -0.0071820463 0.019320361 0.041946664 -0.06847795
-0.051928934 0.057380307 0.014305621 0.02323197 -0.076115064 -0.0014840664 -0.06702299 -0.03473176
-0.020175394 -0.0132860085 -0.02132653 -0.02780519 -0.034023087 0.00963448 0.021327375 0.027228022
-0.0055162315 -0.018052915 0.0037127405 0.008247888 0.00779773 -0.011162613 0.041660998 0.0755877
0.09695105 -0.008174679 0.0025783947 -0.0011847492 -0.011349325 0.04815117 -0.014170345 0.020003239
-0.003357896 -0.01004068 -0.06730196 0.030891255 0.016434621 0.010297187 -0.053313572 -0.037057884
-0.065122046 0.008585191 -0.028371176 0.019015076 0.042686358 0.07486169 -0.0009561492 -0.0037103866
0.016663885 -0.015385974 0.0037126394 0.0048406348 -0.0032704175 0.020812718 -0.04948337 0.046095647
-0.025231918 -0.0008063061 -0.025774775 0.0239168 -0.00503704 0.0078062 -0.026093047 -0.01172554
-0.04359306 0.017710801 0.009303739 -0.013078772 -0.035992943 -0.037371147 0.026644815 -0.043012064
-0.029339503 0.086777814 -0.012084722 0.012439048 -0.035336316 0.011466773 -0.025095046 0.0057528936
-0.030121943 0.0063140583 -0.02865794 0.048566513 0.07534312 -0.028948605 0.048965275 0.023234198
-0.03290275 0.040412124 -0.07455015 0.00092500413 0.06248875 0.024911096 0.005465321 -0.010930799
-0.09649861 -0.018121842 0.09924572 0.017309299 -0.021190995 0.058896285 -0.00690559 -0.042384215
0.043800395 -0.024856301 -0.05611049 -0.014411529 0.007855227 -0.00920064 0.019622248 -0.0154856
00000000: 3f87 47bd 3d3a 8fb9 7ae8 d4bc e812 583b
00000010: f751 9f3b 276e 203d 4ae0 213c 042e a8bb
00000020: 716a 923b cdc2 66bd f8cf d53c 0044 03bd
00000030: 6397 df3c e7b6 4ebc 805b cabb 66fa 5e3d
00000040: 3386 3c3c 9e0c 8cbc 692d 2d39 a02d 013d
00000050: 9b99 1cbd 623a 543b f856 90bc c3b3 72bc
00000060: 8a21 9e3d 2a36 9b3c bf9d 713c 7f8a 3fbd
00000070: 8fa1 423d 752d 22bd 4bbf 4a3d 81e4 1abd
00000080: 6a98 c5bc 321a abbd 29f6 c73c 50f4 07bd
00000090: 3612 993d f7cc 053d 48c1 2b3c 5f8d e73b
000000a0: 4114 723d b17f 18bd d976 983c 65bf 09bd
000000b0: 5aa5 e8bc 4a6b 903c 3894 cfbd b597 93bd
000000c0: f9ae 2f3b 7dfa aa3c 2723 03bd 5327 be3b
000000d0: c1df bdbc 57fb 98bd 1b05 483d 70a8 4b3d
000000e0: 93ce 473c 6f5e 1ebc ec86 883d f1ff 1c3d
000000f0: b266 c2bc ed9b 15bd 96b9 dbbc b5bd 533d
00000100: 3395 fcbc d329 f83c 1c42 ab3c fcfd 72bd
00000110: de90 f3bc ac8f c73d cad4 edbc b7be eebc
00000120: c02f d53c 61db 05bc 266e 633d bc51 c9bc
00000130: e005 44bc 2f15 883d 2231 fd3c 7a1a 513c
00000140: 83eb f53c 96b3 9a3c f36f 0f3c 06bb ae3d
00000150: 3fcc 8a3c 582d 413d 4c07 123c 4ee3 fe3a
00000160: a8cb 93bc 6b51 b1bd 558a 98bc 6c6e c13c
00000170: 8173 84bb 2115 993d 8cae 323c 5da5 ea3c
00000180: 6eee 263d 9e64 583c 18fe 8f3c 8daa 2cbd
00000190: 9775 373d bde4 923d 4955 073d eac0 fdbb
000001a0: 6487 a4bd 74a6 17bd 9718 0dbc 612e f9bc
000001b0: 0d8e 18bd d769 823c 3e53 563d 44ed 17bd
000001c0: a998 b93b 5cf7 12bd 952a 1fbc b73d ab3d
000001d0: 5742 d83c 3f7f a53d 87ab 86bc 3e91 64bd
000001e0: b898 1f3c 3f32 d33c 28b5 bdbd 4874 dd3c
000001f0: 0afa 923d 7b36 f5bc a321 c0bc d98a 27bc
00000200: d18e cd3c dd9c 06bd f30a 18bc a08a f23c
00000210: aa15 e8bc d53d a53c 1b72 593d 880f 0a3d
00000220: 64c1 a43b 0e83 f93c 481c 523d 7c1c a0ba
00000230: 5f57 ebbb bc45 9e3c 44d0 2b3d 2b3e 8cbd
00000240: 6fb3 54bd 9d07 6b3d 2062 6a3c f950 be3c
00000250: 37e2 9bbd 0185 c2ba 5943 89bd e442 0ebd
00000260: de46 a5bc 8fad 59bc fab4 aebc b6c7 e3bc
00000270: cb5b 0bbd f0d9 1d3c bfb6 ae3c 4d0d df3c
00000280: 81c1 b4bb b5e3 93bc 7351 733b 2622 073c
00000290: 1a84 ff3b 64e3 36bc b9a4 2a3d b9cd 9a3d
000002a0: 468e c63d 17ef 05bc 49fa 283b 9649 9bba
000002b0: 85f2 39bc 293a 453d bc2a 68bc d5dd a33c
000002c0: 2610 5cbb aa81 24bc 9cd5 89bd a80f fd3c
000002d0: e6a1 863c 88b5 283c 555f 5abd 02ca 17bd
000002e0: b55e 85bd e7a8 0c3c ab6a e8bc 81c5 9b3c
000002f0: e4d7 2e3d 1651 993d 16a6 7aba f529 73bb
00000300: b382 883c 7415 7cbc c14f 733b 309e 9e3b
00000310: 8054 56bb 6f7f aa3c 13af 4abd cace 3c3d
00000320: 2bb3 cebc 495e 53ba 9f25 d3bc 2aed c33c
00000330: c10d a5bb 27cb ff3b 16c1 d5bc 7b1c 40bc
00000340: a38e 32bd 3e16 913c b66e 183c 5948 56bc
00000350: 566d 13bd 7d12 19bd 3a46 da3c 6b2d 30bd
00000360: 6659 f0bc 91b8 b13d fffe 45bc 26cd 4b3c
00000370: d0bc 10bd 22df 3b3c 2094 cdbc c582 bc3b
00000380: 4bc2 f6bc 29e6 ce3b 0ec4 eabc aeed 463d
00000390: 7e4d 9a3d a025 edbc d08f 483d a555 be3c
000003a0: 09c5 06bd 2f87 253d c0ad 98bd fa7b 723a
000003b0: 34f4 7f3d 5b12 cc3c 6f16 b33b 1817 33bc
000003c0: 10a1 c5bd 4274 94bc 5741 cb3d 3bcc 8d3c
000003d0: bd98 adbc 3b3d 713d 4a48 e2bb 129b 2dbd
000003e0: 0b68 333d 719f cbbc 1dd4 65bd 551e 6cbc
000003f0: 36b3 003c 48be 16bc d6be a03c 50b7 7dbc

conv3.bias f4 [64]
0.023502545 0.020512234 -0.02847572 0.030110613 -0.017894208 -0.032049973 0.02925162 0.034726914
0.031769272 0.02553612 0.027023599 0.031951074 0.029295852 -0.02927572 0.03145283 0.028933218
-0.011767119 0.0029320647 -0.008638343 0.02824183 0.035637617 -0.019499844 -0.02009466 0.028883807
0.03391352 -0.013883033 -0.015045024 0.030596493 0.03477883 0.030134264 -0.012925132 0.029227972
0.032456815 0.02939972 0.027726622 0.022137694 -0.031215211 -0.01435326 0.032977358 0.022337198
-0.005777122 -0.0072495523 0.034023345 0.004770853 0.008084997 -0.028866354 -0.02619487 0.03353667
0.029877495 -0.0034146863 0.0058766827 -0.030583011 0.002349651 0.03440908 -0.005219284 0.033335138
0.0040932014 -0.0021918484 0.020086095 0.03521934 0.032460567 -0.027806256 0.033207476 0.008097293
00000000: 6988 c03c 4609 a83c ea45 e9bc 88aa f63c
00000010: e096 92bc d546 03bd 18a1 ef3c cf3d 0e3d
00000020: 7f20 023d 2031 d13c 9860 dd3c 21df 023d
00000030: dbfd ef3c a2d3 efbc afd4 003d 5b05 ed3c
00000040: e0ca 40bc e227 403b d687 0dbc 695b e73c
00000050: c0f8 113d 23be 9fbc 8e9d a4bc bc9d ec3c
00000060: e7e8 0a3d a975 63bc 687f 76bc 7fa5 fa3c
00000070: 3f74 0e3d 22dc f63c efc3 53bc 806f ef3c
00000080: 70f1 043d aed7 f03c f122 e33c 1c5a b53c
00000090: 0bb7 ffbc f029 6bbc 4413 073d 80fc b63c
000000a0: 034e bdbb a78d edbb 105c 0b3d d154 9c3b
000000b0: ef76 043c 2279 ecbc a096 d6bc bf5d 093d
000000c0: a6c1 f43c eec8 5fbb 3091 c03b 3989 fabc
000000d0: 9afc 193b 89f0 0c3d 8706 abbb 6d8a 083d
000000e0: 4320 863b 1da5 0fbb 988b a43c 2842 103d
000000f0: 5ff5 043d f2c9 e3bc 9004 083d 82aa 043c

bn1.weight f4 [64]
1.0283233 1.0237937 0.99256784 0.98413604 1.0151062 0.9861812 0.98530084 1.01924
0.98085356 0.99142414 1.0211681 1.0243106 0.99343747 0.99038845 0.99122137 0.97727895
1.0065384 1.0188049 1.0250356 0.98940253 0.9792489 1.0274955 0.99823254 0.9977598
1.0098937 1.0198691 0.99423176 1.005342 1.0176843 0.999773 1.0035168 0.9971426
0.99080116 0.9827752 0.97669345 0.9884618 1.0165672 0.98353535 0.9781354 1.0012232
1.0084448 0.98942554 1.01908 1.0127101 0.99553984 1.0309525 1.0286869 1.0106283
0.98241717 0.9986804 1.0255315 0.9865126 1.007423 1.0152351 1.0326519 1.0117246
0.9813984 1.0084193 0.9839108 1.0155776 0.99907106 0.99631697 0.9858962 1.015881
00000000: 19a0 833f ac0b 833f ed18 7e3f 57f0 7b3f
00000010: 00ef 813f 5f76 7c3f ad3c 7c3f 7576 823f
00000020: 3819 7b3f f9cd 7d3f a3b5 823f 9c1c 833f
00000030: eb51 7e3f 198a 7d3f afc0 7d3f f42e 7a3f
00000040: 40d6 803f 3368 823f 5e34 833f 7c49 7d3f
00000050: 0eb0 7a3f f984 833f 2b8c 7f3f 306d 7f3f
00000060: 3244 813f 128b 823f f985 7e3f 0caf 803f
00000070: 7b43 823f 20f1 7f3f 3d73 803f bd44 7f3f
00000080: 25a5 7d3f 2897 7b3f 9508 7a3f d50b 7d3f
00000090: e01e 823f f9c8 7b3f 1567 7a3f 1528 803f
000000a0: b814 813f fe4a 7d3f 3771 823f 7ca0 813f
000000b0: b3db 7e3f 40f6 833f 03ac 833f 455c 813f
000000c0: b17f 7b3f 85a9 7f3f 9e44 833f 178c 7c3f
000000d0: 3df3 803f 39f3 813f f02d 843f 3180 813f
000000e0: ed3c 7b3f e213 813f 94e1 7b3f 72fe 813f
000000f0: 1fc3 7f3f a10e 7f3f b263 7c3f 6308 823f

bn1.bias f4 [64]
0.017937222 -0.020027546 -0.0062481575 -0.006869072 -0.023459094 0.0172173 0.009951492 0.011382228
-0.012715572 -0.008243319 0.0021843526 0.0130455205 0.002327414 0.0010504657 0.023883212 -0.022752086
0.017500436 0.0067262757 0.0044718385 -0.0009412545 0.006625277 -0.022958785 -0.010368971 0.006966881
0.003932547 -0.016534703 0.00018329768 -0.022470677 -0.006439689 -0.022333631 -0.008366868 -0.0027823935
0.013235436 -0.024041954 0.001261325 -0.005150855 -0.018583942 -0.007728037 -0.0013275407 0.01534881
0.02076127 -0.020889884 -0.0002628673 -0.009355651 -0.013680619 0.014469236 0.002537799 0.0070011946
-0.013450178 -0.031032404 -0.013248339 0.014818351 0.0070580477 0.004305373 0.01839312 -0.021465996
0.021113696 -0.016415877 0.019245028 0.008750176 0.010723697 0.0003569376 -0.02485213 -0.0212752
00000000: 15f1 923c cf10 a4bc 58bd ccbb f415 e1bb
00000010: 492d c0bc 4c0b 8d3c 950b 233c 867c 3a3c
00000020: f954 50bc fc0e 07bc 5b27 0f3b e1bc 553c
00000030: 8787 183b c8af 893a baa6 c33c 9562 babc
00000040: 135d 8f3c 1768 dc3b 8088 923b 85be 76ba
00000050: da18 d93b 1014 bcbc 9ee2 29bc 6f4a e43b
00000060: 98dc 803b c973 87bc 9933 4039 6d14 b8bc
00000070: 0704 d3bb 05f5 b6bc 3015 09bc d158 36bb
00000080: 71d9 583c a2f3 c4bc 0b53 a53a 81c8 a8bb
00000090: 5a3d 98bc 793b fdbb e000 aeba 9379 7b3c
000000a0: 8a13 aa3c 4321 abbc 74d1 89b9 7248 19bc
000000b0: ad24 60bc 6010 6d3c 3451 263b 476a e53b
000000c0: 235e 5cbc ab37 febc 900f 59bc abc8 723c
000000d0: 3247 e73b 1614 8d3b 2bad 963c 75d9 afbc
000000e0: a1f6 ac3c 977a 86bc c0a7 9d3c e65c 0f3c
000000f0: 72b2 2f3c 5b23 bb39 b296 cbbc 5449 aebc

bn1.running_mean f4 [64]
-0.004446493 -0.005771298 0.015705558 0.0043240017 -0.006268078 0.018394187 0.015558041 0.0058313436
-0.006711882 -0.0035286995 -0.005003296 -0.009465667 0.0050408836 -0.0023911977 0.0065330933 -0.0114952335
0.022724437 -0.0047369692 0.004311113 0.012360655 0.006648831 -0.00786972 -0.015487181 0.0071003293
0.008095156 -0.0035353524 -0.0072185714 -0.0016968441 -0.013794571 -0.012145705 -0.0002517494 0.0029423172
0.03228657 -0.022921171 0.019763853 -0.016149834 -0.009233543 0.0074681807 -0.004396729 0.016059713
0.019323284 -0.0027098812 -0.0020906108 -0.018110514 -0.003983547 -0.015497466 -0.022214346 -0.016184857
0.016480815 -0.0044062077 -0.0040621287 0.0034290534 -0.0073112077 -0.008218874 -0.020757737 0.009965811
0.029940085 -0.012627781 0.018551633 0.0044810735 0.0075457273 0.019976953 -0.009855846 -0.01695619
00000000: e3b3 91bb 281d bdbb f1a8 803c 5bb0 8d3b
00000010: 7364 cdbb 68af 963c 27e7 7e3c db14 bf3b
00000020: 59ef dbbb c141 67bb b0f2 a3bb e315 1bbc
00000030: ff2d a53b a4b5 1cbb 8f13 d63b 8156 3cbc
00000040: 9928 ba3c 9438 9bbb 3d44 8d3b 5884 4a3c
00000050: 70de d93b 00f0 00bc f2bd 7dbc e1a9 e83b
00000060: 8ca1 043c 5fb1 67bb c489 ecbb a468 deba
00000070: a002 62bc c7fe 46bc 3cfd 83b9 e4d3 403b
00000080: ec3e 043d 2ec5 bbbc cee7 a13c a84c 84bc
00000090: 4948 17bc a4b7 f43b 7012 90bb a98f 833c
000000a0: dd4b 9e3c 4398 31bb a102 09bb 805c 94bc
000000b0: 6a88 82bb 15e9 7dbc dcfa b5bc 1b96 84bc
000000c0: c602 873c f361 90bb 9b1b 85bb f8b9 603b
000000d0: db92 efbb 75a8 06bc 210c aabc a447 233c
000000e0: e944 f53c c1e4 4ebc 98f9 973c f8d5 923b
000000f0: 2642 f73b b5a6 a33c 6a7a 21bc b5e7 8abc

bn1.running_var f4 [64]
0.026677722 0.025254412 0.043648347 0.061966334 0.028970845 0.044816453 0.030488946 0.026283085
0.015722675 0.07662479 0.009455336 0.011947471 0.017634166 0.017866423 0.036617145 0.03611292
0.0557291 0.024204973 0.030756172 0.015579976 0.051490575 0.11783653 0.02743407 0.022692053
0.024596943 0.015172572 0.026586654 0.022803614 0.035356656 0.043036427 0.029797172 0.007873582
0.083953544 0.03250404 0.06775395 0.03648143 0.016600793 0.02511064 0.011602836 0.09342445
0.05042868 0.041706458 0.034511458 0.05195736 0.027639499 0.030938039 0.022913167 0.031024335
0.013138782 0.01104688 0.023786442 0.0072740493 0.028058441 0.050531685 0.053514715 0.038918644
0.101126 0.07142579 0.04575051 0.009672981 0.028364608 0.035695646 0.021026207 0.058279198
00000000: 3d8b da3c 57e2 ce3c 9cc8 323d 69d0 7d3d
00000010: 4454 ed3c 7591 373d f4c3 f93c a04f d73c
00000020: d7cc 803c 75ed 9c3d 8eea 1a3c 53bf 433c
00000030: 8775 903c 9b5c 923c dcfb 153d 24eb 133d
00000040: 3244 643d 8249 c63c 5ef4 fb3c 2843 7f3c
00000050: c8e7 523d 4754 f13d 6abd e03c afe4 b93c
00000060: 877f c93c 6196 783c 41cc d93c a5ce ba3c
00000070: 24d2 103d f746 303d 3319 f43c 3200 013c
00000080: d6ef ab3d f522 053d 95c2 8a3d 8d6d 153d
00000090: 63fe 873c d4b4 cd3c d219 3e3c 5155 bf3d
000000a0: 4e8e 4e3d 64d4 2a3d e35b 0d3d 3ed1 543d
000000b0: 3b6c e23c c571 fd3c 65b4 bb3c bf26 fe3c
000000c0: 0c44 573c f9fd 343c c9db c23c 265b ee3b
000000d0: d1da e53c 50fa 4e3d 3f32 5b3d 2869 1f3d
000000e0: 261b cf3d af47 923d e364 3b3d 6c7b 1e3c
000000f0: e55c e83c 9935 123d 273f ac3c 2bb6 6e3d

bn2.weight f4 [64]
1.0009866 1.0120624 0.9937529 1.0036217 1.0008155 0.9905802 0.99452126 1.0177712
1.0116031 1.0048754 0.9718455 1.006044 0.9823926 1.0099857 1.0145216 1.0359875
1.0235271 0.97745895 0.9796184 1.0010294 1.0008483 0.97969973 0.9868542 1.0223498
0.99441457 0.9829311 1.0126102 0.99895346 0.97238094 0.97936696 0.99226564 1.008923
1.003604 1.0011402 1.0168493 0.99043125 1.0007372 0.98996234 0.9866388 1.0017388
0.98076713 1.0182409 0.99406403 1.0036534 0.9861471 1.0000492 0.9772802 0.99798304
0.9722325 0.99487215 1.0333092 0.9956322 1.0109135 0.9984254 0.9812903 1.017837
1.016289 1.0184754 0.982617 0.9817069 1.002822 1.0071961 0.9738618 1.0293641
00000000: 5420 803f 438b 813f 9766 7e3f ad76 803f
00000010: b91a 803f aa96 7d3f f298 7e3f 5446 823f
00000020: 367c 813f c29f 803f deca 783f 0dc6 803f
00000030: 157e 7b3f 3647 813f d8db 813f 3d9b 843f
00000040: f002 833f c03a 7a3f 45c8 7a3f bb21 803f
00000050: cc1b 803f 9acd 7a3f 7aa2 7c3f 5cdc 823f
00000060: f491 7e3f 5fa1 7b3f 369d 813f 6abb 7f3f
00000070: f5ed 783f cbb7 7a3f 1f05 7e3f 6424 813f
00000080: 1976 803f 5d25 803f 1e28 823f e78c 7d3f
00000090: 2818 803f 2c6e 7d3f 5c94 7c3f fa38 803f
000000a0: 8e13 7b3f b855 823f fb7a 7e3f b777 803f
000000b0: 2374 7c3f 9d01 803f 092f 7a3f d17b 7f3f
000000c0: 3be4 783f f1af 7e3f 7a43 843f c0e1 7e3f
000000d0: 9d65 813f cf98 7f3f d735 7b3f 7c48 823f
000000e0: c215 823f 675d 823f ca8c 7b3f 2551 7b3f
000000f0: 795c 803f cdeb 803f 024f 793f 34c2 833f

bn2.bias f4 [64]
0.013649109 0.0020400817 -0.031612545 -0.010991102 0.005538827 -0.030492222 -0.00893224 -0.017727748
-0.014460288 -0.034463342 -0.00830191 0.0148667125 -0.007748514 -0.034542218 0.031873062 0.013543871
0.018309329 -0.03108161 -0.023497496 0.02752155 0.016133612 0.0062545054 -0.009347762 0.03483096
0.012821969 0.022559201 0.0010891405 -0.02164505 0.014773987 0.011275636 -0.0027453678 -0.026223835
0.004442208 0.024908751 0.034416746 -0.02580972 -0.029302921 0.029130224 -0.018761236 0.012822699
-0.022587774 0.01035692 0.006869666 -0.02852132 -0.011319989 0.021991303 -0.021947028 -0.016745515
-0.0032262746 -0.018280527 0.0023153836 -0.012388794 0.009720992 0.005496131 -0.0018266647 -0.03365741
-0.034899056 0.021754453 0.00041039608 -0.02283666 -0.012174462 -0.0120289745 0.018081866 0.038282145
00000000: 83a0 5f3c e4b2 053b 287c 01bd 0614 34bc
00000010: 0c7f b53b d3ca f9bc 8858 12bc c839 91bc
00000020: d8ea 6cbc 6f29 0dbd bc04 08bc 8393 733c
00000030: 3fe7 fdbb 247c 0dbd 548d 023d 1de7 5d3c
00000040: 72fd 953c dc9e febc d27d c0bc e074 e13c
00000050: a32a 843c 98f2 cc3b 5b27 19bc e9aa 0e3d
00000060: 3c13 523c 13ce b83c 7ec1 8e3a f650 b1bc
00000070: 980e 723c 72bd 383c a1eb 33bb 5ed3 d6bc
00000080: f18f 913b 700d cc3c 93f8 0c3d e86e d3bc
00000090: ae0c f0bc 82a2 ee3c 2ab1 99bc 4c16 523c
000000a0: ff09 b9bc 12b0 293c ef1a e13b 8ba5 e9bc
000000b0: 7a77 39bc 1b27 b43c 41ca b3bc e42d 89bc
000000c0: e86f 53bb 0bc1 95bc b1bd 173b 5efa 4abc
000000d0: cc44 1f3c e318 b43b b26c efba 5adc 09bd
000000e0: 50f2 0ebd 6536 b23c 6e2a d739 f213 bbbc
000000f0: 6577 47bc 2d15 45bc 6c20 943c bdcd 1c3d

bn2.running_mean f4 [64]
-3.2781343 -0.28456208 2.6962237 2.599599 0.5675735 2.1769369 -0.10688441 -0.7110552
-0.10412343 -0.25366926 1.4775317 2.5007586 1.889872 1.6860936 0.8608916 0.20699987
0.9502081 -0.5703883 1.5016466 1.9933071 2.250077 -1.7156988 -3.4509952 0.8640437
0.75422615 2.858581 1.6300464 1.075808 2.4907804 1.8941656 0.3810544 2.337568
2.6605077 0.66625845 0.9176873 -0.22405088 1.9176661 -0.15450963 0.114816286 1.6930591
1.5738678 -0.22853278 1.1606883 -0.13762324 -1.4419734 1.4104688 -2.6234722 -0.5725857
1.3698351 1.1207173 0.95350885 -0.01193352 1.3724066 0.28477487 2.8850589 0.19834977
0.3139296 0.76002026 3.4127002 -0.35474142 0.23132995 -1.3723204 1.2763343 0.9569992
00000000: f4cc 51c0 1fb2 91be ee8e 2c40 d45f 2640
00000010: 7f4c 113f ef52 0b40 37e6 dabd b707 36bf
00000020: aa3e d5bd f0e0 81be c21f bd3f 6e0c 2040
00000030: 53e7 f13f ead1 d73f 6463 5c3f c6f7 533e
00000040: d740 733f f804 12bf f535 c03f b024 ff3f
00000050: 4301 1040 059c dbbf 1bdd 5cc0 f831 5d3f
00000060: f714 413f fef2 3640 5ca5 d03f 14b4 893f
00000070: f268 1f40 0574 f23f 9019 c33e b79a 1540
00000080: c245 2a40 ea8f 2a3f 8eed 6a3f 986d 65be
00000090: 1576 f53f c637 1ebe cd24 eb3d 29b6 d83f
000000a0: 8074 c93f 7f04 6abe 6f91 943f 1bed 0cbe
000000b0: 9692 b8bf 3e8a b43f f8e6 27c0 fa94 12bf
000000c0: c256 af3f aa73 8f3f 2819 743f d084 43bc
000000d0: 05ab af3f 03ce 913e cea4 3840 341c 4b3e
000000e0: 61bb a03e b090 423f ae69 5a40 aba0 b5be
000000f0: c2e1 6c3e 32a8 afbf ec5e a33f e6fd 743f

bn2.running_var f4 [64]
8.098406 2.5469756 4.6059227 7.261095 3.2863715 4.8911214 4.2705717 2.7670121
2.1267145 1.9379491 1.058105 4.5097227 5.0833545 4.667693 4.1352086 1.7596158
3.790831 5.3798146 3.8663118 2.8900895 6.0662537 1.3629556 8.695783 3.8414855
2.534452 7.5010457 3.947349 2.4718833 4.9506297 5.4159217 2.908735 7.239611
6.266495 1.8916755 1.59083 2.2550561 2.9846497 2.246651 2.232444 3.1223779
2.8339133 2.9202225 4.079313 3.2747126 5.7928443 4.498639 5.3517356 2.5715053
4.183243 4.6638427 2.4228506 2.3913145 4.166329 2.066384 7.4302497 2.3164048
2.6462917 3.6145532 7.566529 2.7323422 3.5190759 2.591167 2.5437977 2.7525597
00000000: 1293 0141 a601 2340 b863 9340 e45a e840
00000010: e953 5240 1184 9c40 86a8 8840 ba16 3140
00000020: 171c 0840 b70e f83f fc6f 873f a64f 9040
00000030: d7aa a240 be5d 9540 a153 8440 173b e13f
00000040: fa9c 7240 7127 ac40 a771 7740 3af7 3840
00000050: c01e c240 5475 ae3f ed21 0b41 e6da 7540
00000060: 7634 2240 9108 f040 5ea1 7c40 5633 1e40
00000070: 8f6b 9e40 3b4f ad40 b728 3a40 e5aa e740
00000080: 2187 c840 6c22 f23f 51a0 cb3f d752 1040
00000090: 8004 3f40 21c9 0f40 5de0 0e40 0ad5 4740
000000a0: d65e 3540 ede4 3a40 bb89 8240 e494 5140
000000b0: fb5e b940 daf4 8f40 6b41 ab40 8b93 2440
000000c0: 20dd 8540 333e 9540 fc0f 1b40 4c0b 1940
000000d0: 9152 8540 a33f 0440 9bc4 ed40 fa3f 1440
000000e0: d85c 2940 d754 6740 0121 f240 b2de 2e40
000000f0: 8a38 6140 aed5 2540 95cd 2240 f029 3040

bn3.weight f4 [64]
1.0433459 1.0409956 1.0432025 1.0427791 1.0433335 1.0418853 1.0391538 1.0421547
1.0406647 1.0418876 1.0415288 1.041626 1.0430069 1.0408139 1.0393993 1.040576
1.0411773 1.041528 1.0425856 1.041949 1.0411326 1.0433571 1.040329 1.0400641
1.0440089 1.0397866 1.0433631 1.0426856 1.0424229 1.0405431 1.0412515 1.040867
1.0419592 1.0415732 1.0416534 1.0421263 1.0426924 1.0431938 1.0431222 1.038959
1.04285 1.0418037 1.0404727 1.0408692 1.0430917 1.0422015 1.0423868 1.0427104
1.0401089 1.0419217 1.0405656 1.0404719 1.0394816 1.0400352 1.0424638 1.043153
1.0435972 1.0434672 1.0428755 1.0411551 1.0429299 1.0431409 1.0415043 1.0431244
00000000: 5c8c 853f 583f 853f a987 853f c979 853f
00000010: f48b 853f 7f5c 853f fe02 853f 5365 853f
00000020: 8034 853f 935c 853f d150 853f 0054 853f
00000030: 4081 853f 6439 853f 090b 853f 9831 853f
00000040: 4c45 853f ca50 853f 7273 853f 965e 853f
00000050: d543 853f ba8c 853f 8029 853f d220 853f
00000060: 15a2 853f ba17 853f ec8c 853f b976 853f
00000070: 1d6e 853f 8430 853f bb47 853f 213b 853f
00000080: eb5e 853f 4552 853f e654 853f 6564 853f
00000090: f276 853f 6087 853f 0785 853f 9cfc 843f
000000a0: 1c7c 853f d359 853f 362e 853f 343b 853f
000000b0: 0784 853f dc66 853f ee6c 853f 8977 853f
000000c0: 4a22 853f b15d 853f 4131 853f 2f2e 853f
000000d0: bc0d 853f e01f 853f 746f 853f 0a86 853f
000000e0: 9894 853f 5590 853f f27c 853f 9244 853f
000000f0: ba7e 853f a485 853f 0350 853f 1a85 853f

bn3.bias f4 [64]
0.04339081 0.036794458 0.040989436 0.040524874 0.04160194 0.041392393 0.039518733 0.0434665
0.037982345 0.04257036 0.043125015 0.039574366 0.041671902 0.042766303 0.04216917 0.0380066
0.041293908 0.041939765 0.043779206 0.042331774 0.04232304 0.03968941 0.040344305 0.03899466
0.040932946 0.041640323 0.0432977 0.04079771 0.03504365 0.041249897 0.033978883 0.042582743
0.043876294 0.0415934 0.03611505 0.042707976 0.04261267 0.035284124 0.042632423 0.039994378
0.042071838 0.042049494 0.039677728 0.03609122 0.03930283 0.042922065 0.04159534 0.041904442
0.037703916 0.044024866 0.036760136 0.04012661 0.04112609 0.038513087 0.041251082 0.0424261
0.04131413 0.03808904 0.03948925 0.040388085 0.04402719 0.038911577 0.043807637 0.0399897
00000000: 90ba 313d c9b5 163d 8ae4 273d 69fd 253d
00000010: cc66 2a3d 128b 293d 65de 213d ee09 323d
00000020: 6093 1b3d 425e 2e3d dba3 303d bb18 223d
00000030: 28b0 2a3d b82b 2f3d 94b9 2c3d cfac 1b3d
00000040: cd23 293d 08c9 2b3d d351 333d 1564 2d3d
00000050: ed5a 2d3d 5d91 223d 1240 253d ddb8 1f3d
00000060: 4ea9 273d 0b8f 2a3d ee58 313d 801b 273d
00000070: ee89 0f3d a7f5 283d 712d 0b3d 3e6b 2e3d
00000080: a1b7 333d d75d 2a3d 60ed 133d 8fee 2e3d
00000090: a08a 2e3d 1686 103d 569f 2e3d 25d1 233d
000000a0: 8553 2c3d 173c 2c3d 1d85 223d 63d4 133d
000000b0: 01fc 203d 0ccf 2f3d e05f 2a3d fea3 2b3d
000000c0: 6c6f 1a3d 6b53 343d cc91 163d cd5b 243d
000000d0: d573 283d e6bf 1d3d e5f6 283d fdc6 2d3d
000000e0: 0139 293d 4103 1c3d 7bbf 213d fa6d 253d
000000f0: db55 343d bf61 1f3d a36f 333d 3dcc 233d

bn3.running_mean f4 [64]
1.2717164 1.243468 -0.8695341 0.68449825 0.6189691 -1.399488 2.4295397 1.3704547
1.4536767 0.84421957 0.6593772 1.9406668 1.5819417 -0.77569056 1.6801857 1.219335
-0.28839976 0.5491598 0.2496498 1.0223933 2.554697 0.1287235 -1.7990881 1.6815566
0.8432342 0.91249716 -2.1205132 1.2312332 2.4983501 2.0498285 -2.5961602 0.86821216
1.3392172 1.9602758 2.1155007 0.7295725 -0.82260364 -0.31073472 1.571448 1.3583511
1.0536096 1.0741504 2.2163026 0.7496511 1.0029744 -0.7890454 -1.6096026 1.9237604
1.5883807 0.124843664 1.9828479 -0.6661483 1.1274959 2.8233209 0.58519125 0.69397914
0.073354006 1.2984308 0.897539 2.2675934 1.7835572 -0.4359792 1.1383973 -0.38415876
00000000: 9ac7 a23f f629 9f3f c999 5ebf 473b 2f3f
00000010: c274 1e3f 6c22 b3bf 947d 1b40 0f6b af3f
00000020: 1412 ba3f c61e 583f f2cc 283f c567 f83f
00000030: 117d ca3f a893 46bf 5310 d73f 2b13 9c3f
00000040: 22a9 93be bd95 0c3f 32a4 7f3e c9dd 823f
00000050: 2880 2340 18d0 033e 8548 e6bf 3f3d d73f
00000060: 32de 573f 6a99 693f 7db6 07c0 0d99 9d3f
00000070: f8e4 1f40 6430 0340 7d27 26c0 2743 5e3f
00000080: 786b ab3f 51ea fa3f 5d64 0740 43c5 3a3f
00000090: 2796 52bf 9f18 9fbe 3525 c93f 73de ad3f
000000a0: aedc 863f c37d 893f e7d7 0d40 22e9 3f3f
000000b0: 7761 803f e1fe 49bf 7507 cebf c83d f63f
000000c0: 0f50 cb3f 09ae ff3d f6cd fd3f b288 2abf
000000d0: c951 903f 4ab1 3440 18cf 153f 9ea8 313f
000000e0: a03a 963d fb32 a63f 1ec5 653f 4020 1140
000000f0: 9a4b e43f aa38 dfbe 01b7 913f 75b0 c4be

bn3.running_var f4 [64]
0.86961037 2.20663 0.52982754 1.0295925 1.1806307 2.5582454 5.34513 1.3077581
1.5873119 1.3545667 1.3397138 1.6348519 3.040538 2.4137328 2.1966977 0.7630329
1.2402295 2.2092025 1.1919101 0.8913876 1.3313152 1.9819449 3.4131737 4.4694347
0.6977781 2.8068447 0.86455786 0.7665819 2.2931454 2.075704 1.7917174 2.2802444
1.9440151 3.8152606 4.3165317 3.4769936 1.0785799 1.5029876 1.1796539 4.710621
0.53103787 1.0646878 2.2029383 2.895653 2.3601828 1.174656 1.259565 1.541186
2.8416631 2.3210857 5.529621 0.7120585 3.3037002 1.59322 1.9248456 1.1219593
2.66726 1.9842222 1.7310048 1.4538455 2.399989 0.7177819 1.3165321 1.1419805
00000000: c99e 5e3f 6d39 0d40 c7a2 073f b0c9 833f
00000010: e81e 973f 4bba 2340 4e0b ab40 9e64 a73f
00000020: 092d cb3f 7162 ad3f be7b ab3f d442 d13f
00000030: 2d98 4240 997a 1a40 b296 0c40 2056 433f
00000040: d7bf 9e3f 9363 0d40 8390 983f fa31 643f
00000050: 8968 aa3f 5fb0 fd3f 7071 5a40 9c05 8f40
00000060: 96a1 323f 58a3 3340 aa53 5d3f b63e 443f
00000070: e5c2 1240 56d8 0440 ff56 e53f 86ef 1140
00000080: 7dd5 f83f 3b2d 7440 0721 8a40 1087 5e40
00000090: e80e 8a3f e661 c03f e6fe 963f 68bd 9640
000000a0: 19f2 073f b147 883f f1fc 0c40 6152 3940
000000b0: 3c0d 1740 215b 963f 6d39 a13f 9545 c53f
000000c0: cfdd 3540 ab8c 1440 a8f2 b040 7749 363f
000000d0: d36f 5340 a2ee cb3f 5761 f63f 5d9c 8f3f
000000e0: 63b4 2a40 fefa fd3f 9191 dd3f 9c17 ba3f
000000f0: 6b99 1940 8ec0 373f 2084 a83f 6b2c 923f

fc.weight f4 [5, 64]
-0.002129656 -0.0015661883 -0.002058369 -0.0007561633 0.0013529185 -0.0035836897 0.0009072809 -0.0012115509
0.0064783334 -0.0055287755 -0.005395772 -0.0075248373 -0.005891768 -0.005627606 0.0023122737 0.0062701902
0.0010081354 -0.0018046043 -0.013127155 -0.011143958 0.0026763303 0.00905124 7.810446e-05 0.011783382
-0.0091202855 0.002644379 -0.0009821934 -0.005877171 0.008776511 -0.010516391 -0.0045625675 -0.0011610271
0.008320792 -0.0012779324 9.773718e-05 0.0059829704 -0.004686431 -0.006647189 0.006286607 0.0030985835
0.004782543 -0.009332075 -0.015722787 3.7346985e-05 -0.005361431 0.0018525406 0.009031515 -0.0027855614
-0.0043366067 0.008451392 -0.02128288 -0.0024941089 -0.0050577326 -0.000944096 -0.0072232797 -0.0061587356
-0.0010840248 0.0025218197 -0.0057107788 0.0017386823 -0.0070505384 0.00037541016 0.0020439797 9.261833e-05
0.006816884 0.0045283823 0.00014229496 -0.0011582229 0.009833374 0.0028378565 0.0018570278 0.005590487
0.008778868 -0.0017957048 4.06875e-05 -9.015497e-05 -0.0014296131 0.006024098 0.0064080795 0.0063549834
0.007139721 0.0061050113 -0.006676687 -0.0038017347 0.0077439733 0.011266728 -0.00080547226 0.009716404
-0.0017117424 0.006138467 -0.0004626107 0.0022604365 -0.0019511555 -0.0023337358 0.0032812348 8.04447e-06
0.008769703 0.0019665034 0.003182707 0.010707646 -0.0004032055 -0.00053751975 0.011924398 0.009601459
0.007987987 0.0007136 -0.0038398635 0.008261107 0.0022601779 0.006366806 0.013497347 -0.00057988043
0.0050705266 0.0046641757 -0.010021825 -0.0009872367 0.008563329 0.011901815 0.005127685 -0.0033971693
0.0032867894 0.010003691 0.00417684 0.0065260315 0.00075344945 0.004403939 0.0044328175 0.003715775
-0.0071401373 -0.0005153058 0.0017431228 -0.00053130434 0.007075925 0.002198529 0.0023061666 -0.0006069263
0.006104221 -0.0048083537 -0.011650537 0.00024654146 0.00022723323 -0.0044037513 0.0051531335 0.005139476
-0.0004262168 -0.0012998964 -0.010493632 -0.005891707 0.0028617284 0.004796909 -0.0005472208 0.015317459
-0.0073371422 9.8946264e-05 -0.001793368 0.001642576 0.008046976 -0.0030276948 0.0016576011 0.0016064165
0.0077601895 -0.0028170727 0.00058097526 0.006608656 -0.0042271577 -0.0034230538 0.011859447 0.0017737832
0.008657706 -0.006032779 -0.0029953609 -0.00021446824 -0.0008971964 0.0028907852 0.010651344 0.00233191
-0.0003165547 0.0014692049 -0.012970756 0.00014004052 0.005869957 0.000751043 0.00057532545 -0.0052186674
-0.0033238987 0.007938068 -0.0032573375 -0.00064789684 -0.019818531 0.0023690162 -0.0018188745 -0.0023560822
0.0034415459 0.002948402 -0.0012163175 -0.0008853533 0.0038528633 -0.002202745 0.00079549314 -0.00048722705
-0.0012151115 -0.0014000258 -0.00090096425 0.00091107027 -0.0055448227 -0.0018235878 0.0027440228 0.00058239297
0.0034566245 -0.0009445941 -0.009847603 -0.0032479288 0.0024690507 0.0068028355 -0.0014298081 0.014547408
-0.004214581 0.003749767 -0.007933775 0.00036691508 0.0033339732 -0.0011825621 -0.0017430409 -0.0049306536
-0.0009520271 -0.019919973 0.002262577 -0.00020311792 -0.0006853501 -0.00800322 0.004550386 0.004948908
0.0058130287 -0.0058110994 -0.005488933 -0.00051979907 0.0029214208 0.0023744847 0.008999668 -0.0033393493
-0.005743296 0.0012548483 -0.018705435 -4.3560725e-05 -0.0033109854 0.006081618 -0.0024202233 0.00017777193
-0.0018343026 0.006494147 0.0002886894 -0.00070686906 -0.00040329658 0.0005192618 0.0031532166 -0.0008783757
00000000: b391 0bbb 8f48 cdba b4e5 06bb 4339 46ba
00000010: 6954 b13a 56dc 6abb 97d6 6d3a e7cc 9eba
00000020: 3348 d43b bb2a b5bb 04cf b0bb e992 f6bb
00000030: bb0f c1bb c867 b8bb 8489 173b 2b76 cd3b
00000040: 6923 843a 7988 ecba 4713 57bc 2695 36bc
00000050: 5f65 2f3b a74b 143c 03cc a338 160f 413c
00000060: 406d 15bc 514d 2d3b f1bc 80ba 4995 c0bb
00000070: 5bcb 0f3c f14c 2cbc 9781 95bb 9b2d 98ba
00000080: ee53 083c 4c80 a7ba 40f8 cc38 cb0c c43b
00000090: a290 99bb aad0 d9bb e2ff cd3b 9b11 4b3b
000000a0: e1b6 9c3b 8fe5 18bc 13cd 80bc 05a5 1c38
000000b0: f1ae afbb f3d0 f23a ebf8 133c f78d 36bb
000000c0: 181a 8ebb b577 0a3c 6f59 aebc 3474 23bb
000000d0: 56bb a5bb 367d 77ba 43b1 ecbb 38cf c9bb
000000e0: d615 8eba 1d45 253b 7c21 bbbb 7fe4 e33a
000000f0: 3408 e7bb b3d2 c439 4af4 053b 163c c238
00000100: 2b60 df3b d362 943b 0335 1539 83cf 97ba
00000110: 291c 213c 55fb 393b 8367 f33a 6730 b73b
00000120: 3ed5 0f3c db5d ebba dfa7 2a38 9511 bdb8
00000130: db61 bbba cc65 c53b defa d13b 773d d03b
00000140: 52f4 e93b 8c0c c83b 1cc8 dabb 8626 79bb
00000150: 28c1 fd3b 1598 383c 5426 53ba 8d31 1f3c
00000160: 8b5c e0ba 3225 c93b 8f8a f2b9 d523 143b
00000170: eabd ffba 97f1 18bb fc09 573b bcf6 0637
00000180: cdae 0f3c 74e0 003b f694 503b 1f6f 2f3c
00000190: 5365 d3b9 57e8 0cba 8d5e 433c 704f 1d3c
000001a0: 0ce0 023c e310 3b3a 38a6 7bbb 9859 073c
000001b0: 7e1f 143b a4a0 d03b fa23 5d3c 1e03 18ba
000001c0: a926 a63b f1d5 983b 9532 24bc 2b66 81ba
000001d0: 344d 0c3c d5ff 423c 2406 a83b 0ba3 5ebb
000001e0: 2d67 573b 85e6 233c e0dd 883b 52d8 d53b
000001f0: 2383 453a eb4e 903b 2b41 913b 5c84 733b
00000200: d0f7 e9bb 9615 07ba 7f79 e43a 3b47 0bba
00000210: 29dd e73b 3215 103b 0e23 173b 221a 1fba
00000220: eb05 c83b 658f 9dbb e5e1 3ebc 3c42 8139
00000230: 7545 6e39 584d 90bb 9edb a83b 0d69 a83b
00000240: da75 dfb9 4961 aaba 7ced 2bbc 380f c1bb
00000250: d68b 3b3b 642f 9d3b 5e73 0fba 14f6 7a3c
00000260: 696c f0bb 5f81 cf38 720f ebba b44b d73a
00000270: 77d7 033c 4a6c 46bb dd43 d93a 658e d23a
00000280: 3049 fe3b a39e 38bb 974c 183a 6d8d d83b
00000290: f883 8abb 5055 60bb 204e 423c 4a7e e83a
000002a0: 0dd9 0d3c 9eae c5bb d14d 44bb e1e2 60b9
000002b0: d531 6bba 5473 3d3b fa82 2e3c f5d2 183b
000002c0: 41f7 a5b9 5692 c03a 4b83 54bc d7d7 1239
000002d0: c558 c03b a4e1 443a 70d1 163a 5b01 abbb
000002e0: c4d5 59bb ac0e 023c 0e79 55bb 9fd7 29ba
000002f0: 795a a2bc 7f41 1b3b 4d67 eeba 8068 1abb
00000300: 8f8b 613b fa39 413b d86c 9fba 0e17 68ba
00000310: 5280 7c3b ee5b 10bb a488 503a 8272 ffb9
00000320: 6044 9fba 1281 b7ba b02e 6cba e4d4 6e3a
00000330: 58b1 b5bb 7405 efba 10d5 333b bbab 183a
00000340: 8988 623b a39e 77ba d757 21bc 34db 54bb
00000350: cccf 213b 52ea de3b 6668 bbba 4058 6e3c
00000360: 781a 8abb a7be 753b aafc 01bc 825e c039
00000370: ca7e 5a3b 3300 9bba bf76 e4ba 5291 a1bb
00000380: 7591 79ba 362f a3bc be47 143b 0dfc 54b9
00000390: 11a9 33ba f01f 03bc 681b 953b 732a a23b
000003a0: 387b be3b 096b bebb 82dc b3bb 2043 08ba
000003b0: 4f75 3f3b 3e9d 1b3b 5873 133c fcd8 5abb
000003c0: 4232 bcbb b979 a43a 243c 99bc f9b4 36b8
000003d0: 1efd 58bb 4f48 c73b 9c9c 1ebb 4a68 3a39
000003e0: fb6c f0ba dacc d43b 3c5b 9739 2e4d 39ba
000003f0: 8d71 d3b9 121f 083a 32a6 4e3b cc42 66ba

fc.bias f4 [5]
0.98194456 1.0251558 0.99631125 0.98501605 1.0088341
00000000: b860 7b3f 4e38 833f 410e 7f3f 032a 7c3f
00000010: 7a21 813f
