maml-notebook/completet_model/model1/model-epoch_00035-train_loss_0.135-train_acc_0.858-test_loss_0.504-test_acc_0.859.pt (torch_old, 305688 bytes, 20 tensors)

conv1.weight f4 [64, 1, 3, 3]
000000 83 ec 1f 3d 7d 13 cc 3d 99 9d 39 bd 7d 01 f4 bc
       0.039043915 0.099646546 -0.045316312 -0.029785866
000010 06 0e 4a 3d 6a b6 1d 3d 55 99 47 bd 18 f8 5f 3c
       0.04932978 0.03850404 -0.048730213 0.01366999
000020 ef f9 b5 3c 4d 55 00 bc 99 99 f9 bd f4 7b ae bc
       0.022213904 -0.007832837 -0.121874996 -0.02129934
000030 a7 4d 3f 3d 08 86 98 3d 18 18 2f bd 47 06 4a 3b
       0.046704914 0.074474394 -0.042747587 0.0030826495
000040 c7 b7 67 3d c6 e2 9b 3d de 65 d4 bc 4f a4 f9 bc
       0.056571748 0.07611613 -0.02592748 -0.030473856
000050 df a0 9b bd 50 d7 a6 bc a8 b4 54 3d 8b 66 a1 bd
       -0.07599043 -0.02036634 0.0519301 -0.07880887
000060 58 f8 6a bd 9d 6b e7 3c 94 3f 08 bd d2 e0 17 be
       -0.057365745 0.028249556 -0.033263758 -0.14831856
000070 ea 8b 22 3d 7d 99 b7 bd 08 fc 4c 3c e0 45 dc 3d
       0.039684214 -0.089648224 0.012511261 0.10755515
000080 ab 19 47 bd 34 5a 04 3d 63 e3 93 3d 36 a6 c7 bc
       -0.048608463 0.032312587 0.07221105 -0.024371248
000090 52 34 1b bb b4 df 97 3d d4 93 13 bd 63 a2 f6 3c
       -0.0023682308 0.07415715 -0.03602965 0.030106729
0000a0 63 f3 ff bb 20 85 41 bd e4 4c 68 3d ff 68 dc 3c
       -0.0078109964 -0.0472461 0.056713954 0.026905535
0000b0 78 8f 80 bd ff ba b2 3b 47 88 9e bd 98 58 cd bc
       -0.062773645 0.0054544206 -0.077408366 -0.025066659
0000c0 e5 ac f5 bd a4 4c 64 bd cf 3d ae bc 8d c7 37 3d
       -0.11995868 -0.055737153 -0.021269707 0.04486804
0000d0 26 e9 12 bb 94 b2 f1 3c ac 8b a2 bd 3c 65 ca ba
       -0.00224168 0.029504098 -0.079367965 -0.0015441547
0000e0 2b b0 c1 bd 32 77 d6 3c c0 9e 3d bd 7b 84 06 3e
       -0.094574295 0.026179884 -0.046293974 0.13136475
0000f0 36 0f f6 bc d1 60 6e 3c e3 29 fa bd 93 7e 62 bd
       -0.03003655 0.01454945 -0.122150205 -0.05529649
000100 7a 4b 0b bd ff f5 23 bd fe 75 dc 3b d3 50 bd bc
       -0.034007527 -0.040029522 0.006727933 -0.023109829
000110 f1 e3 be 3d b3 af 89 3d 72 b9 ba 3d 95 90 04 3a
       0.0932082 0.06722965 0.09117402 0.0005056945
000120 09 eb 3a 3c 7e 16 00 bd fc 76 a4 3c 12 5b 8c 3d
       0.011408576 -0.03127145 0.020076267 0.06853308
000130 65 1d b3 bc 8e 5d c4 3d 33 4a 2a bc b9 cc 2c 3d
       -0.021864602 0.09588157 -0.010393667 0.042187426
000140 7f 7f 67 bd 42 fb 57 3d d0 87 89 bd c0 45 18 3d
       -0.056518074 0.052729852 -0.06715357 0.037175894
000150 e6 f3 d5 3d 3d d2 76 3c d2 de 17 3e 61 22 71 3a
       0.104469106 0.015064773 0.14831093 0.0009198543
000160 94 f8 42 bd 53 67 24 3d 03 1c e5 bc 35 05 2e bd
       -0.047600344 0.0401376 -0.027967459 -0.042485435
000170 27 eb a2 ba 1e 85 1b 3d 98 2d af 3d 73 bc fa 3c
       -0.00124297 0.037968747 0.08553618 0.030607438
000180 25 72 91 3c 62 0b 23 bd 1b 42 b9 bc b6 4d 88 bc
       0.017754624 -0.039805777 -0.02261453 -0.016638618
000190 27 93 04 3d 38 a8 06 3d 4a e7 f8 3c ca cb 3c bd
       0.032366898 0.03287527 0.030383725 -0.046092786
0001a0 14 45 4f 3d 69 48 84 3c 3c 72 8c 3d 3d 03 3a bd
       0.050602987 0.01614781 0.06857726 -0.045413245
0001b0 f6 b7 56 3c 23 eb 83 bc 31 77 94 3b 70 f8 ae bd
       0.013105383 -0.016103333 0.0045308103 -0.085434794
0001c0 bf df 28 bc 61 6e 8e bc 66 a2 b6 bc af 91 2d 3d
       -0.0103072515 -0.017386617 -0.022294234 0.042375263
0001d0 eb b5 58 bd 88 1e a7 3c 7d 0b 17 3d d4 e7 9c 3b
       -0.052907865 0.0204003 0.03687619 0.0047883783
0001e0 d8 09 5a 3c fd 8a b0 bb b5 fa 97 3d cc 82 f6 bb
       0.013308011 -0.0053876624 0.074208654 -0.0075229164
0001f0 1d d2 d0 bd d6 97 57 bd 78 18 60 3d b1 da b1 3c
       -0.10196326 -0.052635036 0.054710835 0.021710726
000200 ab 20 11 3c 9a 6e ca bc 3e 57 a1 bd 9c d2 49 3d
       0.008857886 -0.024710942 -0.07877968 0.04927312
000210 82 a7 fa bc 2c a7 a7 bd c8 64 98 bd 5f 22 cd 3d
       -0.030597452 -0.081861824 -0.074410975 0.100163214
000220 6c 41 17 be e5 25 df bc e7 14 62 3d ee 34 5d 3d
       -0.1477105 -0.02723975 0.055195715 0.054005556
000230 b5 c7 16 3d 31 77 66 bc 9c 7b 1c 3b 12 af 83 3d
       0.03681155 -0.014066503 0.0023877388 0.064298764
000240 3a 9b 07 3b 72 84 e5 bd 7f 71 2f bd 66 e7 6f 3c
       0.0020691887 -0.112069026 -0.042832848 0.014642572
000250 9f b7 36 3c c3 4a a7 bc d0 2f 43 3d c8 de fb bd
       0.011152177 -0.020421391 0.04765302 -0.122983515
000260 8c 00 41 bb 55 45 c6 3d 3d e3 97 3d ab 59 03 3d
       -0.002944979 0.09681193 0.07416389 0.032067936
000270 c6 e2 90 bd 59 b8 5e 3b f1 37 0d 3d eb f1 a3 bc
       -0.070745036 0.0033984391 0.034477178 -0.020012816
000280 5d 57 c4 bb b1 b6 5e bc 20 73 28 bd 8d d8 ac bd
       -0.00599186 -0.013593362 -0.041125417 -0.08439741
000290 18 72 a2 bd 6f a7 24 bd f4 9c 4f 3d 08 c0 bc b9
       -0.07931918 -0.04019874 0.05068679 -0.0003600123
0002a0 ca 92 5c 3d 34 fe 43 3d 53 a5 94 3d dd ce ef bd
       0.053850926 0.04784985 0.072580956 -0.11709378
0002b0 43 a2 1e 3c c4 cf c3 3c e6 46 82 3c 2d e5 d4 3c
       0.009682241 0.023902781 0.015902948 0.025988186
0002c0 d1 6c 14 bd fa 09 3b bb 6e 3d 26 3c 68 51 02 bd
       -0.036236588 -0.0028539882 0.010146482 -0.031815916
0002d0 87 e7 8e 3d 24 0f 67 3d 83 f2 ce 3c ca a6 39 3d
       0.06977754 0.056410924 0.025262123 0.045325078
0002e0 83 cb 1f be e1 be 5b bd e1 cc 94 3d 8b c9 88 bc
       -0.15604977 -0.053648833 0.0726564 -0.016697666
0002f0 f2 c0 17 bd a0 87 e8 bc df 97 a0 3b 52 f8 f9 3d
       -0.03704924 -0.028384984 0.004900917 0.122055665
000300 cc dc ef bd 25 44 2d 3d 75 d5 bb 3d bc 67 d4 bd
       -0.117120355 0.042301316 0.09171573 -0.10371348
000310 d5 48 a2 3d 3c 06 f4 3c 5a bd a7 3c 91 a0 2b 3c
       0.07924048 0.029788129 0.020476032 0.010475294
000320 15 29 9b bd dc c8 11 3d 92 e9 cf 3d e5 bf cf 3d
       -0.07576195 0.035591945 0.10151972 0.10144023
000330 17 48 4a bd be 7a 9b bc 94 72 fc bb f5 9e e6 3b
       -0.049385156 -0.018979426 -0.0077040885 0.007037992
000340 93 9d b1 b9 08 13 3a bd b6 de 8a 3a 77 8d 62 3d
       -0.00033877473 -0.045428306 0.0010594937 0.055310693
000350 3b cb 22 bc b7 7e 61 3c 37 e9 43 3d b7 41 c9 bd
       -0.009936149 0.013763121 0.047829833 -0.09826987
000360 2a 27 15 bd ad d0 ae bd 42 45 a1 bd 83 4f 5b bc
       -0.036414303 -0.085358955 -0.07874538 -0.013385656
000370 aa 58 6d 3d 45 03 51 3a 95 1d 09 3d 78 ff 08 3d
       0.057945885 0.00079732045 0.033475477 0.03344676
000380 fa 26 8a 3d 03 aa 78 bd c6 4a 8d 3d 9f da 9b 3c
       0.067457154 -0.06070901 0.068990275 0.019025145
000390 45 85 2d 3d 50 73 31 bd e5 a2 87 3d 51 b5 70 3d
       0.042363424 -0.04332286 0.066228665 0.058766667
0003a0 4d 2d 06 3d 07 39 83 bd d9 4e e7 ba d6 40 91 ba
       0.032758046 -0.064073615 -0.00176474 -0.0011081945
0003b0 cc c1 5f 3c 4e b9 97 bd 63 08 2d 3d ec 97 e1 3c
       0.013657045 -0.07408391 0.042244326 0.027538262
0003c0 0b de 90 bd f3 4e 45 3c 0c 53 41 3d 8d 4f a8 bc
       -0.07073601 0.012042749 0.04719834 -0.020545745
0003d0 78 21 a5 3c 1d d8 b9 3d 3d 39 c9 3d de 36 ae 3c
       0.02015756 0.090744235 0.098253705 0.021266397
0003e0 4c b9 98 39 b9 63 7e bd e9 d4 98 bc fe ff bb bd
       0.00029129756 -0.06210682 -0.018656211 -0.09179686
0003f0 69 60 cf 3d df f8 15 3d ad 9e c2 bd bc 66 1f bd
       0.10125811 0.036614295 -0.09502921 -0.038916335

conv1.bias f4 [64]
000000 73 11 af 3b 7c a1 c2 b9 a8 d8 06 ba 98 a3 07 3b
       0.0053426563 -0.0003712288 -0.00051439786 0.0020696875
000010 84 5f 9c bb 47 bb 1d 3b f4 12 08 3b 8d fa 46 3c
       -0.0047721285 0.0024067925 0.002076325 0.012144697
000020 35 8c f2 3a 54 3d 77 3c be db 22 bb 0e 24 94 b9
       0.001850492 0.015090305 -0.0024850215 -0.00028255623
000030 e4 55 a7 bb 04 10 80 bb 07 d3 56 bb fb 33 75 bb
       -0.0051066745 -0.003908159 -0.003277959 -0.0037415016
000040 a8 9a c8 3b e1 14 2b 3b c8 aa 61 3b 7d c1 b8 3b
       0.006121952 0.0026104974 0.003443407 0.0056383
000050 2a 6f fd 3b 7b 0b 0a b9 c1 6f f2 bb 9f 5b a8 3b
       0.007734199 -0.00013164982 -0.007398576 0.005137875
000060 ca e3 06 3c 81 70 a4 3b 4a 72 de bb e3 0f 91 3a
       0.00823302 0.0050182943 -0.0067885267 0.0011067357
000070 35 1c bd 38 b4 49 9d 3a fe f5 db 3b 8d cb 06 39
       9.017476e-05 0.0012000115 0.006712674 0.00012855064
000080 16 ce ea 3b 06 de 0f bc 18 e0 85 3b 86 5a 70 bb
       0.0071656806 -0.008780962 0.004085552 -0.003667505
000090 5f 2e 04 bc 94 0b d8 bb b8 ff f5 ba 83 07 25 bc
       -0.008067696 -0.006593177 -0.0018768227 -0.010072592
0000a0 a2 0b 16 3c fa f6 c4 ba 62 af cb 3b da 59 18 bb
       0.009158047 -0.0015027218 0.0062159756 -0.0023246915
0000b0 1f 44 a5 3b 52 c7 3c bb 22 14 57 bc fd ad dd ba
       0.005043521 -0.0028805328 -0.013127359 -0.0016912814
0000c0 b0 2e c5 3b a7 80 3d ba 96 22 ec ba 68 32 82 3b
       0.0060175285 -0.00072289485 -0.0018015679 0.003973294
0000d0 e9 bb 50 3b 64 fc 06 bc 54 56 44 bb 7e 36 12 3c
       0.0031850284 -0.008238886 -0.0029958682 0.008924125
0000e0 75 82 a9 3a dd 15 1b bb 0e 1a ee 3b cd f8 1f 3c
       0.0012932556 -0.0023664155 0.0072662896 0.009763909
0000f0 9e 47 82 bb ab a0 3c 3c 7a a7 09 bc 9e d2 04 bc
       -0.0039758226 0.011512916 -0.008401746 -0.008106856

conv2.weight f4 [64, 64, 3, 3]
000000 40 ed 39 bd bd dd 0f bd f7 53 4f 39 ea ef 49 3d
       -0.045392275 -0.035123575 0.00019772338 0.049301066
000010 19 6a 37 bd fe 70 ac bd 75 fd 8f 3d 83 6b 2f bd
       -0.044778917 -0.08419989 0.07030765 -0.04282714
000020 1b 55 66 3d 15 d8 c8 3a 2b 07 25 bd cf aa ab bd
       0.056233507 0.0015323187 -0.04029004 -0.083821885
000030 3e 79 94 3c b5 07 d9 bc 48 77 97 bc 38 14 9a bd
       0.018124219 -0.026492933 -0.018489495 -0.07523388
000040 cc 46 14 bd ee dd a0 3d 5a 27 1c 3c 4a d1 9d bd
       -0.03620033 0.0785483 0.0095308665 -0.07705934
000050 24 68 1e bd 65 ad 19 bb 39 41 1d bd 1f 17 7c bd
       -0.038673535 -0.0023449298 -0.03839228 -0.061545487
000060 0f 00 a7 bc d7 60 6b bd 21 60 ba 3c 52 3f 84 bd
       -0.02038577 -0.0574654 0.022750916 -0.0645739
000070 69 9d b2 3c fb d9 17 bd eb 9f 0f 3b 3e 3d 95 3c
       0.021803575 -0.037073117 0.0021915387 0.01821768
000080 45 a3 ec 3a c1 b2 3b bc 6c 7e 93 bc ae 19 24 3d
       0.0018054029 -0.0114561925 -0.018004619 0.040063553
000090 88 95 91 bd 96 01 9a bd 45 4f 78 bd 1c 38 88 bc
       -0.07108599 -0.07519834 -0.060622472 -0.016628318
0000a0 34 d2 63 bd 4b d8 b7 bd bb ee f2 3b 36 9d f4 3a
       -0.055620387 -0.089768015 0.007413713 0.0018662575
0000b0 76 df 42 3d 10 0d 9e bc 93 65 32 bc 29 6d 5b 3d
       0.04757639 -0.019293338 -0.010888475 0.0535709
0000c0 a7 2b 02 bd f3 1e 3e bc 8f 35 2b bd dd 78 ae bc
       -0.03177991 -0.011604059 -0.041799124 -0.021297866
0000d0 f1 d3 d4 bc 14 63 29 bd 92 6e 44 bc a5 3e 1f bd
       -0.025979968 -0.041354254 -0.011989253 -0.0388781
0000e0 ae 98 26 3d c6 0f c6 ba 9c 48 b1 3c 20 a3 23 bd
       0.04067295 -0.0015110902 0.021641068 -0.03995049
0000f0 7b 82 cc bc c4 30 13 3d 51 94 2d bc a7 16 20 3d
       -0.024964562 0.03593518 -0.010594443 0.039084103
000100 aa 01 ec 3c 89 54 f9 bc d3 61 a6 bc c9 6c 83 3b
       0.028809387 -0.030435817 -0.020310318 0.004010771
000110 0f fe 2c 3d 94 4f 75 3d b3 67 77 bd 93 30 c3 bb
       0.042234477 0.059890345 -0.06040163 -0.005956718
000120 d7 c2 3f bd 1d 7d 30 bd fe 5a 6a 3d d5 df c7 3d
       -0.046816673 -0.043088067 0.057215683 0.097594894
000130 34 7e 0d bd 3c 91 f4 bc 8c 00 38 3d b4 06 4b 3c
       -0.034544185 -0.02985441 0.044922397 0.012391735
000140 cc e3 d8 bb 01 59 47 3c 95 2a 47 3d 57 cb 1d bb
       -0.0066189524 0.012167216 0.048624594 -0.0024077499
000150 78 e0 46 bd a5 12 a2 3c fa a2 9f 3c 53 d1 47 bd
       -0.048553914 0.019784281 0.019486893 -0.04878361
000160 4d 0e 06 3c b0 3c a4 bc 15 a2 08 3d 18 60 e0 bd
       0.0081821205 -0.02004847 0.0333577 -0.109558284
000170 9c 54 cf bc a2 3c 05 bd 6a 18 97 bc 13 77 8b 3c
       -0.0253089 -0.032528527 -0.018444259 0.017024552
000180 1e ea 45 3c f9 8f df 39 6e 87 55 3c aa 19 7f bd
       0.012079744 0.00042641142 0.013032777 -0.062280335
000190 ad 40 b1 bc 3e 18 8c bd 1d 17 19 3d 8f cb 88 bc
       -0.021637285 -0.06840561 0.03737556 -0.016698627
0001a0 6f b5 69 3b ab 90 09 bd cf 86 7a 3d f2 47 82 3c
       0.0035661121 -0.03358523 0.06116372 0.015903447
0001b0 9c a1 b3 3d 17 56 8b bd b6 d1 84 bc 6b c8 92 3d
       0.08771059 -0.0680353 -0.01621328 0.07167133
0001c0 23 8e a7 bd 90 90 58 bc 55 6e 76 bd 0f 23 0c bc
       -0.08181407 -0.01321806 -0.060163815 -0.0085532805
0001d0 05 fb b7 bc ec 23 67 3c 72 f9 5a 3d d3 e2 e5 bc
       -0.022458563 0.014107686 0.053460546 -0.02806226
0001e0 b7 23 58 3d a1 33 fb bb fc 79 95 3d 0d 46 d6 3c
       0.052768435 -0.0076660668 0.07298657 0.02615645
0001f0 18 32 5e bd 37 6e 1b bd 35 73 bf 3c b7 30 4a bd
       -0.054246992 -0.037946906 0.023370365 -0.049362864
000200 5d 18 a7 bc 67 b6 34 3d a8 bc 34 3c c6 90 b4 bd
       -0.02039736 0.044119265 0.011031307 -0.08816676
000210 e1 b0 d1 bd 02 d4 5c bc 6c ee 93 bd b9 5e f1 3c
       -0.10238815 -0.013478281 -0.0722321 0.029464113
000220 be 82 98 bd e8 84 ae bb 9c 1f 63 bd dc 45 e6 bc
       -0.07446812 -0.0053259023 -0.055450067 -0.028109483
000230 27 85 4b bd b4 22 24 bd e7 0c eb bc 78 81 34 3c
       -0.04968753 -0.040072158 -0.028692676 0.011017196
000240 49 12 a4 3c 61 1a 70 bc b1 0f a6 bd 93 d6 2b 3a
       0.02002825 -0.014654727 -0.08108462 0.00065551064
000250 82 3e 1b be cf 95 1b be 2f 63 a5 3c 5e e7 66 bd
       -0.15160564 -0.15193866 0.020188896 -0.056372993
000260 90 1a 62 bd f0 06 4f bc 36 ae 02 3d 0a ce 82 bd
       -0.055201113 -0.012635931 0.03190442 -0.06386955
000270 08 0d 84 bd af ed a6 3c e6 b3 b1 bc ce 13 06 3d
       -0.06447798 0.020377008 -0.021692228 0.03273373
000280 e0 bf 9c 3d 1e a3 c1 bc ba b5 67 bc 05 58 98 3b
       0.07653785 -0.02363735 -0.014142448 0.0046491646
000290 1e 77 b7 3c 7e de a4 3c 46 0c 00 3d 01 89 78 3d
       0.022395667 0.020125624 0.031261705 0.060677532
0002a0 2d b4 84 bc 4d 0e f0 3c 53 61 e9 bd 75 a7 9b bd
       -0.016199196 0.029303694 -0.11395516 -0.07600299
0002b0 59 89 e7 bc a8 8c 9e 3b e4 79 a4 3d 86 7d 6f bd
       -0.028263735 0.004838545 0.08031061 -0.058469318
0002c0 ca b5 19 bd 30 a7 25 bd 52 8e 67 bb e3 67 6a bd
       -0.037526883 -0.040442646 -0.0035332632 -0.05722798
0002d0 bb 30 8e 3d db af f6 bc 5c c6 29 bd 6e e2 67 b9
       0.06942888 -0.030113151 -0.041448936 -0.00022114228
0002e0 ed 70 b0 3b e0 db 07 3d 19 9d b0 bd 17 83 46 bd
       0.0053845556 0.033168674 -0.08623714 -0.04846486
0002f0 32 2e 8a 3c 50 9b 48 3c 08 5f fe bc 62 69 31 bd
       0.01686773 0.012244061 -0.031051174 -0.04331339
000300 9e bf 9a bc 08 7e 3b bc a5 f9 8e 3d a2 06 26 bd
       -0.018890198 -0.011443622 0.0698121 -0.04053367
000310 f9 f4 65 bd b7 16 fc bc 74 11 12 bc 49 7b 0e 3c
       -0.056141827 -0.03077255 -0.008915294 0.008696386
000320 04 72 ca bc d6 2e 6a bd 02 51 4e 3d 55 b4 dc bc
       -0.02471257 -0.057173572 0.050370224 -0.026941458
000330 21 b2 8d 3d a2 08 bd bd ab 86 4b bd 04 f0 00 bc
       0.06918741 -0.09230162 -0.049688976 -0.007869724
000340 23 18 bf bc 3b 35 03 bc cc ee f0 b9 16 bd a8 39
       -0.023326939 -0.008008297 -0.00045954285 0.00032184337
000350 5d 2e 1e 3c 75 9c 34 3c 43 d6 91 3c a8 3a ad bc
       0.009654609 0.01102363 0.017802363 -0.021146134
000360 e5 68 5d 3c 37 8f 87 bc 91 49 44 bc 87 ea 2b 3c
       0.013513778 -0.016547782 -0.01198043 0.010492927
000370 ac ea 4b 3c 41 58 12 bd a2 f6 22 bd c9 21 37 bc
       0.012446087 -0.035728697 -0.03978599 -0.011177489
000380 39 11 20 bd e3 60 ec bd 74 19 80 bd 13 84 ee 3b
       -0.039078925 -0.11541917 -0.06254855 0.007278928
000390 22 73 d8 bb 72 83 10 3d 18 ec 5f bd 1a ec b0 3c
       -0.006605522 0.035281606 -0.054668516 0.021596957
0003a0 22 41 81 3c 94 ab 2b 3d a5 8f c0 bc 9c 52 13 3d
       0.015778128 0.041911677 -0.023505995 0.035967454
0003b0 8a 9f 66 bb 4b 04 a8 bc 12 59 79 3a e9 a6 1e bc
       -0.0035190308 -0.02050986 0.00095118687 -0.009683349
0003c0 1a 7c 18 3d 11 b6 4f 3d 9c 0b 0c bd 36 95 9e 3d
       0.037227727 0.05071074 -0.03419076 0.077433035
0003d0 60 78 ef bb 29 38 46 bd eb c7 89 3d 8d 31 44 3a
       -0.007308051 -0.048393402 0.067275845 0.000748419
0003e0 3a e7 d9 bd 55 ef 13 3c a1 53 c4 bc 41 8d 4d 3d
       -0.10639806 0.009029229 -0.023965659 0.05018354
0003f0 7a 85 ee 3b b8 c7 1c 3b 0b b8 c7 bc 65 03 8f 3c
       0.0072790952 0.0023922753 -0.02437975 0.017457673

conv2.bias f4 [64]
000000 e7 ac 2b 3b f3 f4 c7 ba 70 a6 c4 3a 50 02 ef b9
       0.0026195587 -0.0015255496 0.0015003216 -0.00045587355
000010 f1 9a b2 3b fd bb ec ba ec 9f 36 3b b1 5c 81 bb
       0.0054505994 -0.0018061396 0.0027866317 -0.0039478173
000020 c6 14 1f 3b 3e 61 06 ba 48 63 c4 bb c9 3c 15 3b
       0.0024273857 -0.00051261846 -0.0059932806 0.0022771826
000030 bc 3c 3f 3b 9e 6f 53 3b 06 08 93 3b 98 d2 60 ba
       0.0029180488 0.0032262574 0.0044870405 -0.0008576303
000040 dc 49 20 bb e9 1f 70 3a 16 fb ae bb 95 7e 4f bc
       -0.0024458086 0.00091600284 -0.0053399904 -0.012664457
000050 84 fd 8b bb 68 12 4a bb 78 3d 8a bb e7 24 be ba
       -0.004272165 -0.0030833725 -0.0042187534 -0.0014506847
000060 c0 42 43 bb 27 44 85 bb 36 00 86 3b 81 16 b4 39
       -0.0029794425 -0.0040669623 0.0040893806 0.00034349042
000070 cb 51 eb ba e0 1e 8d 39 50 6c 09 bb dd cb 04 3b
       -0.0017953453 0.0002691662 -0.00209691 0.0020263114
000080 18 18 41 bb f5 ae e1 39 10 0a 83 bb 6c ca ee ba
       -0.0029463824 0.00043045697 -0.0039990023 -0.0018218285
000090 9b 34 fc 3b c6 91 ca bb 41 d3 a0 ba f1 15 e0 3a
       0.0076967007 -0.0061819283 -0.001226999 0.0017096383
0000a0 c9 19 11 bb 25 db 3d 3a 24 20 c3 3b f9 27 a6 3b
       -0.0022140613 0.0007242433 0.005954759 0.005070683
0000b0 c7 8d fa 3a a5 df 22 bb 49 e8 85 bb 75 14 7b 3b
       0.0019115739 -0.002485254 -0.0040865284 0.0038311754
0000c0 8f 4f 9c bb d8 15 9e 3b e6 43 a8 bb 8d cf 69 3a
       -0.0047702263 0.0048243813 -0.0051350472 0.0008919172
0000d0 a9 77 1a 3a ce 0b 5b bb 7e fa 14 bb 86 b8 4e bb
       0.00058924645 -0.0033423784 -0.0022732313 -0.003154309
0000e0 ef 20 82 bb d2 72 08 bb 09 82 10 3a 39 3c 8d bb
       -0.003971211 -0.0020820391 0.0005512541 -0.0043101576
0000f0 3c 55 0d 3b 05 f8 67 b8 6a eb f8 ba 6f 29 ee ba
       0.0021565696 -5.5305678e-05 -0.0018991057 -0.0018170307

conv3.weight f4 [64, 64, 3, 3]
000000 3c 6e 4c bd 91 c6 9e ba aa f0 d1 bc 9c 36 b3 3b
       -0.049909815 -0.0012113621 -0.025627453 0.0054691564
000010 54 f0 01 3c b4 10 2a 3d 17 09 3a 3c 98 fc 63 bb
       0.007930834 0.041519836 0.011354706 -0.0034788009
000020 a3 27 d7 3b 57 77 74 bd bd 92 c9 3c 44 cc 0a bd
       0.0065660044 -0.059684124 0.024606103 -0.03388621
000030 7e 46 c4 3c 1d 57 5d bc 2f b1 ae bb fb 21 5c 3d
       0.023959395 -0.013509539 -0.0053311805 0.053743344
000040 60 4e 33 3c 74 e3 82 bc 4d be 23 3b 12 8d 08 3d
       0.010943979 -0.015977599 0.0024985254 0.03333766
000050 8c 11 17 bd 73 ad 9a 3b f1 7a a6 bc 39 5c 60 bc
       -0.03688197 0.004720384 -0.020322295 -0.013693863
000060 70 02 9b 3d 02 84 91 3c 19 6c 71 3c 05 a6 3d bd
       0.07568824 0.017763142 0.014735245 -0.046300907
000070 84 c3 4c 3d e5 6b 1b bd 58 71 46 3d ad 2e 20 bd
       0.049991146 -0.037944693 0.048447937 -0.039107013
000080 20 c5 c1 bc a4 4d ad bd 41 54 cc 3c f3 1d 09 bd
       -0.023653567 -0.084620744 0.02494252 -0.033475827
000090 f5 70 9a 3d 82 a8 02 3d 20 2a 1e 3c 9f 69 8e 3b
       0.07541076 0.031898983 0.009653598 0.004346087
0000a0 04 f1 6a 3d 7c 1c 0e bd b0 60 8d 3c 07 50 0e bd
       0.057358757 -0.034695134 0.017258018 -0.03474429
0000b0 68 3c e2 bc cd 90 9e 3c b5 2e cc bd 56 60 8e bd
       -0.027616695 0.019356156 -0.09969846 -0.06951968
0000c0 92 77 66 3b a9 4e a7 3c b9 fd f9 bc b5 df 84 3b
       0.0035166484 0.02042325 -0.030516492 0.0040549883
0000d0 4f 31 cc bc 35 2d 96 bd 06 ef 34 3d f8 07 4d 3d
       -0.024925856 -0.07332841 0.044173263 0.050056428
0000e0 9e f9 59 3c 03 8a 4b bc ec 4a 87 3d 0d e4 27 3d
       0.013304142 -0.012423041 0.06606087 0.04098897
0000f0 d4 e7 c1 bc 29 ec 1c bd 68 37 d8 bc 34 78 49 3d
       -0.023670115 -0.038311157 -0.026393607 0.0491869
000100 a0 22 f7 bc 3e ab f7 3c 0d 71 92 3c db 04 6d bd
       -0.030167878 0.030233022 0.017876172 -0.05786596
000110 bb 21 dc bc e7 d5 c2 3d b1 50 d8 bc a9 96 de bc
       -0.026871553 0.09513455 -0.026405664 -0.02717145
000120 ba d8 ba 3c 3f 6d 23 bc 9c 58 54 3d 40 d5 d8 bc
       0.022808421 -0.009974777 0.051842317 -0.026468873
000130 4a 93 33 bc 9e cb 84 3d 66 fb 03 3d 3c 1b 6e 3c
       -0.010960409 0.064841494 0.032222174 0.01453286
000140 4d f0 df 3c 3a 92 89 3c 23 0a cd 3b 52 72 af 3d
       0.027336264 0.01679336 0.006257312 0.08566727
000150 8d a4 8c 3c fd 9f 37 3d 90 23 03 3c d6 12 57 3b
       0.017168308 0.04483031 0.008004084 0.0032817624
000160 4d b4 98 bc 73 10 b6 bd f4 34 99 bc 79 11 d6 3c
       -0.018640662 -0.08889856 -0.018702008 0.026131378
000170 20 af fa bb 5e 05 9e 3d 81 4e f3 3b 14 aa f2 3c
       -0.007650271 0.077158675 0.00742513 0.029622115
000180 03 d1 1b 3d e9 51 11 3c fd 3c 8c 3c df 33 2e bd
       0.038041126 0.008869627 0.017118925 -0.042529937
000190 e8 f9 33 3d cc 45 96 3d a1 e3 02 3d 03 dd 21 bc
       0.0439395 0.073375314 0.031955365 -0.009879353
0001a0 93 a5 a2 bd 4b 74 17 bd 6a 2d ff bb 51 8a ec bc
       -0.07941737 -0.03697614 -0.007787396 -0.028874548
0001b0 6f c3 18 bd 49 8f 90 3c 68 be 57 3d 74 02 1c bd
       -0.037295755 0.017646449 0.05267182 -0.038088277
0001c0 c7 9c b6 3b 6a fa 19 bd fd 30 1c bc f0 3d ad 3d
       0.0055728885 -0.03759233 -0.009533164 0.08459079
0001d0 71 54 d0 3c 4e e8 a5 3d a6 d5 8f bc f3 c0 59 bd
       0.02543089 0.08100949 -0.01755793 -0.053162526
0001e0 64 23 d3 3b d8 60 c8 3c 2d 8a be bd ce 16 da 3c
       0.006443428 0.024460241 -0.09303699 0.026622202
0001f0 04 4e 94 3d 57 bf f0 bc 1a ca c7 bc d7 d4 02 bc
       0.07241443 -0.029388113 -0.024388362 -0.007985315
000200 93 33 c1 3c f2 74 09 bd 26 56 ec bb 95 4b e3 3c
       0.023584163 -0.033558793 -0.007212418 0.027746001
000210 6c 96 e7 bc c0 a5 b0 3c 7d 44 4d 3d 83 a8 f5 3c
       -0.028269969 0.02156341 0.050114144 0.02998758
000220 82 fd 87 3b 72 a7 ee 3c 34 01 4d 3d a4 97 7a bb
       0.0041500935 0.029132579 0.050049976 -0.0038237358
000230 b1 8d 95 bb 55 f7 8d 3c 6e 1e 29 3d 58 c2 84 bd
       -0.00456401 0.017329851 0.041288786 -0.06482381
000240 91 b2 63 bd 08 33 67 3d ca 1a 72 3c 26 d9 b0 3c
       -0.055590216 0.05644515 0.014776895 0.02158792
000250 7d 25 9b bd 86 c6 69 b9 d6 b6 85 bd 53 3b 0c bd
       -0.0757551 -0.00022294567 -0.06529014 -0.034236263
000260 d3 11 a1 bc 21 63 8d bc 80 42 c0 bc 85 05 e0 bc
       -0.01966182 -0.017259182 -0.02346921 -0.027346382
000270 76 2a 0a bd 2a 6c be 3b e7 07 a7 3c 49 89 e9 3c
       -0.0337319 0.005811234 0.02038951 0.028507845
000280 eb 8b e7 bb a8 21 91 bc e7 ef 8b 3b f0 f9 34 3c
       -0.00706624 -0.017716244 0.004270542 0.011045918
000290 8d fd 26 3c ad 9d 4b bc e0 c3 2c 3d 8a e3 9a 3d
       0.010192287 -0.01242773 0.04217899 0.07562931
0002a0 0e 13 c2 3d ae e9 05 bc 48 26 35 3b b0 e8 8b ba
       0.09476291 -0.008173389 0.0027641226 -0.0010674205
0002b0 76 b0 11 bc 3b 18 4c 3d 95 74 88 bc e3 a3 ae 3c
       -0.008892169 0.049827795 -0.016657153 0.021318382
0002c0 13 46 88 bb 07 2a 34 bc 91 24 8b bd 59 f3 f4 3c
       -0.004158744 -0.010996348 -0.06794084 0.029901193
0002d0 0c b6 81 3c a3 6c 2b 3c 07 e7 4f bd 5a 9c 1d bd
       0.015833877 0.010462913 -0.050757434 -0.038479187
0002e0 c5 6f 84 bd d2 a4 38 3c a7 ba ef bc 02 2f 9e 3c
       -0.06466631 0.011269765 -0.029263807 0.019309524
0002f0 89 bd 30 3d 9a b1 96 3d ec 9e b3 ba cb 66 a2 bb
       0.043149505 0.073580936 -0.0013703979 -0.0049561015
000300 e7 7c 5b 3c 8b 1a 84 bc 0a 27 28 3b af 85 e7 3b
       0.013396478 -0.016125938 0.0025658035 0.007065497
000310 c8 10 20 b9 c4 0d 8c 3c ed aa 4d bd 7c 6c 3f 3d
       -0.0001526504 0.017096408 -0.050211836 0.046734318
000320 8b 45 cb bc 3c ff 82 3a 0f 33 c3 bc 45 3f d8 3c
       -0.024813434 0.0009994279 -0.023828058 0.026397357
000330 59 8d 72 bb 41 1c 2b 3c 91 5a c6 bc 91 65 60 bc
       -0.003701052 0.010443748 -0.024213107 -0.01369609
000340 a1 5d 3a bd 7d ad 8a 3c 5d 98 bb 3b 9b 5d 40 bc
       -0.045499448 0.016928429 0.00572495 -0.011741067
000350 1e ce 0e bd c7 b9 12 bd ef d7 e4 3c d4 a7 2e bd
       -0.034864537 -0.035821702 0.027934996 -0.042640522
000360 87 61 e8 bc cf 29 b7 3d c5 6a 22 bc c9 92 3f 3c
       -0.028366817 0.08943521 -0.009913151 0.011692711
000370 be 04 10 bd ac c8 02 3c bc f1 b6 bc 5f 76 0e 3c
       -0.035160773 0.007982414 -0.022332065 0.008695214
000380 d0 8c 04 bd 16 9f db 3b c4 e7 ec bc 61 ad 49 3d
       -0.03236085 0.006702314 -0.028919108 0.049237613
000390 32 05 96 3d e0 4f ef bc 16 7d 4a 3d 33 5c b7 3c
       0.0732521 -0.029212892 0.049435697 0.022382831
0003a0 a8 eb 07 bd e4 8b 1f 3d 7a 9c 9a bd f7 17 60 3b
       -0.033183724 0.03895177 -0.07549377 0.0034193972
0003b0 d2 90 80 3d 48 29 b7 3c f1 e4 df 3b a2 b7 3f bc
       0.06277622 0.022358552 0.006832712 -0.011701496
0003c0 78 5a ca bd fc ac 8d bc 76 3a c7 3d 9c 3f 75 3c
       -0.09880537 -0.0172944 0.097279474 0.014968779
0003d0 9a 72 b8 bc 71 33 7b 3d df 5e 0a bc 7a b2 2d bd
       -0.022515584 0.061328355 -0.008445471 -0.042406537
0003e0 b4 fd 38 3d d0 b3 da bc 98 0a 66 bd 86 b0 4c bc
       0.045163825 -0.02669707 -0.056162447 -0.012493258
0003f0 56 e9 13 3c cf ea f7 bb 29 9e b3 3c 8b 9a 8c bc
       0.0090278 -0.007565833 0.021926003 -0.017163536

conv3.bias f4 [64]
000000 42 00 9d 3c 17 e2 86 3c 71 31 d3 bc ec 94 dd 3c
       0.019165162 0.01646523 -0.025780411 0.02704855
000010 ec 0f 91 bc ba c5 e4 bc dd 99 d3 3c ba 52 00 3d
       -0.017707787 -0.027926315 0.025830204 0.031328894
000020 10 8e e4 3c 62 34 af 3c 74 f0 cc 3c ea b4 ea 3c
       0.027899772 0.021387283 0.025017 0.02865072
000030 24 2f c9 3c 5b c4 cf bc 38 65 e3 3c f5 6f d0 3c
       0.024558611 -0.025362184 0.027758226 0.02544401
000040 ab cc 12 bc be 05 23 3a bf fa e8 bb cf b2 cf 3c
       -0.008959929 0.0006218812 -0.0071099694 0.025353817
000050 ac ce 00 3d 87 70 9c bc 90 7a 8f bc 59 69 c4 3c
       0.031447098 -0.019096626 -0.017514497 0.023976015
000060 4d 0f f4 3c 3b 85 6d bc 6d 67 3f bc 54 d0 d1 3c
       0.029792452 -0.014497097 -0.0116823735 0.025612034
000070 ae 2a f6 3c 3d 6f cd 3c 63 e3 22 bc e0 10 db 3c
       0.030049648 0.025077457 -0.0099419085 0.026741445
000080 ce 3b ee 3c 39 39 cf 3c 29 19 c8 3c 62 1e a1 3c
       0.029081251 0.02529584 0.02442606 0.019667808
000090 1d 1e e0 bc 0d bb 52 bc 41 52 ee 3c 5f 50 a8 3c
       -0.02735811 -0.012861979 0.029091956 0.020546136
0000a0 a9 35 0d bc c3 b9 24 bc 11 3e f6 3c 6e e3 22 3b
       -0.008618751 -0.010054055 0.030058892 0.0024854797
0000b0 c0 7c 50 3b 05 d0 cc bc 63 b5 b5 bc 81 a1 f8 3c
       0.0031812638 -0.025001535 -0.022181218 0.030350449
0000c0 ba 4d cb 3c f0 26 81 ba 52 6d b1 3a e4 4b e2 bc
       0.024817336 -0.0009853523 0.0013536608 -0.027624078
0000d0 63 1f b0 39 8c 24 f6 3c 76 05 e2 bb cd 1f f2 3c
       0.0003359272 0.030046724 -0.0068976237 0.02955618
0000e0 ba ce 01 3b a8 ad d2 bb 01 0c 83 3c 2d 97 00 3d
       0.0019807057 -0.006429393 0.015996935 0.031394172
0000f0 e6 6a e6 3c a7 f7 c8 bc e6 47 f4 3c 68 f4 16 3c
       0.028127145 -0.024532152 0.02981944 0.009213544

bn1.weight f4 [64]
000000 0d f6 82 3f 83 00 83 3f 47 a1 7d 3f c7 7c 7c 3f
       1.0231339 1.0234531 0.99074215 0.98627895
000010 13 c9 81 3f 3f ce 7c 3f 5a 14 7c 3f 0d 2e 82 3f
       1.0139488 0.98752207 0.98468554 1.0170304
000020 a7 77 7b 3f ce a1 7d 3f 1b 68 82 3f 86 d1 82 3f
       0.9822945 0.9907502 1.018802 1.0220191
000030 df 61 7e 3f 64 70 7d 3f c0 4f 7e 3f b2 68 7a 3f
       0.9936809 0.9899962 0.9934044 0.97816
000040 11 20 81 3f 2d c9 81 3f c0 fe 82 3f 67 69 7d 3f
       1.0087911 1.0139519 1.0233994 0.98988956
000050 13 e8 7a 3f 00 2c 83 3f f1 1c 7f 3f 5e b9 7f 3f
       0.9801037 1.0247803 0.99653536 0.9989222
000060 77 2d 81 3f 99 76 82 3f 27 a8 7e 3f 3f a5 80 3f
       1.0092 1.0192443 0.9947533 1.0050429
000070 ea 2b 82 3f 7a cc 7f 3f 1d 6f 80 3f f1 fa 7f 3f
       1.0169652 0.9992138 1.0033909 0.9999228
000080 8c f6 7d 3f 89 c1 7b 3f 43 a8 7a 3f c3 a9 7c 3f
       0.99204326 0.98342186 0.97912997 0.98696536
000090 ff f8 81 3f 91 68 7c 3f 9c 6a 7b 3f 66 4c 80 3f
       1.0154113 0.98597056 0.9820955 1.0023315
0000a0 99 35 81 3f da b8 7d 3f 17 3a 82 3f ac e0 80 3f
       1.0094482 0.99110186 1.0173978 1.0068564
0000b0 8c 0f 7f 3f c2 4e 83 3f 3f f4 82 3f 4f d7 80 3f
       0.996331 1.025841 1.0230788 1.0065707
0000c0 af 0e 7c 3f 2d fb 7f 3f dc ea 82 3f ba 02 7d 3f
       0.98459905 0.9999264 1.0227923 0.98832285
0000d0 45 a4 80 3f 0d 12 82 3f 2c a3 83 3f 4e 6b 81 3f
       1.0050131 1.0161759 1.0284171 1.0110872
0000e0 1f af 7b 3f 59 e8 80 3f e0 dc 7c 3f 37 eb 81 3f
       0.9831409 1.0070907 0.9877453 1.0149907
0000f0 d1 bd 7f 3f 6a da 7e 3f f1 3b 7c 3f 73 c9 81 3f
       0.9989901 0.99552023 0.98528963 1.0139602

bn1.bias f4 [64]
000000 e4 70 84 3c 26 81 85 bc 92 48 a3 bb 42 29 10 bc
       0.016167112 -0.016296934 -0.0049830163 -0.008798899
000010 25 67 bc bc 2c 57 89 3c 44 f2 27 3c 97 09 4b 3c
       -0.022998402 0.0167652 0.010250632 0.012392423
000020 36 bb 5a bc e6 71 12 bc bd 3c 61 3b f6 63 5f 3c
       -0.013350299 -0.008938288 0.0034368478 0.013634672
000030 48 fc ee 3a 2b 07 79 ba 62 f4 b2 3c ec 66 9f bc
       0.0018233145 -0.00094996643 0.021845046 -0.019458257
000040 77 53 91 3c 2b 5c d5 3b 74 1d c4 3b cc 5e ca ba
       0.017739994 0.0065112314 0.0059849564 -0.0015439629
000050 30 40 c6 3b 59 a1 b4 bc cd 4e 27 bc 04 f3 a7 3b
       0.006050132 -0.022049593 -0.010211659 0.0051254053
000060 79 ff 87 3b db d6 69 bc 38 ea e1 39 a1 33 a1 bc
       0.0041503278 -0.014272417 0.0004308985 -0.019677939
000070 31 4f f6 ba f6 c5 af bc 75 2d 90 bb d8 8d 63 39
       -0.0018791911 -0.0214567 -0.00439995 0.00021701248
000080 fb 08 63 3c af ed b1 bc e1 ef ea 3a 13 67 ea bb
       0.013857122 -0.021719782 0.0017924273 -0.0071534007
000090 33 bb 91 bc 58 ca cb bb b9 8a 62 3a 19 89 77 3c
       -0.017789459 -0.0062191896 0.0008641887 0.01510837
0000a0 28 6a a0 3c c4 3a a4 bc 2e 88 2b 3b 6e e9 aa bb
       0.01958187 -0.020047553 0.0026173699 -0.0052158153
0000b0 74 94 4b bc a9 de 82 3c 73 6a a6 3a 50 47 8e 3b
       -0.012425531 0.015975313 0.0012696519 0.004341997
0000c0 01 0d 4e bc 7a 47 d3 bc e6 06 0f bc 1b 02 61 3c
       -0.012576343 -0.025790919 -0.008729672 0.013733412
0000d0 16 d0 e1 3b 7d 70 f5 3a d8 b3 91 3c 9d 68 a5 bc
       0.006891261 0.0018725541 0.017785951 -0.020191485
0000e0 bf c0 a9 3c 8c 45 80 bc bf a3 a4 3c 1a 99 34 3c
       0.020721791 -0.015658163 0.020097611 0.01102283
0000f0 cb f7 28 3c 7e 08 b7 ba d4 12 c0 bc bb 75 a9 bc
       0.010312985 -0.0013964323 -0.023446478 -0.020686021

bn1.running_mean f4 [64]
000000 c0 2b ac 3b bf 32 cb b9 c5 73 25 b9 d5 b2 11 3b
       0.005254239 -0.00038756986 -0.00015778754 0.0022231836
000010 52 c2 a1 bb 40 00 20 3b 57 58 14 3b cc e3 3e 3c
       -0.004936495 0.0024414212 0.0022635662 0.011650991
000020 73 5d f3 3a c0 09 6f 3c 77 a6 2d bb 5a 4e b1 b9
       0.0018567279 0.014589727 -0.0026496926 -0.00033818447
000030 30 08 a3 bb ef 74 80 bb be 99 45 bb 2d 35 80 bb
       -0.0049753413 -0.0039201896 -0.0030151452 -0.003912589
000040 39 f1 c8 3b 5b 5d 10 3b dc 06 6b 3b 89 bb c5 3b
       0.0061322716 0.00220283 0.0035862243 0.006034319
000050 72 b9 00 3c 44 db d2 b9 c7 54 f7 bb c1 a2 a2 3b
       0.007856714 -0.00040217687 -0.007547948 0.0049632494
000060 8a b1 07 3c 6f 18 9f 3b b3 42 d9 bb c7 e0 93 3a
       0.008282075 0.0048552076 -0.0066302656 0.0011282199
000070 a5 db 84 37 93 c1 82 3a ae 35 c6 3b 40 4e 2d 39
       1.5837906e-05 0.0009975903 0.0060488796 0.00016527716
000080 e3 ed fb 3b 99 27 13 bc c7 2b 8a 3b 7f 6e 79 bb
       0.0076882704 -0.008981609 0.0042166444 -0.0038060246
000090 4d 2e 03 bc 3e 7c d3 bb e5 f5 09 bb 3a 64 1b bc
       -0.008006644 -0.00645402 -0.0021051106 -0.009484345
0000a0 73 6a 18 3c 72 b8 da ba 2f 5c ce 3b 92 7e 1d bb
       0.009302723 -0.0016687049 0.0062976102 -0.002403174
0000b0 ea 7c a0 3b 5f 99 39 bb 41 c2 5a bc 6b 79 ff ba
       0.0048977034 -0.0028320176 -0.013351978 -0.0019491141
0000c0 f5 9e c5 3b 89 d7 24 ba 99 58 05 bb 7b 0c 80 3b
       0.006030912 -0.0006288221 -0.0020346998 0.003907738
0000d0 30 9e 3e 3b 83 ca 0a bc 88 68 5b bb 7d c6 0f 3c
       0.0029085986 -0.008471134 -0.0033479054 0.008775351
0000e0 be 89 eb 3a f0 b5 27 bb 81 d3 f5 3b 3a 09 1b 3c
       0.0017970128 -0.002559062 0.00750202 0.009462649
0000f0 f4 39 71 bb ce d5 3f 3c 9f 5a 0a bc 07 2b 06 bc
       -0.0036808224 0.01170869 -0.008444457 -0.008188969

bn1.running_var f4 [64]
000000 65 f7 c8 3c 80 6c b9 3c b1 47 16 3d d5 ad 2d 3d
       0.02453203 0.022634745 0.036689464 0.042402107
000010 55 69 96 3c 2e 1b 2e 3d 52 6d f8 3c e3 07 cf 3c
       0.018360773 0.04250639 0.030325565 0.025272315
000020 9b a6 5f 3c 6a 2a 85 3d b7 2e 12 3c e5 43 1b 3c
       0.013650562 0.065022305 0.0089222705 0.009476637
000030 87 48 73 3c 25 4a 79 3c 9b 05 02 3d dc ad e4 3c
       0.014848835 0.015215431 0.031743627 0.027914934
000040 0f 29 36 3d 91 fa c1 3c 6d 67 e9 3c b7 d1 46 3c
       0.04447275 0.02367905 0.0284917 0.012134961
000050 29 f7 17 3d 82 64 9f 3d 2b 75 d2 3c 08 52 76 3c
       0.037100945 0.07782842 0.025690636 0.015034206
000060 d1 53 bd 3c ec 90 51 3c c2 ed 8b 3c 23 fd ad 3c
       0.023111256 0.0127909 0.017081145 0.021238869
000070 1f 52 04 3d 15 cb 10 3d 4e fe de 3c 4e 4e c0 3b
       0.03230488 0.035349924 0.027220871 0.0058687096
000080 dd b2 99 3d 63 a7 ea 3c 45 05 55 3d 16 26 07 3d
       0.075048186 0.02864427 0.05200698 0.032995306
000090 a3 6d 7f 3c b1 ff b6 3c 5e 67 03 3c 9d ae b7 3d
       0.015590104 0.02233872 0.00802025 0.08968852
0000a0 e4 58 1e 3d 60 fa f5 3c a0 3d 01 3d 4e bc 3f 3d
       0.03865899 0.030026615 0.03155291 0.04681044
0000b0 ff 38 dc 3c 48 3a f6 3c 58 6e c2 3c a6 e3 02 3d
       0.026882647 0.030057088 0.023734257 0.031955384
0000c0 69 eb 2b 3c c2 02 12 3c ca 84 bb 3c 7d 9f c3 3b
       0.010493138 0.00891179 0.022890467 0.00596994
0000d0 6c cd d4 3c 55 1f 00 3d a6 a1 4e 3d 8c df c7 3c
       0.025976859 0.03127988 0.05044713 0.024398588
0000e0 6a 2b bd 3d 52 55 64 3d 7f 20 12 3d 3d 9f f7 3b
       0.09236796 0.05574543 0.035675522 0.0075568245
0000f0 db 4c c0 3c a5 f1 d2 3c c3 12 a3 3c e0 65 29 3d
       0.023474148 0.02574999 0.019906407 0.04135692

bn2.weight f4 [64]
000000 30 89 7f 3f 20 69 81 3f d1 13 7e 3f 36 8f 80 3f
       0.99818707 1.0110207 0.9924899 1.0043705
000010 e0 33 80 3f 73 a0 7d 3f e8 b5 7e 3f fe ba 81 3f
       1.0015831 0.9907295 0.99496317 1.013519
000020 f8 28 81 3f 3f 5f 80 3f 9e 63 79 3f 24 1f 81 3f
       1.0090628 1.0029067 0.9741763 1.0087628
000030 95 0f 7c 3f 09 2a 81 3f fa ec 81 3f b0 eb 83 3f
       0.98461276 1.0090953 1.0150445 1.0306301
000040 b9 cd 82 3f 9a f0 7a 3f 4e 0e 7b 3f 10 0a 80 3f
       1.0219032 0.9802338 0.980687 1.0003071
000050 97 22 80 3f 06 7e 7b 3f 7a a6 7c 3f 8b d0 82 3f
       1.0010556 0.9823917 0.98691523 1.0219892
000060 8f d6 7e 3f 2e 23 7c 3f 51 68 81 3f 28 45 80 3f
       0.9954614 0.9849118 1.010996 1.0021105
000070 b9 98 79 3f 0a 6a 7b 3f 37 49 7e 3f d8 11 81 3f
       0.9749866 0.9820868 0.99330467 1.008357
000080 e7 a2 80 3f 82 8f 7f 3f 53 17 82 3f 43 2c 7d 3f
       1.0049714 0.9982835 1.0163368 0.98895663
000090 99 b0 7f 3f 57 9e 7d 3f f4 37 7d 3f 14 fb 7f 3f
       0.9987884 0.9906973 0.989135 0.9999249
0000a0 f5 79 7b 3f 3e 44 82 3f c6 e8 7e 3f 10 43 80 3f
       0.98232967 1.0177076 0.99573934 1.0020466
0000b0 3f da 7c 3f a4 18 80 3f 6f 92 7a 3f 4d 56 7f 3f
       0.9877052 1.000752 0.9787969 0.9974106
0000c0 58 05 7a 3f 22 ca 7e 3f b2 d7 83 3f 76 45 7e 3f
       0.97664404 0.9952718 1.03002 0.9932474
0000d0 38 60 81 3f 38 03 80 3f 0b 4b 7b 3f 12 d5 81 3f
       1.0107489 1.0000982 0.9816138 1.0143149
0000e0 30 cf 81 3f a8 73 82 3f e3 b8 7b 3f e7 c1 7b 3f
       1.0141354 1.0191545 0.9832899 0.98342746
0000f0 96 ca 7f 3f c8 08 81 3f fb 42 7a 3f 82 4f 83 3f
       0.99918497 1.0080805 0.97758454 1.0258639

bn2.bias f4 [64]
000000 bd 64 3a 3c f7 ac 87 3b f3 7d e9 bc 21 a6 18 bc
       0.011376557 0.004140492 -0.02850244 -0.009316952
000010 1d aa 9c 3b 12 20 cf bc 4f 70 9a bb 46 1f 65 bc
       0.0047810213 -0.025283847 -0.0047130953 -0.013984507
000020 f2 93 2b bc e9 1b fd bc 80 8d 2b bc 7d dc 7a 3c
       -0.010472285 -0.030897098 -0.010470748 0.015311358
000030 8e 77 7b bb 23 85 f9 bc 87 c9 e1 3c d2 30 78 3c
       -0.003837082 -0.030458992 0.027561916 0.015148358
000040 41 52 84 3c 87 0a e3 bc 47 c9 af bc 56 d1 ba 3c
       0.016152503 -0.02771498 -0.021458281 0.022804897
000050 7b 41 7e 3c 0c a3 eb 3b dc ad 1f bc 58 5c f9 3c
       0.015518541 0.0071910676 -0.009746041 0.03043954
000060 02 4e 38 3c 7c 9a b0 3c ba a4 1f 3b b4 34 93 bc
       0.011249067 0.021558039 0.002435966 -0.017969467
000070 87 5b 81 3c 06 e4 53 3c 96 d4 aa ba 07 98 b2 bc
       0.015790714 0.012932783 -0.0013033326 -0.021801008
000080 79 3b d2 3b 3b 62 b7 3c a2 1b f4 3c 11 37 a9 bc
       0.006415781 0.022385707 0.029798333 -0.02065614
000090 83 54 da bc 71 0d df 3c d7 77 66 bc 14 70 3b 3c
       -0.026651626 0.027228089 -0.014066658 0.011440296
0000a0 f6 ad a5 bc af 94 5a 3c a4 41 08 3c 57 30 c5 bc
       -0.020224553 0.013341113 0.008316431 -0.024070902
0000b0 90 18 09 bc 87 bc b0 3c fb dc 93 bc 85 ca 3f bc
       -0.008367673 0.021574272 -0.018049708 -0.011705999
0000c0 5b ff 9e ba 41 9c 84 bc 4e 49 9e 3b fc eb 2d bc
       -0.0012130545 -0.016187789 0.004830516 -0.010615345
0000d0 4f 15 27 3c 74 ac c0 3b 01 99 da ba 33 28 e8 bc
       0.010197951 0.005879933 -0.0016677679 -0.028339481
0000e0 4a 82 fc bc f2 0e ac 3c 0f 07 00 3b d0 6d 95 bc
       -0.030823845 0.02100322 0.0019535457 -0.01824084
0000f0 df 89 3c bc 19 e3 e0 bb a8 14 6c 3c 15 a6 0d 3d
       -0.01150748 -0.0068630097 0.014409222 0.034582216

bn2.running_mean f4 [64]
000000 e9 62 3f c0 66 22 ac be 3e 70 25 40 e4 50 15 40
       -2.990412 -0.33619994 2.5849757 2.3330622
000010 94 b6 28 3f e6 a0 06 40 57 7a 0a be a1 60 0f bf
       0.6590359 2.1035705 -0.13523231 -0.5600682
000020 d3 25 94 bd 2d 05 c7 be 9a a8 88 3f ed 50 0a 40
       -0.07233777 -0.38871136 1.0676453 2.1611893
000030 b3 a5 cf 3f 99 7a c6 3f 0e 46 29 3f a5 17 9e bc
       1.6222442 1.5506164 0.6612252 -0.019298384
000040 2b e6 3c 3f f4 fb f9 be e8 8d b9 3f a4 88 e5 3f
       0.7378871 -0.48825037 1.4496431 1.7932324
000050 d6 9f 06 40 e2 1b be bf 1a 73 4d c0 1c 5f 45 3f
       2.1035056 -1.4852259 -3.2101502 0.7709825
000060 11 73 01 3f ba 03 22 40 96 99 ca 3f 39 5a 78 3f
       0.505662 2.5314775 1.5828121 0.9701267
000070 db a7 14 40 23 91 d2 3f 00 9e 98 3e 7d 99 0d 40
       2.322745 1.6450542 0.29808044 2.2124932
000080 95 d2 17 40 af 07 f9 3e 61 e5 26 3f 6f a8 b0 be
       2.372228 0.48638675 0.65193754 -0.34503505
000090 28 b9 d5 3f 81 94 02 be e7 95 29 3d 1e 56 bf 3f
       1.669713 -0.12751962 0.041402724 1.4948156
0000a0 37 81 bc 3f 2a 2c 8a bc 81 a3 80 3f b3 a0 72 bd
       1.4726933 -0.016866762 1.0049897 -0.059235286
0000b0 95 49 b7 bf 72 5a 96 3f 9b e2 1a c0 21 87 fd be
       -1.431933 1.1746352 -2.420081 -0.49517158
0000c0 a5 13 ab 3f 94 09 8a 3f db 11 47 3f 67 bc 3c 3d
       1.336537 1.0784173 0.7776162 0.046078112
0000d0 b5 a0 9b 3f 92 40 a5 3e 92 ab 26 40 b1 4e 3e 3e
       1.2158419 0.32275826 2.6042218 0.18584706
0000e0 4c 21 ce 3e 62 70 10 3f b4 ea 47 40 db 83 4a be
       0.40259778 0.5642148 3.1237001 -0.19776861
0000f0 13 fb 29 3e 50 16 a2 bf 7e 8e 89 3f 5e 32 4c 3f
       0.16599683 -1.2663059 1.074661 0.79764354

bn2.running_var f4 [64]
000000 87 51 22 41 37 19 36 40 34 28 c7 40 05 14 05 41
       10.144904 2.845289 6.2236576 8.317388
000010 54 20 5b 40 21 01 cd 40 b4 44 8e 40 b8 59 42 40
       3.4238482 6.406388 4.4458866 3.036726
000020 71 bf f9 3f bc 78 03 40 15 98 76 3f 2b 6e 8f 40
       1.9511548 2.054244 0.9632581 4.482198
000030 be 26 ac 40 c8 32 a9 40 fe aa 78 40 00 34 03 40
       5.3797293 5.287449 3.8854365 2.0500488
000040 2b 7a 7b 40 70 65 a4 40 e2 89 a8 40 63 35 63 40
       3.9293315 5.1373825 5.2668314 3.5501335
000050 c2 d1 df 40 ea 0c 9f 3f bc f9 2c 41 03 e2 7a 40
       6.994355 1.2425816 10.81097 3.9200447
000060 76 ac 07 40 6a b5 0d 41 38 ab 9a 40 c9 62 09 40
       2.1199012 8.856791 4.8334007 2.1466544
000070 b4 ef d7 40 37 4f c2 40 2a d1 65 40 17 fb 1a 41
       6.7480106 6.07217 3.5908914 9.686301
000080 35 7a df 40 93 be 12 40 68 af c4 3f 10 37 1f 40
       6.983668 2.2928817 1.536603 2.4877357
000090 c3 cd 5f 40 0d c9 06 40 e3 85 1f 40 f4 29 5d 40
       3.4969337 2.1060212 2.4925468 3.4556856
0000a0 30 2d 43 40 08 fb 0c 40 40 c8 76 40 08 4c 3a 40
       3.049633 2.2028217 3.8559723 2.9108906
0000b0 ba d6 ee 40 79 ee 86 40 83 ec e7 40 f8 1e 26 40
       7.4637117 4.2166104 7.247621 2.5956402
0000c0 d8 84 97 40 55 94 9c 40 a8 5f 30 40 c1 b3 14 40
       4.7349663 4.893107 2.7558384 2.3234713
0000d0 ab 0c 97 40 0a 01 c6 3f 82 1a 1e 41 5e ad 23 40
       4.7202964 1.5469067 9.881472 2.5574565
0000e0 81 c9 2a 40 85 82 7b 40 11 6e 1e 41 29 a0 18 40
       2.6685488 3.9298413 9.901872 2.3847754
0000f0 28 39 60 40 dd 9b 03 40 40 d8 24 40 65 58 3f 40
       3.5034885 2.0563881 2.5756989 2.9897702

bn3.weight f4 [64]
000000 5a d1 84 3f 6c 9c 84 3f 58 df 84 3f 1b d1 84 3f
       1.0376389 1.0360236 1.0380659 1.0376314
000010 61 e1 84 3f b1 af 84 3f 4a 6f 84 3f 2a c8 84 3f
       1.038128 1.0366117 1.0346463 1.0373585
000020 20 91 84 3f ee b8 84 3f 9b a8 84 3f bc b0 84 3f
       1.0356789 1.0368936 1.0363954 1.0366435
000030 8a c9 84 3f 12 92 84 3f 5d 75 84 3f 74 98 84 3f
       1.0374005 1.0357077 1.0348316 1.0359025
000040 0b a6 84 3f 0b ad 84 3f bd c2 84 3f 1e bb 84 3f
       1.0363172 1.0365309 1.037193 1.0369604
000050 60 aa 84 3f 4d d8 84 3f 61 90 84 3f 47 80 84 3f
       1.0364494 1.037851 1.0356561 1.0351647
000060 98 f2 84 3f 78 7f 84 3f ee d8 84 3f 62 c8 84 3f
       1.0386534 1.03514 1.0378702 1.0373652
000070 a6 bf 84 3f cb 94 84 3f 88 a2 84 3f 75 a0 84 3f
       1.0370986 1.0357908 1.0362101 1.0361468
000080 c3 b9 84 3f 83 a5 84 3f 95 aa 84 3f c3 bd 84 3f
       1.036919 1.036301 1.0364558 1.0370411
000090 63 c7 84 3f a0 d4 84 3f ec dd 84 3f de 64 84 3f
       1.0373348 1.0377388 1.0380225 1.0343282
0000a0 1b d3 84 3f 47 b4 84 3f ab 8c 84 3f cc 96 84 3f
       1.0376924 1.0367516 1.0355428 1.035852
0000b0 bf d5 84 3f c4 c2 84 3f e9 ca 84 3f c3 ce 84 3f
       1.037773 1.0371938 1.0374423 1.0375599
0000c0 40 83 84 3f 0b ac 84 3f 58 89 84 3f 7f 93 84 3f
       1.0352554 1.0365003 1.0354414 1.0357512
0000d0 45 72 84 3f d7 7f 84 3f d1 bd 84 3f f3 d6 84 3f
       1.0347372 1.0351514 1.0370427 1.0378097
0000e0 21 e1 84 3f 9a de 84 3f 5b ce 84 3f 62 a1 84 3f
       1.0381204 1.0380433 1.0375475 1.036175
0000f0 a3 cd 84 3f a7 d7 84 3f 5c b1 84 3f 67 db 84 3f
       1.0375255 1.0378312 1.0366626 1.0379456

bn3.bias f4 [64]
000000 b5 62 1c 3d 2c 3d 04 3d 23 50 15 3d 08 6b 0f 3d
       0.03818007 0.0322849 0.036453377 0.035014182
000010 1a 5a 17 3d 5e 93 14 3d ac 63 0e 3d 88 0f 1a 3d
       0.036951162 0.036273353 0.034763023 0.037612468
000020 a3 01 08 3d f5 96 18 3d 81 e0 19 3d 71 00 0d 3d
       0.033204686 0.03725334 0.03756762 0.03442425
000030 fc 89 16 3d f2 c9 19 3d 8e c5 17 3d 45 b7 05 3d
       0.036752686 0.037546106 0.037053637 0.032645483
000040 43 97 14 3d fa d9 16 3d ee ae 1c 3d 33 46 17 3d
       0.036277067 0.036828972 0.038252763 0.03693218
000050 79 97 18 3d 38 cf 0e 3d 10 69 11 3d 07 ea 0b 3d
       0.03725383 0.034865588 0.035500586 0.034158733
000060 0c 89 11 3d a4 cf 16 3d 16 8a 1b 3d bf b2 11 3d
       0.03553109 0.036819115 0.037973486 0.035570856
000070 18 c0 f0 3c 91 20 15 3d 66 82 e9 3c a4 7f 17 3d
       0.029388472 0.03640801 0.028504562 0.036986962
000080 b9 16 1d 3d d1 15 13 3d ff 9c fb 3c 19 0b 1a 3d
       0.03835175 0.035909478 0.03071451 0.03760824
000090 67 57 19 3d 84 04 f8 3c 0f cc 19 3d ee 41 0e 3d
       0.03743687 0.03027559 0.03754812 0.034730844
0000a0 9a 85 18 3d 68 30 17 3d d0 98 0e 3d 0d b8 fe 3c
       0.037236787 0.0369114 0.034813702 0.031093622
0000b0 1f 7d 0e 3d 7f 65 1a 3d 70 3b 17 3d 39 49 15 3d
       0.034787294 0.03769445 0.03692192 0.036446784
0000c0 dd 76 07 3d a0 92 1d 3d 69 3c 01 3d 98 73 11 3d
       0.03307234 0.03846991 0.031551752 0.03551063
0000d0 ca d7 13 3d c8 e9 09 3d 95 9a 12 3d 16 c7 17 3d
       0.036094464 0.033670217 0.035791952 0.037055098
0000e0 de 42 13 3d 5f b1 09 3d c7 d0 0d 3d a8 23 10 3d
       0.03595244 0.03361642 0.034622934 0.035190254
0000f0 ac 40 1c 3d d8 01 0b 3d 61 cb 1d 3d 70 80 0d 3d
       0.038147613 0.033937305 0.038524035 0.034546316

bn3.running_mean f4 [64]
000000 6b dc 52 3f 71 3c e2 3f a6 21 33 bf a5 53 45 3f
       0.8236758 1.7674695 -0.6997322 0.77080756
000010 0f 08 77 3e aa 6a e8 bf 1d 69 05 40 8a 66 cd 3f
       0.24124168 -1.8157551 2.0845406 1.6046917
000020 89 d1 d5 3f e3 a6 8f 3f cf a6 74 3f 54 71 fc 3f
       1.670457 1.1222805 0.9556703 1.9722085
000030 0a bb d2 3f 2e 51 46 bf 90 49 eb 3f 60 5f 9c 3f
       1.646333 -0.7746762 1.8381824 1.2216606
000040 36 ba 26 bf 44 d1 8e 3f 49 82 4b be 0c db b7 3f
       -0.65127885 1.1157613 -0.19873919 1.4363723
000050 87 96 19 40 20 a7 a7 be 09 fa bd bf 9b 3e 95 3f
       2.3998125 -0.32744694 -1.484193 1.1659731
000060 f2 65 9e 3f 25 16 58 3f c5 91 09 c0 30 f4 b1 3f
       1.2374861 0.8440879 -2.149522 1.3902645
000070 92 53 25 40 a7 ab f4 3f 89 7f e8 bf 4a 78 63 3f
       2.5832257 1.9114884 -1.8163921 0.8885542
000080 ee 17 cb 3f 96 04 ed 3f a1 d9 e8 3f ab fb 53 3f
       1.5866678 1.8517025 1.8191415 0.8280589
000090 f2 02 4a bf 9d 04 5c 3d e1 28 cf 3f 00 af 47 3f
       -0.78910744 0.053715337 1.618435 0.78001404
0000a0 25 99 19 3e 83 a4 da 3e 86 1a 1c 40 00 10 7b 3f
       0.14999826 0.42703637 2.4391189 0.9807129
0000b0 b2 25 8e 3f da 04 1a bf 2b 0a ee bf 8e 77 12 40
       1.1105254 -0.6016365 -1.8596853 2.288547
0000c0 b9 fa d6 3f f5 3a df be 72 c1 a1 3f b6 3d 82 bf
       1.6795264 -0.43599668 1.263716 -1.0175083
0000d0 bf 16 5a 3f 53 a7 3b 40 b9 aa 20 3f c3 a3 a5 3f
       0.8519096 2.9320877 0.627605 1.2940601
0000e0 c2 d3 1c 3f 1b 3b a8 3f 85 12 74 3f c2 70 13 40
       0.61260617 1.3143038 0.9534076 2.3037572
0000f0 93 e0 f9 3f c9 34 95 bf 22 f1 8b 3f 36 ca a2 be
       1.952166 -1.1656734 1.0932963 -0.317949

bn3.running_var f4 [64]
000000 63 7e 49 3f f0 4c d2 3f 5c 7c 43 3f 8f 58 d6 3f
       0.78708476 1.642973 0.7636163 1.6745776
000010 5b dc 84 3f 2b 3c 0a 40 e2 29 cc 3f e8 98 44 3f
       1.0379747 2.1599224 1.5950282 0.76795816
000020 1f 70 8b 3f 66 ac a7 3f 12 01 ca 3f 5d 02 9d 3f
       1.0893592 1.3099487 1.5781577 1.2266346
000030 ee d7 82 3f a6 1d 4c 3f 02 90 a8 3f 46 58 03 40
       1.0222147 0.7973274 1.3168948 2.0522628
000040 a7 f2 f7 3f 35 2d 2d 40 46 49 49 3f d7 a2 78 3f
       1.9370927 2.7058842 0.7862743 0.97123474
000050 39 19 71 3f be 83 85 3f ba 0b e6 3f a9 b0 46 3f
       0.9417911 1.043083 1.7972329 0.7761331
000060 11 f7 d1 3f a0 bc 1f 40 68 a4 16 40 9d cb f6 3f
       1.6403524 2.4958878 2.3537846 1.9280888
000070 8f eb 9f 3f 5e f6 92 3f 8a 5a 90 40 5d bc 61 3f
       1.2493762 1.1481435 4.511052 0.88178045
000080 cd 8c 1b 40 38 99 57 3f 89 7a c7 3f 7c 0b 25 40
       2.4304688 0.8421817 1.558427 2.578826
000090 ba e2 29 3f 97 3f 06 40 27 36 8a 3f aa 3e 82 3f
       0.6636158 2.0976312 1.0797776 1.0175374
0000a0 ea 27 dd 3e 86 a9 09 3f 20 34 ab 3f a2 7b 94 3f
       0.43194515 0.537743 1.3375282 1.160023
0000b0 14 eb 89 3f 2f 4f 77 3f 62 85 34 3f fa 9f cf 3f
       1.0774865 0.966052 0.70516026 1.6220696
0000c0 a5 d3 a7 3f 57 b7 8a 3f 1e 96 dd 3f be 02 ed 3e
       1.3111464 1.0837201 1.7311437 0.46291155
0000d0 32 6a 47 40 1d 99 d0 3f ca d6 13 40 bc 55 7b 3f
       3.1158566 1.6296726 2.3099847 0.98177695
0000e0 c2 51 a5 3f 81 ba 8d 3f f9 8d 25 40 43 9a bf 3f
       1.2915576 1.1072541 2.5867903 1.4968952
0000f0 d2 2a b8 3f 5c 80 15 3f f2 d0 49 3f 6d 08 d3 3f
       1.4388068 0.58398986 0.7883445 1.6486946
