maml-notebook/completet_model/model1/model-epoch_00043-train_loss_0.127-train_acc_0.877-test_loss_0.477-test_acc_0.871.pt (torch_old, 305688 bytes, 20 tensors)

conv1.weight f4 [64, 1, 3, 3]
0	0x3d19dcf9	0.03756425
1	0x3dbf175a	0.09330626
2	0xbd4d9e81	-0.05019999
3	0xbd0cb0da	-0.034348346
4	0x3d436564	0.047704116
5	0x3d0f80e5	0.035035033
6	0xbd4ff816	-0.050773703
7	0x3c97bf79	0.018523918
8	0x3ce35548	0.027750626
9	0xbbd66a97	-0.006543468
10	0xbdf6cb5a	-0.12050505
11	0xbcb28076	-0.02178977
12	0x3d5809a4	0.05274357
13	0x3d9a5d3d	0.07537315
14	0xbd280b3f	-0.04102635
15	0x3b78dc81	0.0037973227
16	0x3d6f3d6e	0.058408193
17	0x3d999322	0.074987665
18	0xbcf54fb6	-0.029945236
19	0xbd0a1aaa	-0.033716835
20	0xbd9eb486	-0.07749276
21	0xbcaaa18c	-0.020828985
22	0x3d55dc07	0.052211788
23	0xbd978fdd	-0.074004866
24	0xbd7a0679	-0.06104133
25	0x3cda1c1c	0.026624732
26	0xbd08d2a4	-0.033404008
27	0xbe171854	-0.14755374
28	0x3d23fed7	0.040037956
29	0xbdb6a334	-0.08917847
30	0x3c55577b	0.013021345
31	0x3de0d741	0.109785564
32	0xbd45c4bf	-0.048283335
33	0x3d035991	0.03206784
34	0x3d9c1bd4	0.07622495
35	0xbcc88499	-0.02447729
36	0xbb5839b3	-0.0032993376
37	0x3d92f33b	0.07175299
38	0xbd16c78e	-0.036811404
39	0x3d02efc3	0.031966936
40	0xbbf93f1b	-0.0076063997
41	0xbd45aed3	-0.04826243
42	0x3d726780	0.059180737
43	0x3cd15ead	0.02555784
44	0xbd8535d2	-0.06504406
45	0x3c22a8e4	0.009927962
46	0xbd9e50f6	-0.07730286
47	0xbcd45377	-0.025918705
48	0xbdf64b98	-0.12026137
49	0xbd5c237e	-0.053744785
50	0xbcbc954f	-0.023020415
51	0x3d389563	0.04506434
52	0xba60e3d4	-0.0008578871
53	0x3d01c413	0.03168113
54	0xbda463b8	-0.08026832
55	0x3a9efa06	0.0012128956
56	0xbdbfa133	-0.09356918
57	0x3cee3cba	0.029081691
58	0xbd266d20	-0.040631413
59	0x3e07ac81	0.13249399
60	0xbd09f6a8	-0.033682495
61	0x3c5c6613	0.013452071
62	0xbdfb84bc	-0.122811764
63	0xbd612de1	-0.054975394
64	0xbd113292	-0.03544862
65	0xbd291b0b	-0.041285556
66	0x3bf2b6de	0.0074070534
67	0xbcbbbdb2	-0.022917602
68	0x3dbdf9d2	0.09276165
69	0x3d8512c8	0.06497723
70	0x3dbd31ed	0.09238038
71	0x3ab09bab	0.0013474127
72	0x3c3076a9	0.010770478
73	0xbcf29c0d	-0.029615426
74	0x3cb06070	0.02153036
75	0x3d8f04d1	0.069833405
76	0xbcaa42d6	-0.020783823
77	0x3dc67459	0.0969016
78	0xbc228993	-0.009920496
79	0x3d295944	0.041344896
80	0xbd7675e8	-0.060171038
81	0x3d4c51ab	0.049882572
82	0xbd8db60e	-0.0691949
83	0x3d1dd68f	0.038534697
84	0x3dd1d6ee	0.10246073
85	0x3c52fba5	0.01287738
86	0x3e172e91	0.14763857
87	0x3b0f10a5	0.002182999
88	0xbd4a810e	-0.049439482
89	0x3d204d0e	0.039135985
90	0xbcef994a	-0.029247899
91	0xbd28512e	-0.041093044
92	0x3a93b3ca	0.0011268791
93	0x3d2064cc	0.039158627
94	0x3db8c790	0.090224385
95	0x3d1070ca	0.035263814
96	0x3ca8e6ee	0.020617928
97	0xbd194292	-0.037417002
98	0xbcaf57a5	-0.021404097
99	0xbc7dcef5	-0.015491237
100	0x3d15cad5	0.03657039
101	0x3d0d79e7	0.034540083
102	0x3cf3915a	0.029732395
103	0xbd26ec27	-0.040752556
104	0x3d5d5bbf	0.054042574
105	0x3c868151	0.016419085
106	0x3d8e9da6	0.06963663
107	0xbd465e4e	-0.04842978
108	0x3c33c916	0.010973236
109	0xbc8258b9	-0.015911447
110	0x3b2e3d2f	0.0026586761
111	0xbdb485f0	-0.08814609
112	0xbc0d834a	-0.008637259
113	0xbc8cdbf0	-0.017194718
114	0xbcae5e6e	-0.021285262
115	0x3d3535ad	0.044240642
116	0xbd6250fa	-0.055253007
117	0x3caa1de0	0.020766199
118	0x3d186d89	0.037213836
119	0x3bbb629d	0.0057185427
120	0x3c670bde	0.01410195
121	0xbb7559ff	-0.0037437675
122	0x3d961a6a	0.07329257
123	0xbbef0bb0	-0.0072950944
124	0xbdd84a89	-0.105610915
125	0xbd566e93	-0.052351546
126	0x3d61260d	0.05496793
127	0x3cb4b167	0.022057248
128	0x3c3b0380	0.011414409
129	0xbcbbcfa4	-0.02292616
130	0xbda2d07b	-0.07949921
131	0x3d5610bd	0.052262057
132	0xbcf6d281	-0.030129673
133	0xbdaf40ba	-0.085572675
134	0xbd904e9b	-0.07046243
135	0x3dc4bc85	0.0960627
136	0xbe18497b	-0.1487178
137	0xbceefc83	-0.029173141
138	0x3d635491	0.05550057
139	0x3d68e20f	0.05685621
140	0x3d1d01ba	0.038331725
141	0xbc6839b9	-0.014173918
142	0x3ba3b956	0.004996459
143	0x3d88feb9	0.066892095
144	0x3a3f67ee	0.00073015585
145	0xbde39434	-0.11112252
146	0xbd35341f	-0.04423916
147	0x3c8292c6	0.015939128
148	0x3c43e863	0.011957261
149	0xbcae59ba	-0.02128302
150	0x3d47d0c8	0.048783094
151	0xbdfbc8a3	-0.12294128
152	0xbbaf15d9	-0.0053431806
153	0x3dc30eaf	0.09524285
154	0x3d989b7b	0.074515305
155	0x3cf8a6d9	0.030352997
156	0xbd907bd1	-0.07054866
157	0x3b5f32ee	0.0034057456
158	0x3d237e53	0.039915394
159	0xbcbfec9b	-0.023428252
160	0xbc3f2ad4	-0.011667926
161	0xbc87b4fb	-0.01656579
162	0xbd2386d5	-0.039923508
163	0xbdaac01e	-0.08337425
164	0xbda6008a	-0.081055716
165	0xbd1972e6	-0.03746309
166	0x3d53f2a2	0.051745065
167	0x3bb2e01c	0.005458845
168	0x3d600a0b	0.054697078
169	0x3d49b869	0.049248133
170	0x3d9b3c64	0.07579878
171	0xbdf2f50c	-0.11863145
172	0x3c469d03	0.012122395
173	0x3ca6745f	0.020319162
174	0x3c7ddb33	0.015494156
175	0x3d06ed64	0.032941237
176	0xbd0e23c8	-0.034702092
177	0xbbd4a33b	-0.006489185
178	0x3c346cb1	0.011012242
179	0xbd075346	-0.0330384
180	0x3d917e91	0.07104219
181	0x3d6b247f	0.057407852
182	0x3cbc569e	0.022990521
183	0x3d3d2409	0.046176944
184	0xbe1e3eea	-0.15453687
185	0xbd6af01f	-0.057357904
186	0x3d96ef32	0.07369842
187	0xbc87cae7	-0.016576244
188	0xbd1743d4	-0.03692992
189	0xbcf9daff	-0.030499933
190	0x3b95665b	0.004559321
191	0x3df46d26	0.11934881
192	0xbdf6731f	-0.12033676
193	0x3d299ccb	0.041409295
194	0x3dbc8746	0.09205489
195	0xbdd91992	-0.1060058
196	0x3d9d9fd3	0.076965
197	0x3d00c64d	0.031439114
198	0x3cb3defe	0.021956917
199	0x3c367e2d	0.011138481
200	0xbd9a4b21	-0.07533861
201	0x3d13e73d	0.036109198
202	0x3dd17c61	0.102288015
203	0x3dcc13f5	0.09964744
204	0xbd509d1e	-0.05093109
205	0xbcb4c5b3	-0.022066927
206	0xbb921ce1	-0.004459009
207	0x3b4d7f8e	0.0031356546
208	0x39d8d1ee	0.0004135514
209	0xbd30349e	-0.04301893
210	0xba3dc00a	-0.0007238394
211	0x3d6dc19e	0.058045976
212	0xbc174d6b	-0.0092347665
213	0x3c84c950	0.016209275
214	0x3d56f872	0.05248303
215	0xbdc8706b	-0.09787067
216	0xbd11fb57	-0.035640087
217	0xbda31fb2	-0.0796503
218	0xbd9d736a	-0.07688029
219	0xbc3d01d9	-0.011536085
220	0x3d7cfd1e	0.06176483
221	0x3ba66f8c	0.0050792154
222	0x3d0d2f79	0.0344691
223	0x3d1ace11	0.037794176
224	0x3d9073d7	0.07053345
225	0xbd778504	-0.060429588
226	0x3d901e6b	0.07037052
227	0x3cad04b9	0.021120416
228	0x3d30df87	0.043181922
229	0xbd23344e	-0.039844804
230	0x3d8244d4	0.06360784
231	0x3d7d597e	0.061852925
232	0x3d15ffac	0.03662078
233	0xbd8a2184	-0.06744674
234	0xbaf8bb4b	-0.0018976716
235	0x3b392c65	0.002825522
236	0x3c918d86	0.017767679
237	0xbd953316	-0.072851345
238	0x3d323c81	0.043514732
239	0x3cfbc117	0.03073172
240	0xbd8d8346	-0.06909804
241	0x3c2e7964	0.010649059
242	0x3d4bce47	0.04975727
243	0xbc9f6b62	-0.019460384
244	0x3cbd3742	0.023097638
245	0x3dbe50ea	0.09292777
246	0x3dc8e9d9	0.09810228
247	0x3cc9c4f2	0.024630044
248	0x3b6e17bf	0.0036330072
249	0xbd7acc83	-0.061230194
250	0xbc98ce70	-0.018653125
251	0xbdba011c	-0.09082243
252	0x3dd8d2cf	0.105870835
253	0x3d2e7a7b	0.042597275
254	0xbdc5eadb	-0.09663936
255	0xbd12e89e	-0.035866372

conv1.bias f4 [64]
0	0x3b621b5e	0.0034501175
1	0xbad66ee4	-0.0016359952
2	0xbaa8ca6f	-0.0012877713
3	0x3a6d82a6	0.00090603007
4	0xbba00466	-0.004883337
5	0x3b8f889a	0.004380298
6	0x3b09b56a	0.0021012672
7	0x3c501934	0.012701321
8	0x3a798af1	0.00095193
9	0x3c7fdb69	0.015616276
10	0xbae4be54	-0.0017451742
11	0xba6280e3	-0.00086404214
12	0xbb9d3dae	-0.0047986126
13	0xbb382f65	-0.0028104421
14	0xbb8393c2	-0.004015417
15	0xbafb8fdc	-0.0019192654
16	0x3c0635aa	0.008191505
17	0x3b9b2ef0	0.00473582
18	0x3b81987d	0.0039549456
19	0x3bb8ce1d	0.005639805
20	0x3bdba140	0.006702572
21	0x3967d503	0.0002210923
22	0xbbec5066	-0.0072117327
23	0x3bbb7732	0.0057209963
24	0x3be61692	0.0070217336
25	0x3b89f78a	0.004210417
26	0xbbf376cc	-0.007429933
27	0x3ac4538b	0.0014978511
28	0x3934e2cc	0.00017250626
29	0x3a242fca	0.00062632246
30	0x3c05049f	0.008118778
31	0xb90fbc5e	-0.00013707715
32	0x3be74a5b	0.0070584244
33	0xbc175895	-0.009237428
34	0x3b80ac25	0.003926771
35	0xbb893853	-0.0041876226
36	0xbc15ccbb	-0.00914305
37	0xbbb44aa1	-0.0055020605
38	0xb9f9a639	-0.00047616826
39	0xbc091914	-0.0083677955
40	0x3c2d81f7	0.010590068
41	0x3919c8a9	0.00014665969
42	0x3b857f02	0.0040739784
43	0xbb5a5323	-0.0033313714
44	0x3bab9f34	0.0052374844
45	0xbb7a9c4b	-0.003824013
46	0xbc346b66	-0.011011934
47	0xbb558a83	-0.003258378
48	0x3be49217	0.006975423
49	0xb9e88254	-0.0004434759
50	0xbad8b414	-0.001653316
51	0x3b7104ff	0.003677666
52	0x3b3fa6a1	0.0029243606
53	0xbbd04f72	-0.006357127
54	0xbb105e5f	-0.0022028906
55	0x3c224fd3	0.009906727
56	0x3a901078	0.0010991236
57	0xbb039277	-0.0020076314
58	0x3be98955	0.007126967
59	0x3c3c2bab	0.011485021
60	0xbb8dfb57	-0.0043329406
61	0x3c41f81c	0.011838939
62	0xbbf67098	-0.0075207464
63	0xbc238818	-0.009981178

conv2.weight f4 [64, 64, 3, 3]
0	0xbd405e2f	-0.04696482
1	0xbcedbc96	-0.029020589
2	0x3a868bd3	0.001026506
3	0x3d3b1318	0.045672506
4	0xbd37f31f	-0.044909593
5	0xbda934e7	-0.082620434
6	0x3d8432ca	0.06455
7	0xbd3a9d41	-0.045560125
8	0x3d626a8a	0.055277385
9	0x3b3293ff	0.0027248857
10	0xbd22ae93	-0.03971727
11	0xbdb2058e	-0.08692466
12	0x3cac4b7a	0.021032084
13	0xbcd706dc	-0.026248388
14	0xbca861c7	-0.020554436
15	0xbd980f3d	-0.074247815
16	0xbd15e9ee	-0.036600046
17	0x3d9ed162	0.0775478
18	0x3c1476ae	0.009061499
19	0xbd988e14	-0.07448974
20	0xbd1dfb61	-0.03856981
21	0xbaf194e2	-0.0018431211
22	0xbd1c4ea6	-0.038160942
23	0xbd7f1723	-0.062277924
24	0xbcb0ec44	-0.021597035
25	0xbd6a538b	-0.05720858
26	0x3cb2f640	0.021845937
27	0xbd87eb34	-0.06636658
28	0x3cbc5304	0.022988804
29	0xbd162703	-0.0366583
30	0x3ac949f2	0.001535712
31	0x3caafef0	0.020873517
32	0x3a9bb094	0.0011878186
33	0xbc4037b7	-0.011732033
34	0xbc93fa10	-0.018063575
35	0x3d20e8d6	0.03928455
36	0xbd943e9f	-0.072385065
37	0xbd98d03d	-0.07461593
38	0xbd7a3213	-0.06108291
39	0xbc930e14	-0.017951049
40	0xbd639031	-0.055557434
41	0xbdba2043	-0.09088185
42	0x3bb9dc5f	0.0056720222
43	0x3b3866ce	0.0028137448
44	0x3d3e2976	0.04642626
45	0xbc9cafdf	-0.01912683
46	0xbc117786	-0.008878594
47	0x3d560f02	0.052260406
48	0xbcf56679	-0.02995609
49	0xbc38502d	-0.011249584
50	0xbd2da73a	-0.042395808
51	0xbcab4c79	-0.020910488
52	0xbcd31726	-0.025767874
53	0xbd2c0e0a	-0.042005576
54	0xbc2bb753	-0.01048072
55	0xbd1a6424	-0.037693158
56	0x3d1ed75a	0.038779594
57	0xbac09f44	-0.0014695902
58	0x3cb676e7	0.022273494
59	0xbd28110d	-0.041031886
60	0xbcd8b620	-0.026454031
61	0x3d10b5de	0.035329692
62	0xbc4088cb	-0.011751364
63	0x3d2e9b34	0.042628482
64	0x3cfb4839	0.030674087
65	0xbd0936a0	-0.03349936
66	0xbc987a94	-0.018613137
67	0x3bb735eb	0.0055911443
68	0x3d2382da	0.03991971
69	0x3d7c78c7	0.06163862
70	0xbd76abd5	-0.060222466
71	0xbbecaee0	-0.007222995
72	0xbd42dcc3	-0.047573816
73	0xbd2ca893	-0.042152952
74	0x3d620792	0.055183
75	0x3dc29c24	0.09502438
76	0xbd0c90c3	-0.034317743
77	0xbd0303e9	-0.03198615
78	0x3d2e49bc	0.042550787
79	0x3c3706cc	0.011171054
80	0xbc060ee2	-0.008182259
81	0x3c2cce58	0.010547243
82	0x3d4b15a8	0.0495812
83	0xbb5a6055	-0.0033321579
84	0xbd500b38	-0.05079195
85	0x3c9677ef	0.018367736
86	0x3c9ae0bc	0.01890599
87	0xbd576596	-0.052587114
88	0x3bc7fd2a	0.0061031776
89	0xbcc089be	-0.02350318
90	0x3d181e7e	0.037138455
91	0xbddeeec1	-0.108853824
92	0xbce1740b	-0.027521154
93	0xbd00d5a6	-0.03145375
94	0xbc99a939	-0.01875745
95	0x3c6c55ec	0.014424782
96	0x3c502887	0.012704975
97	0x392968a2	0.00016156075
98	0x3c40c594	0.011765856
99	0xbd7dc7f5	-0.061958272
100	0xbca7cc59	-0.020483183
101	0xbd8f5858	-0.06999272
102	0x3d0c9fef	0.034332212
103	0xbc8534be	-0.016260501
104	0xba6d3b2c	-0.000904965
105	0xbd07dc21	-0.033168916
106	0x3d79c8dd	0.060982574
107	0x3c70b2a1	0.014691026
108	0x3db152e2	0.08658387
109	0xbd86738a	-0.06565006
110	0xbc80996a	-0.015698154
111	0x3d92dd44	0.07171109
112	0xbda75e57	-0.08172291
113	0xbc603159	-0.01368364
114	0xbd7b64b5	-0.06137534
115	0xbc0e67db	-0.008691753
116	0xbcb6a98b	-0.022297641
117	0x3c90ee59	0.017691778
118	0x3d5b278a	0.053504504
119	0xbcf5192e	-0.029919233
120	0x3d58c10f	0.05291849
121	0xbc04f50d	-0.008115065
122	0x3d93dbb6	0.07219641
123	0x3cc3a820	0.02388388
124	0xbd624cdd	-0.055249084
125	0xbd1fa5de	-0.038976543
126	0x3cd86839	0.026416885
127	0xbd456fdf	-0.04820239
128	0xbcb00084	-0.02148462
129	0x3d38fe9b	0.045164686
130	0x3c363fe1	0.011123628
131	0xbdb602e9	-0.08887274
132	0xbdd59438	-0.10428661
133	0xbc6bb743	-0.014386955
134	0xbd95b49b	-0.073098384
135	0x3cdcacc8	0.026937857
136	0xbd96b047	-0.07357841
137	0xbc03b418	-0.008038543
138	0xbd619df5	-0.05508228
139	0xbce88c80	-0.028387308
140	0xbd51a0e4	-0.051178828
141	0xbd28c336	-0.041201793
142	0xbcf60de1	-0.030035915
143	0x3c22aa70	0.009928331
144	0x3caffba5	0.021482298
145	0xbc57f127	-0.013180054
146	0xbda815ff	-0.082073204
147	0x3ac6d4dc	0.0015169638
148	0xbe1b8a86	-0.15189561
149	0xbe1c93ac	-0.15290707
150	0x3c9f77c7	0.019466294
151	0xbd66f88d	-0.05638938
152	0xbd66ccf9	-0.05634782
153	0xbc165b1a	-0.009176994
154	0x3d1be9a6	0.03806462
155	0xbd76ea9d	-0.06028234
156	0xbd7a8353	-0.061160397
157	0x3ca5c3e5	0.020235011
158	0xbcb34c62	-0.021887008
159	0x3cf8447b	0.030306092
160	0x3d95fdb9	0.073237844
161	0xbcbcc054	-0.023040928
162	0xbc53d398	-0.012928866
163	0x3bd793fd	0.006578921
164	0x3c993aff	0.01870489
165	0x3cb608f1	0.02222106
166	0x3d025ad4	0.0318249
167	0x3d7260f9	0.05917451
168	0xbc77528e	-0.015095366
169	0x3cefc65c	0.02926939
170	0xbdeb5de3	-0.11492517
171	0xbd9ff2d9	-0.078099914
172	0xbcde48bd	-0.027134294
173	0x3be65d30	0.007030152
174	0x3da3bc03	0.07994845
175	0xbd60b0aa	-0.05485598
176	0xbd1ac529	-0.037785683
177	0xbd26b97d	-0.04070424
178	0xbb73850a	-0.0037158155
179	0xbd6b9213	-0.057512354
180	0x3d90d1e4	0.070712835
181	0xbcefc424	-0.029268332
182	0xbd2fec15	-0.042949755
183	0xba077bfc	-0.00051683164
184	0x3b9c32df	0.0047668065
185	0x3d02b8ca	0.03191451
186	0xbdb61161	-0.088900335
187	0xbd45a0c2	-0.048249014
188	0x3c7f3bb4	0.015578199
189	0x3c019b66	0.007910585
190	0xbce543a7	-0.02798636
191	0xbd256f03	-0.040389072
192	0xbcb14ec4	-0.021644004
193	0xbc299dd7	-0.010352573
194	0x3d91926b	0.07108005
195	0xbd36e733	-0.044654083
196	0xbd6a5c4f	-0.05721694
197	0xbcef759c	-0.029230885
198	0xbbe5e5b5	-0.0070159086
199	0x3c0fea64	0.00878391
200	0xbcdf8ab8	-0.027287826
201	0xbd6b9909	-0.057518993
202	0x3d4b3386	0.049609683
203	0xbce31894	-0.02772168
204	0x3d8758b6	0.06608717
205	0xbdc062b7	-0.09393828
206	0xbd52dde9	-0.05148116
207	0xbc00597f	-0.0078338375
208	0xbcba3b1b	-0.022733262
209	0xbc1d4341	-0.009598554
210	0xbb080c92	-0.0020759446
211	0x3a043103	0.00050427037
212	0x3c00767c	0.007840749
213	0x3c1f5b6b	0.009726386
214	0x3c92b5a8	0.017908886
215	0xbcb4fd7b	-0.022093525
216	0x3c71040a	0.014710436
217	0xbc76476a	-0.015031675
218	0xbc7d45f3	-0.015458572
219	0x3c527776	0.0128458645
220	0x3c50b122	0.012737544
221	0xbd179f44	-0.037017122
222	0xbd2006d5	-0.039069016
223	0xbc3925ac	-0.011300486
224	0xbd235006	-0.03987124
225	0xbdefc4c2	-0.117074504
226	0xbd7fd41e	-0.06245815
227	0x3bffbfca	0.0078048455
228	0xbc16b7c7	-0.009199089
229	0x3d1c25ba	0.038121916
230	0xbd6711ca	-0.05641345
231	0x3cad8282	0.021180395
232	0x3c7e508e	0.015522135
233	0x3d2902d8	0.041262478
234	0xbcdb2244	-0.026749738
235	0x3d21febe	0.03954958
236	0xbb02062e	-0.001984011
237	0xbcb71f32	-0.022353742
238	0x3ab68f0e	0.0013928132
239	0xbc16edab	-0.009211938
240	0x3d0d46ed	0.03449147
241	0x3d49f096	0.049301706
242	0xbd068820	-0.032844663
243	0x3da4c72b	0.08045801
244	0xbbeaaf70	-0.007162027
245	0xbd4d3099	-0.050095174
246	0x3d894cd7	0.06704109
247	0x3a08680d	0.0005203493
248	0xbddc7ccf	-0.10765993
249	0x3bf19652	0.007372656
250	0xbccf6c09	-0.02532007
251	0x3d4a3f7f	0.04937696
252	0x3bf1d53e	0.007380157
253	0x3ba9f7b1	0.005186998
254	0xbcda081e	-0.026615199
255	0x3c9b1795	0.018932143

conv2.bias f4 [64]
0	0x3b13a871	0.0022530819
1	0xbb0a72c3	-0.0021125532
2	0x3af8241f	0.0018931663
3	0xba5bf5ea	-0.0008390831
4	0x3bc7186b	0.006075909
5	0xba87228c	-0.0010309978
6	0x3b0bd5d2	0.0021337164
7	0xbb5f2c0e	-0.0034053358
8	0x3b3458f5	0.0027518843
9	0xb98db57f	-0.0002702884
10	0xbbb14eab	-0.0054109893
11	0x3b0ff85b	0.00219681
12	0x3b5dc228	0.003383765
13	0x3b69f385	0.0035698127
14	0x3ba62c98	0.005071234
15	0xbb3031b6	-0.0026885099
16	0xbb1b07b2	-0.002365571
17	0x3ab0411f	0.0013447142
18	0xbbc4c25a	-0.006004614
19	0xbc6140b3	-0.013748336
20	0xbba61f51	-0.005069651
21	0xbb6b02fd	-0.0035859935
22	0xbba1f1b7	-0.0049421447
23	0xbadfd561	-0.0017077142
24	0xbacfae5d	-0.0015844811
25	0xbb84cd4c	-0.0040527936
26	0x3b86cdc7	0.004113886
27	0xba4127ea	-0.00073683134
28	0xba40cd58	-0.00073548174
29	0xb9ec04f7	-0.00045017127
30	0xbb208e97	-0.0024499053
31	0x3b053dd2	0.0020331037
32	0xbb6279fb	-0.003455757
33	0x3a4b746c	0.00077611837
34	0xbb5ad163	-0.0033388964
35	0xba9736b9	-0.0011536694
36	0x3c087320	0.008328229
37	0xbbda760c	-0.0066669043
38	0xbaeb7901	-0.0017965139
39	0x3afed3eb	0.0019441819
40	0xbb40767d	-0.00293675
41	0x3aae7078	0.0013308665
42	0x3bd7b9f2	0.0065834457
43	0x3bb1d7a4	0.0054273177
44	0x3ab4260e	0.0013744251
45	0xbb191d7f	-0.0023363528
46	0xbb90721f	-0.0044081355
47	0x3b9aaf38	0.0047205947
48	0xbb96fbe2	-0.0046076635
49	0x3bad1e59	0.0052831587
50	0xbbb679e7	-0.005568731
51	0x3a552a0c	0.00081315706
52	0x39fb3e0f	0.00047920688
53	0xbb209aa5	-0.0024506238
54	0xbac40096	-0.0014953788
55	0xbb43d78d	-0.0029883117
56	0xbb81c42d	-0.0039601536
57	0xbb19131f	-0.0023357344
58	0x3aa2d95b	0.0012424396
59	0xbb932005	-0.004489901
60	0x3b016895	0.0019746174
61	0xbacfc4f8	-0.0015851548
62	0xbae5ea93	-0.0017541222
63	0xba62e232	-0.00086549215

conv3.weight f4 [64, 64, 3, 3]
0	0xbd44eedc	-0.048079357
1	0x390d7393	0.00013489863
2	0xbcd8d56f	-0.02646896
3	0x3b3a179d	0.0028395422
4	0x3b7134e8	0.0036805216
5	0x3d193640	0.037405252
6	0x3c206104	0.009788755
7	0xbbc4db92	-0.00600762
8	0x3b4cfe96	0.0031279675
9	0xbd5e4818	-0.054267973
10	0x3ce35cc9	0.027754204
11	0xbcf7b410	-0.030237228
12	0x3ceaee0f	0.028677968
13	0xbc41ccc6	-0.011828607
14	0xbbbbe99a	-0.0057346346
15	0x3d5ca700	0.0538702
16	0x3c40cce6	0.011767602
17	0xbc8d9a6c	-0.017285548
18	0xbaa7d4b7	-0.0012804483
19	0x3cfa079c	0.030521207
20	0xbd1e68bc	-0.0386741
21	0x3aaf23cd	0.001336211
22	0xbc8f2834	-0.017475225
23	0xbc7b685b	-0.0153447045
24	0x3d9d24df	0.07673048
25	0x3c9c6a86	0.019093763
26	0x3c782197	0.015144727
27	0xbd40a1a1	-0.04702914
28	0x3d3d32b4	0.046190932
29	0xbd24e9cf	-0.04026204
30	0x3d487da9	0.048947964
31	0xbd1c4caa	-0.03815905
32	0xbcc559f8	-0.024090752
33	0xbdac0c28	-0.08400756
34	0x3cc227ee	0.02370068
35	0xbd05ccef	-0.032666143
36	0x3d974270	0.07385719
37	0x3d082bf2	0.033245035
38	0x3c3aeb2e	0.01140861
39	0x3bf95581	0.00760907
40	0x3d71bc38	0.05901739
41	0xbd1ba0fe	-0.03799533
42	0x3c97284e	0.018451836
43	0xbd07af66	-0.033126257
44	0xbce93871	-0.028469296
45	0x3c85ec0c	0.016347907
46	0xbdd1c9d3	-0.10243573
47	0xbd961625	-0.073284425
48	0x3a806a8d	0.000979738
49	0x3ca7871e	0.020450171
50	0xbd06694b	-0.03281526
51	0x3bb792fd	0.005602239
52	0xbcb91eab	-0.022597631
53	0xbd9a1aa8	-0.075246155
54	0x3d51d458	0.051227897
55	0x3d4ae563	0.049535166
56	0x3c364580	0.0111249685
57	0xbbf642c4	-0.0075152833
58	0x3d8735d6	0.06602065
59	0x3d10d7ff	0.03536224
60	0xbcbf896a	-0.023380954
61	0xbd13c8c8	-0.03608015
62	0xbce57be3	-0.028013175
63	0x3d5ce522	0.053929456
64	0xbcf97571	-0.030451508
65	0x3cfdec42	0.030996446
66	0x3cbb1ebe	0.022841807
67	0xbd716c2f	-0.058941063
68	0xbcfbefdd	-0.030754024
69	0x3dca8dfa	0.09890361
70	0xbcf02c84	-0.029318102
71	0xbcf6c2cd	-0.030122185
72	0x3ce6a8cf	0.028156666
73	0xbc01753a	-0.007901484
74	0x3d6989bc	0.05701612
75	0xbcbe0a0b	-0.023198148
76	0xbc58010d	-0.013183844
77	0x3d88f361	0.06687046
78	0x3cf8b390	0.03035906
79	0x3c3885b4	0.011262346
80	0x3d005527	0.031331208
81	0x3ca7d142	0.020485524
82	0x3c2abb43	0.010420623
83	0x3dae3b56	0.08507411
84	0x3c8cc10f	0.017181901
85	0x3d455f07	0.04818633
86	0x3c134bbd	0.008990225
87	0x3aa45e18	0.0012540249
88	0xbc953a8d	-0.018216396
89	0xbdaf01c5	-0.085452594
90	0xbc98d4e4	-0.018656202
91	0x3cb579a4	0.02215273
92	0xbb210b61	-0.0024573433
93	0x3d95fa52	0.073231354
94	0x3c519e02	0.01279402
95	0x3ce3c57c	0.027804129
96	0x3d299afd	0.041407574
97	0x3c82071c	0.01587253
98	0x3c988009	0.01861574
99	0xbd2e372e	-0.042533092
100	0x3d3a3274	0.045458272
101	0x3d91f675	0.07127086
102	0x3d038327	0.0321075
103	0xbbf0896e	-0.0073406016
104	0xbda510de	-0.08059858
105	0xbd1cb708	-0.03826049
106	0xbc1728c7	-0.009226031
107	0xbd0006bd	-0.031256426
108	0xbd1917de	-0.037376277
109	0x3c723296	0.014782568
110	0x3d55c672	0.052191205
111	0xbd195cde	-0.03744208
112	0x3b944bf0	0.004525654
113	0xbd10b172	-0.035325475
114	0xbc2f1180	-0.010685325
115	0x3da81368	0.082068264
116	0x3cdb8247	0.02679552
117	0x3da3f03d	0.08004806
118	0xbc7f9e36	-0.015601685
119	0xbd694327	-0.056948807
120	0x3c2c824f	0.010529115
121	0x3cd06c32	0.025442217
122	0xbdbd76ae	-0.09251152
123	0x3cd9b61b	0.026576092
124	0x3d90a699	0.07063026
125	0xbcfbfc55	-0.03075997
126	0xbcb76f2c	-0.022391878
127	0xbc3becac	-0.011470001
128	0x3cd70b9f	0.026250659
129	0xbd076ff2	-0.033065744
130	0xbc2c021d	-0.010498551
131	0x3cfc7454	0.030817188
132	0xbcec451a	-0.028841544
133	0x3c9b9d5f	0.018995939
134	0x3d5ff7d3	0.054679703
135	0x3d158177	0.03650042
136	0x3bafeaca	0.005368565
137	0x3cff3a30	0.031155676
138	0x3d555938	0.05208704
139	0x3aa4c21a	0.0012570054
140	0xbc035fbe	-0.008018432
141	0x3ca47d6a	0.020079333
142	0x3d311b17	0.043238726
143	0xbd902aed	-0.070394374
144	0xbd50930f	-0.050921496
145	0x3d6cfdfa	0.0578594
146	0x3c6158b1	0.013754056
147	0x3cc5d1a7	0.024147822
148	0xbd9cfdfb	-0.076656304
149	0xbb635c17	-0.003469234
150	0xbd8b5895	-0.06804005
151	0xbd10a946	-0.03531768
152	0xbcaf2ad3	-0.021382725
153	0xbc3779a6	-0.011198437
154	0xbca2bc53	-0.01986519
155	0xbcea7e36	-0.028624635
156	0xbd0a79e2	-0.033807643
157	0x3c40ef9c	0.011775877
158	0x3ca5d8d3	0.020244991
159	0x3cdcc875	0.026951054
160	0xbb9e3ca5	-0.0048290067
161	0xbc9bfcc0	-0.019041419
162	0x3b6887b9	0.0035481288
163	0x3be2fc27	0.0069270316
164	0x3be446fa	0.006966469
165	0xbc35500f	-0.011066451
166	0x3d26bef9	0.04070947
167	0x3d9af616	0.075664684
168	0x3dc54e68	0.096340954
169	0xbc1a5034	-0.009418536
170	0x3b4b4970	0.0031019114
171	0xbac989e1	-0.0015376174
172	0xbc4b24ec	-0.01239894
173	0x3d442b68	0.047892958
174	0xbc61389c	-0.013746407
175	0x3c9df989	0.019284027
176	0xbb18745b	-0.0023262713
177	0xbc2d36d4	-0.010572154
178	0xbd8a65d9	-0.06757707
179	0x3d03a89e	0.032143228
180	0x3c8481bd	0.016175145
181	0x3c2753d8	0.010212861
182	0xbd5efc1d	-0.054439653
183	0xbd1b250b	-0.037877124
184	0xbd87e542	-0.06635524
185	0x3be7c6b1	0.0070732464
186	0xbceadb84	-0.028669126
187	0x3c94f436	0.018182855
188	0x3d2d52e5	0.042315383
189	0x3d9b28f3	0.0757617
190	0xba77e70c	-0.0009456731
191	0xbb55bca6	-0.0032613664
192	0x3c983bac	0.018583141
193	0xbc805691	-0.015666278
194	0x3b9b8cdd	0.004747017
195	0x3b7e6716	0.0038818768
196	0xbbacc444	-0.00527242
197	0x3cbe6dad	0.023245657
198	0xbd474b52	-0.048655815
199	0x3d3a62a0	0.045504212
200	0xbcd2d761	-0.025737466
201	0xba4fe01a	-0.0007929817
202	0xbcd8bf38	-0.026458368
203	0x3cb776a1	0.022395434
204	0xbb9dfb11	-0.004821189
205	0x3bdeb0a1	0.006795958
206	0xbcde31c6	-0.027123343
207	0xbc3e95fb	-0.011632438
208	0xbd2f4585	-0.04279091
209	0x3c952d77	0.018210156
210	0x3c287ea4	0.0102841
211	0xbc6d0c6d	-0.014468295
212	0xbd1608dc	-0.036629543
213	0xbd1e22ec	-0.038607523
214	0x3cd0ecd5	0.025503555
215	0xbd333518	-0.043751806
216	0xbcf6a04b	-0.03010573
217	0x3daeb283	0.08530142
218	0xbc553890	-0.013013974
219	0x3c476653	0.012170392
220	0xbd13febf	-0.036131617
221	0x3c58d0e3	0.013233396
222	0xbcde27fa	-0.027118672
223	0x3b4e126e	0.003144409
224	0xbcf03196	-0.02932052
225	0x3bbd930c	0.0057853516
226	0xbce993aa	-0.028512795
227	0x3d468573	0.04846711
228	0x3d9a75b6	0.07541983
229	0xbcf3bf7a	-0.02975439
230	0x3d48da9a	0.0490366
231	0x3cbd82a5	0.023133585
232	0xbd09903b	-0.033584815
233	0x3d285adc	0.041102275
234	0xbd97f051	-0.074188836
235	0xba809155	-0.0009808937
236	0x3d80a053	0.062805794
237	0x3ccf8b94	0.02533511
238	0x3b6a6a45	0.0035768908
239	0xbc263a87	-0.01014579
240	0xbdc4bb27	-0.09606009
241	0xbc9f7fba	-0.019470084
242	0x3dce1c1e	0.10063957
243	0x3c947742	0.018123273
244	0xbca68d10	-0.020330936
245	0x3d6cee37	0.057844367
246	0xbbf45af8	-0.0074571334
247	0xbd2ea1be	-0.042634718
248	0x3d31e882	0.043434627
249	0xbccc1cee	-0.024916138
250	0xbd6807e4	-0.05664815
251	0xbc77b0a9	-0.015117803
252	0x3bde8351	0.0067905565
253	0xbc226ada	-0.009913171
254	0x3c993d95	0.018706122
255	0xbc81565d	-0.015788252

conv3.bias f4 [64]
0	0x3cd7970a	0.026317138
1	0x3cbc2d5f	0.022970853
2	0xbcf666a8	-0.030078247
3	0x3d02d287	0.031939056
4	0xbc900dcb	-0.017584702
5	0xbd0caab6	-0.03434249
6	0x3cff8669	0.031192021
7	0x3d15fb28	0.036616474
8	0x3d0b64bc	0.034031615
9	0x3ce7d06d	0.028297627
10	0x3ce534d0	0.027979285
11	0x3d0b3d64	0.033994094
12	0x3d035044	0.03205897
13	0xbd00cd3a	-0.03144572
14	0x3d098abf	0.033579584
15	0x3cfc0fda	0.030769277
16	0xbc54a7d3	-0.012979466
17	0x3b8c3581	0.004278839
18	0xbc1729db	-0.009226288
19	0x3cf5d3c4	0.030008204
20	0x3d1c695a	0.03818641
21	0xbca08ee1	-0.01959938
22	0xbcb63246	-0.02224077
23	0x3d01a987	0.031655814
24	0x3d140b7b	0.03614376
25	0xbc59bdcb	-0.013289879
26	0xbc8aec6b	-0.016958436
27	0x3d08eb6d	0.033427645
28	0x3d1a2fd7	0.03764328
29	0x3d0815e7	0.033224013
30	0xbc7592bc	-0.0149885975
31	0x3cfb6748	0.030688897
32	0x3d0c7da7	0.03429952
33	0x3d01d457	0.031696644
34	0x3cf1bb5f	0.02950829
35	0x3cc15a76	0.023602705
36	0xbd09a01c	-0.033599958
37	0xbc76a3ee	-0.015053732
38	0x3d101659	0.035177562
39	0x3cc04e45	0.023474822
40	0xbb60b002	-0.0034284596
41	0xbba1095c	-0.004914446
42	0x3d15000a	0.03637699
43	0x3bd58525	0.006516116
44	0x3c34e349	0.011040517
45	0xbcfff6c7	-0.031245602
46	0xbceb2a6b	-0.02870675
47	0x3d109657	0.035299625
48	0x3d07a416	0.03311547
49	0xbb94755d	-0.0045305924
50	0x3c17274e	0.00922568
51	0xbd03f084	-0.032211795
52	0x3b888197	0.004165839
53	0x3d178854	0.036995247
54	0xbb5f5fd3	-0.0034084215
55	0x3d115990	0.035485804
56	0x3bb43756	0.0054997606
57	0x3a4882e7	0.00076489005
58	0x3cb832aa	0.022485096
59	0x3d19d3f4	0.03755565
60	0x3d0fd179	0.035111878
61	0xbcf129bb	-0.029438844
62	0x3d102655	0.035192806
63	0x3be285ca	0.0069129216

bn1.weight f4 [64]
0	0x3f83f67d	1.0309597
1	0x3f82f6b0	1.0231533
2	0x3f7e5d9c	0.99361587
3	0x3f7bb83b	0.9832799
4	0x3f8206da	1.0158341
5	0x3f7c4d60	0.98555565
6	0x3f7c61c8	0.985867
7	0x3f82981f	1.0202674
8	0x3f7aeaf1	0.9801474
9	0x3f7ddd92	0.99166214
10	0x3f82c84e	1.0217378
11	0x3f834d4f	1.0257968
12	0x3f7e644c	0.9937179
13	0x3f7d8bfb	0.9904172
14	0x3f7d6e5b	0.98996514
15	0x3f7a1ad8	0.9769721
16	0x3f80a7df	1.005123
17	0x3f82bc30	1.021368
18	0x3f835058	1.0258894
19	0x3f7d38b4	0.9891465
20	0x3f7a9aa5	0.9789222
21	0x3f83bb98	1.0291624
22	0x3f7faeed	0.9987629
23	0x3f7f4fd7	0.997312
24	0x3f814012	1.0097678
25	0x3f828e5d	1.0199696
26	0x3f7e6ac7	0.9938168
27	0x3f80a757	1.0051068
28	0x3f8243f6	1.017699
29	0x3f7fdb8a	0.99944365
30	0x3f805a86	1.0027626
31	0x3f7edf57	0.9955954
32	0x3f7d8e0c	0.9904487
33	0x3f7b8527	0.9825005
34	0x3f79d134	0.97584844
35	0x3f7d50c0	0.9895134
36	0x3f8240e0	1.0176048
37	0x3f7b67f7	0.9820551
38	0x3f79d1a1	0.97585493
39	0x3f80126c	1.0005622
40	0x3f8111c0	1.0083542
41	0x3f7d1990	0.9886713
42	0x3f8289bb	1.0198282
43	0x3f821aab	1.0164388
44	0x3f7e9f05	0.99461395
45	0x3f84538f	1.0338
46	0x3f8425e2	1.0324061
47	0x3f81a18f	1.0127429
48	0x3f7b1f5e	0.9809474
49	0x3f7f6ad9	0.9977241
50	0x3f8364db	1.0265154
51	0x3f7c48e4	0.9854872
52	0x3f8118c7	1.0085686
53	0x3f81e2f9	1.0147392
54	0x3f8488f1	1.0354291
55	0x3f819b82	1.0125582
56	0x3f7b0c89	0.98066
57	0x3f811eeb	1.008756
58	0x3f7b6b33	0.9821045
59	0x3f8208c4	1.0158925
60	0x3f7fe683	0.9996111
61	0x3f7f11bf	0.99636453
62	0x3f7c6f3d	0.98607236
63	0x3f823add	1.0174214

bn1.bias f4 [64]
0	0x3c948402	0.018129352
1	0xbcb25c7a	-0.021772612
2	0xbbdc3e5a	-0.0067213
3	0xbba91a0a	-0.005160575
4	0xbcc58370	-0.024110526
5	0x3c90860a	0.01764204
6	0x3c20ae91	0.009807245
7	0x3c30551a	0.010762477
8	0xbc472786	-0.012155419
9	0xbc05d3c8	-0.008168168
10	0x3a7ea887	0.00097144436
11	0x3c4ed625	0.012624298
12	0x3b458b49	0.0030142835
13	0x3b23d28d	0.0024997324
14	0x3ccca3c7	0.024980439
15	0xbccc7abb	-0.024960866
16	0x3c8d2831	0.017231079
17	0x3bc899fc	0.006121872
18	0x3b5bec65	0.003355765
19	0xba227e34	-0.00061986153
20	0x3bdb6d3b	0.006696371
21	0xbcc39584	-0.023875006
22	0xbc2f23b4	-0.010689665
23	0x3c0c3c71	0.008559332
24	0x3b5ec4a4	0.0033991719
25	0xbc93d032	-0.018043611
26	0xba09005f	-0.00052261906
27	0xbcc43722	-0.02395207
28	0xbc11e144	-0.008903805
29	0xbcbe0d92	-0.02319983
30	0xbc338a9a	-0.010958338
31	0xbb98c7e2	-0.0046624998
32	0x3c50fd95	0.012755771
33	0xbcd10150	-0.025513321
34	0x3aaeff19	0.0013351172
35	0xbb8747a9	-0.0041284156
36	0xbc9b5034	-0.018959142
37	0xbc0e49d5	-0.008684595
38	0xbb2ff2b6	-0.0026847548
39	0x3c7d47d1	0.015459017
40	0x3cb18111	0.021667989
41	0xbcaefead	-0.021361673
42	0xbadacb48	-0.0016692663
43	0xbc3e417b	-0.011612291
44	0xbc6f5c59	-0.01460942
45	0x3c581361	0.013188214
46	0x3b5da955	0.0033822854
47	0x3c062f02	0.0081899185
48	0xbc6444f6	-0.013932457
49	0xbd0b96b9	-0.034079287
50	0xbc833cf2	-0.016020272
51	0x3c78600f	0.015159621
52	0x3bc0e104	0.005886199
53	0x3bbe6ea2	0.0058115283
54	0x3c9c6588	0.019091383
55	0xbcb1a064	-0.021682926
56	0x3cb10b85	0.021611938
57	0xbc8b8506	-0.017031204
58	0x3c9bf1f2	0.019036267
59	0x3bf2bae7	0.0074075344
60	0x3c369018	0.011142753
61	0x3abc57e2	0.0014369453
62	0xbcd21a96	-0.025647443
63	0xbcb69d5d	-0.022291834

bn1.running_mean f4 [64]
0	0x3c59efe8	0.013301827
1	0x3b3b92d7	0.002862146
2	0xbcac9c7c	-0.021070711
3	0xbb6ab973	-0.0035816103
4	0xbb10fe8d	-0.002212438
5	0xbc4bd019	-0.012439751
6	0xbc679364	-0.014134262
7	0x3ca0f96e	0.019650187
8	0x3c204914	0.009783048
9	0x3d13c4f1	0.03607649
10	0x3ad3b79d	0.0016152743
11	0x3c1fd517	0.009755394
12	0xbc82270e	-0.015887763
13	0xbb852f94	-0.0040645096
14	0xbc6f9635	-0.0146232145
15	0x3bdc3a76	0.0067208363
16	0xbc27bbc0	-0.010237634
17	0x3c73f3bd	0.014889655
18	0x3aee74ae	0.0018192732
19	0xbb3031f3	-0.002688524
20	0x3c0c608f	0.008567943
21	0x3c15ab60	0.009135097
22	0x3a743d5e	0.0009317006
23	0x3b7312c4	0.0037090043
24	0x3bc6d3d3	0.006067732
25	0x3c67e89c	0.0141545795
26	0xbbd6bae3	-0.0065530404
27	0x3bbfd63e	0.005854397
28	0x3c83234d	0.016008044
29	0x3c7e6ba5	0.015528594
30	0x3c8c1675	0.017100552
31	0xbb59f001	-0.0033254626
32	0xbcb27a8e	-0.021786954
33	0x3bd6b6b4	0.0065525416
34	0xbc5da3a0	-0.013527781
35	0x3c2a892f	0.010408684
36	0xbc016323	-0.007897171
37	0xbcaf8395	-0.021425048
38	0x3b5800b8	0.0032959413
39	0xbd140622	-0.03613866
40	0xba67c800	-0.0008841753
41	0x3b758a74	0.0037466558
42	0x3c695176	0.014240613
43	0x3c647cf3	0.013945806
44	0x3c8bbf15	0.017058888
45	0x3c177beb	0.009245853
46	0xba85bbb7	-0.0010203038
47	0x3c4606e9	0.012086608
48	0xbba488c8	-0.0050211884
49	0x3b88e55d	0.004177733
50	0x3a0a7c97	0.00052828476
51	0x3b910c5b	0.0044265217
52	0x3c813fcc	0.015777491
53	0xbbc9a3f1	-0.0061535765
54	0x3c8a77d4	0.016902842
55	0x3c1bf311	0.009518401
56	0xbd020109	-0.03173927
57	0x3c0e0fed	0.008670789
58	0xbba101ea	-0.0049135583
59	0x3c99b252	0.018761788
60	0xbc8e7aab	-0.017392477
61	0x3a6a3314	0.0008934003
62	0xbb88d8c5	-0.0041762316
63	0xb9ebf666	-0.00045006274

bn1.running_var f4 [64]
0	0x3c97b15b	0.018517187
1	0x3cc64fc8	0.024207965
2	0x3cd11a80	0.025525331
3	0x3cfac402	0.030611042
4	0x3c507cfc	0.012725111
5	0x3cf40526	0.029787611
6	0x3cae341b	0.02126508
7	0x3cab7d3e	0.020933744
8	0x3c3390cb	0.010959814
9	0x3d30767e	0.043081753
10	0x3c0861af	0.008324071
11	0x3c0e428f	0.008682861
12	0x3c35440d	0.011063588
13	0x3c7618e2	0.015020581
14	0x3cd33274	0.025780894
15	0x3cce56b1	0.025187822
16	0x3cf398d5	0.029735962
17	0x3c9f2a90	0.019429475
18	0x3cd408d4	0.025883116
19	0x3c194aa9	0.009356179
20	0x3ce95ed2	0.028487597
21	0x3d5b7311	0.053576533
22	0x3cbd8079	0.02313255
23	0x3c29f6e7	0.0103738075
24	0x3cab73d8	0.020929262
25	0x3c4941b9	0.012283736
26	0x3c60a7ff	0.013711928
27	0x3ca17bbb	0.01971232
28	0x3cf46313	0.029832399
29	0x3cc0fe8e	0.023558881
30	0x3cd2944b	0.025705477
31	0x3ba2fbdc	0.0049738716
32	0x3d594e8c	0.053053424
33	0x3cb48e39	0.022040473
34	0x3d11744c	0.0355113
35	0x3cc56e9b	0.024100592
36	0x3c6e0a87	0.014528877
37	0x3c84aff8	0.01619719
38	0x3be0d2c3	0.0068610623
39	0x3d785473	0.060627412
40	0x3cd85346	0.026406895
41	0x3cb32f47	0.02187313
42	0x3ceb8e44	0.028754361
43	0x3d04b2f3	0.03239722
44	0x3c9fab57	0.01949088
45	0x3ca08a58	0.019597217
46	0x3c85ef66	0.016349506
47	0x3c995ad1	0.018720062
48	0x3c13b64a	0.009015629
49	0x3c2c887d	0.010530588
50	0x3ca82b1a	0.020528365
51	0x3bc99e8f	0.006152935
52	0x3c99b71d	0.018764073
53	0x3cad5c73	0.021162247
54	0x3d03bcac	0.032162353
55	0x3c8dddb7	0.017317636
56	0x3d80f0e2	0.06295945
57	0x3d4882bd	0.048952807
58	0x3ce724e4	0.028215833
59	0x3bebabe7	0.007192123
60	0x3c87c402	0.016572956
61	0x3c92cf91	0.017921241
62	0x3c7e8ded	0.015536767
63	0x3ce1df10	0.027572185

bn2.weight f4 [64]
0	0x3f806141	1.002968
1	0x3f818fd2	1.0122015
2	0x3f7e9150	0.9944048
3	0x3f806562	1.003094
4	0x3f8001d8	1.0000563
5	0x3f7d92c7	0.9905209
6	0x3f7ea8d5	0.9947637
7	0x3f82a7ab	1.0207418
8	0x3f81a5d1	1.0128728
9	0x3f80e127	1.0068711
10	0x3f787f3f	0.9706916
11	0x3f809077	1.0044087
12	0x3f7b39e5	0.98135215
13	0x3f814d8f	1.0101794
14	0x3f81d060	1.0141716
15	0x3f84faa5	1.0388991
16	0x3f830d2b	1.0238394
17	0x3f79e7f7	0.97619575
18	0x3f7a8149	0.97853523
19	0x3f80250c	1.0011306
20	0x3f801029	1.0004932
21	0x3f7a7d4a	0.97847426
22	0x3f7c9433	0.98663634
23	0x3f82e590	1.0226307
24	0x3f7e55aa	0.99349463
25	0x3f7b7b32	0.98234856
26	0x3f81b2cc	1.013269
27	0x3f7f4b3d	0.9972418
28	0x3f789ac2	0.9711114
29	0x3f7a7ca0	0.9784641
30	0x3f7dc372	0.9912635
31	0x3f8140a5	1.0097853
32	0x3f806390	1.0030384
33	0x3f80575b	1.0026659
34	0x3f8223c4	1.0167165
35	0x3f7db060	0.9909725
36	0x3f8029c4	1.0012746
37	0x3f7d73bc	0.9900472
38	0x3f7c3fb0	0.9853468
39	0x3f808037	1.0039128
40	0x3f7ac7b7	0.9796099
41	0x3f8257cc	1.0183043
42	0x3f7e4a5e	0.99332225
43	0x3f809b48	1.0047388
44	0x3f7c3abe	0.98527133
45	0x3f7ff215	0.9997876
46	0x3f7a00a6	0.9765724
47	0x3f7f6ec6	0.997784
48	0x3f7865fd	0.9703062
49	0x3f7ea7dc	0.99474883
50	0x3f847e10	1.0350971
51	0x3f7f5c23	0.99749964
52	0x3f817257	1.0113019
53	0x3f7f37ae	0.99694335
54	0x3f7b1cbc	0.9809072
55	0x3f828a6b	1.0198492
56	0x3f8249a5	1.0178725
57	0x3f8222f4	1.0166917
58	0x3f7b884a	0.98254836
59	0x3f7b25b1	0.9810439
60	0x3f80a8e5	1.0051543
61	0x3f80e8de	1.0071065
62	0x3f78b932	0.97157586
63	0x3f83ffed	1.0312477

bn2.bias f4 [64]
0	0x3c7db85a	0.015485847
1	0x3a92fe3a	0.0011214681
2	0xbd08bd32	-0.033383556
3	0xbc403389	-0.011731037
4	0x3ba67338	0.005079653
5	0xbd090835	-0.033455092
6	0xbc3c4360	-0.011490673
7	0xbca2bfc7	-0.019866837
8	0xbc8d5f85	-0.017257461
9	0xbd15eee1	-0.036604766
10	0xbbce5294	-0.006296465
11	0x3c6b35d7	0.014356098
12	0xbc2823a9	-0.010262408
13	0xbd172e5a	-0.03690944
14	0x3d0d9197	0.034562673
15	0x3c477688	0.012174256
16	0x3c9cc9d1	0.019139202
17	0xbd0822bb	-0.033236247
18	0xbccd7287	-0.025079025
19	0x3cf94ac5	0.03043116
20	0x3c866e36	0.016409975
21	0x3bb3acc0	0.00548324
22	0xbc18ed31	-0.009333895
23	0x3d196485	0.03744938
24	0x3c56223f	0.013069688
25	0x3cc1481c	0.023593955
26	0xb88cca1f	-6.713368e-05
27	0xbcc010ba	-0.023445476
28	0x3c69dd02	0.014273884
29	0x3c25485d	0.0100880535
30	0xbb74cf58	-0.0037355032
31	0xbce7ff23	-0.0283199
32	0x3b6e28e4	0.003634029
33	0x3cd581b9	0.026062833
34	0x3d159187	0.03651574
35	0xbcf0d311	-0.02939752
36	0xbd00fcec	-0.031491205
37	0x3cf57164	0.029961295
38	0xbcb2508f	-0.021766929
39	0x3c621f77	0.013801447
40	0xbcc6f15f	-0.024285017
41	0x3c052deb	0.0081286235
42	0x3bc7d5ac	0.0060984697
43	0xbd007097	-0.031357374
44	0xbc58a232	-0.013222264
45	0x3cb5e20c	0.022202514
46	0xbcc8b084	-0.024498232
47	0xbca1f323	-0.019769257
48	0xbb5a0dbe	-0.003327235
49	0xbca1046b	-0.019655427
50	0x3a072673	0.00051555707
51	0xbc525660	-0.012837976
52	0x3c1eab91	0.009684459
53	0x3b8f4b4e	0.0043729907
54	0xbb042d2e	-0.002016853
55	0xbd17719c	-0.03697358
56	0xbd19ca38	-0.037546366
57	0x3cb4a2e5	0.02205033
58	0xb9d75857	-0.00041073814
59	0xbcd17f7d	-0.025573486
60	0xbc47f803	-0.012205127
61	0xbc763925	-0.015028273
62	0x3ca49c79	0.020094143
63	0x3d239703	0.039938938

bn2.running_mean f4 [64]
0	0xc034b5c2	-2.8235936
1	0xbe83e153	-0.25757846
2	0x40134b1d	2.3014596
3	0x400e7c3c	2.2263327
4	0x3ef74388	0.4829371
5	0x3fe9e3c5	1.8272635
6	0xbdcd421a	-0.100223735
7	0xbf09be83	-0.5380632
8	0xbe02adf5	-0.12761672
9	0xbe735847	-0.23764144
10	0x3fb4b8f5	1.4118944
11	0x400d2148	2.2051563
12	0x3fc87991	1.5662099
13	0x3fb4432f	1.4083003
14	0x3f48661a	0.78280795
15	0x3ec7ba71	0.3900943
16	0x3f530593	0.8243038
17	0xbeed44b2	-0.46341473
18	0x3f9baac3	1.2161487
19	0x3ff0684e	1.8781831
20	0x3fe8a46c	1.8175178
21	0xbfc3aa48	-1.5286341
22	0xc03bb671	-2.9330103
23	0x3f3aca79	0.729652
24	0x3f39248c	0.7232139
25	0x40188ca4	2.383584
26	0x3fb26fe3	1.3940395
27	0x3f6a0120	0.91407967
28	0x400a183a	2.1577287
29	0x3fcfd8c4	1.6238027
30	0x3ec8af77	0.3919637
31	0x3ff75838	1.9323797
32	0x400e8d9c	2.2273932
33	0x3f25b1fb	0.647247
34	0x3f5692d3	0.83817786
35	0xbe04a492	-0.12953404
36	0x3fd9ce29	1.701604
37	0xbe681a46	-0.22666273
38	0x3e22c16e	0.158941
39	0x3fae6ca4	1.3626904
40	0x3fbb8af6	1.4651783
41	0xbe6f36bb	-0.23360722
42	0x3f71ddf7	0.94479316
43	0xbe0e35a5	-0.13887651
44	0xbf911dd5	-1.1337229
45	0x3f8f19b6	1.1179721
46	0xc00d78c3	-2.2104957
47	0xbee6e9da	-0.4510029
48	0x3f91316a	1.1343205
49	0x3f59bc9a	0.8505341
50	0x3f745456	0.95441186
51	0x3d39d241	0.04536653
52	0x3f95b3ee	1.1695535
53	0x3e874ee4	0.26427376
54	0x401c1b23	2.4391563
55	0x3e7d15ab	0.24715297
56	0x3e8b9187	0.27259466
57	0x3f2c0f33	0.6721069
58	0x403972f0	2.8976402
59	0xbe997c12	-0.2997747
60	0x3dd1283b	0.102127515
61	0xbfa78c7c	-1.3089747
62	0x3f941236	1.1568058
63	0x3f56a587	0.83846325

bn2.running_var f4 [64]
0	0x4132bb24	11.170689
1	0x402d7d97	2.7107904
2	0x40cd16aa	6.4090166
3	0x411401ac	9.250408
4	0x403b5920	2.9273148
5	0x40d187f8	6.5478477
6	0x4087a585	4.238955
7	0x40596127	3.3965547
8	0x3ff74de2	1.9320643
9	0x40019a24	2.025033
10	0x3f9a0210	1.203188
11	0x40cbf7b7	6.3739886
12	0x40cc1951	6.3780904
13	0x40c59869	6.1748548
14	0x407f6299	3.990393
15	0x40047c4c	2.0700865
16	0x407e1390	3.969944
17	0x40990b76	4.782649
18	0x409a7fac	4.828085
19	0x408b3969	4.350758
20	0x40fba393	7.8637176
21	0x3fc8f86a	1.570081
22	0x4146fac0	12.436218
23	0x409dcac3	4.931001
24	0x403584d3	2.836232
25	0x4114cd04	9.300053
26	0x409202ae	4.562827
27	0x401ac77f	2.4184263
28	0x40e1a824	7.051775
29	0x40d995d0	6.7995377
30	0x406bbfc9	3.6835806
31	0x410c7955	8.779622
32	0x41005e12	8.022966
33	0x4013472a	2.3012185
34	0x3ffa87e6	1.9572723
35	0x402146bb	2.519942
36	0x4080e6e6	4.028186
37	0x40097cba	2.1482377
38	0x402c1c99	2.6892455
39	0x40684497	3.6291864
40	0x405b0691	3.4222758
41	0x4019365d	2.393943
42	0x407827a7	3.8774202
43	0x4032c0cd	2.7930176
44	0x40d55d9c	6.667677
45	0x409c9016	4.8925886
46	0x40e3a19d	7.113478
47	0x401d98fc	2.4624624
48	0x40b0cb64	5.524828
49	0x4096b30c	4.7093563
50	0x40216276	2.5216346
51	0x4023e5aa	2.5608926
52	0x40960916	4.688609
53	0x3fe6dc40	1.8035965
54	0x411f50f3	9.957263
55	0x402143da	2.5197663
56	0x4022b40d	2.5422394
57	0x4095074b	4.6571403
58	0x412af7b6	10.685476
59	0x4040d536	3.0130134
60	0x40512c00	3.2683105
61	0x400d3324	2.2062464
62	0x4079aa63	3.9010246
63	0x4043a8e3	3.057183

bn3.weight f4 [64]
0	0x3f85fe12	1.0468161
1	0x3f85a231	1.0440122
2	0x3f85e9e5	1.0462004
3	0x3f85decc	1.0458617
4	0x3f85f52d	1.0465447
5	0x3f85c33e	1.0450208
6	0x3f855aef	1.0418376
7	0x3f85c20c	1.0449843
8	0x3f859636	1.0436466
9	0x3f85bfd2	1.0449164
10	0x3f85b616	1.0446193
11	0x3f85b5a6	1.044606
12	0x3f85efe2	1.0463831
13	0x3f859d0f	1.0438555
14	0x3f8563d9	1.0421096
15	0x3f858cec	1.0433631
16	0x3f85a268	1.0440187
17	0x3f85b2fd	1.0445248
18	0x3f85dcc0	1.0457993
19	0x3f85bff3	1.0449203
20	0x3f859e1e	1.0438879
21	0x3f85f7e0	1.046627
22	0x3f8588fa	1.0432427
23	0x3f85817c	1.043014
24	0x3f860a1d	1.0471836
25	0x3f85712d	1.0425164
26	0x3f85f7f9	1.04663
27	0x3f85de49	1.0458461
28	0x3f85d731	1.0456296
29	0x3f858c77	1.0433491
30	0x3f85ad43	1.04435
31	0x3f8597f7	1.0437001
32	0x3f85bffa	1.0449212
33	0x3f85b8f2	1.0447066
34	0x3f85b9c2	1.0447314
35	0x3f85c836	1.0451725
36	0x3f85dfa1	1.0458871
37	0x3f85f2a1	1.046467
38	0x3f85e7c2	1.0461352
39	0x3f855816	1.0417507
40	0x3f85e132	1.0459349
41	0x3f85bc29	1.0448047
42	0x3f858dd1	1.0433904
43	0x3f859e66	1.0438964
44	0x3f85eb84	1.0462499
45	0x3f85c6cc	1.0451293
46	0x3f85cfb7	1.0454015
47	0x3f85dab4	1.0457368
48	0x3f85834e	1.0430696
49	0x3f85c7a8	1.0451555
50	0x3f859988	1.0437479
51	0x3f8588d3	1.043238
52	0x3f856d1f	1.0423926
53	0x3f857fa7	1.0429581
54	0x3f85dd7b	1.0458215
55	0x3f85eee2	1.0463526
56	0x3f860006	1.0468757
57	0x3f85fc67	1.0467652
58	0x3f85e42f	1.0460261
59	0x3f85a76c	1.0441718
60	0x3f85e915	1.0461756
61	0x3f85ec9f	1.0462836
62	0x3f85ad04	1.0443425
63	0x3f85ebaf	1.046255

bn3.bias f4 [64]
0	0x3d3e8525	0.046513695
1	0x3d21f536	0.039540492
2	0x3d32e8c7	0.043679025
3	0x3d3364ab	0.043797176
4	0x3d35f769	0.0444254
5	0x3d35c261	0.044374827
6	0x3d2da05a	0.04238925
7	0x3d4076db	0.04698835
8	0x3d276e1c	0.040876493
9	0x3d3b6618	0.04575166
10	0x3d3e5279	0.04646537
11	0x3d2f0bfd	0.042736042
12	0x3d369be2	0.044582255
13	0x3d3be8c3	0.045876276
14	0x3d3905cb	0.04517154
15	0x3d290579	0.041264985
16	0x3d34ee61	0.04417265
17	0x3d380066	0.044922255
18	0x3d40d393	0.047076773
19	0x3d3a5a5d	0.045496333
20	0x3d39aa1e	0.045328252
21	0x3d2ef7a4	0.042716637
22	0x3d321253	0.043474507
23	0x3d2bc037	0.041931357
24	0x3d3579ce	0.044305615
25	0x3d3657dc	0.044517383
26	0x3d3e6632	0.04648418
27	0x3d33cb3f	0.043895002
28	0x3d1dd5a4	0.03853382
29	0x3d354c13	0.044262003
30	0x3d18b835	0.03728505
31	0x3d3c3b5c	0.045955047
32	0x3d413ddd	0.047178138
33	0x3d3891dc	0.045060977
34	0x3d212c29	0.039348755
35	0x3d3b4739	0.04572222
36	0x3d3b32d8	0.045702785
37	0x3d1c7578	0.038197964
38	0x3d3b0b47	0.04566505
39	0x3d3170c7	0.043320443
40	0x3d380643	0.044927847
41	0x3d38a134	0.04507561
42	0x3d2e2f8d	0.042525817
43	0x3d206fee	0.039169244
44	0x3d2c4eac	0.042067215
45	0x3d3c948f	0.046040114
46	0x3d360f69	0.04444829
47	0x3d38e08a	0.045136012
48	0x3d25ddde	0.040494792
49	0x3d41d2ee	0.0473203
50	0x3d234be7	0.039867308
51	0x3d2f9a9a	0.04287205
52	0x3d3492b5	0.044085223
53	0x3d29cd03	0.04145528
54	0x3d369def	0.04458421
55	0x3d3a95d0	0.04555303
56	0x3d36de22	0.044645436
57	0x3d275a9c	0.040857896
58	0x3d2d9fc1	0.04238868
59	0x3d325072	0.04353375
60	0x3d42af0a	0.04753021
61	0x3d2b760f	0.041860636
62	0x3d3fba52	0.04680855
63	0x3d314a9f	0.043284055

bn3.running_mean f4 [64]
0	0x3f8b2861	1.0871698
1	0x3fa82a95	1.3137995
2	0xbf407edb	-0.75193566
3	0x3f2a6fa5	0.66576606
4	0x3e909f4c	0.28246534
5	0xbf707ec5	-0.93943435
6	0x4010de82	2.2635808
7	0x3fdaa12f	1.7080439
8	0x3fa05d53	1.252848
9	0x3f934031	1.1503965
10	0xbc54a8e4	-0.01297972
11	0x3fb1c0d0	1.3886967
12	0x3fd82c36	1.6888492
13	0xbf28a488	-0.65876055
14	0x3fa2b7b0	1.2712307
15	0x3fc2e8d7	1.5227307
16	0xbd46096c	-0.04834883
17	0x3ea25270	0.3170352
18	0x3f034adf	0.5128612
19	0x3f6fd1b9	0.93679386
20	0x400a71cd	2.1631958
21	0x3e2fef8a	0.1718122
22	0xbfe51959	-1.789836
23	0x3fe76867	1.8078736
24	0x3f85e9a2	1.0461924
25	0x3e3f2a1d	0.18668409
26	0xbfcd894d	-1.6057526
27	0x3f95165d	1.164745
28	0x3ff3abb9	1.903678
29	0x3fe7232b	1.8057607
30	0xc00d84ec	-2.211238
31	0x3f72378f	0.94616026
32	0x3f13f383	0.57793444
33	0x3fc5b1c6	1.5444877
34	0x3fdf4506	1.7442939
35	0x3f3d3db9	0.73922306
36	0xbef06c2b	-0.46957526
37	0xbe868322	-0.2627192
38	0x3f642307	0.8911595
39	0x3f7685f5	0.9629815
40	0x3fa35421	1.2760049
41	0x3facc690	1.3498096
42	0x3fd4d6ff	1.6628112
43	0x3f25cc3d	0.6476477
44	0x3f6235ec	0.8836353
45	0xbf149138	-0.58034086
46	0xbfd346da	-1.6505997
47	0x3fa27499	1.2691833
48	0x3fc62f7b	1.548324
49	0x3eb8b2b1	0.3607383
50	0x4015beac	2.3397627
51	0xbed33f93	-0.4125944
52	0x3f6a5d8f	0.9154901
53	0x4027af39	2.6200697
54	0x3f23da5f	0.6400508
55	0x3f573cf2	0.8407737
56	0x3e45cc24	0.19316155
57	0x3f87ef12	1.0619833
58	0x3f69c13e	0.9131049
59	0x401315f4	2.298215
60	0x3fa4dea8	1.2880449
61	0x3df8e54c	0.1215311
62	0x3fa5a643	1.2941364
63	0xbf63d094	-0.8899014

bn3.running_var f4 [64]
0	0x3f651471	0.89484316
1	0x3fb771a4	1.4331555
2	0x3fd5f307	1.6714791
3	0x3f9bfb77	1.2186116
4	0x3f797fc4	0.9746058
5	0x4017378e	2.3627658
6	0x40918ff0	4.5488205
7	0x3ff229ca	1.8919003
8	0x40205e51	2.5057566
9	0x3fa58467	1.2931031
10	0x3f95ea91	1.1712209
11	0x40840118	4.1251335
12	0x402ba22d	2.6817734
13	0x3fdc9c54	1.7235208
14	0x3ffecc63	1.9906124
15	0x3ff2bf91	1.8964711
16	0x3fae12d9	1.3599502
17	0x4020e1f4	2.513791
18	0x401dd47b	2.4660938
19	0x401a2543	2.4085243
20	0x402c963a	2.696669
21	0x3f789b30	0.971118
22	0x400fd0c2	2.2471166
23	0x3fc121a5	1.5088392
24	0x3fb0b6de	1.3805807
25	0x400ee094	2.2324572
26	0x40407700	3.0072632
27	0x3f991e80	1.1962433
28	0x40815ff5	4.0429635
29	0x3fdee868	1.7414675
30	0x403f0666	2.9847655
31	0x3f5096dc	0.81480193
32	0x407436ef	3.8158529
33	0x40985c4a	4.7612658
34	0x4044844d	3.070575
35	0x40923b66	4.569751
36	0x400c353b	2.190749
37	0x3fb078fc	1.3786922
38	0x3fb2e65b	1.3976549
39	0x3fad1c58	1.3524275
40	0x3f918758	1.1369429
41	0x3feee0b9	1.866233
42	0x4014163f	2.3138578
43	0x3fbc96c4	1.473351
44	0x3fc3b5e2	1.5289881
45	0x4023fca3	2.5622947
46	0x40369850	2.8530464
47	0x4067fc98	3.624792
48	0x3fa054d6	1.252589
49	0x3fa13d70	1.2596874
50	0x4083c822	4.1181803
51	0x3fd8e8a3	1.6945995
52	0x4000a419	2.0100157
53	0x4086ae93	4.2088103
54	0x3f359bfe	0.7094115
55	0x4053eb47	3.3112352
56	0x3fcb3773	1.5876297
57	0x3f955a0c	1.1668105
58	0x3f8c2348	1.0948267
59	0x4055ac76	3.3386512
60	0x4032792b	2.7886455
61	0x3f8b40e2	1.0879176
62	0x4005af33	2.0888183
63	0x3f713aa7	0.9423012
