maml-notebook/completet_model/model-epoch_00048-train_loss_0.124-train_acc_0.886-test_loss_0.462-test_acc_0.871.pt (torch_old, 305688 bytes, 20 tensors)

conv1.weight f4 [64, 1, 3, 3]
0	0x3d31fe84	0.043455616
1	0x3c54cb38	0.012987904
2	0xbd7d10bd	-0.06178354
3	0x3b80db43	0.003932388
4	0x3cdf6eda	0.027274538
5	0x3cb07946	0.021542203
6	0x3d0859a8	0.033288628
7	0x3d00d7ba	0.031455733
8	0x3d32f34b	0.043689054
9	0x3da0775b	0.07835265
10	0x3d980f28	0.07424766
11	0x3d481172	0.048844762
12	0x3cf01392	0.029306207
13	0xbd91b64f	-0.07114851
14	0x3d8922fa	0.066961244
15	0xbd706e59	-0.058698986
16	0xbd2d2eb4	-0.042280868
17	0xbe08dcda	-0.13365498
18	0x3d7ed2d8	0.062212795
19	0xbaede176	-0.0018148858
20	0xbd3c80f3	-0.046021413
21	0x3d27cf01	0.0409689
22	0x3cf7e32c	0.030259691
23	0x3be1512c	0.0068761315
24	0xbd3d1bb4	-0.046168998
25	0x3ce8edf0	0.02843377
26	0x3d01b540	0.031666994
27	0xbbee16a5	-0.007265883
28	0xbbef6782	-0.0073060403
29	0xbd1ac35b	-0.03778396
30	0xbdd27a3a	-0.10277219
31	0x3cfd821c	0.03094583
32	0x3d831595	0.06400601
33	0xbde957ef	-0.11393725
34	0x3db92bcf	0.09041559
35	0x3da0484f	0.07826292
36	0x3de00e3a	0.109402135
37	0xbcdcf074	-0.026970126
38	0xbd775241	-0.060381178
39	0x3b19a094	0.002344166
40	0x3d3a302f	0.045456108
41	0xbc69bc0d	-0.014266026
42	0xbdcb87ce	-0.09938012
43	0xbd944a3e	-0.07240723
44	0xbd9934cf	-0.074807756
45	0x3d4d125c	0.050066337
46	0x3d2c49f2	0.042062707
47	0xbcb3bc67	-0.021940423
48	0xbd307eb7	-0.043089595
49	0xbd47961a	-0.048727132
50	0xbdacc4b1	-0.084359534
51	0xbd3e8cde	-0.04652106
52	0xbd89a542	-0.067209736
53	0x3ca36bf6	0.01994894
54	0xbcecf410	-0.028924972
55	0x3b4f4840	0.0031628758
56	0x3cde3a21	0.027127327
57	0xbd711eea	-0.058867373
58	0xbc1a0814	-0.00940134
59	0x3d8b8c61	0.068138845
60	0xbc762493	-0.015023368
61	0xbbd8b5be	-0.006613462
62	0x3d527516	0.051381193
63	0x3c19c444	0.009385172
64	0xbd8959f9	-0.06706614
65	0xbc038e22	-0.008029493
66	0xbcbab458	-0.022791073
67	0xbd5f1e4a	-0.054472245
68	0xbc82294e	-0.015888836
69	0xbcb795f1	-0.022410365
70	0xbd9d8f9d	-0.07693408
71	0x3d47b577	0.048757043
72	0xbd234772	-0.039863057
73	0xbdd51eaf	-0.10406243
74	0xbcc264b1	-0.023729654
75	0x3d7955b4	0.06087275
76	0xbd47d992	-0.048791476
77	0xbd6a66f5	-0.057227094
78	0x3d80780c	0.06272897
79	0x3d00e159	0.03146491
80	0xbdf15ca6	-0.117852494
81	0x3cbd30d4	0.023094572
82	0xbd8983b8	-0.067145765
83	0xbd0e8604	-0.034795776
84	0x3dc9e458	0.09858006
85	0xbc8a8ff0	-0.016914338
86	0x3d47a16a	0.04873792
87	0x3c65b458	0.014020048
88	0xbd01b5df	-0.031667586
89	0xbd752ea5	-0.059858937
90	0xbbeabb7b	-0.0071634627
91	0xbc48aea8	-0.012248673
92	0x3d069583	0.03285743
93	0x3d5de835	0.054176528
94	0xbd6cad34	-0.057782367
95	0x3d2a101c	0.04151927
96	0xbc38297d	-0.01124036
97	0x3deae4c8	0.11469418
98	0xbd134298	-0.03595218
99	0x3d2b8aed	0.041880537
100	0xbc8cb62c	-0.01717671
101	0xbcc717b3	-0.024303293
102	0x3d13bdb1	0.036069576
103	0x3d95e745	0.07319502
104	0x3c75fa25	0.015013252
105	0xbd16dd7e	-0.036832325
106	0xbcb5ba2f	-0.022183506
107	0x3d9a4fad	0.07534728
108	0x3bd37676	0.0064533306
109	0xbd6de616	-0.058080755
110	0xbc422a16	-0.011850854
111	0x3c283af0	0.010267958
112	0xbd181958	-0.037133545
113	0xbc9ea243	-0.019364482
114	0xbb86aeb3	-0.0041101812
115	0x3db0d3fb	0.08634182
116	0x3daa10e8	0.08304006
117	0x3c0cb8b7	0.008588961
118	0xbcf85edc	-0.03031867
119	0x3d5fe720	0.054663777
120	0x3d254ee3	0.040358435
121	0xbd5098bf	-0.05092692
122	0xbdcca24b	-0.099918924
123	0x3d87fdf0	0.066402316
124	0xbd9fae32	-0.07796897
125	0xbd80285f	-0.062577
126	0xbd72b0be	-0.059250586
127	0x3cd0230f	0.025407342
128	0xbda14854	-0.078751236
129	0x3d2354d2	0.039875813
130	0xbcbbe13c	-0.022934549
131	0x3e043680	0.12911415
132	0xbb883568	-0.004156757
133	0x3c98a791	0.01863459
134	0x3da749c2	0.08168365
135	0x3d4e65a2	0.050389893
136	0x3da8a8cc	0.082353204
137	0x3c3a839e	0.011383919
138	0xbd107042	-0.035263307
139	0xbbc5e4c2	-0.006039233
140	0x3da324be	0.079659924
141	0xbd8517f7	-0.064987116
142	0x3cd4d850	0.025982052
143	0x3d43893d	0.047738302
144	0xbd3ef63d	-0.04662155
145	0x3d1d9a50	0.038477242
146	0xbd0ec78f	-0.034858283
147	0xbcc29e93	-0.023757255
148	0xbd894168	-0.067019284
149	0xbd4cf8f6	-0.050042115
150	0x3d8ba2ef	0.068181865
151	0x3d06fbe3	0.03295506
152	0x3d9a6328	0.07538444
153	0x3caf6358	0.021409675
154	0xbce771b3	-0.028252458
155	0x3cb8af06	0.022544395
156	0x3d2ca68f	0.04215103
157	0xbd7d43a3	-0.06183208
158	0x3d1fc0c4	0.039002195
159	0x3d049a16	0.03237351
160	0xbd51aedc	-0.05119215
161	0x3d2752b9	0.040850375
162	0xbc89f20b	-0.016839048
163	0x3cd7e3ef	0.026353804
164	0x3c7143ae	0.014725609
165	0xbdadb98b	-0.08482655
166	0x3dc4bb40	0.096060276
167	0x3c2db11b	0.010601307
168	0xbd1c1175	-0.038102586
169	0x3c8c0d05	0.017096052
170	0x3d27e990	0.040994227
171	0xbd21e73c	-0.039527163
172	0x3ca0113f	0.019539474
173	0x3b1b8fc0	0.0023736805
174	0xbdbdfc93	-0.0927669
175	0xbd51514a	-0.051102914
176	0xbd9d31a5	-0.076754846
177	0x3d092253	0.03348
178	0x3d39d810	0.04537207
179	0x3c4e173a	0.01257878
180	0xbda8d28b	-0.08243283
181	0x3d7ad912	0.06124217
182	0x3d188538	0.037236422
183	0x3d6ddffc	0.058074936
184	0x3cc41e9c	0.023940377
185	0x3cc31ce2	0.023817483
186	0xbc6abadb	-0.014326776
187	0xbd0176be	-0.031607382
188	0x3d706677	0.058691468
189	0xb976647a	-0.00023497819
190	0xbc7e2999	-0.015512847
191	0x3d160672	0.03662724
192	0xbd851baf	-0.06499421
193	0xbd1c9f37	-0.038237777
194	0xbdd5fd53	-0.104487084
195	0xbcf31006	-0.029670727
196	0x3b97d4b9	0.004633513
197	0xbd8efdce	-0.06982003
198	0xbd2f91aa	-0.042863525
199	0x3c2c7477	0.010525814
200	0xbd5d2ad4	-0.053995922
201	0xbde12935	-0.10994188
202	0xbd9e3e45	-0.07726721
203	0x3cf3ef5b	0.02977722
204	0xbb59742b	-0.0033180814
205	0x3d455587	0.04817727
206	0x3dcaf801	0.09910584
207	0xbdda74c8	-0.106668055
208	0x3bbdada2	0.005788521
209	0x3d85fdc6	0.06542544
210	0xbc81f969	-0.015865998
211	0xbce64934	-0.028111078
212	0x3d705985	0.058679122
213	0xbd6ca594	-0.057775095
214	0xbcd832bb	-0.026391378
215	0x3dc0cd56	0.09414165
216	0x3dba5633	0.090984724
217	0x3c9ff0db	0.019524029
218	0x3c23a52c	0.0099881105
219	0x3cc255f2	0.023722623
220	0x3d8cee62	0.068814054
221	0xbc163738	-0.009168439
222	0x3db47696	0.08811681
223	0xbd7403bf	-0.059573885
224	0xbdade0fe	-0.084901795
225	0x3d5bb926	0.05364337
226	0x3bbc0a1a	0.005738509
227	0xbd7c2082	-0.06155444
228	0x3db2979e	0.08720325
229	0x3cad4bda	0.021154333
230	0xbbcfd35c	-0.0063423347
231	0xbd0bfca6	-0.03417649
232	0x3dc32385	0.09528259
233	0x3c846204	0.016160019
234	0xbd84bcb5	-0.064813055
235	0xbd3662b7	-0.044527736
236	0xbd03655e	-0.032079093
237	0x3d8edebe	0.069760785
238	0xbd76ee30	-0.060285747
239	0x3d640616	0.055669867
240	0x3d79ca42	0.060983904
241	0x3dce739a	0.10080643
242	0xbc385f0d	-0.011253131
243	0xbd9bdb29	-0.07610161
244	0xbdc1526b	-0.09439548
245	0x3c3f5e3c	0.011680182
246	0x3c2d135a	0.010563696
247	0x3c80e721	0.01573521
248	0x3d373fd3	0.044738602
249	0xbc0b6d78	-0.008509986
250	0xbd8e955a	-0.0696208
251	0xbdfbf332	-0.12302245
252	0xbda05f6d	-0.07830701
253	0x3c40316e	0.011730535
254	0xbd6d41aa	-0.05792395
255	0xbbd75a6a	-0.0065720575

conv1.bias f4 [64]
0	0xbc0876a2	-0.0083290655
1	0x3c1ac37a	0.009446019
2	0x3c2726f6	0.01020216
3	0xba9cdca5	-0.0011967613
4	0xb8d3576b	-0.00010077547
5	0x3b2576c9	0.0025247803
6	0xbbdc3b27	-0.0067209187
7	0x3ba19422	0.004930989
8	0xbbd38215	-0.006454716
9	0x3baa3962	0.005194829
10	0x3bc2f3f7	0.005949493
11	0x3ac8374e	0.0015275271
12	0xbb8c4940	-0.004281193
13	0x3b9119eb	0.0044281385
14	0xbc5f1a8d	-0.01361717
15	0xbb1e052a	-0.0024111965
16	0xba96f978	-0.0011518439
17	0xbc0a0bcc	-0.008425664
18	0x3c137b16	0.009001514
19	0xbb564337	-0.0032693872
20	0xbbc1ea91	-0.005917855
21	0x3a6c5168	0.0009014816
22	0xbc41d0ab	-0.0118295355
23	0x3b3a5a70	0.0028435253
24	0x3bcc36e0	0.0062321275
25	0x3bab6784	0.005230846
26	0xbba96e9e	-0.0051706573
27	0xbb72c94d	-0.0037046254
28	0x3c0615ef	0.00818394
29	0xbc320bb7	-0.010867051
30	0x3b53146c	0.0032208217
31	0xbaaee1c8	-0.0013342435
32	0x3acee7c8	0.0015785629
33	0x3bce4a54	0.0062954817
34	0xbc288105	-0.010284667
35	0x3c1bf816	0.0095195975
36	0x3bf25b75	0.0073961564
37	0x3a11fb1b	0.00055687287
38	0xba21ef2b	-0.00061773014
39	0x3be28bf8	0.006913658
40	0x3bcec0f8	0.0063096248
41	0xbb5c86e1	-0.003364973
42	0x3bbe8252	0.0058138752
43	0x3b45e98b	0.0030199017
44	0xbbc4e400	-0.006008625
45	0x3b9e2a5d	0.0048268274
46	0xba5bba78	-0.0008381973
47	0xbabe7e3b	-0.0014533469
48	0x3c7709be	0.015078006
49	0xbbea16ec	-0.007143846
50	0xbb17a453	-0.0023138716
51	0x3b67feb0	0.0035399608
52	0xbb783029	-0.0037870503
53	0xbaceb78c	-0.0015771254
54	0xbc5a1229	-0.013309994
55	0x3a6d92d7	0.00090627134
56	0x3ad1fc99	0.0016020715
57	0x3a4f881b	0.00079167046
58	0xba750f7a	-0.00093483145
59	0xbb2f2f66	-0.0026731133
60	0xbbd6e90a	-0.006558542
61	0x3af2a258	0.0018511517
62	0x3a844495	0.001009124
63	0xba83f777	-0.0010068257

conv2.weight f4 [64, 64, 3, 3]
0	0x3cc6aa0b	0.024251005
1	0x3c430a70	0.011904344
2	0xbcd68a62	-0.026189033
3	0x3cf6f1de	0.030144628
4	0x3d6e7c10	0.058223784
5	0xbce899cc	-0.028393649
6	0x3cc690b4	0.024238922
7	0x3d28ea4c	0.041239068
8	0xbcbb8005	-0.022888193
9	0xbd05be34	-0.032652095
10	0x3cc2768c	0.023738168
11	0xbd940b0e	-0.07228671
12	0x3b5a0ab4	0.003327054
13	0x3aa4abad	0.001256337
14	0x3c16a376	0.009194246
15	0x3d248154	0.0401624
16	0xbb049d6e	-0.0020235437
17	0x3d90fa0e	0.07078944
18	0xbd8d0a3d	-0.068867184
19	0xbcc72127	-0.0243078
20	0xbda8053d	-0.08204124
21	0xbc8cfd7f	-0.01721072
22	0xbd0be039	-0.034149382
23	0xbd756247	-0.059908178
24	0xbc3a0eae	-0.011356039
25	0x3a5792fd	0.0008223502
26	0x3dc15b65	0.0944126
27	0x3c0e4290	0.008682862
28	0x3cd8b3fd	0.026453013
29	0xbc919847	-0.017772807
30	0xbd213f2b	-0.039366882
31	0x3b94fb58	0.004546564
32	0xbda74b8a	-0.08168705
33	0xbce24f54	-0.027625717
34	0xbd0400b5	-0.032227237
35	0xbd69adee	-0.057050638
36	0xbc00ccf7	-0.007861367
37	0x3d039090	0.032120287
38	0x3d2f8092	0.042847224
39	0x3d11db61	0.035609607
40	0xbd65656c	-0.056004927
41	0xbc84eff3	-0.016227698
42	0xbd9627c7	-0.07331806
43	0xbd001851	-0.03127319
44	0x3d041628	0.032247692
45	0xbc868e79	-0.016425358
46	0xbbeb221c	-0.007175697
47	0xbd13f94b	-0.036126416
48	0xbc80b4e4	-0.015711255
49	0xbb6f0744	-0.0036472837
50	0xbca84156	-0.020538967
51	0xbc593a40	-0.013258517
52	0xbc9dbb0e	-0.019254234
53	0x3cd2b962	0.025723163
54	0xbd8450f7	-0.06460755
55	0x3d84851c	0.06470701
56	0x3d9fee1c	0.07809088
57	0xbc4fabd9	-0.012675249
58	0xbd140bb2	-0.036143966
59	0x3c60963d	0.013707695
60	0xbd6779ce	-0.056512646
61	0xbd1b4987	-0.037911918
62	0xbd4a75a2	-0.04942859
63	0x3cda21a2	0.026627365
64	0xbd76fa5f	-0.060297366
65	0xbc76db76	-0.015066972
66	0xbd259bac	-0.040431663
67	0xbd0c52ac	-0.03425853
68	0xbc199c73	-0.009375679
69	0xbcaa3488	-0.020777002
70	0xbcef55d8	-0.029215738
71	0xbc36932a	-0.011143485
72	0xbcd968ec	-0.026539288
73	0xbb2af1c0	-0.0026084036
74	0xbd7eb1c3	-0.062181246
75	0xbb626de8	-0.0034550373
76	0xbbd7da2b	-0.006587287
77	0xbd6f0898	-0.058357805
78	0x3c9253ea	0.017862279
79	0xbc26d45e	-0.010182468
80	0x3d5d9ebe	0.054106466
81	0xbd673c5d	-0.05645405
82	0x3cceac94	0.025228776
83	0xbd186caa	-0.037213005
84	0x3b80afd4	0.0039272103
85	0x3d99f3a5	0.07517175
86	0xbd3ece0a	-0.046583213
87	0xbd49b5cc	-0.04924564
88	0xbd146527	-0.03622928
89	0xbd813c8f	-0.06310379
90	0x3c9482f5	0.018128851
91	0x3d38db09	0.045130763
92	0x3da4b874	0.08042994
93	0xbca5690a	-0.020191688
94	0x3cfab9ed	0.030606234
95	0xbc85427b	-0.016267052
96	0x3c894cbb	0.01676022
97	0x3d158f7f	0.0365138
98	0x3d8c9fd0	0.06866419
99	0x3d356527	0.04428592
100	0x3c7f68b8	0.015588932
101	0x3cfbc08c	0.030731462
102	0xbcd9ffc5	-0.026611218
103	0xbcae8142	-0.02130187
104	0xbcd7508a	-0.026283521
105	0x3d09a972	0.03360886
106	0xbd6fc0ac	-0.058533356
107	0x3d171ea3	0.03689445
108	0x3d186061	0.03720129
109	0xbc5dc742	-0.013536276
110	0x3cd3e06b	0.025863847
111	0x3d7d7580	0.061879635
112	0x3d2e3fca	0.042541303
113	0xbd3a4000	-0.04547119
114	0x3c833cee	0.016020264
115	0xbd04e120	-0.03244126
116	0xbdc07ad9	-0.09398431
117	0x3be530c5	0.006994339
118	0x3cb8cce3	0.022558635
119	0xbd06cf57	-0.03291258
120	0x3d78d539	0.06075022
121	0xbd758f75	-0.059951264
122	0xbbe83ee9	-0.0070875776
123	0xbc2b65fb	-0.010461326
124	0x3cb422ac	0.02198919
125	0x3dd61eae	0.104550704
126	0x3c0fe9f0	0.008783802
127	0xbb6925b6	-0.0035575456
128	0xbc26e827	-0.010187185
129	0x3c9a6b55	0.018850008
130	0x3cbd6491	0.023119243
131	0x3c8e7c66	0.017393302
132	0xbc21ad51	-0.009867982
133	0x3b65e64c	0.0035079895
134	0xbcada889	-0.021198528
135	0x3d81f804	0.06346133
136	0xbdc42ad1	-0.09578479
137	0xbdab3ea7	-0.08361559
138	0x3ccd6668	0.025073245
139	0x3d5aa8ca	0.053383626
140	0xbcc4126b	-0.023934564
141	0x3d68007b	0.056641083
142	0x3ced8313	0.028993165
143	0x3d678fee	0.056533746
144	0xbd7c09dd	-0.061532844
145	0xbbf187b6	-0.0073709143
146	0x3d53c3e6	0.051700495
147	0xbca2151e	-0.01978546
148	0x3c2336b6	0.009961775
149	0xbcd90ea4	-0.026496239
150	0xbdcacc20	-0.09902215
151	0xbd183658	-0.0371612
152	0x3c1f4285	0.009720449
153	0xbcb70d1c	-0.022345118
154	0x3ccc20c5	0.02491797
155	0xbdaefe58	-0.08544606
156	0xbcd3f3bb	-0.025873056
157	0xbce63edf	-0.028106151
158	0xbd6b79d1	-0.05748922
159	0xbc77513a	-0.0150950495
160	0xbb97d87c	-0.0046339612
161	0xbd0db030	-0.034591854
162	0xbc983435	-0.018579582
163	0x3d3fb0d8	0.04679951
164	0x3db40248	0.087894976
165	0x3d79b95a	0.06096778
166	0x3d7eea7c	0.06223534
167	0xbd100922	-0.03516496
168	0x3d60da11	0.054895464
169	0x3d0fb1e3	0.035081755
170	0xbb2a11fe	-0.0025950666
171	0xbd807738	-0.06272739
172	0x3d3be30e	0.045870833
173	0xbbafb864	-0.0053625572
174	0x3b42f6b5	0.00297491
175	0x3d008a25	0.031381745
176	0xbc91aab1	-0.017781587
177	0xbd061caf	-0.0327422
178	0xbd883e59	-0.06652517
179	0xbd6f4360	-0.058413863
180	0x3d42e50b	0.047581714
181	0xbd0b8750	-0.03406459
182	0xbc1b1436	-0.009465268
183	0xbd2ab302	-0.04167462
184	0x3d745ffa	0.059661843
185	0x3cfcc2f1	0.030854674
186	0xbd1cc855	-0.03827699
187	0xbcdebeb3	-0.027190542
188	0xba6af5f6	-0.00089630426
189	0x3ca6f614	0.020381011
190	0x3dae4c08	0.085105956
191	0xbd19b0da	-0.037522174
192	0xbb3975fa	-0.002829908
193	0x3cd74812	0.026279483
194	0xbcee21a7	-0.029068781
195	0x3dc215fd	0.0947685
196	0xbd6f5848	-0.0584338
197	0xbd090fca	-0.033462323
198	0x3c1402e4	0.009033892
199	0x3d9498b8	0.07255691
200	0xbba5b09f	-0.0050564553
201	0xbd716a8f	-0.058939513
202	0xbb8a9d4e	-0.004230178
203	0x3b0f0984	0.002182574
204	0xbc16d865	-0.009206866
205	0xbda253d0	-0.07926142
206	0x3b894f87	0.0041903886
207	0x3cd1cc95	0.025610248
208	0x3cc5391d	0.024075085
209	0xbcc79a39	-0.024365531
210	0xbb878c52	-0.0041366005
211	0x3cfa56f4	0.03055904
212	0x3c5dcbc7	0.013537354
213	0xbca08723	-0.019595688
214	0xbd7faca2	-0.062420495
215	0xbca01049	-0.019539015
216	0xb98b8742	-0.0002661292
217	0xbd659cbb	-0.056057673
218	0x3d2dbcec	0.042416498
219	0x3d6defab	0.058089893
220	0xbcfd5ad6	-0.030927103
221	0x3cc4016a	0.023926456
222	0xbd500e05	-0.05079462
223	0x3c35b202	0.011089804
224	0x3cb268f7	0.021778567
225	0x3cfa883f	0.030582545
226	0x3d77f56c	0.060536787
227	0xbcc4e089	-0.024032848
228	0xbcaa0897	-0.02075605
229	0xbc81d797	-0.015849872
230	0xbdc90365	-0.098151006
231	0x3b412b37	0.002947522
232	0xbc67843e	-0.01413065
233	0xbd268437	-0.040653434
234	0x3d0799e8	0.03310576
235	0x3d076ea3	0.033064496
236	0x3cb003cc	0.021486185
237	0x3d15384f	0.036430653
238	0xbc60f48f	-0.013730182
239	0x3c9d0ece	0.019172098
240	0x3c8b9983	0.017040974
241	0xbcd1ca42	-0.02560914
242	0x3ccf554d	0.02530923
243	0x3d50a5aa	0.05093924
244	0xbb891c20	-0.004184261
245	0xbcf8a800	-0.030353546
246	0x3ca29d71	0.019850465
247	0x3cd4b7e2	0.025966588
248	0x3c4676ee	0.012113316
249	0x3d8dfb92	0.06932749
250	0xbd4e4c79	-0.0503659
251	0xbcd2b455	-0.025720755
252	0xba090567	-0.000522694
253	0x3c1943d4	0.00935455
254	0xbd248e59	-0.040174816
255	0x3d0484c7	0.03235319

conv2.bias f4 [64]
0	0xbc0acd05	-0.008471732
1	0x3b32cb9b	0.0027282003
2	0xba0e4d35	-0.0005428375
3	0x3bbc441a	0.005745423
4	0x3c04abca	0.008097598
5	0xba1f1d3b	-0.00060697243
6	0x3a71b12e	0.0009219822
7	0xbaacb5a6	-0.0013176694
8	0xbbbaf781	-0.0057057743
9	0x3b2dde96	0.0026530377
10	0x3b9638e3	0.004584418
11	0xbbcffee1	-0.0063475226
12	0xbb58a4fe	-0.0033057327
13	0x399360b7	0.00028110083
14	0xbbbe1f30	-0.0058020577
15	0xbaa4ae0b	-0.0012564076
16	0x3b200bf9	0.0024421199
17	0x39b76c3c	0.0003498512
18	0xbb9f2c07	-0.0048575434
19	0x3b243527	0.0025056095
20	0x3be72729	0.007054229
21	0xbbac5143	-0.0052587106
22	0x3bba0ff9	0.0056781736
23	0x3bd34035	0.006446863
24	0x3ba572c8	0.0050490834
25	0x38e85de5	0.00011080111
26	0xbbc93485	-0.006140294
27	0x3b1ac046	0.002361314
28	0xbb8aaebd	-0.004232256
29	0x3b204a28	0.0024458263
30	0xbbb4201d	-0.0054969923
31	0xbb90cf12	-0.004419216
32	0xbb1fb695	-0.0024370302
33	0xbc136da9	-0.008998313
34	0x3a99ea07	0.0011742719
35	0x3a96e2c9	0.0011511679
36	0x3b1f0e24	0.0024269903
37	0x39524cd7	0.00020055786
38	0x3b0fdf8c	0.0021953313
39	0xbb33303e	-0.0027341987
40	0x3af31daf	0.0018548275
41	0x3a42a520	0.0007425118
42	0xbb06b13d	-0.002055242
43	0xbaefee2a	-0.0018305231
44	0x3c2d0488	0.010560162
45	0xba464c55	-0.0007564475
46	0xb9f8c63f	-0.0004744995
47	0x3b063123	0.0020476065
48	0x3b4af98f	0.0030971502
49	0x3bf95ce1	0.007609949
50	0xbb97e020	-0.004634872
51	0xbb12c504	-0.0022395262
52	0x3ab8332d	0.0014053338
53	0xbb84b79e	-0.004050209
54	0xbbd8dbfb	-0.0066180206
55	0xba708267	-0.0009174705
56	0x3b25250f	0.002519909
57	0x39ca54b7	0.0003859156
58	0xbb5b2b1b	-0.003344244
59	0xba45fcda	-0.00075526314
60	0xbafb51af	-0.0019174124
61	0xbbb704dc	-0.005585296
62	0xbb3701bc	-0.0027924618
63	0xbb42f800	-0.002974987

conv3.weight f4 [64, 64, 3, 3]
0	0xbd747864	-0.059685126
1	0xbd43785a	-0.047722198
2	0x3d303bad	0.04302566
3	0x3d482b50	0.04886943
4	0xbba8d3d4	-0.005152205
5	0xb9983033	-0.0002902761
6	0xbd61b623	-0.05510534
7	0xbd20aee4	-0.03922929
8	0x3c863bee	0.016385999
9	0xbd6e3678	-0.058157414
10	0x3cf667d4	0.030078806
11	0xbb49df41	-0.0030803236
12	0x3cbcef98	0.023063466
13	0xbc93cb37	-0.018041236
14	0xbd02d0ff	-0.031937595
15	0xbda31aba	-0.07964082
16	0xbcfe6768	-0.031055167
17	0x3c95a9f5	0.018269518
18	0x3cae1103	0.021248346
19	0x3c35a49b	0.011086608
20	0xbba469a2	-0.005017475
21	0x3ca3a652	0.019976769
22	0x3c9601a2	0.018311325
23	0xbd236583	-0.03989173
24	0xbcd826d9	-0.026385712
25	0x3d9d6b31	0.07686461
26	0x3cd8792e	0.02642497
27	0xbd5cbfd5	-0.053893883
28	0xbc7084d1	-0.014680103
29	0xbbb2bb9d	-0.005454494
30	0x3d0bdce5	0.03414621
31	0x3d530b74	0.051524594
32	0x3d17919e	0.037004106
33	0x3d4a13bf	0.049335238
34	0x3c301463	0.010747048
35	0x3d8a2c36	0.06746714
36	0xbbe338b5	-0.0069342502
37	0x3d0614a6	0.032734536
38	0x3cc368c3	0.023853665
39	0x3d281d81	0.041043762
40	0xbd18131b	-0.037127595
41	0x3cd935bf	0.026514886
42	0xbcc90498	-0.024538323
43	0xbdaceadc	-0.08443233
44	0xbb984e1e	-0.004647984
45	0xbd217022	-0.03941358
46	0xbc7f1bcb	-0.015570591
47	0xbd2d0ffe	-0.04225158
48	0xb9abf235	-0.0003279612
49	0xbd521858	-0.051292747
50	0xbd9b3d6f	-0.07580077
51	0xbcbfc586	-0.023409616
52	0xbd82d3f5	-0.06388084
53	0xbd0efaac	-0.034907028
54	0xbd2a67bf	-0.041602846
55	0x3b6cedbb	0.003615244
56	0x3d3716e2	0.044699557
57	0x3bd1f202	0.0064070234
58	0x3b0f083b	0.0021824974
59	0xbccc85e1	-0.024966182
60	0xbd4362a8	-0.047701508
61	0xbcf59253	-0.029977
62	0x3d10f0a3	0.03538574
63	0xbce4b644	-0.027918942
64	0x3d39427c	0.04522942
65	0x3b8e844a	0.004349266
66	0xbcbccb44	-0.023046143
67	0xbb9abf76	-0.004722531
68	0x3d5d91be	0.05409407
69	0xbde3defe	-0.11126517
70	0xbc0c37ec	-0.008558255
71	0x3cd56af3	0.026051974
72	0x3d822a59	0.063557334
73	0x3d112a34	0.03544064
74	0xbc8d18f3	-0.01722381
75	0x3d59a899	0.053139303
76	0xbd80d3f2	-0.06290425
77	0xbb82556e	-0.003977469
78	0x3de2499c	0.11049196
79	0x3d08bbbc	0.033382162
80	0xbd227c8e	-0.039669566
81	0xbcc68e5d	-0.024237806
82	0x3cac4efe	0.02103376
83	0x3cc785b5	0.024355749
84	0x3aaf2ff1	0.0013365728
85	0xbd27ffe7	-0.041015532
86	0x3d427620	0.047475934
87	0x3ae500a1	0.0017471501
88	0x3d8d65bf	0.06904172
89	0x3b568b51	0.0032736848
90	0x3bb49ff8	0.005512234
91	0xbd215e50	-0.039396584
92	0x3d576541	0.052586798
93	0x3cfd9671	0.030955525
94	0xbd90616f	-0.07049834
95	0xbd66d0a2	-0.05635131
96	0xbdb6367c	-0.08897111
97	0xbc0a42bb	-0.008438761
98	0x3cd71a9f	0.026257811
99	0x3d31f367	0.043445017
100	0xbb49407a	-0.0030708597
101	0x3c824dad	0.01590618
102	0x3d1a3996	0.037652574
103	0xbc5d65c0	-0.013513029
104	0x3d72ff1b	0.05932532
105	0x3d2efb7b	0.0427203
106	0x3d7f9305	0.062396068
107	0xbcc5d635	-0.024149993
108	0xbd104e8b	-0.035231154
109	0xbd3882a3	-0.04504646
110	0xbc5a722b	-0.013332884
111	0x3c43a8fe	0.011942146
112	0xbd01faf8	-0.031733483
113	0xbcc8b773	-0.024501538
114	0x3d02fbbd	0.031978358
115	0x3c42f5cb	0.011899422
116	0x3c5d9ad7	0.013525686
117	0x3db16be0	0.08663154
118	0xbcb43bd7	-0.02200119
119	0x3cb2fc94	0.021848954
120	0x3d5363db	0.0516089
121	0xbd19ed1a	-0.037579633
122	0x3d24e35e	0.040255897
123	0xbb38744f	-0.0028145497
124	0xbc2f9f2c	-0.010719102
125	0xbc538103	-0.012909177
126	0xbb10acd5	-0.0022075672
127	0x3cb35f07	0.021895899
128	0xbd09ca31	-0.03364009
129	0x3ce67465	0.028131673
130	0x3cfd826b	0.030945977
131	0x3d01b08d	0.031662513
132	0x3ccbda1d	0.024884278
133	0xbaddcac6	-0.0016921393
134	0xbd9f146a	-0.077675655
135	0x3d8df00f	0.06930553
136	0xbd8683d9	-0.06568117
137	0xbd3ddd0e	-0.046353392
138	0x3b98e0b8	0.0046654604
139	0x3c01a5b0	0.007913038
140	0x3d5da245	0.05410983
141	0x3c9eed0d	0.019400144
142	0xbc823a35	-0.015896896
143	0x3d2efff8	0.04272458
144	0xbc941e8a	-0.018080968
145	0xbd6b1fc5	-0.057403345
146	0x3d46f000	0.048568726
147	0xbd4d9fb3	-0.05020113
148	0x3be2484c	0.006905591
149	0x3bca64b6	0.0061765565
150	0x3d49c878	0.049263448
151	0xbc743183	-0.014904383
152	0xbd4ee4b0	-0.050511062
153	0x3c3318eb	0.010931234
154	0x3c9c5cfb	0.019087305
155	0x3dcbd585	0.09952835
156	0x3bf2ac01	0.0074057584
157	0x3c756e43	0.014979902
158	0x3da92d2f	0.08260571
159	0xbd0bdbd2	-0.034145184
160	0x3d7dbd84	0.061948314
161	0xbd3622e8	-0.044466883
162	0x3cca9575	0.02472947
163	0x3d15ef84	0.036605373
164	0x3cd260ec	0.025680982
165	0xbd697457	-0.056995716
166	0xbd89969b	-0.06718179
167	0xbbc29171	-0.005937748
168	0xbd5f34dd	-0.054493774
169	0x3cfc06ff	0.030765055
170	0x3d836548	0.06415802
171	0x3d41bbd9	0.047298286
172	0x3d1dc1ff	0.038515087
173	0x3d1febd4	0.039043263
174	0xbb967503	-0.0045915856
175	0x3d142259	0.03616557
176	0x3c25e37e	0.010125039
177	0x3d13bfdf	0.036071654
178	0x3d02ae3c	0.031904444
179	0x3c45710c	0.012050878
180	0x3bcde2ca	0.006283139
181	0x3d1c6804	0.038185135
182	0x3d841c90	0.0645076
183	0xbd61bd40	-0.055112123
184	0x3c801b4d	0.015638018
185	0xbc4f9513	-0.012669819
186	0xbc788007	-0.015167243
187	0xbd1bf42f	-0.03807467
188	0x3c80cc70	0.015722483
189	0xbcd40ee8	-0.025886014
190	0x3d406f9b	0.046981435
191	0x3c942262	0.018082801
192	0xbd1d1839	-0.03835318
193	0xbd7c6e1a	-0.06162844
194	0x3dbf506a	0.0934151
195	0xbb85a13a	-0.0040780576
196	0xbcdd4aaa	-0.027013142
197	0xbc0ed827	-0.008718527
198	0x3c9e0e0a	0.019293804
199	0xbbf0824d	-0.007339752
200	0xbb2a3791	-0.0025973062
201	0xbcc48b0e	-0.023992088
202	0xbd7f4ef5	-0.06233116
203	0x3d8620a0	0.065491915
204	0xbc05b1ee	-0.0081600975
205	0x3cdc5fed	0.02690121
206	0x3de7e9cf	0.11323892
207	0xbce65980	-0.028118849
208	0x3c9e1c25	0.01930053
209	0x3de96a57	0.11397236
210	0xbd0975f3	-0.03355975
211	0x39af4c16	0.0003343529
212	0xbac5e4f3	-0.0015098139
213	0xbdb348f8	-0.08754152
214	0x3d11e9c7	0.035623338
215	0xbce37941	-0.02776778
216	0x3d0ee964	0.034890547
217	0xbd6197d7	-0.055076446
218	0xbd10dbd7	-0.035365906
219	0xbbfaa648	-0.007649217
220	0x3d2d3d8e	0.04229503
221	0x3cb8dd42	0.022566441
222	0x3c176466	0.009240245
223	0xbbf6716e	-0.007520846
224	0x3d1625de	0.036657207
225	0xbdd5c079	-0.10437102
226	0xbd123f3c	-0.035704836
227	0x3cb5cc8a	0.022192258
228	0x3d20efe4	0.039291278
229	0x3d8b190f	0.06791889
230	0xbc43130d	-0.0119063975
231	0x3d0ec4d2	0.03485567
232	0xbba2ac8f	-0.0049644182
233	0x39a9bfaf	0.00032377007
234	0x3d52abf7	0.05143353
235	0x3be6453e	0.0070272973
236	0xbcc6cd48	-0.024267808
237	0x3da5cb63	0.080954336
238	0xbd61310e	-0.054978423
239	0x3d09e1f8	0.033662766
240	0xbd8ed128	-0.06973487
241	0xbc432404	-0.011910442
242	0xbdfa1579	-0.12211127
243	0x3c6dad09	0.014506587
244	0xbc8127cf	-0.015766053
245	0xbdc0e027	-0.09417754
246	0x3d0d98c3	0.034569513
247	0xbd7101a2	-0.058839448
248	0xbc979c4c	-0.018507145
249	0xbc87f885	-0.016597996
250	0xbc391ee9	-0.011298873
251	0x3b8e98ce	0.004351712
252	0x3d129a9a	0.03579197
253	0x3c328006	0.010894781
254	0xbd1c6627	-0.038183358
255	0xbd1f331e	-0.03886711

conv3.bias f4 [64]
0	0x3d1a65c9	0.037694726
1	0x3d30b95e	0.04314553
2	0x3c470143	0.012146297
3	0x3d1d55c6	0.038411878
4	0x3c41479c	0.011796858
5	0xbd181266	-0.03712692
6	0x3d0c4456	0.034244858
7	0x3d27be55	0.040953
8	0x3a88d57e	0.0010439602
9	0x3d12c958	0.035836548
10	0x3ba5400a	0.0050430344
11	0xbcc04c63	-0.023473924
12	0x3c0c0536	0.008546164
13	0xbd07593c	-0.033044085
14	0xbc378e26	-0.011203324
15	0xbce27684	-0.027644403
16	0xbcf34363	-0.029695218
17	0x3d34ce3f	0.044142004
18	0xbc86a54f	-0.016436247
19	0x3d307578	0.043080777
20	0xbd1e0f77	-0.038588967
21	0x3d0500f8	0.032471627
22	0x3d17df0f	0.03707796
23	0xbc2c3ddc	-0.010512795
24	0xbd1b3866	-0.037895583
25	0x3cb45a21	0.022015633
26	0x3d255f5e	0.040374152
27	0xbb9ad52f	-0.0047251205
28	0x3c96b44a	0.018396515
29	0x3c8b7272	0.017022345
30	0x3c968c5a	0.018377472
31	0x3d16c103	0.036805164
32	0x3d27041b	0.0407754
33	0x3cf237b1	0.029567571
34	0xbcfc3658	-0.030787632
35	0xbc9f4345	-0.019441256
36	0xbd160185	-0.036622543
37	0x3d2dfd0b	0.04247765
38	0x3cf96aff	0.030446528
39	0x3d125680	0.035727024
40	0x3d250b95	0.04029425
41	0xbc9a314d	-0.018822337
42	0xbce8cb72	-0.028417323
43	0x3ceb6b0b	0.028737566
44	0x3d146aac	0.036234543
45	0x3cbde82f	0.023182003
46	0xbb8903c5	-0.0041813576
47	0x3cf89547	0.030344618
48	0xbc3f8610	-0.011689678
49	0x3d1b3215	0.03788956
50	0x3bb35c36	0.005473639
51	0x3d199e74	0.03750463
52	0x3ca57737	0.020198448
53	0x3d34768f	0.04405838
54	0x3d33effd	0.043930043
55	0x3d3a08b2	0.04541845
56	0x3cdf2003	0.027236944
57	0x3d311e36	0.043241702
58	0x3d292e7a	0.04130409
59	0x3d260262	0.040529616
60	0x3d33dfd9	0.04391465
61	0xbd1b1bb7	-0.037868228
62	0x3d356934	0.044289783
63	0x3d2a534c	0.041583344

bn1.weight f4 [64]
0	0x3f831060	1.0239372
1	0x3f7fd376	0.9993204
2	0x3f80678a	1.0031598
3	0x3f80ccd4	1.0062509
4	0x3f790677	0.9727549
5	0x3f7d6ec1	0.9899712
6	0x3f832def	1.0248393
7	0x3f7a8aff	0.9786834
8	0x3f7bab40	0.9830818
9	0x3f7cbb1e	0.9872302
10	0x3f7e3335	0.99296886
11	0x3f85fc02	1.0467532
12	0x3f8078e8	1.0036898
13	0x3f7876e3	0.97056407
14	0x3f7c9ffe	0.9868163
15	0x3f860ab7	1.047202
16	0x3f80b770	1.0055981
17	0x3f84dc8d	1.0379807
18	0x3f83061e	1.0236242
19	0x3f7d1d46	0.9887279
20	0x3f8100d6	1.007838
21	0x3f7ad88e	0.97986686
22	0x3f7a12f0	0.97685146
23	0x3f808da2	1.0043223
24	0x3f854740	1.0412369
25	0x3f8441b5	1.0332552
26	0x3f815b69	1.0106021
27	0x3f81173b	1.0085214
28	0x3f824e6d	1.0180184
29	0x3f842c09	1.0325938
30	0x3f80375f	1.0016898
31	0x3f7bcb4c	0.9835708
32	0x3f7990df	0.9748668
33	0x3f79480a	0.9737555
34	0x3f7a8795	0.9786313
35	0x3f80f4d5	1.0074717
36	0x3f7e2cb2	0.9928695
37	0x3f823004	1.0170903
38	0x3f7ba2ab	0.98295087
39	0x3f826313	1.0186485
40	0x3f841724	1.0319562
41	0x3f7bf926	0.98427045
42	0x3f7e954b	0.99446553
43	0x3f834a8c	1.0257125
44	0x3f7cd2f5	0.98759395
45	0x3f7d61f5	0.98977596
46	0x3f81531b	1.0103487
47	0x3f8477d4	1.0349069
48	0x3f818ba6	1.0120742
49	0x3f7862f4	0.9702599
50	0x3f7b7e2e	0.9823941
51	0x3f81070e	1.0080278
52	0x3f7a4ec9	0.97776467
53	0x3f7c41fc	0.98538184
54	0x3f85383b	1.0407785
55	0x3f7e8648	0.99423647
56	0x3f7ac2b0	0.9795332
57	0x3f785134	0.96998906
58	0x3f7956a3	0.9739782
59	0x3f80a6bc	1.0050883
60	0x3f812bb7	1.0091466
61	0x3f82c4ed	1.0216347
62	0x3f80a992	1.0051749
63	0x3f819c43	1.0125812

bn1.bias f4 [64]
0	0xbcaf42ef	-0.021394221
1	0xba78f3cc	-0.0009496778
2	0xbd00e3a7	-0.031467106
3	0xbc2fd989	-0.010733017
4	0xbd08494b	-0.033273023
5	0x3ada9490	0.0016676355
6	0xbccff4ce	-0.025385287
7	0xbbd2b6f0	-0.0064304993
8	0xbc29aec2	-0.010356607
9	0x3d092d6d	0.033490587
10	0xbc3bc8bd	-0.011461434
11	0x3c876d83	0.016531711
12	0xbd14f5d1	-0.03636724
13	0xb9fa45fe	-0.00047735864
14	0xbcea22e0	-0.028581083
15	0x3c12bdd8	0.008956395
16	0x3bd54354	0.0065082703
17	0xbcae0402	-0.021242145
18	0xbd0293ed	-0.031879354
19	0xbc35cc82	-0.011096122
20	0xbc10459b	-0.008805658
21	0x3cd31d74	0.02577088
22	0x3ce66746	0.028125416
23	0xbc08b005	-0.008342748
24	0xbcb84d13	-0.02249769
25	0x3c2e5faf	0.01064293
26	0xbd10c569	-0.035344515
27	0x3ccb2823	0.024799412
28	0x3cff61b3	0.031174516
29	0xbcea2a9f	-0.028584776
30	0x3a2b6b87	0.0006539155
31	0xbc8ad0ec	-0.016945325
32	0xbd31ba80	-0.04339075
33	0xbc22e5f6	-0.009942522
34	0x3c6138a2	0.0137464125
35	0xbc901926	-0.017590117
36	0xbc823df8	-0.01589869
37	0xbce603f6	-0.02807806
38	0xbc40a78b	-0.011758695
39	0xbcd62a46	-0.026143204
40	0x3cee0837	0.029056652
41	0x3be843cb	0.0070881597
42	0xbb529112	-0.0032129926
43	0x3c4eba02	0.01261759
44	0x3c020fc2	0.007938327
45	0x3c84bca3	0.01620323
46	0xbc810f6c	-0.015754424
47	0xbb7bf4c7	-0.003844546
48	0xbd36b1d4	-0.044603184
49	0x3c1b0131	0.009460733
50	0x3cdc8f61	0.026923837
51	0x3b1cae47	0.0023907588
52	0xbc8022eb	-0.01564165
53	0xbb1822b4	-0.0023214044
54	0xbc9b7ea6	-0.01898129
55	0x3c3c8d77	0.011508337
56	0x3bad0bd9	0.0052809534
57	0x3c3aef02	0.011409523
58	0x3cfb63ed	0.030687297
59	0x3c86d529	0.016459065
60	0xbb4c41b0	-0.0031167082
61	0x3b0c6a83	0.002142579
62	0xbc9821f3	-0.018570876
63	0xbc5eb597	-0.013593099

bn1.running_mean f4 [64]
0	0xbbc99b6e	-0.006152562
1	0x3c13de4e	0.00902517
2	0x3c3efa64	0.011656377
3	0xba9ed281	-0.0012117178
4	0xbb392c2f	-0.0028255095
5	0xb9a550d0	-0.00031531462
6	0xbbc77e53	-0.006088057
7	0x3acde88c	0.0015709563
8	0xbc22046c	-0.00988875
9	0x3b9cba03	0.0047829165
10	0x3bfc840a	0.00770617
11	0x3b829b25	0.00398578
12	0xbb62c163	-0.003460013
13	0x3b08bd1f	0.0020864678
14	0xbc3f18c4	-0.011663619
15	0x393922b0	0.00017655897
16	0xbad21551	-0.0016028081
17	0xbbed79e0	-0.0072471946
18	0x3c21b11d	0.009868887
19	0xbbab4926	-0.005227226
20	0xbb7201b2	-0.003692728
21	0xbb55330f	-0.0032531654
22	0xbc598dfd	-0.013278482
23	0x3b2d9da3	0.0026491664
24	0x3c0acb44	0.008471314
25	0x3c037a37	0.008024744
26	0xbb93c4a7	-0.004509527
27	0xbc060d1c	-0.008181836
28	0x3bc8c41f	0.006126895
29	0xbc02922a	-0.007969419
30	0x3808f210	3.2650365e-05
31	0xb8eeffb2	-0.00011396351
32	0x3ba718b3	0.00509938
33	0x3bcd217c	0.006260095
34	0xbca1fb0b	-0.019773027
35	0x3c31c316	0.010849735
36	0x3c227e39	0.009917789
37	0x3a6d00a3	0.00090409274
38	0x3874f4ec	5.8402235e-05
39	0x3c24a265	0.0100484835
40	0x3bd501f8	0.006500479
41	0xbb65818c	-0.0035019843
42	0x3bc5ea74	0.006039912
43	0x3b9875cc	0.0046527144
44	0xbc083cb0	-0.00831525
45	0x3b8b345c	0.004248185
46	0xbba5055c	-0.0050360393
47	0xb70ea7d7	-8.502938e-06
48	0x3c83caeb	0.01608797
49	0xbc16d1a2	-0.009205254
50	0xbba587c6	-0.005051586
51	0x38a693c5	7.943021e-05
52	0xbb7b0fef	-0.0038309058
53	0xbb869564	-0.004107164
54	0xbc3f44f1	-0.011674152
55	0xbb97b878	-0.0046301447
56	0xbb1e47c6	-0.0024151667
57	0xbaf7423c	-0.0018864344
58	0xba90a158	-0.0011034412
59	0xbbba5115	-0.0056859353
60	0xbb8555f1	-0.004069083
61	0x3b08ac1d	0.002085454
62	0x3a18ea8c	0.000583329
63	0xbb8fc0d2	-0.0043869996

bn1.running_var f4 [64]
0	0x3c8480da	0.016174722
1	0x3cf411d9	0.029793667
2	0x3c42af33	0.011882591
3	0x3d5365da	0.051610805
4	0x3d1d3ad7	0.038386192
5	0x3ce9fd14	0.02856306
6	0x3cb14e5b	0.021643808
7	0x3d08f432	0.033436008
8	0x3d7fc9b7	0.06244823
9	0x3ca6decf	0.020369915
10	0x3c35236e	0.01105581
11	0x3c78f386	0.015194779
12	0x3c52de1d	0.012870339
13	0x3d2ebf02	0.042662628
14	0x3cdac4ba	0.026705135
15	0x3d0f5894	0.034996584
16	0x3c2d8a9a	0.010592127
17	0x3c663531	0.014050768
18	0x3cd4fb22	0.025998656
19	0x3c9f24cc	0.019426726
20	0x3c9e78f9	0.019344794
21	0x3d2aad06	0.041668914
22	0x3d0ed3e9	0.034870062
23	0x3d5366c0	0.051611662
24	0x3d291fe8	0.041290194
25	0x3d033742	0.03203512
26	0x3c9e83f5	0.019350031
27	0x3d3a4822	0.045478947
28	0x3c7b79e2	0.015348883
29	0x3cd55d7e	0.026045557
30	0x3d100813	0.03516395
31	0x3cb5646b	0.02214261
32	0x3d266114	0.040619925
33	0x3cda5f68	0.026656821
34	0x3e506243	0.20349984
35	0x3c84d203	0.016213423
36	0x3d4e260e	0.05032926
37	0x3ceb684a	0.028736252
38	0x3cb7147c	0.022348635
39	0x3d201866	0.03908577
40	0x3c29230d	0.010323298
41	0x3d19f870	0.037590444
42	0x3ba92292	0.005161592
43	0x3c8a4fff	0.016883848
44	0x3d0cf034	0.034408763
45	0x3ba5bfe3	0.005058275
46	0x3d54e272	0.051973768
47	0x3cdd5c0f	0.027021436
48	0x3c9f1997	0.019421382
49	0x3cc5421f	0.02407938
50	0x3d2c07aa	0.041999497
51	0x3d19aa1d	0.03751575
52	0x3c711995	0.014715572
53	0x3ca2f89f	0.019893942
54	0x3c8590f3	0.016304469
55	0x3d9cda76	0.076588556
56	0x3d265ad2	0.040613957
57	0x3d20da62	0.039270766
58	0x3c49710e	0.012295021
59	0x3d4f5106	0.05061438
60	0x3ca3c33e	0.01999056
61	0x3c3feea8	0.011714615
62	0x3d3ad6ec	0.04561512
63	0x3d3506a0	0.04419577

bn2.weight f4 [64]
0	0x3f7eeb02	0.99577343
1	0x3f7b8021	0.98242384
2	0x3f7bc9be	0.9835471
3	0x3f7edabc	0.9955251
4	0x3f82f54a	1.0231106
5	0x3f79ae22	0.9753133
6	0x3f813f69	1.0097476
7	0x3f83caed	1.0296303
8	0x3f83b334	1.0289063
9	0x3f7f772d	0.9979122
10	0x3f7adeca	0.979962
11	0x3f7a29b6	0.97719896
12	0x3f7c491a	0.98549044
13	0x3f805126	1.0024765
14	0x3f804648	1.0021448
15	0x3f8301fa	1.0234978
16	0x3f7b73c1	0.982235
17	0x3f80eb48	1.0071802
18	0x3f836d53	1.0267738
19	0x3f83642a	1.0264943
20	0x3f81a7d1	1.0129339
21	0x3f83b5a7	1.0289811
22	0x3f801357	1.0005902
23	0x3f8146da	1.0099747
24	0x3f7b19b5	0.980861
25	0x3f7f6105	0.99757415
26	0x3f8382d7	1.0274304
27	0x3f7da7f8	0.99084425
28	0x3f7e77ee	0.9940175
29	0x3f820a81	1.0159456
30	0x3f78d567	0.97200626
31	0x3f80199b	1.0007814
32	0x3f79aa2c	0.97525287
33	0x3f7b85ac	0.9825084
34	0x3f80ce4a	1.0062954
35	0x3f7f9a6c	0.99845004
36	0x3f7b65d1	0.98202235
37	0x3f7f4df1	0.99728304
38	0x3f80df71	1.0068189
39	0x3f826db0	1.0189724
40	0x3f7bd43a	0.9837071
41	0x3f7ab8f7	0.97938484
42	0x3f7e9c23	0.99456996
43	0x3f81fd4f	1.0155429
44	0x3f823f83	1.0175632
45	0x3f7bb8ec	0.98329043
46	0x3f7d639c	0.98980117
47	0x3f7bca9e	0.98356044
48	0x3f810a4e	1.008127
49	0x3f76d3ce	0.9641694
50	0x3f812240	1.0088577
51	0x3f7d718b	0.9900138
52	0x3f7ae7d5	0.9801
53	0x3f7bc6bf	0.9835014
54	0x3f822047	1.01661
55	0x3f781c20	0.96917915
56	0x3f835e9f	1.0263251
57	0x3f8472a1	1.0347482
58	0x3f7fc6c5	0.99912673
59	0x3f803d64	1.0018735
60	0x3f7ad7db	0.9798562
61	0x3f7f7320	0.9978504
62	0x3f7a1f8a	0.97704375
63	0x3f81880f	1.0119647

bn2.bias f4 [64]
0	0x3c4b2344	0.012398545
1	0x3ca9b0ae	0.02071413
2	0xbc97e811	-0.018543275
3	0xbb74250d	-0.003725353
4	0x3cb89328	0.022531107
5	0xbc88ffeb	-0.016723594
6	0xbd1fe4bd	-0.0390365
7	0xbc93d7a8	-0.018047169
8	0xbbad3b4b	-0.0052866093
9	0x3c8c2993	0.017109668
10	0xbd0cc697	-0.034369078
11	0x3cfff2d3	0.031243717
12	0xbc88b00d	-0.01668551
13	0xbcca1f2f	-0.024673073
14	0xb76677e1	-1.373698e-05
15	0xbd00c7d1	-0.03144056
16	0x3c2f7163	0.010708186
17	0x3ca01d81	0.019545319
18	0xbc6272c9	-0.013821312
19	0x3b01d5cf	0.0019811278
20	0x3c860cf6	0.016363602
21	0xbcc30063	-0.023803895
22	0x3d10c112	0.035340376
23	0x3c146cb4	0.00905912
24	0xbcbbf111	-0.022942098
25	0x3ca5c7d8	0.020236894
26	0xbabd3b5b	-0.0014437245
27	0xbcc7bbaf	-0.024381487
28	0x3c9d163c	0.019175641
29	0xbc778620	-0.0151076615
30	0xbcc4ef08	-0.02403976
31	0xbc52202c	-0.012825053
32	0xba1ba067	-0.00059366826
33	0xbb43dc86	-0.002988608
34	0xbd18a0b9	-0.037262652
35	0x3b8cc344	0.0042957384
36	0xbce0b619	-0.02743058
37	0x3991b0ec	0.00027788372
38	0xbcbf5e7d	-0.023360485
39	0xbca9d533	-0.020731544
40	0xbcdaaa8f	-0.026692657
41	0x3d15a2a1	0.036532048
42	0x3b4f5f1b	0.003164238
43	0xbc3884af	-0.011262103
44	0xbcce254d	-0.02516427
45	0x3c8bb392	0.0170534
46	0xbcd17387	-0.025567783
47	0xbc796cfc	-0.015223738
48	0x3ce1a983	0.02754665
49	0x3cb95d09	0.02262737
50	0x3cea9559	0.028635668
51	0x3bd6700e	0.0065441197
52	0xbbe7bc5f	-0.007072016
53	0x3c7d5599	0.015462303
54	0x3b781269	0.003785277
55	0xbc2dcf99	-0.010608577
56	0xbcee3391	-0.029077323
57	0x3cb8a254	0.022538342
58	0xbd077a82	-0.033075817
59	0x3d21d070	0.039505422
60	0x3bd39c42	0.0064578364
61	0xb9a60d3b	-0.00031671845
62	0xbcb8ecca	-0.022573847
63	0x3cad9a62	0.02119178

bn2.running_mean f4 [64]
0	0xbfae4e28	-1.3617601
1	0x3fd0fd37	1.6327275
2	0x3eeb64da	0.4597538
3	0x4017e967	2.3736207
4	0x3f38b0aa	0.7214457
5	0xbfbb24da	-1.4620621
6	0x4044e637	3.0765512
7	0xbeded5eb	-0.4352258
8	0x3ef7e3d1	0.48415998
9	0x3e60534b	0.21906774
10	0xbeee2779	-0.4651449
11	0x3ffdbc87	1.9823159
12	0xbfea050d	-1.8282791
13	0x40397cd7	2.8982446
14	0xc00a78ad	-2.1636155
15	0x3f9954c7	1.1978997
16	0x40401fa5	3.0019314
17	0xbfdad56c	-1.7096381
18	0x3ed61077	0.41809437
19	0x3de6cca4	0.11269501
20	0xc049d5b9	-3.1536696
21	0xbf1f578a	-0.6224295
22	0x3ef2e1f2	0.47438008
23	0x3f3feced	0.74970895
24	0x4019762f	2.3978384
25	0x403b9bf6	2.931394
26	0xbc29e058	-0.010368429
27	0xbe8a064b	-0.26957926
28	0x3fbaa47c	1.4581447
29	0x3f49f29d	0.78885823
30	0xbca83014	-0.020530738
31	0x3fa72f52	1.3061316
32	0x4052a28c	3.291171
33	0x3ec65ab0	0.38741064
34	0x3fc23e3e	1.5175245
35	0x3f3213a3	0.69561213
36	0x3f008808	0.5020757
37	0x3fd190f9	1.6372367
38	0xbf388127	-0.7207207
39	0x3f6d2978	0.926414
40	0x4012f98c	2.2964811
41	0x400765e6	2.1155944
42	0xbce019ee	-0.027356114
43	0x3fdb2105	1.7119452
44	0x3f40a90c	0.75257945
45	0x4013db0b	2.3102443
46	0xbf095954	-0.5365193
47	0xc02c39ab	-2.6910198
48	0x3f466d7b	0.77510804
49	0x3f1d3135	0.6140321
50	0x3f85d4f5	1.0455614
51	0x3ec0ab6d	0.37630787
52	0x4001a671	2.0257838
53	0x3ed17276	0.4090764
54	0x3e73fb07	0.23826228
55	0x3e86c0e4	0.2631904
56	0xbec96e8c	-0.39342153
57	0x3f264eac	0.64963794
58	0xbecb4c53	-0.39706668
59	0x3f2058bc	0.626354
60	0xbfe606ee	-1.7970865
61	0x3fa583c8	1.2930841
62	0x4021401d	2.5195382
63	0xbcba9cb8	-0.022779807

bn2.running_var f4 [64]
0	0x40649889	3.57181
1	0x40a8e79d	5.278273
2	0x3ff37de7	1.9022797
3	0x407029de	3.7525554
4	0x4030fb8f	2.765354
5	0x403bbea0	2.9335098
6	0x41121114	9.129169
7	0x407b59e6	3.927362
8	0x3ffa6d0e	1.9564531
9	0x400fdd93	2.2478988
10	0x3fe16cba	1.7611306
11	0x409d75b3	4.9206176
12	0x40a6604e	5.199256
13	0x410abb39	8.670709
14	0x40cb6363	6.355882
15	0x4075e80d	3.8422883
16	0x41333041	11.199281
17	0x40aae7e1	5.3408055
18	0x40300c6b	2.750758
19	0x404ed2ba	3.2316117
20	0x41183b13	9.514422
21	0x404e6006	3.2246108
22	0x3fa44b43	1.2835468
23	0x40a2b30f	5.0843577
24	0x41034fe9	8.207009
25	0x41001ec3	8.00751
26	0x40a063db	5.0121894
27	0x409a50fe	4.8223867
28	0x40b561eb	5.668203
29	0x40019128	2.0244846
30	0x40314cea	2.7703195
31	0x408c5303	4.3851333
32	0x4154e5b1	13.306077
33	0x40999a51	4.8000875
34	0x40bb5bcd	5.854956
35	0x408db735	4.428614
36	0x4041fc36	3.0310187
37	0x408458b6	4.135829
38	0x408b3ea2	4.3513956
39	0x3ff413c4	1.9068532
40	0x40f559ad	7.6671968
41	0x40a57061	5.169968
42	0x4036363f	2.847061
43	0x40a32a26	5.098895
44	0x402f672d	2.7406723
45	0x40a5960f	5.1745677
46	0x4071ce7a	3.7782273
47	0x410b0d5d	8.6907625
48	0x3ff75eb1	1.9325773
49	0x406b2a5a	3.67446
50	0x40212b96	2.5182853
51	0x4083bdc2	4.116914
52	0x40f05c19	7.5112424
53	0x4083bcf2	4.1168146
54	0x3fd761a9	1.6826679
55	0x40f56821	7.668961
56	0x40410df9	3.0164778
57	0x3fdbd6b3	1.7174896
58	0x400c4312	2.1915936
59	0x4078277e	3.8774104
60	0x411d64d3	9.837115
61	0x405f6ab7	3.4908884
62	0x40fc5f65	7.886645
63	0x3fd5029d	1.6641423

bn3.weight f4 [64]
0	0x3f868b90	1.0511341
1	0x3f867f9c	1.0507693
2	0x3f86b2a5	1.0523268
3	0x3f8690f2	1.0512984
4	0x3f8671ef	1.050352
5	0x3f862d9c	1.0482669
6	0x3f86646e	1.0499399
7	0x3f867162	1.0503352
8	0x3f868a17	1.0510892
9	0x3f860ee2	1.0473292
10	0x3f864ec8	1.0492792
11	0x3f86a0b1	1.0517789
12	0x3f864135	1.048865
13	0x3f867de5	1.050717
14	0x3f865aba	1.0496438
15	0x3f86383d	1.0485913
16	0x3f86b267	1.0523194
17	0x3f86a018	1.0517607
18	0x3f866891	1.0500661
19	0x3f86a9a9	1.0520526
20	0x3f86b67e	1.0524442
21	0x3f866e83	1.0502476
22	0x3f86ab42	1.0521014
23	0x3f86e101	1.0537416
24	0x3f86a0ce	1.0517824
25	0x3f865189	1.0493633
26	0x3f868a00	1.0510864
27	0x3f860760	1.0471001
28	0x3f867d6f	1.0507029
29	0x3f86d7d0	1.0534611
30	0x3f862f3b	1.0483164
31	0x3f866997	1.0500973
32	0x3f869414	1.051394
33	0x3f867d89	1.050706
34	0x3f865794	1.0495477
35	0x3f86df72	1.053694
36	0x3f8667c5	1.0500418
37	0x3f866533	1.0499634
38	0x3f85f86b	1.0466436
39	0x3f86596b	1.0496038
40	0x3f8669ea	1.0501072
41	0x3f867c8f	1.0506762
42	0x3f86b77d	1.0524746
43	0x3f86563a	1.0495064
44	0x3f862800	1.0480957
45	0x3f860785	1.0471045
46	0x3f85d566	1.0455749
47	0x3f866b53	1.0501503
48	0x3f8671e3	1.0503505
49	0x3f867b60	1.0506401
50	0x3f86a3f9	1.051879
51	0x3f865a6e	1.0496347
52	0x3f8677a9	1.0505267
53	0x3f8654c7	1.0494622
54	0x3f867eb9	1.0507423
55	0x3f869661	1.0514642
56	0x3f85c1f3	1.0449814
57	0x3f86aacd	1.0520874
58	0x3f8674fc	1.0504451
59	0x3f863270	1.0484142
60	0x3f8671e7	1.050351
61	0x3f86cde1	1.0531579
62	0x3f86acc3	1.0521473
63	0x3f86d22f	1.0532893

bn3.bias f4 [64]
0	0x3d428beb	0.047496717
1	0x3d490ca3	0.049084317
2	0x3d53100c	0.051528975
3	0x3d578be2	0.052623637
4	0x3d490280	0.04907465
5	0x3d4823be	0.04886221
6	0x3d4fcedf	0.050734397
7	0x3d4aa734	0.049475864
8	0x3d54ef8a	0.051986255
9	0x3d49525f	0.04915082
10	0x3d531cc6	0.051541112
11	0x3d5b9b30	0.053614795
12	0x3d4e9036	0.0504305
13	0x3d4860fa	0.04892061
14	0x3d3f6542	0.046727426
15	0x3d4c1b42	0.049830683
16	0x3d485ddc	0.048917636
17	0x3d58b201	0.052904133
18	0x3d4b3d66	0.0496191
19	0x3d58d8ed	0.05294125
20	0x3d500720	0.050788045
21	0x3d4d49b3	0.050119113
22	0x3d46bc01	0.04851914
23	0x3d5903d2	0.05298216
24	0x3d4af436	0.049549304
25	0x3d4c4be1	0.04987705
26	0x3d5ab9c8	0.05339983
27	0x3d35ac60	0.044353843
28	0x3d4a657c	0.04941319
29	0x3d501551	0.05080158
30	0x3d43f58b	0.04784159
31	0x3d55c7dd	0.052192558
32	0x3d54840b	0.05188374
33	0x3d4fe04a	0.050751008
34	0x3d49f6e1	0.049307708
35	0x3d54e7bd	0.051978815
36	0x3d4abacf	0.04949456
37	0x3d4e993e	0.050439112
38	0x3d4dc8d0	0.050240338
39	0x3d538b0c	0.051646277
40	0x3d50184f	0.050804432
41	0x3d4c5499	0.049885366
42	0x3d51acc6	0.05119016
43	0x3d5478b3	0.05187292
44	0x3d4d7f91	0.050170485
45	0x3d529873	0.05141492
46	0x3d3c5946	0.045983575
47	0x3d555c3e	0.052089922
48	0x3d4b3b6a	0.04961721
49	0x3d567fc0	0.052367926
50	0x3d43d560	0.047810912
51	0x3d51a452	0.0511821
52	0x3d5247b2	0.051337905
53	0x3d4f4859	0.050606105
54	0x3d480228	0.04883018
55	0x3d3e803b	0.04650901
56	0x3d4ed48a	0.05049566
57	0x3d5437a7	0.051810887
58	0x3d4c30d8	0.04985127
59	0x3d4bd245	0.049761076
60	0x3d4b520c	0.049638793
61	0x3d4e3c0a	0.050350226
62	0x3d48618f	0.048921164
63	0x3d502125	0.05081286

bn3.running_mean f4 [64]
0	0x3ff0b85e	1.8806264
1	0x3fd11809	1.633546
2	0x3f71c294	0.9443753
3	0x3fb25a78	1.3933859
4	0x3eca0891	0.3945966
5	0xbf7965b9	-0.9742084
6	0x3f798d60	0.97481346
7	0x4002a3d6	2.0412498
8	0x3ec241b4	0.37940753
9	0x4016abc0	2.3542328
10	0x3e85d85d	0.26141635
11	0xc02cac8a	-2.698031
12	0x3fb7fd09	1.4374095
13	0xbe0db3a7	-0.13838063
14	0x3f817be9	1.0115939
15	0xbeba2687	-0.3635752
16	0xbe03714f	-0.12836193
17	0x3fdadec2	1.709923
18	0x3ebf1eef	0.37328288
19	0x4004b058	2.0732632
20	0xbf25e6bc	-0.648052
21	0x3fe97d68	1.8241396
22	0x3f12af9a	0.57299197
23	0x3e8063e2	0.25076205
24	0xbeb23b9a	-0.34811097
25	0x3f24eb68	0.644217
26	0x3f7af0ae	0.980235
27	0x3fcf7551	1.6207677
28	0x3f956057	1.1670026
29	0x3fbc80c0	1.4726791
30	0x3ffccfca	1.9750912
31	0x3fa022a2	1.2510569
32	0x4009176c	2.1420546
33	0x3fa02121	1.251011
34	0xbf063fee	-0.524413
35	0xbd8eccd8	-0.069726646
36	0xbf25d4d7	-0.6477789
37	0x3fc8a227	1.5674485
38	0x3f601942	0.8753854
39	0x3f8cf86b	1.1013311
40	0x3fc25806	1.5183113
41	0x3e7845c5	0.24245365
42	0xbe2d809b	-0.1694359
43	0x3db9572b	0.09049829
44	0x3f9cf48d	1.2262131
45	0x3ec506d7	0.3848178
46	0x3f0ddecd	0.5541809
47	0x3f910cdd	1.133205
48	0x3cb507b1	0.022098394
49	0x3fb216a3	1.3913158
50	0x3d9ba989	0.07600696
51	0x3fa9e4b3	1.3272918
52	0x3f083219	0.5320144
53	0x40042c47	2.0652025
54	0x401c19e6	2.4390807
55	0x401a6a3e	2.4127345
56	0x3f6953a5	0.91143256
57	0x4008068e	2.1254
58	0x3fccfc42	1.6014483
59	0x3f9e1331	1.2349607
60	0x402f9847	2.7436693
61	0xbe965aa0	-0.29366016
62	0x40131491	2.2981303
63	0x3f86a7ef	1.0519999

bn3.running_var f4 [64]
0	0x3fdf5b2f	1.7449702
1	0x3ecbc623	0.39799604
2	0x3fc9a0dd	1.5752217
3	0x3f9368af	1.1516322
4	0x3f27bc32	0.6552154
5	0x3f89d7b7	1.0768956
6	0x3f9aef41	1.2104264
7	0x3fa011d0	1.2505436
8	0x4010127f	2.251129
9	0x3fb721f7	1.430724
10	0x3fc2b51a	1.5211518
11	0x3fb3aaa3	1.4036449
12	0x40257100	2.585022
13	0x3f1723fd	0.5903929
14	0x3fa95788	1.3229837
15	0x3f4df7f6	0.80456483
16	0x4016ca00	2.356079
17	0x3fda8b20	1.7073708
18	0x3f388c3d	0.72088987
19	0x3fa3c389	1.2794048
20	0x3ee3fd89	0.4452937
21	0x3fb4789d	1.4099308
22	0x3f813157	1.0093182
23	0x3ed68df0	0.41905165
24	0x3f86e13d	1.0537487
25	0x3fa5d254	1.2954812
26	0x3fcc5a23	1.5965008
27	0x3ff04fd0	1.8774357
28	0x3f50e153	0.8159382
29	0x3f89df78	1.0771322
30	0x3fa573f0	1.2926006
31	0x3f3b40ff	0.7314605
32	0x401d2c98	2.4558468
33	0x3f704b7e	0.9386519
34	0x3f58d07b	0.84693116
35	0x3f1fde54	0.6244862
36	0x40109edd	2.2596962
37	0x3f8d6d5b	1.1048998
38	0x3f789ac7	0.9711117
39	0x3f8f85cd	1.1212708
40	0x402ebe6c	2.7303724
41	0x4019ba12	2.4019818
42	0x3ee22111	0.44165853
43	0x3fa6947e	1.3014066
44	0x3f906bc3	1.1282886
45	0x3fd2e2e0	1.6475487
46	0x3f278004	0.6542971
47	0x3f7fe6e7	0.99961704
48	0x3fbdb53f	1.4820937
49	0x3fe5bbca	1.7947934
50	0x3ff672d5	1.9253794
51	0x3fa4e15d	1.2881275
52	0x3fc0075a	1.5002244
53	0x3f5bdf6b	0.85887784
54	0x4024a11d	2.5723336
55	0x3fe42504	1.7823796
56	0x3f87dbc6	1.0613945
57	0x3f6c5e80	0.92331696
58	0x401ba139	2.4317153
59	0x3fa659dc	1.2996173
60	0x3fb30a44	1.3987508
61	0x3f0f289e	0.5592135
62	0x3f3c6d05	0.7360385
63	0x3f0781cb	0.52932423
