maml-notebook/completet_model/model-epoch_00018-train_loss_0.156-train_acc_0.828-test_loss_0.590-test_acc_0.834.pt (torch_old, 305688 bytes, 20 tensors)

conv1.weight f4 [64, 1, 3, 3]
000000 1b ab 1a 3d d1 df 8b 3c ed 86 3c bd 8b c4 7b bc
       0.037760835 0.017074497 -0.046027113 -0.015366684
000010 7e 81 0c 3d 96 82 33 3d 31 65 fd 3c ff cc 56 3d
       0.03430318 0.04382571 0.03093204 0.052441593
000020 c0 e4 0f 3d 51 a8 9a 3d 0f a6 87 3d 2a 2a 45 3d
       0.035130262 0.07551635 0.0662347 0.048135914
000030 f2 e5 ab 3c ac bb b3 bd 80 f1 38 3d 2c b6 6b bd
       0.02098367 -0.0877603 0.045152187 -0.05754678
000040 cb 2b 24 bd a9 d6 02 be 7a 7b 57 3d 47 4d e6 bb
       -0.040080827 -0.12777199 0.05260799 -0.007028255
000050 72 ee 5c bd 35 6c ce 3c e2 e2 ad 3c 08 71 fc 3b
       -0.053938337 0.025198082 0.02122635 0.007703904
000060 2a f5 61 bd 94 be be 3c 57 2e ae 3c 0f a8 8e bc
       -0.055165447 0.023284234 0.021262331 -0.017414121
000070 2c ac b5 bc 3e af 28 bd b2 e8 da bd 85 f9 a1 3c
       -0.022176825 -0.04118275 -0.10688914 0.0197723
000080 25 be 77 3d 74 ca dd bd 57 e0 af 3d d4 0e b1 3d
       0.06048407 -0.108296305 0.08587711 0.08645406
000090 08 ce eb 3d 66 62 d7 bc 9d 54 41 bd 6b c8 1a 3b
       0.11513907 -0.026292037 -0.047199834 0.0023617994
0000a0 9f 64 33 3d e1 66 b7 bb c4 4a c2 bd 1d a2 a2 bd
       0.04379713 -0.005596981 -0.09486917 -0.07941077
0000b0 48 4f 9f bd e4 da 2f 3d 8d a3 ff 3c 35 aa 8c bc
       -0.077787936 0.04293336 0.031205917 -0.017171005
0000c0 9a 29 43 bd 43 d2 64 bd b9 cb a2 bd 1d 04 1f bd
       -0.047647096 -0.055864584 -0.07949013 -0.038822282
0000d0 3c 75 8f bd 78 c5 cf 3c c6 09 d1 bc 61 37 2c 3c
       -0.070047826 0.025362715 -0.025517356 0.01051125
0000e0 06 89 a3 3c 8b be 75 bd ce aa 08 bc 62 f0 76 3d
       0.019962799 -0.05999617 -0.008341504 0.06028784
0000f0 ea e3 06 bc 89 ce c9 bb 99 a5 63 3d 06 ad a3 3b
       -0.00823305 -0.006158654 0.055577848 0.0049949912
000100 50 fd 6e bd 90 5b d6 bb ad 55 da bc bf 54 35 bd
       -0.058347046 -0.006541677 -0.026652182 -0.044270273
000110 dd c6 ca bc fc 29 e9 bc 07 7e 8c bd 4a dd 5b 3d
       -0.024753029 -0.028462403 -0.06859975 0.053677835
000120 31 63 03 bd b0 d2 d6 bd 0b f4 81 bc 73 20 6d 3d
       -0.03207702 -0.10489404 -0.015863439 0.057892274
000130 da fc 79 bd 8d d9 78 bd 8c 76 9a 3d 0e 36 d9 3c
       -0.061032154 -0.060754348 0.07542142 0.026515033
000140 43 52 d3 bd d8 d1 01 3d c8 df 95 bd fd 7d 01 bd
       -0.103184246 0.031694263 -0.073180735 -0.031614292
000150 76 d3 b0 3d ef b2 af bc ea 57 12 3d e4 9e 53 3c
       0.08634083 -0.021447627 0.035728373 0.0129163
000160 c7 9d e9 bc c0 2e 61 bd 38 d8 52 bc 4e 91 8c 39
       -0.028517617 -0.054976225 -0.012868933 0.0002681114
000170 6f d4 c7 3c 67 c6 47 3d f3 29 7c bd 80 ca 18 3d
       0.024393288 0.048773196 -0.061563443 0.037302494
000180 be 89 ae bc 5f 4c d5 3d d2 cd 01 bd 5d 94 7b 3d
       -0.021305915 0.10414957 -0.031690426 0.061420787
000190 e1 9f 47 3b 42 d3 69 bc 71 21 87 3d 39 3d 4f 3d
       0.0030460285 -0.014271559 0.06598175 0.050595496
0001a0 25 04 30 3d 52 1c a2 bc 8e 3f 9e bc ab cd 77 3d
       0.042972703 -0.019788895 -0.019317415 0.060498875
0001b0 2b fb f9 ba 44 93 67 bd 26 bc 96 3b e1 df 01 3c
       -0.0019072046 -0.056536928 0.0046000658 0.007926912
0001c0 ec 78 26 bd 03 a8 a2 bc 6e 72 5b bc 27 f6 a1 3d
       -0.040642664 -0.019855505 -0.013393981 0.07908278
0001d0 92 f3 ae 3d db c8 40 3c 39 89 e0 bc b3 7f 6b 3d
       0.08542551 0.011766638 -0.027409183 0.05749483
0001e0 a4 9e 22 3d 56 dc 36 bd 38 47 d2 bd 6d 60 70 3d
       0.039702073 -0.044643722 -0.1026749 0.05868571
0001f0 93 09 99 bd 86 c2 8a bd cc 1b 64 bd d0 8a 0e 3d
       -0.07472529 -0.06775384 -0.05569057 0.03480035
000200 e1 a5 81 bd a4 eb f7 3c 9f 48 0e bd 8f 5e 13 3e
       -0.06330467 0.03026373 -0.034737226 0.1439154
000210 ab 97 6d bc ff d6 8c 3b 43 dc a5 3d 30 d1 5e 3d
       -0.0145014925 0.0042980905 0.08098652 0.054398715
000220 44 b8 a5 3d 28 47 42 3b 6d 3c ba bc e7 d4 f9 bb
       0.080917865 0.0029644463 -0.022733891 -0.007624257
000230 dd c9 a2 3d 28 c7 72 bd cc 05 2e 3d 50 c2 06 3d
       0.079486586 -0.05927196 0.042485997 0.032900155
000240 cc 61 20 bd b4 8d 59 3d a2 37 f6 bc b6 30 a3 bc
       -0.039155766 0.053113654 -0.030055825 -0.019920688
000250 e0 10 90 bd d7 1a 30 bd 0f 55 87 3d 76 a0 94 3c
       -0.07034469 -0.042994346 0.066080205 0.01814292
000260 e8 a0 91 3d 6d ea d7 3c 40 28 cf bc 3a 96 20 3c
       0.071107686 0.0263569 -0.025287747 0.009801442
000270 77 82 34 3d 80 83 70 bd 3b bd b9 3c dc 70 05 3d
       0.044069733 -0.05871916 0.02267324 0.032578334
000280 f8 53 2a bd d9 fb cd 3c 70 1a 2e bc ae 2a d0 3c
       -0.041583985 0.025144504 -0.01062642 0.025410976
000290 87 de 7c 3c 5b a7 a7 bd 3c 53 b5 3d 30 86 66 ba
       0.015433914 -0.081862174 0.08853766 -0.0008793799
0002a0 d5 b4 eb bc 7f 54 87 3c dd e6 54 3d f4 85 4b bd
       -0.02877275 0.016519783 0.05197798 -0.049688295
0002b0 f8 82 a3 3a 27 1d 58 bc 37 bd b5 bd 85 e8 7e bd
       0.0012474945 -0.013190544 -0.088739805 -0.062233467
0002c0 95 50 89 bd d5 63 d0 3c ab 69 ff 3c 3f 57 b2 3c
       -0.06704823 0.025438229 0.031178316 0.021770118
0002d0 f7 5a ab bd ee 82 92 3d 38 e5 1a 3d ff ea 47 3d
       -0.083669595 0.07153879 0.037816256 0.048808094
0002e0 44 d3 b8 3c cb a6 b4 3c a8 f1 0f bc d7 21 99 bc
       0.022561677 0.02205219 -0.008785643 -0.018692894
0002f0 21 ac 68 3d 6d 19 ee 3b 5d aa ce bc 82 3b 11 3d
       0.05680478 0.0072662146 -0.02522772 0.03545714
000300 61 04 6f bd 8e d7 37 bd af 02 c7 bd ad eb 0c bd
       -0.058353785 -0.044883303 -0.09717309 -0.034404445
000310 3f 53 6d bb a4 36 7a bd d3 b4 42 bd ff 3d d3 3c
       -0.0036212949 -0.061087266 -0.04753573 0.025786398
000320 e1 e0 36 bd bf 31 da bd 99 ad a1 bd 05 da f2 3c
       -0.044648055 -0.106540196 -0.07894439 0.029644975
000330 8c 19 d3 3a c2 95 0a 3d 44 65 ce 3d 30 3c e7 bd
       0.0016105636 0.033834226 0.10077909 -0.11290777
000340 1c 59 d8 3b fc b5 5f 3d 4b b6 98 bc 6c 09 0c bd
       0.0066024195 0.054616913 -0.018641612 -0.034188673
000350 c9 cd 4e 3d 0c 62 81 bd 11 7b 1d bd be 3c a5 3d
       0.05048922 -0.06317529 -0.038447443 0.08068226
000360 99 a6 e8 3d e5 92 8f 3b cc 16 3f bb 1b 5e c9 3c
       0.11359901 0.004381525 -0.0029157875 0.024581006
000370 1a 57 a3 3d 38 47 56 bb d2 9f a8 3d 51 a6 4a bd
       0.07975598 -0.0032696258 0.08233608 -0.049475018
000380 6c 25 90 bd 73 50 57 3d 20 a5 94 3b 46 e6 79 bd
       -0.07038388 0.052566957 0.004536286 -0.06101062
000390 77 52 8e 3d 99 5b 69 3b 5e b2 03 3c 2c 8a 18 bd
       0.06949323 0.0035607575 0.0080381315 -0.037241146
0003a0 1e 08 ce 3d 1a 47 06 3c 85 2b 78 bd f6 df 15 bd
       0.10060142 0.008195663 -0.06058838 -0.03659054
0003b0 1b 56 9b bc 3f 5f a3 3d 9f af 8b bd 54 0b 69 3d
       -0.018961957 0.07977151 -0.068206064 0.05689557
0003c0 ba 36 74 3d e1 8d b4 3d c7 ab 03 bd d1 06 af bd
       0.059622504 0.08816124 -0.03214624 -0.08546222
0003d0 57 34 b5 bd 25 6f af 3c bf 1e 6d bb 15 31 46 3b
       -0.08847874 0.021415303 -0.0036181656 0.0030241658
0003e0 ca 4e f8 3c fb 3c 46 bb 9d 64 8b bd 7a 07 f2 bd
       0.030311007 -0.003024875 -0.068063 -0.11817832
0003f0 c2 d2 97 bd 39 97 e6 3b db 16 62 bd 4a 57 94 bb
       -0.07413246 0.00703707 -0.055197578 -0.004527007

conv1.bias f4 [64]
000000 2f 15 0b bc 62 0d ce 3b c1 f4 cb 3b 8f f5 a1 3b
       -0.008488937 0.0062882164 0.0062242453 0.004942603
000010 f7 f6 c2 ba 43 ed 99 3b 61 fc cd ba 36 65 ef 3a
       -0.0014874627 0.0046974733 -0.0015715474 0.0018264416
000020 61 ab c3 bb 81 8f 89 3b ee 14 c7 3b 2d 34 c9 3b
       -0.0059713577 0.004198015 0.006075493 0.006140253
000030 3e c0 5b b9 1f 57 be 3b 91 82 00 bc 70 6e 9d bb
       -0.00020957083 0.0058087255 -0.007843629 -0.004804425
000040 6d 54 ec ba f1 b2 30 3b 27 b7 c7 3b bb 97 03 b7
       -0.0018030532 0.0026962126 0.0060948315 -7.843536e-06
000050 af 3c 98 ba ba 9d ea ba 5b be 1f bc e4 d2 21 3b
       -0.0011614765 -0.0017899789 -0.009749974 0.002469235
000060 be 08 b6 3b 34 77 5b 3b d5 6b f3 bb c2 70 a6 bb
       0.0055552414 0.0033487799 -0.007428626 -0.0050793597
000070 78 cd b4 3b db 91 67 bb d3 16 64 3b 59 2b 50 bb
       0.005517658 -0.003533474 0.0034803643 -0.0031764118
000080 4e 15 d2 b9 e1 7c d0 3b a3 a1 e3 bb 92 45 f1 3b
       -0.00040070195 0.006362543 -0.006946759 0.0073630298
000090 62 99 d1 3b 2a 81 af 3b 6a ba 0f 3c a0 09 85 3b
       0.0063964585 0.0053559737 0.008772472 0.0040599853
0000a0 80 ea 94 3a b7 de 99 ba 63 e0 91 3a 88 70 c8 3b
       0.001136139 -0.0011739348 0.0011129495 0.0061169304
0000b0 b9 70 dc bb 13 31 70 3b 90 27 cd 3a 5e 47 ab 3a
       -0.006727305 0.0036650344 0.0015652049 0.0013067534
0000c0 7e 9b be 3b d0 b2 ad bb 4b 70 44 3b f8 5e 83 3b
       0.005816876 -0.005300857 0.0029974158 0.004009124
0000d0 1a 23 7f bb 1c dd 8d bb 4f 3d fa bb ab 31 92 3b
       -0.0038930834 -0.004329337 -0.007636703 0.0044614873
0000e0 45 60 2f 3b da e5 98 3a 62 af 0a 3b 77 e8 b1 39
       0.0026760262 0.0011665181 0.0021161665 0.0003393327
0000f0 bd a8 a8 bb 81 13 95 39 66 1b a3 bb 31 ec 07 3b
       -0.0051470683 0.00028434026 -0.0049776314 0.0020740146

conv2.weight f4 [64, 64, 3, 3]
000000 24 6e 81 3c f1 64 10 3c 6c 2f 34 bc ab 4d 4a 3c
       0.01579959 0.008813129 -0.010997634 0.012347619
000010 a4 a1 70 3d 5b f5 2c bd 41 95 8c 3b 59 7c 14 3d
       0.058747903 -0.042226177 0.0042902534 0.0362514
000020 12 0a 58 bb 81 bc 11 bd 8d bb de 3c 81 df 8c bd
       -0.0032964987 -0.035580162 0.02718904 -0.068785675
000030 14 c1 a1 bb 11 17 c7 ba a2 9f 43 3b e8 74 6b 3d
       -0.004936347 -0.001518937 0.0029849787 0.057484537
000040 1b be 9d bb d3 ac 79 3d 38 b3 98 bd 08 36 ef bc
       -0.004813922 0.060955834 -0.07456058 -0.029200569
000050 df 00 96 bd 06 bb b9 bc 35 33 19 bd df d7 6c bd
       -0.07324385 -0.022672188 -0.03740235 -0.05782306
000060 c1 c8 86 bc 39 0c c5 3a 0b a4 bf 3d d5 54 9c 3c
       -0.016453149 0.001503355 0.093574606 0.01908342
000070 7f d5 9d 3c 8d 4d eb bc 28 68 14 bd ad 12 98 bb
       0.019266842 -0.028723503 -0.036232144 -0.004640898
000080 12 dd b2 bd 74 41 bd bc 3c 5b 09 bd a0 67 9e bd
       -0.08733572 -0.0231025 -0.033534274 -0.07734609
000090 a3 d8 7c bc 08 54 d4 3c 97 17 64 3d 21 9e 00 3d
       -0.01543251 0.025918975 0.05568656 0.031400803
0000a0 20 82 73 bd e4 f1 94 bc cf fd 64 bd 6c 3f ca bc
       -0.05945027 -0.018181749 -0.055906113 -0.024688445
0000b0 87 4c c5 3c c7 35 8a bc 2c 71 52 bc 3d 44 d4 bc
       0.024084343 -0.016871346 -0.012844365 -0.025911445
0000c0 f0 d8 b8 bc fa 0e 70 bb dc be ab bc c8 be 4f bb
       -0.022564381 -0.003663002 -0.020965032 -0.0031699408
0000d0 82 21 51 bb 27 55 4c 3c 87 68 58 bd be 04 69 3d
       -0.0031910841 0.012471474 -0.05283406 0.056889288
0000e0 a7 57 60 3d d3 38 0f bc 58 75 40 bd c3 9e 63 3c
       0.05477109 -0.008741575 -0.046986908 0.013892832
0000f0 40 f3 56 bd 7a ca 28 bd 86 fc 70 bd 3c f2 fc 3c
       -0.052478075 -0.04120872 -0.058834575 0.030877225
000100 0d bd 96 bd 66 7a c6 bc 1f 7f 2c bd 88 2b 23 bd
       -0.07360277 -0.024228286 -0.04211342 -0.039836437
000110 6b 7a 9f bb 08 01 82 bc 01 27 8a bc fd 76 d6 bc
       -0.0048668883 -0.015869632 -0.016864302 -0.026179785
000120 75 89 08 bd 1d cc 9d bc 2c 69 76 bd bd 64 24 bc
       -0.033334214 -0.019262368 -0.060158893 -0.0100337835
000130 aa 3d 27 bc 43 ba 46 bd 11 61 a5 3c a7 44 c9 bc
       -0.010207573 -0.048517477 0.020187886 -0.024568869
000140 3f 78 66 3d 44 20 69 bd 91 30 4d 3c 64 ca e9 bc
       0.05626702 -0.056915537 0.012523786 -0.02853889
000150 b4 a4 10 3b 39 c6 93 3d 79 bb 41 bd 00 1b 26 bd
       0.0022070827 0.07215542 -0.04729793 -0.040553093
000160 b7 3b 1b bd a5 fc 95 bd 29 5d d5 3c ec 47 50 3d
       -0.037898745 -0.07323579 0.026045399 0.05084984
000170 e8 42 72 3d b8 05 f9 bc 65 98 8d 3b 50 a0 cb bc
       0.059145838 -0.030398235 0.0043211454 -0.024856716
000180 89 2e 9c 3b 81 67 2d 3c b1 2b 4c 3d 00 10 05 3d
       0.0047662896 0.010583759 0.049846355 0.032485962
000190 ba 0f 04 3d 23 b3 3a 3d bc 41 12 bd 3b f1 cd bc
       0.03224156 0.045580994 -0.03570722 -0.025139442
0001a0 c7 28 1b bd ca 6f b3 3c 6c 63 96 bd 03 b3 ef 3c
       -0.037880685 0.021903891 -0.07343182 0.029260164
0001b0 83 1f 4b 3d 2b a3 dd bc 35 38 72 3c 70 a8 60 3d
       0.0495906 -0.027055344 0.014783909 0.054848135
0001c0 4b 6b f6 3c db 4d 85 bd 3b 1a 80 3c 70 17 d8 bc
       0.030080458 -0.065089904 0.015637508 -0.026378363
0001d0 9d 64 b6 bd 14 67 c8 3b 4b 63 7f 3c 6b 69 d3 bc
       -0.08905909 0.0061158035 0.015587638 -0.025807103
0001e0 43 53 6c 3d bf e2 5e bd e8 23 15 bc 8f 49 c5 3a
       0.057696592 -0.05441546 -0.009102799 0.0015051829
0001f0 e9 47 6f 3c 66 ff be 3d d0 18 b9 3c 91 29 a2 bb
       0.014604547 0.09326057 0.02259484 -0.0049488028
000200 b8 00 de bb 4c f7 6e 3c b2 0f 61 3c d3 bf c5 bb
       -0.006774988 0.014585327 0.013736652 -0.00603483
000210 95 95 59 bc f7 eb 43 3b 2e 74 d6 bc 39 61 3c 3d
       -0.013280292 0.0029895285 -0.026178446 0.045991156
000220 a0 83 b6 bd 8f d5 ae bd da 4a 8d 3c eb 95 30 3d
       -0.08911824 -0.08536827 0.017247606 0.043111723
000230 e1 27 c6 bc 4c 8d 61 3d af 73 27 3c 1a ee 00 3d
       -0.024188938 0.05506639 0.010220452 0.03147707
000240 da 1e 6c bd 96 d5 d6 bb b0 e8 68 3d 0a 7d 0b bd
       -0.05764661 -0.006556223 0.056862533 -0.034054793
000250 11 e0 40 3b e1 cd ee bc fa e4 b6 bd 38 1f bf bc
       0.002943043 -0.029150905 -0.089303926 -0.023330316
000260 85 49 98 3c 61 e0 fc bb 00 85 3a 3c 08 d4 c8 bd
       0.018589744 -0.0077171777 0.011384249 -0.09806067
000270 16 e3 a0 bc 0f d5 d5 bc 6b 7c 22 bd 97 7c 18 bc
       -0.019639533 -0.02610257 -0.039669435 -0.009307048
000280 ff f3 2e 3a 8f 51 51 bd 50 c1 bd bb 2f e1 25 3d
       0.00066739315 -0.05110317 -0.005790867 0.040497955
000290 34 45 86 3d 68 ff 93 3d e8 dc 49 3d a8 1f 23 bd
       0.06556168 0.07226449 0.04928294 -0.03982511
0002a0 a0 4e 82 3d 2e 9a ef 3c f3 c4 b4 bc a6 6c 72 bd
       0.06362653 0.029248323 -0.022066569 -0.059185646
0002b0 d1 73 33 3d 87 2c d7 bb 4d e1 82 bb 48 ca d5 3c
       0.043811623 -0.0065665874 -0.003994143 0.026097432
0002c0 ce 00 3c bc 42 59 b4 bc 89 e4 65 bd 1c fc 2a bd
       -0.011474801 -0.022015218 -0.05612615 -0.041744336
0002d0 9d 55 6a 3d b7 19 dc bc cc b4 c6 bc 25 40 19 bd
       0.057210553 -0.02686773 -0.024256133 -0.03741469
0002e0 08 64 49 3d bb a9 1b 3c 6a 46 1f bd 13 13 3a bd
       0.049167663 0.009500916 -0.03888551 -0.045428347
0002f0 6f c0 8c bc 7a d3 a3 3c e7 83 a7 3d a2 8a 02 bd
       -0.017181603 0.0199983 0.08179455 -0.03187049
000300 72 fa f6 bb de fe d5 3c 52 13 c6 bc ce 84 da 3d
       -0.0075371796 0.026122507 -0.024179135 0.10669862
000310 9b d7 5d bd b5 f8 f3 bc 7e 5f 8e 3c 56 67 86 3d
       -0.054160696 -0.029781679 0.017379519 0.065626785
000320 7d d4 70 bc 1e e5 82 bd 5c e3 79 bc a9 d1 a3 ba
       -0.014699099 -0.06391357 -0.015251961 -0.0012498397
000330 5e 60 6a bb 1e 99 90 bd 59 d3 e2 3b 9c 50 0f 3d
       -0.0035763006 -0.07060455 0.0069221673 0.034988984
000340 a0 3d 77 3c 14 af 30 bd 24 71 ea 38 97 9e bd 3c
       0.015090376 -0.043135718 0.000111790636 0.02314691
000350 8b 40 df 3b 01 1a 88 bc 07 e7 86 bd 7e 78 0c bd
       0.006813114 -0.016613962 -0.06587034 -0.034294598
000360 ea d4 f5 bb 61 9e 65 bd 92 7a 35 3d 05 de 44 3d
       -0.007502188 -0.056059245 0.044306345 0.048063297
000370 3e ff 42 bd 09 c0 da 3b 28 44 29 bd 49 5c 19 bc
       -0.0476067 0.0066757244 -0.041324764 -0.009360381
000380 1e 05 e6 b9 ec e2 37 3c 46 e1 71 3d 61 6e b1 bb
       -0.0004387283 0.011223536 0.059052728 -0.0054147695
000390 ab d2 14 bd b1 97 77 bc 78 d7 ba bd 67 e8 77 bc
       -0.03633372 -0.01511185 -0.09123129 -0.015131093
0003a0 19 11 b6 bc 86 18 b4 bc 34 d3 1a 3d ab bf 22 3d
       -0.02222495 -0.02198435 0.037799075 0.03973357
0003b0 ca 7d 8f 3c d9 8c b9 3c 56 11 c2 bc fe f4 12 3c
       0.017516036 0.02265017 -0.023689907 0.0089695435
0003c0 8d bc 6d 3c 83 1e 1f bd 58 96 e0 3c 3c 3f 55 3d
       0.014510286 -0.038847458 0.02741544 0.052062258
0003d0 60 e2 50 bc 66 02 1d bd a4 a8 9b 3c 00 1a a3 3c
       -0.0127492845 -0.038332365 0.019001313 0.019909859
0003e0 6c 14 2a 3c 78 de a4 3d 42 4d 53 bd 8d 90 08 bd
       0.0103808455 0.08050245 -0.05158735 -0.03334098
0003f0 6f e3 32 ba 0c 0e 4c 39 1c d3 14 bd 17 cf d6 3c
       -0.00068240514 0.00019460189 -0.036334142 0.026221795

conv2.bias f4 [64]
000000 35 fb 6e bb fb 37 36 3b c7 96 9a b9 0d df e8 b9
       -0.003646565 0.0027804363 -0.00029485507 -0.00044416674
000010 08 b6 8a 3b c7 71 47 3a cb 77 87 3a 56 0b 1e b9
       0.0042331256 0.00076082017 0.0010335384 -0.00015072277
000020 a8 9f b5 ba f7 6a 4b 3b be bf af 3b da f3 8d bb
       -0.0013856785 0.0031039098 0.0053634336 -0.004332048
000030 be cf 62 bb 0b b7 00 3b c7 98 82 bb 6e 7c 1a bb
       -0.0034608687 0.0019640352 -0.0039854976 -0.00235727
000040 33 bb 85 3a 84 6b 56 b7 4a 81 5a bb fd 0f 85 3b
       0.0010202884 -1.2780427e-05 -0.0033341222 0.004060744
000050 e6 c0 8c 3b 66 97 0c bb 61 fa 87 3b e2 17 c3 3b
       0.004295456 -0.0021452545 0.0041497205 0.005953775
000060 ad 29 52 3b 59 48 a1 b8 85 84 81 bb 08 ef bb 3a
       0.0032068298 -7.690554e-05 -0.003952565 0.0014338205
000070 89 d6 88 bb b5 41 33 3b bf 4a 84 ba 3d 7b eb ba
       -0.004175965 0.0027352397 -0.0010093077 -0.0017965805
000080 66 28 ff ba e3 42 ad bb 25 68 ed 3a bb 2c 26 bb
       -0.0019466996 -0.0052875145 0.0018112703 -0.0025356251
000090 b2 e3 14 3b 60 7b 5c ba 05 23 d2 3a 43 4b cf ba
       0.0022718725 -0.00084107183 0.0016032165 -0.0015815276
0000a0 2c 34 4d 3b 59 85 51 3b 4a 7b f5 3a ec ff aa ba
       0.0031311614 0.003197035 0.001872876 -0.0013046241
0000b0 29 2f a0 3b f5 dc 14 bb fa 36 a3 3a cd 3a a9 3a
       0.0048884344 -0.0022714708 0.0012452297 0.0012911201
0000c0 ac 91 a0 3b 74 e5 b2 3b 95 28 3d bb 64 62 bf 38
       0.004900178 0.005459482 -0.00288633 9.1259164e-05
0000d0 09 2a b3 39 d9 10 83 ba 79 f4 5b bb d4 e3 a3 3a
       0.0003417286 -0.0009999528 -0.0033562465 0.0012503811
0000e0 1f 8b 99 3a 94 f6 67 3b 60 e9 33 bb d9 7b c6 3a
       0.0011714435 0.0035394775 -0.0027452335 0.0015143111
0000f0 1a 95 6a ba a6 e1 53 bb 81 54 5c bb 06 71 aa ba
       -0.00089486095 -0.0032330542 -0.0033619704 -0.0013003654

conv3.weight f4 [64, 64, 3, 3]
000000 0f b4 82 bd 93 74 2a bd 1a b0 02 3d f2 35 4a 3d
       -0.06382 -0.04161508 0.031906225 0.049367853
000010 c1 c3 36 bc 7f 40 50 3c f1 29 32 bd f4 df b0 bc
       -0.01115507 0.01271069 -0.04349703 -0.021591164
000020 cb 49 01 3d ae c7 86 bd 7d 7e 0f 3d 87 0c f9 3b
       0.031564515 -0.06581055 0.035032738 0.0076003703
000030 7c da d9 3c e1 6e db bc 9d d1 0f bd ce f5 8a bd
       0.02659344 -0.02678627 -0.035112012 -0.06785165
000040 b6 e1 99 bc bb fd 12 3c 91 54 af 3c 6f c4 11 3c
       -0.018784385 0.008971627 0.02140263 0.008896931
000050 e8 eb b1 bc cd 27 04 3d a3 35 2a 3d fa ec 1c bd
       -0.021718934 0.03226452 0.04155506 -0.038311936
000060 9a 3a 61 bc a7 a0 95 3d 45 ba 9e 3c 2b 85 6e bd
       -0.013746882 0.07306033 0.01937593 -0.058232468
000070 11 75 6d bc bd f0 41 bc 02 ad 00 3d c2 d3 53 3d
       -0.014493243 -0.011837182 0.031414993 0.05171562
000080 13 cd cb 3c 58 da 75 3d 23 e4 c5 ba 53 0b 68 3d
       0.02487806 0.060022682 -0.0015097897 0.056651425
000090 a9 13 de bb 3a e7 08 3d ee 77 73 3c 65 4b 60 3d
       -0.006777246 0.03342364 0.014860136 0.0547594
0000a0 3f 93 c6 bc 16 ee d4 3c 3f 69 a6 bb a8 d6 b5 bd
       -0.024240134 0.025992434 -0.0050784643 -0.08878833
0000b0 7a a2 80 bc 12 c2 22 bd f0 82 89 bb 51 9a f4 bc
       -0.015702475 -0.03973586 -0.004196517 -0.02985874
0000c0 69 24 64 bb 8e b0 46 bd a4 94 85 bd 4a a3 26 bd
       -0.0034811741 -0.04850822 -0.065224916 -0.04068307
0000d0 30 5d 71 bd 93 e0 ab bc 90 1c 47 bd 73 94 8b 3b
       -0.05892676 -0.020981109 -0.048611224 0.00425964
0000e0 3e 55 48 3d ac 69 5a bb e2 d8 51 ba 78 e6 ce bc
       0.04890942 -0.0033327146 -0.00080050353 -0.02525638
0000f0 8e 00 3c bd aa e0 82 bc 92 74 15 3d 1f b3 ad bc
       -0.045898966 -0.015976269 0.036488123 -0.021203576
000100 47 92 5d 3d a3 6d ef bb 6e 5e 38 bc 3b be 55 3c
       0.05409458 -0.007306771 -0.011252983 0.013045843
000110 da 58 4f 3d de a7 bf bd 0e 4d a2 3a d1 d0 d0 3c
       0.050621845 -0.0935819 0.0012382583 0.025490196
000120 48 32 60 3d f8 15 0e 3d 6d d7 51 bc 37 eb 17 3d
       0.054735452 0.03468892 -0.012807709 0.037089553
000130 3b 37 79 bd 05 60 16 3c 6a 2e c7 3d 3c 50 be 3c
       -0.060843688 0.009178166 0.0972565 0.023231618
000140 76 bb 18 bd 2d 8f 18 bd cc 44 2a 3c 17 a2 a7 3c
       -0.03728815 -0.037245918 0.010392379 0.020463033
000150 56 32 46 bc f3 8c 43 bd 06 d1 1b 3d 8b 52 29 3b
       -0.012096962 -0.04774184 0.038041137 0.0025836553
000160 47 a2 77 3d 58 4f bb bb ea 23 a0 3b fd f8 24 bd
       0.060457494 -0.0057162456 0.004887094 -0.040276516
000170 cb 7d 4a 3d c4 d3 26 3d 6c 9d 9f bd f2 08 8b bd
       0.04943637 0.0407293 -0.07793698 -0.067888156
000180 60 5d 8b bd ac 4f 58 3c ec f2 24 3d 21 66 27 3d
       -0.06804919 0.013202589 0.04027073 0.040868882
000190 29 38 19 bc 15 3b 8e 3c b6 a9 05 3d 94 77 e5 bb
       -0.0093517685 0.017362157 0.032632552 -0.00700278
0001a0 8a fe 91 3d 7f d3 0b 3d e4 68 87 3d 37 15 dd bc
       0.071286276 0.034137245 0.06611803 -0.026987655
0001b0 39 02 1e bd 0e ed 20 bd 21 5b 69 bc 84 e7 ac 3c
       -0.03857634 -0.039288573 -0.014242918 0.021106489
0001c0 65 17 c1 bc e0 b7 ac bc 01 b6 36 3d 60 61 92 3c
       -0.023570726 -0.021083772 0.044607166 0.017868698
0001d0 68 c5 ef 3c 3f 7d ad 3d 9a e7 be bc c5 f3 f4 3c
       0.029268935 0.084711544 -0.023303796 0.029901395
0001e0 68 10 28 3d 0d 24 f1 bc 74 38 37 3d 2b f4 10 bb
       0.04103127 -0.029436136 0.044731572 -0.0022118192
0001f0 f9 3d ef 3b fc 3a b7 bc 6c f2 23 bc 85 b3 98 3c
       0.007301089 -0.022366993 -0.010006528 0.01864029
000200 89 bd 25 bd e3 cb be 3c db 23 c9 3c c6 b0 19 3d
       -0.040463958 0.02329058 0.02455323 0.0375221
000210 56 98 b8 3c 10 79 10 bb d4 9c 8f bd 86 f0 9d 3d
       0.022533577 -0.0022044815 -0.070123345 0.07711892
000220 f5 fa 63 bd 7e 8f 0d bd 2c 84 f0 bb 24 36 97 3b
       -0.055659253 -0.034560673 -0.007339975 0.0046146084
000230 81 63 89 3d 95 51 da 3c e5 c7 0b bc 1f 70 1a 3d
       0.06708432 0.02665023 -0.008531545 0.037704583
000240 17 59 aa bc 30 d0 59 bd dd d0 53 3d 3f a7 5d bd
       -0.020794434 -0.05317706 0.05171286 -0.054114576
000250 b2 36 6c 3c 75 53 0b 3c 78 e4 66 3d 9b 9a 45 bc
       0.014417337 0.008503784 0.05637023 -0.012060787
000260 f2 1e 5c bd 7a e3 ed ba 65 e1 95 3c 65 a2 ba 3d
       -0.05374045 -0.0018149458 0.018295953 0.091130055
000270 37 04 0f 3c 17 36 f9 3b 00 df 98 3d 4c a5 0c bd
       0.008729032 0.007605325 0.07464409 -0.034337327
000280 87 a7 a2 3d 72 3b f1 bc 8d 83 80 3c 55 43 26 3d
       0.079421096 -0.029447291 0.015687728 0.040591557
000290 e9 f7 e0 3c 25 8c 50 bd 2a 9e 31 bd 2c 35 99 3b
       0.027461963 -0.050914902 -0.043363728 0.004675528
0002a0 0d b9 51 bd a5 79 03 3d 60 cd 81 3d 7e a3 f9 3c
       -0.05120187 0.03209843 0.06338 0.030473467
0002b0 db a0 15 3d a0 2e 11 3d fc e3 cd bc 94 8c 0c 3d
       0.036530357 0.035444856 -0.025133125 0.034313753
0002c0 9c 8f 42 3c 41 b3 e7 3c 7c f3 f5 3c b5 c3 f5 3a
       0.011875059 0.028283717 0.030023329 0.0018750342
0002d0 5f 9f bc ba 1e 5b 12 3d e8 17 6d 3d 9c a9 55 bd
       -0.0014390758 0.035731427 0.057884127 -0.052163705
0002e0 c7 c4 ef ba 03 81 81 bc cc 42 85 bc c9 9a fe bc
       -0.0018292897 -0.015808588 -0.016267203 -0.031079667
0002f0 07 4a ef 3c 3a 06 70 bc c7 8f 1e 3d c2 83 df 3c
       0.029210104 -0.014649922 0.038711336 0.027284507
000300 ce 8e 3a bd db 71 80 bd 27 fb cd 3d 14 a7 e3 bc
       -0.045546345 -0.06271716 0.10057669 -0.02778963
000310 1f e7 1b bd b4 b1 84 bc 04 d7 ba 3c 4f 49 ac bb
       -0.03806221 -0.016198017 0.022807606 -0.0052577625
000320 20 49 00 bc e4 85 df bb 97 d4 35 bd 36 20 6d 3d
       -0.007829934 -0.006821381 -0.044392195 0.057892047
000330 26 42 66 3b a9 7f 82 3c 3d fb da 3d 88 d7 8e bc
       0.0035134642 0.015930014 0.10692451 -0.017436758
000340 49 7d b2 3c 1d 1b 05 3e 9f 1d 06 bd 36 6c 1d bb
       0.021788256 0.12998624 -0.032743093 -0.0024020798
000350 89 42 ed 3b 6f ae c9 bd 2a ce fc 3c 06 0d 04 bd
       0.0072405976 -0.09847724 0.030860025 -0.032238983
000360 74 d5 38 3d 41 b0 70 bd e9 56 bb bc 9f 2a 43 bb
       0.04512544 -0.05876184 -0.02286859 -0.0029780043
000370 3a 37 51 3d 93 e7 f1 3c 06 13 85 3c 5e ad 73 3b
       0.05107806 0.029529369 0.016244423 0.0037182192
000380 61 7f 19 3d 93 0f e6 bd db 9b 17 bd cd bb cf 3c
       0.037474994 -0.11233439 -0.03701387 0.025358105
000390 f0 ac fe 3c 08 55 91 3d af e3 75 bc 31 5c 1c 3d
       0.031088322 0.070962965 -0.015007897 0.038173858
0003a0 10 85 18 3c f1 d8 ed bb 59 f3 40 3d ae 45 e8 3a
       0.009309068 -0.0072585274 0.047107074 0.0017720961
0003b0 dd 32 b6 bc 06 51 b5 3d 87 39 1e bd a7 30 42 3d
       -0.02224105 0.088533446 -0.03862908 0.04740968
0003c0 08 a5 b7 bd d6 97 89 bc 4b 1f ff bd 34 e7 b6 3c
       -0.08967024 -0.016796034 -0.124571405 0.022327043
0003d0 2b 04 69 bc 83 b6 a6 bd 59 ff 08 3d 1b 0f 48 bd
       -0.014222185 -0.0814028 0.033446644 -0.04884253
0003e0 a7 39 b3 ba 4e a9 0a bd 17 0d d5 bc 47 24 5a 3c
       -0.0013673798 -0.033852868 -0.026007218 0.013314313
0003f0 62 06 f5 3c 42 27 89 3b 02 5e 2a bd fc ec 65 bd
       0.02991027 0.004185588 -0.04159356 -0.05613421

conv3.bias f4 [64]
000000 8f c7 38 3c 99 1a 6c 3c f2 fa d7 3b 59 3c 34 3c
       0.011278047 0.014410638 0.0065911943 0.011000716
000010 f9 b7 14 3b b0 7f 62 bc e4 b4 5c 3c c0 86 89 3c
       0.0022692664 -0.013824388 0.013470862 0.016787887
000020 08 2f b5 ba a3 d4 81 3c b8 52 8d bb eb 51 34 3a
       -0.001382322 0.015848463 -0.0043128394 0.0006878662
000030 4c cc 10 bc 00 69 47 bc 91 ad 24 bc f3 b6 46 bc
       -0.008837771 -0.01217103 -0.010051147 -0.012128579
000040 f4 c4 54 bc d7 3c 76 3c 70 f2 34 bc 4b 1c 62 3c
       -0.01298641 0.015029154 -0.01104413 0.013800691
000050 e3 ac 4c bc 3d bc 91 3b 7b f2 3f 3c 48 73 0b 3b
       -0.012492391 0.0044474886 0.011715527 0.002127843
000060 87 c1 35 bc 73 11 fe 3b 45 a3 80 3c c9 44 30 bc
       -0.011093504 0.007753545 0.015702853 -0.010758587
000070 70 ea 05 bc af 3b 47 bb 88 1c c6 bb 05 91 61 3c
       -0.00817357 -0.0030400564 -0.0060458817 0.0137674855
000080 6a 89 7a 3c 60 2d 20 3c 80 48 44 bc bc 93 b6 bb
       0.015291551 0.009776443 -0.011980176 -0.0055718105
000090 7e 44 4f bc 2e 98 85 3c b2 b4 6c 3c 8b 7d 04 3c
       -0.012650607 0.016307916 0.014447378 0.008086572
0000a0 6f 62 69 3c c3 c5 1d ba 6f 12 39 bc 72 62 51 3c
       0.01424466 -0.00060185435 -0.011295899 0.012779819
0000b0 b2 4d 74 3c b3 ad 5e 3c b8 f1 f0 bb 60 33 f5 3b
       0.014911102 0.013591218 -0.007353034 0.007482931
0000c0 b3 06 06 bc 5b c1 68 3c 9e ad 1f bb f3 d8 4d 3c
       -0.008180308 0.014206256 -0.0024364959 0.012563932
0000d0 df 75 fa 3b 60 a0 88 3c 12 10 74 3c 55 a1 67 3c
       0.007643446 0.016678035 0.01489641 0.014137586
0000e0 e8 e3 7f 3c 71 11 78 3c eb 36 83 3c 20 fb 5d 3c
       0.015618302 0.015140877 0.016017398 0.013548642
0000f0 59 69 84 3c 77 13 53 bc 1f 93 6d 3c f0 45 50 3c
       0.016163515 -0.012883059 0.014500408 0.012711987

bn1.weight f4 [64]
000000 1e 36 80 3f 2d 7b 80 3f 0b cf 80 3f f4 e0 80 3f
       1.0016515 1.003759 1.0063184 1.006865
000010 59 99 7c 3f 81 8f 7f 3f a4 bd 81 3f 67 75 7c 3f
       0.9867149 0.99828345 1.0135999 0.9861664
000020 11 27 7d 3f ff c0 7c 3f cc e1 7e 3f 68 e9 81 3f
       0.98887736 0.9873199 0.9956329 1.0149355
000030 9f d9 7e 3f 70 09 7c 3f 25 da 7c 3f 95 6a 82 3f
       0.99550813 0.984519 0.9877036 1.0188776
000040 98 ba 81 3f 3d 39 82 3f aa b6 81 3f 85 af 7f 3f
       1.0135069 1.0173718 1.013387 0.99877197
000050 65 68 7f 3f 7d 96 7c 3f f7 23 7c 3f 74 9c 80 3f
       0.9976867 0.98667127 0.9849238 1.0047746
000060 3a 39 82 3f 31 2a 82 3f 86 e8 80 3f 44 eb 80 3f
       1.0173714 1.0169126 1.007096 1.0071797
000070 1e 87 81 3f 55 26 82 3f 34 bb 80 3f cd a7 7d 3f
       1.011936 1.0167948 1.005713 0.9908417
000080 a5 9e 7d 3f 42 ed 7b 3f 87 5f 7c 3f 5a 41 7f 3f
       0.990702 0.984089 0.98583263 0.99709094
000090 83 2c 7f 3f 45 93 80 3f 8e e5 7d 3f a3 ca 7e 3f
       0.99677294 1.0044943 0.991784 0.9952795
0000a0 0a 2f 82 3f 02 f6 7c 3f 91 cc 80 3f 89 b8 81 3f
       1.0170605 0.9881288 1.0062429 1.0134441
0000b0 c0 6b 80 3f 32 2e 7f 3f 1a b6 80 3f e7 2a 82 3f
       1.0032883 0.99679863 1.0055573 1.0169343
0000c0 87 5f 7f 3f d9 a5 7c 3f b7 b8 7d 3f d3 52 80 3f
       0.9975514 0.98690563 0.9910998 1.0025276
0000d0 47 fd 7c 3f 08 54 7d 3f 36 a4 81 3f f2 a6 80 3f
       0.9882397 0.98956347 1.0128238 1.0050948
0000e0 9a 1c 7d 3f 2d f0 7b 3f 6d 22 7c 3f 9a 50 81 3f
       0.9887177 0.98413354 0.9849003 1.0102723
0000f0 aa f5 81 3f b7 34 82 3f 1b 2d 7f 3f 80 7b 80 3f
       1.0153096 1.0172337 0.996782 1.0037689

bn1.bias f4 [64]
000000 67 ee 46 bc 8e a0 1e 3a d7 a2 37 bc ee 1a 20 bc
       -0.0121418005 0.0006051146 -0.011208258 -0.009772046
000010 e7 16 7e bc ec 3e 1f bb b2 64 61 bc 7e 99 e7 ba
       -0.01550839 -0.002429898 -0.013756918 -0.0017669646
000020 23 b9 24 bb 2f f6 33 3c d0 44 17 bc 18 f0 15 3c
       -0.0025134764 0.010983988 -0.009232715 0.009151481
000030 7a 95 71 bc 71 b3 ba bb 2f 36 74 bc a0 ad 51 3c
       -0.014745111 -0.0056976606 -0.0149054965 0.012797743
000040 99 24 6e b9 31 c7 db bb 9e 94 75 bc 65 ab 08 bc
       -0.00022711082 -0.006707095 -0.014989046 -0.008341645
000050 7f 14 13 bb 77 7b 16 3c 10 82 81 3c 1f 1b ba bb
       -0.0022442637 0.00918471 0.015809089 -0.0056795026
000060 df 21 a6 bb f6 70 62 3c 52 b9 93 bc b7 b4 7c 3c
       -0.0050699557 0.013820877 -0.018032704 0.015423945
000070 ad 3f 5a 3c 7c cc f6 bb 42 0a 86 3b 9a 73 11 bc
       0.013320846 -0.0075317007 0.0040905783 -0.008877659
000080 8a 5f 90 bc aa a2 20 bc 50 5b b7 3a 2b 30 1e ba
       -0.017623682 -0.009804407 0.0013989005 -0.0006034399
000090 68 53 00 bc 23 63 85 bc 0c 66 20 bc 62 38 72 b9
       -0.007832386 -0.016282624 -0.009789955 -0.00023099923
0000a0 b1 de 62 3c 85 f1 f5 ba 8a 4e 0d 3c 9d f0 45 3c
       0.013847039 -0.0018763995 0.008624682 0.012081292
0000b0 68 1c 3a 3c 36 62 8f bb 39 f8 6a bb e2 76 2b 3c
       0.011359312 -0.0043757213 -0.0035853519 0.010465356
0000c0 77 d2 73 bc 30 57 03 3c 81 50 43 3c 1c ed a2 3a
       -0.014881722 0.008016393 0.011921049 0.0012430283
0000d0 c0 d8 2d bc 45 42 0a 3b 84 80 b8 bb d9 f4 12 3c
       -0.010610759 0.0021096629 -0.0056305546 0.008969509
0000e0 7f cc fe 3b e9 ae eb 3a 96 2c 67 3c 36 54 37 3c
       0.0077758427 0.0017981204 0.014109751 0.011189511
0000f0 a9 94 08 3c bb 5c ab 3b 71 cb 5c bc f7 d6 06 bc
       0.008336225 0.00522956 -0.013476239 -0.008229963

bn1.running_mean f4 [64]
000000 83 40 17 bd ab 47 6f 3c b2 cc ec 3a 94 0e 3b 3c
       -0.036926758 0.014604489 0.0018066375 0.01141705
000010 5c 77 bf 3c 78 12 11 3d 6e 12 f3 bb c8 57 fc 3c
       0.023372345 0.035418004 -0.0074179685 0.030803576
000020 69 2e d5 3c ba 9a 2c 3c c9 59 d3 bb 8d 61 e9 bc
       0.026023107 0.010534937 -0.006449912 -0.028488899
000030 59 33 da bb 08 e0 e2 3c 58 70 d3 bc 6a 01 11 bd
       -0.006658953 0.027694717 -0.025810406 -0.03540174
000040 f1 10 1e bb 6e 72 19 bb 8c fe be bb 69 28 f6 3c
       -0.0024118985 -0.0023414153 -0.005828684 0.030048566
000050 61 b2 bf bc 39 d9 1f 3d b6 4e 3b 3b 8f b1 56 3c
       -0.023400487 0.03902552 0.002858085 0.013103857
000060 c4 4d aa bc 06 09 98 bc 0a 86 87 bc 99 eb 25 3d
       -0.020789035 -0.01855899 -0.016543407 0.040507887
000070 26 e9 bc 3c 86 ee c1 bc fc 00 30 3d bd f9 87 bc
       0.023060393 -0.023673307 0.04296969 -0.016598577
000080 54 c7 bd bc a3 be 2a 3c b6 04 b4 3d 02 45 cd bb
       -0.023166336 0.010421428 0.08789961 -0.00626433
000090 1f cf 83 bc 05 b8 a1 3b d9 6d dc 3b 7f cc e7 bc
       -0.016089974 0.004935267 0.006726962 -0.028295754
0000a0 2c dd 05 3c 43 bc 17 3c c3 a1 d0 3a 66 eb f5 bb
       0.008170407 0.009261194 0.0015917349 -0.0075048683
0000b0 b4 fd 96 3c fa 84 16 3b e3 af 58 3d b7 53 81 bc
       0.018431522 0.0022967444 0.052902114 -0.015786989
0000c0 2f 88 8d bb c1 9b 25 3c ff d9 00 3d 19 84 31 3d
       -0.004319213 0.010107935 0.031457897 0.04333887
0000d0 14 93 d1 bb da a0 97 3c 0d 01 aa bc b0 64 6a 3d
       -0.006395707 0.018509317 -0.020752454 0.05722493
0000e0 8b 26 28 3d 13 92 12 3d d1 b1 10 3c c5 23 1c 3d
       0.041052382 0.03578384 0.008831457 0.03812005
0000f0 f7 89 aa bc d6 af 86 3b 2f 06 33 bb be ab 20 3d
       -0.02081774 0.0041103167 -0.0027316918 0.039226286

bn1.running_var f4 [64]
000000 6a f5 00 3d f2 0e 72 3d 06 2d 14 3c fb 12 95 3d
       0.031484045 0.059096284 0.009043938 0.07279011
000010 ea 7e 72 3d a7 8d 3d 3d d3 82 d0 3c 28 63 1f 3d
       0.059203066 0.04627767 0.025453007 0.038912922
000020 5a a1 b0 3d f4 9f f6 3c 1a f5 21 3c 71 f6 30 3d
       0.08624525 0.030105568 0.009885097 0.043203775
000030 a8 f6 b7 3c 70 89 6e 3d e2 0d 36 3d 5d 73 43 3d
       0.022456482 0.05823654 0.044446833 0.04771744
000040 fd c3 9b 3c 39 a6 5c 3c 7b bd f8 3c 3b fe 3c 3d
       0.019014353 0.013467365 0.030363789 0.04614089
000050 bb 0f f7 3c 9d fb 7a 3d 46 c7 5a 3d 37 2d 8a 3d
       0.030158868 0.061275113 0.0534127 0.06746905
000060 16 ce 86 3d 99 09 0d 3d ee 36 f0 3c eb 7e 99 3d
       0.065822765 0.03443298 0.029323068 0.07494911
000070 44 5e ae 3c 20 c7 c5 3c 63 fa 71 3d 9e ca 41 3d
       0.021285184 0.024142802 0.059076678 0.04731237
000080 61 86 28 3d 8e 34 0e 3d 22 ef 8f 3e 52 55 b5 3c
       0.04114378 0.03471809 0.2811213 0.02213541
000090 11 be 85 3d ab 09 11 3d f6 57 f4 3c 7d 0c 5c 3d
       0.06530393 0.03540961 0.0298271 0.053722847
0000a0 d6 f4 b4 3c 56 c4 4f 3d 09 21 d9 3b 73 f8 64 3c
       0.022089403 0.05072435 0.0066262526 0.013975251
0000b0 36 7d 2a 3d c3 0a fa 3b aa 89 bb 3d a9 64 01 3d
       0.041623317 0.0076306774 0.09157117 0.031590138
0000c0 e2 16 f6 3c 99 76 cf 3c 04 31 68 3d 38 d5 75 3d
       0.030040208 0.025325106 0.05668737 0.060017794
0000d0 d1 f5 ac 3c 74 cc c9 3c 3d 67 cd 3c 7c d3 c3 3d
       0.021113308 0.024633624 0.025073642 0.09561822
0000e0 d0 11 52 3d 85 fa 7e 3d d0 a6 9b 3c 23 66 a2 3d
       0.05128652 0.062250633 0.01900044 0.07929637
0000f0 e6 3f 91 3c 7c 6a e0 3c 08 4d 72 3d be bc 8a 3d
       0.017730664 0.027394526 0.059155494 0.06774281

bn2.weight f4 [64]
000000 c7 bc 7d 3f 97 b1 7b 3f 75 62 7f 3f da a4 80 3f
       0.99116176 0.98317856 0.9975961 1.0050309
000010 e5 9c 81 3f 56 04 7e 3f b7 f1 7f 3f 79 0a 82 3f
       1.0126005 0.99225366 0.999782 1.0159446
000020 3e 40 81 3f 43 de 7d 3f b2 0c 7d 3f 37 3f 7c 3f
       1.009773 0.9916727 0.98847497 0.9853396
000030 15 d1 7d 3f 6c 5c 80 3f d9 e0 7f 3f 9e ec 81 3f
       0.9914716 1.0028205 0.99952465 1.0150335
000040 4d 5f 7d 3f db 61 80 3f db bf 80 3f 23 cc 80 3f
       0.9897354 1.0029863 1.005855 1.0062298
000050 cb c1 7e 3f 72 af 80 3f ab 46 81 3f 2c 40 81 3f
       0.99514455 1.0053542 1.0099691 1.0097709
000060 67 1c 7c 3f 98 a7 80 3f 47 ba 81 3f 6c 25 7f 3f
       0.9848084 1.0051146 1.0134972 0.99666476
000070 8e 4f 80 3f aa 97 80 3f 26 b8 7b 3f b9 f5 7c 3f
       1.0024278 1.0046284 0.98327863 0.98812443
000080 f2 98 7b 3f 64 35 7c 3f 2b c5 7f 3f d7 e8 7f 3f
       0.9828025 0.9851897 0.9991023 0.9996466
000090 0b 1d 7d 3f 5e 34 80 3f ba ce 80 3f 7e 9f 81 3f
       0.9887244 1.0015981 1.0063088 1.0126798
0000a0 50 16 80 3f 08 48 7c 3f 2a 6d 7f 3f 34 d4 81 3f
       1.0006809 0.9854741 0.99775946 1.0142884
0000b0 a6 c3 80 3f eb df 7d 3f ea 80 7c 3f cf 44 7c 3f
       1.0059707 0.99169797 0.9863421 0.98542494
0000c0 3f e1 80 3f 5e 84 7b 3f ca d8 81 3f cd c3 7e 3f
       1.006874 0.9824885 1.0144284 0.9951752
0000d0 eb dd 7e 3f 87 92 7e 3f e3 bd 81 3f ba 60 7c 3f
       0.9955737 0.99442333 1.0136074 0.98585093
0000e0 35 24 82 3f c8 a1 81 3f 2e 19 7e 3f 1e 94 80 3f
       1.01673 1.0127497 0.9925717 1.0045202
0000f0 a4 a2 7e 3f 41 d0 80 3f bb 12 7c 3f 2e 3e 82 3f
       0.9946692 1.0063554 0.9846608 1.0175226

bn2.bias f4 [64]
000000 16 59 bb 3b bd 5e 24 3c 61 93 9c 3a 72 43 da b9
       0.005717407 0.010032353 0.0011945778 -0.0004163045
000010 11 1a 5b 3c 13 bc 50 3b 1c 8d 85 bc 22 21 2b 3c
       0.013372914 0.0031850382 -0.016302638 0.010444911
000020 6f e8 8d bb 54 8f c6 3b 36 a0 74 bc 1d a2 e6 3a
       -0.0043306868 0.0060595665 -0.014930775 0.0017595921
000030 9e 34 e3 bb c9 b1 01 bc 48 6c 8e 3b 1f 66 3d bc
       -0.0069337627 -0.007915922 0.004346404 -0.011559992
000040 72 39 55 3c 97 72 0e 3c ea 6a 07 3c f1 f7 25 bc
       0.013014184 0.008694313 0.008265236 -0.010129915
000050 3f f1 7d 3a 51 34 13 bb 35 00 84 3c 93 a5 2b 3c
       0.00096871326 -0.0022461603 0.01611338 0.010476488
000060 e8 f6 02 bc f1 fb 3d 3c 94 96 30 3c fd 29 45 bc
       -0.007993437 0.011595712 0.010778088 -0.012033937
000070 d5 3d 27 3c 0f e7 23 bc 3b 1f 69 bc 5a 9e 03 bc
       0.010207613 -0.010003819 -0.014228637 -0.008033359
000080 40 07 a9 3b da 58 50 bb 51 cd 84 bc 97 6b 9a bb
       0.005158335 -0.003179124 -0.016211184 -0.0047125327
000090 9a 5a 90 bc 77 cf c9 3b 4b 08 a2 3a b2 69 bc bb
       -0.017621327 0.006158765 0.0012362091 -0.0057499046
0000a0 ee c1 1f ba 6e 1f 69 3c a3 0a 81 3b 35 40 75 bb
       -0.00060942664 0.014228685 0.0039380356 -0.0037422304
0000b0 8b 4f f1 bb 11 3f de 3b 62 5b 06 3b f0 90 87 bc
       -0.0073642186 0.0067824204 0.0020501246 -0.016548604
0000c0 9a a2 59 3c 65 a5 05 3c 86 d5 67 3c 0a 88 87 bb
       0.013283396 0.008157109 0.014150029 -0.00413609
0000d0 ba 6c df 3b ef 51 3a 3c e9 4b b8 3a d5 97 ad bb
       0.006818381 0.011372074 0.0014060709 -0.005297641
0000e0 10 8a f5 b9 82 e1 3a 3c 60 f7 1d bc b6 2a 51 3c
       -0.00046832906 0.011406304 -0.009641498 0.012766531
0000f0 b2 4e 4c 3c a3 79 f0 bb a6 e0 86 bc 9f 10 55 3c
       0.012469934 -0.007338719 -0.016464543 0.013004451

bn2.running_mean f4 [64]
000000 36 84 17 c0 b3 93 c7 3f 6e fd bd 3d 95 41 17 40
       -2.3674445 1.5591949 0.092768535 2.3633778
000010 85 6a 2c 3f 7b e9 dc bf c5 ee 33 40 8a 95 05 bd
       0.67350036 -1.7258753 2.8114483 -0.032613315
000020 23 5e 07 3f be 78 a0 3e c3 3f 43 bf 98 0c ac 3f
       0.52878016 0.3134212 -0.7626917 1.3441343
000030 42 1b fb bf 42 83 55 40 30 d2 1c c0 f8 e5 28 3f
       -1.9617693 3.3361363 -2.4503288 0.65975904
000040 47 ad 30 40 c3 50 ea bf e9 c7 a1 be b6 13 c5 3e
       2.760576 -1.8305897 -0.31597832 0.384916
000050 72 5e 45 c0 f1 87 5c bf b9 16 0c 3f 4b 7b 5c 3f
       -3.0838895 -0.8614493 0.5472217 0.8612563
000060 31 c8 18 40 b6 be 1f 40 d0 5c 48 3d 84 f9 bf be
       2.3872187 2.496015 0.048916638 -0.37495053
000070 ff 4b a9 3f 06 d2 a2 3f 2c d3 9f bb ad 67 b7 3f
       1.3226317 1.2720344 -0.0048774686 1.4328514
000080 69 c7 42 40 eb 1c e1 3e fb c3 cf 3f d0 30 b6 3e
       3.043421 0.43967375 1.6231683 0.35584116
000090 04 e3 a8 3e 74 5e e3 3f 81 da 88 bf 49 24 e8 3e
       0.329857 1.77632 -1.0691682 0.45340183
0000a0 0e 0e 0e 40 ee f6 03 40 66 6c f8 be 64 43 c3 3f
       2.2196078 2.0619464 -0.485202 1.5254941
0000b0 68 aa 35 3f 34 29 e7 3f ba 84 dc be 31 d3 2d c0
       0.70963144 1.8059449 -0.43070012 -2.716015
0000c0 39 ad cc 3f b6 7c 28 3f 98 00 2b 3f 6e 78 4d 3f
       1.5990363 0.65815294 0.6679778 0.80261886
0000d0 d8 05 89 3f ec 45 c7 3e bf 13 86 3e 2a 89 d6 3e
       1.0704908 0.38920534 0.2618694 0.41901523
0000e0 e9 ca e4 bd a6 36 4b 3f d6 12 39 bf a3 3e 6a 3f
       -0.111715145 0.7938026 -0.72294366 0.91501826
0000f0 f2 a1 a7 bf d3 59 74 3f 3c 7e 04 40 5c c2 4e 3e
       -1.3096297 0.9544956 2.0702047 0.2019133

bn2.running_var f4 [64]
000000 b8 c0 82 40 15 ff 51 40 80 b5 ce 3f 58 92 08 40
       4.086025 3.281194 1.614914 2.133932
000010 49 47 7d 3f 0c e5 05 40 f0 16 96 40 22 1f 11 40
       0.989369 2.092105 4.6903 2.2675252
000020 eb a8 09 40 fd f1 e3 3f cf 53 a3 3f 8a d3 df 3f
       2.150935 1.7808224 1.2759951 1.7486432
000030 17 e7 50 40 4a a3 b6 40 8b 0e 8b 40 ae 59 ed 3f
       3.2641046 5.7074327 4.3455253 1.8542993
000040 ae ef a8 40 54 75 63 40 9f 71 16 40 08 7d f0 3f
       5.279258 3.5540361 2.350685 1.8788157
000050 70 3a 9c 40 be 75 75 40 85 ed 3a 3f 0d 1a 69 40
       4.8821335 3.8353114 0.73018676 3.642215
000060 eb 24 96 40 f5 45 64 40 4c 61 3b 40 bf 76 4d 40
       4.6920066 3.5667698 2.9278135 3.2103727
000070 c2 d5 22 40 1c 47 c2 3f 21 95 ea 3f 9f af 38 40
       2.5442967 1.5177951 1.832676 2.885719
000080 e6 8e c7 40 df b2 6a 40 0c f9 7d 40 97 ae 1d 40
       6.2361937 3.6671674 3.9683256 2.463781
000090 89 65 4e 40 d2 2a 16 40 1b d2 66 40 e6 a6 17 40
       3.2249472 2.3463635 3.6065738 2.3695617
0000a0 20 55 69 40 93 77 0d 40 98 9d 16 40 bb 94 1e 40
       3.6458206 2.2104232 2.3533688 2.4778278
0000b0 e3 b8 df 3f e7 21 0d 40 e4 45 4a 40 53 14 83 40
       1.7478298 2.2051942 3.1605158 4.096231
0000c0 ac f8 c8 3f e5 00 0f 40 b6 60 dc 3f 2e 7e 32 40
       1.5700889 2.2344296 1.7217014 2.7889514
0000d0 10 93 35 40 d9 5d 2f 40 bc 61 89 3f cf 30 4d 40
       2.837101 2.740103 1.0732951 3.206104
0000e0 e1 d4 05 40 94 79 bd 3f ab ba 82 3f 71 bf ea 3f
       2.091118 1.4802728 1.0213217 1.8339673
0000f0 2e d0 7d 40 45 8d e0 3f 8d 67 56 40 41 d2 7a 3f
       3.9658313 1.7543112 3.3500702 0.9797707

bn3.weight f4 [64]
000000 55 79 82 3f 96 80 82 3f 09 7d 82 3f e4 7b 82 3f
       1.0193278 1.0195491 1.0194408 1.0194058
000010 65 71 82 3f 0e 59 82 3f f3 72 82 3f 57 7b 82 3f
       1.0190855 1.0183427 1.019133 1.019389
000020 e2 76 82 3f b2 6b 82 3f 6f 7a 82 3f f7 73 82 3f
       1.019253 1.0189116 1.0193614 1.019164
000030 cd 73 82 3f 61 69 82 3f 71 7b 82 3f 3c 80 82 3f
       1.019159 1.0188409 1.0193921 1.0195384
000040 91 7d 82 3f 38 7a 82 3f 80 81 82 3f d7 7a 82 3f
       1.019457 1.0193548 1.019577 1.0193738
000050 50 59 82 3f 81 7c 82 3f 79 7c 82 3f d1 82 82 3f
       1.0183506 1.0194246 1.0194236 1.0196172
000060 60 79 82 3f a3 73 82 3f 2d 7a 82 3f 4c 67 82 3f
       1.0193291 1.019154 1.0193535 1.0187774
000070 69 7c 82 3f a8 80 82 3f f0 75 82 3f 1d 70 82 3f
       1.0194217 1.0195513 1.0192242 1.0190464
000080 d0 6a 82 3f 21 82 82 3f d6 6f 82 3f bf 62 82 3f
       1.0188847 1.0195962 1.019038 1.0186385
000090 c6 6c 82 3f 68 6b 82 3f 89 74 82 3f 3e 7d 82 3f
       1.0189445 1.0189028 1.0191814 1.0194471
0000a0 5b 7e 82 3f fe 7f 82 3f bc 77 82 3f a9 70 82 3f
       1.0194811 1.019531 1.019279 1.0190631
0000b0 a7 7b 82 3f 2a 70 82 3f 5a 6e 82 3f 4c 7c 82 3f
       1.0193986 1.019048 1.0189927 1.0194182
0000c0 c9 80 82 3f a1 75 82 3f 32 78 82 3f be 73 82 3f
       1.0195552 1.0192147 1.0192931 1.0191572
0000d0 e9 79 82 3f 71 7a 82 3f 1b 78 82 3f 84 7b 82 3f
       1.0193454 1.0193616 1.0192903 1.0193944
0000e0 b9 61 82 3f 6a 81 82 3f 40 76 82 3f 41 79 82 3f
       1.0186073 1.0195744 1.0192337 1.0193254
0000f0 a7 72 82 3f 03 6b 82 3f 52 7b 82 3f 3a 87 82 3f
       1.0191239 1.0188907 1.0193884 1.0197518

bn3.bias f4 [64]
000000 41 ff 6e 3c 64 89 9a 3c e4 25 99 3c 1b d4 97 3c
       0.014587224 0.018864341 0.018694825 0.018533757
000010 71 70 9a 3c a0 58 9c 3c 09 44 a0 3c 47 7f 9f 3c
       0.018852444 0.019085228 0.019563692 0.01946987
000020 6c 04 a2 3c a2 29 97 3c 57 d7 9d 3c 67 6d a1 3c
       0.0197775 0.01845247 0.019267721 0.019705487
000030 c9 2c 9f 3c 75 05 9a 3c 92 9c 98 3c 10 27 a0 3c
       0.019430535 0.01880143 0.018629346 0.019549876
000040 b5 73 9e 3c b9 8f 9b 3c 87 f0 9d 3c 76 83 a0 3c
       0.019342283 0.01898943 0.019279731 0.019593935
000050 f8 ef 9d 3c a4 d9 97 3c 62 8e 84 3c ac f2 a1 3c
       0.019279465 0.018536396 0.016181175 0.019769035
000060 26 f1 9e 3c 01 ce 9e 3c 73 0a a0 3c d7 01 98 3c
       0.019402098 0.01938534 0.019536233 0.018555565
000070 5f 14 9e 3c 1a 23 a1 3c 94 3c 9d 3c 10 c6 a0 3c
       0.019296823 0.019670058 0.019193925 0.019625694
000080 3d 7a 97 3c 5e 82 9e 3c bd 45 9e 3c dc 0c 9c 3c
       0.018490905 0.019349273 0.019320363 0.0190491
000090 c5 26 9a 3c b5 e5 97 3c 84 55 a0 3c c1 f2 a0 3c
       0.018817315 0.01854215 0.019572027 0.019647004
0000a0 f7 d7 9c 3c 45 fd 9d 3c 1b d1 a1 3c 27 8d 98 3c
       0.019145949 0.019285807 0.01975303 0.018621994
0000b0 f8 d9 a1 3c 73 d8 a0 3c 8f ae 99 3c 7f 86 a0 3c
       0.019757256 0.019634461 0.018759994 0.019595383
0000c0 70 4d 9d 3c cc 47 99 3c ff 41 5b 3c 83 f0 9c 3c
       0.019201964 0.018710993 0.013382434 0.019157654
0000d0 b9 08 97 3c 17 37 9e 3c 75 28 9f 3c 0e a0 58 3c
       0.018436776 0.019313378 0.019428471 0.013221754
0000e0 41 a6 a1 3c b5 fa 9e 3c 30 31 99 3c 22 46 9d 3c
       0.019732596 0.019406656 0.018700212 0.019198481
0000f0 90 9a 9b 3c 81 bc 9c 3c 26 4b 93 3c 05 76 91 3c
       0.0189946 0.019132854 0.01798017 0.017756471

bn3.running_mean f4 [64]
000000 c9 73 ef 3f 78 a1 ca 3f 83 a1 8d be c1 3c 80 3f
       1.870721 1.5830526 -0.27662286 1.0018541
000010 23 46 ee 3b aa 5b 01 c0 fd 7a 4d 3f 2e df 0b 40
       0.0072715445 -2.0212197 0.8026579 2.1854968
000020 23 7e 79 be f8 16 ed 3f 84 b3 12 3e 1d ab 11 c0
       -0.24364524 1.8522635 0.14326292 -2.276069
000030 c6 0e 39 3f d6 91 bc bf 07 77 ae be 80 42 40 bf
       0.7228817 -1.4732006 -0.34075186 -0.7510147
000040 92 e1 86 bf 27 1f ea 3f 1e 7b aa 3e 5b cb 9e 3f
       -1.0537589 1.8290757 0.33297056 1.2405809
000050 6a bd b7 bf 13 d6 aa 3f fd 3e 9c 3f 06 c3 93 bf
       -1.435468 1.334658 1.2206722 -1.1543891
000060 a1 de 02 c0 78 f1 cb 3e 3d f3 bb 3f 76 88 49 be
       -2.0448382 0.39832664 1.4683605 -0.19680962
000070 82 46 05 3f 6f 55 91 3c f6 d3 25 3f de c9 96 3f
       0.5206071 0.017740933 0.6477655 1.1780355
000080 10 0c 30 40 9a b9 ce 3f 8e 7b 00 c0 89 f2 01 bf
       2.7507362 1.6150391 -2.0075412 -0.50760704
000090 6e 05 63 bf a0 83 de 3f 7f 29 74 3f 45 3d 64 3f
       -0.8868016 1.7383919 0.9537582 0.8915599
0000a0 b1 e7 c8 3f 4a 12 22 be c3 15 20 bf 33 79 17 3f
       1.5695707 -0.15827289 -0.62533206 0.5916931
0000b0 6c e5 8c 3f 0a 8f 08 3f ae 59 87 3e 36 ef 95 3f
       1.1007514 0.5334326 0.26435608 1.1713626
0000c0 a4 62 aa 3e 33 93 9a 3f e4 3f 67 3e 2a 96 6f 3f
       0.33278382 1.2076172 0.22582966 0.9358851
0000d0 d1 17 fd 3e ae 2e 0c 40 88 16 f9 3f f4 69 cf 3f
       0.49432233 2.190349 1.9460001 1.6204209
0000e0 d0 d9 cc 3f a9 3c 87 3f 5d 4b ea 3f 0c 88 78 3f
       1.6003971 1.0565387 1.8304249 0.9708259
0000f0 cc f8 2e 40 b1 a1 6d bf 11 de ce 3f ac 90 94 3f
       2.7339354 -0.92824847 1.6161519 1.160665

bn3.running_var f4 [64]
000000 c6 12 71 3f 00 b9 72 3f a9 9f be 3f b2 77 cb 3f
       0.9416927 0.9481354 1.4892474 1.5895903
000010 c5 dc fa 3f 2d e4 b7 3f c9 38 84 3f 96 f9 83 3f
       1.9598624 1.4366509 1.032983 1.0310543
000020 a9 11 d3 3f b3 20 58 3f 58 6d 3b 3f a1 15 d5 3f
       1.6489764 0.84424895 0.7321372 1.6647226
000030 dd e6 05 40 ea f7 d9 3f 7e 53 83 3f 05 04 3a 3f
       2.0922158 1.7028782 1.0259855 0.72662383
000040 55 78 bb 3f e0 00 8f 3f 00 eb 49 3f a9 0d 31 3f
       1.4646097 1.1172142 0.78874207 0.6916147
000050 db 9b 53 3f 08 24 84 3f 6c cb 5e 3f de 13 2b 3f
       0.8265969 1.0323496 0.8702915 0.6682719
000060 a1 6c b1 3f 34 f9 e1 3f e1 b8 26 3f 39 9d b6 3f
       1.3861276 1.7654176 0.6512585 1.426673
000070 38 ec 5c 3f a0 20 58 3f 68 54 06 40 8e f5 8e 3f
       0.8629794 0.8442478 2.0989017 1.1168687
000080 1d f1 cd 3f 4a 24 26 3f fb ba e9 3f 55 e7 b4 3f
       1.6089207 0.6489912 1.8260187 1.4133097
000090 e1 51 12 40 fd b1 63 3f ee db dd 3f 76 e5 0f 3f
       2.2862475 0.88943464 1.7332742 0.56209505
0000a0 5e b9 bd 3f d1 44 b1 3f 15 96 27 3f 3a 37 90 3f
       1.4822195 1.3849126 0.6546338 1.1266854
0000b0 31 7c bd 3f dd 57 a2 3f 2d 8b 8d 3f 85 f9 b0 3f
       1.4803525 1.2683064 1.1058098 1.3826147
0000c0 8b 09 c6 3f c9 00 04 40 97 33 41 3f a0 ad 32 40
       1.5471662 2.062548 0.75469345 2.7918472
0000d0 63 1e a6 3f 2d 6b fe 3f e3 ac c0 3f 87 de e5 3f
       1.2978023 1.9876457 1.5052761 1.7958535
0000e0 94 e1 e7 3f 51 ca ee 3e 8f df a5 3f 4b db ad 3f
       1.8115716 0.4663873 1.295885 1.3582548
0000f0 de 2e 8c 3f 82 18 c0 3f 56 88 0c 3f 46 a6 04 3f
       1.0951803 1.5007479 0.5489553 0.51816213
