maml-notebook/completet_model/model-epoch_00039-train_loss_0.129-train_acc_0.877-test_loss_0.517-test_acc_0.850.pt (torch_old, 305688 bytes, 20 tensors)

conv1.weight f4 [64, 1, 3, 3]
000000 01 f6 24 3d 90 e3 34 3c c6 d6 77 bd 2a 6a 79 bb
       0.04027367 0.011040583 -0.06050756 -0.0038057663
000010 0b a1 cd 3c 27 81 d8 3c 25 f1 ee 3c 9f 5e 0a 3d
       0.025101205 0.026428772 0.029167721 0.033781644
000020 29 47 16 3d 18 2c 9a 3d 02 e0 91 3d 62 59 3a 3d
       0.036688957 0.075279415 0.07122804 0.0454954
000030 d7 35 d5 3c 13 be 9a bd 28 1d 73 3d ed 9f 71 bd
       0.02602665 -0.07555785 0.059353977 -0.058990408
000040 c2 61 28 bd c3 70 0c be e0 64 78 3d 0d f5 58 bb
       -0.041108854 -0.1371489 0.060643077 -0.0033105046
000050 e1 0c 46 bd 5f 59 15 3d 5c 25 d3 3c 1a c0 06 3c
       -0.048352126 0.036462184 0.02577465 0.0082245115
000060 71 bb 46 bd ee 01 de 3c 6b f8 f4 3c e1 6b 1e bc
       -0.0485186 0.02710053 0.029903611 -0.009669275
000070 c8 5f 26 bc 3e 4d 1d bd dd 11 d8 bd c8 0c e9 3c
       -0.010154672 -0.038403742 -0.10550282 0.028448477
000080 8c f4 7f 3d b0 25 e7 bd 7c 70 b7 3d be c5 a2 3d
       0.062489077 -0.11286485 0.089570016 0.079478726
000090 42 45 e0 3d c6 a1 e4 bc f5 d2 6f bd cd 9b 51 3b
       0.1095071 -0.02790917 -0.058550794 0.0031983734
0000a0 37 91 3b 3d 63 af 53 bc 8e a0 c5 bd 10 67 94 bd
       0.045792785 -0.012920233 -0.09649764 -0.0724622
0000b0 08 f3 9f bd 0a 0a 4d 3d 29 b7 14 3d b4 86 b2 bc
       -0.078100264 0.050058402 0.036307488 -0.021792747
0000c0 c1 cf 2a bd d1 13 5b bd f7 4b ae bd ae 2a 2c bd
       -0.041702036 -0.053485695 -0.08510583 -0.04203289
0000d0 ef dc 87 bd 59 b5 b0 3c 03 00 f5 bc 16 b6 63 3b
       -0.066339366 0.021570848 -0.029907232 0.0034745983
0000e0 6c 65 be 3c 7b dc 72 bd 82 77 f7 bb fe 1f 89 3d
       0.023241721 -0.059292298 -0.0075520882 0.06695555
0000f0 72 0b 62 bc 65 0f d5 bb a6 32 53 3d 37 dd 26 3c
       -0.013796674 -0.0065020793 0.051561974 0.010184578
000100 81 81 87 bd 46 19 ec bb 87 76 a9 bc 3e 6c 56 bd
       -0.06616498 -0.0072051613 -0.020686401 -0.05234932
000110 fa d7 70 bc de 6b b9 bc 57 9e 9b bd 78 d1 4d 3d
       -0.01469993 -0.022634443 -0.0759856 0.050248593
000120 51 3d 1f bd 82 92 d9 bd 45 8f 97 bc 67 00 70 3d
       -0.038876835 -0.10623647 -0.018500933 0.058594134
000130 6f ea 5f bd af 99 6e bd c6 aa 81 3d 78 c1 ea 3c
       -0.054666933 -0.058252033 0.063314006 0.028656706
000140 d4 02 ea bd ed b7 c8 3c 79 45 8f bd 1a 0d 0b bd
       -0.11426321 0.024501765 -0.06995673 -0.03394804
000150 72 df c3 3d 51 07 8e bc 5b 48 3c 3d 63 60 55 3c
       0.09564103 -0.017337473 0.04596744 0.013023469
000160 5d d7 04 bd 56 fd 6d bd 2c 06 ee bb 71 0a ac bb
       -0.03243195 -0.058102928 -0.0072639193 -0.005250268
000170 1c 6e 07 3d 52 38 61 3d 63 35 69 bd 2e 81 2b 3d
       0.033063993 0.05498535 -0.05693568 0.041871242
000180 96 63 5a bc 46 0f e7 3d 35 7b 08 bd 29 05 27 3d
       -0.013329407 0.1128221 -0.033320624 0.040776405
000190 d0 37 4d bc 8d a6 db bc 90 4c 2d 3d 8a ab 84 3d
       -0.012525514 -0.026812816 0.042309344 0.06478031
0001a0 4d 9d a5 3c a9 23 12 bd df 76 ce bc ea 34 8c 3d
       0.020216608 -0.03567854 -0.025203167 0.0684603
0001b0 47 59 ab 3b e7 f5 65 bd 1c 59 0d bc 84 3c 0a 3c
       0.0052291485 -0.056142714 -0.008627202 0.00843728
0001c0 10 f1 15 bd ed 19 a4 bc 83 21 e5 bb 6e dd af 3d
       -0.03660685 -0.020031894 -0.0069925203 0.08587156
0001d0 6c f5 ad 3d 9a 4d 06 3c e3 f6 f0 bc a0 b5 64 3d
       0.08494076 0.008197213 -0.0294146 0.055837274
0001e0 64 e7 1a 3d 2a 4c 4b bd c7 2e d0 bd b2 c6 80 3d
       0.037818328 -0.049633183 -0.10165172 0.06287898
0001f0 b9 21 a1 bd 95 c7 83 bd 4f cf 66 bd 08 f8 ef 3c
       -0.0786776 -0.064345516 -0.05635005 0.029293075
000200 15 af 96 bd 6a 30 20 3d 9f 88 c6 bc 85 8c 0a 3e
       -0.07357613 0.03910867 -0.024235068 0.13530166
000210 4e d1 da bb ff 60 84 3c 94 df aa 3d 9b 6b 59 3d
       -0.006677783 0.016159533 0.083434254 0.053081136
000220 a2 17 a3 3d f7 66 f4 3b d7 c3 03 bd bb 3a 07 bc
       0.07963492 0.0074585634 -0.03216919 -0.0082537485
000230 96 c4 9c 3d ac 48 87 bd a8 8a eb 3c 63 a2 26 3d
       0.07654683 -0.06605658 0.02875264 0.040682208
000240 73 27 32 bd a9 bc 2c 3d df 1a 12 bd cf 30 b3 bc
       -0.043494653 0.042172108 -0.035670158 -0.02187386
000250 d1 05 8b bd 6b c4 4a bd 6e f6 8d 3d 62 a2 f3 3c
       -0.06788219 -0.049503725 0.06931768 0.029740516
000260 18 5b 95 3d 58 94 b0 3c f4 63 ed bc 3c 48 9b 3c
       0.072927654 0.02155511 -0.028978325 0.018955342
000270 61 73 21 3d 9e 9a 7c bd 89 d6 0f 3d bb 74 f5 3c
       0.039416675 -0.061670892 0.035116706 0.029962888
000280 65 5c 4d bd cf e2 14 3d 51 29 89 bc 37 c9 c3 3c
       -0.050136942 0.036349114 -0.016743334 0.023899658
000290 43 35 41 3c 38 03 ad bd bf e3 c4 3d 31 78 0a 3c
       0.011792484 -0.084478796 0.096137516 0.008451507
0002a0 b7 74 16 bd 53 f1 76 3c a8 4b 28 3d 0f 52 2b bd
       -0.0367324 0.015072185 0.041087776 -0.041826304
0002b0 9e 1f 7a 3c a7 21 16 3a 1d d9 bb bd 5c c5 60 bd
       0.015266327 0.00057270605 -0.091722704 -0.054875717
0002c0 7a b4 98 bd 2e e8 04 3d 80 0b 30 3d e2 5d 74 3c
       -0.07456298 0.032447986 0.042979717 0.0149149615
0002d0 e0 c5 a7 bd 32 b0 86 3d a6 48 1d 3d ff 7a 66 3d
       -0.081920385 0.06576575 0.03839936 0.056269642
0002e0 7d 44 c7 3c aa e0 c2 3c 7d 34 48 bc 61 67 db bc
       0.02432465 0.023788769 -0.012219545 -0.026782693
0002f0 f4 46 6b 3d a1 d6 c2 3a cc 83 91 bc 39 40 14 3d
       0.057440713 0.001486499 -0.017763041 0.03619406
000300 80 2b 82 bd a1 f8 25 bd 63 5d d5 bd 2d d7 eb bc
       -0.06355953 -0.040520314 -0.10418203 -0.028789127
000310 95 fb a8 3b 89 80 88 bd 01 32 27 bd f1 8a 84 3c
       0.005156944 -0.06665141 -0.04081917 0.016179534
000320 6f 69 59 bd 48 98 e0 bd 3a 38 9e bd 26 59 f8 3c
       -0.053079065 -0.10966545 -0.07725568 0.030315947
000330 32 62 38 bb 14 a8 39 3d 7d b9 cc 3d 56 50 e2 bd
       -0.00281347 0.045326307 0.099963166 -0.11050479
000340 d6 e8 cf 3b db 66 80 3d a8 dc 9b bc d1 25 00 bd
       0.006344895 0.06269618 -0.019026116 -0.031286065
000350 15 4b 5e 3d ab 66 6e bd bd f4 f4 bc 6b bd b7 3d
       0.054270823 -0.05820338 -0.029901857 0.089716755
000360 33 c2 c3 3d 31 8c 81 3c 83 19 b4 3b 62 b1 ac 3c
       0.09558525 0.015813919 0.0054962053 0.021080676
000370 df 8a 91 3d 1d d2 1f bc a7 c2 af 3d 8e 19 70 bd
       0.07106566 -0.009754685 0.08582049 -0.05861812
000380 91 e0 a8 bd 92 bb 5d 3d 98 13 74 3b a6 5b 7b bd
       -0.08245958 0.05413396 0.0037243124 -0.0613667
000390 a0 50 a6 3d 18 fe 71 3c 3e 5c 90 39 41 8b 1d bd
       0.08120847 0.014770053 0.00027534546 -0.03846288
0003a0 4f f5 c4 3d 97 e2 8e 3c 9b 89 86 bd a4 ec 29 bd
       0.096171014 0.01744203 -0.06569215 -0.041485444
0003b0 9e 84 f1 bc 7b 37 95 3d 85 df 7d bd a5 ad 5a 3d
       -0.029482182 0.07285973 -0.061980743 0.053388257
0003c0 47 88 76 3d 91 b9 c8 3d 0e fb 9c bc 2f 03 a6 bd
       0.060188558 0.09801019 -0.019162681 -0.08106076
0003d0 ae 5f bf bd 95 0c 6b 3c 07 1d d5 3b 83 f2 4a 3c
       -0.09344421 0.0143462615 0.0065037045 0.012386921
0003e0 7b 09 2b 3d 41 0d 17 bc 7e 26 8f bd a9 fc f5 bd
       0.04175709 -0.009219469 -0.06989764 -0.12011082
0003f0 c0 f5 9d bd 81 bb 26 3c a5 d7 66 bd 9c 97 c6 bb
       -0.07712889 0.01017654 -0.056358 -0.0060605537

conv1.bias f4 [64]
000000 c9 3a 04 bc 99 b3 16 3c c0 9d 1e 3c 2e 91 17 ba
       -0.008070656 0.009198093 0.009681165 -0.00057818263
000010 51 7e 40 ba 6e 88 84 3b 31 ed a4 bb b8 4d 5e 3b
       -0.00073430414 0.004044584 -0.005033158 0.0033920836
000020 07 2e d1 bb 4c 20 b3 3b 26 24 bb 3b ba ce 88 3b
       -0.0063836607 0.0054664966 0.0057110963 0.0041750344
000030 40 41 66 bb e0 8f 86 3b 3a 7a 40 bc ac 6a 8a bb
       -0.0035134107 0.0041065067 -0.011747891 -0.004224142
000040 b6 ca 22 bb 55 23 af bb d7 6b 06 3c e0 d8 ab ba
       -0.0024840063 -0.005344788 0.008204422 -0.0013110898
000050 f8 a9 89 bb 1c cd 02 39 a8 05 44 bc 3d 67 1e 3b
       -0.00420117 0.00012474175 -0.011964239 0.0024170422
000060 5d ee c5 3b 28 15 ac 3b a5 b0 04 bc 57 89 c1 bb
       0.006040378 0.0052515455 -0.008098756 -0.0059062648
000070 18 60 ea 3b ab 57 04 bc 8b a8 8b 3b e6 07 7b b9
       0.0071525685 -0.008077542 0.0042620352 -0.00023940168
000080 d2 5c 65 3a 20 73 fc 3b 89 5a 21 bc 11 6c 04 3c
       0.0008749488 0.0077041537 -0.009848245 0.008082406
000090 a7 df 05 3c 5b dc c6 3a ca bd 0a 3b bd 20 c5 3b
       0.008170999 0.0015171872 0.0021170252 0.0060158656
0000a0 e7 ab c1 3b 45 0a 3a bb 30 c0 89 3b 48 af 85 3b
       0.005910385 -0.0028387469 0.0042038187 0.004079733
0000b0 0c d9 da bb 88 54 9c 3b 2a d7 c0 3a f0 e1 b4 ba
       -0.006678706 0.004770819 0.0014712561 -0.0013800245
0000c0 85 18 4d 3c c8 44 d8 bb 45 88 81 ba 46 7e 40 3b
       0.012518053 -0.0065999962 -0.000988253 0.002937214
0000d0 44 0a 91 bb 15 f3 33 bb 74 a6 55 bc 9e 37 31 3b
       -0.0044262726 -0.002745812 -0.013040174 0.0027041207
0000e0 ed 91 e6 3a 11 65 23 3a e4 93 a8 ba 09 ac 27 ba
       0.0017591097 0.00062330166 -0.0012861458 -0.00063961797
0000f0 55 04 ef bb 41 57 e7 3a 4f c2 05 bb 97 d9 32 ba
       -0.0072942176 0.0017649905 -0.0020410006 -0.00068225845

conv2.weight f4 [64, 64, 3, 3]
000000 44 eb af 3c 48 3d 06 3c 1b ac b6 bc e4 50 cd 3c
       0.021474488 0.0081933215 -0.022298863 0.025062986
000010 42 f3 6d 3d cb 65 13 bd 98 65 92 3c 68 e5 33 3d
       0.058093317 -0.03598575 0.01787071 0.04391995
000020 3a be 86 bc 32 16 f2 bc 8b 00 ee 3c d1 e1 8d bd
       -0.016448129 -0.0295516 0.029052993 -0.06927837
000030 b1 d2 66 ba f2 b4 93 ba 31 72 e8 3b 66 4f 3a 3d
       -0.0008805199 -0.0011269136 0.007093691 0.045485877
000040 32 ae 69 bb 35 81 8b 3d 48 c2 8e bd db 37 ce bc
       -0.0035656807 0.06811754 -0.0697065 -0.025173118
000050 f0 42 a5 bd 32 f6 95 bc c1 85 12 bd f5 a6 7a bd
       -0.08069408 -0.018305872 -0.03577209 -0.06119438
000060 8c 90 3a bc e4 72 c5 3a a9 f4 c0 3d f9 b3 2c 3c
       -0.011387002 0.0015064147 0.09421665 0.010540956
000070 27 a3 c9 3c 33 e8 a9 bc 3f 1a 1c bd 8a df 14 3b
       0.02461393 -0.020740604 -0.038110968 0.0022716247
000080 ce 5f ac bd 60 82 dc bc 55 7f 05 bd 9f a5 84 bd
       -0.08416711 -0.026917636 -0.032592136 -0.06476902
000090 ba 83 f6 bb 5f 3c 0c 3d 49 35 3d 3d d1 f3 0a 3d
       -0.0075230272 0.03423726 0.046193395 0.033923928
0000a0 93 8d 71 bd 8f 72 99 bc 06 66 88 bd e4 7f f4 bc
       -0.058972906 -0.018731384 -0.066600844 -0.02984614
0000b0 33 bb f7 3c 0c 3f 7f bc e3 04 f4 bb 0f 49 0a bd
       0.03024063 -0.015578996 -0.0074468716 -0.03376108
0000c0 9a c7 90 bc 1b 9e 59 bb c8 49 a9 bc c3 38 2e bc
       -0.017673302 -0.003320581 -0.020665064 -0.01063365
0000d0 d2 e0 82 bc cf 9f b1 3c 50 67 81 bd 7f 4a 82 3d
       -0.015976343 0.021682648 -0.063185334 0.06361865
0000e0 a5 45 92 3d 26 91 3c bc e8 88 20 bd 2e 76 72 3c
       0.0714219 -0.011509215 -0.039193064 0.014798684
0000f0 15 7c 63 bd 66 fa 1f bd 6f 9a 61 bd 88 a1 dd 3c
       -0.055538256 -0.039057158 -0.05507892 0.027054563
000100 c6 3e 82 bd ea e3 9f bc 73 a1 2a bd 09 7e 0f bd
       -0.06359629 -0.019517858 -0.041657876 -0.035032306
000110 2e d5 13 bc 18 43 a9 bc e2 8c d2 bc 0a 92 87 bc
       -0.009022994 -0.020661876 -0.025701944 -0.016549129
000120 d1 9b f2 bc 46 f0 f4 bb bf 21 84 bd b8 27 ae bb
       -0.029615315 -0.007474932 -0.06451749 -0.0053147934
000130 a4 63 aa bb 98 b0 5f bd 89 51 8b 3c 6c f3 86 bc
       -0.0051998664 -0.054611772 0.017006652 -0.016473494
000140 43 34 61 3d 32 8a 6b bd 17 8a b7 3c 5a 6b 18 bd
       0.05498148 -0.05750484 0.022404714 -0.037211753
000150 3d 31 19 3b e2 d2 99 3d 3d 09 45 bd 33 10 4a bd
       0.0023375296 0.07510926 -0.048104513 -0.049331855
000160 20 c1 17 bd 5a c4 87 bd 90 5d bb 3c bf b4 45 3d
       -0.037049413 -0.06629248 0.022871763 0.048268076
000170 bb 1e 96 3d c0 03 b1 bc 52 32 bb 3c ab ce 87 bc
       0.0733008 -0.021608233 0.022851143 -0.01657804
000180 5a f6 66 3c ca e0 e7 3c 8c 31 83 3d 1f 8b 2c 3d
       0.014096821 0.02830543 0.06405935 0.042124864
000190 32 27 b4 3c b8 a7 1b 3d 2f 0c ed bc 73 bf e8 bc
       0.021991346 0.038001746 -0.028936474 -0.028411603
0001a0 04 30 0f bd 6e ab 05 3d 13 c7 79 bd 2c 1e 07 3d
       -0.0349579 0.03263419 -0.060980868 0.03298776
0001b0 64 fe 29 3d 6e df 8b bc 34 66 ac 3c c2 ba 7b 3d
       0.04150237 -0.017074313 0.021044828 0.061457403
0001c0 29 c7 1f 3d 33 57 54 bd a4 39 64 3c 76 8d 05 bd
       0.039008293 -0.051840972 0.013929758 -0.03260561
0001d0 d6 ec bd bd 70 28 05 3c cd bf ad 3c 8d b4 09 bd
       -0.092736885 0.008127317 0.021209622 -0.033619452
0001e0 b8 0a 70 3d fd 48 6a bd 05 42 db bb ff ba 0b bc
       0.058603972 -0.057198513 -0.0066912198 -0.00852847
0001f0 d1 9a a1 3c 6d 28 d0 3d b8 f2 39 3c e1 69 83 bb
       0.019727143 0.101639606 0.011349373 -0.0040104245
000200 32 9b 16 bc b2 8e 9c 3c a9 20 b6 3c 06 10 1f 3c
       -0.009192275 0.019111011 0.02223237 0.00970841
000210 f9 2b 4d bc 3a e2 69 3b 6d 2d be bc 7e 81 75 3d
       -0.012522691 0.003568782 -0.02321502 0.059937946
000220 0e 28 b8 bd 5b ff a5 bd b4 f2 b7 3c 28 d0 47 3d
       -0.08992015 -0.08105346 0.022454597 0.048782498
000230 a7 18 c9 bc d0 10 75 3d 0f 26 c9 3c 26 88 40 3d
       -0.024547888 0.059830487 0.02455428 0.04700484
000240 88 62 74 bd 20 59 d2 bb fb 72 55 3d 41 5c c4 bc
       -0.05966428 -0.006419316 0.052111607 -0.023969771
000250 21 fd 18 3c 97 a8 d0 bc 0b d8 c9 bd 36 82 11 bd
       0.009337694 -0.025471015 -0.0985566 -0.03552457
000260 4c 1f 36 3c 09 22 9f bc 48 82 c3 3c 3a 66 bd bd
       0.01111586 -0.019425409 0.023865834 -0.09248014
000270 63 16 de bc 8f dd ce bc 65 bb 5d bd e6 9d 93 bc
       -0.027110284 -0.025252132 -0.05413379 -0.018019628
000280 6a 57 9b ba 58 54 29 bd f8 95 8b bc 5b f0 3e 3d
       -0.0011851613 -0.041340202 -0.017039284 0.04661594
000290 bb 4f aa 3d e9 b8 81 3d a6 2f 72 3d c8 97 12 bd
       0.08315989 0.06334097 0.059127472 -0.03578928
0002a0 3c 88 69 3d 3f 64 0b 3d 45 7c 3e bc ad bb 7e bd
       0.05701469 0.03403115 -0.011626308 -0.0621907
0002b0 4d 74 3e 3d b1 35 ce bb b8 1e ad 3a 2f cb 00 3d
       0.04649763 -0.0062930216 0.0013208007 0.03144377
0002c0 be 9b 59 bc 5f 5a ff bc c4 d3 85 bd 87 17 5c bd
       -0.013281761 -0.031171022 -0.06534532 -0.053733375
0002d0 df 26 3d 3d 79 a1 02 bd 42 0f 59 bc fc ba 28 bd
       0.04617965 -0.031892274 -0.013248267 -0.041193947
0002e0 98 0e 6c 3d 43 ea bd 3c 40 b8 1b bd 58 23 05 bd
       0.057631105 0.023182994 -0.03801751 -0.03250441
0002f0 50 cb 18 bc 88 4f a9 3c ba 48 af 3d 0c 9b 17 bd
       -0.009325817 0.020667806 0.08558793 -0.0370131
000300 58 c1 95 bb f1 c4 e2 3c 15 eb d4 bc ce 20 c8 3d
       -0.0045701675 0.0276818 -0.025991002 0.09771882
000310 3c 85 6f bd 3b 01 01 bd 67 13 30 3c af 47 91 3d
       -0.05847667 -0.031495314 0.010746813 0.07093751
000320 01 60 0a bc 3f 75 75 bd 70 32 ed bb 2a 1a 57 3b
       -0.008445741 -0.059926268 -0.0072386786 0.0032821991
000330 ed 5d 1e bc c2 a6 9e bd 62 08 4e 3b b7 07 d7 3c
       -0.009665948 -0.0774665 0.0031438102 0.026248796
000340 02 3e b4 3c 63 48 f6 bc 25 51 4f bb c6 75 eb 3c
       0.022002224 -0.030063814 -0.003163406 0.028742682
000350 a7 b3 49 3c 1b 44 99 bc 5c aa 82 bd 33 19 d7 bc
       0.012310899 -0.018709233 -0.0638015 -0.026257133
000360 cc 25 64 3b 35 67 5a bd 34 13 1e 3d 9a e9 63 3d
       0.0034812568 -0.053321082 0.038592532 0.0556427
000370 fe 6d 1d bd e9 c4 82 3c 9e ea 3e bd b5 f1 68 3b
       -0.038434975 0.015963035 -0.046610467 0.003554446
000380 a8 60 73 3c 3e c4 d1 3c e9 c6 78 3d ef 8f a5 bc
       0.014854588 0.02560627 0.06073657 -0.020210234
000390 19 07 bf bc b0 81 56 bc 45 61 cc bd 52 97 84 3a
       -0.023318814 -0.013092443 -0.0997949 0.0010115898
0003a0 b5 cc 63 bc 20 14 12 bd 08 bc 0d 3d 23 b9 10 3d
       -0.013903786 -0.035663724 0.03460315 0.03533281
0003b0 70 0f 9c 3c 32 bf 11 3d 30 79 67 bc 18 95 9b 3c
       0.01905033 0.03558273 -0.014128014 0.018991992
0003c0 9a a0 6e 3c 28 8c fd bc 86 6b e2 3c 10 27 4f 3d
       0.014564658 -0.03095062 0.027639162 0.050574362
0003d0 1d e7 be bb 6c e5 03 bd f0 22 9a 3c 64 f5 d0 3c
       -0.0058258907 -0.032201216 0.018815488 0.025507636
0003e0 d9 52 53 3c 70 ad 93 3d 88 3f 55 bd 38 7c e3 bc
       0.01289817 0.07210815 -0.05206254 -0.027769193
0003f0 e0 d1 f0 ba 67 a0 db 3b 98 da 25 bd 1f ec ff 3c
       -0.0018373094 0.006702471 -0.04049167 0.031240521

conv2.bias f4 [64]
000000 03 0b eb bb 6d 6b 5a 3b 39 ea ab b9 91 6c 83 3b
       -0.0071729436 0.003332819 -0.0003279017 0.004010745
000010 3b af 01 3c 6b 9c 40 3a cd 1a 21 3a ca 4c c2 ba
       0.007915313 0.0007347527 0.0006145656 -0.001482391
000020 f9 1b aa bb 32 10 7e 3b 52 0e bc 3b b6 88 dd bb
       -0.005191323 0.0038766977 0.005739012 -0.006760682
000030 dc ca 74 bb 52 82 15 3a c3 78 c8 bb fe 61 d2 ba
       -0.003735236 0.0005703318 -0.0061179115 -0.0016050932
000040 9b 01 e7 3a 86 d8 8d 39 08 5e a0 bb 52 23 6c 3b
       0.001762438 0.00027054938 -0.004894022 0.0036031795
000050 e2 a1 d5 3b 0f b2 84 bb 06 1d e4 3b a7 ec d2 3b
       0.006519542 -0.0040495466 0.0069614677 0.0064369026
000060 65 60 a0 3b 0b 23 4a b9 17 10 ba bb 3d 3d 22 3b
       0.0048943036 -0.00019277276 -0.0056781876 0.002475574
000070 65 3b 8c bb 6d e4 35 3b 85 86 b0 bb 88 27 85 bb
       -0.0042795413 0.002775456 -0.0053871297 -0.0040635504
000080 75 e7 24 bb 4c 61 ea bb 78 d2 b1 3a 4b 24 0b 3a
       -0.0025162373 -0.007152712 0.0013566753 0.0005307837
000090 08 e9 2b 3b 01 9f 1b ba ed 98 dd 3a 20 62 01 bb
       0.0026231427 -0.0005936474 0.0016906537 -0.0019742325
0000a0 02 73 1d 3b 95 f8 56 3a 9f 14 97 b9 1c f3 fe ba
       0.0024024849 0.0008200494 -0.00028816328 -0.0019451114
0000b0 5c dd 0b 3c 5f e4 68 ba 1a 44 14 3a 83 71 05 3b
       0.008536663 -0.00088841276 0.00056559 0.0020361848
0000c0 fb 5c 9d 3b 4b 9c ec 3b 8e c0 8d bb 70 82 e1 ba
       0.004802344 0.00722078 -0.004325933 -0.0017205011
0000d0 c4 a0 ef 3a 90 56 38 bb 43 81 c8 bb 69 36 9b 39
       0.0018282165 -0.0028127767 -0.006118925 0.00029604443
0000e0 b6 43 81 3b 1e 03 0c 3b 54 bc 29 bb 68 cd 0f ba
       0.0039448394 0.0021364163 -0.0025899606 -0.0005485625
0000f0 69 5b 11 bb de 27 93 bb ba 71 2c bb 50 de 2e bb
       -0.002217973 -0.0044908365 -0.0026312904 -0.0026682802

conv3.weight f4 [64, 64, 3, 3]
000000 04 96 72 bd 29 17 30 bd ef 76 29 3d 31 8a 54 3d
       -0.059225097 -0.042990837 0.04137319 0.051889602
000010 34 0f 66 bb f7 18 a6 3b 4b dd 50 bd f7 83 0b bd
       -0.0035104277 0.005068894 -0.05099229 -0.0340614
000020 e9 6b a8 3c 06 31 7b bd 23 27 03 3d e3 1d 98 3a
       0.020559268 -0.06132605 0.032019746 0.0011605587
000030 86 f1 bc 3c 45 82 ae bc ce e1 08 bd 56 1e 98 bd
       0.023064386 -0.021302352 -0.03341847 -0.07427661
000040 93 ab d5 bc a6 bd 91 3c 5f 94 a9 3c ac 43 5c 3c
       -0.02608279 0.017790627 0.020700632 0.013443869
000050 52 c3 1c bc ac d7 bf 3c f1 fe d1 3c e1 c1 1c bd
       -0.009568052 0.02341827 0.02563426 -0.038270835
000060 c1 4d c4 bc 46 2f 9e 3d 85 00 cf 3c 37 86 6a bd
       -0.023962857 0.077238604 0.025268802 -0.057256903
000070 23 2a 6b bc ea 72 c8 bb b2 52 03 3d e5 6e 53 3d
       -0.014353308 -0.0061172144 0.032061286 0.05161943
000080 dd a6 0c 3d b4 5b 5b 3d 73 b7 1a 3c ed 22 89 3d
       0.03433882 0.05355425 0.009443152 0.06696115
000090 e5 6c 03 bc 1f 3b 13 3d bc 73 bc 3c d6 a4 32 3d
       -0.008021568 0.035945054 0.023004405 0.04361423
0000a0 2e d7 01 bd 4b 8a eb 3c 72 ec a4 bc ed e5 aa bd
       -0.031699352 0.028752467 -0.020132277 -0.08344636
0000b0 55 03 c7 bb b4 f0 26 bd ae 6b 77 bc cb 4b 2f bd
       -0.0060733953 -0.040756896 -0.015101356 -0.04279689
0000c0 df ec f6 ba d2 71 5e bd 16 5f 9b bd b0 48 d4 bc
       -0.0018838904 -0.054307766 -0.075864956 -0.025913566
0000d0 1f 15 80 bd a2 9d 02 bd 45 24 3a bd 01 58 69 3b
       -0.062540285 -0.03188861 -0.045444746 0.0035605433
0000e0 2e f8 3f 3d 65 ed 36 3b 53 19 b3 3a da fc c6 bc
       0.046867542 0.0027912494 0.0013664163 -0.02429049
0000f0 24 a1 3c bd 35 17 c0 bc 31 5d 17 3d be ab da bc
       -0.046052113 -0.023448566 0.03695411 -0.026693221
000100 92 36 4d 3d 66 4c 1b 3b d5 b4 a1 bc 68 50 1a 3b
       0.05010087 0.002369666 -0.019739548 0.002354646
000110 8e de 5d 3d 43 53 dd bd 43 35 b8 bb d2 ee e1 3c
       0.054167323 -0.108068965 -0.0056215837 0.027579699
000120 52 c9 7e 3d 04 e5 0e 3d 11 b4 9e bc ec bb 47 3d
       0.062203713 0.034886375 -0.019372972 0.0487632
000130 03 cb 7c bd 0b 93 cc ba eb 21 e0 3d e1 99 0b 3d
       -0.061717045 -0.0015607787 0.10943969 0.034082297
000140 a9 b2 1d bd 57 8d f0 bc 0d e1 91 3c 3f 91 c1 3c
       -0.03850046 -0.029364271 0.017807508 0.023628829
000150 4c 8b 14 bb 66 79 2b bd 86 99 3c 3d a2 07 88 39
       -0.0022666035 -0.04186382 0.04604485 0.00025945628
000160 62 2e 8b 3d f3 7c 27 3b 98 13 cd 3b 43 0d 1b bd
       0.06795956 0.0025556653 0.0062584393 -0.037854444
000170 c5 70 53 3d c4 35 0c 3d 23 6d 8e bd 63 29 73 bd
       0.051621217 0.034230962 -0.0695441 -0.05936564
000180 54 c4 ae bd 4b 6a 1f bb d6 f8 f0 3c cf 5e 2e 3d
       -0.0853354 -0.002432483 0.02941553 0.042570885
000190 a1 19 97 bb f5 3b 87 3c 64 dc 14 3d d4 a2 49 bc
       -0.0046112095 0.016508082 0.036342993 -0.012306888
0001a0 82 84 7a 3d 67 07 2f 3d e3 c6 85 3d b9 ef d0 bc
       0.061161526 0.04273167 0.06532075 -0.025504934
0001b0 04 87 13 bd 0d 51 34 bd cd 65 78 bc 8d bd 5a 3c
       -0.036017433 -0.04402261 -0.01516099 0.0133508565
0001c0 a5 c6 fe bc 65 2b cf bc 5e ec 0f 3d 4c e6 4d 3c
       -0.03110058 -0.025289247 0.035137527 0.012567114
0001d0 b3 fb 87 3c b3 70 af 3d d1 d2 bb bc ec cf c9 3c
       0.016599512 0.085664175 -0.022927674 0.024635278
0001e0 08 06 47 3d 38 9d 0f bd c6 1e 27 3d fa 95 04 bb
       0.048589736 -0.035062045 0.040800832 -0.0020230995
0001f0 45 e7 a3 bb f5 f2 6e bc 41 27 14 bb 31 03 bc 3c
       -0.0050019347 -0.014584293 -0.0022606405 0.02295074
000200 7d 34 0c bd c5 ba e4 3c 3e 21 00 3d 20 82 10 3d
       -0.034229744 0.02792109 0.031281702 0.035280347
000210 08 86 c9 3c 93 b9 67 bb 85 64 9c bd 32 9c 8c 3d
       0.024600044 -0.0035358414 -0.0763636 0.068657294
000220 dc 9b 83 bd 55 82 33 bd 7e d5 1c 3b a9 53 f2 3b
       -0.06426212 -0.043825466 0.0023930962 0.007395227
000230 f4 d5 69 3d b3 3d b9 3c e1 ac 5a bc 63 29 2f 3d
       0.057088807 0.022612428 -0.013346882 0.04276408
000240 33 72 ac bc 7e 9d 6e bd 44 85 47 3d 3b 4f 52 bd
       -0.021050548 -0.058255665 0.048711076 -0.05134509
000250 c3 90 dc 3b c2 93 ba 3b bf b6 59 3d da 10 55 bc
       0.006731124 0.0056938836 0.053152796 -0.013004506
000260 c0 e7 4e bd c7 6d 02 3c 39 ba aa 3c e6 18 c9 3d
       -0.050513983 0.007960743 0.020840751 0.09819202
000270 09 b7 10 3c 35 d3 6a 3c f2 79 a8 3d 5c d5 10 bd
       0.0088327015 0.014332582 0.08226384 -0.035359725
000280 ae 86 84 3d f9 16 2a bd e2 a1 b3 3c c0 2f 16 3d
       0.064710006 -0.041525815 0.021927778 0.03666663
000290 1c 40 cd 3c d9 67 67 bd 04 eb 7a bd 97 cd 20 bb
       0.025054984 -0.05649552 -0.061259285 -0.0024536604
0002a0 72 6a 52 bd 2f 71 12 3d 1c 8b 85 3d c9 8d 39 3d
       -0.051371045 0.03575247 0.06520674 0.045301232
0002b0 6b 16 26 3d d2 45 21 3d 1b c5 10 bc 1d da 1d 3d
       0.040548723 0.039373226 -0.008836056 0.038538087
0002c0 b1 72 56 3c 01 28 14 3d 1b 91 0c 3d 3d d0 69 3c
       0.013088868 0.036170963 0.03431807 0.014270839
0002d0 1b 96 ae 3b 72 67 1e 3d bc e5 83 3d ee bf 5b bd
       0.0053279526 0.038672872 0.06440303 -0.053649835
0002e0 e0 f3 36 3c 95 b6 48 bc 49 16 8e bc 14 2b 20 bd
       0.011166543 -0.012250562 -0.01734461 -0.039103583
0002f0 21 5c 91 3c 12 92 c6 bc b8 a4 29 3d da 16 8f 3c
       0.017744126 -0.024239574 0.041416854 0.017466951
000300 58 33 29 bd b4 2b 83 bd 99 67 bf 3d d2 05 43 bc
       -0.04130873 -0.0640482 0.093459316 -0.011903243
000310 0e 87 04 bd cb 85 33 bc 36 32 9c 3c 80 8b be bb
       -0.03235536 -0.010957192 0.019066911 -0.0058149695
000320 1c 57 ce ba 31 bb a8 bc 0d 41 70 bd aa 26 82 3d
       -0.0015742513 -0.020597072 -0.058655787 0.06355031
000330 8d 1f 98 bb 35 e8 cc 3c bd cb e7 3d 3d c5 e3 bc
       -0.004642433 0.025013069 0.11318157 -0.027804011
000340 2a 0e 8a 3c af be ec 3d c9 8d 0c bd e9 37 5d bb
       0.016852457 0.115598075 -0.034314904 -0.003375525
000350 4c 18 7d ba d8 10 b9 bd b5 9a 03 3d e9 39 f0 bc
       -0.00096548046 -0.09036416 0.032129962 -0.029324489
000360 1c 79 14 3d 50 ca 68 bd 17 d6 02 bd 73 4b f0 bb
       0.03624831 -0.056833565 -0.031942453 -0.007333213
000370 05 ef 31 3d f5 92 c0 3c 57 ac 44 3c 4b 71 90 bb
       0.043440837 0.023507575 0.01200398 -0.004408037
000380 c3 49 16 3d 8a 0f de bd 58 fb 12 bd 9c 90 bc 3c
       0.03669144 -0.108428076 -0.03588423 0.023018174
000390 55 61 0e 3d 98 c9 89 3d fa e9 4e bc 8a 2d 12 3d
       0.03476079 0.06727904 -0.012629027 0.03568796
0003a0 97 9e 88 39 c6 6e 42 37 b8 a0 46 3d d4 3c 1e 3b
       0.000260581 1.15890925e-05 0.048493117 0.0024145143
0003b0 9e 58 d7 bc 0e 3a a9 3d 2b c9 53 bd 34 6b 11 3d
       -0.026287373 0.08263026 -0.05170552 0.035502627
0003c0 2d 95 97 bd c5 ef 2f bc e6 08 fb bd 5f 26 5f 3c
       -0.074015 -0.010738318 -0.122575566 0.013619988
0003d0 a8 46 90 bc 6a 5f c3 bd 17 f2 03 3d 0d 5b 6e bd
       -0.017611817 -0.09539683 0.032213297 -0.0581923
0003e0 1d e1 84 bc 13 85 a6 bc 08 2c 81 bc cd 88 d0 3b
       -0.016220624 -0.020327127 -0.015768066 0.006363964
0003f0 0b 8e 0b 3d cd c5 38 3c 2c ba 13 bd d3 5c 2f bd
       0.03407101 0.011277628 -0.03606622 -0.042813133

conv3.bias f4 [64]
000000 80 3d f5 3c af 13 0d 3d 42 0b f5 3b 49 df e5 3c
       0.029936552 0.0344426 0.0074781487 0.028060572
000010 a8 bd df 3b b2 24 f9 bc 5f 95 e3 3c cd de 0c 3d
       0.0068280287 -0.030413006 0.027781187 0.034392167
000020 b2 d2 46 bb 97 08 f2 3c d0 1b e6 3a 04 6d 7c bc
       -0.0030337987 0.029545112 0.0017555896 -0.015406851
000030 26 b2 05 3a fd 5a e5 bc 9f 0d 50 bc 75 e6 c7 bc
       0.00051000935 -0.027997488 -0.01269856 -0.024401883
000040 2f c3 ce bc d1 8d 10 3d 6d 52 86 bc 33 f7 0c 3d
       -0.025239555 0.035291497 -0.016396726 0.034415435
000050 d9 01 01 bd 6d fd c5 3c 2c a9 f7 3c 3a 34 2d bc
       -0.031495903 0.024168694 0.030232035 -0.010571534
000060 10 07 f9 bc 55 68 8f 3c a3 ee 0a 3d f9 ba 24 bc
       -0.030398875 0.017505804 0.033918988 -0.010054343
000070 b0 5b 0c 3c e2 f5 ec 3b cb 3c 07 3c 95 53 f4 3c
       0.008566782 0.00723146 0.00825424 0.029825011
000080 49 05 06 3d 1b e9 c5 3c 7d 30 d5 bc da 98 8f bc
       0.032719884 0.024159005 -0.026024098 -0.01752894
000090 b0 00 ed bc a6 89 0e 3d cd 85 d2 3c 0e c7 df 3c
       -0.028930992 0.03479924 0.025698567 0.027316596
0000a0 99 e3 06 3d 8b e0 51 bc 08 1a d3 bc 9c bb d8 3c
       0.032931898 -0.012809883 -0.025769249 0.026456647
0000b0 d5 66 f6 3c 59 9c a5 3c 5b ad ad bb 2d ff bf 3c
       0.030078331 0.020216154 -0.0053002066 0.023437107
0000c0 2f 8e 39 bc 07 dd f6 3c 6e 46 78 3b 40 03 ef 3c
       -0.011325403 0.03013469 0.0037883776 0.029176354
0000d0 cb 0c 86 3c 75 fd 15 3d 2e ce 0d 3d 0c f6 0f 3d
       0.016363522 0.03661867 0.034620456 0.035146758
0000e0 a3 09 c9 3c e1 bb 0b 3d ff ee 0c 3d 8a c3 01 3d
       0.024540728 0.034114722 0.034407612 0.03168062
0000f0 fb b6 10 3d 61 85 fd bc 70 40 0f 3d e5 1d 06 3d
       0.035330754 -0.03094739 0.03497356 0.032743353

bn1.weight f4 [64]
000000 c8 59 82 3f 9c 05 80 3f 72 81 80 3f 40 b7 80 3f
       1.0183649 1.0001712 1.0039504 1.0055923
000010 16 eb 79 3f 54 d3 7d 3f ac b4 82 3f 80 6a 7b 3f
       0.9762434 0.99150586 1.0211387 0.9820938
000020 4f 19 7c 3f 96 ec 7c 3f cb f1 7d 3f 80 b8 84 3f
       0.9847612 0.987985 0.9919707 1.0368805
000030 2b f1 7f 3f a2 22 79 3f 06 11 7c 3f 52 ff 84 3f
       0.9997737 0.9731847 0.98463476 1.0390418
000040 2b 25 81 3f f6 58 84 3f 16 a3 82 3f 93 1e 7e 3f
       1.0089468 1.0339649 1.020602 0.992654
000050 03 5a 80 3f e3 19 7b 3f d4 63 7a 3f d9 b0 80 3f
       1.0027469 0.98086375 0.97808576 1.005397
000060 05 8f 84 3f cf 9b 83 3f 87 49 81 3f a8 0b 81 3f
       1.0356146 1.0281924 1.0100564 1.0081682
000070 d2 38 82 3f 9c 70 83 3f 2a 5c 80 3f fe 69 7c 3f
       1.017359 1.0268741 1.0028126 0.9859923
000080 ae 66 7a 3f 80 d9 79 3f 4a fb 7a 3f 98 bf 80 3f
       0.97812927 0.97597504 0.98039687 1.005847
000090 d1 38 7e 3f a2 d9 81 3f 2d 94 7c 3f 92 3b 81 3f
       0.99305445 1.0144541 0.986636 1.0096304
0000a0 d5 c3 83 3f 32 0d 7c 3f e0 60 7f 3f f7 b5 82 3f
       1.0294138 0.98457634 0.99757195 1.0211781
0000b0 8b c1 7d 3f 5b a8 7d 3f c9 26 81 3f 33 d8 83 3f
       0.9912345 0.99085015 1.0089961 1.0300354
0000c0 b7 06 81 3f 62 4d 79 3f be 41 7c 3f a4 e0 80 3f
       1.0080174 0.973837 0.98537815 1.0068555
0000d0 58 21 7b 3f 93 de 7c 3f 4b 10 84 3f 33 35 7f 3f
       0.98097754 0.9877712 1.0317472 0.9969055
0000e0 1f a4 7b 3f 8a a2 79 3f ab fc 79 3f 3b 09 81 3f
       0.98297304 0.9751364 0.97651166 1.0080942
0000f0 74 68 81 3f 4d bf 82 3f 9e 41 80 3f 0b 4e 81 3f
       1.0110002 1.021463 1.0020025 1.0101942

bn1.bias f4 [64]
000000 e1 46 94 bc d3 82 5b 3a 6c 32 d0 bc d6 3c 3b bc
       -0.018100204 0.00083736813 -0.025414668 -0.011428079
000010 f1 8a e7 bc 32 ba 01 3a 85 f4 bf bc f5 60 5c bb
       -0.028264495 0.0004948705 -0.023432026 -0.0033627127
000020 50 01 c9 bb 35 9c e4 3c 75 eb 30 bc fe 99 91 3c
       -0.0061341897 0.027906517 -0.010798325 0.017773625
000030 5d 65 f0 bc cf ac 27 bb 60 53 cf bc ab ba 43 3c
       -0.029345209 -0.002558518 -0.025308311 0.011946361
000040 56 7b c5 3b 1c f9 79 bc da 21 ed bc ac 5f 22 bc
       0.0060266657 -0.015257146 -0.028946806 -0.009910505
000050 1f 85 28 bc 73 97 b4 3c ce 5e d0 3c 44 26 eb bb
       -0.010285645 0.022044873 0.025435831 -0.0071761925
000060 ed 3c 83 bc 41 02 57 3c 2a 12 00 bd 5d 71 c4 3c
       -0.016020263 0.013123096 -0.031267323 0.023979837
000070 3a 5b d9 3c 24 4c c4 bc a9 23 9f 3a 7a 41 6b bc
       0.026532758 -0.023962088 0.0012141365 -0.014358873
000080 8e 78 18 bd 90 36 35 bc d3 4e 45 3c 6e 70 2b bc
       -0.037224345 -0.011060372 0.012042719 -0.010463817
000090 85 c7 62 bc 4b 42 cd bc 8e fc 39 bc 67 4e 88 bc
       -0.0138415145 -0.025056025 -0.011351718 -0.016638948
0000a0 df 56 d5 3c 50 f2 8b 3b 52 3c 30 3b 76 5b 4d 3c
       0.0260424 0.0042708293 0.0026891422 0.012534013
0000b0 91 80 24 3c 7c b6 db 3b 2e 55 3e bc 43 bb 06 3b
       0.010040418 0.0067051034 -0.011616988 0.0020558394
0000c0 1a 48 14 bd a3 a2 11 3c d9 a4 c0 3c 14 5c 43 3b
       -0.036201574 0.008888873 0.023516105 0.0029809522
0000d0 88 c6 85 bc 07 db f2 3a 31 e8 6d bc fe 33 34 3c
       -0.016330019 0.001852841 -0.014520691 0.010998724
0000e0 7e f7 12 3c 3e 9d 1a 3c 7c fa e8 3c 41 bb 86 3c
       0.00897014 0.0094369035 0.028439753 0.016446711
0000f0 ae e9 08 39 24 fe 9d 3b 2c e8 98 bc 58 94 28 bc
       0.00013057023 0.0048215557 -0.018665396 -0.010289274

bn1.running_mean f4 [64]
000000 af af 0c bb 11 f8 f4 3b 46 d4 5e 3c da 49 a2 ba
       -0.002146702 0.007475861 0.013600415 -0.0012381629
000010 29 d3 15 bc d8 e6 a0 bb eb f5 6e bb 42 be af bb
       -0.009144583 -0.004910331 -0.0036462497 -0.0053632567
000020 5c 38 8c bc c4 8e 7f 3b 7a 49 36 3c e1 4c 2c 3c
       -0.017116718 0.0038995007 0.011125917 0.010516376
000030 ce 70 59 ba 75 ef 38 bb 95 8d a7 bb c0 71 5d 3b
       -0.0008294702 -0.00282189 -0.0051133134 0.0033789724
000040 15 b2 2b bb c4 ce 56 bb ae 9b 2e 3c cd e9 04 bc
       -0.0026198674 -0.003277705 0.010657234 -0.008112383
000050 e3 6a 1b 3b 77 2b 49 bc 38 6a 82 bc e4 50 32 3a
       0.0023714832 -0.012278429 -0.01591979 0.0006802215
000060 88 bc 4b 3c 86 2a 4e 3c 01 af ac bb 2f a5 9d bc
       0.012435086 0.012583381 -0.0052698855 -0.019243805
000070 bb a9 bf 3a a8 69 1c 3a 76 bd d7 bb 6e 41 73 3b
       0.0014622727 0.0005966672 -0.006583865 0.0037117857
000080 cc fe 2a 3c 1c 48 dc 3b b0 26 1e bd e5 f4 47 3c
       0.010436725 0.0067224633 -0.038611114 0.0122043835
000090 30 19 7a 3c 89 24 f5 3a 34 5d 6d 3b 77 f6 80 3c
       0.015264794 0.0018702905 0.0036218883 0.015742524
0000a0 98 3d b5 3b df e7 78 bb e0 01 ab 3b 30 ec 12 3c
       0.005531024 -0.0037980003 0.0052187294 0.008967444
0000b0 9f 76 67 bc 86 11 78 3b f2 e5 4c bc 60 07 82 3b
       -0.014127403 0.0037852242 -0.012505995 0.0039681643
0000c0 22 83 80 3c ae b5 4e bc 0e 41 1b bc 71 04 f9 bb
       0.015687529 -0.012616558 -0.009475959 -0.0075994064
0000d0 d9 05 8f bb a9 0f 22 bc 01 1b 14 bc c4 90 5d bc
       -0.0043647108 -0.009891429 -0.009039641 -0.013523284
0000e0 fe 45 2c bc a7 09 f8 bb 2a d9 2d bb c4 06 2f bc
       -0.010514734 -0.00756951 -0.0026527145 -0.010682765
0000f0 68 e3 81 b9 89 0f d2 3a e0 ad 44 bb e7 a9 37 bc
       -0.00024774228 0.0016026358 -0.0030010864 -0.0112099415

bn1.running_var f4 [64]
000000 f0 bf 4c 3c c7 c2 1e 3d 99 73 13 3c 69 7d 1a 3d
       0.012496933 0.038759973 0.008999729 0.037717257
000010 ca 42 18 3d c2 e3 e7 3c 47 16 73 3c ed ff c9 3c
       0.03717307 0.028306846 0.014836854 0.024658168
000020 e8 03 5b 3d a7 b8 92 3c 48 56 24 3c 0e 12 6d 3c
       0.053470522 0.017910315 0.010030337 0.014469637
000030 ca c9 7a 3c 61 48 0e 3d 27 2b e7 3c 94 0a e0 3c
       0.015306899 0.034736995 0.028218819 0.027348794
000040 3a 73 7f 3c 23 2f 0a 3c 00 c2 8f 3c 21 e6 c8 3c
       0.015591437 0.00843409 0.017548561 0.024523797
000050 f7 4b 89 3c a7 13 22 3d 31 b3 ff 3c 88 0d 13 3d
       0.016759856 0.039569523 0.031213375 0.035901576
000060 38 87 03 3d bc 73 c9 3c 9c b4 b2 3c 61 7b 3c 3d
       0.032111377 0.02459132 0.021814637 0.0460161
000070 9a bb 69 3c 42 77 b7 3c 5f 12 01 3d 96 3c fe 3c
       0.014265919 0.022395734 0.03151166 0.031034749
000080 07 3f 0a 3d a3 ac be 3c a3 6a 34 3e c8 06 76 3c
       0.033751514 0.023275679 0.17618804 0.015016265
000090 09 ca 1f 3d 1a d8 9d 3c 78 ed 85 3c 1b 2e 02 3d
       0.039011035 0.019268084 0.016348585 0.03178225
0000a0 50 55 85 3c ef 27 db 3c 2d 94 9d 3b a5 3b 40 3c
       0.016276032 0.02675244 0.0048089237 0.01173297
0000b0 56 0f df 3c 47 3e 9e 3b 69 8c 42 3d ca 0d a4 3c
       0.027228992 0.0048292014 0.047497187 0.020026106
0000c0 f9 87 af 3c c9 2e aa 3c e6 fa 20 3d c0 30 0a 3d
       0.021427142 0.020774262 0.039301775 0.033737898
0000d0 96 bc 5f 3c 53 f8 83 3c 2b b4 6b 3c 18 43 83 3d
       0.013655802 0.016109621 0.014386217 0.064092815
0000e0 14 00 0b 3d b1 68 03 3d e3 a9 61 3c a6 e1 35 3d
       0.03393562 0.032082263 0.013773414 0.04440465
0000f0 45 0e 87 3c c2 91 93 3c 35 3e 07 3d e5 fd 18 3d
       0.016486296 0.018013839 0.03301831 0.037351508

bn2.weight f4 [64]
000000 82 f3 7d 3f d7 4c 7b 3f 76 eb 7c 3f d2 b0 7f 3f
       0.9919969 0.98164123 0.98796785 0.9987918
000010 f0 5a 82 3f 6d 8e 7a 3f 74 fb 80 3f c6 78 83 3f
       1.0184002 0.97873574 1.0076737 1.0271232
000020 2a 4a 83 3f cf 6b 7f 3f 0b 9b 7b 3f b9 81 7a 3f
       1.0257008 0.9977388 0.9828345 0.9785419
000030 21 3f 7c 3f eb 4b 80 3f b9 37 80 3f 56 91 82 3f
       0.9853383 1.0023168 1.0017005 1.0200603
000040 81 c9 7b 3f fe fa 80 3f 5c 8f 82 3f 28 f7 82 3f
       0.98354346 1.0076597 1.02 1.0231676
000050 c6 ca 80 3f 57 dd 82 3f da a6 80 3f bb 57 81 3f
       1.0061882 1.0223798 1.0050919 1.0104898
000060 d7 b3 7a 3f 36 0d 80 3f 48 e8 82 3f d5 29 7e 3f
       0.97930664 1.0004032 1.0227137 0.9928258
000070 d4 ee 7e 3f 08 84 81 3f f9 14 79 3f 05 f6 7e 3f
       0.9958317 1.0118418 0.97297627 0.99594146
000080 89 2e 7a 3f 59 cb 7b 3f e2 69 80 3f 33 a5 7f 3f
       0.97727257 0.9835716 1.0032313 0.9986145
000090 9b 91 7b 3f a4 bd 7f 3f ee 03 81 3f e4 e4 81 3f
       0.9826905 0.99898744 1.0079324 1.0147977
0000a0 82 9d 7d 3f 0e fd 7a 3f e6 ab 7e 3f d5 41 82 3f
       0.9906846 0.9804238 0.99481046 1.017634
0000b0 12 ca 81 3f 27 ec 7b 3f 74 3e 7d 3f e3 b2 7b 3f
       1.0139792 0.98407215 0.9892342 0.98319834
0000c0 ef eb 80 3f e7 dc 77 3f 4a 8b 81 3f 9d 64 7d 3f
       1.0072001 0.96821445 1.0120633 0.9898165
0000d0 7a 75 7c 3f 3c 5b 7c 3f cb 3d 82 3f c2 3f 79 3f
       0.98616755 0.9857671 1.0175108 0.9736291
0000e0 e5 1d 83 3f 10 bf 83 3f d0 14 7f 3f f6 33 80 3f
       1.0243498 1.0292683 0.9964113 1.0015857
0000f0 10 88 7b 3f fd 20 80 3f 87 6c 7a 3f d0 ef 81 3f
       0.9825449 1.0010067 0.9782185 1.015131

bn2.bias f4 [64]
000000 5a 95 2c 3c ec b1 c0 3c b6 f1 2f bc 33 00 34 bb
       0.010533655 0.02352234 -0.010738781 -0.002746594
000010 0f a2 a6 3c f0 06 2c bc 0f 1a 0a bd 07 8e fd bb
       0.020340947 -0.010499701 -0.033716258 -0.0077378782
000020 0d d2 8c 3a 4f 45 87 3c 90 31 df bc 8d 06 bc 3c
       0.0010743752 0.016512541 -0.027245313 0.022952342
000030 f0 1f 80 bc bd 7d a5 bc 6c 70 0d b9 00 58 cc bc
       -0.015640229 -0.020201558 -0.00013488688 -0.024944305
000040 46 67 2b 3c 49 ce 87 3c be 69 81 bb a9 24 55 3a
       0.010461634 0.016577857 -0.003949373 0.0008130768
000050 84 7c 28 3c 36 9d 87 bc 32 09 fa 3c ff 20 3f 3c
       0.010283593 -0.016554456 0.030521963 0.011665582
000060 d6 aa a5 bc d0 04 9c 3c 29 df cb 3b 8c 1a a5 bc
       -0.020223062 0.019045264 0.006221671 -0.02015426
000070 f4 d0 8c 3c 83 e4 92 bc ca f2 b5 bc 34 4c 55 bc
       0.01718948 -0.017931229 -0.022210497 -0.0130186565
000080 49 b4 6c 3a c6 c6 b0 bb 28 22 02 bd 3a 1d 6e 3a
       0.000902955 -0.0053947894 -0.031770855 0.00090833346
000090 68 c7 c4 bc d4 db 63 3b ef 37 6d bc 22 2b 59 bc
       -0.024020866 0.003476848 -0.014478668 -0.013254913
0000a0 40 93 a1 bc 2f 5b ff 3c 47 95 9f 3b 91 2b eb bb
       -0.019723535 0.03117141 0.00487009 -0.0071768244
0000b0 9c 8d 9e bc 90 2c 7d 3c b1 3a 84 bc 18 73 8d bc
       -0.019354634 0.015452519 -0.016141267 -0.017266795
0000c0 8a 41 da 3c d3 ea a2 3c cf 80 d1 3c 32 88 f8 3a
       0.02664258 0.019887364 0.025574116 0.0018961488
0000d0 bf f9 2c bb 6b ce 8f 3c 95 c6 6b 3b 00 8d c3 bb
       -0.0026393977 0.017554482 0.0035976518 -0.0059677362
0000e0 b4 c1 9d bc c4 f3 ae 3c 22 32 bc bc 43 75 05 3d
       -0.019257404 0.02135647 -0.022973124 0.032582533
0000f0 e5 d5 02 3c 51 fb 92 bb 64 04 bb bc 93 c9 ac 3c
       0.007985567 -0.0044855257 -0.022829242 0.021092212

bn2.running_mean f4 [64]
000000 77 07 b9 bf 5a 18 d0 3f 06 ae 20 3e af 79 13 40
       -1.4455403 1.6257432 0.15691385 2.304302
000010 59 c6 40 3f 3b f4 be bf ef 8b 38 40 57 7a c7 be
       0.75302655 -1.4918283 2.8835409 -0.38960525
000020 b4 73 ee 3e 92 b8 85 3e b7 0e 21 bf cf fe eb 3f
       0.4657265 0.26117378 -0.6291308 1.8437136
000030 74 d3 de bf c5 8f 38 40 a8 c8 13 c0 37 79 91 3f
       -1.740828 2.883775 -2.309122 1.1365117
000040 28 40 31 40 72 7e d8 bf 92 fd be 3e 31 61 29 3e
       2.7695408 -1.6913588 0.37302834 0.16540982
000050 15 f7 43 c0 69 e1 69 bf a9 64 1d 3f 2b 89 2f 3f
       -3.0619557 -0.91359574 0.6148172 0.68568677
000060 a5 91 15 40 7a bf 2b 40 88 98 0c 3e 2f e4 ab be
       2.3370144 2.6835618 0.13730061 -0.33572528
000070 95 1d b6 3f b4 5a 56 3f 6f bd f9 bd a2 20 9c 3f
       1.4227778 0.8373215 -0.12194335 1.2197459
000080 fb 30 48 40 5c 83 cb 3e 38 eb bc 3f bf 94 f0 3e
       3.1279895 0.39748657 1.4759283 0.46988484
000090 2d 7e 63 3e c1 a8 d0 3f bc 67 4e bf a7 16 01 3f
       0.22216101 1.63015 -0.80627036 0.5042519
0000a0 41 2a 03 40 6f 32 f8 3f 05 20 6d be ce 79 d3 3f
       2.049454 1.9390391 -0.23156746 1.6521547
0000b0 cc 1b 13 3f e2 dd 01 40 4d 31 cf be 28 81 22 c0
       0.5746429 2.0291677 -0.404673 -2.539133
0000c0 b8 dc 34 3f d9 97 c2 3e 37 15 63 3f 6d 9f f0 3e
       0.7064929 0.38006476 0.88704246 0.46996632
0000d0 50 7a d1 3f 89 7c 9e 3e c8 99 3f 3e 3b 39 74 3e
       1.6365452 0.30954388 0.18711007 0.23849957
0000e0 7a ef 8d be af d7 22 3f 5c 5f 1b bf 7c 82 51 3f
       -0.2772177 0.6361036 -0.6069238 0.8183973
0000f0 6e b5 d6 bf eb b5 8d 3f 96 0e 18 40 92 71 8f bd
       -1.6774118 1.1071142 2.3758903 -0.07004084

bn2.running_var f4 [64]
000000 da 53 78 40 d2 7a a8 40 27 22 26 40 7d 34 82 40
       3.880118 5.2649927 2.5958345 4.0689073
000010 c2 47 34 40 fe 95 61 40 c3 30 10 41 cf c8 93 40
       2.8168797 3.5247798 9.011905 4.618263
000020 1d ce d8 3f 8e 4b 22 40 79 04 15 40 c6 0b a3 40
       1.6937901 2.5358615 2.328398 5.095187
000030 13 01 b0 40 a8 fe 12 41 27 e1 eb 40 43 8b 82 40
       5.500131 9.187172 7.3712344 4.0794997
000040 c9 64 2a 41 1a eb b2 40 6a 26 74 40 b7 89 51 40
       10.649606 5.591199 3.8148446 3.2740304
000050 8e 5c 1c 41 85 4b 93 40 47 50 9a 3f e3 2e 9e 40
       9.772596 4.6029687 1.2055749 4.9432235
000060 58 a7 07 41 22 1d ed 40 68 5f b7 40 04 c2 88 40
       8.478355 7.4098063 5.7303963 4.2736835
000070 b8 57 9e 40 3e b3 24 40 44 d9 6b 40 3f b1 82 40
       4.948208 2.57344 3.6851358 4.0841365
000080 11 68 56 41 71 d2 a0 40 e0 d3 b1 40 c4 51 78 40
       13.400407 5.0256886 5.5571136 3.8799906
000090 3c 90 55 40 7d b6 7e 40 90 5b f6 40 cb 9c 2d 40
       3.3369284 3.9798882 7.698677 2.712695
0000a0 bf 0f e5 40 d3 8c 8e 40 28 14 4b 40 7e 80 a0 40
       7.158172 4.4546905 3.1731052 5.015685
0000b0 b8 e2 4d 40 ca 2f ab 40 83 d8 85 40 97 fa 05 41
       3.2169628 5.3495836 4.1826797 8.373679
0000c0 ed 08 33 40 95 c2 5c 40 0f cd 2b 40 27 66 97 40
       2.7974198 3.4493763 2.6843908 4.73122
0000d0 7f 6c d2 40 a2 e9 64 40 c0 b7 c3 3f 0f c6 c6 40
       6.575744 3.5767598 1.5290451 6.211677
0000e0 b3 8d 30 40 7e 59 05 40 0e c1 f2 3f 9c cc a6 40
       2.7586486 2.0835872 1.8965166 5.2124767
0000f0 2f 2e f8 40 8f 85 37 40 bd ac f5 40 6b d6 15 40
       7.7556376 2.8675268 7.677336 2.341212

bn3.weight f4 [64]
000000 24 58 85 3f 75 56 85 3f 2f 6d 85 3f 8a 53 85 3f
       1.0417523 1.041701 1.0423945 1.0416119
000010 13 4b 85 3f 25 0c 85 3f c7 33 85 3f c8 4d 85 3f
       1.0413536 1.0394331 1.0406426 1.0414362
000020 67 5d 85 3f fa f3 84 3f 3b 33 85 3f db 66 85 3f
       1.0419129 1.0386956 1.0406259 1.0422014
000030 80 1c 85 3f 76 49 85 3f 8d 39 85 3f 51 32 85 3f
       1.0399323 1.0413043 1.0408188 1.040598
000040 bc 6d 85 3f 39 66 85 3f 94 44 85 3f 73 6f 85 3f
       1.0424113 1.0421821 1.0411553 1.0424637
000050 52 64 85 3f 22 48 85 3f cf 6d 85 3f 41 95 85 3f
       1.042124 1.0412638 1.0424136 1.0436174
000060 de 5d 85 3f ce 2e 85 3f ac 5a 85 3f 38 f4 84 3f
       1.0419271 1.0404909 1.0418296 1.038703
000070 aa 53 85 3f dc 8a 85 3f 74 0d 85 3f ed 3b 85 3f
       1.0416157 1.0433002 1.039473 1.0408913
000080 bc 57 85 3f e5 59 85 3f e7 30 85 3f 40 77 85 3f
       1.04174 1.0418059 1.0405549 1.0427017
000090 74 2f 85 3f df 3f 85 3f a2 ee 84 3f 5c 3b 85 3f
       1.0405107 1.0410117 1.0385325 1.040874
0000a0 5f 48 85 3f 35 52 85 3f 18 6f 85 3f be 2c 85 3f
       1.0412711 1.0415713 1.0424528 1.0404279
0000b0 66 1e 85 3f 94 eb 84 3f 7e da 84 3f 7f 46 85 3f
       1.0399902 1.0384393 1.0379179 1.0412139
0000c0 ae 4c 85 3f 29 4b 85 3f 98 6c 85 3f 54 2c 85 3f
       1.0414026 1.0413562 1.0423765 1.0404153
0000d0 ce 43 85 3f 86 3f 85 3f 8c 4c 85 3f 02 5f 85 3f
       1.0411317 1.0410011 1.0413985 1.0419619
0000e0 47 c4 84 3f 3e 6e 85 3f 62 4a 85 3f 7e 1f 85 3f
       1.0372399 1.0424268 1.0413325 1.0400236
0000f0 4a 47 85 3f 6d 7c 85 3f ae 6e 85 3f 7d 8c 85 3f
       1.0412381 1.0428597 1.0424402 1.0433499

bn3.bias f4 [64]
000000 8f 7d 1c 3d 82 cd 25 3d b9 02 2c 3d 6a 4c 2f 3d
       0.03820568 0.04047919 0.041994784 0.042797484
000010 61 e6 25 3d 3c 0d 25 3d a9 63 2a 3d 50 de 27 3d
       0.04050291 0.040295824 0.04159895 0.040983498
000020 5e fc 2e 3d 19 a6 25 3d 2c eb 2e 3d 53 6d 34 3d
       0.042721145 0.040441606 0.042704746 0.044049572
000030 64 34 2a 3d 02 4a 25 3d 78 e1 1c 3d 4b 8b 2a 3d
       0.04155387 0.040353782 0.03830096 0.041636746
000040 9a f3 23 3d 91 18 32 3d 62 cc 27 3d 3a 2c 33 3d
       0.04002724 0.04348046 0.0409664 0.04374335
000050 d6 a5 2a 3d 70 ca 29 3d b4 0a 1f 3d 30 c6 31 3d
       0.04166206 0.041452825 0.038828567 0.043401897
000060 14 aa 27 3d 70 73 29 3d a6 16 33 3d 2a ab 16 3d
       0.040933684 0.041369855 0.04372277 0.03678433
000070 97 ea 26 3d 4d 5f 2c 3d 02 c0 21 3d a4 43 31 3d
       0.040751066 0.042083073 0.039489754 0.043277398
000080 f8 97 2c 3d a1 86 2b 3d 54 9c 27 3d 5a 7b 2d 3d
       0.042137116 0.04187644 0.04092057 0.042353965
000090 c1 cb 24 3d e3 71 2a 3d 64 6b 2a 3d 45 b8 2e 3d
       0.040233377 0.041612517 0.041606322 0.042656202
0000a0 27 05 2b 3d 8a 9b 27 3d fc 67 2c 3d e4 fc 2c 3d
       0.04175296 0.040919818 0.042091355 0.042233363
0000b0 df 0b 2d 3d 24 be 2c 3d 96 16 1c 3d 8d 1c 30 3d
       0.04224765 0.04217352 0.038107477 0.04299598
0000c0 94 f5 27 3d 05 62 2e 3d 28 71 1a 3d 96 eb 29 3d
       0.041005686 0.042573947 0.03770557 0.041484438
0000d0 cd 5e 2a 3d 99 70 2b 3d 84 6c 27 3d d0 4a 18 3d
       0.041594315 0.04185543 0.040874973 0.03718072
0000e0 bd 90 2a 3d c4 00 30 3d 53 b7 28 3d 40 22 29 3d
       0.04164194 0.04296948 0.041190457 0.04129243
0000f0 bc 9b 27 3d e0 1a 29 3d 71 11 25 3d 51 95 28 3d
       0.040920004 0.041285396 0.040299837 0.041158024

bn3.running_mean f4 [64]
000000 78 f5 02 40 1e a8 f8 3f 39 87 d6 3d ff a5 cb 3f
       2.0462322 1.9426305 0.104750104 1.5910033
000010 40 fe f8 3e 72 b5 7c bf 6b 59 66 3f e8 e3 ed 3f
       0.48631477 -0.98714364 0.8998019 1.8585176
000020 3d d0 8c 3e 98 29 07 40 0a 3f 1c 3e 4a bd 29 c0
       0.27502623 2.1119137 0.15258422 -2.6521783
000030 31 fa b5 3f b6 26 b8 be 13 12 3c 3e 1d b3 1a be
       1.4216977 -0.35967034 0.1836627 -0.15107389
000040 89 09 3e bf 11 71 d4 3f ca 69 a0 3e 71 64 e0 3f
       -0.742333 1.6597005 0.3133071 1.7530652
000050 ee d8 9b bf 0d 3f 8e 3f 0f 2f 73 3f 2e 32 cf 3e
       -1.2175577 1.1112992 0.9499368 0.40467972
000060 b5 2c 9a bf 72 7c 2a 3f ce 54 a2 3f 87 cc 2c 3f
       -1.2044894 0.6659614 1.268213 0.67499584
000070 ba 35 a7 3f bb d6 49 3f 00 3d 8b 3f 50 08 88 3f
       1.3063271 0.7884328 1.0877991 1.0627537
000080 4a 39 0f 40 35 41 3d 3f ef c3 25 bf db 08 4d 3d
       2.2378716 0.73927623 -0.64752096 0.050057273
000090 db d1 a8 bf 3b 99 b8 3f 78 86 9b 3f d2 24 ac 3f
       -1.3189043 1.4421762 1.2150412 1.3448737
0000a0 93 63 97 3f 13 a5 3e bd 09 26 66 3d 2b 5c bb 3e
       1.1827263 -0.046544146 0.056188617 0.36593756
0000b0 39 b5 99 3f 67 f2 0e 3f 34 45 76 3e d3 79 a0 3f
       1.200843 0.55838627 0.24049836 1.2537178
0000c0 8a 50 bc be 0c b2 f4 3f 89 89 b5 3e 4d 19 c4 3f
       -0.36780196 1.9116836 0.35456493 1.5320221
0000d0 e9 c9 09 3f da f3 f2 3f 57 dd 09 40 5d 5d 15 40
       0.53823715 1.8980668 2.1541345 2.3338234
0000e0 c6 67 a9 3f 86 f7 f3 3f 6b 53 de 3f 7d 2f 9c 3f
       1.3234794 1.9059913 1.7369207 1.2201992
0000f0 13 59 18 40 53 23 e2 be c2 e0 f2 3f ee 2d ae 3f
       2.3804367 -0.44167575 1.8974841 1.3607767

bn3.running_var f4 [64]
000000 20 c4 16 40 96 58 a3 3f 2c 2f be 3f 1d ec c6 3f
       2.3557205 1.2761409 1.4858146 1.5540806
000010 bf f4 39 3f 92 24 4b 3f dd c3 14 40 4b af b1 3f
       0.7263908 0.79352677 2.3244545 1.388162
000020 8b 4c 8a 3f 5e 26 98 3f b9 8e f0 3f d1 13 47 40
       1.0804609 1.1886709 1.8793555 3.1105845
000030 af cb 2e 40 f2 ef 9f 3f a2 30 6e 3f 3a c8 b7 3f
       2.7311819 1.24951 0.9304296 1.4357979
000040 90 39 e6 3f 95 ab 35 3f 65 af 1b 3f a5 8b 82 3f
       1.7986317 0.7096494 0.60814506 1.0198866
000050 2b 3a a5 3f 8f a0 9c 3f 1b eb af 3f ae 3a 26 3f
       1.2908376 1.2236499 1.3743623 0.6493329
000060 b2 8a 7a 3f 0b 69 81 3f ea 5a 6c 3f 6e 4e b5 3f
       0.9786788 1.0110182 0.92326224 1.416456
000070 53 9f 1a 3f ba de 9c 3f 77 95 8a 3f 51 8a 41 3f
       0.6039936 1.2255471 1.0826863 0.7560168
000080 8e 97 8b 3f 77 73 e9 3f 20 97 73 40 b2 57 9c 3f
       1.0905626 1.8238362 3.806099 1.2214262
000090 3e 39 98 3f 7e e9 33 3f 6e 99 d0 3f a3 85 8e 3f
       1.1892469 0.70278156 1.6296823 1.1134533
0000a0 01 fe aa 3f 34 75 7f 3f ba d9 1a 3f ff 2a 1c 3f
       1.3358766 0.9978821 0.60488474 0.61003107
0000b0 58 1e 92 3f 5e b1 29 40 21 9d cf 3f 63 11 15 40
       1.141551 2.6514506 1.6219827 2.3291862
0000c0 d5 a6 d5 3f ae 86 9d 3f ef c0 0f 3f 84 84 b4 3f
       1.6691538 1.2306726 0.5615377 1.410294
0000d0 6b 67 8b 3f 77 75 2e 3f 71 07 af 3f 08 25 b7 3f
       1.0890936 0.6814799 1.3674146 1.4308176
0000e0 07 3c 98 3f ec 77 59 3f 4e 45 cf 3f 46 f7 65 3f
       1.1893319 0.8494861 1.6193025 0.89830434
0000f0 b3 7d 8f 3f 25 3e 54 3f 7a 29 96 3f 35 17 e4 3e
       1.1210235 0.82907325 1.1731408 0.44548956
