maml-notebook/completet_model/model-epoch_00049-train_loss_0.123-train_acc_0.884-test_loss_0.471-test_acc_0.866.pt (torch_old, 305688 bytes, 20 tensors)

conv1.weight f4 [64, 1, 3, 3]
0	0x3d32508f	0.043533858
1	0x3c559b12	0.01303746
2	0xbd7e3913	-0.06206615
3	0x3b8e4985	0.0043422603
4	0x3cdf9fe4	0.027297921
5	0x3cac629a	0.02104311
6	0x3d08861c	0.03333102
7	0x3cffb259	0.031212972
8	0x3d3575ec	0.044301912
9	0x3da1534f	0.07877218
10	0x3d98b67b	0.074566804
11	0x3d49eced	0.049298216
12	0x3cf2f07a	0.029655684
13	0xbd90f2c2	-0.070775524
14	0x3d8a6a3d	0.067585446
15	0xbd700ccc	-0.058605954
16	0xbd2d684f	-0.042335805
17	0xbe086aa8	-0.13321936
18	0x3d7ee4fe	0.062230103
19	0xbaedc2e6	-0.0018139749
20	0xbd3bd1a7	-0.045854237
21	0x3d28efef	0.041244444
22	0x3cfbb3c5	0.03072537
23	0x3bd84aa9	0.006600697
24	0xbd3d936b	-0.046283167
25	0x3ce91595	0.028452674
26	0x3d01ec10	0.031719267
27	0xbbe6ce75	-0.0070436546
28	0xbbe864cf	-0.0070920954
29	0xbd1a7925	-0.03771319
30	0xbdd1d599	-0.10245819
31	0x3cfeec2d	0.031118477
32	0x3d837ac5	0.06419901
33	0xbde99eed	-0.11407266
34	0x3db920d5	0.09039465
35	0x3da02bd1	0.07820857
36	0x3ddfea5c	0.109333724
37	0xbcddc172	-0.027069781
38	0xbd78064d	-0.060552884
39	0x3b0bad1e	0.0021312903
40	0x3d39fe4f	0.045408543
41	0xbc6b0d31	-0.014346407
42	0xbdcc1574	-0.09965029
43	0xbd947419	-0.07248706
44	0xbd98787c	-0.074448556
45	0x3d4cc4fb	0.049992543
46	0x3d2ebcf1	0.042660657
47	0xbcb56ec9	-0.022147553
48	0xbd315e88	-0.043303043
49	0xbd456eee	-0.048201494
50	0xbdac8c96	-0.08425252
51	0xbd40c89a	-0.04706631
52	0xbd89b3f7	-0.06723779
53	0x3ca27d1a	0.019835044
54	0xbcebbbe8	-0.028776124
55	0x3b4b1f1c	0.0030993884
56	0x3ce2561b	0.027628949
57	0xbd712499	-0.058872793
58	0xbc1d3f0c	-0.009597551
59	0x3d8bc4e0	0.0682466
60	0xbc7869c1	-0.015161932
61	0xbbd5f049	-0.0065288884
62	0x3d522eb0	0.051314056
63	0x3c1b4f97	0.009479425
64	0xbd89316e	-0.06698881
65	0xbc06d4bc	-0.008229431
66	0xbcbb800d	-0.022888208
67	0xbd5fc9fa	-0.05463598
68	0xbc85dfa7	-0.016341997
69	0xbcb9914b	-0.022652289
70	0xbd9e0de6	-0.07717495
71	0x3d463fa5	0.04840054
72	0xbd23a175	-0.0399489
73	0xbdd497d9	-0.10380525
74	0xbcc7bc56	-0.024381798
75	0x3d79c928	0.060982853
76	0xbd45a42b	-0.048252266
77	0xbd6b26b5	-0.05740996
78	0x3d802323	0.06256702
79	0x3d01cbcf	0.031688508
80	0xbdf20414	-0.11817184
81	0x3cbd8464	0.023134418
82	0xbd88c6de	-0.06678556
83	0xbd0f245e	-0.03494679
84	0x3dca9fa4	0.0989373
85	0xbc89e659	-0.016833471
86	0x3d48c08f	0.049011763
87	0x3c6864cc	0.014184188
88	0xbd005b1d	-0.031336892
89	0xbd75cfb2	-0.060012527
90	0xbbee33e7	-0.007269371
91	0xbc56a425	-0.013100659
92	0x3d0625f0	0.032751024
93	0x3d5d1847	0.05397823
94	0xbd6d8b3c	-0.057994112
95	0x3d299fbf	0.04141211
96	0xbc35a540	-0.011086762
97	0x3deb3eb4	0.11486569
98	0xbd145f75	-0.036223847
99	0x3d2da327	0.042391922
100	0xbc91a3c1	-0.01777828
101	0xbcc4e470	-0.024034709
102	0x3d12a303	0.03579999
103	0x3d97a1af	0.074038856
104	0x3c6d70d5	0.014492233
105	0xbd172347	-0.036898877
106	0xbcb630e5	-0.022240112
107	0x3d9aa5e1	0.0755117
108	0x3bd8e56d	0.0066191466
109	0xbd6ec038	-0.058288783
110	0xbc46225f	-0.012093156
111	0x3c2e852a	0.010651866
112	0xbd1863bb	-0.037204485
113	0xbc9d12bc	-0.019173972
114	0xbb76b7c7	-0.003764616
115	0x3db0dceb	0.08635887
116	0x3da9c3ac	0.082892746
117	0x3c0f634c	0.008751702
118	0xbcf8151f	-0.030283509
119	0x3d5eca5b	0.0543922
120	0x3d26d967	0.040734675
121	0xbd502f3b	-0.050826292
122	0xbdcca8f0	-0.0999316
123	0x3d88a590	0.066722035
124	0xbd9f78a1	-0.0778668
125	0xbd801eff	-0.06255912
126	0xbd7462a8	-0.0596644
127	0x3ccd12f6	0.025033455
128	0xbda26d0e	-0.07930957
129	0x3d22f47b	0.039783936
130	0xbcba89db	-0.022770813
131	0x3e0386ad	0.12844343
132	0xbb8067a2	-0.003918604
133	0x3c9ac632	0.018893335
134	0x3da6c26a	0.0814255
135	0x3d4deeaa	0.050276436
136	0x3da9aa9e	0.08284496
137	0x3c437cf1	0.011931644
138	0xbd10f03c	-0.035385355
139	0xbbbf205d	-0.0058327154
140	0x3da3c4c6	0.07996516
141	0xbd849caa	-0.06475194
142	0x3cd2f328	0.025750712
143	0x3d461ca7	0.04836717
144	0xbd400fa7	-0.046889927
145	0x3d1c8d8c	0.038220927
146	0xbd0ee9d7	-0.034890976
147	0xbcc30ce4	-0.023809858
148	0xbd888ebb	-0.06667849
149	0xbd4cf5a6	-0.050038956
150	0x3d8b9231	0.06814993
151	0x3d08bc0f	0.03338247
152	0x3d9b0dd9	0.075710006
153	0x3caecc5f	0.021337686
154	0xbce76e0e	-0.02825072
155	0x3cb93f3c	0.02261316
156	0x3d2d9744	0.042380586
157	0xbd7e2907	-0.062050845
158	0x3d2078e0	0.039177775
159	0x3d04b796	0.032401644
160	0xbd52ea99	-0.05149326
161	0x3d2860f6	0.041108094
162	0xbc898d37	-0.01679097
163	0x3cd9dfb7	0.026595933
164	0x3c78163c	0.01514202
165	0xbdada986	-0.084796
166	0x3dc4bc07	0.09606176
167	0x3c31f66e	0.010861976
168	0xbd1c2a6f	-0.038126405
169	0x3c8e16f4	0.01734493
170	0x3d28577d	0.04109906
171	0xbd20e477	-0.03928038
172	0x3ca3bcdd	0.019987518
173	0x3b0e7726	0.0021738498
174	0xbdbe4d03	-0.092920326
175	0xbd4f9d7b	-0.050687294
176	0xbd9dc82a	-0.07704194
177	0x3d09483d	0.033516157
178	0x3d3a4fed	0.04548638
179	0x3c475070	0.012165174
180	0xbda88f39	-0.082304426
181	0x3d78fef0	0.060790002
182	0x3d1896aa	0.03725306
183	0x3d6f6bc4	0.058452383
184	0x3cc6da53	0.024274027
185	0x3cc412e6	0.023934793
186	0xbc6a7ca2	-0.014311941
187	0xbd018c02	-0.031627662
188	0x3d722836	0.05912038
189	0xb9daf3be	-0.00041761802
190	0xbc79bcd4	-0.015242774
191	0x3d15b098	0.036545366
192	0xbd8576ca	-0.06516798
193	0xbd1b1318	-0.037860006
194	0xbdd61394	-0.10452953
195	0xbcf45ca6	-0.029829334
196	0x3b94f47e	0.0045457473
197	0xbd8fd8e6	-0.07023792
198	0xbd2fcead	-0.04292171
199	0x3c238f07	0.009982831
200	0xbd5cd3ce	-0.05391293
201	0xbde0cf39	-0.109770246
202	0xbd9e31ef	-0.07724368
203	0x3cf4640b	0.02983286
204	0xbb5a8278	-0.0033341926
205	0x3d472f22	0.048628934
206	0x3dcb1f66	0.09918098
207	0xbdda0feb	-0.10647567
208	0x3bb4cf62	0.005517886
209	0x3d867cfe	0.06566809
210	0xbc7eb5a9	-0.015546241
211	0xbce4f74b	-0.02794995
212	0x3d71978e	0.058982424
213	0xbd6c36fa	-0.057669617
214	0xbcd4a375	-0.025956849
215	0x3dc18ea4	0.09451035
216	0x3db96e7b	0.090542756
217	0x3ca1f895	0.019771853
218	0x3c2a0312	0.010376709
219	0x3cc49391	0.023996146
220	0x3d8c1632	0.06840171
221	0xbc146c38	-0.0090590045
222	0x3db565ae	0.088572845
223	0xbd743132	-0.05961723
224	0xbdae6190	-0.08514702
225	0x3d5b4506	0.053532623
226	0x3bbfa59a	0.0058485987
227	0xbd7cf326	-0.061755322
228	0x3db36d7d	0.087611176
229	0x3cb154bc	0.02164685
230	0xbbec0fa2	-0.007204012
231	0xbd0a53c3	-0.033771288
232	0x3dc2b0cf	0.0950638
233	0x3c81e5cc	0.015856646
234	0xbd848c44	-0.06472066
235	0xbd384c3a	-0.04499457
236	0xbd049b6b	-0.03237478
237	0x3d8df838	0.069321096
238	0xbd7690fc	-0.06019686
239	0x3d65446c	0.055973455
240	0x3d79985b	0.060936313
241	0x3dced82c	0.10099825
242	0xbc2b3922	-0.010450633
243	0xbd9ab9a9	-0.07554943
244	0xbdc17cce	-0.09447633
245	0x3c3aaceb	0.011393766
246	0x3c33dcee	0.010977967
247	0x3c83cdf7	0.016089423
248	0x3d3871b5	0.045030314
249	0xbc0b2e39	-0.008494907
250	0xbd8e8b02	-0.069601074
251	0xbdfc8e9a	-0.123318866
252	0xbda0add8	-0.07845658
253	0x3c41b2d9	0.011822426
254	0xbd6dfc9e	-0.058102243
255	0xbbd8d2b9	-0.006616917

conv1.bias f4 [64]
0	0xbc078e83	-0.008273724
1	0x3c1db8aa	0.009626547
2	0x3c276692	0.010217326
3	0xbaa980f7	-0.0012932111
4	0xb9858995	-0.00025470243
5	0x3b215b33	0.002462101
6	0xbbdeb94b	-0.006796991
7	0x3ba833d6	0.0051331325
8	0xbbd2bb5f	-0.006431028
9	0x3bae22d4	0.0053142104
10	0x3bc4c9af	0.006005488
11	0x3ac09c7e	0.0014695076
12	0xbb8f2e2e	-0.0043695187
13	0x3b93a28d	0.0045054615
14	0xbc5f3a90	-0.013624802
15	0xbb133393	-0.002246116
16	0xba747c32	-0.0009326368
17	0xbc0eb2a0	-0.00870958
18	0x3c1592f5	0.009129276
19	0xbb588180	-0.0033036172
20	0xbbcaa594	-0.006184289
21	0x3a80e257	0.000983308
22	0xbc405d57	-0.011741004
23	0x3b3dc777	0.0028958002
24	0x3bcb5012	0.0062046135
25	0x3ba30778	0.0049752556
26	0xbb9ea9a2	-0.004841999
27	0xbb66077e	-0.003509968
28	0x3c0900bb	0.008361991
29	0xbc357690	-0.011075631
30	0x3b4302b1	0.0029756243
31	0xbab5e0ba	-0.0013876178
32	0x3acee630	0.0015785154
33	0x3bc9de3e	0.0061605265
34	0xbc2895c2	-0.010289611
35	0x3c20748a	0.00979341
36	0x3befb1dd	0.007314904
37	0x3a1168de	0.00055469375
38	0xba1a87b4	-0.0005894855
39	0x3be29ada	0.0069154324
40	0x3bc79df0	0.0060918257
41	0xbb5c4a48	-0.003361361
42	0x3bc63229	0.00604846
43	0x3b434959	0.0029798357
44	0xbbc57e24	-0.006027
45	0x3ba012c6	0.0048850505
46	0xba8cc6d0	-0.0010740403
47	0xba9908c8	-0.0011675591
48	0x3c7adf36	0.015312007
49	0xbbe5c2be	-0.0070117405
50	0xbb13c9d8	-0.0022550728
51	0x3b71d3b1	0.003689986
52	0xbb6f917b	-0.003655522
53	0xbabad40b	-0.0014253868
54	0xbc59af0a	-0.0132863615
55	0x3a6b1765	0.00089680246
56	0x3ac712bd	0.001518808
57	0x3a46b1c4	0.000757959
58	0xba707781	-0.0009173081
59	0xbb3a4a66	-0.0028425693
60	0xbbd6b80e	-0.0065527027
61	0x3ae13c35	0.0017184081
62	0x3aa0a1a7	0.0012255207
63	0xba813b96	-0.0009859677

conv2.weight f4 [64, 64, 3, 3]
0	0x3cc8b4a0	0.024500191
1	0x3c4d3289	0.012524256
2	0xbcdcce92	-0.02695397
3	0x3cfe37e1	0.031032505
4	0x3d7074b2	0.05870504
5	0xbce061b4	-0.027390338
6	0x3cce27ec	0.02516552
7	0x3d2790c6	0.04090955
8	0xbcbe8049	-0.02325453
9	0xbd0673cc	-0.032825276
10	0x3cbe9026	0.023262095
11	0xbd945768	-0.07243234
12	0x3b801e86	0.0039098887
13	0x3ac4dc7a	0.001501932
14	0x3c1f2110	0.009712473
15	0x3d22d9de	0.039758556
16	0xbad4a162	-0.0016222412
17	0x3d91b35f	0.071142904
18	0xbd8d03df	-0.06885504
19	0xbcc606c1	-0.024173142
20	0xbda84154	-0.08215585
21	0xbc8bb39e	-0.017053422
22	0xbd0a4f1c	-0.03376685
23	0xbd747b2e	-0.059687786
24	0xbc39683b	-0.011316354
25	0x3a3a2f20	0.0007102359
26	0x3dc1be7c	0.0946016
27	0x3c0d6b83	0.00863159
28	0x3cda54e5	0.026651809
29	0xbc8e370a	-0.017360229
30	0xbd21bcb5	-0.039486606
31	0x3b9cb4ac	0.00478228
32	0xbda6e7d4	-0.081496865
33	0xbce380a7	-0.027771307
34	0xbd0451dd	-0.032304633
35	0xbd65fa32	-0.056146808
36	0xbbfcbc7f	-0.0077129
37	0x3d02e6a8	0.031958252
38	0x3d2f736d	0.042834688
39	0x3d129884	0.03578998
40	0xbd6428f5	-0.055703122
41	0xbc8172cf	-0.015801815
42	0xbd978aa8	-0.073994935
43	0xbcfff23f	-0.031243442
44	0x3d05b282	0.03264094
45	0xbc85c774	-0.016330458
46	0xbbe7e226	-0.0070765195
47	0xbd14148f	-0.03615242
48	0xbc7ec4b7	-0.01554983
49	0xbb6e93e5	-0.003640407
50	0xbca77bb9	-0.020444738
51	0xbc5ccc33	-0.013476419
52	0xbc9feaf5	-0.019521216
53	0x3cd6d537	0.026224716
54	0xbd841bdd	-0.06450627
55	0x3d84c688	0.06483179
56	0x3da1c65c	0.07899162
57	0xbc514dda	-0.012774909
58	0xbd12d0a6	-0.035843514
59	0x3c5daaa9	0.013529458
60	0xbd685484	-0.056721225
61	0xbd1b0ced	-0.037854124
62	0xbd486f2b	-0.048934143
63	0x3cdc20fa	0.026871193
64	0xbd75a7a4	-0.059974328
65	0xbc6be686	-0.014398223
66	0xbd247fe0	-0.040161014
67	0xbd0c15b7	-0.034200396
68	0xbc17d96c	-0.009268146
69	0xbcaa3649	-0.020777838
70	0xbcf2a7f9	-0.029621111
71	0xbc2d1f26	-0.010566508
72	0xbcd4cff1	-0.02597806
73	0xbaf78925	-0.0018885477
74	0xbd7d0cb0	-0.061779678
75	0xbb4936ca	-0.0030702823
76	0xbbdac2af	-0.00667604
77	0xbd6ee1cd	-0.05832081
78	0x3c935a85	0.017987499
79	0xbc1bf448	-0.00951869
80	0x3d5df155	0.05418523
81	0xbd6590a1	-0.056046132
82	0x3cd0807c	0.025451891
83	0xbd185d1f	-0.037198182
84	0x3b8a0d29	0.0042129946
85	0x3d9a0894	0.075211674
86	0xbd3c429a	-0.045961954
87	0xbd497b4b	-0.049189847
88	0xbd13e5b4	-0.036107734
89	0xbd802c46	-0.062584445
90	0x3c8f3e4e	0.017485764
91	0x3d38b01d	0.04508983
92	0x3da6b5fc	0.081401795
93	0xbca24553	-0.019808447
94	0x3d00dc45	0.031460065
95	0xbc828374	-0.015931822
96	0x3c8b453b	0.017000785
97	0x3d190fcf	0.037368592
98	0x3d8d5158	0.06900281
99	0x3d36fc07	0.044673946
100	0x3c789611	0.015172497
101	0x3cf8159d	0.030283744
102	0xbcd55292	-0.02604035
103	0xbca498a0	-0.020092309
104	0xbccec1d2	-0.025238905
105	0x3d0a18db	0.03371511
106	0xbd6e833c	-0.058230624
107	0x3d1a4ef6	0.03767296
108	0x3d1726f8	0.036902398
109	0xbc55fcc2	-0.01306075
110	0x3cd8795b	0.026425054
111	0x3d7f185a	0.062279083
112	0x3d309ab8	0.0431163
113	0xbd357ce9	-0.044308577
114	0x3c854c19	0.016271638
115	0xbd04682e	-0.032325916
116	0xbdc0d538	-0.09415668
117	0x3be60d22	0.0070206085
118	0x3cbaf978	0.022824034
119	0xbd059217	-0.032610025
120	0x3d79e1c7	0.061006334
121	0xbd772b85	-0.060344238
122	0xbbe36f28	-0.006940741
123	0xbc2dbef8	-0.0106046125
124	0x3cb62982	0.02223659
125	0x3dd6f10a	0.10495193
126	0x3c0de7c3	0.008661213
127	0xbb63ac47	-0.0034740136
128	0xbc2ad0e6	-0.010425782
129	0x3c9c606b	0.019088944
130	0x3cc0636c	0.023484908
131	0x3c97410d	0.018463636
132	0xbc1ad5b5	-0.009450366
133	0x3b6081b0	0.0034256987
134	0xbca9536f	-0.020669667
135	0x3d82fbd4	0.06395689
136	0xbdc4e859	-0.09614629
137	0xbdab4a17	-0.08363741
138	0x3ccf3da3	0.025297945
139	0x3d5d7aad	0.05407207
140	0xbcc57d63	-0.02410764
141	0x3d6679a9	0.056268368
142	0x3cf11114	0.029427089
143	0x3d6c5822	0.057701237
144	0xbd7b98f1	-0.061425153
145	0xbbeecee6	-0.007287848
146	0x3d53890c	0.05164437
147	0xbc9c1055	-0.019050756
148	0x3c2a6831	0.010400818
149	0xbcd6bf55	-0.026214281
150	0xbdca60c7	-0.0988174
151	0xbd186bde	-0.037212245
152	0x3c1d837a	0.009613866
153	0xbcb770c0	-0.02239263
154	0x3cca6295	0.02470521
155	0xbdacd9c7	-0.08439975
156	0xbcd2e718	-0.02574496
157	0xbceb0a2e	-0.028691377
158	0xbd6c8dd1	-0.057752434
159	0xbc728a64	-0.014803503
160	0xbbabc750	-0.0052422658
161	0xbd0b0e9a	-0.033949472
162	0xbc982522	-0.018572394
163	0x3d3f78bb	0.046745997
164	0x3db5560d	0.088543035
165	0x3d786c0b	0.060649913
166	0x3d800973	0.06251802
167	0xbd107572	-0.035268255
168	0x3d5f8309	0.054568324
169	0x3d0f67cb	0.035011094
170	0xbacb293d	-0.0015499961
171	0xbd7f8f1b	-0.062392335
172	0x3d3c541d	0.045978654
173	0xbbab1996	-0.005221556
174	0x3b59b161	0.0033217298
175	0x3d00db01	0.03145886
176	0xbc92eed4	-0.017936148
177	0xbd0669fd	-0.032815922
178	0xbd884be3	-0.06655099
179	0xbd70f881	-0.05883074
180	0x3d447ada	0.047968723
181	0xbd0c12a4	-0.034197465
182	0xbc11d9c6	-0.008902019
183	0xbd29c705	-0.041449565
184	0x3d7515f6	0.059835397
185	0x3d0227e5	0.031776328
186	0xbd1d537c	-0.038409695
187	0xbcd921cc	-0.026505373
188	0x38958272	7.129171e-05
189	0x3ca882b5	0.020570138
190	0x3dae90f7	0.085237436
191	0xbd195129	-0.037430916
192	0xbb28be56	-0.0025748215
193	0x3cd5f337	0.02611695
194	0xbceecd64	-0.029150672
195	0x3dc19822	0.09452845
196	0xbd6ed445	-0.058307905
197	0xbd09552e	-0.0335285
198	0x3c16186d	0.009161097
199	0x3d953424	0.07285336
200	0xbb984970	-0.0046474263
201	0xbd7066d4	-0.058691815
202	0xbb7a7eb4	-0.0038222494
203	0x3b0b69a5	0.0021272686
204	0xbc15c094	-0.0091401525
205	0xbda2b074	-0.07943812
206	0x3b8c4f06	0.0042818813
207	0x3cd2e8d9	0.025745796
208	0x3cc76bb2	0.024343345
209	0xbcc12896	-0.023578923
210	0xbb886c38	-0.0041632913
211	0x3cfbfaaa	0.030759174
212	0x3c62111e	0.013798026
213	0xbca1f7d3	-0.019771492
214	0xbd7f1ff8	-0.062286347
215	0xbc99df84	-0.018783338
216	0xba6f2bd6	-0.00091236585
217	0xbd67ae8e	-0.056562953
218	0x3d2fd2e9	0.04292575
219	0x3d6d7d4a	0.057980813
220	0xbcf9797f	-0.030453442
221	0x3ccce61b	0.025012067
222	0xbd5221a3	-0.05130161
223	0x3c43bc33	0.011946726
224	0x3cb8d082	0.022560362
225	0x3cfd2246	0.030900132
226	0x3d77d705	0.060507793
227	0xbcc86091	-0.024460109
228	0xbca59a2c	-0.020215116
229	0xbc81a4d9	-0.015825676
230	0xbdc7f754	-0.09763971
231	0x3b4e67b7	0.0031494924
232	0xbc6a5d5e	-0.014304487
233	0xbd27624c	-0.040865228
234	0x3d07e417	0.033176508
235	0x3d07de7c	0.033171162
236	0x3cb24dc1	0.021765592
237	0x3d17a361	0.037021045
238	0xbc5b09a0	-0.013368994
239	0x3ca17de1	0.019713344
240	0x3c8efc69	0.017454343
241	0xbccc12a9	-0.024911242
242	0x3ccc5cc1	0.024946572
243	0x3d525cfc	0.051358208
244	0xbb77d2e7	-0.0037814917
245	0xbcf46f16	-0.029838126
246	0x3ca52f3f	0.02016413
247	0x3cd50717	0.026004357
248	0x3c49ef14	0.012325067
249	0x3d8d85ef	0.069103114
250	0xbd4cea21	-0.05002797
251	0xbcd004c8	-0.025392905
252	0xb8594c56	-5.1807925e-05
253	0x3c21d05d	0.009876338
254	0xbd244449	-0.040104184
255	0x3d05ea32	0.03269405

conv2.bias f4 [64]
0	0xbc0d36bd	-0.008619008
1	0x3b2c8d2b	0.002632926
2	0xba1ecc2b	-0.0006057645
3	0x3bc39022	0.0059681097
4	0x3c061c51	0.008185462
5	0xba4e04be	-0.0007858983
6	0x3a72d94f	0.0009263949
7	0xbaa266e4	-0.0012390283
8	0xbbbe18cf	-0.0058012973
9	0x3b25f781	0.0025324526
10	0x3b9088aa	0.004410823
11	0xbbce9219	-0.0063040373
12	0xbb5638f9	-0.0032687767
13	0x399516b8	0.0002843642
14	0xbbbbc6c0	-0.00573048
15	0xbab0ce96	-0.0013489302
16	0x3b1fdde7	0.0024393739
17	0x3a06d896	0.0005143968
18	0xbb9a82fc	-0.0047153216
19	0x3b22002f	0.0024719348
20	0x3be6f8fe	0.007048725
21	0xbbb25ff0	-0.0054435655
22	0x3bb6ba16	0.0055763824
23	0x3bd1b51b	0.0063997633
24	0x3ba462c6	0.0050166575
25	0x391ac209	0.00014758868
26	0xbbcbdcff	-0.006221413
27	0x3b1bdb73	0.0023781925
28	0xbb8b5eb3	-0.0042532324
29	0x3b228c18	0.002480274
30	0xbbb5bb1f	-0.005545988
31	0xbb9483b5	-0.0045323023
32	0xbb1f1267	-0.0024272443
33	0xbc142ef1	-0.009044395
34	0x3a96f004	0.0011515622
35	0x3a9deade	0.0012048145
36	0x3b21b6de	0.0024675648
37	0x39964ebb	0.00028668888
38	0x3b0fd5c6	0.0021947487
39	0xbb377d6b	-0.002799834
40	0x3ae1a5a8	0.0017215507
41	0x3a47dc90	0.0007624114
42	0xbb107276	-0.002204088
43	0xbaf1888d	-0.0018427536
44	0x3c2e2322	0.0106284935
45	0xba316d72	-0.0006768323
46	0xba09032c	-0.0005226608
47	0x3b0444a0	0.0020182505
48	0x3b3f3019	0.0029172956
49	0x3bfa0cc9	0.0076309186
50	0xbb9b5fbf	-0.0047416384
51	0xbb164667	-0.0022930147
52	0x3aa995a7	0.0012938277
53	0xbb8add7c	-0.004237829
54	0xbbdc27f6	-0.006718631
55	0xba80794f	-0.0009801778
56	0x3b180408	0.0023195762
57	0x38166b7f	3.58629e-05
58	0xbb5d404b	-0.0033760245
59	0xba3c9bd5	-0.00071948516
60	0xbaee6efa	-0.0018191033
61	0xbbb8e919	-0.005643022
62	0xbb3c90d2	-0.0028772843
63	0xbb44eb1e	-0.0030047367

conv3.weight f4 [64, 64, 3, 3]
0	0xbd74d766	-0.059775732
1	0xbd44ad3c	-0.04801677
2	0x3d3073eb	0.043079298
3	0x3d479ccd	0.04873352
4	0xbba6a440	-0.005085498
5	0xba2a010c	-0.00064851413
6	0xbd64ac8d	-0.05582862
7	0xbd229afd	-0.03969859
8	0x3c83e628	0.016100958
9	0xbd6dbef8	-0.05804345
10	0x3cf2ca60	0.029637516
11	0xbb6983ee	-0.0035631615
12	0x3cbc04db	0.022951534
13	0xbc939f17	-0.018020196
14	0xbd02a803	-0.03189851
15	0xbda3dfb2	-0.08001651
16	0xbd00a2ee	-0.03140538
17	0x3c964378	0.018342718
18	0x3caf2b81	0.021383049
19	0x3c318963	0.010835978
20	0xbb935783	-0.004496516
21	0x3c9f94c0	0.01948011
22	0x3c8fcdd6	0.017554205
23	0xbd22ca44	-0.039743677
24	0xbcdd4ade	-0.027013239
25	0x3d9c9003	0.076446556
26	0x3cd8bdc0	0.026457667
27	0xbd5baceb	-0.053631704
28	0xbc73a5d7	-0.014871082
29	0xbbb298f1	-0.005450361
30	0x3d0bc20d	0.034120608
31	0x3d528817	0.051399317
32	0x3d181c75	0.037136514
33	0x3d489cc3	0.048977625
34	0x3c337db5	0.010955264
35	0x3d8a082f	0.06739842
36	0xbbe2dfd3	-0.0069236546
37	0x3d042245	0.032259244
38	0x3cc4b5fc	0.024012558
39	0x3d26f2d9	0.04075894
40	0xbd1b2d24	-0.037884846
41	0x3cd872bc	0.026421897
42	0xbccd0c7d	-0.025030369
43	0xbdadafb0	-0.08480775
44	0xbb95ce7f	-0.0045717354
45	0xbd212a35	-0.039346892
46	0xbc7f9b68	-0.015601017
47	0xbd2d13fc	-0.042255387
48	0x38769020	5.8785197e-05
49	0xbd5070e9	-0.05088893
50	0xbd9b6704	-0.07588008
51	0xbcbc5b0a	-0.02299263
52	0xbd830a44	-0.063984424
53	0xbd107b6d	-0.035273958
54	0xbd29759c	-0.041371927
55	0x3b5a9d8b	0.0033358063
56	0x3d367e5a	0.044554092
57	0x3bd615ba	0.0065333517
58	0x3b029b9a	0.0019929172
59	0xbccdbb8f	-0.025113849
60	0xbd43b0b2	-0.04777593
61	0xbcfbba40	-0.03072846
62	0x3d105007	0.03523257
63	0xbce58357	-0.02801673
64	0x3d37b567	0.044850733
65	0x3b9b2f41	0.0047358577
66	0xbcc1b647	-0.023646487
67	0xbbb55e7e	-0.005534946
68	0x3d5e3bff	0.054256435
69	0xbde49501	-0.11161233
70	0xbc14d56b	-0.009084086
71	0x3cd3613a	0.025803197
72	0x3d82471d	0.0636122
73	0x3d11bfe3	0.035583388
74	0xbc8943b9	-0.016755925
75	0x3d5b77b7	0.053580966
76	0xbd815d62	-0.063166395
77	0xbb859cca	-0.0040775286
78	0x3de2b4d8	0.110696495
79	0x3d079776	0.03310343
80	0xbd22e564	-0.039769545
81	0xbcc21cd1	-0.023695381
82	0x3caed362	0.02134103
83	0x3cc6891b	0.024235299
84	0x3adc35ea	0.0016800736
85	0xbd278bc3	-0.04090477
86	0x3d425664	0.04744567
87	0x3b013f2b	0.001972149
88	0x3d8e1b5a	0.06938811
89	0x3b645f15	0.0034846712
90	0x3bac03d8	0.0052494816
91	0xbd2155a3	-0.03938831
92	0x3d59725c	0.053087577
93	0x3cf78165	0.030213067
94	0xbd90d73c	-0.07072303
95	0xbd646d46	-0.055768274
96	0xbdb6bed9	-0.0892312
97	0xbc11b6df	-0.0088936975
98	0x3cd67dad	0.026182974
99	0x3d32240a	0.0434914
100	0xbb4510df	-0.003006987
101	0x3c817bdf	0.015806137
102	0x3d1aa51c	0.037755117
103	0xbc6178a1	-0.01376167
104	0x3d71d158	0.059037536
105	0x3d2f7e40	0.04284501
106	0x3d7e1c41	0.062038664
107	0xbcc5b4c7	-0.024134053
108	0xbd103d58	-0.035214752
109	0xbd389aee	-0.045069627
110	0xbc5929c1	-0.013254584
111	0x3c438d3c	0.011935528
112	0xbd01198c	-0.031518504
113	0xbcc5b29f	-0.024133025
114	0x3d01a57f	0.03165197
115	0x3c4160a3	0.011802825
116	0x3c5a533a	0.013325507
117	0x3db16e8a	0.08663662
118	0xbcb43444	-0.021997578
119	0x3cb14b58	0.021642372
120	0x3d542a9b	0.051798444
121	0xbd1c2a8d	-0.038126517
122	0x3d246b46	0.040141366
123	0xbb326394	-0.0027219998
124	0xbc3a125b	-0.011356915
125	0xbc51b650	-0.012799814
126	0xbb0e58df	-0.0021720452
127	0x3cb3150e	0.021860626
128	0xbd09c792	-0.03363759
129	0x3ce7f8f3	0.02831695
130	0x3cfe2837	0.031025035
131	0x3d00ad9f	0.031415578
132	0x3cca6374	0.024705626
133	0xbac15561	-0.0014750176
134	0xbd9f2a9f	-0.07771801
135	0x3d8ddd0d	0.06926928
136	0xbd86ff44	-0.06591657
137	0xbd3e0b2d	-0.046397377
138	0x3b95aaec	0.0045674946
139	0x3bf6657c	0.007519422
140	0x3d5c2436	0.05374547
141	0x3c9d3c1e	0.019193705
142	0xbc82c275	-0.015961865
143	0x3d2f90d6	0.042862736
144	0xbc91bfcd	-0.017791653
145	0xbd6b492b	-0.057442825
146	0x3d46ab6d	0.048503328
147	0xbd4d6867	-0.050148394
148	0x3bdd0749	0.006745253
149	0x3bc429e7	0.0059864405
150	0x3d48c7f8	0.04901883
151	0xbc75c7ff	-0.015001296
152	0xbd4f9f85	-0.05068924
153	0x3c383af5	0.011244525
154	0x3c99d0a8	0.018776253
155	0x3dcb6bf1	0.099326976
156	0x3bf1f9e4	0.0073845256
157	0x3c7ba84c	0.015359949
158	0x3da94d6c	0.0826672
159	0xbd0c5f56	-0.034270607
160	0x3d7ccf62	0.061721213
161	0xbd372f5d	-0.044722904
162	0x3ccbf1ac	0.024895512
163	0x3d15cfbc	0.036575064
164	0x3cd076c6	0.02544726
165	0xbd695f42	-0.05697561
166	0xbd8a739b	-0.06760331
167	0xbbd61afb	-0.006533978
168	0xbd606e0a	-0.05479244
169	0x3cf90a8b	0.030400535
170	0x3d836676	0.06416027
171	0x3d41c3d3	0.047305893
172	0x3d1c704a	0.038193025
173	0x3d206915	0.039162714
174	0xbb86f64a	-0.0041187154
175	0x3d1339b8	0.035943717
176	0x3c218010	0.009857193
177	0x3d13fa4b	0.03612737
178	0x3d01b000	0.031661987
179	0x3c461382	0.012089612
180	0x3bd2cc4f	0.006433047
181	0x3d1c675b	0.038184505
182	0x3d83a062	0.06427075
183	0xbd61bd83	-0.055112373
184	0x3c85a5de	0.016314443
185	0xbc4f638a	-0.012658009
186	0xbc77df45	-0.015128915
187	0xbd1b75a9	-0.037954006
188	0x3c7e2ac7	0.015513129
189	0xbcd3c489	-0.025850551
190	0x3d431d3f	0.047635313
191	0x3c96362d	0.01833638
192	0xbd1ba3f8	-0.03799817
193	0xbd7b9cc3	-0.061428796
194	0x3dbf7699	0.093487926
195	0xbb519661	-0.0031980502
196	0xbcdaace2	-0.026693765
197	0xbc0d3e02	-0.008620741
198	0x3c9d2816	0.019184154
199	0xbbf61c1c	-0.007510675
200	0xbb38bcd3	-0.002818872
201	0xbcc8b19f	-0.024498759
202	0xbd8039ea	-0.06261046
203	0x3d864eae	0.06557976
204	0xbc0c6a0d	-0.008570206
205	0x3cdd1a56	0.026990097
206	0x3de7b7d0	0.11314356
207	0xbce613f4	-0.028085686
208	0x3c9fa7e1	0.01948923
209	0x3de95df3	0.113948725
210	0xbd09400d	-0.03350835
211	0x39ef87fe	0.00045686954
212	0xbad06acd	-0.001590097
213	0xbdb25c6b	-0.087090336
214	0x3d12a660	0.0358032
215	0xbce2cc86	-0.027685415
216	0x3d0e234e	0.034701638
217	0xbd614c9b	-0.055004697
218	0xbd11cfbe	-0.03559851
219	0xbbff8425	-0.0077977353
220	0x3d2b91e8	0.041887194
221	0x3cb7f84e	0.022457268
222	0x3c14b2b3	0.009075808
223	0xbc0382a3	-0.008026752
224	0x3d15f3bf	0.036609408
225	0xbdd531e3	-0.10409906
226	0xbd12e49b	-0.035862546
227	0x3cb6071d	0.022220189
228	0x3d223beb	0.039607923
229	0x3d8aabfd	0.067710854
230	0xbc42f9a5	-0.01190034
231	0x3d0f0d8c	0.03492503
232	0xbbb2d9fb	-0.005458114
233	0x398c87b8	0.00026804
234	0x3d53f906	0.05175116
235	0x3bf43621	0.0074527417
236	0xbcc80f2f	-0.024421303
237	0x3da590f8	0.08084291
238	0xbd6221b6	-0.05520793
239	0x3d08398a	0.033258
240	0xbd8ddc79	-0.069268174
241	0xbc44d451	-0.012013511
242	0xbdfa5654	-0.12223497
243	0x3c701342	0.014653029
244	0xbc7f0565	-0.015565251
245	0xbdc0142f	-0.0937885
246	0x3d0ed07d	0.0348668
247	0xbd717f4b	-0.058959287
248	0xbc98c13e	-0.018646833
249	0xbc840dd4	-0.016119875
250	0xbc36a3cc	-0.011147451
251	0x3b88648c	0.0041623767
252	0x3d122ef6	0.035689317
253	0x3c2d8327	0.010590351
254	0xbd1cca3d	-0.038278807
255	0xbd1e1815	-0.038597185

conv3.bias f4 [64]
0	0x3d1e1a42	0.03859926
1	0x3d34bde8	0.04412642
2	0x3c5211d3	0.012821632
3	0x3d2222eb	0.03958408
4	0x3c4cb71a	0.012494827
5	0xbd1b0180	-0.037843227
6	0x3d0f30d6	0.034958683
7	0x3d2a9e26	0.04165473
8	0x3ac575de	0.0015065034
9	0x3d15d15f	0.036576625
10	0x3bb507ff	0.005524635
11	0xbcc70058	-0.024292156
12	0x3c1c21bb	0.009529526
13	0xbd093858	-0.033501
14	0xbc32ba93	-0.010908741
15	0xbce4fe87	-0.0279534
16	0xbcf76a8d	-0.030202175
17	0x3d38d0d3	0.045121025
18	0xbc84ca00	-0.016209602
19	0x3d344a64	0.044016257
20	0xbd20ec2d	-0.039287735
21	0x3d08705e	0.033310287
22	0x3d1aa11b	0.0377513
23	0xbc280e81	-0.010257364
24	0xbd1e3f61	-0.03863466
25	0x3cb8d205	0.022561083
26	0x3d28598a	0.041101016
27	0xbb839c4a	-0.004016434
28	0x3c9ff881	0.019527676
29	0x3c94defb	0.018172732
30	0x3ca05982	0.01957393
31	0x3d1a49d5	0.037668068
32	0x3d2a9c79	0.04165313
33	0x3cf6e2a7	0.030137373
34	0xbcffd6c3	-0.031230336
35	0xbc9f00ef	-0.019409625
36	0xbd195c32	-0.03744144
37	0x3d3163fb	0.04330824
38	0x3cfd941f	0.030954419
39	0x3d15fafd	0.036616314
40	0x3d28293c	0.04105495
41	0xbc9f5495	-0.019449512
42	0xbcea5fcd	-0.028610134
43	0x3ced5d9f	0.028975306
44	0x3d173185	0.03691246
45	0x3cc026f2	0.02345607
46	0xbb8618c1	-0.0040923064
47	0x3cfe35b8	0.031031474
48	0xbc405978	-0.011740081
49	0x3d1e9def	0.038724836
50	0x3bb47554	0.0055071507
51	0x3d1d89ed	0.038461614
52	0x3caa6b94	0.02080325
53	0x3d37d7b4	0.044883445
54	0x3d3819ac	0.044946358
55	0x3d3e8c6c	0.046520635
56	0x3ce1705e	0.027519401
57	0x3d358576	0.04431673
58	0x3d2bffba	0.041991927
59	0x3d29ffaf	0.041503605
60	0x3d37a826	0.044838093
61	0xbd1db2f4	-0.03850074
62	0x3d399447	0.045307424
63	0x3d2e395f	0.042535182

bn1.weight f4 [64]
0	0x3f832dd4	1.0248361
1	0x3f7fc447	0.9990887
2	0x3f8067b9	1.0031654
3	0x3f80cc3a	1.0062325
4	0x3f78f1c6	0.97243917
5	0x3f7d5b88	0.9896779
6	0x3f8338d5	1.0251719
7	0x3f7a783b	0.9783971
8	0x3f7ba60e	0.98300254
9	0x3f7caa70	0.98697567
10	0x3f7e3c02	0.99310315
11	0x3f861f30	1.0478268
12	0x3f808710	1.0041218
13	0x3f786514	0.9702923
14	0x3f7cb7f2	0.9871818
15	0x3f8625bf	1.0480269
16	0x3f80a4b4	1.0050263
17	0x3f84e8ab	1.0383505
18	0x3f830a06	1.0237434
19	0x3f7d0501	0.9883576
20	0x3f811147	1.0083398
21	0x3f7ac78d	0.9796074
22	0x3f7a0747	0.97667354
23	0x3f808699	1.0041076
24	0x3f855ac0	1.041832
25	0x3f845636	1.033881
26	0x3f816579	1.0109092
27	0x3f811976	1.0085895
28	0x3f824b74	1.0179276
29	0x3f8445f7	1.0333852
30	0x3f803556	1.0016277
31	0x3f7bafe6	0.98315275
32	0x3f79809c	0.9746187
33	0x3f7934ec	0.9734638
34	0x3f7a8449	0.978581
35	0x3f80fa30	1.0076351
36	0x3f7e22dc	0.9927194
37	0x3f823583	1.017258
38	0x3f7b920a	0.9826971
39	0x3f8286e8	1.019742
40	0x3f841bce	1.0320985
41	0x3f7bf891	0.9842616
42	0x3f7e849f	0.99421114
43	0x3f835bc7	1.0262383
44	0x3f7cc479	0.98737293
45	0x3f7d5c99	0.9896942
46	0x3f815722	1.0104716
47	0x3f8484aa	1.0352986
48	0x3f819ba1	1.0125619
49	0x3f7853b5	0.97002727
50	0x3f7b7541	0.9822579
51	0x3f810204	1.007874
52	0x3f7a2fae	0.97729003
53	0x3f7c3518	0.98518515
54	0x3f855bcb	1.0418638
55	0x3f7e7d96	0.9941038
56	0x3f7abf7d	0.9794844
57	0x3f78320c	0.96951365
58	0x3f794bee	0.97381485
59	0x3f809dbe	1.0048139
60	0x3f812602	1.0089724
61	0x3f82c0bb	1.0215067
62	0x3f80b23f	1.0054396
63	0x3f81a0c5	1.0127188

bn1.bias f4 [64]
0	0xbcb1f553	-0.021723425
1	0xba8e4820	-0.0010855235
2	0xbd043b41	-0.03228307
3	0xbc30970f	-0.010778203
4	0xbd0a4d62	-0.033765204
5	0x3ad19bd0	0.001599187
6	0xbcd3b5d4	-0.025843538
7	0xbbd6d499	-0.0065561053
8	0xbc2ed221	-0.010670216
9	0x3d0b1296	0.03395327
10	0xbc3f373b	-0.011670883
11	0x3c85bb3d	0.016324634
12	0xbd1798fb	-0.037011128
13	0xb9a93631	-0.00032274568
14	0xbcebe58e	-0.028795984
15	0x3c0c3629	0.008557835
16	0x3bdcaea6	0.006734687
17	0xbcb48102	-0.022034172
18	0xbd048a1d	-0.032358278
19	0xbc34be95	-0.011031766
20	0xbc1283c3	-0.008942547
21	0x3cd44041	0.025909545
22	0x3ce828ba	0.028339732
23	0xbc0abcc9	-0.008467861
24	0xbcbf2942	-0.023335103
25	0x3c29fc13	0.010375041
26	0xbd12a432	-0.03580112
27	0x3ccb9376	0.024850588
28	0x3d0158fd	0.031579006
29	0xbcedfe79	-0.029052006
30	0x3a2eba1a	0.00066653045
31	0xbc8cf238	-0.017205343
32	0xbd341b77	-0.043971505
33	0xbc22db83	-0.009940031
34	0x3c6764f8	0.014123194
35	0xbc96a890	-0.018390924
36	0xbc85f707	-0.016353143
37	0xbce84af1	-0.028356047
38	0xbc41780b	-0.011808406
39	0xbcdf9f35	-0.027297596
40	0x3cf05d0d	0.029341245
41	0x3befc8fc	0.0073176604
42	0xbb8120ec	-0.003940692
43	0x3c49031b	0.012268807
44	0x3bffe237	0.0078089493
45	0x3c8e2ffc	0.017356865
46	0xbc857ad3	-0.016293919
47	0xbb996a4d	-0.0046818615
48	0xbd3a0a81	-0.045420174
49	0x3c203e93	0.009780544
50	0x3ce096a4	0.027415581
51	0x3afb0416	0.0019150998
52	0xbc810fa3	-0.015754526
53	0xbb37fd01	-0.0028074386
54	0xbc9ea103	-0.019363886
55	0x3c3e285a	0.0116063
56	0x3ba884be	0.005142777
57	0x3c3f4243	0.011673513
58	0x3cfc86fd	0.030826086
59	0x3c86e8e5	0.016468475
60	0xbb6f9c36	-0.0036561615
61	0x3af15915	0.0018413389
62	0xbc9784fb	-0.018496027
63	0xbc6804bb	-0.014161284

bn1.running_mean f4 [64]
0	0xbce989e6	-0.028508138
1	0x3c2be2ba	0.010491068
2	0xbb6a653c	-0.0035765907
3	0xba013dac	-0.00049301493
4	0x3cc9c8e1	0.02463192
5	0x3ce895af	0.028391687
6	0xbc2fd67c	-0.010732289
7	0x3d03484a	0.032051362
8	0x3cc5f168	0.024162963
9	0x3c0c29df	0.008554905
10	0xbc1aae65	-0.009440993
11	0xbc890f5b	-0.016730955
12	0xbc3c04c4	-0.011475746
13	0x3cc52f5b	0.024070432
14	0xbcf90bdf	-0.030401168
15	0xbcde953c	-0.02717077
16	0xb958a9a8	-0.00020662567
17	0xbc818ae1	-0.015813293
18	0x39ea9366	0.00044741778
19	0x3c80f0da	0.015739847
20	0xbcbf4a9d	-0.023351008
21	0x3d191843	0.037376653
22	0x3a8f4377	0.001093014
23	0x3b8ae6f2	0.0042389566
24	0xbc52d25f	-0.012867539
25	0xbc910383	-0.01770187
26	0xbc7242b1	-0.014786408
27	0x3d0a10d5	0.03370746
28	0x3ccdf013	0.02513889
29	0xbd0a6a68	-0.033792883
30	0x3d063a32	0.032770343
31	0xbc43da78	-0.0119539425
32	0xbcf374e3	-0.029718822
33	0x3c05f7a8	0.008176722
34	0x3d96f725	0.07371358
35	0xbb9cf074	-0.0047894064
36	0xbc5d3793	-0.013502019
37	0xbb074cf8	-0.0020645242
38	0xbbc6defd	-0.0060690627
39	0xbcb0528c	-0.021523736
40	0x3babdb04	0.0052446146
41	0xbb22d81d	-0.0024848052
42	0x3a954d83	0.0011390898
43	0xbc388adc	-0.011263575
44	0x3c694b9e	0.01423922
45	0x3c1bd943	0.009512248
46	0x3d1d1ba1	0.038356427
47	0xbc8ab087	-0.016929878
48	0x3b96032d	0.0045780153
49	0x3c22bf43	0.009933296
50	0x3cb5698f	0.02214506
51	0x3d07e29f	0.033175107
52	0xbb8c5ff5	-0.0042839
53	0x3c9fa7e3	0.019489234
54	0xbcdc8173	-0.026917195
55	0x3d4c6483	0.049900543
56	0x3d1747db	0.03693376
57	0x3cc5d614	0.024149932
58	0xb9d05edd	-0.0003974353
59	0x3cd70b92	0.026250634
60	0xbce42a9f	-0.027852355
61	0x3a6532dc	0.00087432354
62	0x3b0de57d	0.0021651678
63	0x3cfa2672	0.03053591

bn1.running_var f4 [64]
0	0x3cc6c022	0.024261538
1	0x3daba750	0.08381522
2	0x3c89830a	0.016786117
3	0x3d3ad12a	0.04560963
4	0x3d896972	0.06709565
5	0x3d5dd3a9	0.054156933
6	0x3c81039a	0.015748788
7	0x3d1a2f99	0.03764305
8	0x3d8f3533	0.06992569
9	0x3cafecb2	0.02147517
10	0x3c7c8db8	0.015414648
11	0x3ccc366b	0.024928292
12	0x3d034405	0.03204729
13	0x3d4049df	0.04694545
14	0x3d397b4e	0.04528361
15	0x3d33598d	0.043786574
16	0x3d0648e4	0.032784358
17	0x3c025846	0.007955616
18	0x3c98bdc1	0.01864517
19	0x3d2bef7c	0.041976437
20	0x3cc6cd3e	0.024267789
21	0x3d8ad427	0.06778746
22	0x3d6edbef	0.058315214
23	0x3d108af2	0.03528876
24	0x3d4a4de4	0.04939069
25	0x3d1f6ff6	0.038925134
26	0x3d40c707	0.047064807
27	0x3d8bac6d	0.06819997
28	0x3cc7652a	0.024340231
29	0x3d1b6b66	0.03794422
30	0x3d4824d0	0.048863232
31	0x3d7e17dc	0.062034473
32	0x3d83c2fb	0.06433674
33	0x3d05b55e	0.03264367
34	0x3e904b84	0.28182614
35	0x3cd9fa75	0.026608685
36	0x3d701824	0.058616772
37	0x3c90adf7	0.017661078
38	0x3cc8807c	0.024475329
39	0x3d489642	0.048971422
40	0x3d0a0056	0.033691727
41	0x3cf3079b	0.029666713
42	0x3c3e93c0	0.011631906
43	0x3c87cde4	0.016577668
44	0x3d049c63	0.032375704
45	0x3c32d688	0.010915406
46	0x3d7d0e7e	0.0617814
47	0x3cd21b8f	0.025647907
48	0x3d4b333f	0.04960942
49	0x3cf2d2f8	0.029641613
50	0x3d6c150e	0.057637267
51	0x3d4bfe75	0.049803216
52	0x3cde8b12	0.027165923
53	0x3cba5f41	0.022750499
54	0x3d06c791	0.032905165
55	0x3dc34218	0.09534091
56	0x3d74f923	0.059807908
57	0x3d34fead	0.04418819
58	0x3cd8624b	0.026414057
59	0x3d65b155	0.05607732
60	0x3cf0b772	0.029384349
61	0x3d202387	0.03909638
62	0x3d32cc41	0.043651823
63	0x3d57d0d2	0.05268938

bn2.weight f4 [64]
0	0x3f7ef373	0.99590224
1	0x3f7b7d78	0.98238325
2	0x3f7bb603	0.983246
3	0x3f7ec6e8	0.99522257
4	0x3f830ac9	1.0237666
5	0x3f7995fc	0.97494483
6	0x3f814013	1.0097679
7	0x3f83dae7	1.0301179
8	0x3f83c4c3	1.0294422
9	0x3f7f71d2	0.9978305
10	0x3f7ac6ff	0.97959894
11	0x3f7a1934	0.97694707
12	0x3f7c524e	0.98563087
13	0x3f805524	1.0025983
14	0x3f8049ca	1.0022519
15	0x3f830aa7	1.0237626
16	0x3f7b72ac	0.9822185
17	0x3f80dee0	1.0068016
18	0x3f838891	1.0276052
19	0x3f8370e2	1.0268824
20	0x3f81bdd4	1.0136056
21	0x3f83c332	1.0293944
22	0x3f800446	1.0001304
23	0x3f814363	1.009869
24	0x3f7b1533	0.9807922
25	0x3f7f4f31	0.9973021
26	0x3f8395ee	1.028013
27	0x3f7d962f	0.99057287
28	0x3f7e676a	0.9937655
29	0x3f821fb0	1.016592
30	0x3f78d06c	0.97193027
31	0x3f802727	1.0011948
32	0x3f799349	0.97490364
33	0x3f7b6f62	0.9821683
34	0x3f80d743	1.0065693
35	0x3f7f98d8	0.99842596
36	0x3f7b57d2	0.9818088
37	0x3f7f359d	0.9969118
38	0x3f80e373	1.0069412
39	0x3f8277a6	1.0192764
40	0x3f7bb691	0.9832545
41	0x3f7ac2e1	0.9795361
42	0x3f7e924f	0.99442
43	0x3f81faa4	1.0154614
44	0x3f82514f	1.0181063
45	0x3f7bb7bd	0.9832724
46	0x3f7d6774	0.9898598
47	0x3f7bcd1a	0.98359835
48	0x3f8109cf	1.0081118
49	0x3f76c026	0.96386945
50	0x3f811371	1.0084058
51	0x3f7d6928	0.9898858
52	0x3f7abfe3	0.97949046
53	0x3f7bb965	0.98329765
54	0x3f821639	1.0163032
55	0x3f77fde6	0.96871793
56	0x3f83692e	1.0266473
57	0x3f848b02	1.0354922
58	0x3f7fd636	0.99936235
59	0x3f8040a8	1.0019732
60	0x3f7ac54c	0.979573
61	0x3f7f47c2	0.9971887
62	0x3f7a1ae0	0.9769726
63	0x3f817ae2	1.0115626

bn2.bias f4 [64]
0	0x3c491d05	0.012274985
1	0x3ca4625e	0.020066436
2	0xbc9e9f5c	-0.019363098
3	0xbb716c99	-0.003683841
4	0x3cba29d5	0.022725025
5	0xbc8e628d	-0.017380977
6	0xbd21fd5c	-0.039548263
7	0xbc9cd5ed	-0.019144977
8	0xbbccef56	-0.006254117
9	0x3c8ba2df	0.017045436
10	0xbd100a49	-0.03516606
11	0x3d032aa7	0.0320231
12	0xbc898cf4	-0.016790845
13	0xbcce4666	-0.025180053
14	0x38706504	5.7314537e-05
15	0xbd043c72	-0.032284208
16	0x3c2dc4e4	0.010606024
17	0x3ca25455	0.019815603
18	0xbc72d747	-0.014821834
19	0x3b0c4fa2	0.002140977
20	0x3c8a206e	0.016861167
21	0xbcc913fd	-0.024545664
22	0x3d122752	0.03568203
23	0x3c0fdf30	0.008781239
24	0xbcbfba0c	-0.023404144
25	0x3ca69b6d	0.020337785
26	0xbb1d9b7e	-0.002404898
27	0xbccbe986	-0.024891626
28	0x3c9e47c9	0.01932134
29	0xbc6c7ee5	-0.014434551
30	0xbcc7337b	-0.02431654
31	0xbc510b82	-0.012759091
32	0xba4f123f	-0.0007899142
33	0xbb3a8073	-0.002845791
34	0xbd1b2c27	-0.037883904
35	0x3b9bfc76	0.0047603203
36	0xbce45a1b	-0.027874997
37	0xb99ab13e	-0.00029505225
38	0xbcc68e3c	-0.024237745
39	0xbcb1e97a	-0.021717776
40	0xbcdfa6ec	-0.027301274
41	0x3d1898a3	0.03725494
42	0x3b35fdc0	0.0027769655
43	0xbc3c5572	-0.011494981
44	0xbcd2dde3	-0.02574057
45	0x3c8bb0f6	0.017052155
46	0xbcdac3f5	-0.026704768
47	0xbc7623a2	-0.015023144
48	0x3ce10900	0.027470112
49	0x3cbc1a7f	0.022961853
50	0x3cec9c03	0.028882986
51	0x3be94abb	0.0071195043
52	0xbbf6bfec	-0.007530203
53	0x3c78b683	0.015180233
54	0x3b74c390	0.003734801
55	0xbc3929f1	-0.0113015035
56	0xbcf6c39e	-0.030122574
57	0x3cb9ce02	0.02268124
58	0xbd0be94d	-0.03415804
59	0x3d250ad4	0.04029353
60	0x3bcee638	0.0063140653
61	0x38c783dd	9.513621e-05
62	0xbcb8344a	-0.02248587
63	0x3cad7acc	0.021176718

bn2.running_mean f4 [64]
0	0xbfbbdf27	-1.4677476
1	0x3fec4c90	1.8460865
2	0x3f250297	0.64457077
3	0x402e9939	2.728102
4	0x3f72f750	0.9490862
5	0xbff0237e	-1.8760831
6	0x405f93ef	3.4934042
7	0xbe8a87f6	-0.27056855
8	0x3f1097cd	0.5648163
9	0x3ea9afb7	0.33141872
10	0xbf0a62f5	-0.54057246
11	0x40112ff2	2.2685513
12	0xc00b467f	-2.1761777
13	0x4057bbef	3.3708456
14	0xc01d5755	-2.4584553
15	0x3fae7b37	1.3631352
16	0x405ae374	3.4201326
17	0xbfef3573	-1.8688186
18	0x3ef1583f	0.4713764
19	0x3e8cdfa6	0.2751438
20	0xc067fe6d	-3.624904
21	0xbf47170c	-0.7776954
22	0x3f0cd1b1	0.55007464
23	0x3f4b0ff7	0.79321235
24	0x403026b8	2.7523632
25	0x40557c50	3.3357124
26	0xbc95c4e4	-0.018282361
27	0xbecc28e0	-0.39874935
28	0x3fd7d6a2	1.6862376
29	0x3f6db800	0.92858887
30	0xbd609958	-0.05483374
31	0x3fba399d	1.4548832
32	0x406f85dc	3.7425451
33	0x3ee46d58	0.44614673
34	0x3fdcf3cd	1.7261902
35	0x3f6ab13e	0.916767
36	0x3f229df8	0.6352229
37	0x40007a7f	2.0074766
38	0xbf3118ee	-0.69178665
39	0x3f8b45a6	1.088063
40	0x40221e37	2.5330942
41	0x40211a50	2.517231
42	0xbd8e8fe7	-0.06961041
43	0x3fee8e99	1.8637267
44	0x3f6bd332	0.92119133
45	0x4031eae5	2.7799618
46	0xbf3fde35	-0.74948436
47	0xc043db7c	-3.0602713
48	0x3f77c0e6	0.96778715
49	0x3f37631f	0.7163562
50	0x3fac36d4	1.3454232
51	0x3eaca35c	0.33718383
52	0x4011eff3	2.2802703
53	0x3f0abf4c	0.54198146
54	0x3e8c681e	0.27423185
55	0x3ec64eb1	0.38731912
56	0xbed19868	-0.4093659
57	0x3f7249e9	0.9464403
58	0xbeb5ecf4	-0.35532343
59	0x3f320e6c	0.69553256
60	0xc0066cb8	-2.1003857
61	0x3fb6b824	1.4274945
62	0x403b0cc2	2.9226537
63	0x3d8e6f86	0.06954865

bn2.running_var f4 [64]
0	0x405cb0af	3.448284
1	0x40a6de97	5.2146716
2	0x3fe468ce	1.7844484
3	0x403e9c14	2.9782763
4	0x400d0bf8	2.2038555
5	0x4021515b	2.5205905
6	0x40e9e1b1	7.3088
7	0x402f1f68	2.736292
8	0x3fd0d12f	1.6313838
9	0x40144ee0	2.3173141
10	0x3ffcb64a	1.974313
11	0x405d908e	3.461948
12	0x408c2dba	4.380582
13	0x40df83ba	6.98483
14	0x40ba5ebe	5.824065
15	0x40716c96	3.7722526
16	0x4108b726	8.544714
17	0x4093d6ac	4.619955
18	0x404334aa	3.0500894
19	0x404eb534	3.2298098
20	0x40eca0d5	7.394633
21	0x402291c8	2.5401478
22	0x3fa87eb6	1.3163669
23	0x405cae74	3.4481478
24	0x40cda3f3	6.4262633
25	0x40d00d34	6.5016117
26	0x408511a1	4.158402
27	0x405c64df	3.4436567
28	0x40aca9c2	5.3957224
29	0x400b1dee	2.1737018
30	0x404c5c90	3.1931496
31	0x4068a965	3.635339
32	0x412a29b1	10.635179
33	0x40487967	3.1324098
34	0x40b7f53f	5.7486873
35	0x409361b0	4.6056747
36	0x3fedf08e	1.8589036
37	0x4092a831	4.583031
38	0x409ef0f2	4.9669123
39	0x3fd78bfd	1.6839596
40	0x40b9c38a	5.8051195
41	0x4097a186	4.738467
42	0x401b22af	2.423992
43	0x40558422	3.3361897
44	0x40201ad0	2.5016365
45	0x40a8b63d	5.272246
46	0x4038f780	2.8901062
47	0x40e542f0	7.164421
48	0x3ff9135e	1.9459035
49	0x4040d82a	3.0131936
50	0x400fcc1e	2.2468333
51	0x408f331a	4.474988
52	0x40bee3eb	5.965322
53	0x40558212	3.3360639
54	0x3fc3cb8d	1.5296494
55	0x40b5c49b	5.6802497
56	0x40150704	2.3285532
57	0x3fc070e1	1.5034448
58	0x3fd2de37	1.6474065
59	0x406485cb	3.570666
60	0x40f1e2d5	7.5589395
61	0x3ff17c65	1.8866087
62	0x40d557df	6.6669765
63	0x3fe2ce79	1.771926

bn3.weight f4 [64]
0	0x3f86ad99	1.0521728
1	0x3f86a065	1.0517699
2	0x3f86d6bc	1.0534282
3	0x3f86b3c8	1.0523615
4	0x3f869156	1.0513103
5	0x3f864d9e	1.0492437
6	0x3f868631	1.0509702
7	0x3f869132	1.051306
8	0x3f86aa9b	1.0520815
9	0x3f862dd8	1.048274
10	0x3f866e54	1.050242
11	0x3f86c29f	1.0528144
12	0x3f8661d8	1.049861
13	0x3f869fe8	1.051755
14	0x3f867a06	1.0505989
15	0x3f865434	1.0494447
16	0x3f86d5f3	1.0534042
17	0x3f86c20c	1.0527968
18	0x3f868841	1.0510331
19	0x3f86cbd2	1.0530951
20	0x3f86dbe7	1.0535859
21	0x3f868ecd	1.0512329
22	0x3f86cddc	1.0531573
23	0x3f8705a7	1.05486
24	0x3f86c482	1.052872
25	0x3f867133	1.0503296
26	0x3f86ab04	1.052094
27	0x3f86252a	1.0480092
28	0x3f869ddb	1.0516924
29	0x3f86fc9a	1.0545838
30	0x3f864f56	1.0492961
31	0x3f868afc	1.0511165
32	0x3f86b701	1.0524598
33	0x3f869cc9	1.0516597
34	0x3f867956	1.0505779
35	0x3f8706f6	1.0548999
36	0x3f868a1d	1.0510899
37	0x3f8684f8	1.0509329
38	0x3f861657	1.0475568
39	0x3f867866	1.0505493
40	0x3f868924	1.0510602
41	0x3f869d8c	1.051683
42	0x3f86dc0c	1.0535903
43	0x3f86776c	1.0505195
44	0x3f864543	1.0489887
45	0x3f86277f	1.0480803
46	0x3f85f052	1.0463965
47	0x3f868b7f	1.0511321
48	0x3f869244	1.0513387
49	0x3f869c91	1.051653
50	0x3f86c5db	1.0529131
51	0x3f867b3f	1.0506362
52	0x3f86994f	1.0515536
53	0x3f86736a	1.0503972
54	0x3f869fd1	1.0517522
55	0x3f86b868	1.0525026
56	0x3f85deb9	1.0458595
57	0x3f86cd8f	1.0531482
58	0x3f86955f	1.0514334
59	0x3f8650db	1.0493425
60	0x3f869234	1.0513368
61	0x3f86f1fa	1.0542595
62	0x3f86cfc4	1.0532155
63	0x3f86f566	1.054364

bn3.bias f4 [64]
0	0x3d46b8db	0.048516136
1	0x3d4ceac0	0.050028563
2	0x3d574a23	0.052560937
3	0x3d5be299	0.053682897
4	0x3d4cb7f6	0.049980126
5	0x3d4bef5c	0.049788818
6	0x3d53edd3	0.05174048
7	0x3d4e5bb0	0.05038041
8	0x3d5914d2	0.05299837
9	0x3d4d11a4	0.05006565
10	0x3d572473	0.052524995
11	0x3d5fd398	0.05464515
12	0x3d527f9a	0.05139122
13	0x3d4c2cbf	0.04984736
14	0x3d432d4d	0.047650624
15	0x3d4fa7ff	0.050697323
16	0x3d4c68c3	0.049904596
17	0x3d5cc5e4	0.05389966
18	0x3d4f0034	0.050537303
19	0x3d5ce13a	0.05392573
20	0x3d5424d3	0.05179293
21	0x3d50fac2	0.05102039
22	0x3d4b156a	0.04958097
23	0x3d5d3de1	0.05401409
24	0x3d4ec18c	0.05047755
25	0x3d502600	0.05081749
26	0x3d5f0043	0.05444361
27	0x3d38faca	0.045161046
28	0x3d4e38e6	0.05034723
29	0x3d54071f	0.051764604
30	0x3d479836	0.048729144
31	0x3d59cd38	0.053174227
32	0x3d58f61b	0.05296908
33	0x3d53b488	0.05168584
34	0x3d4dca44	0.050241724
35	0x3d59247b	0.053013306
36	0x3d4ede23	0.050504815
37	0x3d528db6	0.051404677
38	0x3d51b09c	0.05119382
39	0x3d577e06	0.05261042
40	0x3d540bf4	0.051769212
41	0x3d50637f	0.050876137
42	0x3d55b1dc	0.052171573
43	0x3d58c416	0.052921377
44	0x3d50f6ca	0.051016606
45	0x3d56c836	0.05243703
46	0x3d3fd87d	0.04683732
47	0x3d5959cf	0.053064164
48	0x3d4f1bbe	0.050563566
49	0x3d5afc9d	0.053463567
50	0x3d4818a8	0.04885164
51	0x3d5604ff	0.05225086
52	0x3d56890c	0.05237679
53	0x3d533583	0.051564705
54	0x3d4b668e	0.04965835
55	0x3d4265b1	0.04746026
56	0x3d52edc3	0.05149628
57	0x3d5803fb	0.05273817
58	0x3d4ff730	0.050772846
59	0x3d4fad00	0.050702095
60	0x3d4f2a7a	0.05057762
61	0x3d5239ba	0.051324584
62	0x3d4c4240	0.04986787
63	0x3d547e8b	0.051878493

bn3.running_mean f4 [64]
0	0x3ff78f24	1.9340558
1	0x3ff977f8	1.9489737
2	0x3f418aa2	0.7560216
3	0x3fa1336f	1.2593821
4	0x3f600b80	0.8751755
5	0xbf397cd3	-0.7245609
6	0x3f68aba0	0.9088688
7	0x3ff6fa67	1.9295167
8	0x3e8653d6	0.26235837
9	0x4007ae9d	2.1200325
10	0x3e72b4de	0.23701808
11	0xc0263fe4	-2.5976496
12	0x3ff792d1	1.934168
13	0x3e13f64a	0.1444942
14	0x3f416a85	0.7555316
15	0x3e08be03	0.13353734
16	0xbd3c32d8	-0.045946926
17	0x3fa29a3f	1.2703322
18	0x3f17a93f	0.59242624
19	0x3fbbae94	1.4662652
20	0xbedd90ee	-0.43274635
21	0x3fb18bdb	1.3870806
22	0x3ef5a985	0.47980896
23	0x3f4abee8	0.7919755
24	0xbeccb0a2	-0.3997851
25	0x3f4c1425	0.7971824
26	0x3f523d4c	0.8212478
27	0x3fb6f3ec	1.4293189
28	0x3fb794ab	1.4342245
29	0x3f9163da	1.1358597
30	0x3fc4fc3f	1.5389479
31	0x3f8e3747	1.1110619
32	0x3ff964d0	1.948389
33	0x3f8a1ae0	1.0789452
34	0xbed705e0	-0.4199667
35	0xbd8b85e7	-0.06812649
36	0xbf3b8abd	-0.7325857
37	0x3f81fc00	1.0155029
38	0x3fb90f91	1.4457875
39	0x3f4f7fd9	0.81054455
40	0x3fbe1e8d	1.4853073
41	0x3e2bbc38	0.16771019
42	0x3ea094ef	0.31363627
43	0x3e32f3b6	0.17475781
44	0x3fb1a484	1.3878331
45	0x3f0d8ca2	0.55292714
46	0x3ecc9793	0.39959392
47	0x3fc237fd	1.5173336
48	0xbe0a51dd	-0.13507791
49	0x3ff9b163	1.9507259
50	0xbe1b107f	-0.15143012
51	0x3f9afb52	1.2107947
52	0x3f13e085	0.57764465
53	0x3fd5b6f5	1.6696459
54	0x40086314	2.1310472
55	0x4030f9bd	2.7652428
56	0x3fc489b4	1.5354524
57	0x3fdca056	1.7236431
58	0x3fcb53d6	1.588496
59	0x3fca1621	1.5788003
60	0x4033c38c	2.8088102
61	0xbe6860e7	-0.22693215
62	0x4008faef	2.1403158
63	0x3f60aa05	0.8775943

bn3.running_var f4 [64]
0	0x3f5f92a1	0.8733311
1	0x3fb11855	1.383555
2	0x3fcc3950	1.595499
3	0x3f152a5d	0.58267766
4	0x3f83f967	1.0310487
5	0x3fc234d4	1.5172372
6	0x3fed44e9	1.8536655
7	0x3fd1929a	1.6372864
8	0x3f9dc935	1.2327029
9	0x3f4bc189	0.79592186
10	0x3fa37982	1.2771456
11	0x3f9f5c63	1.2450069
12	0x400cb6b3	2.198651
13	0x3fab2ae3	1.3372463
14	0x3f699c03	0.9125368
15	0x3fc0ea0e	1.5071428
16	0x3f8e048e	1.109514
17	0x3ef62318	0.4807365
18	0x3f51db50	0.8197527
19	0x3f02114d	0.5080765
20	0x3f66e4c0	0.90192795
21	0x3fc12191	1.5088369
22	0x3f0441f9	0.51663166
23	0x3f06008c	0.52344584
24	0x3fb1aa3a	1.3880074
25	0x4005dbc7	2.0915391
26	0x3f001dcc	0.50045466
27	0x3f8c56fe	1.0964048
28	0x3f4526b9	0.7701221
29	0x3f4e8260	0.80667686
30	0x3fc21620	1.5163002
31	0x3f3b3713	0.7313091
32	0x3f5a1dac	0.85201526
33	0x3faf6ec6	1.370568
34	0x3f8c958f	1.0983142
35	0x3f6c1d59	0.9223228
36	0x3f896740	1.0734634
37	0x3f049499	0.5178924
38	0x3fc4bc97	1.5370053
39	0x3ee9018b	0.4550899
40	0x3f84f712	1.03879
41	0x3f664fa9	0.899653
42	0x3f28d091	0.6594325
43	0x3f7a7f97	0.97850937
44	0x3fd42d91	1.6576406
45	0x3fb41184	1.4067845
46	0x3f9c5d58	1.2215986
47	0x3fae7d48	1.3631983
48	0x3f8d0cb7	1.1019505
49	0x4029671d	2.6469185
50	0x3f22aabf	0.6354179
51	0x3fb9ef52	1.452616
52	0x3f9e5ba7	1.237172
53	0x3f6d6766	0.927359
54	0x3f4dfb70	0.8046179
55	0x3f8a140a	1.0787365
56	0x3fe47654	1.7848611
57	0x3f0acd66	0.54219663
58	0x3f9bd82c	1.2175345
59	0x3fb39b1c	1.4031711
60	0x3f8aa162	1.08305
61	0x3f14b5df	0.58090013
62	0x3ebdf867	0.37103578
63	0x3ea0ac59	0.3138149
