maml-notebook/completet_model/model-epoch_00045-train_loss_0.124-train_acc_0.884-test_loss_0.470-test_acc_0.871.pt (torch_old, 305688 bytes, 20 tensors)

conv1.weight f4 [64, 1, 3, 3]
0	0x3d2e7043	0.04258753
1	0x3c470269	0.012146571
2	0xbd7b7a6a	-0.06139604
3	0x3ad2314b	0.0016036419
4	0x3cd6f25f	0.026238618
5	0x3cbdbd6e	0.023161616
6	0x3d04077a	0.032233693
7	0x3d0216e1	0.0317601
8	0x3d2b8e0f	0.041883525
9	0x3d9dc9cd	0.07704506
10	0x3d95e67b	0.07319351
11	0x3d431b65	0.047633547
12	0x3ce78663	0.028262323
13	0xbd944fdd	-0.07241795
14	0x3d84bb49	0.06481034
15	0xbd71a354	-0.058993652
16	0xbd2c714a	-0.04210023
17	0xbe0a1cd1	-0.13487555
18	0x3d7d6e6b	0.06187288
19	0xbb0df948	-0.0021663476
20	0xbd3f6dc4	-0.04673554
21	0x3d22c7bb	0.03974126
22	0x3ceb3ee8	0.02871652
23	0x3bf332ff	0.0074218507
24	0xbd3e9652	-0.046530075
25	0x3ce58785	0.028018722
26	0x3d0019b0	0.031274498
27	0xbc010b7c	-0.007876273
28	0xbc01b912	-0.007917659
29	0xbd1b33e7	-0.037891295
30	0xbdd3c09d	-0.103394724
31	0x3cf96bf5	0.030446986
32	0x3d8250b3	0.063630484
33	0xbde88bb0	-0.11354768
34	0x3db92e83	0.090420745
35	0x3da12570	0.07868469
36	0x3ddfee34	0.109341055
37	0xbcdeeb8c	-0.027211927
38	0xbd750a30	-0.05982417
39	0x3b34f00a	0.0027608895
40	0x3d3a8f7a	0.045546986
41	0xbc638635	-0.013886978
42	0xbdc9940b	-0.0984269
43	0xbd946bca	-0.07247122
44	0xbd9b8df0	-0.07595432
45	0x3d4de033	0.05026264
46	0x3d2406e8	0.04004565
47	0xbcb13a9f	-0.021634398
48	0xbd2e093f	-0.042489287
49	0xbd4eb2d5	-0.050463516
50	0xbdad55ec	-0.08463654
51	0xbd385f01	-0.045012478
52	0xbd88f6c6	-0.06687693
53	0x3ca88a23	0.020573681
54	0xbcef93d0	-0.029245287
55	0x3b666838	0.0035157334
56	0x3cd4ca2f	0.025975315
57	0xbd701d85	-0.058621902
58	0xbc0bd0ac	-0.008533638
59	0x3d8b30a2	0.06796385
60	0xbc6d016c	-0.014465671
61	0xbbd5220f	-0.0065043042
62	0x3d53abe3	0.051677596
63	0x3c1b03ad	0.009461326
64	0xbd894c5a	-0.06704016
65	0xbbf200ab	-0.0073853335
66	0xbcb6498f	-0.022251872
67	0xbd5c9ef2	-0.05386252
68	0xbc726775	-0.014795174
69	0xbcb60de8	-0.022223428
70	0xbd9c89ab	-0.076434456
71	0x3d4b0c9a	0.049572565
72	0xbd21b4c4	-0.039479032
73	0xbdd658aa	-0.1046613
74	0xbcb177e3	-0.021663612
75	0x3d77be23	0.060484063
76	0xbd4eca08	-0.05048564
77	0xbd69a836	-0.057045184
78	0x3d80c6c1	0.06287909
79	0x3cfb97d9	0.030712055
80	0xbdefacc7	-0.117028765
81	0x3cbedcc3	0.023298627
82	0xbd8b5342	-0.068029895
83	0xbd0cdebe	-0.03439211
84	0x3dc7d552	0.097574845
85	0xbc8abbb8	-0.016935214
86	0x3d44c6ca	0.048041143
87	0x3c5b6777	0.013391367
88	0xbd04a0c7	-0.03237989
89	0xbd73648c	-0.05942206
90	0xbbe88d01	-0.007096887
91	0xbc229ff4	-0.009925831
92	0x3d06773f	0.032828566
93	0x3d5f5d82	0.054532535
94	0xbd6bd4c1	-0.057575945
95	0x3d29c640	0.04144883
96	0xbc424763	-0.01185784
97	0x3de9717f	0.11398601
98	0xbd0fdc60	-0.035122275
99	0x3d277549	0.040883336
100	0xbc800ec4	-0.01563204
101	0xbcd07ac3	-0.025449162
102	0x3d1812de	0.03712737
103	0x3d91158f	0.0708419
104	0x3c87806f	0.016540734
105	0xbd152228	-0.036409527
106	0xbcb53d17	-0.022123856
107	0x3d97bbf4	0.07408896
108	0x3bc4a4a6	0.006001073
109	0xbd6be294	-0.05758913
110	0xbc36272e	-0.01111774
111	0x3c17c143	0.009262386
112	0xbd17abdb	-0.03702913
113	0xbca3164e	-0.019908097
114	0xbbae3a4a	-0.005317007
115	0x3db08d98	0.08620757
116	0x3dab00e7	0.083497815
117	0x3c0933b4	0.008374143
118	0xbcf71623	-0.030161923
119	0x3d61c304	0.055117622
120	0x3d2044d7	0.03912815
121	0xbd50a81f	-0.050941583
122	0xbdcdf853	-0.1005713
123	0x3d85d90c	0.06535539
124	0xbd9fc6cc	-0.07801589
125	0xbd8115b8	-0.06302971
126	0xbd6e4207	-0.058168437
127	0x3cda7a6a	0.0266697
128	0xbd9de11d	-0.077089526
129	0x3d23c89a	0.03998623
130	0xbcbe4f68	-0.023231223
131	0x3e06377e	0.13107106
132	0xbb9f79cd	-0.0048668147
133	0x3c934b3a	0.017980207
134	0x3da88350	0.08228171
135	0x3d527d01	0.051388744
136	0x3da73000	0.08163452
137	0x3c281316	0.010258457
138	0xbd0bf8d4	-0.034172848
139	0xbbcea7b7	-0.0063066143
140	0x3da19989	0.07890613
141	0xbd85b1f8	-0.065280855
142	0x3cdbd415	0.026834527
143	0x3d3afc5b	0.04565082
144	0xbd3b9e03	-0.04580499
145	0x3d20949d	0.03920423
146	0xbd107c2a	-0.035274662
147	0xbcbf2a1d	-0.02333551
148	0xbd8abe6a	-0.067746
149	0xbd4ce045	-0.050018568
150	0x3d8c01e7	0.068363
151	0x3d01feaa	0.031737007
152	0x3d988710	0.07447636
153	0x3cb30db9	0.02185713
154	0xbce6670e	-0.028125312
155	0x3cb58e4e	0.022162583
156	0x3d2aa178	0.041657895
157	0xbd7a8b7d	-0.061168183
158	0x3d1ce2c6	0.038302206
159	0x3d03d440	0.03218484
160	0xbd4e2ab4	-0.050333694
161	0x3d2376f5	0.03990837
162	0xbc89aea9	-0.016806917
163	0x3cd3680e	0.025806453
164	0x3c62b91d	0.01383808
165	0xbdacda82	-0.084401146
166	0x3dc59d5e	0.09649156
167	0x3c24aa80	0.010050416
168	0xbd1a51dd	-0.037675727
169	0x3c88b57a	0.016688097
170	0x3d27ef8c	0.040999934
171	0xbd24e2b4	-0.040255263
172	0x3c953898	0.018215463
173	0x3b2d9578	0.0026486795
174	0xbdbd67e6	-0.09248333
175	0xbd55122d	-0.052019287
176	0xbd9b8f66	-0.075957105
177	0x3d080c83	0.033215057
178	0x3d386999	0.04502258
179	0x3c5dcf32	0.013538169
180	0xbda7bcd9	-0.08190317
181	0x3d812132	0.0630516
182	0x3d1b02b9	0.037844393
183	0x3d6bc8d6	0.05756458
184	0x3cc575a1	0.024103941
185	0x3cc5d73f	0.024150489
186	0xbc5f3207	-0.013622767
187	0xbcf8bc14	-0.03036312
188	0x3d6e6728	0.058203846
189	0x39955fd6	0.00028490898
190	0xbc85d035	-0.016334632
191	0x3d164f0e	0.036696486
192	0xbd842bd9	-0.06453676
193	0xbd2163f7	-0.039401975
194	0xbdd59d1c	-0.10430357
195	0xbcefec2c	-0.02928742
196	0x3b9dcc8a	0.0048156427
197	0xbd8c897c	-0.068621606
198	0xbd2d655d	-0.042332996
199	0x3c4941e0	0.012283772
200	0xbd5cd4b1	-0.053913776
201	0xbde27bf2	-0.11058797
202	0xbd9e55b6	-0.07731192
203	0x3cf4ac2a	0.02986725
204	0xbb57b5a5	-0.0032914665
205	0x3d3fe95a	0.0468534
206	0x3dcac69c	0.09901163
207	0xbddc33ab	-0.107520424
208	0x3bd5056c	0.0065008905
209	0x3d8489e6	0.064716145
210	0xbc892f8e	-0.016746309
211	0xbceb1639	-0.02869712
212	0x3d6b6398	0.057468027
213	0xbd6c258d	-0.057653
214	0xbce06c9c	-0.027395539
215	0x3dbf099a	0.09328003
216	0x3dbdacd1	0.09261478
217	0x3c9cddb9	0.019148694
218	0x3c11c0f3	0.0088961
219	0x3cb9f0ab	0.022697767
220	0x3d8fa6b3	0.07014217
221	0xbc173ac5	-0.00923032
222	0x3db27a83	0.087147735
223	0xbd71d3b6	-0.059039794
224	0xbdabe689	-0.083935805
225	0x3d5cb50e	0.053883605
226	0x3ba93bb3	0.0051645874
227	0xbd7af96c	-0.061273023
228	0x3daf5525	0.08561162
229	0x3c9f5573	0.019449925
230	0xbb8260e4	-0.0039788354
231	0xbd11eaed	-0.035624433
232	0x3dc3d02b	0.09561189
233	0x3c888134	0.016663171
234	0xbd85b215	-0.06528107
235	0xbd32053d	-0.043462027
236	0xbd00341f	-0.031299707
237	0x3d90f0eb	0.070772015
238	0xbd78e975	-0.060769517
239	0x3d5f93e8	0.054584414
240	0x3d785f30	0.060637653
241	0x3dccd545	0.100016154
242	0xbc65b608	-0.01402045
243	0xbd9f4b6a	-0.07778056
244	0xbdc0427c	-0.09387681
245	0x3c4e35ea	0.012586096
246	0x3c17d8dd	0.009268013
247	0x3c725a58	0.014792047
248	0x3d3390bc	0.0438392
249	0xbc10f08a	-0.0088464115
250	0xbd8ef860	-0.069809675
251	0xbdfa2c96	-0.12215535
252	0xbd9fb9d1	-0.077991135
253	0x3c3cd069	0.011524298
254	0xbd697bfa	-0.057003
255	0xbbd5f603	-0.006529571

conv1.bias f4 [64]
0	0xbc0a2bd8	-0.008433305
1	0x3c131412	0.008976953
2	0x3c231126	0.009952819
3	0xba8c20c5	-0.0010690918
4	0xb68e82d9	-4.2471625e-06
5	0x3b3e14c2	0.0029004072
6	0xbbcfab62	-0.006337569
7	0x3b8a26f3	0.004216069
8	0xbbca05f3	-0.00616526
9	0x3bab600a	0.0052299546
10	0x3bc4661c	0.0059936177
11	0x3b2cfd7b	0.0026396203
12	0xbb8831ba	-0.0041563185
13	0x3b8812c5	0.004152628
14	0xbc58ae0f	-0.013225093
15	0xbb47e2f6	-0.003050027
16	0xbb037b62	-0.0020062556
17	0xbbfd3b30	-0.007728003
18	0x3c0fbbb0	0.0087727755
19	0xbb347a2d	-0.0027538643
20	0xbbad3fda	-0.0052871527
21	0x3a332fb5	0.0006835417
22	0xbc43ee30	-0.011958644
23	0x3b3288b7	0.0027242133
24	0x3bcd1357	0.006258409
25	0x3bb6da21	0.005580202
26	0xbbcfd4c0	-0.0063425004
27	0xbb9026c3	-0.004399152
28	0x3c00d010	0.007862106
29	0xbc21a7f4	-0.009866703
30	0x3b71679c	0.0036835438
31	0xba81cbb2	-0.0009902625
32	0x3acbdbfa	0.0015553229
33	0x3bdef51e	0.0068041226
34	0xbc23eac3	-0.010004702
35	0x3c12efe5	0.008968328
36	0x3bfd5bbe	0.007731884
37	0x3a701037	0.00091576896
38	0xb929934f	-0.00016171973
39	0x3bda83e7	0.006668556
40	0x3bd3be35	0.0064618834
41	0xbb5497c3	-0.003243909
42	0x3ba8d5ef	0.005152456
43	0x3b470eb0	0.0030373745
44	0xbbcae338	-0.0061916374
45	0x3b9ac49d	0.004723145
46	0x38e6870d	0.0001099241
47	0xbb045d52	-0.0020197225
48	0x3c6ab751	0.014325933
49	0xbbee8210	-0.0072786883
50	0xbb0325d9	-0.0020011573
51	0x3b5d208f	0.003374133
52	0xbb79fa63	-0.0038143627
53	0xbb02f783	-0.0019983954
54	0xbc53da36	-0.0129304435
55	0x3a880e5a	0.0010380254
56	0x3ad9de90	0.0016622115
57	0x3a4c3ddb	0.00077911996
58	0xba845cca	-0.0010098454
59	0xbaed002d	-0.0018081717
60	0xbbd85d9f	-0.0066029574
61	0x3b093351	0.0020935128
62	0xb7983413	-1.8144061e-05
63	0xba179d94	-0.0005783674

conv2.weight f4 [64, 64, 3, 3]
0	0x3cc03465	0.023462484
1	0x3c2ae76c	0.010431152
2	0xbcc5da3d	-0.024151916
3	0x3ce4708f	0.027885703
4	0x3d6ab207	0.057298686
5	0xbcfda149	-0.030960696
6	0x3cb2523a	0.021767724
7	0x3d2cd17d	0.04219197
8	0xbcb0577f	-0.021526096
9	0xbd020ee6	-0.03175249
10	0x3ccfa02e	0.025344934
11	0xbd93396d	-0.071886875
12	0x3ad34a5d	0.0016120184
13	0x399b4ecf	0.0002962262
14	0x3bfbf1f4	0.007688755
15	0x3d2aed1c	0.04173003
16	0xbb489164	-0.0030604238
17	0x3d8e936d	0.06961713
18	0xbd8d529f	-0.06900524
19	0xbcc90951	-0.024540575
20	0xbda7233f	-0.081610195
21	0xbc90c0a6	-0.017669987
22	0xbd0f1d1e	-0.034939878
23	0xbd77a509	-0.060460124
24	0xbc38a5c1	-0.011269988
25	0x3a97d128	0.0011582719
26	0x3dc05150	0.09390509
27	0x3c148e69	0.009067156
28	0x3cd49c12	0.025953326
29	0xbc9a940f	-0.018869428
30	0xbd202a44	-0.039102808
31	0x3b7d40a1	0.0038643258
32	0xbda965be	-0.08271359
33	0xbce0076c	-0.027347289
34	0xbd03eb2d	-0.032206703
35	0xbd75659b	-0.05991135
36	0xbc01e10b	-0.00792719
37	0x3d05b38a	0.032641925
38	0x3d30f181	0.043199066
39	0x3d0ec69d	0.03485738
40	0xbd6a9a47	-0.057276037
41	0xbc8f6c4f	-0.0175077
42	0xbd919223	-0.071079515
43	0xbd00119c	-0.031266794
44	0x3cff0826	0.031131815
45	0xbc85c7c7	-0.016330613
46	0xbbf0e2bc	-0.0073512476
47	0xbd12a5e6	-0.035802744
48	0xbc861971	-0.016369553
49	0xbb759710	-0.0037474073
50	0xbcabdb7d	-0.020978684
51	0xbc4be69b	-0.012445117
52	0xbc97b02c	-0.018516622
53	0x3cc54488	0.02408053
54	0xbd84557d	-0.06461618
55	0x3d841eb8	0.06451172
56	0x3d9afa06	0.075672194
57	0xbc4c8500	-0.012482882
58	0xbd1790b4	-0.037003234
59	0x3c63dff5	0.013908376
60	0xbd65eac6	-0.0561321
61	0xbd1c1057	-0.03810152
62	0xbd52d363	-0.051471125
63	0x3cd87167	0.026421262
64	0xbd7b28d4	-0.061318234
65	0xbc8b8f93	-0.017036235
66	0xbd27eaeb	-0.04099552
67	0xbd0d4c60	-0.034496665
68	0xbc221142	-0.00989181
69	0xbca9e5d8	-0.02073948
70	0xbce69ca8	-0.028150871
71	0xbc583558	-0.013196312
72	0xbce38d74	-0.027777411
73	0xbb92b852	-0.004477539
74	0xbd816859	-0.06318731
75	0xbb8af9cf	-0.0042412053
76	0xbbd02e6b	-0.0063531897
77	0xbd6d53bb	-0.05794118
78	0x3c8f20d7	0.017471714
79	0xbc4b3f63	-0.012405249
80	0x3d5c9dd5	0.053861458
81	0xbd6a357a	-0.057179905
82	0x3cc66690	0.024218827
83	0xbd19bf2e	-0.03753584
84	0x3b593f5f	0.0033149344
85	0x3d996663	0.07490232
86	0xbd451bb9	-0.04812214
87	0xbd4a4cf1	-0.049389783
88	0xbd169ac4	-0.03676869
89	0xbd848760	-0.06471133
90	0x3ca1f81e	0.019771632
91	0x3d3ca7f7	0.04605862
92	0x3d9f93e9	0.077918835
93	0xbcaeb730	-0.021327585
94	0x3ce3635a	0.027757335
95	0xbc89d147	-0.016823424
96	0x3c81e35f	0.01585549
97	0x3d09a832	0.03360767
98	0x3d89409a	0.06701775
99	0x3d30d18f	0.0431686
100	0x3c8f615c	0.01750248
101	0x3d077d1d	0.0330783
102	0xbce4f2b5	-0.027947763
103	0xbcc9c7e1	-0.024631443
104	0xbcef394a	-0.029202122
105	0x3d090c9a	0.033459283
106	0xbd72b5c3	-0.059255373
107	0x3d0e7890	0.034782946
108	0x3d1d8b03	0.03846265
109	0xbc705935	-0.014669706
110	0x3cc69b9d	0.024244124
111	0x3d7aee12	0.061262198
112	0x3d285411	0.041095797
113	0xbd473e97	-0.048643675
114	0x3c77fd39	0.015136057
115	0xbd063564	-0.03276576
116	0xbdc0477b	-0.09388634
117	0x3bef6417	0.007305633
118	0x3cb35be1	0.021894397
119	0xbd09b50e	-0.033619933
120	0x3d75ff5d	0.060057987
121	0xbd7210e7	-0.05909815
122	0xbbf3eaef	-0.0074437778
123	0xbc2338f3	-0.009962308
124	0x3cad1a8f	0.021130828
125	0x3dd38545	0.103281535
126	0x3c1b4362	0.0094765145
127	0xbb6d89a0	-0.003624536
128	0xbc1dd904	-0.00963426
129	0x3c98c780	0.018649817
130	0x3cb86032	0.022506807
131	0x3c6c6e0e	0.014430536
132	0xbc36c969	-0.011156418
133	0x3b6453a3	0.003483989
134	0xbcb9a28d	-0.022660518
135	0x3d7dd921	0.06197465
136	0xbdbfd866	-0.093674466
137	0xbda9aa46	-0.0828443
138	0x3cc45f0a	0.0239711
139	0x3d556b96	0.052104555
140	0xbcc3efc2	-0.023918036
141	0x3d6d8d8e	0.057996325
142	0x3ce38d73	0.02777741
143	0x3d597b66	0.053096198
144	0xbd7afaa0	-0.06127417
145	0xbbf170f7	-0.007368203
146	0x3d542d83	0.051801216
147	0xbcb0eb50	-0.02159658
148	0x3c14ee28	0.009089984
149	0xbcdd10bc	-0.026985519
150	0xbdcba68b	-0.09943875
151	0xbd17ce7f	-0.037062164
152	0x3c216bb1	0.009852336
153	0xbcb2370a	-0.02175476
154	0x3ccb9258	0.024850056
155	0xbdb52222	-0.08844401
156	0xbcd6a0e0	-0.026199758
157	0xbcdbcf20	-0.026832163
158	0xbd68d89c	-0.0568472
159	0xbc8358a9	-0.016033487
160	0xbb51d970	-0.0032020472
161	0xbd1750c0	-0.036942244
162	0xbc972ca0	-0.018453896
163	0x3d40e096	0.04708918
164	0x3db0a0ed	0.08624444
165	0x3d7c4fd8	0.061599582
166	0x3d7bfcba	0.061520316
167	0xbd1172a6	-0.035509728
168	0x3d640c1e	0.05567562
169	0x3d1007c7	0.035163667
170	0xbbba6145	-0.005687865
171	0xbd814a7b	-0.06313034
172	0x3d3b62e3	0.045748603
173	0xbbc07483	-0.0058732643
174	0x3b0d0bbc	0.0021521887
175	0x3d00278c	0.031287715
176	0xbc8b0646	-0.016970765
177	0xbd05306e	-0.03251689
178	0xbd88172b	-0.06645044
179	0xbd6a2448	-0.057163507
180	0x3d3e82a4	0.046511307
181	0xbd07d74b	-0.033164304
182	0xbc32cf5d	-0.010913697
183	0xbd2c9eb0	-0.042143524
184	0x3d723b83	0.059138786
185	0x3ce6f8a5	0.028194735
186	0xbd1d10ab	-0.038345974
187	0xbcec401a	-0.02883916
188	0xbb865a93	-0.0041001528
189	0x3ca58789	0.02020623
190	0x3dae1cba	0.08501573
191	0xbd1aaacc	-0.03776054
192	0xbb689dc5	-0.0035494429
193	0x3cda8a4f	0.026677279
194	0xbcea84c0	-0.028627753
195	0x3dc3e060	0.095642805
196	0xbd70aece	-0.058760457
197	0xbd07f493	-0.03319223
198	0x3c168cf4	0.009188879
199	0x3d933f6b	0.071898304
200	0xbbd1566c	-0.006388476
201	0xbd73d747	-0.059531476
202	0xbbadb860	-0.00530152
203	0x3b050641	0.0020297917
204	0xbc1cbeef	-0.0095670065
205	0xbda1765c	-0.078839034
206	0x3b638f6d	0.003472294
207	0x3cd0249c	0.025408082
208	0x3cc0095b	0.023441961
209	0xbcd8eea7	-0.026480986
210	0xbb83239b	-0.0040020472
211	0x3cf53bb3	0.029935693
212	0x3c521d28	0.012824334
213	0xbc9d70f4	-0.0192189
214	0xbd80b3d4	-0.062842995
215	0xbcb510ec	-0.022102796
216	0x3aa49863	0.0012557622
217	0xbd635073	-0.055496644
218	0x3d25cb11	0.040476862
219	0x3d6bebe3	0.057598006
220	0xbd0805fe	-0.03320884
221	0x3caa4e11	0.020789178
222	0xbd4add57	-0.049527492
223	0x3c089e3b	0.008338506
224	0x3c9cc6de	0.019137796
225	0x3cef0d36	0.029181104
226	0x3d784567	0.060613062
227	0xbcb99e3d	-0.022658462
228	0xbcb4f6d0	-0.022090346
229	0xbc7c23e6	-0.015389418
230	0xbdcb0b63	-0.09914281
231	0x3b2ade61	0.002607249
232	0xbc614be1	-0.013751001
233	0xbd21dee7	-0.039519217
234	0x3d086adf	0.033305045
235	0x3d0a2668	0.033728033
236	0x3caa7ea6	0.020812344
237	0x3d112f24	0.035445347
238	0xbc6a8860	-0.014314741
239	0x3c948876	0.018131476
240	0x3c80d08a	0.01572444
241	0xbce2c987	-0.027683986
242	0x3cd44ad9	0.025914596
243	0x3d4e0e92	0.050306864
244	0xbba36e46	-0.004987511
245	0xbd017445	-0.031605024
246	0x3c9d1a62	0.01917762
247	0x3cd27c45	0.025694022
248	0x3c3ccab0	0.011522934
249	0x3d8f9282	0.07010366
250	0xbd5277a5	-0.051383633
251	0xbcdbeddd	-0.02684682
252	0xbab2bf57	-0.0013637346
253	0x3c07773b	0.008268173
254	0xbd25665d	-0.040380824
255	0x3d01ed78	0.03172061

conv2.bias f4 [64]
0	0xbc05255d	-0.008126584
1	0x3b46c4f5	0.0030329798
2	0xb9f80bef	-0.00047311137
3	0x3ba64779	0.005074438
4	0x3c023992	0.007948296
5	0xb8a822d6	-8.017353e-05
6	0x3a5256d4	0.00080238027
7	0xbab4e321	-0.00138006
8	0xbbb6c97c	-0.005578218
9	0x3b5016e6	0.003175193
10	0x3ba54bd5	0.0050444403
11	0xbbd8f179	-0.0066205827
12	0xbb5bc2ae	-0.0033532786
13	0x39a749f6	0.00031907827
14	0xbbc508ca	-0.0060130106
15	0xba9bc052	-0.0011882877
16	0x3b12bbc6	0.0022389754
17	0xb8cbe99b	-9.723307e-05
18	0xbba4afc4	-0.0050258357
19	0x3b3d2739	0.002886249
20	0x3be4abd8	0.006978493
21	0xbb9b4c3c	-0.0047393125
22	0x3bc5c6bc	0.006035654
23	0x3bd4b70d	0.006491548
24	0x3ba5f8b5	0.0050650486
25	0xb92ff1b3	-0.0001677934
26	0xbbc31f43	-0.0059546544
27	0x3b1a28e8	0.0023522917
28	0xbb8dc64b	-0.004326617
29	0x3b22a9bc	0.0024820408
30	0xbbb32e40	-0.00546816
31	0xbb831cf9	-0.0040012565
32	0xbb1a00a9	-0.0023498929
33	0xbc0d4a94	-0.008623738
34	0x3a8eccab	0.0010894736
35	0x3a6fa013	0.00091409794
36	0x3b0cbef8	0.002147613
37	0xb88a4e73	-6.594965e-05
38	0x3b18bf2b	0.0023307304
39	0xbb248d37	-0.0025108585
40	0x3b0c254a	0.002138453
41	0x3a542a90	0.00080935005
42	0xbaa7e4ef	-0.0012809316
43	0xbaf9500e	-0.001902105
44	0x3c2584ed	0.010102493
45	0xba566cb8	-0.00081796525
46	0xb9905a35	-0.0002753303
47	0x3b04e228	0.0020276401
48	0x3b743802	0.0037264829
49	0x3bf9daff	0.0076249833
50	0xbb969d9c	-0.004596425
51	0xbb12797f	-0.002235025
52	0x3ac6f7c8	0.0015180046
53	0xbb6c4797	-0.0036053413
54	0xbbd41b80	-0.006473005
55	0xba423126	-0.00074078364
56	0x3b50c637	0.0031856427
57	0x3a8bc227	0.001066272
58	0xbb3e03cb	-0.002899396
59	0xba3d0f80	-0.00072120875
60	0xbb0e6b08	-0.0021731276
61	0xbbafc471	-0.005363994
62	0xbb2b9b9e	-0.0026185284
63	0xbb44c76a	-0.0030026087

conv3.weight f4 [64, 64, 3, 3]
0	0xbd7246c7	-0.05914953
1	0xbd3ce790	-0.046119273
2	0x3d2ede22	0.04269231
3	0x3d4e22df	0.050326224
4	0xbb9a4bd9	-0.004708749
5	0x3a81ec0d	0.0009912268
6	0xbd5a2781	-0.05326033
7	0xbd19fb8e	-0.037593417
8	0x3c8dea64	0.01732368
9	0xbd726040	-0.059173822
10	0x3cfd7778	0.030940756
11	0xbad08e3a	-0.0015911527
12	0x3cbb79b3	0.02288518
13	0xbc98d12d	-0.01865443
14	0xbd03a00b	-0.03213505
15	0xbda08595	-0.07837979
16	0xbcf23d3f	-0.02957022
17	0x3c960fbe	0.018318053
18	0x3cada6c8	0.021197692
19	0x3c42a7dc	0.011880841
20	0xbbd8cb6f	-0.006616048
21	0x3cb0e88a	0.021595258
22	0x3ca7c7ce	0.020481016
23	0xbd22bf82	-0.039733417
24	0xbccc314e	-0.024925854
25	0x3d9ec2b3	0.0775198
26	0x3cd6f959	0.026241945
27	0xbd6226fb	-0.055212956
28	0xbc713e7c	-0.01472437
29	0xbbb97e30	-0.0056607947
30	0x3d087e08	0.033323318
31	0x3d53f331	0.051745597
32	0x3d155e7e	0.036467068
33	0x3d4ed083	0.05049182
34	0x3c2952d4	0.010334689
35	0x3d8aaec8	0.06771618
36	0xbbeb9aa9	-0.007190068
37	0x3d0c1b2d	0.034205604
38	0x3cc009b8	0.023442134
39	0x3d2bda72	0.041956373
40	0xbd0fa868	-0.035072714
41	0x3cde4864	0.027134128
42	0xbcbcc8ac	-0.023044907
43	0xbdab356a	-0.08359797
44	0xbba3f072	-0.0050030285
45	0xbd235c71	-0.03988308
46	0xbc7efbb9	-0.015562945
47	0xbd2dca55	-0.042429287
48	0xba919781	-0.0011107774
49	0xbd56c452	-0.05243332
50	0xbd9b43cf	-0.07581293
51	0xbcc6d7f6	-0.0242729
52	0xbd82214f	-0.06354009
53	0xbd0aa7cb	-0.033851426
54	0xbd2ff995	-0.04296263
55	0x3b79bab3	0.0038105666
56	0x3d39556e	0.045247488
57	0x3ba81554	0.0051294956
58	0x3b1c7983	0.0023876138
59	0xbcc8e81c	-0.02452474
60	0xbd424b5d	-0.047435153
61	0xbce2c68d	-0.027682567
62	0x3d13cc24	0.036083356
63	0xbce16fdc	-0.027519159
64	0x3d3f122b	0.046648186
65	0x3b5e6357	0.0033933723
66	0xbcaf7d99	-0.021422194
67	0xbb1c4ec9	-0.002385067
68	0x3d5cf642	0.053945787
69	0xbde17569	-0.11008722
70	0xbbed95e2	-0.0072505334
71	0x3cd9e191	0.026596816
72	0x3d81132e	0.06302486
73	0x3d104d7b	0.03523014
74	0xbc96b676	-0.018397551
75	0x3d54df5a	0.051970817
76	0xbd7e6476	-0.062107526
77	0xbb5c6868	-0.0033631567
78	0x3de19775	0.11015216
79	0x3d0c6aa5	0.03428139
80	0xbd20f8b1	-0.03929967
81	0xbcd59ab7	-0.02607475
82	0x3ca21160	0.019783676
83	0x3cc8ffa9	0.02453597
84	0x37a0c478	1.9164974e-05
85	0xbd28f22e	-0.041246586
86	0x3d41aa47	0.04728153
87	0x3a8ec754	0.0010893145
88	0x3d8bb5a3	0.06821754
89	0x3b492812	0.003069405
90	0x3bc4a5d8	0.0060012154
91	0xbd1f85eb	-0.038946074
92	0x3d546fda	0.051864482
93	0x3d06644a	0.032810487
94	0xbd8ec780	-0.06971645
95	0xbd6b2f89	-0.05741838
96	0xbdb3de99	-0.087826915
97	0xbbddb03c	-0.0067653935
98	0x3cdbb577	0.026819928
99	0x3d2fa802	0.042884834
100	0xbb68e9f3	-0.0035539835
101	0x3c838b17	0.016057534
102	0x3d17180e	0.036888175
103	0xbc560a4c	-0.013063978
104	0x3d75d6ae	0.060019188
105	0x3d2e21d9	0.04251275
106	0x3d821db2	0.0635332
107	0xbcc77fa6	-0.02435286
108	0xbd10dd90	-0.03536755
109	0xbd37dd21	-0.04488862
110	0xbc61e2f7	-0.013787023
111	0x3c496de4	0.012294266
112	0xbd0319d7	-0.032007065
113	0xbccf53fe	-0.025308605
114	0x3d0839c2	0.033258207
115	0x3c459988	0.0120605305
116	0x3c6b30b1	0.014354871
117	0x3db08587	0.08619218
118	0xbcb6d596	-0.022318643
119	0x3cb8dbc7	0.022565736
120	0x3d4ec32f	0.05047911
121	0xbd14e718	-0.0363532
122	0x3d261147	0.04054382
123	0xbb426aca	-0.0029665702
124	0xbc0e9b86	-0.008704072
125	0xbc580513	-0.013184804
126	0xbafb0f60	-0.0019154362
127	0x3cb70556	0.022341412
128	0xbd0a7852	-0.033806153
129	0x3ce85ea4	0.02836544
130	0x3cfe6496	0.031053822
131	0x3d04edf3	0.03245349
132	0x3cd1536a	0.02555247
133	0xbb1d4e74	-0.002400306
134	0xbd9ed990	-0.077563405
135	0x3d8d200b	0.06890877
136	0xbd859936	-0.06523363
137	0xbd3c040c	-0.045902297
138	0x3b8c4a01	0.004281283
139	0x3c0d1ace	0.008612348
140	0x3d623d4b	0.055234235
141	0x3ca51170	0.020149916
142	0xbc793db5	-0.015212466
143	0x3d2f3a39	0.042780135
144	0xbc9de439	-0.019273864
145	0xbd6c80ff	-0.057740208
146	0x3d474fa4	0.048659936
147	0xbd50766d	-0.05089419
148	0x3be25513	0.0069071143
149	0x3bd2fe79	0.006439027
150	0x3d4ca5d6	0.04996284
151	0xbc685020	-0.01417926
152	0xbd4cff37	-0.05004808
153	0x3c250014	0.010070819
154	0x3ca1740c	0.019708656
155	0x3dcc3720	0.09971452
156	0x3c00fa23	0.007872137
157	0x3c6c5171	0.014423714
158	0x3da8943e	0.082314
159	0xbd0b25a4	-0.033971444
160	0x3d8029bd	0.06257961
161	0xbd333e10	-0.04376036
162	0x3cc295f6	0.023753148
163	0x3d141834	0.036155894
164	0x3cd4489a	0.025913525
165	0xbd6a417f	-0.05719137
166	0xbd867637	-0.065655164
167	0xbb90c4e3	-0.004418002
168	0xbd5af6ba	-0.053457953
169	0x3d03084f	0.031990346
170	0x3d840eb0	0.06448114
171	0x3d400788	0.046882182
172	0x3d21b834	0.03948231
173	0x3d203b7b	0.039119225
174	0xbbc0c787	-0.0058831605
175	0x3d17fc62	0.037105925
176	0x3c360079	0.011108511
177	0x3d13f34c	0.036120698
178	0x3d061598	0.032735437
179	0x3c4fb347	0.01267702
180	0x3bcc18b8	0.0062285326
181	0x3d1d5d11	0.038418833
182	0x3d84cd01	0.06484414
183	0xbd5f252c	-0.05447881
184	0x3c639cb1	0.013892339
185	0xbc521d5c	-0.012824383
186	0xbc7be6d3	-0.015374857
187	0xbd1dece9	-0.038556013
188	0x3c84755f	0.016169248
189	0xbcd32f36	-0.025779348
190	0x3d384851	0.04499084
191	0x3c8f6fbb	0.017509332
192	0xbd2187bd	-0.03943609
193	0xbd7f4510	-0.062321723
194	0x3dbef010	0.09323132
195	0xbbdcb9c8	-0.006736014
196	0xbce821b8	-0.02833639
197	0xbc16aec9	-0.0091969455
198	0x3c9e7bb2	0.019346092
199	0xbbe6cbcd	-0.007043338
200	0xbb090c11	-0.0020911733
201	0xbcbbce37	-0.02292548
202	0xbd7ba10b	-0.06143288
203	0x3d855f00	0.065122604
204	0xbbd80129	-0.006591935
205	0x3cd8b658	0.026454136
206	0x3de84510	0.113412976
207	0xbce94f8c	-0.028480314
208	0x3c9674ac	0.01836618
209	0x3de9d8de	0.11418317
210	0xbd0b8a3a	-0.03406737
211	0xba0f2f11	-0.00054620305
212	0xbaa77a15	-0.0012777472
213	0xbdb5e2b0	-0.08881128
214	0x3d0f0932	0.03492088
215	0xbce6bae3	-0.028165286
216	0x3d0fbf5f	0.035094615
217	0xbd63c18e	-0.05560451
218	0xbd0d7db3	-0.034543704
219	0xbbfd1303	-0.0077232136
220	0x3d30095d	0.04297768
221	0x3cbb7fca	0.022888083
222	0x3c21039a	0.009827519
223	0xbbc7cacf	-0.0060971747
224	0x3d1723ad	0.036899257
225	0xbdd897e0	-0.10575843
226	0xbd1210cc	-0.03566055
227	0x3cb6522e	0.022255983
228	0x3d1a6a62	0.03769911
229	0x3d8b3ed4	0.06799093
230	0xbc436298	-0.011925362
231	0x3d0e2a89	0.034708533
232	0xbb50e834	-0.0031876685
233	0x39f18143	0.0004606341
234	0x3d4dd251	0.0502494
235	0x3baad01e	0.005212798
236	0xbcc8f89d	-0.02453261
237	0x3da5f51f	0.08103394
238	0xbd5e6ca1	-0.054302815
239	0x3d0d438c	0.034488246
240	0xbd91fda9	-0.0712846
241	0xbc3de4fa	-0.011590237
242	0xbdf9bfe3	-0.121948026
243	0x3c61cea2	0.013782175
244	0xbc85d85a	-0.016338516
245	0xbdc2a072	-0.09503259
246	0x3d0a2e62	0.03373564
247	0xbd6fbb1a	-0.058528043
248	0xbc929c05	-0.017896662
249	0xbc91ca4c	-0.017796658
250	0xbc46775f	-0.012113421
251	0x3ba2d1cb	0.004968857
252	0x3d110cd2	0.035412617
253	0x3c3c0f22	0.011478217
254	0xbd19a6ab	-0.037512463
255	0xbd23b4d2	-0.039967366

conv3.bias f4 [64]
0	0x3d0fad8e	0.035077624
1	0x3d24d9b9	0.0402467
2	0x3c26ab13	0.010172623
3	0x3d0e8794	0.034797266
4	0x3c23dac8	0.010000892
5	0xbd0f07c2	-0.034919508
6	0x3d035e61	0.03207243
7	0x3d1f5cca	0.03890685
8	0xb98762a1	-0.0002582269
9	0x3d0a0e24	0.03370489
10	0x3b70c914	0.0036740946
11	0xbcaa0b44	-0.020757325
12	0x3bbd2414	0.005772123
13	0xbd016127	-0.031586792
14	0xbc421de2	-0.011847945
15	0xbcda79bb	-0.026669374
16	0xbce6c9f0	-0.028172463
17	0x3d28dd8b	0.041226905
18	0xbc89c9ba	-0.016819824
19	0x3d24ccb4	0.040234283
20	0xbd15469c	-0.03644429
21	0x3cf454b9	0.029825555
22	0x3d0f102b	0.03492753
23	0xbc321778	-0.010869853
24	0xbd119d5f	-0.03555047
25	0x3ca79ba8	0.020459965
26	0x3d1cbc8a	0.038265742
27	0xbbdac1df	-0.0066759433
28	0x3c769813	0.015050906
29	0x3c5e1ce4	0.013556693
30	0x3c74037a	0.014893407
31	0x3d0c858b	0.034307044
32	0x3d1ba019	0.037994478
33	0x3ce3636e	0.027757373
34	0xbcf0a157	-0.029373808
35	0xbc9c3d64	-0.019072242
36	0xbd0b9133	-0.03407402
37	0x3d237a6a	0.039911665
38	0x3ced1a6f	0.028943269
39	0x3d0742d5	0.03302272
40	0x3d1b6ee2	0.037947543
41	0xbc8a405e	-0.016876396
42	0xbce2fd03	-0.027708536
43	0x3ce598af	0.028026907
44	0x3d0c1087	0.03419545
45	0x3cb65484	0.022257097
46	0xbb938deb	-0.004503002
47	0x3ce74e38	0.02823554
48	0xbc3c7628	-0.01150278
49	0x3d10ce68	0.035353094
50	0x3ba6ddd3	0.0050923615
51	0x3d0e21fa	0.03470037
52	0x3c981227	0.018563343
53	0x3d2a5609	0.041585956
54	0x3d26921d	0.04066669
55	0x3d2bf9b6	0.04198619
56	0x3cd8089b	0.02637129
57	0x3d2461d9	0.040132377
58	0x3d206a08	0.03916362
59	0x3d1a106e	0.037613325
60	0x3d2859fa	0.041101433
61	0xbd12ba16	-0.035821997
62	0x3d289650	0.041158974
63	0x3d1e51a6	0.038652085

bn1.weight f4 [64]
0	0x3f82cbcd	1.0218445
1	0x3f7ffb6d	0.9999302
2	0x3f807344	1.0035176
3	0x3f80c737	1.0060796
4	0x3f794f62	0.97386754
5	0x3f7d9e13	0.9906933
6	0x3f82ff74	1.0234208
7	0x3f7acaf2	0.9796592
8	0x3f7bd1a4	0.9836676
9	0x3f7ce83c	0.9879186
10	0x3f7e1cbe	0.9926261
11	0x3f85947a	1.0435936
12	0x3f805269	1.002515
13	0x3f78a7db	0.9713113
14	0x3f7c69b6	0.985988
15	0x3f85b422	1.0445597
16	0x3f80e559	1.0069991
17	0x3f84b3f7	1.0367421
18	0x3f82e58b	1.0226301
19	0x3f7d856e	0.9903172
20	0x3f80ba69	1.0056888
21	0x3f7b0990	0.98061466
22	0x3f7a35db	0.97738427
23	0x3f809470	1.00453
24	0x3f85075d	1.0392872
25	0x3f840b41	1.0315934
26	0x3f815312	1.0103476
27	0x3f811554	1.0084634
28	0x3f8251e8	1.0181246
29	0x3f83dd87	1.030198
30	0x3f80455c	1.0021167
31	0x3f7c1848	0.9847455
32	0x3f79cc88	0.97577715
33	0x3f798386	0.97466314
34	0x3f7a9760	0.9788723
35	0x3f80e72e	1.007055
36	0x3f7e3382	0.99297345
37	0x3f821957	1.0163983
38	0x3f7be1e1	0.9839154
39	0x3f81fecf	1.0155886
40	0x3f8402e3	1.0313381
41	0x3f7bfa1d	0.9842852
42	0x3f7ecefb	0.9953458
43	0x3f831d5b	1.0243334
44	0x3f7d0eab	0.98850507
45	0x3f7d7c1c	0.990175
46	0x3f8143b4	1.0098786
47	0x3f843ec2	1.0331652
48	0x3f81616d	1.0107857
49	0x3f7899b1	0.97109514
50	0x3f7baabb	0.9830739
51	0x3f810ec5	1.0082632
52	0x3f7aa9f3	0.9791557
53	0x3f7c6e38	0.9860568
54	0x3f84cc2c	1.0374808
55	0x3f7ea345	0.9946788
56	0x3f7aed16	0.98018014
57	0x3f78b029	0.971438
58	0x3f79815d	0.9746302
59	0x3f80c197	1.0059079
60	0x3f814619	1.0099517
61	0x3f82cbd3	1.0218452
62	0x3f8084ee	1.0040567
63	0x3f8192b2	1.0122893

bn1.bias f4 [64]
0	0xbca85b04	-0.020551212
1	0xb9268a44	-0.00015882502
2	0xbcef6f82	-0.029227976
3	0xbc3550a6	-0.011066591
4	0xbd01a347	-0.031649854
5	0x3aeb9591	0.0017973651
6	0xbcc7bc5a	-0.024381805
7	0xbbc281df	-0.005935892
8	0xbc1007f2	-0.008790957
9	0x3d02e114	0.031952932
10	0xbc3824e7	-0.011239267
11	0x3c8c8062	0.017151061
12	0xbd0cd683	-0.03438426
13	0xba92b2d7	-0.0011192214
14	0xbce44963	-0.027867025
15	0x3c243358	0.010022007
16	0x3bd4b7a0	0.0064916164
17	0xbc9ba084	-0.018997438
18	0xbcfacf62	-0.030616466
19	0xbc2d610e	-0.010582222
20	0xbc1590a1	-0.0091287205
21	0x3ccff6b3	0.02538619
22	0x3ce0bb17	0.027432961
23	0xbc06eb2d	-0.008234781
24	0xbca39fd8	-0.01997368
25	0x3c3c255f	0.011483519
26	0xbd0b9fc7	-0.034087922
27	0x3ccab3d0	0.024743944
28	0x3cf50685	0.029910335
29	0xbcdf9d4f	-0.02729669
30	0x3a609b85	0.0008568096
31	0xbc85100b	-0.016243001
32	0xbd29fe9f	-0.04150259
33	0xbc23f7fa	-0.010007853
34	0x3c519868	0.012792684
35	0xbc7a70bd	-0.015285668
36	0xbc727f7d	-0.014800903
37	0xbcdddedf	-0.027083812
38	0xbc3e25be	-0.011605678
39	0xbcba9f78	-0.022781119
40	0x3ce67f72	0.028136943
41	0x3bc9516b	0.006143739
42	0xba8331d3	-0.0010009356
43	0x3c559951	0.013037042
44	0x3c0c5b76	0.008566728
45	0x3c56404c	0.013076853
46	0xbc69d8ac	-0.01427285
47	0xbade99a5	-0.0016983045
48	0xbd2cb6cd	-0.04216652
49	0x3c120a86	0.008913642
50	0x3cd14f99	0.02555065
51	0x3b651ac8	0.003495859
52	0xbc7f0ea3	-0.0155674545
53	0xba71ae51	-0.00092193956
54	0xbc905db6	-0.01762281
55	0x3c3758df	0.011190622
56	0x3bc6f06c	0.006071141
57	0x3c2c598c	0.0105193965
58	0x3cf6df68	0.030135825
59	0x3c861fcd	0.016372586
60	0xbacc8c0f	-0.0015605706
61	0x3b402f9c	0.0029325252
62	0xbc997c07	-0.018735899
63	0xbc43d0d6	-0.011951646

bn1.running_mean f4 [64]
0	0xbc0241b3	-0.007950234
1	0x3c117eb0	0.008880302
2	0x3c2664a5	0.010155831
3	0xba916d72	-0.0011095239
4	0xba2fb93d	-0.0006703323
5	0x3b1eab0c	0.0024210839
6	0xbbc8e96e	-0.0061313426
7	0x3b5a55e3	0.0033315353
8	0xbbe47c7d	-0.006972848
9	0x3baa19ec	0.0051910784
10	0x3bd0ccfa	0.0063720914
11	0x3b5e05cc	0.0033877967
12	0xbb804879	-0.0039148894
13	0x3b64ebb7	0.0034930536
14	0xbc4d64d5	-0.012536247
15	0xbb27177f	-0.0025496182
16	0xbb0de424	-0.0021650875
17	0xbbed6b3a	-0.0072454484
18	0x3c12390b	0.008924733
19	0xbb4a4ef8	-0.0030869823
20	0xbb9b4ccf	-0.004739381
21	0xb9da5e90	-0.00041650655
22	0xbc49b530	-0.012311265
23	0x3b26ac17	0.0025432163
24	0x3be1ab3a	0.006886867
25	0x3bcaa0ed	0.0061837346
26	0xbbd45025	-0.0064792805
27	0xbbba5d54	-0.005687395
28	0x3bef2a4f	0.0072987447
29	0xbc10e594	-0.008843798
30	0x3b4940fc	0.00307089
31	0xba2851db	-0.0006420889
32	0x3b174f8c	0.0023088185
33	0x3be4da39	0.006984022
34	0xbc46d0f5	-0.01213478
35	0x3c15cdf7	0.009143344
36	0x3c094b06	0.008379703
37	0x3a8d7ef8	0.0010795286
38	0x394e1b9a	0.00019655973
39	0x3bf0532e	0.0073341345
40	0x3bd7280b	0.006566053
41	0xbb54d6bf	-0.0032476631
42	0x3ba451fe	0.005014657
43	0x3b6835ce	0.003543246
44	0xbbdfea90	-0.006833382
45	0x3b98f7b5	0.004668201
46	0xba329280	-0.00068119913
47	0xbad0ada9	-0.0015920895
48	0x3c69286b	0.014230828
49	0xbbfa4ed0	-0.0076387897
50	0xbb2118a0	-0.0024581328
51	0x3b23cdd0	0.00249945
52	0xbb796980	-0.0038057268
53	0xbb31d81e	-0.0027136873
54	0xbc4e3ba3	-0.012587461
55	0xb912189d	-0.00013932814
56	0x3a68a880	0.0008875206
57	0x39004855	0.00012233977
58	0xba93fcd5	-0.001129056
59	0xbb1c1434	-0.0023815753
60	0xbbcac6b1	-0.0061882366
61	0x3b0b8c3b	0.00212933
62	0xb9ce238f	-0.00039317875
63	0xbabd19e8	-0.0014427276

bn1.running_var f4 [64]
0	0x3c851a5f	0.016247926
1	0x3d362a2b	0.04447381
2	0x3c3eb8ce	0.011640741
3	0x3d2f3aae	0.04278057
4	0x3d39fbff	0.045406338
5	0x3d109680	0.035299778
6	0x3c8a2b6e	0.016866412
7	0x3cfac440	0.030611157
8	0x3d6fb059	0.058517788
9	0x3c9440c0	0.018097281
10	0x3c40fc07	0.011778838
11	0x3c8920db	0.0167393
12	0x3c928da2	0.017889801
13	0x3d227877	0.039665665
14	0x3cff3c63	0.031156724
15	0x3d09fa45	0.03368594
16	0x3c8cb22b	0.0171748
17	0x3c046488	0.008080609
18	0x3c9daf99	0.01924877
19	0x3cd3e9f7	0.0258684
20	0x3ca5abed	0.020223582
21	0x3d40b58c	0.047048137
22	0x3d1fe97a	0.03904102
23	0x3d237ebc	0.039915785
24	0x3d243196	0.04008635
25	0x3cf6e7dd	0.030139858
26	0x3cd116f9	0.02552365
27	0x3d55bf8a	0.05218462
28	0x3c8040a9	0.015655832
29	0x3cee573d	0.029094333
30	0x3d1cbd17	0.038266268
31	0x3d0f871f	0.03504097
32	0x3d3761a0	0.044770837
33	0x3cc56fbe	0.024101134
34	0x3e6036e2	0.21895936
35	0x3c8e46ec	0.017367803
36	0x3d447844	0.047966257
37	0x3ca15e09	0.01969816
38	0x3ca1476b	0.019687375
39	0x3d1ffefa	0.039061524
40	0x3c916531	0.017748447
41	0x3cf769cc	0.030201815
42	0x3bd5e711	0.0065277894
43	0x3c679a67	0.0141359335
44	0x3cf87f2e	0.030334082
45	0x3bd5670c	0.0065125283
46	0x3d517880	0.05114031
47	0x3cbf8648	0.02337946
48	0x3cdfb0df	0.027306018
49	0x3cbd2ac2	0.023091678
50	0x3d2ea312	0.042635985
51	0x3d12f799	0.03588066
52	0x3c8ea95c	0.017414741
53	0x3c9a8a20	0.018864691
54	0x3ca93baa	0.020658333
55	0x3d9f5e7b	0.077816926
56	0x3d382f58	0.044967026
57	0x3d13d50a	0.03609184
58	0x3c7f32e3	0.015576097
59	0x3d42800c	0.047485396
60	0x3cab42b8	0.020905837
61	0x3ca47420	0.020074904
62	0x3d21b8cb	0.039482873
63	0x3d296fe0	0.041366458

bn2.weight f4 [64]
0	0x3f7e7c34	0.9940827
1	0x3f7b8015	0.9824231
2	0x3f7c3726	0.9852165
3	0x3f7f0aef	0.9962606
4	0x3f82bf4a	1.0214627
5	0x3f7a0d55	0.97676593
6	0x3f8126f2	1.009001
7	0x3f83a633	1.0285095
8	0x3f8386dc	1.0275531
9	0x3f7f8645	0.99814254
10	0x3f7b349f	0.9812717
11	0x3f7a3ed6	0.9775213
12	0x3f7c36c8	0.9852109
13	0x3f80483a	1.0022042
14	0x3f8046cf	1.0021609
15	0x3f82e8f7	1.0227345
16	0x3f7b7044	0.9821818
17	0x3f810cc1	1.0082017
18	0x3f83242a	1.0245411
19	0x3f8340b1	1.0254117
20	0x3f8160e1	1.010769
21	0x3f838069	1.0273563
22	0x3f804bdf	1.0023154
23	0x3f814f1a	1.0102265
24	0x3f7b0671	0.98056704
25	0x3f7f9f0c	0.9985206
26	0x3f834b36	1.0257328
27	0x3f7dccaa	0.9914042
28	0x3f7eaa97	0.9947905
29	0x3f81d050	1.0141697
30	0x3f78e771	0.9722815
31	0x3f7fc7b1	0.9991408
32	0x3f79e5fb	0.9761655
33	0x3f7badd8	0.9831214
34	0x3f80a9f3	1.0051864
35	0x3f7f9905	0.99842864
36	0x3f7b5d12	0.9818889
37	0x3f7fa88b	0.9986655
38	0x3f80e5ab	1.0070089
39	0x3f823a90	1.0174122
40	0x3f7c4c8c	0.985543
41	0x3f7acbe2	0.9796735
42	0x3f7eba4d	0.9950302
43	0x3f8209c3	1.0159229
44	0x3f821bca	1.016473
45	0x3f7bc10e	0.98341453
46	0x3f7d4903	0.9893953
47	0x3f7bbd21	0.9833546
48	0x3f8105d3	1.0079902
49	0x3f77258f	0.96541685
50	0x3f814d70	1.0101757
51	0x3f7d6ecd	0.98997194
52	0x3f7b6576	0.9820169
53	0x3f7bfa6a	0.98428977
54	0x3f82315b	1.0171312
55	0x3f78711a	0.9704758
56	0x3f833ea2	1.0253489
57	0x3f8432f1	1.0328046
58	0x3f7f8cd6	0.99824274
59	0x3f803827	1.0017136
60	0x3f7b142e	0.98077667
61	0x3f7fd843	0.99939364
62	0x3f7a2c38	0.9772372
63	0x3f81b0ab	1.013204

bn2.bias f4 [64]
0	0x3c3eb441	0.011639656
1	0x3cb7a694	0.022418298
2	0xbc83f8ae	-0.01610979
3	0xbb86bf07	-0.0041121277
4	0x3cb31bb9	0.021863805
5	0xbc6c0ebe	-0.014407812
6	0xbd19c9a5	-0.03754582
7	0xbc71ec75	-0.014765848
8	0xbb2730c7	-0.0025511251
9	0x3c8ccd48	0.01718773
10	0xbd026241	-0.031831983
11	0x3cea12a8	0.02857335
12	0xbc86f0d8	-0.016472265
13	0xbcbdff9b	-0.023193171
14	0xb7f1b8d8	-2.8815513e-05
15	0xbcec4440	-0.028841138
16	0x3c2be722	0.010492118
17	0x3c9b815c	0.018982582
18	0xbc2f09c9	-0.010683485
19	0x3aec342d	0.0018020921
20	0x3c6c893a	0.014437014
21	0xbcaefd62	-0.021361057
22	0x3d0b86d0	0.034064114
23	0x3c24f84f	0.010068967
24	0xbcb1b785	-0.021693954
25	0x3ca36f97	0.019950671
26	0x3ac6471d	0.0015127395
27	0xbcbbd325	-0.02292783
28	0x3c99604a	0.018722672
29	0xbc89825d	-0.016785795
30	0xbcbe981a	-0.023265887
31	0xbc567862	-0.013090225
32	0x38aff909	8.391037e-05
33	0xbb82fbbf	-0.0039972956
34	0xbd10bc5e	-0.03533589
35	0x3b48d026	0.0030641644
36	0xbcd8502c	-0.026405416
37	0x3aeee663	0.001822662
38	0xbca7e99a	-0.020497132
39	0xbc94c8a8	-0.018162087
40	0xbcc95212	-0.024575267
41	0x3d0e2677	0.03470465
42	0x3b861763	0.0040921434
43	0xbc2b09e9	-0.0104393745
44	0xbcbe108b	-0.023201248
45	0x3c895dcb	0.016768357
46	0xbcb69e60	-0.022292316
47	0xbc83e76d	-0.016101563
48	0x3ce20333	0.027589416
49	0x3cb23c90	0.021757394
50	0x3ce345d0	0.02774325
51	0x3b9dfb9c	0.004821254
52	0xbbb85abe	-0.0056260517
53	0x3c86ebd8	0.016469881
54	0x3b78228d	0.003786239
55	0xbc0c6191	-0.0085681835
56	0xbcd450f6	-0.025917511
57	0x3cb62d80	0.022238493
58	0xbcf2d3c5	-0.029641995
59	0x3d1872ad	0.03721874
60	0x3be7c1e1	0.0070726727
61	0xbad14f0c	-0.0015968992
62	0xbcba12ae	-0.022713985
63	0x3caf279d	0.021381194

bn2.running_mean f4 [64]
0	0xbfb966be	-1.448448
1	0x3fd75ea7	1.6825761
2	0x3eeb5c9a	0.45969087
3	0x401b4654	2.4261675
4	0x3f58d752	0.8470355
5	0xbfba4fd4	-1.4555612
6	0x4041a342	3.0255895
7	0xbec95e8c	-0.39329946
8	0x3eaba74d	0.33526078
9	0x3ebc53e9	0.36782768
10	0xbed9f3b7	-0.42568752
11	0x3ff8e8c1	1.9446031
12	0xbfed790b	-1.8552564
13	0x403eafb7	2.9794748
14	0xc012bd86	-2.2928176
15	0x3f981914	1.1882653
16	0x403f5b36	2.989942
17	0xbfdcc24b	-1.7246794
18	0x3ec07d5b	0.3759564
19	0x3e4ee2bd	0.20203681
20	0xc04adc89	-3.1697104
21	0xbf483dc4	-0.78219247
22	0x3f0d300a	0.55151427
23	0x3f1dad22	0.61592305
24	0x4018a90a	2.3853173
25	0x4037c330	2.8712883
26	0xbd5264a8	-0.051365525
27	0xbec68dd5	-0.38780084
28	0x3fc5d574	1.5455766
29	0x3f46f6f2	0.7772056
30	0xbdaafbd8	-0.08348817
31	0x3fa282a3	1.2696117
32	0x405186ba	3.273848
33	0x3ed2c5d8	0.41166568
34	0x3fc88a03	1.5667118
35	0x3f385bfc	0.72015357
36	0x3e8f511c	0.2799157
37	0x3fd9c61e	1.7013586
38	0xbf38b39a	-0.7214905
39	0x3f4480a9	0.7675882
40	0x400da8f6	2.2134376
41	0x400a9564	2.165368
42	0xbdcf4908	-0.101213515
43	0x3fd61598	1.672534
44	0x3f3be708	0.733994
45	0x40132444	2.2990885
46	0xbf0a1444	-0.5393717
47	0xc02dfa03	-2.7183845
48	0x3f54d0a8	0.83130884
49	0x3efe25a5	0.49638095
50	0x3f866114	1.0498376
51	0x3ee891c9	0.45423725
52	0x3feda43b	1.8565744
53	0x3ebe4df3	0.37168846
54	0x3e8c83a5	0.27444187
55	0x3e4ff75c	0.20309204
56	0xbefcfafa	-0.4941023
57	0x3f2f7ab9	0.68546635
58	0xbeca123f	-0.39467046
59	0x3f2f411f	0.6845874
60	0xbfec8d71	-1.8480664
61	0x3f914a3f	1.1350783
62	0x402557d2	2.5834851
63	0x3c9b3203	0.018944746

bn2.running_var f4 [64]
0	0x407df0c4	3.9678202
1	0x409f76f7	4.983272
2	0x3febe28a	1.8428509
3	0x4061d960	3.5288925
4	0x40083bea	2.1286569
5	0x403c1ff0	2.9394493
6	0x4108970a	8.536875
7	0x405e5901	3.4741824
8	0x3fe6bfe1	1.8027307
9	0x401c3a7f	2.4410703
10	0x4001e2ac	2.02946
11	0x408d6843	4.4189773
12	0x40ac8d42	5.3922434
13	0x41097d0c	8.593029
14	0x40d89034	6.767603
15	0x407d3481	3.9563296
16	0x411c3dbc	9.765072
17	0x40bdb582	5.9284067
18	0x40661317	3.5949152
19	0x4054f5dd	3.3275063
20	0x41128120	9.156525
21	0x407371bf	3.8038175
22	0x3fa19f3c	1.262672
23	0x408af94a	4.342931
24	0x40f2d76e	7.5887976
25	0x40f1d748	7.5575294
26	0x4094dcbb	4.6519446
27	0x408e0f82	4.439393
28	0x40aad415	5.338389
29	0x400e4774	2.2231112
30	0x4046d258	3.1065884
31	0x4081c0de	4.0547934
32	0x41544160	13.265961
33	0x4089c1cb	4.3049064
34	0x40b5c572	5.680352
35	0x4098a4d6	4.7701216
36	0x4046d63e	3.1068263
37	0x407f9406	3.9934096
38	0x40d08464	6.516161
39	0x4008325b	2.1280735
40	0x40edac51	7.4272847
41	0x409544f7	4.6646686
42	0x402ecb8e	2.731174
43	0x408f597b	4.479673
44	0x402cfd05	2.702943
45	0x40a4614f	5.1368785
46	0x40755862	3.8335195
47	0x4107d9bf	8.490661
48	0x4014c359	2.324423
49	0x407278d8	3.7886257
50	0x4028f4d5	2.6399434
51	0x4099a943	4.801912
52	0x40e0710f	7.013801
53	0x407ec3fb	3.9807117
54	0x3faf20b7	1.3681859
55	0x40d8b363	6.771898
56	0x402ad1eb	2.6690624
57	0x3fc1ae0d	1.5131241
58	0x3fe88a7d	1.8167263
59	0x408c6860	4.387741
60	0x410865d2	8.524858
61	0x403c57ce	2.9428592
62	0x40ee7399	7.451611
63	0x3fd869d6	1.6907299

bn3.weight f4 [64]
0	0x3f8625d9	1.04803
1	0x3f861e2e	1.047796
2	0x3f864790	1.0490589
3	0x3f8626d5	1.04806
4	0x3f8611c7	1.0474175
5	0x3f85cd43	1.0453266
6	0x3f85ff85	1.0468603
7	0x3f8611dc	1.04742
8	0x3f862794	1.0480828
9	0x3f85afdd	1.0444294
10	0x3f85f01d	1.0463902
11	0x3f863930	1.0486202
12	0x3f85e008	1.0458994
13	0x3f86175a	1.0475876
14	0x3f85fb9b	1.0467409
15	0x3f85e2f9	1.0459892
16	0x3f86467e	1.0490263
17	0x3f8638ca	1.0486081
18	0x3f860827	1.0471238
19	0x3f86419e	1.0488775
20	0x3f8646b0	1.0490322
21	0x3f860d1f	1.0472754
22	0x3f864264	1.0489011
23	0x3f867265	1.050366
24	0x3f863575	1.0485064
25	0x3f85f1c1	1.0464402
26	0x3f8625d0	1.048029
27	0x3f85ac38	1.0443182
28	0x3f861ba9	1.0477191
29	0x3f8668e6	1.0500762
30	0x3f85ceaa	1.0453694
31	0x3f86044e	1.0470064
32	0x3f862a29	1.0481616
33	0x3f861e03	1.0477909
34	0x3f85f3ef	1.0465068
35	0x3f8667ea	1.0500462
36	0x3f85ff6a	1.0468571
37	0x3f860486	1.047013
38	0x3f859f7e	1.0439298
39	0x3f85fb49	1.0467311
40	0x3f860b3e	1.0472181
41	0x3f861957	1.0476483
42	0x3f864a2e	1.0491388
43	0x3f85f287	1.0464638
44	0x3f85d0ec	1.0454383
45	0x3f85a7c7	1.0441827
46	0x3f8582b0	1.0430508
47	0x3f860b34	1.0472169
48	0x3f8610d7	1.0473889
49	0x3f8617a6	1.0475967
50	0x3f863d8a	1.048753
51	0x3f85f7c7	1.0466241
52	0x3f8610b2	1.0473845
53	0x3f85f909	1.0466624
54	0x3f8618ed	1.0476357
55	0x3f862fd2	1.0483344
56	0x3f856c95	1.0423762
57	0x3f864252	1.0488989
58	0x3f86131d	1.0474583
59	0x3f85d7eb	1.0456518
60	0x3f86104e	1.0473726
61	0x3f865fa6	1.049794
62	0x3f864390	1.0489368
63	0x3f8666e1	1.0500146

bn3.bias f4 [64]
0	0x3d3639e8	0.044488817
1	0x3d3d8278	0.046267003
2	0x3d463ea2	0.048399575
3	0x3d4a6c4d	0.04941969
4	0x3d3da70a	0.04630188
5	0x3d3c98cc	0.046044156
6	0x3d4383b6	0.04773303
7	0x3d3f486e	0.046699934
8	0x3d486f09	0.048934016
9	0x3d3da727	0.046301987
10	0x3d473ad2	0.04864008
11	0x3d4ed2b9	0.05049393
12	0x3d42ab99	0.04752693
13	0x3d3ce2ba	0.04611466
14	0x3d33d7be	0.04390692
15	0x3d4147a8	0.047187477
16	0x3d3c2448	0.045933038
17	0x3d4c2704	0.049841896
18	0x3d3fb530	0.046803653
19	0x3d4c7dc3	0.049924623
20	0x3d43d336	0.04780885
21	0x3d41ce20	0.047315717
22	0x3d39a919	0.04532728
23	0x3d4c2788	0.049842387
24	0x3d3f6317	0.04672536
25	0x3d40c792	0.047065325
26	0x3d4db99d	0.050225843
27	0x3d2b6dde	0.041852824
28	0x3d3ee3fc	0.04660414
29	0x3d4437a3	0.04790462
30	0x3d38d33b	0.04512332
31	0x3d49bb37	0.049250808
32	0x3d471422	0.048603185
33	0x3d43fed3	0.04785044
34	0x3d3ea031	0.04653949
35	0x3d480b74	0.048839048
36	0x3d3e0f44	0.046401277
37	0x3d4291d6	0.04750236
38	0x3d422d9a	0.04740677
39	0x3d477dfb	0.04870413
40	0x3d43f118	0.047837347
41	0x3d400d38	0.046887606
42	0x3d4593f2	0.048236795
43	0x3d47760a	0.048696555
44	0x3d430b36	0.047618113
45	0x3d45d96c	0.048303053
46	0x3d31c697	0.04340228
47	0x3d4941e3	0.0491351
48	0x3d3f9164	0.046769515
49	0x3d49211c	0.04910384
50	0x3d367dc6	0.04455354
51	0x3d44714c	0.04795961
52	0x3d450ebf	0.048109766
53	0x3d4347db	0.04767595
54	0x3d3d7d44	0.04626204
55	0x3d320356	0.043460213
56	0x3d42c9b1	0.04755563
57	0x3d4883cf	0.048953827
58	0x3d40cac0	0.047068357
59	0x3d4066a8	0.0469729
60	0x3d3f7ab7	0.04674789
61	0x3d420542	0.047368295
62	0x3d3cb054	0.046066597
63	0x3d42fa2c	0.047601864

bn3.running_mean f4 [64]
0	0x3ffd5ce5	1.9793974
1	0x40081bdf	2.126701
2	0x3f01f37c	0.5076215
3	0x3ffefee3	1.9921535
4	0x3ec5ade5	0.38609233
5	0xbfb5af49	-1.4194118
6	0x3f6daa56	0.92838037
7	0x3fbebe8f	1.4901904
8	0x3ee12eb9	0.4398096
9	0x401d320e	2.45618
10	0x3ea37c02	0.31930548
11	0xc023b307	-2.557802
12	0x3f9c56ad	1.2213951
13	0xbf1bf2d3	-0.60917395
14	0x3f03b88b	0.51453465
15	0xbedbfed3	-0.42967853
16	0xbf03ed5a	-0.51534045
17	0x3fbd26aa	1.4777424
18	0x3e6b5c4f	0.22984432
19	0x3feb7059	1.8393661
20	0xbf629b42	-0.88518155
21	0x3fcfd08d	1.623552
22	0x3f2f5188	0.6848378
23	0x3e8642a0	0.26222706
24	0xbf811564	-1.0084653
25	0x3f38ab51	0.7213641
26	0x3f8fbc2f	1.1229304
27	0x3f82d352	1.022074
28	0x3fa0d77b	1.256576
29	0x3fab483d	1.338142
30	0x4000559a	2.0052247
31	0x3f953d7d	1.165939
32	0x4004c6b6	2.0746284
33	0x3f1dacec	0.6159198
34	0xbc5cd383	-0.013478163
35	0x3e21458d	0.15749188
36	0xbf94a214	-1.1611962
37	0x3fc51e6e	1.5399911
38	0x3f7f63d3	0.99761695
39	0x3f7eab0a	0.99479735
40	0x3fa7a396	1.3096797
41	0xbe22032a	-0.1582152
42	0x3e5527db	0.20815985
43	0x3e82895b	0.2549542
44	0x3f8f41f3	1.1192001
45	0x3ee50c5d	0.44735995
46	0x3f53a111	0.8266764
47	0x3f7cc4c6	0.9873775
48	0xbe4cffc7	-0.20019446
49	0x3fb9ef3b	1.4526132
50	0x3df89d09	0.12139327
51	0x3ff4891d	1.9104344
52	0x3ed35cdd	0.41281787
53	0x4004c9d6	2.074819
54	0x4001b643	2.0267494
55	0x400b17eb	2.1733348
56	0x3f8bac0d	1.0911881
57	0x3ff53acf	1.9158572
58	0x3fd2e8bf	1.6477278
59	0x3fa48ea7	1.2856034
60	0x4016fa2f	2.35902
61	0xbecf292c	-0.404611
62	0x400a01a9	2.1563513
63	0x3fa4cb29	1.28745

bn3.running_var f4 [64]
0	0x3f904a5f	1.1272696
1	0x3fbbb1d2	1.4663641
2	0x3fedb80c	1.8571792
3	0x3fa7159e	1.3053472
4	0x3f8c8f31	1.0981199
5	0x3f27ea47	0.65591854
6	0x3f662b89	0.8991018
7	0x3f710fbd	0.9416464
8	0x3fcdd06b	1.6079229
9	0x3fb1b652	1.3883765
10	0x3f903d7f	1.1268767
11	0x3ffa7db2	1.9569609
12	0x3ff7f3d5	1.9371287
13	0x3f2467d2	0.6422092
14	0x4000d743	2.0131385
15	0x3f0f60a3	0.5600683
16	0x3f7a8559	0.9785972
17	0x3f4f1a19	0.80899197
18	0x3efd0c06	0.49423236
19	0x3f86b799	1.052478
20	0x3f270656	0.6524404
21	0x3fbe09ae	1.4846704
22	0x3fca9492	1.582659
23	0x3f37bdbd	0.7177389
24	0x3f8d6798	1.1047239
25	0x3fa2c168	1.2715273
26	0x3f4278db	0.7596566
27	0x3fb25004	1.3930669
28	0x3f50d47e	0.8157424
29	0x3f8ff34f	1.1246127
30	0x3ffead75	1.9896685
31	0x3f230382	0.6367723
32	0x3f6e2a75	0.93033534
33	0x3eefca1e	0.4683389
34	0x40145fed	2.3183548
35	0x3f2f1d3a	0.6840397
36	0x3f5eb203	0.86990374
37	0x3f1ee7e4	0.62072587
38	0x3fbb7bf8	1.4647207
39	0x3f3cc45f	0.7373714
40	0x3ff41f7c	1.9072108
41	0x3f426d2a	0.7594782
42	0x3ed15ea0	0.40892506
43	0x3f3e0969	0.7423311
44	0x3fc59adf	1.5437888
45	0x3f9b7822	1.2146037
46	0x3f4d7516	0.80256784
47	0x3f42c19a	0.7607666
48	0x3fc71f0e	1.5556352
49	0x3fb85f30	1.4404049
50	0x3fc9d305	1.5767523
51	0x3fd53643	1.6657184
52	0x3f540eb8	0.8283496
53	0x3f7cb3d8	0.9871192
54	0x3f9f109b	1.2426943
55	0x3f80e69f	1.007038
56	0x3fbe43b1	1.4864408
57	0x3f4629b0	0.7740736
58	0x3fc89c65	1.5672728
59	0x3f6babdf	0.9205913
60	0x3f80a3fa	1.0050042
61	0x3f2fd4be	0.68683994
62	0x3f9e86c2	1.2384875
63	0x3f2574ef	0.6463155
