mnist_test/maml_mnistXX/output/mnist-5wayTEST/train_iter_0.pth (torch_old, 679263 bytes, 24 tensors)

features.conv1.weight f4 [32, 1, 3, 3]
00000000: 476f 663c fcdf dfbb 3bb1 fdbc ee3d 9ebd
00000010: eb7f 513d ab9f 933a 56dd a03d a7f7 8e3b
00000020: 995c ee3c 8e5c c93d d97c e4bd 6a3a 32bd
00000030: 273c a93c 9fbe abbc 623d 9fbd 8bb4 023e
00000040: 7a27 e43d 23fa 4ebc b79e ca3c 39ac a23d
00000050: f0db 2ebe 5b3c 243d 33bc fb3d a1a5 453d
00000060: 309d 353c 015f 06be 1809 c8bd 246b dcbc
00000070: e3dc 143d 85c5 86bd 5801 033e 9810 553e
00000080: 9e68 66bd 208a b2bc c670 ae3d b5fe 153c
00000090: 679c 683c 3295 c33d 2af2 c6bd e687 c3bc
000000a0: d526 29bd 13ae 9fbd 67b2 3e3d eb10 fdbd
000000b0: 00dd cbbd ef16 3f3d 33fd 4fbd 50b5 68bd
000000c0: 7a65 0b3e 0917 8bbd b598 e43d d08a c4bc
000000d0: 9af2 01be 7596 323e 9ac7 6a3e ae0e 16be
000000e0: 0fb7 f53d 2db8 ffbd e21b 8a3d 8a55 88bc
000000f0: 84d8 833d 70d2 013e 2b62 0a3e 72b3 0dbd
00000100: 9a60 8cbd eb21 503d 5ee9 57bb f297 8fbb
00000110: 68b4 2dbd af0b 233d 5873 a7bc 2b25 b4bd
00000120: 1973 2c3e 0a34 33bd 0d41 a03c 9402 723d
00000130: dd70 f1bd e3a5 9c3d c4c1 553c b0d1 a33c
00000140: 8c76 533e 5acb cebd bd88 ae3d badf 413d
00000150: b7f4 06be 7fcf d6bd 9cb9 6f3d ce75 7bbc
00000160: 86a5 f33c c334 e1bc c769 1e3d bed1 84bd
00000170: 5eec 0abd 8a31 19bd 28e7 acbd e0ad 07bd
00000180: 2451 0dbe 2afb eabd 84ab 51bc 4a34 a23d
00000190: 38b5 6d3b 3f25 79bd ac1d c3bc 8d20 1f3b
000001a0: cb98 61bc d7cd 25bc 0bdb d03c 1569 ee3d
000001b0: f472 353c e1eb 593e d884 56bd 2d6d 27be
000001c0: 97d3 d8bc 6ec3 d93a e31b a03d bad4 21be
000001d0: b648 743c 11a2 203d a5b1 15be 2c1a 4c3d
000001e0: bd71 163e 29d0 c73c 9c76 dc3c 4a0e 5bbd
000001f0: a760 5cbd 2494 e13c 3aaf 3fbd 1e0f fcbd
00000200: dc6c 30be c4eb 1a3e 626c dc3d 8fbb 1dbd
00000210: 47dd e33d 9647 0f3e fb3b 3abc d995 10be
00000220: 7fb7 52bb 4e7d a93b 1b72 b13d c34c 633d
00000230: c029 c93c 2793 81bd 2cb0 793d 7b72 953d
00000240: 2e2f 423e 4b14 a63d db82 01be eaf9 cebc
00000250: 6baa 2bbc 7743 debc 03b3 5abd 3949 c03d
00000260: 9738 abbd 5060 783c 6b12 d33d 4fec 97bc
00000270: 9c60 b2bd 483b 5bbd 68c7 083e 5eac 6abd
00000280: 8ae1 96bd a27c d53b da04 babb 4fc3 463e
00000290: 876b 69be bbfc 313d d3f9 88bd 2d18 b0bc
000002a0: 0005 b43a 0bba 2f3e 19cc 46bc b25c 8dbc
000002b0: dbc2 e8bd b0e7 bcbb 2a32 1dbe 3bf4 edbd
000002c0: c7ea f3bc 5967 c4bd 4a2d 353c c8cd 523c
000002d0: a128 823d 70cf 993d a574 14be 92c7 dc3d
000002e0: 69ae a13d 2cdb b23d d313 5b3d b2a0 ddbd
000002f0: af96 66bd 6674 353e ff81 2a3d 2006 ce3d
00000300: 8ac1 743c 37f1 f1bc 3e37 1a3e 8983 ef3d
00000310: 050b b63d 7ef4 55bd f2b0 20bd 74c9 453d
00000320: b857 253b a7b4 0cbe 8daa c03d 9677 353d
00000330: bcfa d1bd f91a a2bd 3c60 c7bb 887b 113c
00000340: 14a7 c33c 20df 73bd 7b16 ddbc 23e2 18bd
00000350: 98ec 5f3d 3d31 4b3d 959a d53d 521b 7e3d
00000360: 6229 303d adab 923d 6853 c3bc eddc 7abd
00000370: f2ff 42bd a752 f43c a993 39bd 8306 0cbd
00000380: 1fb5 4abd af91 8ebc 1d71 0b3b a386 c8bc
00000390: eddb c8ba a644 8e3d 2540 873a 2da0 14bd
000003a0: b80f 8e3d d67d 00be c110 563d 2d16 20be
000003b0: c4e5 a8bd 7d3e 8c3b a163 17bd 15a1 11bd
000003c0: 9dbc fd3d e969 8dbb 0a72 8bbd f2d3 c4bd
000003d0: cfca 0d3d cc75 b8bc e519 07bb 1ddf 97bd
000003e0: e222 d4bc 4fae 693c acc5 a0bd 4216 d3bd
000003f0: aef5 bc3d 05d5 23be f22a 38bd 5263 b63d
0.0140646165 -0.006832121 -0.0309683 -0.07726656 0.051147383 0.0011262795 0.078547165 0.0043630186
0.029096888 0.098321065 -0.11156625 -0.04351274 0.020658566 -0.020964919 -0.0777538 0.12764184
0.11140342 -0.012632879 0.024733884 0.07943005 -0.17076087 0.040096622 0.122917555 0.04825366
0.01108484 -0.13122179 -0.097673595 -0.026906557 0.036343466 -0.065806426 0.12793481 0.20807111
-0.056252114 -0.021794379 0.085176036 0.009154965 0.0141974455 0.09549941 -0.09714158 -0.023868512
-0.0412968 -0.07796874 0.046556856 -0.123567425 -0.09954262 0.04665273 -0.05077858 -0.056813538
0.13612929 -0.06791503 0.11161939 -0.023991972 -0.12690201 0.17440207 0.22927704 -0.14654037
0.11997806 -0.124863006 0.067435995 -0.01664235 0.064377815 0.12677932 0.1351401 -0.03459496
-0.06854363 0.050813597 -0.0032945494 -0.004382127 -0.042408377 0.039806064 -0.020440742 -0.08796152
0.16840781 -0.0437508 0.019562269 0.05908449 -0.11789105 0.07648828 0.013046686 0.019997448
0.20650691 -0.1009738 0.085221745 0.047332503 -0.13179289 -0.104887955 0.05852662 -0.015347911
0.029742014 -0.027490979 0.038675096 -0.06485318 -0.033916824 -0.03740076 -0.08442527 -0.033124804
-0.13800484 -0.11473687 -0.01279724 0.079201296 0.0036271345 -0.060826536 -0.02381786 0.0024280876
-0.013769339 -0.010119877 0.025495073 0.116411366 0.01107477 0.21281387 -0.052372783 -0.16350241
-0.026468081 0.0016614029 0.07817819 -0.15803805 0.014909914 0.03921706 -0.14618547 0.049829647
0.14691825 0.02439125 0.026912026 -0.053480424 -0.053803112 0.02753646 -0.04679797 -0.12307571
-0.17229027 0.15129 0.1076286 -0.038508948 0.1112619 0.13992152 -0.0113668395 -0.14119662
-0.003215283 0.005172408 0.08664342 0.055493128 0.02455604 -0.06326895 0.060959026 0.07297226
0.1896331 0.08109339 -0.12647574 -0.025265653 -0.0104776425 -0.02713178 -0.053393375 0.09388966
-0.08360403 0.015159681 0.10306247 -0.018545298 -0.08709833 -0.053523332 0.13357317 -0.05729329
-0.07367237 0.0065151015 -0.005676848 0.19410442 -0.22794925 0.043453913 -0.06688275 -0.021495903
0.00137344 0.17160814 -0.012133622 -0.017256115 -0.11365291 -0.005764924 -0.15351167 -0.11618849
-0.029775036 -0.095900245 0.011058161 0.012866445 0.063554056 0.07510269 -0.14497621 0.107802525
0.07894594 0.0873321 0.053485703 -0.10821666 -0.056296047 0.17720184 0.04162788 0.10059762
0.014938721 -0.029533966 0.15060136 0.1169501 0.088888206 -0.05223512 -0.03923125 0.048287824
0.0025229286 -0.13740788 0.0940753 0.0443035 -0.10252902 -0.07915301 -0.00608447 0.00887955
0.02388338 -0.05953896 -0.026988259 -0.037325036 0.054668993 0.049607504 0.10429875 0.062037773
0.043008216 0.07161651 -0.023843482 -0.061245847 -0.04760737 0.029824568 -0.045306835 -0.034185898
-0.049489137 -0.017403452 0.0021277138 -0.024478262 -0.0015324332 0.069466874 0.0010318799 -0.036285568
0.06936592 -0.12548003 0.05226207 -0.1563346 -0.08246949 0.00427991 -0.036960248 -0.03555401
0.12389491 -0.004315604 -0.068088606 -0.09610738 0.03461724 -0.022517107 -0.00206148 -0.07415602
-0.02589554 0.01426275 -0.07850203 -0.1030698 0.09226547 -0.15999229 -0.04496283 0.089056626

features.conv1.bias f4 [32]
00000000: d525 afb4 826e a6b4 4752 91b4 d516 2c34
00000010: ae07 c233 ae0c 4334 93da 5bb4 b11e 0133
00000020: 3100 7db4 6e7b bfb4 9c14 5532 e725 ee33
00000030: deaf d8b4 6feb 6435 e7d6 b7b4 1e1a 5634
00000040: 17d8 b133 9f04 b4b4 f363 9e34 5960 8232
00000050: cdde 89b4 a495 2db4 1ee1 9db2 de00 11b4
00000060: dc0d 6534 827c 3e35 0728 4fb4 dd04 5432
00000070: 2273 b034 8daa 53b4 8f61 e633 f280 1e33
-3.2623817e-07 -3.1000314e-07 -2.706822e-07 1.6027055e-07 9.035226e-08 1.8165403e-07 -2.0475481e-07 3.0063067e-08
-2.3562531e-07 -3.566633e-07 1.2402918e-08 1.1089633e-07 -4.0361095e-07 8.527922e-07 -3.4242768e-07 1.9939804e-07
8.281511e-08 -3.3530975e-07 2.9502516e-07 1.5177806e-08 -2.5680347e-07 -1.616632e-07 -1.8379577e-08 -1.3504493e-07
2.1332329e-07 7.09617e-07 -1.9292939e-07 1.234113e-08 3.2866325e-07 -1.9712952e-07 1.07279554e-07 3.6904517e-08

features.bn1.weight f4 [32]
00000000: fabf 7f3f b0be 7f3f 77bf 7f3f 4f20 803f
00000010: 5e20 803f 2ebf 7f3f 6020 803f 99c4 7f3f
00000020: 4d18 803f 4920 803f 8720 803f b7bf 7f3f
00000030: 1620 803f 8ac1 7f3f 431e 803f 1820 803f
00000040: ae1a 803f 8720 803f b0be 7f3f 8020 803f
00000050: 9520 803f 51bf 7f3f 6320 803f d6be 7f3f
00000060: 5320 803f 8620 803f 4d20 803f 35bf 7f3f
00000070: acbe 7f3f 6320 803f 5720 803f f01e 803f
0.9990231 0.9990034 0.9990153 1.000986 1.0009878 0.9990109 1.000988 0.9990936
1.0007416 1.0009853 1.0009927 0.9990191 1.0009792 0.9990469 1.0009235 1.0009794
1.0008142 1.0009927 0.9990034 1.0009918 1.0009943 0.999013 1.0009884 0.9990057
1.0009865 1.0009925 1.0009857 0.99901134 0.9990032 1.0009884 1.0009869 1.0009441

features.bn1.bias f4 [32]
00000000: 6314 60ba fd41 82ba f47c 81ba 37a5 813a
00000010: 4ce6 813a fbe8 81ba 8cd8 813a f3ad 803a
00000020: 01f3 7f3a 4fc0 60ba 9b4a 823a 9e28 4d39
00000030: 2a9b 52ba d98f 813a a821 80ba 4979 5aba
00000040: 287d 6fba 96e5 803a 6a30 82ba 37ca 813a
00000050: 52df 813a f71f 383a 9f25 7e3a 9f88 7fba
00000060: 79fd 7f3a 798d 813a 2b8f 813a 80dd 81ba
00000070: 02dc 81ba 64e1 813a 30c4 813a ecba 7b3a
-0.000854796 -0.0009937879 -0.0009879158 0.0009891157 0.0009910553 -0.0009911353 0.0009906455 0.0009817466
0.00097636884 -0.0008573578 0.0009940447 0.00019565455 -0.00080339855 0.0009884789 -0.0009775655 -0.0008334113
-0.0009135776 0.0009834047 -0.0009932641 0.0009902184 0.0009908474 0.0007023806 0.0009694937 -0.0009747836
0.00097652484 0.0009884081 0.0009884586 -0.0009907931 -0.0009907486 0.0009909091 0.0009900387 0.00096027437

features.bn1.running_mean f4 [32]
00000000: 27aa a83b 4aa3 d43b 3ed1 97bb 5fb6 ae3c
00000010: ef4c b6bc 4f21 2b3c 7ac7 023d 1e36 4cbc
00000020: ab9f e03c 2780 41bc 520f 0bbd 8d4d 003c
00000030: cb6f d5bb c31c 6f3b 336e 1a3c 5f91 033c
00000040: 4b60 383b 33ce 3ebb 1c52 b43b 7bb5 11bd
00000050: 1541 383c 3b6e 2f3d 6a73 4ebc 2844 503c
00000060: 787f 08bc cb03 a0bb b805 67bc 288f cbbc
00000070: 434c c13b dbf0 bebc 1b5b 1fbc 7a6e 78bd
0.005147237 0.006489192 -0.004633098 0.021327196 -0.022253482 0.010444953 0.031928517 -0.012464074
0.027419886 -0.011810339 -0.033950157 0.00783099 -0.006513571 0.003648565 0.009425688 0.008030265
0.0028133567 -0.0029114604 0.0055029523 -0.035573464 0.0112459855 0.042829733 -0.012600759 0.012711562
-0.008331172 -0.0048832647 -0.014100485 -0.024848536 0.0058989837 -0.023308208 -0.009726311 -0.060652234

features.bn1.running_var f4 [32]
00000000: 13a1 663f b164 673f 6d18 673f 32b1 693f
00000010: a9ad 693f 836c 673f f773 6c3f df5c 673f
00000020: c3e8 6a3f 96b6 673f 3550 6d3f 19d8 663f
00000030: 6c13 673f 17b8 663f d4a5 683f 242a 673f
00000040: fa30 673f 88e1 663f 6362 673f 6141 6e3f
00000050: 70cf 673f f533 713f fdd1 673f c280 673f
00000060: 17f5 663f cfac 663f c53f 683f 3701 6a3f
00000070: 5517 673f a7f9 693f 4e36 673f e341 7c3f
0.9008953 0.9038802 0.90271646 0.91286004 0.9128061 0.9039995 0.9236445 0.90376085
0.91761416 0.9051298 0.9270051 0.9017349 0.9026401 0.9012465 0.90878034 0.90298676
0.9030911 0.90187883 0.903845 0.9306851 0.905509 0.94219905 0.9055479 0.90430844
0.9021773 0.90107435 0.90722305 0.91408104 0.90269977 0.91396564 0.9031724 0.98538035

features.conv2.weight f4 [64, 32, 3, 3]
00000000: 1d7a 8739 d6cf 763d 46bd 94bd 6664 5c3c
00000010: df20 16bd 1708 94bc 0013 9ebd 593f 7fbd
00000020: 10dc 4c3c 704f 5dbd 6d97 1b3d 7f28 ff3c
00000030: 7d26 1f3d 1693 a2bd 1ed8 073d 344f 8c3b
00000040: b286 b43c 287e c5bd 610d 3bbd 3d1f a63b
00000050: 74e1 733d 4e47 90bc 7cd4 873d 0075 f1bd
00000060: 8dec a9bd 7eb4 9b3d 318d 8bbd ba69 083d
00000070: 2514 9dbd f5b3 413d dbd3 8cbd 2b7c a03d
00000080: 5cd1 033e 5df7 63bc f707 073d 9fdd 1c3e
00000090: 9a2f dabc 38fb 0fbc aa78 b43c b625 83bc
000000a0: 32b4 afbd 1808 b9b9 9f15 89bc 219a bcbd
000000b0: 562e f23a 3e9d d8ba ab4c fbbc 1bf9 f3bc
000000c0: bece 62bc ad5c 03be 8ed0 413d 175e 213d
000000d0: f6bc 99bd 3226 173d 4a08 fabd 6815 cebc
000000e0: c9e0 18bd 54d4 29bd 513f 683c a1e4 96bd
000000f0: 9c42 6f3c 2e68 1fbd 40c1 803d e8e6 3cbd
00000100: 484b 853c 6756 9f3d bb2b 9a3d bd3f afbc
00000110: 305b f7bd 3ea3 813d 2e67 81bd 712f 733d
00000120: ee3d babb 1484 833d e01c 763c 93e8 063d
00000130: ae6e c73d bf42 143d c322 e4bd bacd 993d
00000140: 5445 adbc cf90 e2bd ef30 0a3d 92c0 4a3d
00000150: 9621 48bd 5d3a fa3c 0784 6cbd 730a 2bbd
00000160: 6b73 df3b 163c 0b3d eecb c3ba 107a 6abd
00000170: aacd af3d 15a9 d93c c93c c9bc 14f8 ab3c
00000180: 5635 0b3c 3374 84bb 0c93 4c3d 4015 09bd
00000190: 6beb 783d c85e c53d d5bb c03c 8c6d 9a3c
000001a0: 55c5 d1bc 4de6 2cbd 395e 5a3d 3a80 74bd
000001b0: 5073 9e3d 6b5a 06be 0314 033d 7cce 09bc
000001c0: 5184 d43b 7350 a63b 4469 88bd 9055 77bd
000001d0: 572c 68bc 0178 2abd d0bf 0e3c 2ef6 a1bd
000001e0: 5127 643d 5a74 3cbd f700 d3bd ac95 223d
000001f0: 54f3 48bc 4f85 7e3c 31da 183c 108d 023d
00000200: e752 9d3c e0b4 8a3d a9ab 02be be94 7fbd
00000210: 3555 723d a796 423e 340d 62be 2d2d f9bc
00000220: 881a 243d 90c9 bbbd cbad 03bd 3402 87bc
00000230: 4208 013d 972c 93bd 5d0b 673d 799b 333d
00000240: 010b a8bd b8d1 943d 6366 283b f92c 05be
00000250: ff87 8bbd 70f1 183e 449c c13d fccf d8bd
00000260: 43d4 fd3d 1189 243c f9d9 fb3b 6c08 30bc
00000270: 899e ca3d 5688 183d 6a2f 273d e963 1a3d
00000280: 8589 d63b ec38 90bc f763 393d 24e9 4dbd
00000290: 0570 c5bd 53d4 58bd 3b82 adbd 08c5 583c
000002a0: 6c9c c5bd 23c6 e03c 0ec8 e93c 566d 36bd
000002b0: be4c 80bd cbd7 943a 6143 873a 2d91 b93b
000002c0: f4c9 4b3c 682c bbbd fe98 ffbd 669f 8dbd
000002d0: a9ae 603b 9b1c 223d 4581 e9bc 75f7 60bc
000002e0: c03a 2f3b f60f 6dbb 093a 1cba 8ceb 90bd
000002f0: 7589 8c3d 87ec bfbd 4879 a93d 880d 333d
00000300: cabb 173d ac05 98bc 4503 77bd 47e2 573d
00000310: dccd 9a3d 6dd1 023d a877 d8bc c320 01bd
00000320: b5e6 8d3d 5b3f 1cbd e8c4 ee39 b143 8fbd
00000330: 634d f13c 7548 b13c 7bad 06bd 7534 953d
00000340: 4ca9 1ebd f43d c73c 616e 2a3c ae53 02be
00000350: d28d cb3d 9db4 63bb 0e76 01bc 4482 7a3d
00000360: fdee 8b38 b792 7e3c 40e3 fc3c e1df 55bd
00000370: ec00 d63d 0a2d cc3b 9bd1 acbc 7a0e dfbc
00000380: 4c63 0ebd 2729 df3d f892 953c 438a d23a
00000390: 94e8 ff3d c8a9 20bd 0a5a c3bd 8c0a e2bb
000003a0: 6cb0 8b3d 87b8 5b3d 29ce 0fbe caf3 a3bd
000003b0: d2fb 6dbd 9fc8 edbd 6f86 ccbb cf1d 3fbd
000003c0: 2450 633d eef6 b0bd 152f 0c3c 92d3 cbbd
000003d0: ff72 f33d 7dc5 f7bc 70ac a3bb fe8f 98bc
000003e0: 38ce 983d fd1f 3ebc 1369 92bd 0156 48bd
000003f0: 2bd1 a9bc cf4a 6e3d 2402 553d 4dbb 123c
0.00025840188 0.0602568 -0.072626635 0.013451671 -0.036652442 -0.018070264 -0.07718468 -0.062316272
0.012503639 -0.054030836 0.037986208 0.03114724 0.038855065 -0.07938211 0.03316509 0.0042819027
0.022036884 -0.09643203 -0.045667056 0.005069642 0.05954118 -0.017612126 0.06632325 -0.11789894
-0.082970716 0.076027855 -0.068140395 0.033303954 -0.07669858 0.04729076 -0.06876346 0.07836183
0.12872833 -0.0139139565 0.03296658 0.15318917 -0.026634026 -0.008787923 0.022030193 -0.016009193
-0.085792914 -0.0003529198 -0.016733943 -0.09209085 0.0018476944 -0.0016526354 -0.030676207 -0.029781869
-0.0138432365 -0.12828322 0.047318034 0.03939637 -0.075067446 0.03690166 -0.12208612 -0.025156692
-0.037323747 -0.041462258 0.014175252 -0.07367826 0.014603283 -0.038917713 0.062868595 -0.046118647
0.016271248 0.07780152 0.07527872 -0.021392697 -0.120779395 0.06329964 -0.06318508 0.059371416
-0.005683652 0.06421676 0.015021533 0.032936644 0.09737907 0.036196467 -0.11139443 0.07509942
-0.021151222 -0.11062776 0.033738073 0.049500056 -0.048860155 0.030545408 -0.0577431 -0.041758012
0.006819179 0.03399285 -0.0014938095 -0.057245314 0.08584149 0.026569882 -0.024565117 0.020992316
0.008496603 -0.0040421723 0.049944922 -0.03346753 0.060771387 0.09637219 0.023527065 0.018851064
-0.02560679 -0.04221182 0.053312514 -0.0596926 0.07736838 -0.13120429 0.032001507 -0.008411046
0.0064855 0.0050755083 -0.06660703 -0.060384333 -0.014170728 -0.04161835 0.008712724 -0.07908283
0.055701558 -0.0460094 -0.103029184 0.03969352 -0.012265045 0.015534713 0.009329365 0.03187281
0.01920457 0.067727804 -0.12760796 -0.06239771 0.05916329 0.19002782 -0.22075349 -0.03041705
0.040064365 -0.09169304 -0.032148164 -0.016480543 0.031502016 -0.07186239 0.05640732 0.043849442
-0.08205224 0.07266563 0.0025695793 -0.13005437 -0.068130486 0.14935851 0.094536334 -0.10586545
0.12394001 0.010042445 0.0076858965 -0.010744195 0.098935194 0.037239395 0.040816702 0.037692938
0.0065471553 -0.017605267 0.04526135 -0.05027117 -0.09640507 -0.052936863 -0.08472105 0.01323057
-0.09648976 0.027438229 0.028537776 -0.044537865 -0.062646374 0.0011355815 0.0010319763 0.0056630583
0.012438286 -0.09139329 -0.12480353 -0.069151685 0.0034283793 0.03957806 -0.028504023 -0.013730873
0.0026737899 -0.0036172844 -0.00059595756 -0.07076177 0.06862155 -0.09371286 0.08275086 0.043714076
0.037044324 -0.018557392 -0.060305852 0.05270603 0.07558796 0.031938005 -0.026424244 -0.031525385
0.069287695 -0.038146358 0.00045541604 -0.06995333 0.029455846 0.021640996 -0.032880288 0.07285396
-0.038735673 0.024321534 0.010402293 -0.12727234 0.099391595 -0.0034745105 -0.007901682 0.061159387
6.6725515e-05 0.015537909 0.03087008 -0.05221546 0.104493946 0.006230955 -0.021096041 -0.027228583
-0.034762666 0.10896521 0.018258557 0.0016062934 0.12495533 -0.039224416 -0.09538658 -0.00689823
0.06820759 0.053642776 -0.14043488 -0.080054834 -0.058101483 -0.11610531 -0.0062416117 -0.046659287
0.05549635 -0.08640848 0.008556147 -0.09952463 0.11887168 -0.030245537 -0.0049949214 -0.018623348
0.07461208 -0.011604306 -0.071489476 -0.048910145 -0.020729622 0.05817681 0.052003995 0.008955789

features.conv2.bias f4 [64]
00000000: 730c 2732 a75d eeb1 e869 0cb2 be04 2cb2
00000010: 75b8 86b1 f3ac e131 f01b db32 0655 efb0
00000020: e272 96b2 2bdd 1830 d258 5eb1 cc75 dc32
00000030: e248 8632 9db3 46b2 599f 86b2 9bf5 5231
00000040: 679a 9eb2 3af0 b0b2 7da0 d6b0 0548 82b1
00000050: a243 9332 942f 4731 9c75 13b1 5486 6f31
00000060: 2f0e 8e2f b2f7 15b2 9fb0 0bb2 9374 fcb1
00000070: 28e2 2831 3123 7a32 4e2e 7632 ac89 5eb2
00000080: 5d24 c432 51d5 3a31 0e32 1532 36d9 29b1
00000090: 812c 17b2 f74f a5b1 23e5 8c32 e206 e732
000000a0: 1f8f 34b2 3d77 bfb0 f58a 80b2 d02b 5830
000000b0: 05e1 87b0 9b3b 8db2 a0d0 4032 7933 3631
000000c0: 9727 e931 0b74 6631 3317 18b2 b9c2 2630
000000d0: a944 1eb0 636f 4fb2 243d f7b2 ed90 26b2
000000e0: 44f7 4f32 f27e 1db1 6b71 24b2 f850 81b1
000000f0: dfe3 b0b2 7373 6632 41a0 a732 39ab 8db1
9.72351e-09 -6.9373587e-09 -8.173153e-09 -1.0012796e-08 -3.9208836e-09 6.568024e-09 2.550766e-08 -1.7413704e-09
-1.7514541e-08 5.5611576e-10 -3.235574e-09 2.5664939e-08 1.5632796e-08 -1.1565956e-08 -1.5672116e-08 3.0698633e-09
-1.8463835e-08 -2.0598339e-08 -1.5616163e-09 -3.7916856e-09 1.7143808e-08 2.8985356e-09 -2.1458169e-09 3.4855434e-09
2.5839728e-10 -8.729261e-09 -8.131024e-09 -7.3474182e-09 2.4575773e-09 1.4559917e-08 1.4329613e-08 -1.2953404e-08
2.283394e-08 2.7187819e-09 8.684323e-09 -2.4716207e-09 -8.799476e-09 -4.811223e-09 1.6402344e-08 2.689507e-08
-1.0509921e-08 -1.3930969e-09 -1.4964352e-08 7.8642604e-10 -9.886497e-10 -1.6441666e-08 1.1223307e-08 2.6513745e-09
6.7856933e-09 3.3535368e-09 -8.852839e-09 6.0667166e-10 -5.7577637e-10 -1.2074312e-08 -2.8782388e-08 -9.695424e-09
1.21052075e-08 -2.2918667e-09 -9.571845e-09 -3.763599e-09 -2.059272e-08 1.3414012e-08 1.9514234e-08 -4.123106e-09

features.bn2.weight f4 [64]
00000000: 611e 803f 29bf 7f3f 2920 803f 21c1 7f3f
00000010: d41b 803f 10c0 7f3f a4cb 7f3f 4a1f 803f
00000020: f2c1 7f3f 4020 803f 0020 803f 28c1 7f3f
00000030: 8e20 803f 85bf 7f3f 6320 803f 6720 803f
00000040: b51f 803f 9920 803f 33bf 7f3f a4c0 7f3f
00000050: 07bf 7f3f 0dc0 7f3f bfbf 7f3f 28c9 7f3f
00000060: 62bf 7f3f cd1e 803f bcbf 7f3f a3c0 7f3f
00000070: 3120 803f 561a 803f 60bf 7f3f 5f20 803f
00000080: ec1f 803f 40bf 7f3f 4d20 803f 75c0 7f3f
00000090: 6e20 803f 7c20 803f d4be 7f3f d71f 803f
000000a0: 5520 803f 78bf 7f3f 7abf 7f3f ab1f 803f
000000b0: d4be 7f3f bcbf 7f3f 68bf 7f3f 2020 803f
000000c0: 9520 803f 7320 803f 64bf 7f3f 97bf 7f3f
000000d0: 5720 803f a8bf 7f3f 94bf 7f3f ea1f 803f
000000e0: 39bf 7f3f 2420 803f c2bf 7f3f 44bf 7f3f
000000f0: 89bf 7f3f 7e1b 803f 7920 803f 6520 803f
1.0009271 0.9990106 1.0009815 0.99904066 1.0008492 0.9990244 0.99920106 1.0009549
0.9990531 1.0009842 1.0009766 0.9990411 1.0009935 0.9990161 1.0009884 1.0009888
1.0009676 1.0009948 0.9990112 0.9990332 0.9990086 0.9990242 0.99901956 0.99916315
0.999014 1.00094 0.9990194 0.99903315 1.0009824 1.0008037 0.9990139 1.0009879
1.0009742 0.999012 1.0009857 0.9990304 1.0009897 1.0009913 0.99900556 1.0009717
1.0009867 0.99901533 0.99901545 1.0009664 0.99900556 0.9990194 0.9990144 1.0009804
1.0009943 1.0009903 0.99901414 0.9990172 1.0009869 0.9990182 0.999017 1.0009739
0.9990116 1.0009809 0.99901974 0.99901223 0.99901634 1.000839 1.000991 1.0009886

features.bn2.bias f4 [64]
00000000: 8e57 6eba 9082 80ba bdfb 753a d60d 7dba
00000010: bd14 813a ea08 7fba 2f77 71ba 84be 2c3a
00000020: ba51 80ba f8c0 763a 86bc 7e3a 2de6 4aba
00000030: 1669 803a 8a15 6e3a cbda 703a ecfd 763a
00000040: e83f 703a 5036 823a c784 80ba 70fa 5dba
00000050: 3f92 db38 5e38 78ba 9f26 7aba 2735 783a
00000060: 30bf 80ba c42b 7f3a af05 80ba 33e4 80ba
00000070: f02d 813a 9842 7c3a aa37 79ba 853c 60ba
00000080: 2d65 7d3a e311 5f3a d4fd 7b3a f473 78ba
00000090: 8c23 773a c4d0 813a 9222 80ba d7bc 5bba
000000a0: 054b 803a dbec 7f3a 0bab 81ba 65cf 7c3a
000000b0: c6f7 81ba 7521 7fba 2d40 6bba 2b45 7fba
000000c0: 95b6 783a 551b 813a 5309 81ba f2bc 7dba
000000d0: e9e3 803a 467e 80ba 396e 68ba 5997 6d3a
000000e0: c8ab 68ba b2b4 71ba 46df 79ba e89a 80ba
000000f0: 8867 7cba 5fe0 773a 00ab 803a a8cb 7e3a
-0.0009092026 -0.0009804536 0.000938352 -0.0009653246 0.00098481 -0.00097288063 -0.000921118 0.00065896683
-0.0009789981 0.000941291 0.0009717423 -0.00077399873 0.0009796943 0.0009082189 0.0009187876 0.00094219926
0.0009164796 0.0009934399 -0.0009805196 -0.0008467799 0.00010469974 -0.00094688486 -0.0009542498 0.00094683695
-0.0009822603 0.00097339996 -0.0009767319 -0.0009833634 0.0009855609 0.00096229604 -0.0009506891 -0.000855394
0.00096662604 0.000850944 0.00096127135 -0.00094777276 0.0009427599 0.0009904136 -0.0009775928 -0.00083823263
0.0009787983 0.0009762772 -0.0009892894 0.00096439413 -0.0009915761 -0.00097324635 -0.00089741015 -0.0009737785
0.0009487656 0.0009850065 -0.0009844698 -0.0009679339 0.0009833548 -0.0009803257 -0.0008866522 0.0009063385
-0.0008875695 -0.0009220346 -0.00095318665 -0.0009811791 -0.00096284645 0.0009455736 0.0009816587 0.0009719678

features.bn2.running_mean f4 [64]
00000000: af1b 4cbd 8f6b a9bd 17f6 953c e635 bfbb
00000010: de11 cc3d 9f7b a3bd c6d0 b83d b33c 2c3c
00000020: 3a57 963d 7bab 6e3c 7f93 873c d815 bfbd
00000030: 6f7c 353d 1784 1abc 5fd8 083e 92a9 fbbd
00000040: cf22 f03d c80f 93bd 3323 18bd d8aa 0dbe
00000050: 57fe 83bd 79b9 84bd 0bab dabd f3a6 1b3e
00000060: 32c2 853d 90ba e8bc 8c9a 153c 0b1e e53c
00000070: 5f37 343d 88ec b3bc 770e 133e bd50 54bc
00000080: 7214 fcbc cbd7 7a3d 84fc 24bd 7303 33bd
00000090: a7f6 f0bb 73b1 b2bd ed96 123d 3545 13bd
000000a0: 3536 6e3d 7da5 f13d c7bc 7c3d 4abd 993d
000000b0: a2c7 1cbd 944d 1ebd 8c08 c1bc 771b 323d
000000c0: 179d 2c3c 487d 8f3b 1796 f93c 9f7b b2bd
000000d0: 07e0 fa3b 35fd 653c 5f52 7b3c e782 f5bc
000000e0: fa5b 303c 3319 333c a59c 0a3e 57f6 8ebd
000000f0: ca65 923b 3758 843d ffdf 273d 0d15 6c3d
-0.04983109 -0.08272468 0.018305821 -0.0058352826 0.099643454 -0.07982563 0.090241954 0.010512519
0.07340856 0.014567251 0.016549824 -0.09330338 0.044308122 -0.009430907 0.13363789 -0.12288202
0.11725389 -0.071807444 -0.037142944 -0.13834703 -0.06444996 -0.064806886 -0.10677155 0.15200405
0.065311804 -0.028409272 0.009131085 0.027968427 0.04399812 -0.021963373 0.14360987 -0.012958703
-0.030771468 0.061240952 -0.04027988 -0.04370446 -0.007353622 -0.08725252 0.035788465 -0.035954673
0.058157165 0.117991425 0.06170347 0.07506807 -0.038276322 -0.038648203 -0.023563646 0.043483224
0.0105355 0.0043789484 0.030467076 -0.08714985 0.0076561007 0.01403742 0.015339463 -0.029969646
0.010764116 0.010931301 0.13536318 -0.06980579 0.0044677006 0.06462138 0.040985104 0.057637263

features.bn2.running_var f4 [64]
00000000: d428 6e3f 6b8d 713f 9705 713f 7f5c 703f
00000010: 2610 763f 344a 743f 86ae 6b3f d30f 6b3f
00000020: fdd5 6b3f 3733 6e3f 83e1 743f 89e3 6f3f
00000030: a43d 733f 03b8 6d3f 177d 763f 4c74 813f
00000040: d672 6f3f 9105 713f 8276 6c3f c809 733f
00000050: 06ae 6c3f fa4b 6e3f 39ac 703f 9eb2 853f
00000060: 6910 793f eee0 6f3f d44d 763f 0f4e 6f3f
00000070: 7eec 7d3f 432d 713f 116b 7d3f 8cae 6c3f
00000080: ec11 6f3f ccaa 6d3f c024 713f cef8 6c3f
00000090: 3f65 6e3f 4ce9 763f c9aa 6a3f 8f4b 6a3f
000000a0: ccaa 6d3f 04fd 723f 817c 6c3f 6414 723f
000000b0: c6ee 6c3f 40ff 6c3f ffaa 6a3f d5b7 6b3f
000000c0: af73 6d3f a6a3 743f b438 733f ee34 6f3f
000000d0: a9dc 803f c0d6 773f 7c34 6c3f a873 6e3f
000000e0: dce0 713f 9867 793f a338 753f 9ee2 6c3f
000000f0: 5aa1 703f e961 713f 1655 6f3f df36 703f
0.9303105 0.9435641 0.94149154 0.9389114 0.9611839 0.95425725 0.92063177 0.9182102
0.92123395 0.930469 0.95656604 0.93706566 0.9501593 0.92858905 0.9628462 1.0113616
0.935346 0.9414912 0.9236833 0.949368 0.9245304 0.9308468 0.9401279 1.0445135
0.97290665 0.9370259 0.96212506 0.9347848 0.99188983 0.9420969 0.98991495 0.9245384
0.9338672 0.9283874 0.941967 0.92567146 0.9312324 0.9644973 0.9166685 0.91521543
0.9283874 0.9491732 0.9237748 0.94562364 0.9255184 0.9257698 0.9166717 0.9207738
0.92754644 0.9556221 0.950084 0.9344014 1.006734 0.9681206 0.92267585 0.9314523
0.94483733 0.97423697 0.95789546 0.9253329 0.939962 0.94290024 0.93489206 0.93833727

features.conv3.weight f4 [64, 64, 3, 3]
00000000: 67a5 95bc afbe d63d 1899 58bd 4b33 0cbb
00000010: ebe7 c13c 3461 513d 2788 133d 6b1d 07bd
00000020: 2e20 f13c 1bf5 603d 5c06 3bbd e85f 83ba
00000030: 087d 913d 57f2 5ebd 66de f5bc ec87 d03a
00000040: 748e 7c3d 008b c2bd 2eaf a6bd 6086 d0bd
00000050: 0260 2e3c ac6c 95bc d47c cabc 11a6 b93c
00000060: f0b8 f23a 93f6 773d 60f2 c13b 9ce1 98bd
00000070: e189 673d 6f30 173d 7217 123d 95df ae3c
00000080: d71d c63c 1cca 5abc 1bad 8a3d a794 a6bc
00000090: aac5 88bd 2df1 543d f1dc cbbb 79a1 3cbd
000000a0: d0ad 05bd 5f6e e6bd b55b c6bc 59b6 66bc
000000b0: d090 1ebd b7a6 413c 5b3a dcbc e6a7 18be
000000c0: 2d42 f53b aeae 76bd bcfd fa3c 9bdc 05bd
000000d0: 9d1b 3abc b749 68bc 9357 46bc 6286 cdbd
000000e0: 452f 903d 5686 edbc f397 b4bb 1dfd 433d
000000f0: 378c e53b 7e60 fabc a2e2 00be 6a3f d73d
00000100: 7266 e03c 5ec5 6bbd 9533 f6bd 4b9a cd3c
00000110: 7a24 62bd 5082 843d 904a 99bd f6e2 ebbd
00000120: 07ac 343d 7f67 83bc 571d e03d 9697 bdbd
00000130: 19dd f23a de80 0dbe 1971 7d3c f8a0 35bd
00000140: 62a2 b13c 8f27 493d 0bee b73b b76f f83b
00000150: 9d4b 5b3d 7a36 dcbc dfd1 b8bd e6cc f4bc
00000160: 7267 373c f3a2 d5bc b740 9dbc 9c20 113d
00000170: 63c2 383d 1cd7 d63c 5d71 d13c a0a3 a33b
00000180: c583 dfbd 823c f03c eaa5 cf3d aac0 c03d
00000190: 4abb 8fbd a41d f23b c807 33bd dc90 aabb
000001a0: 096a 983d ea4a 5e3d ba79 a9bc 8281 cc3c
000001b0: fae6 5a3d 0432 cd3d 96f6 323d 1aa3 cb3d
000001c0: dac8 f93b 3d0d 113d 4b04 123d a384 fd3d
000001d0: 1bdd c7bc 062c 54bd 82bf 3ebc 63bc 9bbd
000001e0: 2217 28bc 639f 153d 2fd5 e1bc d42f 03be
000001f0: 84db 303d 103c 3c3d 6d13 2a3d a515 aebb
00000200: 626a 41bd 6518 06bb 01f7 a6bb 7ea1 4abd
00000210: 4797 a6bc d6d2 613d 511d 65bd f57c 81bd
00000220: bc3d 463d af84 5ebd 621d 0cbd 86cd bc3d
00000230: d95a de3d 611a fabd 8e43 b0bc f769 babc
00000240: 7e46 55bb 41d9 083e 553b 5d3d 8a4d df3d
00000250: ba9e 89bc aa8d a43d c384 3f3d b635 4c3d
00000260: fd1f ee3c 1ebd d43d cfc3 323d 5393 b33c
00000270: f046 3dbb 8b7f e03c 1442 f93c 62cc 22bc
00000280: 8b09 afbd f113 6cbd ff1a 4fbd 0185 e2bb
00000290: 7d27 9cbd 20a7 a3bc 0b29 c4bc fd76 7cbd
000002a0: b3b4 e13c 2606 1f3c 6827 5b3b c2bc b1bb
000002b0: 1906 7f3d 87b7 8e3c 14ee 0d3d a36a 2fbc
000002c0: 05de b7bd 9951 0e3d 2f73 783d bf97 a43c
000002d0: c6eb 613c 4bca 41bd e8d4 47bc eac8 2fbc
000002e0: b114 663c a8e3 2ebb 9397 33bd 3f56 70bc
000002f0: ee8c e939 d617 673d 9a11 adbd b4bf e4bd
00000300: 6983 98bd 3a8d 09bd 7247 e53d e7fb ea3b
00000310: 77d8 313b b7d0 a1bc 16db 583d dbee d8bb
00000320: 7618 023d f6f6 6f3d 9d90 c13c 67d5 843b
00000330: 3c2a 37bd 8257 fa3c 5980 c0bd fcc2 16be
00000340: 8a9d 413a 4bcf f4bb f801 ac3d 4955 71bd
00000350: 1d4b e1bc 5b42 8b3a ac76 e6bb 4385 6ebd
00000360: 12df 0d3d 4183 60bd 6826 1c3d 8001 a8bd
00000370: 0491 cc3c e771 203c b4f0 1dbd 9242 903d
00000380: 7b98 8e3c 38c5 40bd e894 863d bf18 2c3c
00000390: 3211 d2bb 9eb4 243d 251a 94bd c1a3 2dbd
000003a0: c84d 0fbd c55f 2c3d 463c c0bd 8269 213d
000003b0: cda2 9d3d 51ee 4abc b094 7ebd ed22 bfbc
000003c0: 66e9 813c 449e 03bd 628c 24bc 05d6 9ebd
000003d0: ee14 53bd 329f 2dbd 1ab6 3bbc 83e9 233c
000003e0: 69eb 0cbd feb0 81bd cc30 013d 5e1c 073d
000003f0: b947 053c 3a08 80bd 489f f839 0988 663d
-0.018267347 0.10485589 -0.052880377 -0.0021392878 0.023670157 0.05111809 0.036018517 -0.03298704
0.02943429 0.05492125 -0.04566036 -0.0010023089 0.07103926 -0.054430332 -0.030013274 0.0015909649
0.06165929 -0.094991684 -0.081388816 -0.1018188 0.010643007 -0.018240295 -0.024717726 0.022662194
0.001851825 0.060537886 0.005918786 -0.074649066 0.056527976 0.036911424 0.03566689 0.021346847
0.02418415 -0.013353851 0.067712985 -0.020334555 -0.066783264 0.051987816 -0.0062214066 -0.04605243
-0.032636464 -0.1125152 -0.024213651 -0.014081561 -0.038712323 0.011819533 -0.026883295 -0.14907798
0.0074846954 -0.06022518 0.030638568 -0.03268109 -0.011359123 -0.014177731 -0.01210584 -0.10035397
0.07040266 -0.02899472 -0.005511278 0.04784881 0.0070052403 -0.03056359 -0.12586454 0.10510142
0.0273926 -0.05756127 -0.12021557 0.025097987 -0.055210568 0.06470168 -0.07484925 -0.11517899
0.04410937 -0.016040562 0.10943096 -0.09257428 0.0018529027 -0.1381869 0.015468859 -0.044342965
0.021683875 0.04910999 0.0056130937 0.007581677 0.053538907 -0.026881445 -0.09024405 -0.02988286
0.011194097 -0.026078677 -0.019195898 0.03543149 0.045107257 0.026225619 0.025566751 0.004993871
-0.10913805 0.029325727 0.101390675 0.09411748 -0.070181444 0.0073887873 -0.043708593 -0.005205257
0.074420996 0.054270662 -0.020687927 0.024964098 0.053442933 0.10019305 0.043692194 0.099432185
0.0076228203 0.035413016 0.035648625 0.12378814 -0.024397423 -0.051799797 -0.011642339 -0.07604291
-0.010259422 0.036528956 -0.027567474 -0.12811214 0.043178096 0.045955718 0.041522432 -0.005312639
-0.047220595 -0.0020461318 -0.005095363 -0.049470417 -0.020335807 0.05513271 -0.05593616 -0.06322662
0.04839872 -0.054325756 -0.03420771 0.09218888 0.108571716 -0.122120626 -0.021516588 -0.022755606
-0.0032543237 0.13364126 0.05401166 0.10903461 -0.01679932 0.08034833 0.04675747 0.04985591
0.029067988 0.10387634 0.04364377 0.021920836 -0.0028881393 0.027404567 0.030427016 -0.009936424
-0.08546742 -0.057636205 -0.050562855 -0.006912828 -0.07624719 -0.019977152 -0.023945352 -0.061636914
0.027551984 0.009706056 0.0033440236 -0.005424113 0.062261675 0.017421497 0.034650877 -0.0107065765
-0.08977894 0.034745786 0.060656723 0.02009189 0.013789123 -0.047312062 -0.012196757 -0.010729054
0.014043019 -0.0026685987 -0.043845724 -0.014669 0.00044546224 0.056419216 -0.08450623 -0.11169377
-0.074469395 -0.03358195 0.11195268 0.0071711424 0.002713708 -0.019752843 0.05294331 -0.0066202707
0.03176161 0.05858513 0.023628527 0.00405376 -0.044718012 0.030559305 -0.093994804 -0.14722818
0.0007385841 -0.0074710003 0.08398813 -0.058919225 -0.027501637 0.0010624634 -0.0070331898 -0.058232557
0.034636565 -0.054812673 0.038122565 -0.08203411 0.024971493 0.009792781 -0.03855963 0.07043947
0.017406693 -0.047063082 0.0657137 0.010503947 -0.0064107412 0.040211312 -0.07231549 -0.042392496
-0.034986287 0.04208352 -0.09386496 0.03940726 0.076970674 -0.012385921 -0.06215352 -0.023332084
0.015858363 -0.032133356 -0.0100432355 -0.07755665 -0.051533632 -0.04238815 -0.011456991 0.010004404
-0.034404192 -0.06332587 0.031540677 0.032986037 0.008134776 -0.06251569 0.0004742092 0.056282077

features.conv3.bias f4 [64]
00000000: f001 b6b1 a7a2 9931 cc3c ddb0 c7d5 c530
00000010: 96f7 8ab0 dbf8 05b2 dc3b a0b1 6300 ecb1
00000020: e1be b72e f78c 7fb2 0713 0ab1 0d2b 30b2
00000030: a3e4 f5b1 bff3 9b2f c848 98b1 78d8 93b0
00000040: da2b 58ae f9a3 93b0 c2f6 7331 d347 d3b2
00000050: d833 0732 889f fab0 096a 29b1 df08 38b1
00000060: e39b d2b1 9c25 5a32 20b8 7a31 914c 7baf
00000070: 0419 4431 710c 7eb1 ad64 70b1 2fdc 8db2
00000080: 0ad1 4031 4896 cab1 f585 c032 9953 ce31
00000090: f733 41b0 b834 d730 a93f 1932 ace1 0032
000000a0: 56ab 8d30 71a4 c52b fe27 2fb1 8f34 1db2
000000b0: 64c6 33b2 806d aab0 42fc 8fb0 aca3 94b2
000000c0: 0398 ed31 777f d0b1 af88 95b1 df08 3831
000000d0: 5ba9 55b1 cd4e 3eb0 9b41 c5af da84 c3b0
000000e0: 9189 8eb1 c233 5eb1 e464 99b1 825f 7db1
000000f0: 0044 4db1 f376 79b1 87ff 2db1 7c30 5db0
-5.2971174e-09 4.4713775e-09 -1.6097146e-09 1.4394396e-09 -1.011119e-09 -7.798202e-09 -4.663418e-09 -6.868548e-09
8.3557834e-11 -1.4875005e-08 -2.0092459e-09 -1.0254337e-08 -7.1564314e-09 2.8367528e-10 -4.4320565e-09 -1.0757182e-09
-4.9151662e-11 -1.0742262e-09 3.550142e-09 -2.4596295e-08 7.869822e-09 -1.8235236e-09 -2.465301e-09 -2.6780567e-09
-6.1295267e-09 1.26978215e-08 3.648445e-09 -2.2855519e-10 2.8535974e-09 -3.6968937e-09 -3.4981824e-09 -1.6514688e-08
2.8058502e-09 -5.8960588e-09 2.2412658e-08 6.004893e-09 -7.028684e-10 1.5658292e-09 8.920247e-09 7.501892e-09
1.0307797e-09 1.4043334e-12 -2.5488585e-09 -9.150553e-09 -1.046428e-08 -1.240025e-09 -1.0476315e-09 -1.7303897e-08
6.9148895e-09 -6.068088e-09 -4.35201e-09 2.6780567e-09 -3.1091847e-09 -6.923358e-10 -3.5880707e-10 -1.4225876e-09
-4.1483834e-09 -3.2334673e-09 -4.464356e-09 -3.6870635e-09 -2.987008e-09 -3.6301884e-09 -2.5320064e-09 -8.046823e-10

features.bn3.weight f4 [64]
00000000: 9120 803f 941e 803f 3420 803f 9320 803f
00000010: 6d20 803f 9020 803f fb1f 803f 8420 803f
00000020: ad1f 803f d51f 803f 0b20 803f 92cc 7f3f
00000030: e31f 803f 8020 803f 9820 803f 7020 803f
00000040: 3e20 803f 6520 803f 7620 803f ac20 803f
00000050: c3c0 7f3f b41e 803f 8c20 803f fb1f 803f
00000060: 8c20 803f b120 803f 5820 803f a120 803f
00000070: 9a20 803f 9c20 803f 8d20 803f af20 803f
00000080: 6c20 803f 5c20 803f 8920 803f 9820 803f
00000090: 5420 803f 1920 803f 6220 803f 8320 803f
000000a0: 0e1f 803f 8520 803f 6e20 803f 9d20 803f
000000b0: 7f20 803f 4620 803f 9320 803f 8e20 803f
000000c0: 7020 803f 6b1e 803f 2c20 803f 6a20 803f
000000d0: 9120 803f 3d20 803f 9e1e 803f 3320 803f
000000e0: 9a20 803f ec1f 803f 7e20 803f 7820 803f
000000f0: 7820 803f 2f20 803f 7020 803f 271f 803f
1.0009938 1.0009332 1.0009828 1.0009941 1.0009896 1.0009937 1.000976 1.0009923
1.0009667 1.0009714 1.0009779 0.99921525 1.0009731 1.0009918 1.0009947 1.0009899
1.000984 1.0009886 1.0009906 1.0009971 0.99903506 1.000937 1.0009933 1.000976
1.0009933 1.0009977 1.000987 1.0009958 1.0009949 1.0009952 1.0009934 1.0009974
1.0009894 1.0009875 1.0009929 1.0009947 1.0009866 1.0009795 1.0009882 1.0009922
1.0009477 1.0009924 1.0009897 1.0009953 1.0009917 1.0009849 1.0009941 1.0009935
1.0009899 1.0009283 1.0009818 1.0009892 1.0009938 1.0009838 1.0009344 1.0009826
1.0009949 1.0009742 1.0009916 1.0009909 1.0009909 1.0009822 1.0009899 1.0009507

features.bn3.bias f4 [64]
00000000: 76f1 7f3a bc4d 6eba 2535 803a 726e 773a
00000010: 92e2 7e3a 3bdc 813a 596a 7a3a 8d2f 803a
00000020: cd1a 783a a9a5 6aba e005 6f3a 842c 7a3a
00000030: 00b0 7a3a e249 813a 8760 813a a821 7e3a
00000040: 56d4 e7b8 e1b4 803a 1231 6c3a a7f7 803a
00000050: 537c 6fba 38ee 75ba 654e 763a 87d0 7f3a
00000060: 4ed3 7c3a 4ace 813a 56ea 7a3a a75f 803a
00000070: b7cd 813a f3b7 813a 7896 813a ba9d 813a
00000080: 8e09 773a 0e85 793a 020b 803a 90d3 743a
00000090: f3cc 793a ddff 7f3a 3e58 4e3a dcd8 813a
000000a0: d6cd 623a ddb9 803a db46 dc38 7cb5 803a
000000b0: 8a48 803a 745d 673a c3a1 813a 73ce 803a
000000c0: dc1a 7e3a ddf7 773a 70db 703a 36b5 7f3a
000000d0: d6b6 803a 0f01 663a 0f80 70ba 297d 7e3a
000000e0: 2e7e 813a 2355 7f3a 0578 813a a509 803a
000000f0: 2efc 7d3a 57b1 803a c1ba 7f3a 8474 77ba
0.00097634585 -0.0009090563 0.0009781463 0.000943876 0.00097230927 0.0009907553 0.000955259 0.0009779796
0.0009464443 -0.0008951077 0.0009118002 0.00095433765 0.0009562969 0.0009863938 0.0009870686 0.0009694346
-0.00011054489 0.0009819531 0.00090099976 0.0009839431 -0.0009135652 -0.00093815057 0.0009395837 0.0009758551
0.0009644524 0.0009903398 0.0009571662 0.0009794132 0.0009903227 0.000989674 0.0009886762 0.0009888925
0.0009423726 0.0009518423 0.0009768906 0.00093393866 0.0009529136 0.00097656046 0.00078714255 0.0009906548
0.0008651888 0.0009821017 0.00010503615 0.0009819712 0.0009787243 0.0008825876 0.0009890128 0.0009827152
0.00096933334 0.0009459237 0.0009187972 0.00097544806 0.0009820114 0.00087739615 -0.00091743557 0.00097079814
0.0009879523 0.00097401644 0.0009877688 0.0009768499 0.0009688762 0.0009818476 0.00097553065 -0.00094396644

features.bn3.running_mean f4 [64]
00000000: caf3 cb3b 5553 533e 47ad c83d b88f 793d
00000010: efc0 3b3d 3d45 91bd 173c 303d e7af 5dbd
00000020: 0690 25bd ff59 4fbe e82a a8bd 374d 47bd
00000030: 9f06 3a3d ab90 013d 10c6 493e c4c7 97bd
00000040: faf6 bbbd ed72 463d 225b c33d 433a 9bbe
00000050: 1af6 ef3d c3d8 95bd 6069 4fbd 61a9 3a3d
00000060: af45 2abc 3bf8 ca3d e236 da3c 6aab eb3c
00000070: 237c 0a3d c1a7 a03d ae17 463d 659c f6bd
00000080: ad02 883d 372d 32be 6bb2 473e 5082 d03d
00000090: f747 acbd 9623 33be 7433 003e 0320 7a3e
000000a0: 83c4 95bd 9add 2b3e 9f1f 493d 3781 5abd
000000b0: d8a3 67bc 98ea f4bd 5bab c33c 430b 1cbe
000000c0: 8f6e 893d 05b0 d53c b90e 41bd 378e 923d
000000d0: ffba a3bd cf8e 57bd 9aff dd3b f8ea 07be
000000e0: 4756 3d3d 0229 9c3d 2bb9 253e 1bad 653c
000000f0: 281d a7bd f808 cabd 5326 0f3e 05b1 f23d
0.0062241303 0.20637257 0.09798675 0.060928077 0.045838293 -0.07093284 0.043026056 -0.05412283
-0.040420555 -0.20249175 -0.08211309 -0.048657622 0.04541647 0.031632107 0.19704461 -0.07411149
-0.091779664 0.048449446 0.095388666 -0.30317888 0.11716862 -0.07316735 -0.050637603 0.04557169
-0.01039259 0.099106275 0.026637498 0.02876826 0.033809792 0.078444965 0.048362426 -0.12041549
0.06641135 -0.1740006 0.19501655 0.10181105 -0.08412164 -0.17494044 0.12519628 0.24426274
-0.07312872 0.16783753 0.04910242 -0.053345885 -0.0141381845 -0.11958808 0.02388542 -0.15238671
0.067105405 0.02608491 -0.04713318 0.071560316 -0.07994651 -0.052626427 0.006774855 -0.13273227
0.04622486 0.07625009 0.16183917 0.014018322 -0.08159858 -0.09864992 0.13979463 0.1185017

features.bn3.running_var f4 [64]
00000000: d37a 773f b09a 773f 03d2 723f 6200 7e3f
00000010: b388 763f 4e5c 823f bf41 853f 8cec 753f
00000020: 9687 7a3f f318 783f a80f 723f 9918 773f
00000030: 8ea1 783f 173a 833f 1523 7a3f 3fc0 8c3f
00000040: 7b00 793f 1076 833f 2ff8 7a3f 2118 803f
00000050: af5f 6f3f b18a 793f 3753 7c3f c703 7c3f
00000060: 6a93 7a3f 9a2c 7f3f 93bc 703f 087d 763f
00000070: 36a5 833f 74fb 763f f8ed 793f e64c 803f
00000080: 5d9d 743f 6f66 7f3f 7419 793f 74ac 793f
00000090: 4b5e 7d3f bc07 7f3f 043c 7a3f 2421 843f
000000a0: bf65 813f 8d7b 743f a47c 793f 82b9 753f
000000b0: 4319 763f 04cd 7d3f 0943 783f 11cb 7c3f
000000c0: 62c4 7a3f c31c 763f a257 793f 7e44 7a3f
000000d0: 5d08 803f b3a0 7c3f 8a8b 743f 6bf6 793f
000000e0: 731c 7f3f 9b11 733f fc96 843f aa4a 773f
000000f0: 745a 833f 8221 883f 97da 7e3f d5a1 793f
0.9667179 0.9672041 0.948517 0.99219334 0.96302336 1.0184419 1.0410689 0.96064067
0.9786314 0.9691307 0.9455514 0.9652191 0.9712151 1.0252103 0.9770978 1.0996169
0.9726636 1.0270405 0.9803495 1.0007364 0.93505377 0.9747725 0.98564476 0.98443264
0.97881186 0.9967743 0.9403774 0.9628453 1.0284793 0.96477437 0.97628736 1.0023468
0.9555262 0.99765676 0.97304463 0.9752877 0.98972005 0.99621177 0.97747827 1.0322614
1.0109175 0.95501024 0.9745581 0.9598619 0.96132296 0.99140954 0.9697729 0.98747355
0.97955906 0.96137637 0.9739934 0.9776076 1.0002552 0.9868271 0.9552542 0.9764163
0.99652785 0.9494874 1.0358577 0.96598303 1.0261979 1.0635226 0.9955229 0.9751256

fc1.weight f4 [600, 64]
00000000: d14d 19bc e269 e6bb d81b 0c3d 0d07 d7bb
00000010: 441c 853c 514e bf3b a334 6b3c 8102 043c
00000020: 1836 7cbb 1cc3 0cbc 357e 713c 8471 1e3c
00000030: aea0 5f39 95ec e03b a41f 003c 56e9 e3b9
00000040: 1995 ffba 550e 1b3c 9ccb f03a 476b e13a
00000050: 1e0c aabb d417 57bc 2dc0 93bc 5dbc 67bc
00000060: 6275 b43a c422 babb 37d5 a439 503c c4bb
00000070: 3639 0e3c 358a 4537 b7ff 8ebc a968 0d3b
00000080: a07d 8d3b 7dff eb3b c5dd 22bc 9aae 7abc
00000090: 2b01 c4bb 1dea 6ebb 5934 a4b9 2efe 46bc
000000a0: 9f4a f9bb 25f1 1bbc c533 c93b a70c cd3b
000000b0: cb83 023c d851 a0bb d10d 1bbc fa6f a33b
000000c0: 2dc7 253b e1d9 d439 760b 41bb 990c 143b
000000d0: b87e 393c c9e3 9fbc 1917 b13b 0feb 433c
000000e0: 7b81 7abc 0dd8 b93a 10c0 1a3c 4f8f 8dbc
000000f0: c708 14bc 35d7 e0ba 6cc9 5fbc 4146 003b
00000100: 78d6 2d3b b6ac 923c 3f80 64bc 7954 053c
00000110: ce56 253b 7683 063b 086a 5d3c 2030 efbb
00000120: a6ef d63b 5019 aa3a c86b 30bc 0431 a83c
00000130: e2c3 3a3c 38bd 2fbc 9bb9 2abc 6b84 193c
00000140: 4892 92ba b0c3 6fbb 38f7 f3bb 41cf 713b
00000150: cd8e dd3c 6269 423c 8e4f 03bc b42f 193c
00000160: 2772 5dbc f524 bb3c 9312 1b3c 083d 783c
00000170: 4aca cebb cc90 39bc 801a 1ebc d3fc a43b
00000180: 3d6a eb39 dd6b 9d3a f528 1a3c 50fc 813c
00000190: 11fc 103c d269 7d3c 1eda 0f3c 93d4 e9bb
000001a0: 5baf 86ba 8bfa bfb8 b283 4d3c b6a8 be3a
000001b0: ee67 34bc c7de 4abc 6d78 92bc 29c7 293c
000001c0: afac 913c bb7d c73b 464d 04bc 68d8 e8bb
000001d0: 5f2f 8abc 1775 cebb 7d7e 31bc ff61 71ba
000001e0: 149e 7ebb f5ca c5ba 805f 9cbc 8c2f f8ba
000001f0: dd74 a83c 546b ca3c 019b 39bc 1db0 70bb
00000200: 0e1c 533c 0178 0f3c 0e9e 143c 0530 1ebb
00000210: b805 30ba 8439 c6ba f1db 40bb eafb 4bbc
00000220: 2d4a b4bc 09f3 70bc 8973 823c 4e32 84bb
00000230: 86a3 32bc eb8f 0a3c 3efc 6e3a 8cc1 34bc
00000240: d9b1 a9bc cbf2 033c adbf 9f3b 41be 733a
00000250: 13b3 52bc d713 ba3b 0648 413c ec09 bf3b
00000260: c93d a93b ba85 d73b 0d2e aebb fd98 5f3b
00000270: b929 023b d418 0ebb 6177 983b ddf3 83bc
00000280: 5fb8 8f3b dcb7 b73b 67cb 96bb 4fdd 3d3c
00000290: 3409 8cbc cfd9 42bc 1566 943b 7fdb 30bc
000002a0: 55e7 6b3c 6534 f1bb ff42 553a 37ae b63c
000002b0: 38cb 0f3c 0661 c63b 2857 043c fe70 01bc
000002c0: f8ab 233b 011a 00bc bbb7 abba e991 923c
000002d0: 357d f1bb d725 8e3b 8f9a cf3b 6ce1 1c3a
000002e0: d209 153b c9ce d0bc eefd 98bb c995 423b
000002f0: 51f1 4a3a 150e b4bc d180 83bb 4d7e 2c3c
00000300: 0bc1 463c 5ced d13b 1970 82bc 97f1 7f3b
00000310: 119d c93b 7250 74bc 1b93 e63b 5066 96bb
00000320: 92c9 003c cb0f 53ba a7d1 d83b 8bc0 cdbb
00000330: 4469 423b 0700 6dbc 763e 813c 0063 c0bb
00000340: 89b4 ccbb 4ab3 25bc 9a06 54bc 7fda cfbb
00000350: c3d6 9f3b b41f 4ebc 8157 87bc 53fc 053b
00000360: c94f 8dbc 5cf5 373c c290 073c 0ae4 943a
00000370: 042d 08bc 28f3 943a f8af 85bb 6468 74bc
00000380: fadc 423c 1332 903b f0f1 1ebb 0c88 7e3b
00000390: d7fb a33c 4029 5e3c bed4 1ebc f51d 7ebc
000003a0: 9d03 a33c 1965 c3bb b0fb 9e3a 9f23 453b
000003b0: 8b7b 2d3c 58e7 843c 82a7 ffba d002 3bbc
000003c0: a3e3 57bc f467 1a3c f735 26bb 65f6 e9bb
000003d0: 9c27 823c 65ae ecbb 91b2 4abb 52db 1c3c
000003e0: 8b5d 2b3b 8d15 313c 202a 963b 674c b43a
000003f0: 04bd bc3a f828 083c 4d41 523a 2625 1f3c
-0.009356932 -0.007031665 0.03420624 -0.00656212 0.01624883 0.0058381935 0.014355811 0.008057238
-0.003848439 -0.00859144 0.014739563 0.009670619 0.00021326795 0.0068641403 0.007820044 -0.00043470663
-0.0019499391 0.009463866 0.0018371227 0.0017198109 -0.0051894328 -0.01312824 -0.018035972 -0.01414403
0.0013767893 -0.005680414 0.00031439375 -0.005988635 0.008680632 1.1774294e-05 -0.017455919 0.0021577275
0.004317954 0.0072020874 -0.009940569 -0.015300417 -0.0059815845 -0.003645546 -0.0003131952 -0.012145562
-0.0076077725 -0.009517943 0.0061402046 0.006257612 0.007965992 -0.004892569 -0.009463743 0.004987714
0.002529572 0.00040598123 -0.0029456294 0.0022590517 0.011321716 -0.019517796 0.005404365 0.011957898
-0.01528966 0.0014178768 0.009445205 -0.017280249 -0.009035296 -0.001715398 -0.013658863 0.0019573125
0.0026525538 0.01790462 -0.013946592 0.008137816 0.0025228742 0.0020525134 0.013514049 -0.007299438
0.00655933 0.0012977514 -0.010767885 0.020531185 0.011399241 -0.010726266 -0.010420228 0.00936995
-0.0011182511 -0.0036585145 -0.0074452423 0.0036897215 0.027045632 0.0118659455 -0.008014573 0.009349752
-0.013515986 0.02284477 0.009464878 0.01515127 -0.006310736 -0.011326026 -0.009649873 0.005035022
0.00044901847 0.0012010295 0.009409179 0.015867382 0.00884916 0.015467124 0.0087800305 -0.0071359365
-0.0010275649 -9.154257e-05 0.012543606 0.0014546129 -0.011011107 -0.012382216 -0.01787969 0.010362425
0.017782537 0.0060879863 -0.008075064 -0.0071058758 -0.016868291 -0.0063005793 -0.01083338 -0.0009208023
-0.0038851546 -0.0015090393 -0.019088507 -0.0018935069 0.020563537 0.024709381 -0.01132846 -0.0036726065
0.012885107 0.0087566385 0.009070886 -0.0024137509 -0.00067147193 -0.0015123342 -0.002942797 -0.012450198
-0.022008026 -0.014706382 0.015924232 -0.004034317 -0.010903245 0.008457164 0.00091165665 -0.011032473
-0.020714687 0.008053492 0.0048751445 0.00092980644 -0.012860077 0.0056786346 0.011796957 0.00583004
0.005164836 0.0065772207 -0.0053155483 0.0034118288 0.0019861294 -0.002168228 0.004652903 -0.016107494
0.0043859924 0.0056066345 -0.004601884 0.011588409 -0.017094232 -0.01189275 0.0045287707 -0.010794519
0.014398416 -0.0073609822 0.00081352884 0.022299869 0.0087764785 0.0060540466 0.00807742 -0.007900475
0.0024974328 -0.0078187 -0.0013101021 0.017891841 -0.007369662 0.004338007 0.0063355635 0.0005984518
0.002274145 -0.025489228 -0.0046689427 0.002969133 0.00077416474 -0.021979371 -0.004013159 0.010528159
0.012130986 0.0064064693 -0.015922593 0.003905391 0.006152757 -0.014911758 0.0070365793 -0.0045898333
0.007860558 -0.00080513646 0.0066167894 -0.0062790564 0.0029664794 -0.014465339 0.015776854 -0.0058711767
-0.0062471074 -0.010113547 -0.012941027 -0.0063431854 0.0048778965 -0.012580801 -0.016521217 0.0020444586
-0.017249959 0.011227932 0.008274259 0.0011359465 -0.008311514 0.001136397 -0.004079815 -0.014917467
0.011893505 0.0044005006 -0.0024253093 0.0038838414 0.020017548 0.013559639 -0.009694276 -0.015510072
0.019899184 -0.0059629795 0.0012129452 0.0030081046 0.010588537 0.016223595 -0.0019504877 -0.011414245
-0.013176831 0.009424198 -0.0025361755 -0.007139968 0.015888028 -0.007222938 -0.0030929188 0.009573774
0.0026148285 0.010808361 0.0045826584 0.001375568 0.0014399593 0.008310549 0.0008020595 0.009713447
