maml_omniglot_OR/output/maml-omniglot-5way-1shot-TEST/train_iter_500.pth (torch_old, 310758 bytes, 20 tensors)

features.conv1.weight f4 [64, 3, 3, 3]
0.03038054 -0.03337575 -0.029537639 -0.018739507 0.027535798 0.036573317 0.052045938 0.019638296
0.053328317 0.08854629 -0.10879485 -0.03840905 0.049093395 -0.023466853 -0.019207044 0.08674031
0.09532674 0.023818815 0.03656908 0.027618255 -0.1283867 0.064246364 0.07828452 0.06989642
0.0032267214 -0.07623569 -0.036312975 0.014573028 0.028543044 -0.04853159 0.104353614 0.11797073
-0.0782996 0.012757877 0.06595948 0.023412645 0.043637455 0.0689805 -0.06928827 -0.0030092085
-0.059756067 -0.09366887 0.05977938 -0.08164454 -0.054796938 0.067997456 -0.033041697 -0.04216982
0.11153786 -0.077165656 0.040408723 0.011304946 -0.08259097 0.14027488 0.15902178 -0.12680517
0.05855008 -0.07248184 0.026657045 0.0011099476 0.0682548 0.11579819 0.11011521 -0.027547715
-0.0730616 0.008240048 0.013483356 -0.025534062 -0.015712043 0.049802758 0.010290336 -0.047628243
0.11459128 -0.055531576 -0.013856656 0.057587128 -0.10580289 0.0669579 0.03087847 0.038883608
0.16198309 -0.036726963 0.061238993 -0.018064912 -0.025484663 -0.07279531 0.029652594 -0.053255178
0.05087986 0.013486895 0.063419536 -0.043472268 -0.07551493 0.042662524 -0.056918465 -0.03515106
-0.13992304 -0.049886286 0.023879115 0.09207873 0.0035441495 -0.094542526 0.050860886 0.003089643
-0.021467952 -0.04955566 0.04787583 0.11524172 0.028768346 0.1753117 -0.031619534 -0.08729054
-0.030675957 0.0016597765 0.09077469 -0.1206778 -0.00863972 0.048668075 -0.07853924 0.040649492
0.13220961 0.0052857953 0.01951449 -0.0023272175 -0.04838028 0.00028678562 -0.010741809 -0.060786594
-0.115001805 0.13671319 0.06555521 -0.025333239 0.115575485 0.09001267 -0.02581069 -0.11094948
0.04044284 -0.004554628 0.046181727 0.09268282 -0.0011849925 -0.062289387 0.061436456 0.059236232
0.12297332 0.09864633 -0.099055916 -0.03295173 0.046022873 -0.037737828 -0.055340797 0.0847128
-0.05148091 -0.0017977622 0.11417746 -0.022738302 -0.07808439 0.014183746 0.07448919 -0.059475485
-0.035175424 0.010830618 -0.028631935 0.12350974 -0.17277913 0.060100038 -0.012669641 -0.017601008
-0.04568668 0.12133409 -0.04697533 -0.038200874 -0.094111495 -0.015674567 -0.079179466 -0.046282057
-0.023455827 -0.11445352 0.009201723 -0.027891232 0.018920513 0.03936159 -0.11410622 0.10699647
0.09184979 0.059356354 -0.008836457 -0.07512805 -0.07820115 0.15540366 0.07343897 0.048057355
-0.01862089 -0.056846287 0.121430196 0.073137 0.0551241 0.0075793285 0.0023697272 0.07674287
-0.022700533 -0.12774092 0.029151421 0.046249628 -0.08205913 -0.065104276 0.038807113 0.03639228
0.060888994 -0.06658221 -0.048251137 -0.06353349 0.053580925 0.026928492 0.06461879 0.08697718
-0.01846928 0.013931838 -0.037469476 -0.045522444 -0.021338725 -0.002178515 -0.032944623 0.0014431902
-0.060897246 -0.061191376 -0.036615178 -0.039330207 -0.0033017166 0.06144257 -0.023951396 -0.026568718
0.07325435 -0.116044216 -0.01188728 -0.14729646 -0.07892753 0.0022142255 -0.013772382 -0.04841299
0.088107586 0.02256232 -0.07405093 -0.08014207 0.022504719 -0.010646734 -0.017554395 -0.05090958
-0.03638081 -0.033707846 -0.05851382 -0.06751182 0.05430372 -0.11509138 -0.025121141 0.046876494
00000000: 9ce0 f83c 03b5 08bd ebf8 f1bc 9883 99bc
00000010: c192 e13c e7cd 153d 1f2e 553d 7ee0 a03c
00000020: cb6e 5a3d c257 b53d d6cf debd cf52 1dbd
00000030: 2816 493d 8f3d c0bc 1758 9dbc e7a4 b13d
00000040: aa3a c33d ad1f c33c 76c9 153d ae3f e23c
00000050: ce77 03be 9993 833d a253 a03d db25 8f3d
00000060: 6777 533b 7521 9cbd eabc 14bd b6c3 6e3c
00000070: 1ad3 e93c 0fc9 46bd 59b7 d53d a39a f13d
00000080: 8a5b a0bd 6a06 513c c415 873d e0cb bf3c
00000090: 30bd 323d a645 8d3d 02e7 8dbd 2436 45bb
000000a0: c7c2 74bd 77d5 bfbd 39db 743d 4135 a7bd
000000b0: c172 60bd 4042 8b3d bb56 07bd 43ba 2cbd
000000c0: f66d e43d 0709 9ebd 9e83 253d 6138 393c
000000d0: 7425 a9bd 38a4 0f3e 9bd6 223e 37d9 01be
000000e0: 35d2 6f3d 5c71 94bd e05f da3c a97b 913a
000000f0: 2cc9 8b3d 9a27 ed3d 1584 e13d bfab e1bc
00000100: 52a1 95bd 4401 073c 4be9 5c3c cf2c d1bc
00000110: 8bb6 80bc fafd 4b3d cc98 283c d515 43bd
00000120: d5ae ea3d 1475 63bd 0707 63bc 7be0 6b3d
00000130: 30af d8bd 3921 893d d8f4 fc3c 6b44 1f3d
00000140: e5de 253e 036f 16bd bdd5 7a3d defc 93bc
00000150: 36c5 d0bc b515 95bd ffe9 f23c 1a22 5abd
00000160: 6667 503d 23f8 5c3c 1ae2 813d fa0f 32bd
00000170: 92a7 9abd e6be 2e3d 5623 69bd 8ffa 0fbd
00000180: fc47 0fbe 9055 4cbd 229e c33c c693 bc3d
00000190: f644 683b 839f c1bd 8153 503d 9c7b 4a3b
000001a0: 8fdd afbc e0fa 4abd 7219 443d da03 ec3d
000001b0: 98ab eb3c e984 333e 7c83 01bd 62c5 b2bd
000001c0: 254c fbbc dc8c d93a 15e8 b93d ec25 f7bd
000001d0: 9d8d 0dbc 2d58 473d 2ed9 a0bd 1580 263d
000001e0: f561 073e 7734 ad3b dadc 9f3c 3b84 18bb
000001f0: 672a 46bd b75b 9639 6afe 2fbc 5dfb 78bd
00000200: 1186 ebbd 8bfe 0b3e cf41 863d a787 cfbc
00000210: d7b2 ec3d 9058 b83d f170 d3bc 7b39 e3bd
00000220: 64a7 253d fd3e 95bb 0d29 3d3d 7ed0 bd3d
00000230: c051 9bba 2823 7fbd cba4 7b3d b1a1 723d
00000240: 70d9 fb3d 1607 ca3d d4dd cabd 65f8 06bd
00000250: 7b82 3c3d fb92 1abd 08ad 62bd e87d ad3d
00000260: a6dd 52bd e4a2 ebba dfd5 e93d ad45 babc
00000270: b5ea 9fbd f162 683c ca8d 983d 919c 73bd
00000280: 1b14 10bd e872 313c 858d eabc adf2 fc3d
00000290: 03ed 30be 752b 763d 5394 4fbc fd2f 90bc
000002a0: f521 3bbd 027e f83d 3469 40bd 8578 1cbd
000002b0: 87bd c0bd f367 80bc d828 a2bd 4192 3dbd
000002c0: 6f26 c0bc 9b66 eabd d3c2 163c 277c e4bc
000002d0: 31ff 9a3c 9e39 213d 86b0 e9bd f720 db3d
000002e0: be1b bc3d a61f 733d c9c6 10bc bcdc 99bd
000002f0: ed27 a0bd 2322 1f3e 2c67 963d cad7 443d
00000300: d68a 98bc a7d7 68bd 65b0 f83d dac8 953d
00000310: cfc9 613d 045c f83b 6d4d 1b3b 5e2b 9d3d
00000320: 78f6 b9bc 84ce 02be f6ce ee3c 4070 3d3d
00000330: 9e0e a8bd 6455 85bd 35f4 1e3d 1210 153d
00000340: bd66 793d 415c 88bd fca2 45bd d91d 82bd
00000350: ac77 5b3d 2499 dc3c db56 843d 1721 b23d
00000360: e34c 97bc 5d42 643c 9879 19bd be75 3abd
00000370: 8dce aebc 6bc5 0ebb f1f0 06bd 6d29 bd3a
00000380: 646f 79bd cfa3 7abd ccf9 15bd b618 21bd
00000390: 9d61 58bb 34ab 7b3d b835 c4bc a4a6 d9bc
000003a0: 6006 963d 97a8 edbd dec2 42bc e2d4 16be
000003b0: c2a4 a1bd 8a1c 113b 8fa5 61bc b34c 46bd
000003c0: c071 b43d 9dd4 b83c 04a8 97bd 8721 a4bd
000003d0: d15b b83c a46f 2ebc 3cce 8fbc 9086 50bd
000003e0: 0b04 15bd 3d11 0abd 30ac 6fbd a343 8abd
000003f0: 946d 5e3d 08b5 ebbd daca cdbc 9101 403d

features.conv1.bias f4 [64]
0.0019680352 -0.0024937284 -0.0012210158 -0.0012865881 0.0029965471 0.0008723185 0.0005079492 -0.00026586332
2.2206066e-05 -0.0013780519 0.00026030277 0.0012770656 0.000117567004 0.00081704685 -0.0011869296 -8.33561e-05
-0.0020852988 7.0060974e-05 0.002357583 0.00076060527 0.00086247816 -0.0014180861 -0.0013269273 0.00020808702
-0.001992197 0.0003084326 0.0012955084 -0.0005098307 -0.0020441583 0.00029912055 0.0004777653 0.0010629231
-0.00051587186 -0.00012218952 0.00057272014 9.907208e-05 0.0004297397 0.00011689118 -0.0005608644 -0.000612884
0.00017808242 -2.7658514e-05 -0.00057766476 0.0008793529 -0.0007786014 -0.0010299046 0.00037111962 0.0007588515
0.0010510162 0.0005472196 -0.0014992984 0.003197461 -0.0034112013 0.00027656 -0.00035459112 0.00014473328
-0.0014869166 -0.00097338343 -0.0011934786 0.0008351421 -0.0004554229 0.00078742363 0.00034914247 0.001450233
00000000: 27fa 003b d26d 23bb 7e0a a0ba bca2 a8ba
00000010: b861 443b 4eac 643a e527 053a 9263 8bb9
00000020: 2a47 ba37 c09f b4ba 3f79 8839 3663 a73a
00000030: 4e8e f638 162f 563a c092 9bba 77cf aeb8
00000040: 82a9 08bb b3ed 9238 ae81 1a3b 5b63 473a
00000050: ee17 623a 13df b9ba 4bec adba ef31 5a39
00000060: 858f 02bb 1fb5 a139 0cce a93a 29a6 05ba
00000070: 49f7 05bb 48d3 9c39 937c fa39 c851 8b3a
00000080: 933b 07ba 0020 00b9 9922 163a ebc4 cf38
00000090: b04e e139 7923 f538 f906 13ba f3a9 20ba
000000a0: a3bb 3a39 3504 e8b7 6d6e 17ba 6084 663a
000000b0: 0e1b 4cba ddfd 86ba d592 c239 aaed 463a
000000c0: 40c2 893a 4973 0f3a 1b84 c4ba 7e8c 513b
000000d0: 768e 5fbb 41ff 9039 6ae8 b9b9 8bc3 1739
000000e0: a4e4 c2ba a82a 7fba 7f6e 9cba 70ed 5a3a
000000f0: d4c5 eeb9 1b6b 4e3a 1c0d b739 bf15 be3a

features.bn1.weight f4 [64]
1.0460261 1.002823 1.0197688 0.99571544 0.9816932 1.0441828 0.97646844 1.0906166
0.9709993 0.98372823 0.9730836 0.9652105 0.91297716 1.0506965 0.98396283 0.99835074
1.046838 0.97342956 1.0087616 0.96803343 1.0238458 1.040322 0.9524056 0.9823876
1.0346305 0.9538179 1.0439035 1.0295334 0.9794856 0.9282469 1.0396689 1.1236037
1.0757211 0.9674559 1.0631033 1.0947762 1.0547657 0.9455246 0.9307182 1.029389
0.9578517 0.99637115 1.0076159 1.119916 1.0381105 1.0750525 0.9412299 0.95089126
0.95373785 0.9445835 1.0497286 1.0904446 1.0428842 1.0224198 1.0232891 1.0167383
1.0143511 0.9131926 1.1143705 0.94430375 1.0333885 0.962595 1.0195199 1.0148587
00000000: 2fe4 853f 815c 803f c987 823f 35e7 7e3f
00000010: 3f50 7b3f c8a7 853f d6f9 793f 5399 8b3f
00000020: 6993 783f 9dd5 7b3f 021c 793f 0918 773f
00000030: dfb8 693f 397d 863f fde4 7b3f ea93 7f3f
00000040: cafe 853f ae32 793f 1a1f 813f 0ad1 773f
00000050: 610d 833f 4529 853f dad0 733f c17d 7b3f
00000060: c66e 843f 692d 743f a19e 853f c0c7 833f
00000070: 91bf 7a3f 97a1 6d3f df13 853f 3fd2 8f3f
00000080: 3bb1 893f 31ab 773f c513 883f a021 8c3f
00000090: 9002 873f e60d 723f 8c43 6e3f 05c3 833f
000000a0: c535 753f 2e12 7f3f 8ff9 803f 6859 8f3f
000000b0: cee0 843f 529b 893f 71f4 703f 9c6d 733f
000000c0: 2a28 743f 39d0 713f 825d 863f b093 8b3f
000000d0: 3b7d 853f a7de 823f 23fb 823f 7b24 823f
000000e0: 42d6 813f fdc6 693f b1a3 8e3f e4bd 713f
000000f0: 1346 843f a06c 763f a17f 823f e4e6 813f

features.bn1.bias f4 [64]
-0.108769044 -0.05365637 0.0055841645 -0.118046254 -0.08261643 -0.042875756 -0.09000315 -0.058306746
-0.0326952 -0.022235008 -0.05270293 0.08181721 -0.08197953 0.0011453792 0.011649929 -0.01403796
0.05004554 -0.031811915 -0.07622084 0.090794146 -0.0403213 -0.06445136 -0.14875574 -0.029261595
-0.07665826 -0.01632855 -0.13017964 -0.045076076 -0.09822736 0.051611423 -0.06237825 0.061510094
0.003806403 -0.044182733 -0.06349642 -0.054405138 0.086067215 0.05755184 -0.021539858 0.016804673
0.009079622 -0.07749589 -0.049572904 -0.06995528 -0.047109276 -0.08068608 -0.032589357 -0.07263783
-0.042957995 -0.01280864 -0.060347673 -0.04512599 -0.010006419 -0.058929875 -0.053186167 -0.07568134
0.03504634 0.020957973 -0.09839186 0.000471611 -0.062356483 -0.050903857 -0.023954775 0.035983842
00000000: 4ec2 debd c8c6 5bbd 5efb b63b 3cc2 f1bd
00000010: ce32 a9bd 7d9e 2fbd 9253 b8bd 0ed3 6ebd
00000020: 67eb 05bd 3126 b6bc 07df 57bd c88f a73d
00000030: e2e4 a7bd 8c20 963a 58df 3e3c 79ff 65bc
00000040: 8dfc 4c3d 364d 02bd ac19 9cbd 48f2 b93d
00000050: f327 25bd 13ff 83bd 6d53 18be 03b6 efbc
00000060: 01ff 9cbd 74c3 85bc d04d 05be b1a1 38bd
00000070: 6d2b c9bd 8066 533d 5680 7fbd 02f2 7b3d
00000080: d874 793b f4f8 34bd 690a 82bd ecd7 5ebd
00000090: 0244 b03d 7abb 6b3d 5b74 b0bc f4a9 893c
000000a0: b2c2 143c 2ab6 9ebd f50c 4bbd b744 8fbd
000000b0: a8f5 40bd be3e a5bd 6b7c 05bd 25c3 94bd
000000c0: b9f4 2fbd 54db 51bc 1f2f 77bd 08d6 38bd
000000d0: f7f1 23bc 7460 71bd bdd9 59bd d2fe 9abd
000000e0: c08c 0f3d 0eb0 ab3c ac81 c9bd 8f42 f739
000000f0: 8369 7fbd 9080 50bd ce3c c4bc cb63 133d

features.bn1.running_mean f4 [64]
0.015056762 0.11721836 0.2510147 0.1584045 0.14889961 0.00063194905 0.07195076 0.10908565
-0.21028514 -0.26214096 -0.13692625 0.36808842 -0.3022046 -0.081157535 -0.14249896 0.024625499
-0.28338382 0.11160446 0.03897313 -0.16420572 0.079831466 -0.1477088 0.16715802 0.036786165
-0.11316097 -0.06563859 0.25219712 -0.13977511 -0.049026553 -0.30437005 0.31297767 -0.21192917
-0.25699267 0.09379702 0.26814163 -0.059785284 0.4010743 0.02261589 0.0777851 0.101856895
-0.29007325 0.08616011 -0.09587512 -0.036047824 0.06725619 -0.18181376 0.2629731 -0.22810842
-0.22907996 -0.16881274 0.42691398 -0.13517201 -0.08486727 0.2639479 0.18654226 0.14634453
-0.009619655 -0.07097469 0.27707064 -0.18588191 -0.17659533 0.0005634488 0.25980926 0.2716243
00000000: a3b0 763c 2e10 f03d 0085 803e ca34 223e
00000010: 2479 183e 62a9 253a ec5a 933d 4c68 df3d
00000020: fd54 57be 5737 86be 6536 0cbe 1676 bc3e
00000030: 90ba 9abe ec35 a6bd 3feb 11be 6abb c93c
00000040: af17 91be e190 e43d 4aa2 1f3d 8b25 28be
00000050: ae7e a33d fa40 17be 792b 2b3e 17ad 163d
00000060: f0c0 e7bd 866d 86bd fb1f 813e 3521 0fbe
00000070: 11d0 48bd 64d6 9bbe 9c3e a03e f603 59be
00000080: 8b94 83be a718 c03d dc49 893e 6ae1 74bd
00000090: 9c59 cd3e f544 b93c cb4d 9f3d 599a d03d
000000a0: 7b84 94be b674 b03d 2d5a c4bd e2a6 13bd
000000b0: 9dbd 893d 632d 3abe 69a4 863e 4195 69be
000000c0: f093 6abe 3fdd 2cbe 7894 da3e 886a 0abe
000000d0: e4ce adbd 2e24 873e ef04 3f3e 57db 153e
000000e0: c29b 1dbc 2e5b 91bd 34dc 8d3e d457 3ebe
000000f0: 68d5 34be 69b4 133a b805 853e 5712 8b3e

features.bn1.running_var f4 [64]
0.8009146 0.771722 0.5321374 0.5676988 0.36617723 0.5930317 0.82534385 0.8696749
0.6300704 0.6059982 2.640212 0.43002096 2.063313 0.6460819 0.44530272 1.4353222
0.40164313 1.1324552 0.5046501 1.1325179 0.54640687 0.76545507 0.35854918 0.9854376
0.984562 0.62616825 0.8514386 0.7511504 0.43756896 0.98880446 0.93230563 0.9383904
0.7686004 1.1019489 0.8261123 0.6738621 0.52062577 1.5177171 2.3042731 0.5996741
1.7230033 0.3863251 0.7951713 0.96847904 0.66491365 0.9406308 1.1063483 1.1237198
1.737471 0.26088592 0.8455016 1.1865964 0.8766347 0.64752066 0.8227533 0.5633066
0.34731683 0.54419553 0.89254504 0.34784022 0.57786906 0.81989306 0.9095354 0.37735322
00000000: bd08 4d3f 938f 453f 283a 083f b554 113f
00000010: 957b bb3e edd0 173f bc49 533f 04a3 5e3f
00000020: 4b4c 213f b322 1b3f 3cf9 2840 b52b dc3e
00000030: 520d 0440 a065 253f b8fe e33e a3b8 b73f
00000040: 2ba4 cd3e 4bf4 903f c030 013f 59f6 903f
00000050: 52e1 0b3f ddf4 433f c293 b73e a345 7c3f
00000060: 410c 7c3f 904c 203f e1f7 593f 654b 403f
00000070: 0a09 e03e 4a22 7d3f 95ab 6e3f 5a3a 703f
00000080: ffc2 443f a90c 8d3f 187c 533f 3a82 2c3f
00000090: bb47 053f 8e44 c23f 3679 1340 3e84 193f
000000a0: 5f8b dc3f 67cc c53e 5990 4b3f 3eee 773f
000000b0: c837 2a3f 2ecd 703f d29c 8d3f 0dd6 8f3f
000000c0: 7365 de3f d792 853e cb72 583f 64e2 973f
000000d0: 226b 603f eac3 253f f69f 523f dd34 103f
000000e0: 83d3 b13e 6650 0b3f d57d 643f 1d18 b23e
000000f0: 3aef 133f 83e4 513f 50d7 683f 7134 c13e

features.conv2.weight f4 [64, 64, 3, 3]
-0.012141126 -0.004388176 -0.03155345 -0.023596967 0.033567388 -0.002586281 0.09509376 -0.008149956
-0.028210256 -0.07005599 -0.0017247685 0.008263703 0.020954942 0.07989993 -0.05503457 0.024053156
0.056423996 -0.005057527 0.0048726327 -0.020028677 -0.053415947 0.07798146 0.029328886 -0.026006494
0.10555389 -0.088387 -0.026673479 -0.007647897 0.087662615 -0.023603607 0.013247867 -0.021297803
0.05398869 0.02840577 -0.027921379 -0.033437744 -0.021111043 0.040999006 -0.11051984 -0.05500869
-0.003828966 -0.018696513 0.0437768 -0.032660685 0.036518726 -0.001203762 -0.0008893265 0.040744904
0.056268677 0.039111637 0.06901878 0.10159143 0.054630116 0.03212079 0.0119988145 -0.02636983
0.02561261 0.007395372 -0.033807922 0.048130546 0.007877479 0.030993083 0.05260865 -0.023088928
-0.04518756 -0.07030048 -0.12763716 0.03749621 -0.021775115 0.07812425 -0.061751384 -0.108524874
-0.0038996933 -0.052271143 0.039331973 0.04663978 -0.03712728 0.08515516 0.0073125833 0.056249313
-0.0181078 0.08802418 0.008472534 0.0013775865 0.037951864 0.035759404 -0.05412461 0.06090499
0.05240591 -0.099663824 0.05273272 -0.10903496 0.045938436 0.120706566 0.10705228 -0.021704588
0.016204335 -0.050645094 0.09678204 -0.04905208 -0.0011153972 -0.034696218 0.005882975 -0.081954226
0.0129390415 0.011615335 -0.0057247696 0.06676874 0.025714103 -0.06630225 0.020107353 0.01832137
0.056623157 -0.010772449 0.08780734 -0.054676257 0.0353755 -0.021229453 0.041182086 -0.05753601
0.048393425 -0.042542804 -0.02815553 0.018560793 0.086772285 0.019507542 -0.121530905 -0.04328412
-0.147853 -0.023896763 0.0639099 -0.02452688 0.030545097 0.026400164 0.008424277 -0.048040733
-0.08155228 0.05784653 0.019074818 0.042004216 0.011332093 -0.017492378 0.1291401 0.1010929
-0.020733722 -0.06307512 -0.0804696 -0.05718758 -0.11399166 -0.0026483103 -0.027807547 -0.08955761
-0.10305358 -0.008564366 0.030026384 0.16139182 -0.021918293 -0.034065444 -0.06721269 0.1138556
0.025222493 0.06959431 0.050068606 -0.05004834 0.064450964 -0.033223726 -0.016622158 0.03106431
-0.02644156 0.08125041 0.05185547 0.015597245 0.032673284 -0.059191532 0.039041378 0.006560491
0.06024593 -0.048790053 -0.07653651 0.13082829 -0.030206608 0.008227682 -0.05480377 0.06920828
-0.041386638 -0.06974134 0.04937578 -0.060398743 -0.11469481 0.06923712 0.03485608 -0.0013136723
0.035700027 0.059899703 0.06571523 -0.11414464 -0.030962436 0.17112693 0.025162172 -0.03700558
-0.012930503 0.0014988296 0.04093614 0.018100044 -0.06937001 -0.0030178353 0.010469073 0.07320826
0.027299624 0.011715649 0.025317628 -0.014669881 0.032216784 0.011011717 -0.09911829 -0.057802983
-0.07408559 -0.0073062256 0.0044723307 0.022206662 -0.0038985515 -0.010909757 0.09700497 -0.03799336
-0.10152931 -0.0561844 -0.04089129 0.008884362 -0.008069286 -0.0372053 -0.017515669 -0.031514887
0.042639084 0.03509249 0.025681201 -0.040113486 -0.13267541 0.1035037 -0.07400493 -0.029714182
0.09857287 0.0641137 -0.07982753 0.030235589 0.08417014 -0.04742655 0.018922158 -0.010625609
-0.12828216 0.013288578 -0.04465197 -0.097070076 -0.04823783 0.11642688 0.03376775 0.00021418712
00000000: 93eb 46bc b0ca 8fbb 313e 01bd 6d4e c1bc
00000010: f57d 093d 987e 29bb 84c0 c23d 6587 05bc
00000020: 3219 e7bc 8479 8fbd a111 e2ba 7c64 073c
00000030: b3a9 ab3c 93a2 a33d ee6b 61bd 200b c53c
00000040: d91c 673d 9db9 a5bb 9baa 9f3b 2e13 a4bc
00000050: aeca 5abd beb4 9f3d 2243 f03c 920b d5bc
00000060: a32c d83d 3e04 b5bd 5782 dabc 369b fabb
00000070: 7588 b33d 5a5c c1bc 950d 593c bb78 aebc
00000080: 3f23 5d3d 38b3 e83c 60bb e4bc 04f6 08bd
00000090: 11f1 acbc 93ee 273d 3a58 e2bd cb50 61bd
000000a0: 64ef 7abb 6e29 99bc 4d4f 333d 36c7 05bd
000000b0: a994 153d 8dc7 9dba b121 69ba 21e4 263d
000000c0: fc79 663d 8633 203d b859 8d3d 2b0f d03d
000000d0: d4c3 5f3d 1791 033d ad96 443c 8b05 d8bc
000000e0: 89d1 d13c e054 f23b 2d7a 0abd 8924 453d
000000f0: 8b10 013c 35e5 fd3c 2b7c 573d fe24 bdbc
00000100: 9716 39bd b3f9 8fbd 51b3 02be a095 193d
00000110: ba61 b2bc 9bff 9f3d 05ef 7cbd 4a42 debd
00000120: ff91 7fbb 441a 56bd 901a 213d 5b09 3f3d
00000130: c612 18bd d465 ae3d 659e ef3b ae65 663d
00000140: cf56 94bc 0546 b43d 62d0 0a3c 2290 b43a
00000150: 6a73 1b3d 7478 123d c4b1 5dbd 8377 793d
00000160: 94a7 563d 8c1c ccbd 44fe 573d b94d dfbd
00000170: f129 3c3d 0135 f73d 3a3e db3d d2cd b1bc
00000180: f4be 843c 3b71 4fbd aa35 c63d d5ea 48bd
00000190: 8532 92ba 9f1d 0ebd f9c5 c03b 9ed7 a7bd
000001a0: 46fe 533c 3f4e 3e3c d996 bbbb 0dbe 883d
000001b0: 62a6 d23c 79c9 87bd 2db8 a43c b316 963c
000001c0: afed 673d ed7e 30bc 56d4 b33d 36f4 5fbd
000001d0: e6e5 103d 64e9 adbc 8cae 283d e1aa 6bbd
000001e0: 2f38 463d 5d41 2ebd 6da6 e6bc ce0c 983c
000001f0: abb5 b13d 48ce 9f3c 32e5 f8bd b04a 31bd
00000200: c766 17be 25c3 c3bc 32e3 823d 98ec c8bc
00000210: b639 fa3c 2845 d83c fb05 0a3c 5cc6 44bd
00000220: e204 a7bd 7cf0 6c3d cb42 9c3c 9d0c 2c3d
00000230: 3eaa 393c 2d4c 8fbc 4d3d 043e cb09 cf3d
00000240: c4d9 a9bc 872d 81bd 3fcd a4bd 863d 6abd
00000250: 7674 e9bd 468f 2dbb a7cc e3bc fb69 b7bd
00000260: c10d d3bd 8e51 0cbc e4f9 f53c e643 253e
00000270: fe8d b3bc 3588 0bbd cfa6 89bd 202d e93d
00000280: 679f ce3c 7687 8e3d bd14 4d3d 7dff 4cbd
00000290: defe 833d 9a15 08bd 312b 88bc 947a fe3c
000002a0: f89b d8bc 9d66 a63d 6766 543d 968b 7f3c
000002b0: 6cd4 053d d272 72bd dae9 1f3d 63f9 d63b
000002c0: 70c4 763d 14d8 47bd 2cbf 9cbd daf7 053e
000002d0: d973 f7bc 66cd 063c eb79 60bd 12bd 8d3d
000002e0: 0985 29bd 8cd4 8ebd 423e 4a3d ac64 77bd
000002f0: 1de5 eabd 31cc 8d3d 40c5 0e3d 872f acba
00000300: 313a 123d 6459 753d b595 863d aac4 e9bd
00000310: efa4 fdbc e63b 2f3e e620 ce3c 2a93 17bd
00000320: 76da 53bc 6074 c43a a7ac 273d 8b46 943c
00000330: dd11 8ebd e0c6 45bb 7a86 2b3c 36ee 953d
00000340: 76a3 df3c fef2 3f3c ea66 cf3c f159 70bc
00000350: bff5 033d 7d6a 343c 88fe cabd d2c2 6cbd
00000360: 30ba 97bd 1069 efbb a18c 923b bfea b53c
00000370: d77e 7fbb d6be 32bc 8baa c63d ed9e 1bbd
00000380: 99ee cfbd 9d21 66bd a07d 27bd b78f 113c
00000390: 0a35 04bc 9664 18bd 057d 8fbc c115 01bd
000003a0: 52a6 2e3d 25bd 0f3d 6261 d23c 0a4e 24bd
000003b0: 10dc 07be bff9 d33d e68f 97bd 286b f3bc
000003c0: 93e0 c93d 0b4e 833d 9e7c a3bd a0b0 f73c
000003d0: 6561 ac3d 5842 42bd a402 9b3c 0917 2ebc
000003e0: 665c 03be 56b8 593c fce4 36bd adcc c6bd
000003f0: 0895 45bd 3771 ee3d 0d50 0a3d 6b97 6039

features.conv2.bias f4 [64]
-0.0005114549 -1.7985265e-05 -0.00029561503 -0.00036840202 5.4425367e-05 4.1531555e-05 -0.00036643053 1.08894155e-05
4.974678e-05 -0.00019777985 3.965657e-05 -7.427524e-05 -7.814387e-05 7.775468e-05 -0.00017646153 0.00016365347
9.055327e-05 0.00013071993 -0.00010523217 -0.00014479777 0.00020154168 0.00014561317 -0.0008541537 0.00017511411
0.00015881937 6.8685185e-05 8.841542e-05 5.5261073e-05 0.00020321828 -6.614597e-05 -4.4353197e-05 0.00011824961
0.00032097741 -5.8894708e-05 7.09479e-05 6.5110886e-05 -0.00013825444 -0.0004150138 -0.00015077299 0.00013964748
-7.856081e-05 0.00014188762 0.00013588843 -0.0002471273 -0.00011354932 -2.2779707e-06 -1.1128949e-05 -1.0809347e-05
7.7371486e-05 -6.736486e-05 7.558298e-05 0.00024142639 9.4721225e-05 3.4874985e-05 -0.00040804176 -2.7961562e-06
-6.8086534e-05 0.00020690367 -0.0003013154 0.00024026529 -0.00010882553 -7.187982e-05 0.00070243335 6.524917e-05
00000000: 2813 06ba 10df 96b7 c7fc 9ab9 1526 c1b9
00000010: cb46 6438 2b32 2e38 791d c0b9 afb1 3637
00000020: 33a7 5038 2063 4fb9 eb54 2638 37c4 9bb8
00000030: 2ce1 a3b8 3a10 a338 8808 39b9 659a 2b39
00000040: 6be7 bd38 dd11 0939 17b0 dcb8 dbd4 17b9
00000050: ef54 5339 bdaf 1839 49e9 5fba d69e 3739
00000060: c088 2639 140b 9038 ab6b b938 20c8 6738
00000070: fe16 5539 d9b7 8ab8 e207 3ab8 c7fc f738
00000080: dc48 a839 b605 77b8 ddc9 9438 248c 8838
00000090: 65f8 10b9 3696 d9b9 d118 1eb9 566e 1239
000000a0: 04c1 a4b8 abc7 1439 467d 0e39 dd90 81b9
000000b0: 5421 eeb8 3ddf 18b6 79b6 3ab7 cb59 35b7
000000c0: 8042 a238 3c46 8db8 4e82 9e38 6727 7d39
000000d0: 12a5 c638 bb46 1238 70ee d5b9 99a5 3bb6
000000e0: aec9 8eb8 48f4 5839 def9 9db9 b9ef 7b39
000000f0: 4339 e4b8 2fbe 96b8 8123 383a 62d6 8838

features.bn2.weight f4 [64]
0.9696284 0.97811514 0.99326193 1.0652848 1.0410888 0.93126404 1.0827031 1.0358442
0.98036003 0.9381481 1.1089656 0.96856487 1.050102 0.97470415 0.9132827 0.867918
1.0987327 0.98464906 0.9460494 0.97738326 0.9346424 0.98313 1.0317651 0.95804596
1.1001612 1.0735359 0.98990256 0.9630019 0.9304308 0.96944404 1.0862478 0.9621189
0.99801624 0.9430111 1.0567951 0.9598011 1.0033643 0.97112495 1.0432156 0.98803186
1.0629536 1.0042756 0.9790666 0.92131567 0.9123224 0.989604 0.9570251 0.96847034
1.0840622 0.9909322 0.9341425 0.912443 1.012532 1.0466037 1.0620778 1.0711341
0.94284105 1.0237832 1.0144043 1.0238688 0.9621857 1.0048871 0.93680656 0.9975286
00000000: 9139 783f c165 7a3f 6a46 7e3f 415b 883f
00000010: 6642 853f 5267 6e3f 0496 8a3f 8b96 843f
00000020: e0f8 7a3f 792a 703f 96f2 8d3f def3 773f
00000030: be69 863f 3686 793f e5cc 693f e02f 5e3f
00000040: 46a3 8c3f f611 7c3f 4b30 723f ca35 7a3f
00000050: b944 6f3f 68ae 7b3f e110 843f 8042 753f
00000060: 15d2 8c3f a069 893f 416a 7d3f 4b87 763f
00000070: b730 6e3f 7c2d 783f 2b0a 8b3f 6d4d 763f
00000080: fe7d 7f3f 2d69 713f 1045 873f 86b5 753f
00000090: 3e6e 803f a59b 783f 1788 853f a8ef 7c3f
000000a0: dd0e 883f 1a8c 803f 1ca4 7a3f 58db 6b3f
000000b0: f68d 693f b056 7d3f 99ff 743f aced 773f
000000c0: 8dc2 8a3f bcad 7d3f f623 6f3f dd95 693f
000000d0: a69a 813f 1cf7 853f 2af2 873f ec1a 893f
000000e0: 085e 713f 540b 833f 00d8 813f 220e 833f
000000f0: cd51 763f 24a0 803f 8ed2 6f3f 095e 7f3f

features.bn2.bias f4 [64]
-0.10023016 -0.09185611 -0.14417942 -0.2042212 0.003373487 -0.049759194 -0.03275424 -0.14548188
-0.012948536 -0.113878176 0.022630733 -0.18544385 -0.043156736 -0.15864821 -0.13677874 -0.10429699
-0.28508496 -0.12903412 0.042271804 -0.19593032 -0.07875448 -0.16612966 -0.078061044 -0.07785974
-0.19896848 -0.19198532 -0.1932747 -0.07892933 0.10313355 -0.20152232 -0.13255809 -0.06907089
0.0058805556 -0.034575846 -0.15737894 -0.17973255 -0.13741617 -0.0950678 -0.017511226 -0.035318002
0.05190199 -0.07176665 -0.094801396 -0.00058227056 -0.15749595 -0.009796862 -0.13241524 -0.119095236
-0.11497296 -0.065713786 -0.13664098 -0.035516523 -0.04510548 -0.03775652 0.023807444 -0.06965256
0.015441846 -0.016561119 -0.16179517 0.08215143 -0.16039099 -0.08879997 0.042199194 -0.08897288
00000000: 7845 cdbd 0e1f bcbd c5a3 13be 5d1f 51be
00000010: b815 5d3b 4cd0 4bbd 4f29 06bd 34f9 14be
00000020: 1926 54bc f638 e9bd 1664 b93c fee4 3dbe
00000030: 1ec5 30bd ad74 22be ba0f 0cbe a999 d5bd
00000040: a8f6 91be 8521 04be 3325 2d3d f5a1 48be
00000050: 074a a1bd e51d 2abe 78de 9fbd ed74 9fbd
00000060: 65be 4bbe cd97 44be cee9 45be b3a5 a1bd
00000070: af37 d33d de5b 4ebe 4fbd 07be 0a75 8dbd
00000080: adb1 c03b 679f 0dbd f227 21be cf0b 38be
00000090: d3b6 0cbe e8b2 c2bd b473 8fbc 9ca9 10bd
000000a0: 2e97 543d 65fa 92bd 3c27 c2bd 84a3 18ba
000000b0: 9e46 21be 0483 20bc dc97 07be 34e8 f3bd
000000c0: f176 ebbd f394 86bd 9deb 0bbe c679 11bd
000000d0: 86c0 38bd 95a6 1abd d407 c33c 00a6 8ebd
000000e0: ccff 7c3c 2fab 87bc a2ad 25be 023f a83d
000000f0: 893d 24be c2dc b5bd 10d9 2c3d 6a37 b6bd

features.bn2.running_mean f4 [64]
1.7313349 0.18637623 2.6524189 1.6568555 0.17777017 0.9158204 0.1641767 -2.914999
-1.0808548 4.1958094 -5.5003386 -0.25966397 0.6595044 2.1904263 0.44133285 -1.8661839
-0.28935644 -1.7372944 2.3393874 3.2380314 -1.5005457 3.409094 0.53342015 -2.400226
0.2806284 -0.6870089 3.1607265 2.7823837 3.1453173 2.3279011 1.1236765 3.8198113
2.6402805 4.499292 -2.6938825 4.3022113 1.6454191 -0.583167 1.1034962 -4.1562614
2.0151188 -0.2768301 2.060886 2.036162 2.2958572 -5.334336 2.3646963 1.500878
-0.69545823 0.9708258 3.2599633 5.0191903 -3.6944268 1.0006566 2.9718795 -1.4164617
3.4297853 -0.16250426 -2.3524714 1.6452922 3.4357018 -0.4698064 2.6098607 0.13807182
00000000: 629c dd3f 69d9 3e3e 3bc1 2940 d713 d43f
00000010: 6209 363e 3573 6a3f f01d 283e 588f 3ac0
00000020: 7359 8abf 1244 8640 c602 b0c0 adf2 84be
00000030: 48d5 283f f22f 0c40 61f6 e13e 1ddf eebf
00000040: 8726 94be aa5f debf 86b8 1540 e83b 4f40
00000050: e211 c0bf 992e 5a40 398e 083f 4e9d 19c0
00000060: 87ae 8f3e d1df 2fbf 5849 4a40 9312 3240
00000070: e14c 4940 55fc 1440 a2d4 8f3f ca77 7440
00000080: 5bfa 2840 33fa 8f40 9268 2cc0 b7ab 8940
00000090: 189d d23f 6f4a 15bf 5d3f 8d3f 1800 85c0
000000a0: b5f7 0040 adbc 8dbe 8ee5 0340 7a50 0240
000000b0: 53ef 1240 e1b2 aac0 2f57 1740 c51c c03f
000000c0: 8d09 32bf 0a88 783f 3da3 5040 359d a040
000000d0: 7d71 6cc0 8415 803f 4633 3e40 9e4e b5bf
000000e0: 9a81 5b40 8467 26be e48e 16c0 ef98 d23f
000000f0: 8ae2 5b40 778a f0be f507 2740 b362 0d3e

features.bn2.running_var f4 [64]
7.5192785 7.999361 14.36783 10.854107 9.920829 6.658331 4.817692 10.8389225
4.1189065 12.591725 18.111935 5.5319276 8.627378 9.006238 6.835442 8.68357
5.2115827 6.2496753 12.175254 12.765036 7.199159 11.55748 3.8875496 7.1759386
6.4398584 11.392983 15.939457 8.11749 6.1576686 11.390725 6.5875154 9.790346
5.451965 11.762229 12.795259 19.529322 5.908058 12.408683 5.1567235 11.964166
4.486293 5.813064 5.107925 3.5675871 10.850793 22.226814 16.042997 8.955763
11.240317 6.4749527 8.124916 21.67448 6.290526 5.889511 4.2345996 9.024747
9.053284 7.7672043 6.5364156 2.8538635 12.833532 3.8778253 3.4609897 6.8094726
00000000: ee9d f040 c4fa ff40 a2e2 6541 6caa 2d41
00000010: b7bb 1e41 0c11 d540 882a 9a40 3a6c 2d41
00000020: 15ce 8340 b577 4941 3ee5 9041 8d05 b140
00000030: be09 0a41 8d19 1041 f1bb da40 e7ef 0a41
00000040: 49c5 a640 57fd c740 d7cd 4241 963d 4c41
00000050: 835f e640 70eb 3841 9dcd 7840 4aa1 e540
00000060: 5213 ce40 a949 3641 0408 7f41 3de1 0141
00000070: 9f0b c540 6940 3641 edcc d240 42a5 1c41
00000080: 7f76 ae40 1732 3c41 62b9 4c41 0d3c 9c41
00000090: d00e bd40 f789 4641 e103 a540 396d 3f41
000000a0: b68f 8f40 9f04 ba40 1f74 a340 5953 6440
000000b0: d99c 2d41 84d0 b141 0f58 8041 ce4a 0f41
000000c0: 57d8 3341 d032 cf40 a8ff 0141 5665 ad41
000000d0: fd4b c940 e076 bc40 d781 8740 5d65 1041
000000e0: 40da 1041 f08c f840 512a d140 b3a5 3640
000000f0: 2656 4d41 4a2e 7840 db80 5d40 33e7 d940

features.conv3.weight f4 [64, 64, 3, 3]
-0.023851346 0.0014699704 -0.01285862 0.028603401 -0.0030845548 -0.11631065 -0.015590264 0.05670971
0.09389561 0.058368247 -0.07477684 0.04254932 -0.00062086695 0.010250911 0.08171296 0.05409134
-0.028427687 -0.01724181 -0.009639138 0.03194529 0.032645993 -0.053413518 0.0044539603 0.080560975
-0.06888585 0.008580854 0.019439861 -0.0060912278 0.05932205 -0.044315998 -0.035114706 0.089807495
0.024968227 -0.045853052 0.0072299796 0.02279554 0.052848212 -0.005284181 -0.035514023 0.059033394
0.06551836 0.07409735 0.020921962 0.08984977 0.096702844 0.041032553 0.050460953 -0.0285582
-0.061265178 0.013467445 0.013821779 0.025169874 0.103711545 0.119629845 -0.1134221 -0.01143306
-0.02734115 -0.02575241 -0.062000442 0.059072968 0.11651475 0.0017357996 -0.06729481 -0.01552156
0.07827231 -0.11168992 0.024772601 6.104554e-05 0.01050487 0.061713185 0.044603873 0.017186036
0.0659884 0.065840155 -0.10067516 -0.09820347 0.12392047 1.5623331e-05 -0.058805745 -1.9398676e-05
0.007050047 -0.039062865 -0.070170745 -0.018354265 0.014726777 -0.00078847277 0.04709855 -0.09946731
-0.09718803 -0.1450995 -0.06943845 -0.073197454 -0.048766106 -0.092744164 0.06642325 -0.07381123
-0.11938108 0.03042536 0.092050225 0.027751599 -0.014651582 0.018410424 0.110067576 -0.07182555
-0.017645435 0.14654876 0.008782709 0.021061841 -0.016436784 0.09870428 0.009347193 -0.07545958
0.0019072382 -0.0019471862 -0.19412093 0.02303774 -0.046659995 0.031524163 0.10451349 -0.0749901
0.018983671 -0.010131716 0.01220711 -0.0109850485 0.012750748 -0.0057468833 0.05877751 0.05017665
0.099590614 0.056912206 -0.013506094 -0.09234017 -0.013999672 0.09561414 0.1439304 0.032043383
-0.013809789 -0.020906912 0.0023563656 0.01884329 0.063005276 -0.06460221 -0.07948346 0.07735996
0.059255622 0.06396723 -0.0010616145 0.052123033 0.06995737 0.049471878 0.11835061 0.046617765
-0.04583962 -0.03327475 -0.0010416775 0.06846763 0.021604367 -0.08032257 -0.03657564 0.0072296457
-0.043208778 0.038908772 0.108606935 -0.10130231 0.048594784 0.019166062 -0.010214086 -0.061319333
0.049295977 0.071896695 0.019385219 -0.075528 0.028333068 0.05158122 -0.016740432 0.04899919
-0.030110717 0.029675687 0.055124093 -0.009501385 -0.038690764 0.034576133 -0.03890136 -0.00948208
-0.039075986 -0.004990225 0.016593898 -0.03263959 -0.07870849 -0.0961471 -0.016393656 0.0066938796
-0.09202863 0.009394789 0.070587546 -0.033750284 0.028154036 0.008763898 -0.007118221 -0.10320116
0.028264143 0.015384757 -0.01776295 0.023177922 0.085044645 0.047063176 0.09243815 0.0025794306
0.032342184 0.02559856 0.0646177 0.08430938 0.049732875 -0.016517064 -0.023275668 0.06740072
0.011562433 -0.093851246 0.10524184 -0.001099999 -0.025867231 0.030455273 -0.07250057 -0.073252775
0.030578187 -0.025708685 0.024953691 0.039363284 -0.116925836 0.041868113 0.05315735 -0.055246912
-0.11690333 0.10463846 -0.040790886 -0.098256245 0.042748664 -0.09539597 -0.038760047 0.06605415
-0.00595551 -0.0060842205 -0.01435036 -0.041488253 0.0033593501 0.0026071505 0.01573733 0.021813279
-0.011992896 -0.0017401655 -0.0028907817 0.06987078 0.037420038 -0.04109094 -0.08865423 -0.025433332
00000000: e663 c3bc 06ac c03a f6ac 52bc ae51 ea3c
00000010: 3e26 4abb 4734 eebd 4f6e 7fbc 7148 683d
00000020: 574c c03d 8b13 6f3d 9a24 99bd 3248 2e3d
00000030: adc1 22ba 70f3 273c 2059 a73d e28e 5d3d
00000040: 2ee1 e8bc b23e 8dbc 7aed 1dbc 10d9 023d
00000050: ceb7 053d 22c8 5abd 87f2 913b 27fd a43d
00000060: 0614 8dbd b696 0c3c 5840 9f3c ec98 c7bb
00000070: aefb 723d b184 35bd 70d4 0fbd feec b73d
00000080: 2b8a cc3c 69d0 3bbd 77e9 ec3b b6bd ba3c
00000090: 5e77 583d ec26 adbb 2777 11bd 00cd 713d
000000a0: 7d2e 863d 5ac0 973d 8964 ab3c 2803 b83d
000000b0: 240c c63d c011 283d 25b0 4e3d e3f2 e9bc
000000c0: 32f1 7abd 8fa6 5c3c be74 623c 0d31 ce3c
000000d0: b866 d43d 7e00 f53d d949 e8bd bb51 3bbc
000000e0: 8cfa dfbc b8f6 d2bc 2df4 7dbd 7ff6 713d
000000f0: 499f ee3d c583 e33a ddd1 89bd 244e 7ebc
00000100: 3c4d a03d afbd e4bd e9ef ca3c 9305 8038
00000110: 9e1c 2c3c f7c6 7c3d 8db2 363d bbc9 8c3c
00000120: ed24 873d 34d7 863d c72e cebd e71e c9bd
00000130: 04ca fd3d d90e 8337 4bde 70bd 57ba a2b7
00000140: 1504 e73b 6200 20bd aeb5 8fbd af5b 96bc
00000150: 9448 713c 83b1 4eba 69ea 403d 84b5 cbbd
00000160: 850a c7bd f794 14be bf35 8ebd 8ce8 95bd
00000170: f8be 47bd a7f0 bdbd ea08 883d 582a 97bd
00000180: 117e f4bd 9b3e f93c d484 bc3d 5257 e33c
00000190: 300d 70bc 75d1 963c 1c6b e13d 4619 93bd
000001a0: 298d 90bc e110 163e 5ae5 0f3c e289 ac3c
000001b0: 6fa6 86bc 7825 ca3d f824 193c 8d8a 9abd
000001c0: 4bfc f93a ba38 ffba a3c7 46be a4b9 bc3c
000001d0: 8d1e 3fbd 7b1f 013d 2b0b d63d 6994 99bd
000001e0: a583 9b3c 7fff 25bc 5500 483c a2fa 33bc
000001f0: 83e8 503c 5a50 bcbb b0c0 703d 0886 4d3d
00000200: 2af6 cb3d c61c 693d aa48 5dbc d81c bdbd
00000210: e15e 65bc 59d1 c33d 7e62 133e ec3f 033d
00000220: 7442 62bc f944 abbc 416d 1a3b 3e5d 9a3c
00000230: e908 813d 2a4e 84bd 39c8 a2bd e66e 9e3d
00000240: 06b6 723d 4001 833d df25 8bba f67e 553d
00000250: cf45 8f3d 06a3 4a3d ce61 f23d 45f2 3e3d
00000260: 53c2 3bbd 1b4b 08bd e688 88ba c238 8c3d
00000270: a4fb b03c 2980 a4bd 57d0 15bd aae6 ec3b
00000280: b0fb 30bd ce5e 1f3d 506d de3d 9677 cfbd
00000290: 530b 473d 2502 9d3c fb58 27bc fb29 7bbd
000002a0: 94ea 493d 933e 933d c0cd 9e3c 6dae 9abd
000002b0: c01a e83c d446 533d 3b23 89bc 60b3 483d
000002c0: c0aa f6bc 6d1a f33c cdc9 613d b2ab 1bbc
000002d0: 357a 1ebd b49f 0d3d 0857 1fbd ba5a 1bbc
000002e0: 240e 20bd 0b85 a3bb edef 873c 17b1 05bd
000002f0: eb31 a1bd c5e8 c4bd fd4b 86bc 5558 db3b
00000300: 8279 bcbd 9aec 193c 3490 903d bd3d 0abd
00000310: 4ba3 e63c 7496 0f3c f73f e9bb 215b d3bd
00000320: 348a e73c 5910 7c3c 9b83 91bc a0df bd3c
00000330: e32b ae3d 51c5 403d 3650 bd3d aa0b 293b
00000340: 3d79 043d 12b4 d13c 4956 843d 65aa ac3d
00000350: b3b4 4b3d cb4e 87bc 9dac bebc 6409 8a3d
00000360: 5c70 3d3c 1535 c0bd 0989 d73d d72d 90ba
00000370: 84e7 d3bc 567d f93c 2e7b 94bd 8d05 96bd
00000380: 1b7f fa3c 059b d2bc af6b cc3c 653b 213d
00000390: d076 efbd e67d 2b3d 85bb 593d 964a 62bd
000003a0: 036b efbd b04c d63d 5814 27bd 923a c9bd
000003b0: 3919 2f3d f65e c3bd dbc2 1ebd 6647 873d
000003c0: 7026 c3bb 245e c7bb c61d 6bbc 96ef 29bd
000003d0: 8b28 5c3b badc 2a3b 93eb 803c c3b1 b23c
000003e0: da7d 44bc 4416 e4ba 4573 3dbb 6918 8f3d
000003f0: c145 193d f94e 28bd 5990 b5bd 9059 d0bc

features.conv3.bias f4 [64]
0.0021410147 0.0030381395 -0.0018474688 -0.0012060847 0.0025629415 0.0028926136 0.0020701194 -0.0012939781
-0.00036898776 0.0011725866 -0.001229794 -0.0025237233 0.002164056 -0.002464996 -0.000101977 0.0013958723
-0.002128974 -0.002638213 0.0024715704 0.001729239 -0.00039973404 0.0012944554 0.0017374255 0.0023040476
0.0021370116 0.0041442285 -0.0015323157 -0.0022486232 0.0039190687 0.001556349 0.0029351418 0.0005137648
-0.00022314278 0.0016535007 0.0003163109 -0.00051805907 0.0013235452 0.0010827675 -0.002231727 0.0012886932
0.0025492103 -0.0011045943 0.0029489268 8.632533e-05 0.0005991604 -0.0008373926 -0.0011222357 0.00033184738
-0.00095943763 0.0025826842 -0.00022923773 0.0018605037 -0.0017968162 0.0024831905 0.0026151454 -0.0013328177
0.0026138178 0.0025055942 0.0015765512 0.0013678997 0.002407109 -0.000789155 -0.0020229963 -0.00024713346
00000000: 4450 0c3b 861b 473b c426 f2ba 7d15 9eba
00000010: 06f7 273b 0192 3d3b d7aa 073b b39a a9ba
00000020: b374 c1b9 7ab1 993a 0a31 a1ba 0d65 25bb
00000030: d6d2 0d3b c58b 21bb 7cdc d5b8 b4f5 b63a
00000040: 4286 0bbb dfe5 2cbb 12fa 213b a2a7 e23a
00000050: 6593 d1b9 b7aa a93a 53ba e33a 81ff 163b
00000060: 1b0d 0c3b 4fcc 873b fcd7 c8ba a35d 13bb
00000070: 886b 803b 68fe cb3a 825b 403b 2cae 063a
00000080: 6ffb 69b9 47ba d83a 88d6 a539 5bce 07ba
00000090: cf7a ad3a a6eb 8d3a 2a42 12bb 5ee9 a83a
000000a0: a710 273b 09c8 90ba c842 413b 8f09 b538
000000b0: f910 1d3a 7784 5bba fb17 93ba cdfb ad39
000000c0: c582 7bba 4042 293b 895f 70b9 25dc f33a
000000d0: 2683 ebba 06bd 223b dc62 2b3b f1b1 aeba
000000e0: 964c 2b3b e534 243b 48a4 ce3a 194b b33a
000000f0: 96c0 1d3b 4cdf 4eba 3f94 04bb b191 81b9

features.bn3.weight f4 [64]
1.3489975 1.3537569 1.3783277 1.3559886 1.3835044 1.3390425 1.3336602 1.3433585
1.3202271 1.3370874 1.351338 1.3729428 1.3609046 1.3850787 1.3527309 1.3483572
1.3465521 1.2969705 1.355998 1.3821003 1.3236969 1.3225002 1.3387864 1.344204
1.3336746 1.3478259 1.3294606 1.3919568 1.3674407 1.3289914 1.3474499 1.3367486
1.3590211 1.3638269 1.3776431 1.3921444 1.3203819 1.3456914 1.3555211 1.3367838
1.2901822 1.3468593 1.4056995 1.363408 1.3269205 1.3489295 1.3192009 1.3396989
1.3570718 1.3457029 1.3539509 1.3794997 1.3843894 1.3112679 1.3660898 1.367772
1.3761537 1.3277382 1.3204124 1.344317 1.3503169 1.3152986 1.3755445 1.3239202
00000000: f3ab ac3f e847 ad3f 0b6d b03f 0991 ad3f
00000010: ac16 b13f bf65 ab3f 61b5 aa3f 2cf3 ab3f
00000020: 34fd a83f ae25 ab3f a5f8 ac3f 97bc af3f
00000030: 1f32 ae3f 424a b13f 4926 ad3f f896 ac3f
00000040: d25b ac3f 2103 a63f 5891 ad3f aae8 b03f
00000050: e66e a93f b047 a93f 5a5d ab3f e00e ac3f
00000060: d9b5 aa3f 8f85 ac3f c42b aa3f a42b b23f
00000070: 4c08 af3f 641c aa3f 3d79 ac3f 941a ab3f
00000080: 67f4 ad3f e191 ae3f 9c56 b03f ca31 b23f
00000090: 4602 a93f 9e3f ac3f b781 ad3f bb1b ab3f
000000a0: b124 a53f e365 ac3f f6ed b33f 2784 ae3f
000000b0: 88d8 a93f b9a9 ac3f 93db a83f 417b ab3f
000000c0: 87b4 ad3f fe3f ac3f 434e ad3f 7293 b03f
000000d0: ac33 b13f a0d7 a73f 08dc ae3f 2713 af3f
000000e0: ce25 b03f 53f3 a93f 4603 a93f 9412 ac3f
000000f0: 2fd7 ac3f b45b a83f d811 b03f 3876 a93f

features.bn3.bias f4 [64]
0.2782822 0.29998648 0.3392493 0.31477687 0.2759811 0.24526407 0.21936248 0.2779012
0.24719146 0.25465268 0.27577996 0.33391023 0.21430579 0.3484858 0.26405612 0.2961002
0.33852762 0.30790284 0.29603606 0.24433671 0.27372003 0.27170622 0.29001388 0.23778132
0.22135694 0.2495151 0.32744163 0.28829455 0.21871606 0.2923261 0.32896084 0.24671479
0.25544393 0.30336177 0.21955146 0.28170288 0.25115335 0.29896322 0.34094378 0.23177129
0.21572207 0.3558356 0.2928896 0.30885512 0.22464457 0.28668258 0.28082955 0.30868664
0.30354285 0.23996805 0.28881347 0.27883622 0.31059957 0.24405243 0.2702177 0.28269038
0.207419 0.21916364 0.21995714 0.21634454 0.23757897 0.25615093 0.32470748 0.27468008
00000000: 017b 8e3e d497 993e 16b2 ad3e 6f2a a13e
00000010: 654d 8d3e 8126 7b3e 8fa0 603e 1149 8e3e
00000020: c21f 7d3e d661 823e 0833 8d3e 48f6 aa3e
00000030: fa72 5b3e bb6c b23e 5d32 873e 729a 973e
00000040: 7e53 ad3e 71a5 9d3e 0a92 973e 6733 7a3e
00000050: 0825 8c3e 141d 8b3e b37c 943e f27c 733e
00000060: 65ab 623e e380 7f3e 6ea6 a73e 589b 933e
00000070: 1af7 5f3e c4ab 953e 8e6d a83e cda2 7c3e
00000080: 8cc9 823e 3c52 9b3e 19d2 603e 5c3b 903e
00000090: 2c97 803e b511 993e 2f90 ae3e 7455 6d3e
000000a0: 3fe6 5c3e 1530 b63e a0f5 953e 4222 9e3e
000000b0: 3a09 663e 0fc8 923e e4c8 8f3e 2d0c 9e3e
000000c0: f869 9b3e 2fba 753e 5cdf 933e 9fc3 8e3e
000000d0: e806 9f3e e1e8 793e f959 8a3e cbbc 903e
000000e0: a565 543e 6f6c 603e 723c 613e 6c89 5d3e
000000f0: e747 733e 3726 833e 0f40 a63e dea2 8c3e

features.bn3.running_mean f4 [64]
1.5640647 0.84718716 -2.4024792 -0.5997886 0.6854732 1.4459046 2.7491393 0.26000392
0.52922994 1.3035451 0.14791413 -1.9223796 0.9156379 -1.1742982 -0.13682193 1.0006037
-1.4968394 -3.2887924 1.069488 2.6420276 0.023224132 1.473046 0.66458344 0.91895896
2.9693239 1.4994814 -2.2425342 -1.1382947 3.623144 1.2138692 2.2988205 2.6324425
0.105716415 1.797411 1.7022415 0.25255963 2.5501854 1.1518332 -1.3022848 1.1006414
1.8844873 -0.96094525 1.9750035 0.38074952 1.8464113 0.9969615 0.044282492 1.2145553
0.96331316 1.9124128 0.54615176 2.266025 1.2290776 1.20515 1.8150212 -0.2426409
3.174439 2.9287462 4.129179 1.6051931 2.586553 0.49827996 -1.181709 1.9327267
00000000: 4633 c83f 42e1 583f 38c2 19c0 bf8b 19bf
00000010: 2c7b 2f3f 6713 b93f e6f1 2f40 3c1f 853e
00000020: 9d7b 073f 91da a63f cd76 173e 8910 f6bf
00000030: 3f67 6a3f 674f 96bf 0c1b 0cbe c813 803f
00000040: 6f98 bfbf 937b 52c0 fce4 883f fb16 2940
00000050: 8940 be3c c58c bc3f 2422 2a3f e540 6b3f
00000060: 6709 3e40 02ef bf3f ae85 0fc0 a4b3 91bf
00000070: 97e1 6740 1160 9b3f e01f 1340 f079 2840
00000080: d981 d83d 9011 e63f 0de3 d93f 7f4f 813e
00000090: 3d36 2340 456f 933f 45b1 a6bf d1e1 8c3f
000000a0: e136 f13f 8200 76bf eacc fc3f 9af1 c23e
000000b0: 3557 ec3f de38 7f3f 8f61 353d 8c76 9b3f
000000c0: b19b 763f f1c9 f43f 9ad0 0b3f 8e06 1140
000000d0: 6a52 9d3f 5b42 9a3f 9d52 e83f db76 78be
000000e0: 022a 4b40 9470 3b40 3c22 8440 f876 cd3f
000000f0: 168a 2540 8d1e ff3e 3e42 97bf 9763 f73f

features.bn3.running_var f4 [64]
2.5747542 1.1018673 2.7416897 1.6932973 1.3349591 1.382734 3.5322244 3.4843807
5.0349917 1.9717841 4.939425 2.814042 0.8171685 1.319318 5.489447 2.1287005
2.4702995 2.3770435 1.160311 3.243161 1.0431012 2.533339 3.4518964 1.4635403
1.8889214 1.685673 3.1395588 1.3496268 3.160786 1.1641345 2.1249983 6.7128925
3.4537299 1.2193471 4.2709317 2.4582276 4.807994 1.1109419 3.1320207 2.6603258
2.501267 3.5762649 1.7950188 2.3358424 2.3740587 3.069559 3.9062638 1.9951082
1.888594 3.35549 2.2893114 0.8045752 5.044808 2.3997986 1.1117239 1.945561
2.7331848 2.5549192 4.401216 2.3174522 1.6760166 3.483143 1.6569567 3.7682426
00000000: c6c8 2440 fd09 8d3f d877 2f40 f7bd d83f
00000010: f1df aa3f 6dfd b03f f70f 6240 1800 5f40
00000020: a71e a140 6c63 fc3f c50f 9e40 4419 3440
00000030: f431 513f 6adf a83f 8da9 af40 a13c 0840
00000040: 6319 1e40 7b21 1840 1285 943f f38f 4f40
00000050: 5784 853f 3a22 2240 dfeb 5c40 4a55 bb3f
00000060: 2dc8 f13f 22c4 d73f 88ee 4840 92c0 ac3f
00000070: 514a 4a40 5c02 953f f9ff 0740 04d0 d640
00000080: e909 5d40 9113 9c3f 79ab 8840 9a53 1d40
00000090: 16db 9940 5833 8e3f 0773 4840 c742 2a40
000000a0: c214 2040 86e1 6440 2dc3 e53f 717e 1540
000000b0: 94f0 1740 a873 4440 3a00 7a40 b55f ff3f
000000c0: 73bd f13f 59c0 5640 1484 1240 a4f8 4d3f
000000d0: 116f a140 4d96 1940 f84c 8e3f 2508 f93f
000000e0: 80ec 2e40 cc83 2340 c3d6 8c40 2351 1440
000000f0: b687 d63f d1eb 5e40 2817 d43f e32a 7140

fc.weight f4 [5, 64]
0.0075094537 0.019504823 -0.0012853224 0.013387466 0.019564264 0.02134507 0.009578155 0.020849569
0.012158271 0.015300422 0.012383143 0.0063801403 0.0099673085 0.0151101705 0.010318945 0.020756064
-0.00039102367 -0.005096333 0.02234349 0.011507575 0.010303766 0.01818601 0.006834684 -0.007775872
0.0098815765 0.015342444 0.000416649 0.006302271 0.012063577 0.008983545 0.020639505 0.03392052
0.023450354 0.01590607 0.016671995 0.017920751 0.017907022 0.01683834 -0.00709264 0.021333119
0.010555431 0.0064196256 0.018203756 0.01203534 0.009878035 0.01912447 0.021218095 0.005431841
0.023687214 0.0024333734 0.018468995 0.005485898 0.013853307 0.0076836557 0.012135074 0.026309261
0.013432584 0.0067901346 0.0097593665 0.0326751 0.0120316325 0.023820208 0.014217919 0.013579081
-0.00015936933 0.013207519 -0.005574971 -0.0046701115 0.0021526625 -0.01883916 0.00084948767 -0.0072560967
-0.001321777 -0.008632099 0.0042366255 0.0022185966 -0.013469787 -0.0062663676 0.0023563667 -0.019603709
-0.0011685245 0.02064962 -0.014296523 -0.011684296 -0.014048537 -0.006342517 -0.0096558705 -0.013146168
-0.015241486 -0.011924895 -0.0058496157 0.0015389753 0.0068941643 -0.001975254 0.0010762796 0.0034293605
-0.0032181928 0.013065425 0.0039985287 -0.0011395619 0.0050675566 0.0060591386 -0.008905074 -0.00349065
-0.01171028 -0.0053081303 -0.0063716113 -0.0022195824 -0.0023423433 0.0040517547 0.0034602366 -0.0023011616
-0.018086301 -0.0058573387 0.0022464092 0.00074897945 0.010958675 -0.008683847 -0.008805571 -0.0012478997
0.0029468634 -0.005556623 -0.005162748 -0.008924591 0.020572716 0.0034912655 -0.004086725 0.0041295667
0.017101854 0.005414856 0.013478517 0.02136084 0.024132311 0.014473127 0.020387376 0.0061367797
0.0051278747 0.019425385 0.012406066 0.019669432 0.031121613 0.019299895 0.014522262 0.019149628
0.010353566 0.018318195 0.02920988 0.0084099835 0.020760806 0.03011745 0.0023818712 0.012888954
0.022542305 0.016507829 0.0031881586 0.0062632817 0.037462626 0.008815317 0.025160063 0.026774129
0.02562613 0.02001725 0.010244851 0.0198981 0.029250175 0.00980031 0.0028871463 0.009295401
0.019815853 0.0065428508 0.013142604 0.007725798 0.0071432376 0.023354303 0.000585483 0.022610225
0.0074741314 0.010648433 0.01916458 0.006683567 0.018628215 0.03754219 0.018859208 0.022571877
0.037854865 0.018300682 0.0039049608 0.016467892 0.0081399055 0.02002438 0.020149728 0.019708835
-0.020068176 -0.030503115 -0.02363457 -0.020218015 -0.016435191 -0.032586813 -0.024769904 -0.035352796
-0.028212516 -0.010986874 -0.02662922 -0.017025296 -0.024080094 -0.023487201 -0.03415236 -0.022604207
-0.01246845 -0.022241343 -0.022139067 -0.024551764 -0.01620619 -0.025495056 -0.035770193 -0.017482318
-0.006046186 -0.014813075 -0.02873368 -0.039103948 -0.03129104 -0.024301853 -0.030691205 -0.01550124
-0.04183353 -0.025218846 -0.02778701 -0.020842867 -0.020823527 -0.02048162 -0.03115027 -0.027196713
-0.021127775 -0.02711757 -0.018860418 -0.026537659 -0.036718402 -0.03357697 -0.014434421 -0.020898903
-0.032939307 -0.021663895 -0.02935828 -0.026987422 -0.029016636 -0.018566314 -0.030883312 -0.033310577
-0.017201856 -0.009054745 -0.036025334 -0.03935963 -0.019047037 -0.011249269 -0.031565525 -0.012959046
00000000: dd11 f63b 94c8 9f3c 4378 a8ba 1a57 5b3c
00000010: 3c45 a03c dbdb ae3c b2ed 1c3c b7cc aa3c
00000020: 7c33 473c 9fae 7a3c abe2 4a3c 7f10 d13b
00000030: ec4d 233c a690 773c cb10 293c 9f08 aa3c
00000040: 4f02 cdb9 24ff a6bb b209 b73c 458a 3c3c
00000050: 20d1 283c d4fa 943c 7cf5 df3b becc febb
00000060: 56e6 213c e05e 7b3c af71 da39 4883 ce3b
00000070: 4fa6 453c b82f 133c 2e14 a93c 3ef0 0a3d
00000080: f51a c03c 724d 823c b593 883c 8ace 923c
00000090: bfb1 923c 8ff0 893c 6069 e8bb cbc2 ae3c
000000a0: b0f0 2c3c b95b d23b 0b20 953c e02f 453c
000000b0: 7bd7 213c ecaa 9c3c 92d1 ad3c 96fd b13b
000000c0: b00b c23c 3b79 1f3b 4a4c 973c 0cc3 b33b
000000d0: fbf8 623c 2dc7 fb3b 30d2 463c 8586 d73c
000000e0: 5714 5c3c c77f de3b c0e5 1f3c 53d6 053d
000000f0: 5320 453c 9922 c33c 46f2 683c cb7a 5e3c
00000100: 611c 27b9 5a64 583c 3fae b6bb bc07 99bb
00000110: af13 0d3b 9554 9abc 27b0 5e3a 8dc4 edbb
00000120: 7a3f adba a66d 0dbc 64d3 8a3b e065 113b
00000130: 62b0 5cbc 1a56 cdbb 466d 1a3b f597 a0bc
00000140: 2d29 99ba 6429 a93c f73b 6abc 7d6f 3fbc
00000150: d62b 66bc e4d4 cfbb a833 1ebc 0663 57bc
00000160: 6db7 79bc a360 43bc 22ae bfbb 71b7 c93a
00000170: 71e8 e13b 4373 01bb f311 8d3a 1fbf 603b
00000180: 51e8 52bb 5d10 563c 1706 833b 5a5d 95ba
00000190: bf0d a63b bd8b c63b 96e6 11bc 64c3 64bb
000001a0: 79dc 3fbc d3ef adbb f3c8 d0bb 6a76 11bb
000001b0: 0082 19bb 95c4 843b 23c5 623b 16cf 16bb
000001c0: b929 94bc ebee bfbb 7e38 133b 2957 443a
000001d0: 048c 333c b246 0ebc 3e45 10bc 9190 a3ba
000001e0: 2a20 413b 5514 b6bb 452c a9bb 7338 12bc
000001f0: 1d88 a83c b7cd 643b efe9 85bb 5151 873b
00000200: 3019 8c3c 1b6f b13b ffd4 5c3c eefc ae3c
00000210: 20b1 c53c b220 6d3c 6d03 a73c 0a17 c93b
00000220: bb07 a83b fc21 9f3c d042 4b3c ca21 a13c
00000230: c1f2 fe3c d01a 9e3c c8ee 6d3c aedf 9c3c
00000240: 01a2 293c 0a10 963c 8f49 ef3c 07ca 093c
00000250: 9112 aa3c dfb8 f63c 2b19 1c3b 312c 533c
00000260: a4aa b83c 6d3b 873c 6df0 503b 373c cd3b
00000270: 6972 193d 1f6e 103c 7a1c ce3c 6b55 db3c
00000280: e4ed d13c 37fb a33c 05da 273c 5701 a33c
00000290: 109e ef3c 7b91 203c 4736 3d3b bd4b 183c
000002a0: db54 a23c 6965 d63b 1454 573c b128 fd3b
000002b0: d211 ea3b 8651 bf3c 197b 193a 1439 b93c
000002c0: 8fe9 f43b c476 2e3c 0aff 9c3c d301 db3b
000002d0: 339a 983c d7c5 193d a07e 9a3c a8e8 b83c
000002e0: b40d 1b3d 50eb 953c 5fea 7f3b ace7 863c
000002f0: 3d5d 053c 2b0a a43c 0b11 a53c 6c74 a13c
00000300: 0466 a4bc abe1 f9bc 499d c1bc 40a0 a5bc
00000310: 18a3 86bc c079 05bd 41ea cabc 18ce 10bd
00000320: ef1d e7bc 4a02 34bc 8625 dabc a278 8bbc
00000330: 9e43 c5bc 3b68 c0bc 58e3 0bbd 752c b9bc
00000340: 7848 4cbc 7a33 b6bc fd5c b5bc c820 c9bc
00000350: d8c2 84bc 02db d0bc c483 12bd 1437 8fbc
00000360: 161f c6bb 8ab2 72bc e562 ebbc 762b 20bd
00000370: 092b 00bd ae14 c7bc 1f6c fbbc eaf8 7dbc
00000380: a359 2bbd c197 cebc 95a1 e3bc a9be aabc
00000390: 1a96 aabc 12c9 a7bc da2e ffbc a4cb debc
000003a0: 2814 adbc ab25 debc 2a81 9abc 8165 d9bc
000003b0: 0966 16bd 0188 09bd 5a7e 6cbc 2d34 abbc
000003c0: 5eeb 06bd 7b78 b1bc c780 f0bc ba14 ddbc
000003d0: 4cb4 edbc 6218 98bc 00ff fcbc ac70 08bd
000003e0: e8ea 8cbc 5a5a 14bc 4d8f 13bd 9037 21bd
000003f0: 8808 9cbc db4e 38bc da4a 01bd 2e52 54bc

fc.bias f4 [5]
1.0330772 0.9945327 1.0684376 0.9081187 0.96535397
00000000: e03b 843f b299 7e3f 90c2 883f 787a 683f
00000010: 7021 773f
