maml-notebook/model/model-epoch_00041-train_loss_0.131-train_acc_0.869-test_loss_0.477-test_acc_0.867.pt (torch_old, 305688 bytes, 20 tensors)

conv1.weight f4 [64, 1, 3, 3]
000000 59 53 1a 3d 97 a4 c0 3d 8b 9b 4b bd 06 66 0a bd
       0.037677143 0.09406393 -0.049708884 -0.033788703
000010 d1 d7 3f 3d 58 51 10 3d b8 34 51 bd 54 ad 89 3c
       0.046836678 0.035233825 -0.051075667 0.016806282
000020 0c 28 d6 3c 06 1d e7 bb 20 b1 f7 bd 18 c3 b3 bc
       0.026142143 -0.0070530204 -0.12094331 -0.021943614
000030 37 bb 51 3d b4 1a 9a 3d 91 79 2a bd 5b 3c 5f 3b
       0.051203933 0.075246245 -0.04161984 0.0034063074
000040 d5 58 6d 3d 32 65 99 3d 4e 17 ee bc a6 3c 07 bd
       0.057946045 0.074900046 -0.029063847 -0.033016823
000050 60 00 9e bd b8 25 a8 bc 83 67 56 3d b7 ef 99 bd
       -0.07714915 -0.020525798 0.05234481 -0.07516425
000060 28 95 75 bd c5 ca de 3c dc 24 09 bd 4f 27 17 be
       -0.0599567 0.027196297 -0.033482417 -0.14761089
000070 c2 72 23 3d 83 9d b7 bd f3 7d 53 3c 52 a6 df 3d
       0.039904363 -0.0896559 0.012908447 0.10920395
000080 80 3b 47 bd 1e 2c 04 3d f4 4a 9a 3d 70 99 c9 bc
       -0.048640728 0.032268636 0.075338274 -0.024609298
000090 1f b9 37 bb 83 6f 94 3d ec d8 15 bd b1 6e 01 3d
       -0.0028033925 0.07247832 -0.036583826 0.031599704
0000a0 50 da f8 bb 41 65 44 bd 19 ec 6f 3d 18 93 d4 3c
       -0.0075943843 -0.047948126 0.05857477 0.025949046
0000b0 c6 01 84 bd ea 15 0e 3c 22 7d 9e bd 1c e5 d1 bc
       -0.06445651 0.008672217 -0.07738711 -0.025621943
0000c0 52 53 f6 bd ff 4d 5d bd 3c 76 b8 bc 09 a7 38 3d
       -0.12027611 -0.05402946 -0.022517316 0.045081172
0000d0 5b 88 8a ba c9 47 00 3d 8e 20 a4 bd 32 1d c5 39
       -0.0010569202 0.03131846 -0.08014022 0.0003759652
0000e0 f3 58 c0 bd b7 b2 e8 3c 36 ee 2b bd c2 59 07 3e
       -0.09391966 0.02840553 -0.041975223 0.13217834
0000f0 af 9f 06 bd 25 27 60 3c 38 22 fb bd be d2 61 bd
       -0.03286713 0.013681208 -0.12262386 -0.05513262
000100 2c c5 0f bd b9 43 28 bd 9a 57 f3 3b f5 b1 bb bc
       -0.035100147 -0.04108021 0.0074262144 -0.022912005
000110 ee 24 be 3d 5a 10 86 3d ae 33 bc 3d 0b 40 88 3a
       0.092843875 0.065460876 0.091895446 0.0010395063
000120 ec 3c 34 3c f4 01 f5 bc 7a da ac 3c e2 8b 8e 3d
       0.011000853 -0.029908158 0.021100271 0.06960274
000130 a3 7e ab bc 07 1e c6 3d b4 5a 25 bc 82 c4 29 3d
       -0.020934409 0.09673696 -0.010092426 0.04144717
000140 12 f0 72 bd cf 61 4e 3d 64 c3 8c bd 0f d0 1c 3d
       -0.05931098 0.050386246 -0.06873205 0.038284358
000150 0c b3 d2 3d bf 15 5b 3c 06 54 17 3e df fe f5 3a
       0.10288057 0.013371884 0.14778146 0.0018767974
000160 65 ca 48 bd f2 dc 21 3d 64 d0 ef bc ab 05 2b bd
       -0.049021143 0.03951735 -0.029274173 -0.041753452
000170 87 6d ab 39 f4 8e 1e 3d 29 c1 b5 3d 57 16 0b 3d
       0.00032697266 0.03871055 0.08874733 0.03395685
000180 8d 0a a2 3c 79 9a 1c bd 70 a3 b3 bc 82 aa 83 bc
       0.019780422 -0.038233254 -0.021928519 -0.016072515
000190 8c 0a 12 3d bf 61 0c 3d 52 44 f6 3c 1b 07 2c bd
       0.03565459 0.034272905 0.030061875 -0.041998964
0001a0 d0 85 5a 3d c0 39 87 3c 6d 46 8e 3d 6a b3 42 bd
       0.05335027 0.01650703 0.069470264 -0.047534384
0001b0 70 dd 3d 3c f6 f8 81 bc 63 33 57 3b 2f 0c b3 bd
       0.011588439 -0.015865784 0.0032837025 -0.08742558
0001c0 1e 89 13 bc 5e ee 8e bc c3 44 b0 bc 01 7b 33 3d
       -0.009004859 -0.017447647 -0.021517163 0.043818478
0001d0 86 f9 5f bd 3f ef a9 3c 20 cf 17 3d 37 e9 b1 3b
       -0.054681323 0.020743964 0.037062764 0.0054294127
0001e0 e1 25 66 3c e6 2d 87 bb 6c ab 96 3d 61 9b ee bb
       0.014047117 -0.0041253446 0.07356915 -0.007281706
0001f0 66 65 d6 bd a4 f2 56 bd db ce 60 3d 52 f6 b3 3c
       -0.10468559 -0.052477494 0.054884773 0.02196804
000200 42 47 2f 3c e1 6f be bc 78 49 a2 bd a5 2b 53 3d
       0.0106981415 -0.023246707 -0.07924169 0.051555295
000210 e2 79 f7 bc e5 74 ad bd 3e b3 92 bd ce 05 c7 3d
       -0.030209485 -0.084695615 -0.07163094 0.09717904
000220 84 c8 17 be 5c 84 eb bc 7e 31 64 3d 35 fb 66 3d
       -0.14822584 -0.028749637 0.055711262 0.056391913
000230 ca 3c 1b 3d 24 2c 64 bc 13 e5 8e 3b 2c c1 87 3d
       0.03789977 -0.01392654 0.004360804 0.066286415
000240 62 e7 90 3a 29 f2 e3 bd 42 b2 33 bd 1a a3 80 3c
       0.0011055286 -0.11130173 -0.04387117 0.015702773
000250 90 b0 42 3c 7c ea ac bc df b1 46 3d 34 eb fb bd
       0.011882916 -0.021107905 0.048509475 -0.12300721
000260 70 53 9c bb 05 a8 c1 3d e4 83 96 3d 7e 46 f4 3c
       -0.0047706887 0.09455875 0.07349375 0.02981877
000270 18 a8 91 bd d2 d6 61 3b d4 79 1e 3d 23 4f be bc
       -0.071121395 0.0034460318 0.038690403 -0.023231095
000280 28 ae 2e bc d3 01 85 bc dc 7d 24 bd 9c e3 aa bd
       -0.010661639 -0.016236221 -0.04015909 -0.08344194
000290 02 4c a5 bd 31 5e 1b bd f9 34 53 3d b8 52 88 3b
       -0.08071138 -0.037931625 0.05156419 0.0041602515
0002a0 4c d6 5f 3d 91 c7 48 3d 93 0b 9a 3d 97 de f1 bd
       0.05464773 0.049018446 0.07521739 -0.11810034
0002b0 9d 32 3d 3c 04 44 ab 3c 08 90 7e 3c cd e9 ff 3c
       0.011547712 0.020906456 0.015537269 0.031239415
0002c0 41 1c 11 bd 94 a7 b7 bb 09 59 31 3c 89 41 07 bd
       -0.035427336 -0.0056046937 0.01082445 -0.033021484
0002d0 03 2c 91 3d 0d d7 6a 3d 2e de c0 3c cf 68 3c 3d
       0.07088473 0.057333995 0.023543444 0.04599839
0002e0 28 6b 1e be ab d9 67 bd dc d3 96 3d 53 bd 85 bc
       -0.15470564 -0.05660407 0.07364628 -0.016325628
0002f0 91 d6 16 bd e6 82 f5 bc 7b 04 99 3b 03 e6 f5 3d
       -0.03682572 -0.029969644 0.0046697236 0.12006762
000300 c4 e1 f4 bd 87 7f 2a 3d 9a 4a bc 3d 42 09 d8 bd
       -0.11957124 0.041625526 0.091939166 -0.10548641
000310 6f 91 9e 3d 93 21 fe 3c a9 9b af 3c 1d d9 2e 3c
       0.07742583 0.031021869 0.02143653 0.010671881
000320 19 19 9b bd c1 d4 12 3d 2c 6d d0 3d 20 73 cc 3d
       -0.075731464 0.03584743 0.10177073 0.09982896
000330 25 f0 4f bd f5 ee b1 bc f6 bc b4 bb 99 c0 87 3b
       -0.05076613 -0.021720389 -0.00551569 0.0041428325
000340 02 d5 a0 39 1f d2 32 bd 31 97 56 b9 4e 4c 6b 3d
       0.0003067628 -0.04365742 -0.00020464954 0.057445817
000350 2a 69 1a bc 20 bc 7f 3c e5 2e 53 3d 2c 45 c8 bd
       -0.009424487 0.015608817 0.051558394 -0.097788185
000360 7d bc 12 bd e9 4c a5 bd cb b5 9e bd 66 a0 40 bc
       -0.035824288 -0.0807131 -0.07749518 -0.011756992
000370 0e 2e 7a 3d c7 1d 84 3b 32 e0 0c 3d 17 2b 17 3d
       0.061079077 0.00403187 0.034393497 0.036906328
000380 43 a9 8e 3d 45 00 78 bd d0 0a 8f 3d 30 4b a8 3c
       0.06965878 -0.060547132 0.06984484 0.020543665
000390 3e f9 2f 3d 0f 96 27 bd bd c3 83 3d 73 6b 7a 3d
       0.042962305 -0.04091459 0.064338185 0.061137628
0003a0 50 84 11 3d cb 8e 88 bd 67 ba f4 ba 58 56 02 3b
       0.035526574 -0.066678606 -0.0018671275 0.001988789
0003b0 8c 57 89 3c 94 03 96 bd ce d4 30 3d d2 6f f4 3c
       0.016765378 -0.07324901 0.043171696 0.029838476
0003c0 68 4f 8f bd 37 90 2e 3c 2a ba 48 3d 9e 7e a1 bc
       -0.069975674 0.010654501 0.049005665 -0.019713696
0003d0 ca d9 b7 3c ad 7c bd 3d dd 01 c9 3d a3 0a c3 3c
       0.022442717 0.09252296 0.098148085 0.023808783
0003e0 f2 6b 46 3b ad d8 7b bd 35 7e 9a bc 53 55 ba bd
       0.0030276743 -0.061485935 -0.018859008 -0.090983056
0003f0 e3 b0 d6 3d a4 82 28 3d fc 64 c5 bd e0 53 15 bd
       0.10482957 0.041140214 -0.09638402 -0.036456943

conv1.bias f4 [64]
000000 36 59 67 3b aa 73 bc ba 6d ab 8d ba f1 13 7e 3a
       0.0035300977 -0.0014377732 -0.0010808535 0.00096923026
000010 a9 eb 8f bb f9 0d 85 3b 9b 95 09 3b 01 7e 53 3c
       -0.0043921066 0.0040605036 0.0020993713 0.01290846
000020 04 d8 87 3a 86 64 7c 3c 77 0c f6 ba 40 20 38 ba
       0.001036406 0.015404826 -0.0018772025 -0.00070238486
000030 52 f1 9d bb 7c 76 58 bb e5 e5 82 bb f0 f9 1b bb
       -0.0048200274 -0.0033029607 -0.0039946907 -0.0023800097
000040 84 62 00 3c 7e 75 82 3b 78 b4 6c 3b cf ac b6 3b
       0.007835988 0.0039812913 0.003611831 0.0055747996
000050 5d 95 e1 3b a5 fc 42 37 9a 2a f2 bb 95 70 b6 3b
       0.0068842606 1.16221245e-05 -0.0073903324 0.00556762
000060 cf 57 f4 3b fd 41 97 3b f8 bc eb bb 4c f5 c4 3a
       0.0074567567 0.0046160207 -0.0071941577 0.0015026717
000070 37 e0 bf 37 4e 6a 40 3a ff 88 01 3c d5 e2 9f b8
       2.2873382e-05 0.00073400594 0.007906198 -7.6239616e-05
000080 9f 1f e8 3b 42 e8 17 bc 6a 7d 84 3b 99 6e 87 bb
       0.0070838477 -0.009271683 0.004043271 -0.0041330573
000090 bc a6 15 bc ba 2e be bb 1a 1d 6e ba 1a f2 0e bc
       -0.009133991 -0.00580391 -0.0009083316 -0.008724714
0000a0 1b a3 22 3c fb 01 a6 b9 6e de 97 3b ae 1a 67 bb
       0.009926583 -0.00031663463 0.00463467 -0.0035263705
0000b0 85 5b aa 3b 75 d1 84 bb 72 a1 40 bc c8 a4 3d bb
       0.0051988983 -0.0040532895 -0.011757242 -0.0028937329
0000c0 88 c8 e1 3b ae 55 01 ba 0b 2d c7 ba 73 fb 7c 3b
       0.0068903603 -0.0004933727 -0.0015195919 0.0038602024
0000d0 2e 04 36 3b 58 8c e7 bb 92 c1 25 bb ca 2c 22 3c
       0.0027773487 -0.007066291 -0.002529238 0.009898374
0000e0 a6 35 9d 3a b4 05 0e bb 3c 17 eb 3b 26 58 39 3c
       0.0011994138 -0.002167088 0.0071744006 0.01131252
0000f0 1e 94 8b bb 1e 8c 3c 3c 95 44 ff bb f4 be 1a bc
       -0.0042596003 0.011508016 -0.007790158 -0.009444941

conv2.weight f4 [64, 64, 3, 3]
000000 4e 92 3f bd 4a ce fa bc 69 da 59 3a 30 85 3d 3d
       -0.046770386 -0.030615944 0.0008310439 0.046269596
000010 85 4c 38 bd 89 d7 a9 bd 25 6e 86 3d c1 06 39 bd
       -0.04499485 -0.08293063 0.06563977 -0.045172457
000020 0f 07 64 3d 25 6b 12 3b 59 be 23 bd 9f 69 b0 bd
       0.055670794 0.0022341695 -0.03997645 -0.086138956
000030 2f e7 a6 3c 04 97 d6 bc ea fe a3 bc 9e 83 98 bd
       0.020373909 -0.026195057 -0.020019013 -0.07446979
000040 3c 85 15 bd b2 45 9f 3d cf 01 0f 3c 9c 1a 9a bd
       -0.036504015 0.07776965 0.008728459 -0.075246066
000050 a4 34 1e bd 06 70 0d bb d5 9a 1c bd e0 6b 7e bd
       -0.03862442 -0.0021581664 -0.038233597 -0.062114596
000060 94 ff af bc ac f5 6a bd 8e 6c b4 3c cd e6 87 bd
       -0.021484174 -0.057363197 0.02202442 -0.06635819
000070 1f 86 b8 3c 75 ca 16 bd 60 c4 c2 3a 5d f6 a5 3c
       0.022524891 -0.03681417 0.001485955 0.020259077
000080 73 19 b1 3a 21 d9 40 bc 55 42 94 bc 58 8c 21 3d
       0.0013511613 -0.011770518 -0.018098036 0.039440483
000090 ec 6d 93 bd b1 0d 99 bd b2 cc 79 bd 2d ae 90 bc
       -0.071987 -0.074733146 -0.06098623 -0.017661178
0000a0 88 ae 63 bd 32 a8 b9 bd d0 75 c5 3b df 68 2b 3b
       -0.055586368 -0.09065284 0.0060260072 0.0026155037
0000b0 41 1d 3f 3d c6 28 a0 bc ea dd 19 bc 73 7e 57 3d
       0.046658758 -0.019550692 -0.009391287 0.052610826
0000c0 d9 e6 fa bc 59 d7 39 bc a0 16 2d bd 6d 7d ad bc
       -0.030627655 -0.011342847 -0.042257905 -0.021177972
0000d0 91 40 d3 bc bd 69 2b bd 97 95 36 bc 2d ca 1b bd
       -0.025787624 -0.041848887 -0.011144063 -0.038034607
0000e0 f3 ca 20 3d 0c 27 e2 ba bd 49 b5 3c 3e 0b 27 bd
       0.039256047 -0.0017254069 0.022129888 -0.040782206
0000f0 6b fb d7 bc 82 64 11 3d ce b5 3b bc d1 95 29 3d
       -0.026365003 0.035496242 -0.01145692 0.04140264
000100 3a 26 f6 3c 15 26 06 bd 1e b1 9b bc e8 a7 b0 3b
       0.030047525 -0.03275116 -0.019005354 0.0053911097
000110 a2 ac 26 3d b1 d7 7a 3d c9 c6 76 bd f1 48 e3 bb
       0.04069198 0.061240856 -0.06024817 -0.0069361855
000120 9b 09 42 bd 8f c7 2d bd ec 18 64 3d c3 de c3 3d
       -0.04737244 -0.042426642 0.05568783 0.09563973
000130 93 bc 0c bd 96 26 01 bd 4b a8 30 3d fb dc 3c 3c
       -0.034359526 -0.03153094 0.043129247 0.011527295
000140 41 42 fd bb f6 46 31 3c 27 b0 4a 3d 0e e4 4b bb
       -0.0077288453 0.010820141 0.0494844 -0.0031111273
000150 78 41 4e bd ce 89 99 3c 01 36 9c 3c 4a 26 54 bd
       -0.050355405 0.018742468 0.01906872 -0.051794328
000160 75 68 d9 3b 31 0a b8 bc 9f 9a 13 3d a7 8a df bd
       0.0066347667 -0.022465797 0.03603613 -0.10915118
000170 9b 7a dc bc 85 28 02 bd 2f 35 98 bc 66 55 75 3c
       -0.026913932 -0.031776924 -0.018580047 0.014973974
000180 97 ee 4d 3c 35 3d 8f 39 0f df 45 3c b8 99 7d bd
       0.012569091 0.00027320688 0.012077107 -0.061914176
000190 dc a7 ac bc 1c e2 8e bd 46 4b 10 3d ef 8d 85 bc
       -0.021076135 -0.06976721 0.035228036 -0.01630303
0001a0 7a a0 8e 38 ff e7 07 bd 57 b8 7a 3d 61 a2 76 3c
       6.800979e-05 -0.033180233 0.061210956 0.015053363
0001b0 62 17 b1 3d d9 ca 87 bd 36 a5 81 bc 60 54 92 3d
       0.08647038 -0.06630487 -0.015825849 0.071449995
0001c0 11 84 a7 bd 2d d4 5e bc 05 29 7b bd d8 ba 0f bc
       -0.081794865 -0.013600391 -0.061318416 -0.008772574
0001d0 f1 28 b7 bc 66 f7 88 3c 9c 5f 5b 3d fb ec f0 bc
       -0.02235839 0.016719531 0.053557977 -0.029409876
0001e0 27 42 58 3d d8 0b 03 bc b8 30 94 3d 51 e8 c6 3c
       0.052797463 -0.007998429 0.07235855 0.024280699
0001f0 45 00 61 bd 65 54 1e bd db e7 d0 3c 86 72 46 bd
       -0.054931898 -0.038654704 0.025501182 -0.04844906
000200 69 b3 ad bc f6 7a 37 3d 49 0a 36 3c 23 b4 b5 bd
       -0.021203713 0.044795 0.011110851 -0.08872249
000210 14 29 d5 bd a6 bc 66 bc 5c 33 95 bd 09 95 e0 3c
       -0.10408226 -0.014083063 -0.07285187 0.027414816
000220 38 c9 96 bd 96 f0 f0 bb 1b 72 62 bd b2 70 e7 bc
       -0.07362598 -0.007352899 -0.0552846 -0.02825198
000230 a0 c9 4f bd ff f3 27 bd 82 a1 f3 bc 61 85 26 3c
       -0.050729394 -0.041004177 -0.029740099 0.010163636
000240 03 7c aa 3c 3d e8 5d bc 7a 8f a7 bd 3e ae 90 3a
       0.020811087 -0.013544139 -0.08181663 0.0011038256
000250 86 6a 1b be 0d 58 1c be 95 03 9f 3c de c7 66 bd
       -0.15177354 -0.15267964 0.019410888 -0.056342952
000260 46 ba 65 bd f0 e5 25 bc 81 93 15 3d 24 3c 7a bd
       -0.056085847 -0.010125622 0.036517624 -0.06109251
000270 c5 65 7e bd 59 6e a5 3c f9 b5 b2 bc b7 67 fb 3c
       -0.062108774 0.02019422 -0.021815287 0.030689104
000280 58 e2 97 3d 1b a0 bb bc 24 06 60 bc bf 55 c2 3b
       0.074162185 -0.022903493 -0.013673339 0.005930632
000290 7c f4 a0 3c 38 04 b2 3c 3e 0c 02 3d f9 29 74 3d
       0.01964783 0.021730527 0.031749956 0.05961034
0002a0 a8 02 7c bc 7f c4 ef 3c 6d f2 ea bd 06 f4 9f bd
       -0.015381493 0.029268501 -0.1147202 -0.07810216
0002b0 26 ba e1 bc a3 e0 d3 3b 79 f9 a2 3d c9 6b 64 bd
       -0.027554583 0.006465988 0.079577394 -0.055766854
0002c0 17 9b 1a bd 94 6a 27 bd d5 a2 73 bb 7e 57 6b bd
       -0.03774556 -0.040873125 -0.0037175913 -0.057456486
0002d0 8e e3 8f 3d 0d 1f f1 bc 89 43 2e bd fd 23 0a ba
       0.070258245 -0.029433751 -0.042544875 -0.0005269645
0002e0 7b 6f a1 3b 26 eb 03 3d 80 41 b5 bd dc 86 45 bd
       0.0049266196 0.032206677 -0.08850384 -0.048224315
0002f0 fd d5 81 3c d6 c6 0c 3c f1 4d ec bc f8 aa 28 bd
       0.015849108 0.008592328 -0.02884576 -0.041178674
000300 0f 04 af bc 83 b0 30 bc da f2 90 3d 4e 70 34 bd
       -0.02136424 -0.010784271 0.0707757 -0.044052415
000310 d6 56 6a bd 25 62 f1 bc 7d 6b f5 bb c6 9d 10 3c
       -0.05721172 -0.029465744 -0.0074896202 0.008826679
000320 ae ed d9 bc d8 e2 6a bd 8e fb 4b 3d c1 45 e1 bc
       -0.026602592 -0.05734524 0.049800448 -0.027499082
000330 cd d7 88 3d a7 ad bf bd 70 f5 50 bd b6 76 fd bb
       0.06681786 -0.093592934 -0.051015317 -0.0077350987
000340 d4 7d bb bc 6a e7 16 bc 3e 54 e1 ba 77 07 f0 39
       -0.022887148 -0.009210447 -0.0017191244 0.0004578193
000350 ca 7b 06 3c 0c 97 23 3c b6 ee 92 3c 79 56 b3 bc
       0.008208225 0.009984743 0.017936092 -0.02189182
000360 4f 2d 67 3c 10 cc 7e bc 0f f1 6e bc a8 f9 49 3c
       0.0141099235 -0.015551582 -0.01458384 0.012327589
000370 06 87 50 3c 9e 29 16 bd 4a bb 20 bd 18 b8 38 bc
       0.012727505 -0.036660783 -0.039241113 -0.01127436
000380 29 a6 22 bd 39 83 ef bd 59 3e 80 bd 1f 7c f7 3b
       -0.039709244 -0.116949506 -0.06261892 0.007552638
000390 c7 b7 0f bc d8 91 19 3d 22 a5 65 bd 17 97 ad 3c
       -0.008771843 0.037492603 -0.056065686 0.02119021
0003a0 6a 99 80 3c 48 f2 29 3d 9e 11 d8 bc 91 16 1e 3d
       0.015698154 0.041490823 -0.026375588 0.03859574
0003b0 e2 f9 1c bb 1a 95 b6 bc 23 54 99 3a 8e c8 18 bc
       -0.0023952653 -0.022287894 0.0011698048 -0.00932516
0003c0 ff d1 0e 3d 8b 7c 4a 3d a5 6b 07 bd 4b 2e a3 3d
       0.034868237 0.04943518 -0.033061642 0.07967814
0003d0 a0 39 eb bb 7d 48 4b bd 8f 62 89 3d 85 32 15 3a
       -0.0071785003 -0.049629677 0.06708252 0.0005691427
0003e0 7e f4 db bd 2e 53 fe 3b db 77 cc bc f7 44 4b 3d
       -0.107399926 0.0077613806 -0.024959495 0.049626317
0003f0 a9 08 ef 3b 13 e5 96 3b 86 f4 d5 bc 8f fc 99 3c
       0.0072947335 0.0046049445 -0.026117574 0.018797187

conv2.bias f4 [64]
000000 4a 89 1a 3b 3a 39 0f bb ad 62 e8 3a aa 34 3d ba
       0.0023580366 -0.0021854178 0.0017729603 -0.00072176254
000010 98 2d bf 3b 32 8a ac ba b4 e7 0b 3b aa 98 6b bb
       0.0058342926 -0.0013163744 0.0021347823 -0.003594915
000020 08 23 26 3b cd b6 d7 b9 d6 74 b8 bb 8e 58 0b 3b
       0.002535047 -0.00041144193 -0.0056291623 0.00212625
000030 80 3d 5b 3b 65 9b 60 3b 44 b4 9a 3b 8b 27 12 bb
       0.0033453405 0.003427231 0.0047211964 -0.0022301401
000040 51 ff 1f bb 0a 45 98 3a ce 78 bf bb 54 20 5f bc
       -0.0024413655 0.0011617255 -0.0058432585 -0.0136185475
000050 a9 e4 a0 bb 36 b9 5d bb 00 df 9b bb 84 4a cb ba
       -0.004910071 -0.0033832318 -0.0047568083 -0.0015509878
000060 b5 c6 04 bb db ee 82 bb 7c 12 88 3b c7 93 21 ba
       -0.002026004 -0.003995759 0.004152594 -0.0006163683
000070 1b 2a 8d ba 47 f1 95 b9 6d ff 13 bb 6b b8 07 3b
       -0.0010769995 -0.0002859926 -0.0022582666 0.0020709287
000080 cc ce 54 bb 18 7b 30 3a 95 f8 62 bb df 98 b3 ba
       -0.0032471893 0.00067322096 -0.003463303 -0.0013702175
000090 ce d5 04 3c 9b 35 d6 bb 43 f0 c6 ba f0 d5 f7 3a
       0.008107616 -0.006537152 -0.0015177805 0.0018908363
0000a0 92 06 28 bb 96 ae 98 3a f2 66 d2 3b df fc ac 3b
       -0.0025638682 0.001164871 0.0064209634 0.005279168
0000b0 58 c6 d5 3a 39 16 19 bb bf 29 8f bb e3 f2 96 3b
       0.0016309721 -0.0023359193 -0.00436899 0.004606591
0000c0 c0 d0 99 bb 2c e8 a4 3b ba 97 ae bb 01 c5 0e 3a
       -0.0046940744 0.00503256 -0.005328146 0.0005446226
0000d0 ea e1 f0 39 97 99 2f bb 34 e5 d8 ba 6f 03 4b bb
       0.00045944686 -0.0026794428 -0.00165478 -0.0030977388
0000e0 7e 18 82 bb 8b 24 18 bb 7f 77 93 3a ce 69 93 bb
       -0.003970205 -0.002321514 0.0011250823 -0.004498697
0000f0 ec 17 0f 3b f4 d7 a1 ba e4 10 e8 ba 50 e7 a2 ba
       0.0021834327 -0.0012347684 -0.0017705229 -0.0012428556

conv3.weight f4 [64, 64, 3, 3]
000000 5c 6d 46 bd 9a e3 e3 b8 1b 3e d6 bc 3b 13 4e 3b
       -0.048444137 -0.000108665976 -0.026152661 0.0031444568
000010 f0 4c 93 3b be 18 1e 3d b3 a6 22 3c f0 4f af bb
       0.0044952556 0.038597815 0.0099274395 -0.0053501055
000020 ac 2d 84 3b 90 f2 63 bd e2 ff d9 3c 47 05 01 bd
       0.004033765 -0.055651248 0.026611272 -0.031499173
000030 a4 a4 e3 3c 4a 38 4a bc 6c 3e c7 bb bc ca 5d 3d
       0.027788468 -0.012342522 -0.0060804393 0.05414842
000040 2a 6b 3c 3c 47 1a 8d bc e5 2d c6 b9 0f 01 ff 3c
       0.011500159 -0.017224444 -0.00037799697 0.031128434
000050 82 56 1d bd 0f 1c 27 3b 3d dc 8f bc 73 a8 75 bc
       -0.03841258 0.0025498902 -0.017561072 -0.014993775
000060 5a bc 9d 3d f7 81 9b 3c fe 69 73 3c bc 21 40 bd
       0.07701941 0.01898287 0.0148568135 -0.04690717
000070 87 8f 40 3d 32 14 23 bd 9d dd 49 3d 05 61 1b bd
       0.04701188 -0.03981418 0.049283613 -0.037934322
000080 5c 57 c5 bc c5 82 ab bd ed 18 c6 3c 97 42 07 bd
       -0.024089508 -0.08374552 0.024181807 -0.03302249
000090 da 80 98 3d 0a 72 06 3d 9c 89 30 3c 74 e0 ec 3b
       0.074464515 0.0328236 0.010774996 0.0072289053
0000a0 22 d2 71 3d 3e ca 19 bd f6 90 97 3c 8a 59 09 bd
       0.05903829 -0.03754639 0.01850174 -0.033532657
0000b0 a4 34 e9 bc e9 a4 8c 3c 3c 6c d0 bd 08 69 94 bd
       -0.028467484 0.017168479 -0.10176894 -0.072465956
0000c0 8c 3b 06 3b b0 a6 a9 3c de 4b 04 bd b0 a7 ba 3b
       0.002048227 0.020709366 -0.032298915 0.0056962594
0000d0 a8 27 bc bc 9f 5c 99 bd f7 78 4b 3d 8a 53 4b 3d
       -0.022968128 -0.07488369 0.049675908 0.049640216
0000e0 92 4c 42 3c 74 6d 12 bc 6a 18 88 3d 0c 23 19 3d
       0.011859076 -0.0089372285 0.066452816 0.03738694
0000f0 a4 b9 c1 bc d8 eb 14 bd 97 1a df bc 19 9b 56 3d
       -0.02364809 -0.03635773 -0.027234359 0.052394006
000100 b4 af fb bc 8e 2a fa 3c 4b 33 b1 3c 5b 67 72 bd
       -0.03072343 0.03053787 0.021630904 -0.0591806
000110 47 2d f6 bc 3d 5c c8 3d 65 60 ee bc 35 2d f1 bc
       -0.030050887 0.09783218 -0.029098699 -0.029440502
000120 89 16 db 3c 1e fb 02 bc 4d c2 65 3d 2b 87 c5 bc
       0.026744144 -0.007994441 0.056093503 -0.024112305
000130 4e 1c 4a bc c8 60 88 3d 8d 37 fc 3c 27 48 4a 3c
       -0.01233585 0.066590846 0.030788207 0.012346304
000140 6d be f9 3c 44 d4 9e 3c ca 4f 18 3c 19 9a ae 3d
       0.03048631 0.019388326 0.009296367 0.085254855
000150 44 12 8b 3c a8 e3 42 3d 77 a5 12 3c d9 13 d7 3a
       0.016976483 0.04758039 0.008950583 0.0016409113
000160 cc d8 93 bc 5e 81 b0 bd c0 38 99 bc 39 4c bd 3c
       -0.018047713 -0.08618425 -0.018703818 0.023107635
000170 8d f4 62 bb 5e fc 97 3d 3d be 3c 3c 13 32 e8 3c
       -0.0034630627 0.07421182 0.011519966 0.02834419
000180 3d b0 27 3d 65 82 67 3c 18 e9 92 3c 52 4d 2d bd
       0.04093956 0.01413021 0.017933413 -0.042310067
000190 92 11 38 3d 8e 7a 92 3d 4d ef 05 3d ae 04 fb bb
       0.04493863 0.07152282 0.032698918 -0.00766047
0001a0 23 c3 a4 bd bc a8 19 bd 15 65 11 bc ad 9b fb bc
       -0.08045032 -0.037514433 -0.0088741975 -0.03071388
0001b0 9e d9 18 bd 7b a7 7d 3c fb 2b 56 3d 73 87 18 bd
       -0.03731691 0.015481825 0.052288037 -0.03723855
0001c0 c9 aa ac 3b 60 f3 11 bd 20 16 25 bc 67 2a aa 3d
       0.0052693826 -0.03563249 -0.010076076 0.08308869
0001d0 5e 7f d9 3c 0f e2 a4 3d 8c dc 84 bc 46 4c 66 bd
       0.026549991 0.0805093 -0.016218446 -0.056225084
0001e0 07 1d 23 3c a1 2c d2 3c 38 a7 bd bd 5b 9e db 3c
       0.009955651 0.025656046 -0.0926041 0.026808908
0001f0 22 2a 92 3d 26 1c f7 bc 8b b8 bd bc 9c ad 2e bc
       0.071369424 -0.03016479 -0.023159286 -0.010661509
000200 5b fb d0 3c 34 f8 06 bd fd 5d 1e bc 97 fb f5 3c
       0.02551048 -0.03295155 -0.009665963 0.030027194
000210 7a e7 e9 bc c4 43 a2 3c f5 e1 5b 3d e0 c1 0d 3d
       -0.02855276 0.019807704 0.053682286 0.03460872
000220 1d 52 a7 3b 69 9c fb 3c 27 fb 52 3d cc 84 d2 b9
       0.005106224 0.03071423 0.05150905 -0.00040153263
000230 38 bb f5 bb 8d fb 9e 3c 1f 83 2d 3d 52 9e 8d bd
       -0.007499125 0.019407058 0.042361375 -0.06914963
000240 36 27 53 bd 2e c2 6b 3d 6d 82 67 3c e6 b4 c0 3c
       -0.051551066 0.05755823 0.014130217 0.02352376
000250 96 49 9c bd d3 56 0a bb 8b 0e 8a bd 9c 20 0f bd
       -0.07631223 -0.002110888 -0.06741055 -0.034943208
000260 3e 86 a8 bc 33 dd 4d bc 44 b5 aa bc d5 07 e6 bc
       -0.020571824 -0.012564945 -0.020838387 -0.028079906
000270 c4 e7 0a bd 25 bd 29 3c 85 22 ac 3c 26 32 de 3c
       -0.033912435 0.010360037 0.021012554 0.027123522
000280 51 1b ad bb e2 83 96 bc e9 f2 6a 3b 56 c4 fd 3b
       -0.0052827974 -0.018373434 0.0035850352 0.0077443523
000290 e0 f8 f4 3b 50 58 35 bc 72 72 29 3d 67 ec 9a 3d
       0.0074759573 -0.011068419 0.04136891 0.075646214
0002a0 82 1b c6 3d f2 34 0d bc 49 35 30 3b f4 6c b2 ba
       0.096732154 -0.00861858 0.002688723 -0.0013612793
0002b0 ad ae 40 bc 61 c0 44 3d f7 30 65 bc 3a 18 a2 3c
       -0.011760396 0.04803503 -0.013988725 0.019786943
0002c0 1a 08 45 bb 25 6c 28 bc 93 10 8a bd 32 65 00 3d
       -0.0030064643 -0.01027969 -0.067414425 0.031346507
0002d0 b4 be 85 3c d9 9d 27 3c 42 f0 5b bd d5 05 19 bd
       0.016326286 0.010230505 -0.053695925 -0.037359077
0002e0 5b 37 86 bd ff b9 04 3c c0 04 ea bc ba 63 99 3c
       -0.06553527 0.008100986 -0.028566718 0.018724311
0002f0 bc 6a 2e 3d 1c 01 9a 3d 58 f7 73 ba 10 0d 64 bb
       0.04258226 0.07519743 -0.00093065714 -0.0034797825
000300 fa 01 8e 3c 71 ee 7b bc 32 cd 84 3b 99 3d 93 3b
       0.017334927 -0.015376673 0.0040527815 0.004493427
000310 f2 e9 7f bb 83 34 b1 3c 7e 96 49 bd a0 18 3c 3d
       -0.0039049354 0.021631485 -0.049215786 0.04592192
000320 0d e1 cf bc 2d 87 4b ba ff f2 d4 bc f0 e7 bf 3c
       -0.025375867 -0.0007763978 -0.025994776 0.023426026
000330 e3 e2 a0 bb bc 7f f6 3b c7 80 d8 bc c6 33 3e bc
       -0.0049098595 0.0075225513 -0.026428593 -0.011609023
000340 e6 71 31 bd c6 51 92 3c f1 1d 1e 3c 71 42 5f bc
       -0.043321513 0.017861258 0.009650693 -0.013626681
000350 da 5a 14 bd 9d f0 1a bd cf 96 d6 3c af 18 31 bd
       -0.036219455 -0.037827123 0.026194958 -0.04323643
000360 df 9b f2 bc 37 a8 b0 3d 83 82 4b bc e7 15 4a 3c
       -0.02961534 0.086258344 -0.012421253 0.0123343235
000370 f9 e7 11 bd da 21 46 3c 2e 16 d3 bc 36 ff 9f 3b
       -0.035621617 0.012093032 -0.025767412 0.0048827184
000380 e9 21 f4 bc 09 f9 c7 3b ab 7c ea bc 86 d0 46 3d
       -0.029801326 0.0061026854 -0.0286239 0.048538707
000390 a7 4c 9a 3d cb fd ee bc 80 9e 48 3d 27 8f bd 3c
       0.075341515 -0.029173752 0.048979282 0.02313955
0003a0 6a a4 07 bd ad 8c 26 3d f8 82 98 bd 86 5c 82 39
       -0.03311578 0.040661503 -0.07446855 0.00024864468
0003b0 78 3d 80 3d 5e 0e cd 3c 86 49 9e 3b 45 fc 2e bc
       0.06261724 0.025031265 0.004830542 -0.010680263
0003c0 78 59 c5 bd b7 ea 97 bc d0 2e cc 3d f4 d3 8f 3c
       -0.096362054 -0.018544538 0.09969866 0.017557122
0003d0 b9 e8 ab bc 88 8f 6f 3d b7 a8 e7 bb 61 48 2e bd
       -0.020984994 0.05848649 -0.007069673 -0.042549495
0003e0 5d e6 32 3d 88 d1 cb bc fe e8 66 bd 30 ae 70 bc
       0.043676723 -0.024880186 -0.056374542 -0.014689967
0003f0 98 eb f3 3b 07 df 1b bc 37 f5 9d 3c 2a 6b 7f bc
       0.0074438564 -0.009513623 0.019281967 -0.015589515

conv3.bias f4 [64]
000000 b2 00 c8 3c 00 a2 ae 3c 05 8a ed bc 68 91 fb 3c
       0.024414394 0.021317482 -0.028996477 0.030708984
000010 86 0c 92 bc 95 86 06 bd cb f8 f4 3c cb e1 10 3d
       -0.017828237 -0.03284319 0.02990379 0.035371583
000020 e2 3f 05 3d 09 7d d8 3c 19 58 e0 3c 43 a2 05 3d
       0.032531627 0.026426809 0.027385758 0.032625448
000030 2c 91 f7 3c 26 d0 f5 bc ed bb 03 3d 26 f1 f1 3c
       0.03022059 -0.03000648 0.032161642 0.029533934
000040 14 88 47 bc 46 61 61 3b b2 ae 11 bc 90 03 ec 3c
       -0.01217844 0.0034390255 -0.008891748 0.028810292
000050 8f 83 15 3d 7b 08 a0 bc 86 d3 a9 bc ba 3f f4 3c
       0.036502417 -0.019535294 -0.020730745 0.029815543
000060 b3 13 0e 3d 6b e6 5f bc 0b a4 80 bc 86 3e 01 3d
       0.034686755 -0.013665776 -0.015703222 0.031553768
000070 83 4e 12 3d 7e 70 ff 3c f5 08 5f bc 6a 6b f3 3c
       0.035719406 0.03118157 -0.013612975 0.029714305
000080 3b 80 07 3d b4 3e f7 3c f7 a7 e7 3c 0c 55 b9 3c
       0.033081274 0.030181266 0.028278334 0.022623561
000090 4c 25 03 bd 37 59 6f bc 11 07 0a 3d 12 f4 b9 3c
       -0.03201799 -0.014608673 0.033698145 0.02269939
0000a0 a0 89 a6 bb e0 02 d5 bb 62 a1 0e 3d f2 3d ac 3b
       -0.005082324 -0.006500587 0.034821875 0.005256408
0000b0 62 e8 14 3c 45 af f2 bc 0e 7c dd bc 01 dc 0b 3d
       0.0090886075 -0.02962459 -0.027036693 0.03414536
0000c0 b9 7c fd 3c 9d c8 7c bb 98 e9 e3 3b 56 2a ff bc
       0.030943261 -0.0038571723 0.006955337 -0.031148117
0000d0 4e da 3f 3b 84 8a 10 3d e7 5b 9c bb 7b 8a 0b 3d
       0.0029274407 0.03528835 -0.004771698 0.034067612
0000e0 8a 06 94 3b 66 0d a2 ba 6e 0f ab 3c 5e 5e 13 3d
       0.004517381 -0.0012363612 0.02088138 0.035978667
0000f0 04 6f 08 3d d6 54 e8 bc 07 b0 0a 3d 24 d6 fd 3b
       0.033308998 -0.028360765 0.03385928 0.007746475

bn1.weight f4 [64]
000000 5b bf 83 3f 19 04 83 3f d6 34 7e 3f 0b e1 7b 3f
       1.0292772 1.0235626 0.9929937 0.98390263
000010 86 f6 81 3f f9 6a 7c 3f c6 47 7c 3f 76 81 82 3f
       1.0153358 0.9860073 0.9854702 1.0195758
000020 1f 0a 7b 3f ab d3 7d 3f 7e bc 82 3f 20 2d 83 3f
       0.9806232 0.99151105 1.0213773 1.0248146
000030 71 59 7e 3f 9d 8d 7d 3f 1b a8 7d 3f eb 28 7a 3f
       0.99355227 0.9904421 0.99084634 0.97718686
000040 3e c8 80 3f 32 86 82 3f 06 3d 83 3f 51 45 7d 3f
       1.0061109 1.0197203 1.0252998 0.98933893
000050 25 a7 7a 3f 7c 97 83 3f 63 99 7f 3f 52 60 7f 3f
       0.9791129 1.0280604 0.99843425 0.9975635
000060 35 43 81 3f 8f 8d 82 3f 0d 81 7e 3f 03 ad 80 3f
       1.0098635 1.019945 0.99415666 1.0052799
000070 dc 43 82 3f 2b e7 7f 3f 7c 68 80 3f f5 20 7f 3f
       1.0176959 0.9996211 1.0031886 0.99659663
000080 07 9e 7d 3f 97 90 7b 3f 8a f4 79 3f f9 24 7d 3f
       0.99069256 0.982675 0.9763876 0.9888454
000090 47 27 82 3f ec ab 7b 3f aa 33 7a 3f a8 21 80 3f
       1.0168236 0.98309207 0.97735083 1.0010271
0000a0 e3 12 81 3f dd 37 7d 3f d9 78 82 3f 2b c9 81 3f
       1.0083889 0.98913366 1.019313 1.0139517
0000b0 81 c9 7e 3f f0 16 84 3f a1 d3 83 3f 3b 74 81 3f
       0.9952622 1.03195 1.0298959 1.0113596
0000c0 92 5e 7b 3f 6c 94 7f 3f dc 4e 83 3f 12 75 7c 3f
       0.9819118 0.9983585 1.0258441 0.98616135
0000d0 fb fd 80 3f df ec 81 3f 16 4d 84 3f d5 88 81 3f
       1.0077509 1.0150412 1.0336025 1.0119883
0000e0 fb 27 7b 3f 7b 16 81 3f c1 b6 7b 3f ee 02 82 3f
       0.9810788 1.0084985 0.98325735 1.0157144
0000f0 ab ce 7f 3f 9b 12 7f 3f 77 66 7c 3f d4 18 82 3f
       0.99924725 0.99637765 0.9859385 1.0163827

bn1.bias f4 [64]
000000 00 d6 93 3c 39 b4 a9 bc f6 f7 cf bb 21 ff cc bb
       0.01804638 -0.02071582 -0.006346698 -0.0062559997
000010 68 c1 c1 bc 98 aa 8e 3c c3 34 22 3c 8e fc 36 3c
       -0.023651794 0.01741533 0.009900275 0.011168612
000020 60 ac 4c bc 64 79 06 bc 9d dd f3 3a da f1 53 3c
       -0.012492269 -0.008207653 0.0018605475 0.01293608
000030 a5 24 29 3b 65 af cc 3a 7d e3 c6 3c a1 e1 bf bc
       0.0025809195 0.0015616236 0.024278397 -0.023423018
000040 75 12 8f 3c ad 24 d8 3b 91 61 81 3b 22 01 53 ba
       0.017464856 0.006596169 0.0039483984 -0.000804918
000050 f8 46 da 3b 48 29 be bc 73 79 2b bc 42 a8 f3 3b
       0.006661292 -0.023213044 -0.0104659675 0.0074358294
000060 db 00 78 3b 0c 14 8b bc 58 9b 95 37 68 03 bc bc
       0.0037842307 -0.016977333 1.7834522e-05 -0.022950843
000070 41 0a ef bb d3 5f b9 bc a9 7b 17 bc 62 ab 5e bb
       -0.0072949235 -0.0226287 -0.0092457915 -0.0033976664
000080 e2 eb 56 3c 5e eb c8 bc 9b 9b a9 3a 04 89 9e bb
       0.013117762 -0.024526294 0.0012940051 -0.004838111
000090 b4 78 99 bc 8f 4f 02 bc 05 d9 e6 ba 10 32 7c 3c
       -0.018734314 -0.007953539 -0.0017612284 0.015392795
0000a0 fe b1 ac 3c 85 c1 ac bc f5 97 44 ba 3c 1e 25 bc
       0.021080967 -0.021088371 -0.000749945 -0.010078009
0000b0 79 56 65 bc b9 93 66 3c 70 7d 3c 3b 85 c4 f3 3b
       -0.0139976675 0.014073306 0.002876129 0.0074391984
0000c0 de d4 5e bc 48 41 03 bd e9 03 69 bc 88 1c 75 3c
       -0.013600556 -0.03204468 -0.014222124 0.014960416
0000d0 ca 7e de 3b b8 e1 9c 3b 86 d3 98 3c 58 ed af bc
       0.006790017 0.00478765 0.01865555 -0.021475479
0000e0 92 37 ae 3c ef 34 88 bc 0b d2 9c 3c 77 3a 08 3c
       0.021266732 -0.016626803 0.019143125 0.00831472
0000f0 90 4d 32 3c a8 5e 4e 3a 98 d9 cd bc 45 bb b0 bc
       0.01088275 0.0007872381 -0.02512817 -0.021573672

bn1.running_mean f4 [64]
000000 25 4b b0 bb 14 8f d2 bb 62 fc 89 3c de b2 7f 3b
       -0.0053800517 -0.0064257476 0.016843978 0.0039016525
000010 a6 d0 de bb cb 9f a2 3c ef a3 87 3c 5d d1 af 3b
       -0.006799775 0.019851586 0.016557662 0.005365534
000020 f8 55 f6 bb 87 1e 98 bb 46 1c b1 bb a3 b7 28 bc
       -0.0075175725 -0.004642311 -0.005404982 -0.010297689
000030 13 0e bf 3b 91 9a 07 bb d3 ba ec 3b fe f5 41 bc
       0.005830535 -0.0020691494 0.0072244196 -0.011838434
000040 a1 7b c6 3c 6a 95 a2 bb a6 d0 8b 3b 9f c4 54 3c
       0.024228873 -0.004961659 0.004266816 0.012986331
000050 1a bf cd 3b 7e 25 01 bc 70 29 83 bc 5e d7 e1 3b
       0.0062788846 -0.007882474 -0.01601097 0.006892129
000060 77 43 fe 3b b1 de 90 bb dd 99 ed bb 98 51 04 bb
       0.0077595073 -0.004421078 -0.007251008 -0.0020190235
000070 85 6d 74 bc 9e 4e 5e bc e0 e2 88 ba 4a 3c 49 3b
       -0.01491869 -0.0135685485 -0.001044359 0.00307061
000080 b5 05 0d 3d c0 a9 c4 bc 34 b4 ab 3c f2 ff 8a bc
       0.03442927 -0.024006724 0.020959951 -0.016967747
000090 9d 21 1e bc ab 64 0c 3c 1c 48 93 bb af c5 95 3c
       -0.009651569 0.008568923 -0.00449468 0.01828274
0000a0 e7 a6 a6 3c a7 bf 4c bb d3 ab 4a bb aa 15 9b bc
       0.020343257 -0.0031242163 -0.003092517 -0.018931229
0000b0 06 f7 98 bb b5 69 84 bc b7 59 ba bc 32 9b 8d bc
       -0.0046681194 -0.016163686 -0.022747857 -0.017285917
0000c0 22 c0 8e 3c 4e 5d 9a bb cf f9 89 bb ad 5a 5c 3b
       0.0174256 -0.00471083 -0.0042106877 0.0033623383
0000d0 6b 29 07 bc 29 a7 0b bc 1f 0a b3 bc de 64 29 3c
       -0.008249621 -0.008523741 -0.021855412 0.01033899
0000e0 79 a8 04 3d b4 26 64 bc 39 ba 9f 3c 8b c8 8e 3b
       0.03238723 -0.013925243 0.019497978 0.0043574027
0000f0 4a 7e 05 3c 57 a2 a6 3c da 01 21 bc 61 82 94 bc
       0.008147785 0.020341082 -0.009827102 -0.018128576

bn1.running_var f4 [64]
000000 a0 1e ef 3c f4 b2 19 3d e9 1f 20 3d 55 20 53 3d
       0.029189408 0.03752418 0.039092932 0.051544506
000010 32 36 c7 3c 58 8f 3f 3d a0 8a f7 3c cf 05 00 3d
       0.024317835 0.046767563 0.030217469 0.03125554
000020 ad e5 7e 3c 2a 39 89 3d 8f eb 27 3c 4c 88 56 3c
       0.015557689 0.06700356 0.010249033 0.013094019
000030 68 23 8a 3c d9 3e b8 3c 00 b9 2a 3d 5b c4 23 3d
       0.016862586 0.022490906 0.041680336 0.03998218
000040 e2 b1 4c 3d 5d e2 fb 3c 76 6e 23 3d 53 18 74 3c
       0.04997433 0.030747587 0.039900266 0.0148983775
000050 20 6a 41 3d b2 ca d3 3d fe eb 0a 3d 76 88 90 3c
       0.04722035 0.103413954 0.033916466 0.017643195
000060 16 d7 05 3d de 9f 96 3c b7 8e ca 3c 0f 4d df 3c
       0.032675825 0.018386777 0.024726255 0.027258424
000070 84 c3 32 3d ea a1 20 3d 65 10 1a 3d ea f0 00 3c
       0.04364349 0.039216913 0.03761329 0.007869938
000080 41 8d ad 3d e7 22 04 3d 8c 4a 78 3d 5e 39 0d 3d
       0.08474208 0.032259848 0.06061797 0.034478538
000090 d9 05 ad 3c 7e 4c d5 3c 79 d9 1d 3c 9c 68 c0 3d
       0.021120952 0.02603745 0.009634369 0.09394953
0000a0 65 5e 33 3d 37 1c 15 3d cf 92 37 3d dc 70 5d 3d
       0.043791194 0.03640386 0.044817742 0.05406271
0000b0 28 d4 ea 3c 53 17 06 3d c7 2f cf 3c ad e6 f1 3c
       0.028665617 0.032737087 0.025291337 0.02952894
0000c0 33 5f 5f 3c 75 e3 81 3c f7 4d f4 3c a0 6a 0d 3c
       0.013633537 0.01585553 0.029822333 0.008631378
0000d0 c6 39 f0 3c 34 dd 11 3d 7d 9a 5b 3d df 91 04 3d
       0.029324424 0.035611346 0.05361413 0.032365676
0000e0 ac b5 cc 3d bf 3b a7 3d 5f 95 39 3d ea 8f 35 3c
       0.09995589 0.081656925 0.045308467 0.011081675
0000f0 81 5b cb 3c e2 f5 e4 3c b6 28 a3 3c e3 f9 50 3d
       0.024823906 0.027949277 0.019916873 0.05101956

bn2.weight f4 [64]
000000 3a 36 80 3f bf 8c 81 3f 34 73 7e 3f 1e 72 80 3f
       1.0016549 1.0121077 0.99394536 1.0034826
000010 c4 12 80 3f 92 92 7d 3f 82 9c 7e 3f b1 67 82 3f
       1.0005727 0.99051774 0.9945756 1.0187894
000020 6b 8a 81 3f 26 b5 80 3f 6b ae 78 3f d9 b2 80 3f
       1.0120367 1.0055282 0.9714114 1.005458
000030 88 64 7b 3f 8a 4b 81 3f a8 d7 81 3f 00 bb 84 3f
       0.98200274 1.0101178 1.0143938 1.0369568
000040 7d 08 83 3f 03 1c 7a 3f b6 b0 7a 3f 01 27 80 3f
       1.0236965 0.9769899 0.9792589 1.0011903
000050 03 1a 80 3f 56 b3 7a 3f 89 9a 7c 3f f3 dc 82 3f
       1.0007938 0.97929895 0.986733 1.0223678
000060 74 7c 7e 3f 18 92 7b 3f bc a6 81 3f 5b 92 7f 3f
       0.9940865 0.98269796 1.0129008 0.99832696
000070 d4 cf 78 3f 75 a4 7a 3f 7b ef 7d 3f c7 2e 81 3f
       0.9719212 0.9790719 0.99193543 1.00924
000080 0e 70 80 3f 05 36 80 3f 6c 26 82 3f df 9c 7d 3f
       1.0034196 1.0016485 1.0167975 0.9906749
000090 f8 1f 80 3f 0a 71 7d 3f e8 6d 7c 3f ac 4d 80 3f
       1.0009756 0.9900061 0.98605204 1.0023704
0000a0 60 fe 7a 3f cb 56 82 3f e7 67 7e 3f 08 84 80 3f
       0.98044395 1.0182737 0.9937729 1.0040293
0000b0 94 60 7c 3f 8f ff 7f 3f fa 1a 7a 3f 82 7c 7f 3f
       0.98584867 0.99999326 0.9769741 0.9979936
0000c0 15 b6 78 3f e4 b0 7e 3f 8c 58 84 3f 87 05 7f 3f
       0.97152835 0.99488664 1.0339522 0.9961781
0000d0 ea 6a 81 3f 77 78 7f 3f 8c 2d 7b 3f f5 5e 82 3f
       1.0110753 0.9979319 0.98116374 1.0185229
0000e0 b5 25 82 3f d0 4b 82 3f 03 89 7b 3f e6 3f 7b 3f
       1.0167757 1.0179386 0.9825594 0.98144376
0000f0 a1 74 80 3f cc e9 80 3f ab 1e 79 3f a2 d7 83 3f
       1.0035592 1.0071349 0.9731242 1.0300181

bn2.bias f4 [64]
000000 be af 69 3c db a8 e1 3a d7 ff 03 bd ca 19 38 bc
       0.014263092 0.001721646 -0.03222641 -0.011236617
000010 55 7b b0 3b 97 00 01 bd cb 0e 20 bc 2a 3d 97 bc
       0.005385796 -0.031494703 -0.009769152 -0.018461782
000020 32 fe 7b bc 93 20 10 bd 53 22 fc bb 23 4c 71 3c
       -0.015380429 -0.035187315 -0.0076945215 0.014727625
000030 a2 71 0c bc ca c5 10 bd 98 49 06 3d 3c d8 56 3c
       -0.008572014 -0.035344876 0.03278503 0.013113078
000040 e7 bd 98 3c 14 45 02 bd 0c 8a c5 bc 24 c4 e9 3c
       0.01864524 -0.03180416 -0.024113677 0.02853591
000050 83 35 85 3c f6 b7 c4 3b 39 a6 19 bc a7 23 12 3d
       0.016260868 0.006003375 -0.0093780095 0.035678532
000060 80 02 55 3c 46 e6 ba 3c 67 2d 40 3a 89 b8 b6 bc
       0.013001084 0.022814881 0.0007330984 -0.02230479
000070 8f 42 6f 3c 76 e3 32 3c fd 71 4a bb fd be dc bc
       0.014603271 0.010918489 -0.0030890696 -0.026946539
000080 77 06 87 3b 6d 5e cf 3c 75 d1 0f 3d 45 fa dc bc
       0.0041206437 0.02531358 0.035111863 -0.026974807
000090 18 05 f6 bc 8c 07 f1 3c 25 e0 a1 bc 6f 12 57 3c
       -0.030031726 0.029422544 -0.0197602 0.0131269535
0000a0 76 47 bd bc 5d 5f 1e 3c c7 03 d8 3b 86 4c f1 bc
       -0.023105364 0.009666291 0.006592247 -0.029455435
0000b0 20 69 44 bc fd d3 b4 3c 89 32 bb bc d1 65 91 bc
       -0.011987954 0.02207374 -0.022851245 -0.017748745
0000c0 a0 9a 5d bb 03 28 99 bc bd 3b e4 3a 60 8c 4e bc
       -0.0033814088 -0.018695837 0.0017412823 -0.01260671
0000d0 7a 05 1e 3c 71 75 a8 3b 44 82 f2 ba 09 53 0e bd
       0.00964486 0.005140953 -0.0018501957 -0.034747157
0000e0 dc 6f 12 bd 72 7e b3 3c 4b 79 40 38 2b a1 c2 bc
       -0.03575121 0.02191088 4.588933e-05 -0.023758492
0000f0 f8 5c 47 bc 4b 3d 56 bc fa bb 99 3c 0e 59 1f 3d
       -0.012168162 -0.013076137 0.018766392 0.03890329

bn2.running_mean f4 [64]
000000 8d 0f 4c c0 58 cd 83 be 44 c7 27 40 2e 0d 1d 40
       -3.1884491 -0.25742602 2.6215372 2.4539294
000010 95 bb 0a 3f bc 9d 05 40 75 6f 96 bc 3a ef 47 bf
       0.5419248 2.0877523 -0.018363694 -0.78099406
000020 b1 1e f1 bd 87 b8 8b be da ab c9 3f 68 c6 1e 40
       -0.11773432 -0.2728922 1.575557 2.4808598
000030 5a 3f df 3f c5 c2 d5 3f cd e2 36 3f 38 61 b0 3e
       1.7441208 1.6700064 0.7143982 0.34449172
000040 8b cc 84 3f 42 e3 00 bf 8f 7a b5 3f 4e 8a 00 40
       1.0374922 -0.5034677 1.4178027 2.0084414
000050 86 70 07 40 d4 0a e3 bf 81 9f 58 c0 2f 4a 6c 3f
       2.116243 -1.773768 -3.3847353 0.92300695
000060 c7 42 34 3f ee 49 2f 40 f0 a0 c4 3f ec 19 8a 3f
       0.70414394 2.7388873 1.5361614 1.0789161
000070 63 be 1d 40 f1 56 e8 3f 7c c0 d6 3e 5b 96 0d 40
       2.4647453 1.8151532 0.4194373 2.212302
000080 8c a4 21 40 a6 2a 2d 3f 85 1d 7b 3f 7d a7 44 be
       2.5256681 0.676432 0.9809192 -0.19204517
000090 02 54 eb 3f c6 3d 34 be 15 c6 b3 3d 8c ed d0 3f
       1.8385012 -0.1760169 0.087780155 1.6322494
0000a0 74 31 ce 3f e1 e8 66 be 8b a7 7e 3f d1 32 a0 be
       1.6108842 -0.22549774 0.994744 -0.3128877
0000b0 59 12 a1 bf 93 61 aa 3f bf 1c 2a c0 ad 8b 12 bf
       -1.2583724 1.3311027 -2.6580045 -0.5724438
0000c0 dd fa b7 3f 14 98 7a 3f 13 7f 83 3f 23 31 16 3e
       1.4373432 0.978883 1.0273155 0.14667182
0000d0 81 4c a8 3f 90 dd 95 3e 62 82 33 40 79 50 3b 3e
       1.3148347 0.292706 2.804833 0.18292417
0000e0 c1 cd 85 3e eb f9 67 3f bb 13 56 40 a1 f1 99 be
       0.2613354 0.9061572 3.3449543 -0.3006716
0000f0 a2 52 87 3e 61 37 bb bf 60 22 aa 3f db c6 86 3f
       0.2643023 -1.4626275 1.329174 1.0529436

bn2.running_var f4 [64]
000000 0e 5a e7 40 32 d4 3e 40 63 5a 84 40 43 db b8 40
       7.229743 2.9817014 4.1360335 5.7767653
000010 48 40 25 40 99 a8 81 40 b0 3c 85 40 18 f8 21 40
       2.5820484 4.051831 4.163658 2.5307674
000020 7e 9b ee 3f fe 46 00 40 c7 ce 88 3f a7 67 73 40
       1.8641202 2.004333 1.0688103 3.8032014
000030 57 79 72 40 22 2e 8c 40 e4 80 61 40 d8 30 d9 3f
       3.788656 4.3806314 3.5234919 1.6968031
000040 ef 69 80 40 48 14 9a 40 b0 ef 82 40 fc e1 69 40
       4.0129313 4.8149757 4.0917587 3.654418
000050 ed 03 a4 40 0b e1 b6 3f 80 be f1 40 48 27 72 40
       5.125479 1.4287428 7.5545044 3.7836475
000060 54 ab e7 3f 40 45 df 40 22 a5 4a 40 00 f0 d7 3f
       1.809916 6.9772034 3.166329 1.6870117
000070 54 b3 9d 40 14 d6 95 40 67 6d 6f 40 41 96 c7 40
       4.9281406 4.6823826 3.7410524 6.2370915
000080 c4 21 9f 40 ba 8e 01 40 f9 6d ed 3f 0c 76 fe 3f
       4.972872 2.0243363 1.8549186 1.9879775
000090 f3 6b 2f 40 7e 29 f8 3f 1f a8 12 40 58 88 35 40
       2.7409637 1.9387662 2.2915113 2.8364468
0000a0 63 ed 18 40 45 df 0a 40 a6 36 48 40 73 05 36 40
       2.389489 2.1698773 3.1283355 2.8440826
0000b0 4f 41 aa 40 31 e7 76 40 62 60 ad 40 4c 17 1a 40
       5.3204722 3.8578608 5.4180155 2.407672
0000c0 e1 2b 80 40 ad ab 60 40 7c 06 22 40 ac eb 01 40
       4.0053563 3.5104783 2.5316458 2.0300093
0000d0 0b 75 56 40 8d 86 d2 3f 40 9b d8 40 dd 65 06 40
       3.3508937 1.6447312 6.7689514 2.0999672
0000e0 03 b8 0d 40 20 43 8b 40 97 86 e2 40 c9 10 1a 40
       2.2143562 4.351944 7.0789294 2.4072745
0000f0 32 3f 4c 40 11 f9 08 40 29 53 53 40 15 b7 2e 40
       3.1913571 2.1402018 3.3019507 2.7299244

bn3.weight f4 [64]
000000 2e b2 85 3f 14 60 85 3f 72 a8 85 3f 9b 9b 85 3f
       1.0445001 1.0419946 1.044203 1.0438112
000010 ea ae 85 3f ef 7e 85 3f 42 20 85 3f 10 84 85 3f
       1.0444005 1.0429362 1.0400469 1.0430927
000020 24 55 85 3f a8 7d 85 3f 8b 72 85 3f 94 74 85 3f
       1.0416608 1.0428972 1.0425581 1.0426202
000030 ef a5 85 3f 90 5a 85 3f db 28 85 3f f7 4f 85 3f
       1.0441264 1.0418262 1.0403093 1.0415028
000040 a6 64 85 3f 8c 71 85 3f d8 96 85 3f de 7e 85 3f
       1.042134 1.0425277 1.0436659 1.0429342
000050 08 62 85 3f 2a b0 85 3f cd 48 85 3f 33 41 85 3f
       1.0420542 1.0444386 1.0412842 1.0410522
000060 e4 c4 85 3f 99 35 85 3f 6f b0 85 3f 9e 99 85 3f
       1.0450711 1.0406982 1.0444468 1.0437505
000070 ff 90 85 3f 68 4f 85 3f 5e 69 85 3f 04 5a 85 3f
       1.0434874 1.0414858 1.042278 1.0418096
000080 48 7f 85 3f 49 74 85 3f 4b 76 85 3f c1 85 85 3f
       1.0429468 1.0426112 1.0426725 1.0431443
000090 00 9a 85 3f 4e ab 85 3f 06 a6 85 3f e1 1a 85 3f
       1.0437622 1.0442903 1.0441291 1.0398828
0000a0 ce 9d 85 3f 73 7a 85 3f 41 4e 85 3f 38 5c 85 3f
       1.0438783 1.0427994 1.0414506 1.0418768
0000b0 91 a6 85 3f 00 87 85 3f b2 8d 85 3f d7 98 85 3f
       1.0441457 1.0431824 1.0433867 1.0437268
0000c0 7a 42 85 3f 28 81 85 3f c3 53 85 3f 7e 4c 85 3f
       1.0410912 1.043004 1.0416187 1.0413969
0000d0 12 2d 85 3f f5 3f 85 3f fc 93 85 3f 0d a9 85 3f
       1.0404379 1.0410143 1.0435786 1.0442215
0000e0 66 b8 85 3f 1c b4 85 3f b2 9f 85 3f 46 65 85 3f
       1.0446899 1.044559 1.043936 1.0421531
0000f0 04 a2 85 3f 82 a8 85 3f 0c 6f 85 3f 33 a7 85 3f
       1.0440068 1.044205 1.0424514 1.044165

bn3.bias f4 [64]
000000 db 00 36 3d 7e 6a 1a 3d 92 8c 2b 3d 21 7a 2a 3d
       0.04443441 0.037699215 0.041882105 0.041620377
000010 d3 4f 2e 3d ee a2 2d 3d a2 c7 25 3d c9 d4 36 3d
       0.042556595 0.04239171 0.040473588 0.04463652
000020 ce 8e 1f 3d df b0 32 3d 7a 35 35 3d 5c 5e 26 3d
       0.03895455 0.04362571 0.044240452 0.04061733
000030 c4 af 2e 3d 25 69 33 3d 0b d2 30 3d 90 15 20 3d
       0.042648092 0.043801446 0.043169063 0.039083064
000040 97 23 2d 3d d5 e6 2f 3d 3d de 37 3d 77 bb 31 3d
       0.04227027 0.042944748 0.044889677 0.04339167
000050 23 72 31 3d a6 9b 26 3d 98 69 29 3d 22 bd 23 3d
       0.04332174 0.04067578 0.041360468 0.039975293
000060 5a 31 2c 3d be 76 2e 3d e7 b1 35 3d 45 71 2b 3d
       0.042039253 0.04259371 0.044359114 0.04185607
000070 9c 43 14 3d 71 0d 2d 3d 7a a3 0f 3d 20 07 33 3d
       0.03619729 0.042249147 0.035068013 0.043707967
000080 d6 3b 38 3d f8 04 2f 3d 22 4e 18 3d b4 06 33 3d
       0.04497894 0.042729348 0.03718389 0.043707564
000090 2e c3 32 3d 0a 83 14 3d a7 c6 32 3d 69 4d 28 3d
       0.04364317 0.03625778 0.04364648 0.04108945
0000a0 b2 3e 30 3d bf 5f 30 3d a7 65 26 3d 48 0a 18 3d
       0.04302854 0.04306006 0.040624287 0.03711918
0000b0 95 be 24 3d 17 11 34 3d aa 44 2e 3d 40 18 30 3d
       0.040220816 0.04396161 0.042545952 0.042991877
0000c0 a5 3d 1e 3d 73 d9 38 3d 4a d5 1a 3d 66 19 28 3d
       0.038633008 0.04512925 0.037801065 0.041039847
0000d0 17 7f 2c 3d 48 be 21 3d eb 78 2d 3d 1e 12 32 3d
       0.04211339 0.039488107 0.042351644 0.04347431
0000e0 64 b9 2d 3d aa c5 1f 3d 68 bd 25 3d b0 b7 29 3d
       0.04241313 0.039006867 0.040463835 0.041434944
0000f0 ea 1a 39 3d 16 6c 23 3d a7 94 37 3d bd 49 28 3d
       0.045191683 0.039898 0.0448195 0.041085947

bn3.running_mean f4 [64]
000000 51 59 86 3f 0f a8 ee 3f 51 26 73 bf b4 f4 0e 3f
       1.0496007 1.8645037 -0.9498034 0.5584214
000010 2b 88 40 3e 9e 37 c6 bf 2e 68 c2 3f 14 c4 ca 3f
       0.18801944 -1.5485723 1.5188043 1.5841088
000020 6c 17 bf 3f 54 4c b8 3f 34 32 a5 3e 7c 70 db 3f
       1.4929023 1.4398293 0.32264864 1.7143703
000030 1a 8b b1 3f ef 38 5f bf ea 31 d9 3f a8 4f d3 3f
       1.3870575 -0.8719625 1.6968358 1.6508684
000040 8b c2 99 be c3 45 02 3d a8 0b 49 3d 9d 0b 7c 3f
       -0.30031237 0.03180481 0.049083382 0.9845522
000050 ae 60 08 40 b2 5f bb be 3e 6b e1 bf 95 c6 9b 3f
       2.1309009 -0.36596447 -1.7610853 1.2169977
000060 50 ec 92 3f b1 15 11 3d 47 3d e1 bf 3c 69 95 3f
       1.1478367 0.035421077 -1.7596825 1.167274
000070 1a 15 37 40 5b 3b 12 40 36 60 e5 bf ce c5 a3 3f
       2.860663 2.2848728 -1.7919986 1.279474
000080 7d a2 99 3f c7 e5 ae 3f 36 fb c3 3f 0a c1 9a 3d
       1.2002712 1.3663872 1.5311038 0.075563505
000090 b9 d8 51 bf 38 15 da be 28 41 9d 3f e1 ac 10 3f
       -0.8197132 -0.42594314 1.2285509 0.5651379
0000a0 6c 4e 94 3f cc 16 51 3f f8 23 19 40 9e 9e 84 3f
       1.1586432 0.8167541 2.3928204 1.0360906
0000b0 13 ac b6 3f 7f e4 3a bf 53 aa e9 bf 3f f9 de 3f
       1.4271263 -0.7300491 -1.8255104 1.7419814
0000c0 bd 48 0d 40 8f 20 5c be b8 6b e4 3f e5 54 0b bf
       2.2075646 -0.21496795 1.7845373 -0.54426414
0000d0 6e 54 81 3f f1 02 31 40 82 e7 2f 3f e5 85 2d 3f
       1.0103891 2.7658045 0.6871263 0.6778243
0000e0 fb 2f 00 3f 21 4d c1 3f 9e 93 53 3f da c2 03 40
       0.5007321 1.5101663 0.8264712 2.0587678
0000f0 38 85 09 40 5b 66 bd bc 06 6a 8d 3f a3 8f 1d bf
       2.148756 -0.023120096 1.1047981 -0.615473

bn3.running_var f4 [64]
000000 4f 4b 52 3f 46 c0 89 3f 40 9b 72 3f 06 a9 99 3f
       0.8214616 1.0761802 0.9476814 1.2004707
000010 74 62 68 3f 26 e8 23 40 a6 f2 ac 3f 93 5a be 3f
       0.9077523 2.5610442 1.351155 1.4871391
000020 f0 88 9e 3f 37 bf 71 3f 29 5f 92 3f 23 ad b6 3f
       1.238554 0.94432396 1.143529 1.4271587
000030 29 8d 81 3f 7f 5f 77 3f 9b 51 b8 3f a1 ce e4 3f
       1.0121204 0.9663009 1.4399904 1.7875558
000040 0f 75 d7 3f d0 db 2a 3f 9e c8 90 3f a8 36 a5 3f
       1.6832598 0.6674166 1.1311224 1.2907305
000050 0d 75 a9 3f ca e0 9e 3f 40 d5 d7 3f b7 1b 1c 3f
       1.3238846 1.241235 1.6861954 0.6097979
000060 a5 38 ae 3f f8 12 92 3f 02 e0 a5 3f 2a 41 a9 3f
       1.3611037 1.1412039 1.2958987 1.3223011
000070 a0 09 0e 40 b6 f8 d6 3f f8 7a 31 40 ab 68 aa 3f
       2.2193375 1.679465 2.7731304 1.3313192
000080 42 73 eb 3f 95 2c 36 3f a8 d5 a6 3f e9 44 5a 3f
       1.8394549 0.71161777 1.3033953 0.852614
000090 13 4f 5a 3f 6c da 94 3f d0 bb 2e 3f 70 e4 83 3f
       0.8527691 1.1629157 0.6825533 1.0304089
0000a0 76 61 1f 3f ab 36 09 3f cb 8e aa 3f 98 a4 96 3f
       0.6225809 0.5359904 1.3324827 1.176898
0000b0 d4 47 98 3f 7a dc 3a 3f 04 b1 1c 3f bf b0 aa 3f
       1.189692 0.7299267 0.61207604 1.3335189
0000c0 39 50 30 40 53 13 8b 3f b7 92 88 3f b3 87 03 3f
       2.7548964 1.0865272 1.0669774 0.51378936
0000d0 68 82 05 40 59 36 a6 3f 27 8f ca 3f 6b f6 2b 3f
       2.0860844 1.2985336 1.5824937 0.6717288
0000e0 7e 73 9c 3f 5a 37 9b 3f 6a 47 d1 3f 40 26 e5 3f
       1.2222745 1.2126267 1.6349919 1.7902298
0000f0 93 4c dc 3f df 7f ee 3e 85 77 82 3f 39 bc 74 3f
       1.7210869 0.46581933 1.0192724 0.95599705
