maml-notebook/model/model-epoch_00012-train_loss_0.168-train_acc_0.794-test_loss_0.657-test_acc_0.806.pt (torch_old, 305688 bytes, 20 tensors)

conv1.weight f4 [64, 1, 3, 3]
0	0x3d0cb84f	0.034355458
1	0x3dfab79c	0.12242052
2	0xbd02900d	-0.03187566
3	0xbc786944	-0.015161816
4	0x3d8ff615	0.07029358
5	0x3d206320	0.039157033
6	0xbd0d80c1	-0.034546617
7	0x3c6b99c0	0.014379919
8	0x3c4b4e7c	0.012408849
9	0xbaf33cbf	-0.0018557532
10	0xbe0406c9	-0.12893213
11	0xbc042d34	-0.008067418
12	0x3d16a62a	0.03677956
13	0x3d80bc79	0.06285948
14	0xbd2df6a8	-0.042471558
15	0x3c1d28ef	0.009592279
16	0x3d383249	0.04496983
17	0x3dba875c	0.09107849
18	0xbc1d3e2d	-0.009597343
19	0xbcefbcf9	-0.029264914
20	0xbd8c70a2	-0.068574205
21	0xbc82cfe3	-0.015968269
22	0x3d34a989	0.044106994
23	0xbdc4afee	-0.096038684
24	0xbd48ed76	-0.049054585
25	0x3cdf8ebd	0.027289743
26	0xbc9cfdba	-0.019163955
27	0xbe182e5f	-0.14861439
28	0x3d37f81e	0.044914357
29	0xbd9db9e4	-0.077014714
30	0x3c7cbe17	0.01542618
31	0x3de0c8e4	0.10975817
32	0xbd1f5abc	-0.03890489
33	0x3d17749f	0.036976453
34	0x3d82bf30	0.06384122
35	0xbce36d1b	-0.027761986
36	0xbc1dbcb7	-0.009627513
37	0x3d8a7456	0.067604706
38	0xbd16004f	-0.036621388
39	0x3caa076c	0.020755492
40	0xbc96218c	-0.018326543
41	0xbd3fe72c	-0.046851322
42	0x3d6d65b4	0.05795832
43	0x3ce737e5	0.028224895
44	0xbd5a19c4	-0.05324723
45	0x3aad46f0	0.0013219994
46	0xbd9640d0	-0.07336581
47	0xbcacfb7d	-0.021116013
48	0xbdf7713b	-0.12082144
49	0xbd79c6ba	-0.060980536
50	0xbc36f0a0	-0.011165768
51	0x3d264b3e	0.0405991
52	0xbc190f2a	-0.009341994
53	0x3ce1f091	0.027580531
54	0xbd89532d	-0.06705318
55	0xba860904	-0.0010226076
56	0xbdbc0b51	-0.09181846
57	0x3c9c5f77	0.01908849
58	0xbd7dd0fa	-0.061966874
59	0x3e0c2fc1	0.13690092
60	0xbc66332d	-0.014050287
61	0x3cd1db45	0.025617251
62	0xbde6ced4	-0.11269918
63	0xbd575d75	-0.052579362
64	0xbcdcfdd2	-0.0269765
65	0xbcf8af8d	-0.030357147
66	0xbba947ef	-0.005166046
67	0xbcea6e26	-0.028616976
68	0x3dca73d1	0.098853715
69	0x3d8de31b	0.069280826
70	0x3db53ed6	0.08849876
71	0xb9492731	-0.00019183454
72	0x3c23e3a8	0.010003008
73	0xbd2219ea	-0.039575495
74	0x3ca3be9f	0.019988356
75	0x3d64ff0f	0.055907305
76	0xbcfa9137	-0.030586822
77	0x3db50c10	0.08840191
78	0xbc81c19f	-0.015839396
79	0x3d327a0b	0.04357342
80	0xbd4637ff	-0.048393246
81	0x3d80ede2	0.062953725
82	0xbd8029ee	-0.062579975
83	0x3d00ede5	0.031476874
84	0x3ddd6556	0.10810344
85	0x3c98286f	0.018573968
86	0x3e17ed5f	0.14836644
87	0xbbe13ecc	-0.006873941
88	0xbd32f245	-0.043688077
89	0x3d21654e	0.039403252
90	0xbcdc916a	-0.026924808
91	0xbd05a452	-0.03262741
92	0x3a843473	0.0010086432
93	0x3cfe2cbb	0.031027189
94	0x3dbb1ac1	0.09135962
95	0x3cc58f23	0.024116104
96	0x3c412464	0.011788461
97	0xbcf72151	-0.030167254
98	0xbc6bbc42	-0.014388146
99	0xbb0785c1	-0.0020679089
100	0x3d04a865	0.032387156
101	0x3d047b0f	0.03234392
102	0x3d0733b1	0.03300828
103	0xbd4f03d8	-0.050540775
104	0x3d3ce3f7	0.04611584
105	0x3c9ff2b1	0.019524904
106	0x3d9c041a	0.0761797
107	0xbd0bae20	-0.034101605
108	0x3c70bead	0.014693898
109	0xbccd2439	-0.025041686
110	0x3c1ec3ec	0.009690266
111	0xbda5c25e	-0.08093713
112	0xbc941a9f	-0.0180791
113	0xbc289b7f	-0.010290979
114	0xbc781679	-0.015142077
115	0x3d28cec4	0.041212812
116	0xbd2d083e	-0.04224419
117	0x3c7343e3	0.014847728
118	0x3d065238	0.032793254
119	0xbba3bc2a	-0.004996796
120	0x3b85f3de	0.004087909
121	0xbc7af110	-0.015316263
122	0x3d8ee733	0.069776915
123	0xbaaaef04	-0.0013041203
124	0xbdc34815	-0.09535233
125	0xbd5f38d4	-0.054497555
126	0x3d7275b1	0.05919427
127	0x3cc162d1	0.02360669
128	0x39b088df	0.00033671313
129	0xbcef73ab	-0.02922996
130	0xbda7a19d	-0.08185122
131	0x3d195835	0.037437636
132	0xbcc3b41b	-0.023889592
133	0xbd8df2b0	-0.069310546
134	0xbd9eb647	-0.077496104
135	0x3dd6734d	0.10471211
136	0xbe1d6918	-0.15372121
137	0xbcda2477	-0.026628716
138	0x3d57580f	0.052574214
139	0x3d2cca8c	0.04218535
140	0x3cf794af	0.030222265
141	0xbc4a7350	-0.012356594
142	0xbbf6a0dc	-0.0075265
143	0x3d4f8729	0.05066601
144	0x3ba312e0	0.0049766153
145	0xbddd53ee	-0.10807024
146	0xbd1e0702	-0.038580902
147	0x3bddd2b8	0.0067695044
148	0x3c93e537	0.018053634
149	0xbcaae8b2	-0.02086291
150	0x3d3c153d	0.045918692
151	0xbdfdede9	-0.123988934
152	0xbb1bda9d	-0.0023781427
153	0x3df434fc	0.119241685
154	0x3dbddbbc	0.09270427
155	0x3d200689	0.039068732
156	0xbd6053af	-0.054767307
157	0x3c0c476f	0.008561953
158	0x3ce52d39	0.027975665
159	0x3b008d7c	0.0019615581
160	0x3c6b3e34	0.014358092
161	0xbb0f57c7	-0.0021872388
162	0xbd097a7a	-0.03356407
163	0xbd9cce0b	-0.07656487
164	0xbd7e452f	-0.062077697
165	0xbd5bba4c	-0.053644463
166	0x3d5d465d	0.05402218
167	0xbbf70bd4	-0.007539252
168	0x3d55f600	0.052236557
169	0x3d65da1a	0.0561162
170	0x3d97470a	0.073865965
171	0xbde9638e	-0.11395942
172	0x3baeddef	0.005336515
173	0x3ce407a4	0.027835675
174	0x3cb3ae25	0.021933625
175	0x3c4383f5	0.0119333165
176	0xbd0b6968	-0.03403607
177	0x3c13c098	0.009018086
178	0x3c411f64	0.011787269
179	0xbccf46eb	-0.025302371
180	0x3d7064cf	0.05868989
181	0x3d6cd985	0.05782463
182	0x3d05e963	0.032693278
183	0x3d1442e7	0.036196616
184	0xbe25d5a0	-0.16194773
185	0xbd2fe51d	-0.04294311
186	0x3d8748c2	0.06605674
187	0xbca8473a	-0.020541776
188	0xbd31f795	-0.043449003
189	0xbc91cd3b	-0.017798057
190	0x3b45fe4b	0.0030211385
191	0x3e077842	0.13229468
192	0xbde87db1	-0.11352099
193	0x3ce9851a	0.02850585
194	0x3dad0f43	0.084501766
195	0xbdcf3f5c	-0.10119507
196	0x3d925aa6	0.07146196
197	0x3cbd8565	0.023134897
198	0x3c9e89ca	0.019352812
199	0x3c812696	0.01576547
200	0xbd8cf82b	-0.06883272
201	0x3cf7db77	0.030256016
202	0x3dcbd5a9	0.09952862
203	0x3de05f1a	0.10955639
204	0xbd50a4b2	-0.050938316
205	0xbc124705	-0.008928065
206	0xbc8e504e	-0.017372277
207	0x3cc0c717	0.023532433
208	0xbb99f29e	-0.0046981117
209	0xbd35fcb5	-0.044430453
210	0x3b7798ec	0.0037780358
211	0x3d451bc9	0.0481222
212	0xbbd63e25	-0.00653817
213	0x3c4b5dff	0.012412547
214	0x3d03c303	0.0321684
215	0xbdce4fd7	-0.10073822
216	0xbcf13ee0	-0.029448926
217	0xbdd2c589	-0.10291583
218	0xbda37db8	-0.07982963
219	0xbc82f27b	-0.015984764
220	0x3d2283fe	0.03967666
221	0xbc6b6627	-0.014367617
222	0x3d264a06	0.040597938
223	0x3c8be97b	0.017079106
224	0x3d6ff43f	0.05858254
225	0xbd449870	-0.04799694
226	0x3da23093	0.07919421
227	0x3b722653	0.0036949113
228	0x3d155661	0.03645933
229	0xbd406e8a	-0.04698042
230	0x3d6c160c	0.057638213
231	0x3d61c5e5	0.055120368
232	0x3ce7a937	0.02827893
233	0xbd845787	-0.06462007
234	0xbb060446	-0.0020449325
235	0xbc6ad0f9	-0.0143320495
236	0xbaec071b	-0.0018007489
237	0xbdabe9a0	-0.0839417
238	0x3ce987ef	0.028507201
239	0x3c730bb3	0.014834332
240	0xbd9a28f5	-0.07527343
241	0x3bbdcbc6	0.005792114
242	0x3d11f8b2	0.035637565
243	0xbcb82f5d	-0.022483522
244	0x3c3276fc	0.010892626
245	0x3dc0857e	0.094004616
246	0x3dc10cbc	0.09426257
247	0x3c28bda9	0.010299125
248	0xbb187e33	-0.002326858
249	0xbd8c2e49	-0.06844766
250	0xbc63ee4d	-0.013911796
251	0xbdab8738	-0.083754
252	0x3dc1522c	0.09439501
253	0x3cf50398	0.02990894
254	0xbda37272	-0.07980813
255	0xbd363604	-0.044485107

conv1.bias f4 [64]
0	0x3b8fa4db	0.004383666
1	0x3b210b15	0.0024573256
2	0xb9cd981f	-0.00039213986
3	0x3a4a49a0	0.00077166595
4	0xbb08f212	-0.0020896238
5	0x3b18f614	0.0023340033
6	0x39fc097e	0.00048072258
7	0x3bc2bd3a	0.0059429677
8	0x3bb26948	0.0054446794
9	0x3c185656	0.009297928
10	0xbb8fbe96	-0.0043867333
11	0xba14940e	-0.0005667814
12	0xbb907835	-0.004408861
13	0xbb1cf062	-0.002394699
14	0xbb5ce7c6	-0.0033707484
15	0x39b28704	0.000340514
16	0x3abff950	0.0014646444
17	0x37ae1170	2.0750536e-05
18	0x3bd4c874	0.0064936224
19	0x3b9a1dac	0.004703244
20	0x3b844eda	0.00403772
21	0x3aa400be	0.0012512428
22	0xbbb216c4	-0.005434843
23	0x390cd964	0.00013432425
24	0x3bd8bc02	0.006614209
25	0x3b85a7df	0.0040788497
26	0xbbee5174	-0.0072728936
27	0x38fb440a	0.00011981286
28	0xbae9f8b7	-0.0017850612
29	0x3b1a9062	0.0023584594
30	0x3a7b8007	0.00095939677
31	0x3b1ba855	0.0023751457
32	0x3bdbf541	0.006712586
33	0xbbd49b1d	-0.0064882175
34	0x3b9f5536	0.004862453
35	0xba6a452d	-0.00089366996
36	0xbbae02fd	-0.005310415
37	0xbbbda866	-0.005787897
38	0xbb0cec95	-0.0021503319
39	0xbba3e33f	-0.005001455
40	0x3baa9326	0.0052055297
41	0xbb31f981	-0.0027156773
42	0x3be00414	0.0068364237
43	0xbb4c51b3	-0.0031176626
44	0x3b3b9661	0.0028623568
45	0x3b214d70	0.0024612807
46	0xbbce73ae	-0.006300411
47	0xba5c1366	-0.00083952246
48	0x3b862b18	0.0040944926
49	0x3ac54bab	0.0015052458
50	0xbb080b38	-0.002075864
51	0x3b6d8e0e	0.0036248001
52	0x3b35d452	0.002774496
53	0xbb7bff98	-0.0038451906
54	0xbb63fbe8	-0.00347876
55	0x3b5f3c24	0.0034062946
56	0x3b386c01	0.0028140547
57	0xbaba7e1f	-0.0014228261
58	0x3ba7d1f3	0.0051214634
59	0x3b834bf8	0.004006859
60	0xba09a3f9	-0.0005250569
61	0x3bf2eacc	0.007413244
62	0xbbe6610b	-0.0070306114
63	0xbbe23dde	-0.006904348

conv2.weight f4 [64, 64, 3, 3]
0	0xbd53f6ab	-0.051748913
1	0xbd2eef21	-0.04270852
2	0x3b90908f	0.004411764
3	0x3d44747a	0.047962643
4	0xbd3e9c75	-0.046535928
5	0xbdad26c8	-0.084546626
6	0x3da694d2	0.08133854
7	0xbd1a8a9f	-0.037729856
8	0x3d794296	0.060854517
9	0xbaac795c	-0.0013158727
10	0xbd3f2245	-0.04666354
11	0xbd9aaaa0	-0.075520754
12	0x3bb23a17	0.0054390538
13	0xbcdc034a	-0.026857037
14	0xbc6374ba	-0.01388281
15	0xbd9a1a50	-0.0752455
16	0xbcfe471e	-0.03103977
17	0x3daf22de	0.08551572
18	0x3c0edafc	0.008719202
19	0xbda617bd	-0.081099965
20	0xbd1fe4d7	-0.039036598
21	0xba9c1d3e	-0.001191057
22	0xbd121ec5	-0.035673875
23	0xbd6bb040	-0.057541132
24	0xbc71b459	-0.014752471
25	0xbd4c8220	-0.049928784
26	0x3cf2a555	0.029619852
27	0xbd6ac198	-0.05731353
28	0x3c96c2c1	0.018403413
29	0xbd25fde6	-0.04052534
30	0x3a8d0706	0.001075954
31	0x3c45f1d2	0.01208158
32	0x3b22ae1b	0.0024823013
33	0xbc10014b	-0.008789371
34	0xbc5d3985	-0.013502483
35	0x3d38e08e	0.045136027
36	0xbd874ea7	-0.066067986
37	0xbd985a3e	-0.07439087
38	0xbd7a6289	-0.061129127
39	0xbc0d6721	-0.008630545
40	0xbd53fa51	-0.051752392
41	0xbdaca038	-0.08428997
42	0x3c838a4b	0.016057154
43	0x3b8d9cba	0.004321662
44	0x3d54445e	0.051823013
45	0xbc9ccfaa	-0.01914199
46	0xbc91f76a	-0.017818172
47	0x3d65f541	0.056142095
48	0xbd0e1b7d	-0.034694184
49	0xbc10ad19	-0.008830332
50	0xbd181147	-0.037125852
51	0xbca7ad2d	-0.020468319
52	0xbcb86fff	-0.022514341
53	0xbd0d8a64	-0.034555808
54	0xbc86c8d4	-0.016453184
55	0xbd28a84f	-0.041176137
56	0x3d3f38f6	0.04668518
57	0xba9f748c	-0.0012165471
58	0x3cbf4cd7	0.02335207
59	0xbd0e6f98	-0.034774393
60	0xbc7fdec6	-0.015617078
61	0x3d38187f	0.044945236
62	0xbaca9cf8	-0.0015458157
63	0x3cdb7250	0.026787907
64	0x3ca4fa92	0.020139012
65	0xbce0cd71	-0.027441712
66	0xbcfde45d	-0.030992681
67	0xbbb9a5c4	-0.0056655128
68	0x3d1aba66	0.03777542
69	0x3d64599e	0.055749528
70	0xbd6d7532	-0.057973094
71	0x3b07e4b8	0.0020735692
72	0xbd3360da	-0.043793537
73	0xbd3d0461	-0.046146754
74	0x3d84fddc	0.06493732
75	0x3dda0b4b	0.10646685
76	0xbd0d564d	-0.03450613
77	0xbcae20c6	-0.021255862
78	0x3d6316e1	0.05544174
79	0x3c950fe9	0.018196063
80	0x3a3e8658	0.00072679436
81	0x3c96d231	0.018410774
82	0x3d4081d5	0.046998817
83	0x3b495371	0.00307199
84	0xbd1d3e77	-0.03838965
85	0x3cbed097	0.023292823
86	0x3cb9e2c2	0.022691134
87	0xbd077c52	-0.033077545
88	0x3c4c48d9	0.01246854
89	0xbc8128dc	-0.015766554
90	0x3cb5f7d7	0.022212906
91	0xbde5f750	-0.11228812
92	0xbca639da	-0.020291258
93	0xbd16eafb	-0.03684519
94	0xbc81acbe	-0.01582944
95	0x3cbd475e	0.02310532
96	0x3c7ebd57	0.015548072
97	0x3bdee83e	0.006802588
98	0x3ca81f72	0.020522807
99	0xbd848b18	-0.064718425
100	0xbcc9faf9	-0.024655806
101	0xbd6d1e5e	-0.05789029
102	0x3d3a2c5f	0.04545247
103	0xbca947be	-0.020664092
104	0x3c68fd42	0.014220538
105	0xbd005404	-0.031330124
106	0x3d82c01c	0.06384298
107	0x3c674a4f	0.014116838
108	0x3db63cd1	0.088983186
109	0xbd96aaa3	-0.07356765
110	0xbc7e9f46	-0.015540903
111	0x3d94700d	0.072479345
112	0xbda0a426	-0.07843809
113	0xbc041c50	-0.008063391
114	0xbd6f8be7	-0.05848303
115	0xbb7e0c91	-0.0038764814
116	0xbc802f80	-0.01564765
117	0x3b674663	0.0035289756
118	0x3d5fee7d	0.0546708
119	0xbcba5344	-0.022744782
120	0x3d62587e	0.055260174
121	0xbb24a6d3	-0.002512385
122	0x3da1e6ca	0.07905348
123	0x3d1fea7c	0.03904198
124	0xbd3d8e83	-0.046278488
125	0xbcf03f56	-0.029327076
126	0x3c6f0bbc	0.0145902
127	0xbd50a80a	-0.050941505
128	0xbc8cc388	-0.01718308
129	0x3d3460d3	0.04403765
130	0x3c6ccccc	0.014453124
131	0xbda952c4	-0.082677394
132	0xbdb97e05	-0.090572394
133	0xbb9fd74d	-0.004877961
134	0xbd83c7b8	-0.06434578
135	0x3d1b0010	0.037841856
136	0xbdaa8f20	-0.0832808
137	0x3b94a5de	0.0045363745
138	0xbd590936	-0.0529873
139	0xbcdfe927	-0.027332855
140	0xbd3d6724	-0.04624094
141	0xbd08a2b4	-0.03335829
142	0xbcadda76	-0.021222334
143	0x3c8b69f4	0.017018296
144	0x3cab671f	0.020923195
145	0xbc8e5ca3	-0.017378157
146	0xbd9ec42a	-0.07752259
147	0x3b395439	0.002827896
148	0xbe1740fe	-0.14770886
149	0xbe1770c0	-0.14789104
150	0x3ce71785	0.028209457
151	0xbd47a7d1	-0.048744027
152	0xbd468fd6	-0.048477016
153	0xbccde436	-0.025133234
154	0x3c987576	0.018610697
155	0xbd908eac	-0.070584625
156	0xbd98a8c3	-0.07454064
157	0x3ca9e81b	0.02074056
158	0xbc9bd68a	-0.019023199
159	0x3d01fe9b	0.03173695
160	0x3da1362a	0.07871659
161	0xbcc9b5de	-0.024622854
162	0xbc9f6c8d	-0.01946094
163	0xbb810372	-0.0039371783
164	0x3cf55efa	0.029952515
165	0x3c3136f5	0.010816325
166	0x3cffe736	0.03123818
167	0x3d8277cf	0.06370508
168	0xbc8cfa92	-0.017209325
169	0x3d09c857	0.033638325
170	0xbdda14e2	-0.10648514
171	0xbd8b3e78	-0.06799024
172	0xbcffdd64	-0.031233497
173	0xba2c1286	-0.00065640395
174	0x3d9dec3a	0.07711072
175	0xbd875f70	-0.0661
176	0xbd0ce0f8	-0.034394234
177	0xbd2b47e9	-0.041816626
178	0x39cae9c1	0.00038702603
179	0xbd5896ab	-0.052878063
180	0x3d8faf87	0.07015901
181	0xbcf52ba8	-0.029928043
182	0xbd190cbd	-0.037365664
183	0x3b92bf49	0.0044783694
184	0x3c2bb79b	0.010480787
185	0x3d230144	0.03979613
186	0xbd98de9d	-0.07464335
187	0xbd2fff96	-0.042968355
188	0x3cbe95cf	0.023264794
189	0x3cb488fa	0.022037972
190	0xbd1e7c1a	-0.03869257
191	0xbd3d91a9	-0.04628149
192	0xbc6bb571	-0.014386521
193	0xbc61bb6b	-0.013777594
194	0x3d8e4417	0.06946581
195	0xbd03225c	-0.03201519
196	0xbd584eea	-0.052809633
197	0xbd0902a9	-0.033449803
198	0xbc9c55fe	-0.019083973
199	0x3bfd82d0	0.0077365413
200	0xbc7e7051	-0.015529708
201	0xbd6a5369	-0.057208452
202	0x3d5da533	0.054112624
203	0xbcb1fe52	-0.021727715
204	0x3daa8cb1	0.08327616
205	0xbda31a3a	-0.07963987
206	0xbd1c5e1d	-0.03817569
207	0xbbd12854	-0.0063829813
208	0xbcb1442e	-0.021638956
209	0xbb8cdb5b	-0.00429861
210	0x3c0cbcfb	0.008589978
211	0x3b8dea0b	0.0043308786
212	0x3c8091f2	0.015694592
213	0x3caa7153	0.02080599
214	0x3cc2ac89	0.023763912
215	0xbc8f6f79	-0.017509209
216	0x3c1c5b1e	0.009543208
217	0xbcc115a0	-0.023569882
218	0xbb6ac237	-0.0035821327
219	0xba026b5f	-0.0004975106
220	0x3c52232f	0.012825771
221	0xbd04ddef	-0.032438215
222	0xbd22628c	-0.039644763
223	0xbbdd8c0d	-0.00676108
224	0xbd05b173	-0.032639932
225	0xbddb4ffa	-0.10708614
226	0xbd8391d6	-0.064243004
227	0x3c374e48	0.011188097
228	0xbb36d098	-0.0027895328
229	0x3cc8d76d	0.024516786
230	0xbd3d918a	-0.046281375
231	0x3cc12256	0.023575943
232	0x3c97adc3	0.018515473
233	0x3d3901b2	0.045167632
234	0xbc94878f	-0.018131046
235	0x3cdfed39	0.027334796
236	0xbb6e2db5	-0.0036343161
237	0xbc951440	-0.018198133
238	0x3b2b0f64	0.0026101703
239	0xbbf040b2	-0.007331931
240	0x3d314d9e	0.043286912
241	0x3d68324f	0.056688603
242	0xbd026dce	-0.031843
243	0x3d850978	0.06495947
244	0xbbf16c83	-0.007367672
245	0xbd32f742	-0.043692835
246	0x3d8d1e88	0.06890589
247	0x3ba84055	0.005134622
248	0xbdc93bb9	-0.09825844
249	0x3c817324	0.015801974
250	0xbc80319c	-0.015648656
251	0x3d69e45c	0.057102546
252	0xbbb58095	-0.00553901
253	0xbbd26c14	-0.0064215753
254	0xbc5525c3	-0.013009491
255	0x3bc8f9b6	0.0061332835

conv2.bias f4 [64]
0	0x3b1c5940	0.0023856908
1	0xba04f8d7	-0.00050724804
2	0x3ae88c2c	0.001774197
3	0xb9b41510	-0.00034347968
4	0x3b8979ec	0.0041954424
5	0xbb37eeca	-0.0028065913
6	0x3b299cc5	0.0025880795
7	0xbad4a429	-0.001622324
8	0xbb10f647	-0.002211945
9	0xba07403b	-0.00051594124
10	0xbb6c47f4	-0.003605363
11	0xb9a244c8	-0.00030950294
12	0x3af4b1f9	0.0018668763
13	0x3b0bb20e	0.0021315846
14	0x3abe46c2	0.0014516937
15	0x3af83a18	0.0018938212
16	0xbb14eedb	-0.0022725377
17	0xba19af22	-0.00058625836
18	0xbb000d57	-0.0019539201
19	0xbbb3624a	-0.0054743635
20	0xbb468f3d	-0.003029778
21	0xbb56294d	-0.0032678426
22	0xba913d30	-0.0011080857
23	0xbab2d6ba	-0.0013644316
24	0xbb29fcdc	-0.002593807
25	0xbb416221	-0.0029507952
26	0x3b0d5d73	0.0021570593
27	0x388e7914	6.79364e-05
28	0xbadd7dd2	-0.0016898459
29	0x3a591029	0.0008280301
30	0xba9d00a8	-0.0011978345
31	0x3aeec339	0.001821614
32	0xbb139e6f	-0.0022524854
33	0xb9be50b1	-0.00036299744
34	0xbb896e01	-0.0041940217
35	0xbb01e1a9	-0.0019818342
36	0x3b925b86	0.004466477
37	0xbb560dc8	-0.0032662023
38	0xbb12838b	-0.0022356238
39	0xb97e2af7	-0.00024239333
40	0xb975089f	-0.00023368232
41	0xbaa3ef71	-0.0012507272
42	0x3b344b2b	0.0027510624
43	0x3b8d766d	0.004317096
44	0xb95050d4	-0.00019866537
45	0xba64495f	-0.0008708443
46	0xbb3c2e80	-0.002871424
47	0x3b213a0e	0.0024601254
48	0xbb6c0d53	-0.0036018684
49	0x3b52f7a4	0.0032191062
50	0xbb2abcc5	-0.0026052457
51	0x385d50b9	5.2765685e-05
52	0x3af83bdd	0.0018938739
53	0xbaf9fef6	-0.0019073177
54	0xbb743cab	-0.0037267606
55	0xbab9207e	-0.0014124063
56	0xbb2d8aea	-0.0026480504
57	0xbab8aede	-0.00140902
58	0xba147924	-0.00056638033
59	0xbb3e599e	-0.0029045115
60	0x3a95e1ea	0.0011435125
61	0x3adc6bed	0.0016816832
62	0x391807eb	0.000144988
63	0xbb43d103	-0.002987922

conv3.weight f4 [64, 64, 3, 3]
0	0xbd5e3573	-0.054250192
1	0xbc79b2aa	-0.015240351
2	0xbca31729	-0.019908505
3	0x3c85e5f3	0.016345
4	0x3c609662	0.013707729
5	0x3d72df82	0.059295185
6	0x3c2ac480	0.010422826
7	0x39d59d82	0.00040743878
8	0x3cbe5da5	0.023238013
9	0xbd9bbc6f	-0.076043
10	0x3c95e5e1	0.018298091
11	0xbd2f34cc	-0.04277496
12	0x3bc0d257	0.0058844495
13	0xbc6db6ce	-0.014508916
14	0x3c64769e	0.013944296
15	0x3d584864	0.052803412
16	0x3c932f79	0.017966973
17	0xbae0aa73	-0.0017140642
18	0x3c7b408d	0.015335214
19	0x3d2c83c7	0.04211786
20	0xbced49ea	-0.028965909
21	0x3c7a7027	0.015285528
22	0xbcc263f9	-0.023729311
23	0xbc683cd4	-0.014174659
24	0x3d9a1469	0.07523424
25	0x3c5f597a	0.013632173
26	0x3c005a3b	0.007834013
27	0xbd2c2ba5	-0.04203381
28	0x3d870ebe	0.06594609
29	0xbd0d974e	-0.034568124
30	0x3d44c90c	0.048043296
31	0xbd1c94e1	-0.03822792
32	0xbcfb4e6e	-0.030677047
33	0xbdb100ec	-0.08642754
34	0x3cc4e461	0.02403468
35	0xbd4b0925	-0.049569268
36	0x3d97a2e5	0.074041165
37	0x3d044635	0.032293517
38	0x3c18b35f	0.009320109
39	0xbc41cc70	-0.011828527
40	0x3d72b41b	0.059253793
41	0xbcc27570	-0.02373764
42	0x3c7c737c	0.015408393
43	0xbd0ac476	-0.033878766
44	0xbc8bb26b	-0.01705285
45	0x3cd66295	0.026170054
46	0xbdb3cb4b	-0.087790094
47	0xbd653e0f	-0.055967387
48	0x3c85639f	0.016282855
49	0x3cd7c72b	0.026340088
50	0xbce208fc	-0.027592175
51	0xbb845b04	-0.00403917
52	0xbd09d22b	-0.033647697
53	0xbda3ca1f	-0.07997536
54	0x3cf6212e	0.030045118
55	0x3d56faed	0.052485395
56	0x3cf77949	0.0302092
57	0xbc7a14a8	-0.015263714
58	0x3d8d38e6	0.06895618
59	0x3d6040f3	0.05474944
60	0xbc739794	-0.014867682
61	0xbd20c85e	-0.039253585
62	0xbd090eff	-0.033461567
63	0x3d1dd56c	0.038533613
64	0xbcada406	-0.021196377
65	0x3cc30132	0.02380428
66	0x3c1f537e	0.009724496
67	0xbd3882e5	-0.045046706
68	0xbc8ace46	-0.016944062
69	0x3db53545	0.08848051
70	0xbc83985e	-0.016063865
71	0xbcc2e84f	-0.023792414
72	0x3ce42f47	0.027854575
73	0xbc41ffbe	-0.011840759
74	0x3d0d91f8	0.034563035
75	0xbc916088	-0.017746225
76	0xbc8ab6c1	-0.016932847
77	0x3d4099e0	0.047021747
78	0x3d1364e6	0.035984896
79	0x3bce28b0	0.0062914714
80	0x3c15f765	0.009153222
81	0x3c059d9d	0.008155254
82	0x3c0e0125	0.008667265
83	0x3d9898c8	0.07451016
84	0x3caea2a9	0.021317797
85	0x3d14a651	0.036291424
86	0xbc05738f	-0.008145227
87	0x3c3ccb81	0.0115231285
88	0xbd0204f0	-0.03174299
89	0xbde11036	-0.1098942
90	0xbcc0b40b	-0.023523351
91	0x3d327308	0.043566734
92	0xbcbaa5c0	-0.022784114
93	0x3da1ec24	0.079063684
94	0x3c14a4f7	0.009072534
95	0x3c4e84e2	0.012604924
96	0x3cb6eb27	0.022328926
97	0xbb5a6098	-0.0033321735
98	0x3c08bf09	0.008346328
99	0xbd32ddc8	-0.04366854
100	0x3d571833	0.052513313
101	0x3da7fe84	0.08202842
102	0x3cb94ecd	0.022620583
103	0xbc2f7a9f	-0.0107103875
104	0xbd98df81	-0.07464505
105	0xbd1f3279	-0.038866494
106	0xbaf581ff	-0.0018730758
107	0xbcc74393	-0.024324214
108	0xbcebe514	-0.028795756
109	0x3cde82a4	0.027161904
110	0x3d5e6735	0.054297645
111	0xbd02ba30	-0.031915843
112	0x3c22ad63	0.009929034
113	0xbd55886e	-0.052132063
114	0xbaffc07b	-0.001951232
115	0x3da62acf	0.08113634
116	0x3c3b1926	0.01141957
117	0x3dae425b	0.0850875
118	0xbc65e2de	-0.01403114
119	0xbd2fbf68	-0.04290715
120	0xbb903562	-0.004400895
121	0x3c8bac4e	0.017049935
122	0xbdbb9315	-0.09158913
123	0x3cd4111d	0.025887066
124	0x3d9c88ef	0.076433055
125	0xbd12a3b9	-0.03580067
126	0xbc910f35	-0.017707447
127	0x3c0a2f37	0.008434108
128	0x3c3fc81e	0.0117054265
129	0xbce3fa28	-0.027829245
130	0xb8c4c0e6	-9.3819384e-05
131	0x3c4b52e1	0.012409897
132	0xbcce75db	-0.025202682
133	0x3c936bdb	0.017995765
134	0x3ce61679	0.028086888
135	0x3c98b50c	0.018641017
136	0x3b15c36a	0.0022852072
137	0x3cd9b3bd	0.026574964
138	0x3d07ff3a	0.033202387
139	0x3c01c2b2	0.007919954
140	0x3c380d46	0.011233633
141	0x3c1c50eb	0.009540777
142	0x3d5708e0	0.0524987
143	0xbd3f8084	-0.04675342
144	0xbd8ec99f	-0.0697205
145	0x3d7c8cff	0.0616579
146	0x3ceb882e	0.028751459
147	0x3cafb16d	0.021446908
148	0xbd914a61	-0.07094265
149	0x3be3201b	0.0069313175
150	0xbd68255e	-0.05667626
151	0xbcb1383c	-0.02163326
152	0xbcf5405c	-0.029937916
153	0xbcd8e072	-0.026474211
154	0xbd10950c	-0.035298392
155	0xbc8efe69	-0.017455297
156	0xbce8cd7a	-0.028418291
157	0xbbb6c198	-0.0055772774
158	0x3c98cd90	0.018652707
159	0x3d335c28	0.04378906
160	0xbc32e0c8	-0.01091785
161	0xbce44faa	-0.027870018
162	0x3c310453	0.010804254
163	0x3cd345b0	0.025790066
164	0x3c94def8	0.018172726
165	0xbc96c26b	-0.018403253
166	0x3d45ce86	0.04829266
167	0x3da58093	0.08081164
168	0x3dbc2da9	0.091883965
169	0xbc4298bf	-0.011877238
170	0x3ac8a559	0.0015308067
171	0x3afb8143	0.0019188303
172	0x3bfd794d	0.0077354074
173	0x3d4e2877	0.05033156
174	0xbcdef02c	-0.027214132
175	0x3cfe0acb	0.031011006
176	0xbb717f8e	-0.003684971
177	0xbc824bb8	-0.015905246
178	0xbd958601	-0.0730095
179	0x3cb8f2a4	0.022576638
180	0x3c873f1b	0.016509583
181	0x3c924646	0.017855775
182	0xbd295567	-0.04134121
183	0xbd4307fb	-0.047615033
184	0xbd718f43	-0.058974516
185	0x3c7640a9	0.015030065
186	0xbd0daf5b	-0.03459106
187	0x3cb6935a	0.02228706
188	0x3d1540a6	0.036438607
189	0x3d95d83d	0.07316635
190	0xbc14255b	-0.009042109
191	0xbc86a353	-0.016435301
192	0x39646952	0.0002178301
193	0xbccf61c9	-0.025315182
194	0xbbe291e1	-0.006914363
195	0x3c9c2354	0.019059815
196	0x3b81c54d	0.0039602877
197	0x3c294b19	0.010332846
198	0xbd598714	-0.053107336
199	0x3d26ccfc	0.040722832
200	0xbcbcbd8d	-0.023039604
201	0x3c10d64f	0.008840158
202	0xbcc3d6a4	-0.02390606
203	0x3d2d2752	0.042273827
204	0xbac2cedc	-0.0014862674
205	0x3c95ceb8	0.018287048
206	0xbc4f148f	-0.012639179
207	0xbcb7a960	-0.022419631
208	0xbd42bd5f	-0.04754388
209	0x3cddcf83	0.027076488
210	0xbbb643d9	-0.0055622873
211	0xbbcaca9b	-0.0061887032
212	0xbcb15560	-0.021647155
213	0xbcfe4d76	-0.031042796
214	0x3d1e0391	0.03857762
215	0xbd1a890b	-0.03772835
216	0xbc7983cd	-0.015229178
217	0x3ddc1767	0.10746651
218	0x3b9ef01a	0.0048503997
219	0x3cd37114	0.025810756
220	0xbd0d4cd4	-0.034497097
221	0xbbc88c8d	-0.0061202706
222	0xbb706761	-0.0036682712
223	0x3c2c78e4	0.010526869
224	0xbd5985ac	-0.053105995
225	0x3c131b89	0.008978733
226	0xbc9844c7	-0.018587483
227	0x3d3dfcab	0.04638354
228	0x3d8662e2	0.06561829
229	0xbcf73d7d	-0.030180687
230	0x3d1e779e	0.038688295
231	0x3ccafd78	0.024779066
232	0xbd27758f	-0.040883597
233	0x3caf31f6	0.021386128
234	0xbd9b50ce	-0.07583772
235	0x3c97fdfd	0.018553728
236	0x3d7fff02	0.062499054
237	0x3c8ffa46	0.017575394
238	0x3c3cd43a	0.011525208
239	0xbcb69b7f	-0.022290943
240	0xbdd51b37	-0.104055814
241	0xbcd9fe71	-0.026610585
242	0x3da75f95	0.08172528
243	0x3c0b6f79	0.008510464
244	0xbcd5cc19	-0.026098298
245	0x3d93d222	0.07217814
246	0xbcb53828	-0.022121504
247	0xbd1c76f7	-0.03819939
248	0x3d666bd9	0.056255195
249	0xbd0a3e2a	-0.03375069
250	0xbd652c87	-0.055950668
251	0xbb4046e7	-0.0029339136
252	0x3c98b183	0.018639332
253	0x3b5a8b1c	0.0033347076
254	0x3d037526	0.032094143
255	0xbcc98ba1	-0.024602713

conv3.bias f4 [64]
0	0x3ba295f1	0.004961722
1	0xba4287a6	-0.0007420726
2	0xbc026d8a	-0.007960686
3	0x3c1e2aae	0.00965373
4	0xbb476e92	-0.0030430895
5	0xbc1e6e42	-0.009669842
6	0x3c2174bd	0.009854493
7	0x3c355807	0.011068351
8	0x3c242b32	0.010020064
9	0x3b5d820b	0.0033799435
10	0x3c2cd0fc	0.010547873
11	0x3c2d6a97	0.010584495
12	0x3bc99905	0.0061522746
13	0xbbf00c03	-0.0073256507
14	0x3c2664a0	0.010155827
15	0x3bf144a2	0.007362918
16	0x3aa03257	0.0012222034
17	0xbb5107cb	-0.0031895514
18	0x3b663b48	0.003513055
19	0x3c1b9ec8	0.009498306
20	0x3c2ff106	0.010738617
21	0xbc1aa9cc	-0.009439897
22	0xbbbbb60d	-0.0057284893
23	0x3ba71f03	0.0051001324
24	0x3c0180b3	0.007904219
25	0xbbf938cd	-0.007605648
26	0x3b4ea55f	0.0031531674
27	0x3bb13c63	0.00540881
28	0x3c22da9e	0.009939818
29	0x3b88599f	0.0041610743
30	0x3b1b3969	0.0023685342
31	0x3c2d5518	0.01057937
32	0x3c212f2d	0.009837908
33	0x3c092457	0.0083704805
34	0x3c1473d3	0.009060818
35	0x3c0b1ed8	0.00849124
36	0xbc0898e3	-0.008337232
37	0xba65bdea	-0.0008763956
38	0x3c118287	0.008881218
39	0x3c2e4ad9	0.010637962
40	0xbbd3f08c	-0.0064678844
41	0xbbc39b8a	-0.0059694694
42	0x3c4151dd	0.011799303
43	0x3ae0826b	0.0017128711
44	0xbbf2f6c6	-0.0074146716
45	0xbbf24b02	-0.0073941955
46	0xbb2e8199	-0.002662754
47	0x3c3026d2	0.010751443
48	0x3b80bbe5	0.003928649
49	0x3ba73b1d	0.0051034824
50	0xbb33728c	-0.0027381508
51	0xbc2b0480	-0.010438085
52	0xbb0c1be2	-0.0021378924
53	0x3c319cca	0.010840604
54	0xbb67e4d9	-0.0035384207
55	0x3c2f4dff	0.010699748
56	0xb8ebadce	-0.00011238047
57	0xbc0f0458	-0.008729063
58	0x3b3e2e24	0.0029019201
59	0x3c3727d0	0.011178926
60	0x3c03aa1e	0.008036165
61	0xbb9e64e1	-0.004833803
62	0x3c379c88	0.011206754
63	0x3bd5d5d5	0.006525735

bn1.weight f4 [64]
0	0x3f7fffdc	0.99999785
1	0x3f818742	1.0119402
2	0x3f7f23ce	0.9966401
3	0x3f7dcbfb	0.99139374
4	0x3f809c9a	1.0047791
5	0x3f7e1549	0.9925123
6	0x3f7d2c05	0.98895293
7	0x3f8105b8	1.007987
8	0x3f7f09ac	0.99624133
9	0x3f7d8010	0.9902353
10	0x3f80e815	1.0070826
11	0x3f80d4a8	1.0064898
12	0x3f8000ea	1.0000279
13	0x3f8010c0	1.0005112
14	0x3f7fee38	0.9997287
15	0x3f7d120a	0.9885565
16	0x3f80925c	1.0044665
17	0x3f7eb57a	0.9949566
18	0x3f81a140	1.0127335
19	0x3f7ed5da	0.9954506
20	0x3f7d86e5	0.9903396
21	0x3f818d32	1.0121214
22	0x3f7df8b8	0.9920764
23	0x3f7fa942	0.9986764
24	0x3f80c05d	1.0058705
25	0x3f80b504	1.0055242
26	0x3f7e8b21	0.99431044
27	0x3f7ecf39	0.99534947
28	0x3f8050bf	1.0024642
29	0x3f805955	1.0027262
30	0x3f809afc	1.0047297
31	0x3f80eacd	1.0071656
32	0x3f80993b	1.0046762
33	0x3f7d8c55	0.99042255
34	0x3f7e0f4f	0.9924211
35	0x3f7d10b7	0.9885363
36	0x3f815905	1.0105292
37	0x3f7f8296	0.99808633
38	0x3f7f11cf	0.9963655
39	0x3f8097d4	1.0046334
40	0x3f814577	1.0099324
41	0x3f7f1e93	0.9965603
42	0x3f80ee82	1.0072787
43	0x3f7e4278	0.99320173
44	0x3f7e41f3	0.9931938
45	0x3f806fbc	1.0034099
46	0x3f807158	1.003459
47	0x3f7dff2c	0.99217486
48	0x3f7f3a44	0.9969828
49	0x3f7ff140	0.99977493
50	0x3f8124b5	1.0089327
51	0x3f7fbfca	0.9990202
52	0x3f7f0728	0.99620295
53	0x3f811845	1.0085531
54	0x3f813d7b	1.0096887
55	0x3f8085f2	1.0040877
56	0x3f7e4b57	0.9933371
57	0x3f7f600f	0.9975595
58	0x3f7f83d5	0.99810535
59	0x3f8127df	1.0090293
60	0x3f805570	1.0026073
61	0x3f7e905d	0.9943903
62	0x3f7d33e5	0.9890731
63	0x3f806d86	1.0033424

bn1.bias f4 [64]
0	0xba911aa9	-0.0011070567
1	0xbb1fad1f	-0.0024364663
2	0x3baca0c6	0.005268189
3	0xbc16bf85	-0.009200935
4	0xbc3e2a43	-0.011606756
5	0x3c1d986e	0.009618862
6	0x3bf92190	0.007602878
7	0x3c1a966d	0.009435278
8	0xbb98fc68	-0.004668761
9	0xbc2cd35e	-0.010548441
10	0xbb32acdf	-0.0027263684
11	0x3c032ad5	0.008005817
12	0xb88fdc3e	-6.859795e-05
13	0x3b301569	0.002686823
14	0x3c151187	0.009098417
15	0xbb17530c	-0.0023090271
16	0x3c1f84ac	0.009736221
17	0xbb89d0fb	-0.0042058206
18	0x39e1184a	0.0004293344
19	0xba5593b4	-0.00081473147
20	0xba931614	-0.001122179
21	0xbc4f303f	-0.01264578
22	0xbc1b446e	-0.009476764
23	0xbb37be66	-0.002803707
24	0x3b62b617	0.0034593397
25	0xbc10fd0f	-0.008849396
26	0xbb9b5c8c	-0.004741257
27	0xbc2063f2	-0.009789454
28	0xbaf8b6c5	-0.0018975368
29	0xbc4207b3	-0.011842656
30	0xbb8fb858	-0.004385989
31	0x3c21cf7d	0.009876129
32	0x3c32dcd2	0.0109169055
33	0xbc416e2b	-0.011806051
34	0x3b22d880	0.0024848282
35	0xbbd38e18	-0.006456148
36	0xbc2b5e75	-0.010459532
37	0x3a192fb7	0.0005843597
38	0x3b2cdbef	0.0026376208
39	0x3c14eb2d	0.009089273
40	0x3c292e97	0.010326049
41	0xbc0f63f9	-0.008751863
42	0x3c00df1d	0.007865694
43	0x3b7626d7	0.0037559771
44	0xbc152b8b	-0.00910462
45	0x3c0ec29e	0.008713393
46	0x3a73d288	0.0009301086
47	0xbc0ea0cc	-0.008705329
48	0xbb9ab0a4	-0.0047207642
49	0xbbf13c8f	-0.0073619555
50	0x3ba572df	0.005049094
51	0x3bff5e79	0.0077932444
52	0x3af08cbe	0.0018352491
53	0xbbf6f98d	-0.007537073
54	0x3c07f73b	0.00829869
55	0xbc4d5d00	-0.01253438
56	0x3c26de39	0.010184818
57	0xbc28c8ee	-0.010301812
58	0x3c45c6e3	0.012071344
59	0x3c2e8f35	0.01065426
60	0x3be90f6c	0.007112434
61	0xbc0e0563	-0.0086682765
62	0xbc49c279	-0.012314432
63	0xbc1e9ac0	-0.00968045

bn1.running_mean f4 [64]
0	0xbbeaa53a	-0.00716081
1	0xba86bde0	-0.0010279976
2	0x3c34b99e	0.011030583
3	0x3abfb80c	0.0014626994
4	0xbb1f62a3	-0.0024320267
5	0x3c6d5372	0.014485227
6	0x3c15046e	0.009095294
7	0xba172f01	-0.0005767197
8	0x3a8b594b	0.001063147
9	0xbbe92646	-0.0071151583
10	0xbbf3c572	-0.007439309
11	0xbc1150ca	-0.008869359
12	0x3b20c232	0.0024529812
13	0x39b1e543	0.00033930884
14	0x3bb00b8d	0.0053724707
15	0xbb73464c	-0.0037120758
16	0x3c549979	0.012976044
17	0xbc59ce93	-0.01329388
18	0x3bc2c2e9	0.0059436453
19	0x3c158465	0.009125804
20	0x3b919a6c	0.0044434574
21	0xbb93b0ae	-0.004507146
22	0xbc457436	-0.012051633
23	0x3addf357	0.0016933483
24	0x3c35d7d7	0.0110988235
25	0xbae51da8	-0.0017480152
26	0xbb013074	-0.0019712718
27	0xba805b3f	-0.0009792818
28	0xbc5f258c	-0.013619792
29	0xbbfe1863	-0.007754372
30	0xbba5dad9	-0.005061489
31	0x3b964c47	0.0045867297
32	0x3cb615cb	0.022227189
33	0xbc6d745e	-0.014493076
34	0x3c87f649	0.01659693
35	0xbc41e99a	-0.01183548
36	0xbba429d7	-0.0050098705
37	0x3b34f704	0.0027613053
38	0xbbae4a63	-0.005318926
39	0x3c87369c	0.016505532
40	0x3c818ace	0.015813258
41	0xbb299894	-0.0025878297
42	0xb9cf141c	-0.000394971
43	0xbca569c6	-0.020192038
44	0xbc08bd54	-0.008345921
45	0xbc3f8866	-0.011690235
46	0xbc9d8e97	-0.019233031
47	0xbc8e44ed	-0.01736685
48	0x3c041dd1	0.008063749
49	0xbab4aa0b	-0.0013783587
50	0xbbe7196d	-0.0070525915
51	0x3b83956d	0.0040156157
52	0xbbc27344	-0.005934151
53	0xbbe0d53a	-0.006861356
54	0xbcb33fed	-0.021881068
55	0x3be9b412	0.0071320618
56	0x3cb92841	0.022602202
57	0xbc07bdd2	-0.008285003
58	0x3c646fd8	0.013942681
59	0x3a8efe76	0.0010909576
60	0x3c19d4b2	0.009389089
61	0x3c354f3a	0.011066252
62	0xbbc1340d	-0.0058960975
63	0xbc644563	-0.013932559

bn1.running_var f4 [64]
0	0x3d461589	0.04836038
1	0x3d24f4a8	0.040272385
2	0x3d0280e8	0.031861216
3	0x3d241a87	0.04006436
4	0x3c5afb8b	0.013365637
5	0x3d4796cb	0.04872779
6	0x3cce0c03	0.025152212
7	0x3d00541a	0.031330206
8	0x3c1a0fd4	0.009403188
9	0x3d97c0ee	0.07409845
10	0x3c3168f9	0.01082825
11	0x3c73e79f	0.014886766
12	0x3c560243	0.013062063
13	0x3cad68e1	0.021168174
14	0x3d2b5c7f	0.041836258
15	0x3d0155fb	0.031576138
16	0x3d2085a5	0.039189953
17	0x3d6a5db2	0.05721826
18	0x3d293e9c	0.041319475
19	0x3c494264	0.012283895
20	0x3d1ec7e3	0.038764846
21	0x3d8b0cc4	0.06789544
22	0x3d27fc2b	0.04101197
23	0x3c4bf6ee	0.012449009
24	0x3d2c5108	0.042069465
25	0x3c45afbb	0.012065823
26	0x3c8efeee	0.017455544
27	0x3cd2fa4f	0.025754122
28	0x3d3cb0b1	0.046066944
29	0x3d009bb0	0.031398475
30	0x3d08f806	0.03343966
31	0x3b868c74	0.004106099
32	0x3d5b7880	0.053581715
33	0x3caf4573	0.02139542
34	0x3d3e8a08	0.046518356
35	0x3d1fd877	0.039024796
36	0x3cb04608	0.021517769
37	0x3c91218e	0.017716195
38	0x3c016d9b	0.007899667
39	0x3dd8ee7f	0.105923645
40	0x3d345ee5	0.04403581
41	0x3ceaf316	0.028680366
42	0x3d53a91e	0.051674955
43	0x3d94ec6b	0.07271656
44	0x3d289ebe	0.041167013
45	0x3d5b9b58	0.053614944
46	0x3d69740a	0.05699543
47	0x3d597262	0.0530876
48	0x3bcaf4a6	0.006193715
49	0x3c4a4741	0.01234609
50	0x3d10b7dc	0.035331592
51	0x3bdc3556	0.0067202253
52	0x3ce910f0	0.02845046
53	0x3cd4c649	0.025973456
54	0x3d9d050d	0.07666979
55	0x3ca8936a	0.020578105
56	0x3d9af34a	0.07565935
57	0x3d9e2fe9	0.07723982
58	0x3d29352f	0.041310485
59	0x3ba24759	0.004952353
60	0x3cb1de65	0.021712491
61	0x3cabd3eb	0.020975074
62	0x3ca83fe6	0.020538282
63	0x3d1a8477	0.037723985

bn2.weight f4 [64]
0	0x3f7f6146	0.997578
1	0x3f811b0a	1.0086377
2	0x3f7d74b9	0.9900623
3	0x3f8054df	1.0025901
4	0x3f81529f	1.0103339
5	0x3f7de8c0	0.99183273
6	0x3f808247	1.0039757
7	0x3f80171f	1.0007056
8	0x3f803bda	1.0018265
9	0x3f7ed109	0.9953771
10	0x3f7d458f	0.98934263
11	0x3f813c30	1.0096493
12	0x3f7f50bc	0.99732566
13	0x3f7f386a	0.99695456
14	0x3f818ae2	1.0120509
15	0x3f811fbd	1.0087811
16	0x3f817440	1.0113602
17	0x3f7e06a6	0.99228895
18	0x3f7e4617	0.993257
19	0x3f801756	1.0007122
20	0x3f802ce7	1.0013703
21	0x3f7e6834	0.9937775
22	0x3f7eb709	0.9949804
23	0x3f816948	1.0110254
24	0x3f80b596	1.0055416
25	0x3f7eacfd	0.9948271
26	0x3f80ac16	1.0052516
27	0x3f80c38d	1.0059677
28	0x3f7d0c14	0.98846555
29	0x3f7e66f2	0.9937583
30	0x3f7ece37	0.9953341
31	0x3f806f9a	1.0034058
32	0x3f808842	1.0041583
33	0x3f7dc375	0.9912637
34	0x3f814ed0	1.0102177
35	0x3f7d8853	0.9903614
36	0x3f7f253a	0.9966618
37	0x3f7f549a	0.99738467
38	0x3f7eda88	0.995522
39	0x3f80081e	1.0002477
40	0x3f7e4beb	0.9933459
41	0x3f81879d	1.0119511
42	0x3f809f57	1.0048627
43	0x3f7e5b87	0.9935841
44	0x3f7de67d	0.9917982
45	0x3f80e56d	1.0070015
46	0x3f7d41ff	0.9892883
47	0x3f7e3c71	0.99310976
48	0x3f7d2ab6	0.98893297
49	0x3f7f172e	0.99644744
50	0x3f812de1	1.0092126
51	0x3f7dce64	0.9914305
52	0x3f8116c5	1.0085074
53	0x3f80755d	1.0035816
54	0x3f7de88f	0.9918298
55	0x3f7f4049	0.99707466
56	0x3f7f547c	0.9973829
57	0x3f80c150	1.0058994
58	0x3f7d2f4f	0.9890031
59	0x3f7de50c	0.9917762
60	0x3f7e8061	0.9941464
61	0x3f813def	1.0097026
62	0x3f7d2f86	0.9890064
63	0x3f81473c	1.0099864

bn2.bias f4 [64]
0	0x3c28c8d9	0.010301792
1	0x3c115c26	0.008872068
2	0xbc51bd89	-0.012801536
3	0xbb01d38b	-0.0019809927
4	0x3a0e69a9	0.00054326147
5	0xbb9290d0	-0.0044728294
6	0x3c026763	0.00795922
7	0xbbca20f6	-0.00616848
8	0x3bacc9cc	0.0052730795
9	0xbc4dc31a	-0.012558723
10	0xbc28eeae	-0.010310812
11	0x3c35ea1e	0.011103181
12	0x3bae591b	0.005320681
13	0xbc360234	-0.011108924
14	0x3c3c03b1	0.0114754895
15	0x3c2b1834	0.010442782
16	0xbac04edb	-0.0014671938
17	0xbc4b1c97	-0.012396953
18	0xbc08cb8a	-0.008349309
19	0x3bc3074b	0.005951797
20	0x3bfd0a7e	0.007722198
21	0xbadcb8cb	-0.001683974
22	0x3a285da7	0.00064226467
23	0x3c334e8d	0.010944021
24	0x3b845e0f	0.004039533
25	0x3c49eaaa	0.012324015
26	0x3b99b0ef	0.0046902816
27	0xbc005bb1	-0.007834361
28	0x3c04ed41	0.008113206
29	0x3c3d2f61	0.011546941
30	0xbbab1ccc	-0.0052219387
31	0xbadfbc1b	-0.001706961
32	0x3c09f881	0.008421064
33	0x3a14d7df	0.0005677919
34	0x3c309a72	0.01077901
35	0xbbc9b5c0	-0.0061556995
36	0xbc3693a5	-0.0111436
37	0x3c28087b	0.010255928
38	0xb9d38653	-0.00040345135
39	0x3b4e7321	0.0031501728
40	0xbc39959b	-0.011327173
41	0x3c533804	0.012891773
42	0x3c283c77	0.010268322
43	0xbc2f355f	-0.010693877
44	0xbbdd3143	-0.006750257
45	0x3c3851f8	0.011250012
46	0xbbad6ee7	-0.0052927616
47	0x3b558ac7	0.0032583938
48	0x398a04f2	0.00026325096
49	0xbb79c4e0	-0.0038111731
50	0xba82335f	-0.0009933523
51	0xbbf46cd5	-0.007459263
52	0x3bca2371	0.0061687757
53	0xba799239	-0.0009520385
54	0x3ba4b714	0.0050267074
55	0xbbed4c39	-0.0072417525
56	0xbc3cb5da	-0.011517966
57	0x3bd51b8c	0.006503528
58	0xba194d68	-0.0005848021
59	0xbbf58e14	-0.0074937437
60	0xbb52d284	-0.0032168934
61	0x3c1e4b15	0.009661456
62	0xbb925d57	-0.0044666934
63	0x3c56f247	0.013119287

bn2.running_mean f4 [64]
0	0xc01d07af	-2.453594
1	0xbefa2b83	-0.48861322
2	0x401c1d8d	2.4393036
3	0x40034b26	2.0514617
4	0x3e41fe7b	0.18944733
5	0x3fe9fc89	1.8280193
6	0xbe500e08	-0.20317852
7	0xbf87d26a	-1.0611088
8	0xbd59577c	-0.053061947
9	0xbefd3e1f	-0.49461457
10	0x3e340226	0.17578945
11	0x3ffd6316	1.9795864
12	0x3fcafe2f	1.5858821
13	0x3fc6cb1c	1.5530734
14	0x3f49f2ce	0.78886116
15	0xbfe07523	-1.7535747
16	0x3edf36b1	0.43596414
17	0xbeb58272	-0.35451084
18	0x3fa529ba	1.2903359
19	0x3fa1b3ca	1.2632992
20	0x401b5ea0	2.4276505
21	0xbf8c9bf9	-1.0985099
22	0xc02fda06	-2.747682
23	0x3f9070a8	1.128438
24	0x3eaeee71	0.3416629
25	0x400e2a87	2.2213457
26	0x3fda57be	1.7058027
27	0x3f25ee8d	0.64817125
28	0x3fca06c8	1.578332
29	0x3fd9a326	1.7002914
30	0xbe6b10c1	-0.2295561
31	0x40101a39	2.2516005
32	0x401fbd73	2.495938
33	0x3e7028b7	0.23453031
34	0x3f0a101f	0.5393085
35	0xbf81d232	-1.0142272
36	0x3f80d610	1.0065327
37	0x3e2deeaa	0.16985574
38	0xbf6d158f	-0.9261102
39	0x3fa108ed	1.2580849
40	0x3f59b7e7	0.8504624
41	0x3e95621e	0.2917642
42	0x3f0c4a33	0.5480072
43	0xbe5f28a1	-0.21792842
44	0xbfead108	-1.8345041
45	0x3f32b346	0.698048
46	0xc006c0e1	-2.1055224
47	0xbeae142d	-0.33999768
48	0x3fa75827	1.3073777
49	0x3f8aaef1	1.0834638
50	0x3d96e14d	0.073671915
51	0x3d82a7fd	0.063796975
52	0x3f76aa08	0.963532
53	0x3bf5b7bc	0.0074987095
54	0x3fd6a8b6	1.6770236
55	0xbf770036	-0.96484697
56	0xbf2a76ec	-0.6658771
57	0x3dc3fe5e	0.09570001
58	0x402fd310	2.7472572
59	0xbf8c0dbd	-1.0941693
60	0xbf4198f0	-0.7562399
61	0xbf014bf7	-0.5050654
62	0x3f3159c6	0.6927761
63	0x3ee9c7c6	0.45660228

bn2.running_var f4 [64]
0	0x409d494f	4.915199
1	0x4014197e	2.314056
2	0x40753271	3.8312037
3	0x407517e3	3.829583
4	0x3f99a9a0	1.200489
5	0x404c1403	3.1887214
6	0x401c25de	2.4398112
7	0x400e445c	2.2229223
8	0x3f6e4e1c	0.93087935
9	0x3f9334d0	1.1500492
10	0x3f8f0ed5	1.1176401
11	0x40196a21	2.3971026
12	0x4037b548	2.8704395
13	0x406e9a65	3.7281735
14	0x4021f818	2.5307674
15	0x40af079b	5.4696784
16	0x3fb49d9e	1.4110601
17	0x401617c9	2.3452017
18	0x4042feeb	3.046809
19	0x3febcab3	1.8421234
20	0x40be986b	5.9561057
21	0x3f73406f	0.9502019
22	0x40b04c8d	5.5093446
23	0x406b5426	3.677011
24	0x3f6d9141	0.92799765
25	0x40a0c299	5.0237546
26	0x406cb38c	3.6984587
27	0x3f7a4024	0.9775412
28	0x404868a7	3.1313875
29	0x40a6f579	5.217465
30	0x40383106	2.8779922
31	0x40ba5137	5.822414
32	0x40975860	4.729538
33	0x3fb5429a	1.416095
34	0x3f81542b	1.0103811
35	0x4021ab68	2.5260868
36	0x3fee086c	1.859632
37	0x3f8367b2	1.026602
38	0x403d8b69	2.961634
39	0x401284f7	2.2893655
40	0x3fa3dc83	1.280167
41	0x3f9a8c61	1.207409
42	0x3f8cfb5b	1.1014208
43	0x3f9626fd	1.1730648
44	0x40a311d4	5.0959263
45	0x3ffef03c	1.9917064
46	0x40802869	4.004933
47	0x3fd58563	1.6681331
48	0x403db329	2.96406
49	0x40235536	2.5520759
50	0x4014f1da	2.3272614
51	0x3f215fd6	0.6303686
52	0x3fde7731	1.7380124
53	0x3f1c8257	0.6113638
54	0x407da462	3.9631581
55	0x3fd2e165	1.6475035
56	0x3ffaa75e	1.9582326
57	0x400c4d28	2.1922092
58	0x409e8690	4.953926
59	0x3fff2a4d	1.9934784
60	0x40179448	2.3684254
61	0x3f897b6a	1.0740788
62	0x40256520	2.5842972
63	0x3fabd0d1	1.3423101

bn3.weight f4 [64]
0	0x3f81a227	1.012761
1	0x3f81ad91	1.0131093
2	0x3f81b24a	1.0132535
3	0x3f81b3db	1.0133013
4	0x3f81b225	1.013249
5	0x3f81ad27	1.0130967
6	0x3f81ad70	1.0131054
7	0x3f81b27c	1.0132594
8	0x3f81a26f	1.0127696
9	0x3f81ad6c	1.0131049
10	0x3f81abad	1.0130516
11	0x3f81acd6	1.013087
12	0x3f819fcf	1.0126895
13	0x3f819ff8	1.0126944
14	0x3f81ac14	1.0130639
15	0x3f81af12	1.0131552
16	0x3f81afb3	1.0131744
17	0x3f81afe8	1.0131807
18	0x3f81a60d	1.01288
19	0x3f81b0e1	1.0132104
20	0x3f81b0ab	1.013204
21	0x3f81aff2	1.0131819
22	0x3f81aa5b	1.0130113
23	0x3f81ab85	1.0130469
24	0x3f81a9f8	1.0129995
25	0x3f81ace9	1.0130893
26	0x3f819e7b	1.0126489
27	0x3f81ad77	1.0131062
28	0x3f81aadc	1.0130267
29	0x3f81ab3e	1.0130384
30	0x3f81a359	1.0127975
31	0x3f81af23	1.0131572
32	0x3f81ad29	1.0130969
33	0x3f81a3ed	1.0128151
34	0x3f81a9a5	1.0129896
35	0x3f81ad08	1.013093
36	0x3f81ab4e	1.0130403
37	0x3f81a6f2	1.0129073
38	0x3f81ae4c	1.0131316
39	0x3f81aaf5	1.0130297
40	0x3f81aa4f	1.0130099
41	0x3f81a7db	1.012935
42	0x3f81a857	1.0129498
43	0x3f81aa9d	1.0130192
44	0x3f81b1a9	1.0132343
45	0x3f81ab13	1.0130333
46	0x3f81ad10	1.013094
47	0x3f81b24c	1.0132537
48	0x3f81a8e3	1.0129665
49	0x3f81a4a5	1.012837
50	0x3f81ae3a	1.0131295
51	0x3f81aadb	1.0130266
52	0x3f81a64a	1.0128872
53	0x3f81a56c	1.0128608
54	0x3f81a5d7	1.0128735
55	0x3f81b0b0	1.0132046
56	0x3f81b01f	1.0131873
57	0x3f81ae51	1.0131322
58	0x3f81b13f	1.0132216
59	0x3f81aa1a	1.0130036
60	0x3f81a6a3	1.0128978
61	0x3f81ad6e	1.0131052
62	0x3f81b108	1.0132151
63	0x3f81b1b9	1.0132362

bn3.bias f4 [64]
0	0x3c53a2d4	0.012917239
1	0x3c547098	0.012966298
2	0x3c58b113	0.0132258115
3	0x3c27cc7e	0.010241626
4	0x3c4ccd37	0.012500099
5	0x3c56e282	0.013115527
6	0x3c51e33c	0.012810525
7	0x3c51d454	0.012806971
8	0x3c4daedb	0.012553896
9	0x3c521fd5	0.012824972
10	0x3c534fda	0.012897456
11	0x3c1b03c9	0.009461352
12	0x3c54ff07	0.013000256
13	0x3c55710d	0.013027442
14	0x3c57a6a9	0.0131622935
15	0x3c1d8bb7	0.00961583
16	0x3c5701f7	0.013123027
17	0x3c589f65	0.013221596
18	0x3c4d6882	0.012537124
19	0x3c474cbc	0.012164291
20	0x3c495fb3	0.012290883
21	0x3c56cc03	0.013110164
22	0x3c55be0c	0.013045799
23	0x3c52d763	0.012868735
24	0x3c4b8a6e	0.012423141
25	0x3c57236b	0.013131003
26	0x3c510fc5	0.012760107
27	0x3c4b2df7	0.012401096
28	0x3b8bfb69	0.004271914
29	0x3c57cc64	0.013171289
30	0x3b65f4c0	0.003508851
31	0x3c542585	0.0129483985
32	0x3c554c74	0.013018716
33	0x3c404d51	0.011737184
34	0x3bb35f37	0.005473997
35	0x3c547255	0.012966712
36	0x3c592ba7	0.013255036
37	0x3bbad8f1	0.005702131
38	0x3c4dd58b	0.01256312
39	0x3c515597	0.012776754
40	0x3c55c9c4	0.013048593
41	0x3c597140	0.01327163
42	0x3c4b2cc4	0.01240081
43	0x3c0a800b	0.008453379
44	0x3c58631c	0.013207223
45	0x3c588d25	0.013217245
46	0x3c55c00c	0.013046276
47	0x3c4f3773	0.0126474975
48	0x3c50442e	0.012711568
49	0x3c5555db	0.013020958
50	0x3bfe8114	0.007766852
51	0x3c587309	0.01321102
52	0x3c54fa37	0.012999109
53	0x3c4fc8d5	0.012682159
54	0x3c52173f	0.012822925
55	0x3c519f7c	0.012794372
56	0x3c51be9a	0.012801791
57	0x3c578354	0.01315387
58	0x3c4cfaee	0.012510998
59	0x3c5380a5	0.012909089
60	0x3c55469f	0.013017326
61	0x3c1ef523	0.009702
62	0x3c57aa0d	0.013163102
63	0x3c1735f7	0.009229175

bn3.running_mean f4 [64]
0	0x3f2280f2	0.63478005
1	0x3f80e714	1.007052
2	0xc00f0c69	-2.2351325
3	0x400dc1e0	2.2149582
4	0xbf5f47d9	-0.87219006
5	0xc0270dae	-2.61021
6	0x3f58cd31	0.846881
7	0x3ffbaab9	1.9661475
8	0x3fb6845b	1.4259142
9	0x3f5c47b4	0.8604691
10	0x3fe9927b	1.8247827
11	0x402c1f93	2.6894271
12	0x3f9ba198	1.215869
13	0xbf763953	-0.9618122
14	0x3fc93676	1.5719745
15	0x3fb32d9c	1.3998294
16	0xbe818280	-0.25294876
17	0x3e3dedbc	0.1854772
18	0xbf197f73	-0.599601
19	0x3fc860c7	1.5654534
20	0x3fe1e6c6	1.7648551
21	0xbf8f2c45	-1.1185385
22	0xbf374eb2	-0.71604455
23	0x3f115a94	0.56778836
24	0x3f99f1c2	1.2026904
25	0xbedb5af8	-0.4284284
26	0xbfe7c1c3	-1.8106006
27	0x3f31c5de	0.69442546
28	0x4001d190	2.0284157
29	0x3f845a5a	1.0340073
30	0xbfb1e18f	-1.389696
31	0x3fa59778	1.293685
32	0x401d2982	2.4556584
33	0x3f8db23d	1.1070019
34	0x3f9b8953	1.2151283
35	0x3f46aabf	0.7760429
36	0xbfba1e61	-1.4540521
37	0xbfbfa122	-1.4971049
38	0x40019053	2.0244339
39	0x3f34dc2d	0.7064846
40	0xbe4b0f61	-0.19830085
41	0xbf31fcf3	-0.69526595
42	0x4014675e	2.318809
43	0x3ea4ab5b	0.32161984
44	0x3efbc1ff	0.49171445
45	0xbe31c758	-0.173612
46	0xc053f26f	-3.311672
47	0x401a3a14	2.4097948
48	0x3f6ee7b9	0.9332233
49	0xbee3b2ff	-0.444725
50	0xbe4efde1	-0.20214035
51	0xc008e6c9	-2.139086
52	0x3e556af9	0.20841588
53	0x4016e96e	2.3579974
54	0xbf00f27d	-0.5037001
55	0x3fe772e4	1.8081937
56	0x3e5ac434	0.21363908
57	0xbf02b1fb	-0.51052827
58	0xbdf174a1	-0.11789823
59	0x4011feb4	2.2811708
60	0x3fcf4da5	1.619557
61	0xbfbcf875	-1.4763323
62	0x3fd85a4a	1.6902554
63	0xbe836a61	-0.25667098

bn3.running_var f4 [64]
0	0x3f649828	0.8929467
1	0x3fee6eed	1.8627602
2	0x3f4b39d9	0.79385144
3	0x3fca89ee	1.5823343
4	0x3f97b3d8	1.1851759
5	0x3f834d50	1.0257969
6	0x40058723	2.086373
7	0x3f6b2940	0.9185982
8	0x3f882a7b	1.0637964
9	0x3f7f4a42	0.99722683
10	0x3f9662a1	1.1748849
11	0x3fc184a9	1.511861
12	0x3f8ae8bf	1.0852278
13	0x3fb817e0	1.4382286
14	0x3f84eb28	1.0384264
15	0x3f91e333	1.1397461
16	0x3f328480	0.6973343
17	0x3f9d5391	1.2291127
18	0x3f6df6a3	0.9295446
19	0x3fd923dd	1.696407
20	0x3f8b90f3	1.090361
21	0x3f640a52	0.8907825
22	0x3fe3611a	1.7764008
23	0x3f83c295	1.0293757
24	0x3f89ba0f	1.0759906
25	0x3fd97c3b	1.6991037
26	0x40257466	2.5852294
27	0x3fce42a9	1.6114093
28	0x3fed4a00	1.8538208
29	0x3ffc19ae	1.9695337
30	0x406e79b5	3.7261784
31	0x3f81ae40	1.0131302
32	0x3fe75b89	1.8074809
33	0x3f67da41	0.90567404
34	0x3ffc0a08	1.9690561
35	0x3fa7b809	1.3103038
36	0x3fa5e3fd	1.2960202
37	0x3fbf6c8e	1.4955003
38	0x3f8f1cfe	1.1180723
39	0x3f98c22b	1.1934255
40	0x3f15627c	0.583534
41	0x3fc6272d	1.5480705
42	0x3fb213a1	1.391224
43	0x3fdbef53	1.7182411
44	0x3f81a4ee	1.0128458
45	0x3fa231d6	1.2671459
46	0x3fbbccb2	1.4671843
47	0x3f6ea36a	0.932181
48	0x3fde36bd	1.7360455
49	0x3f876484	1.057755
50	0x4005dbbd	2.0915368
51	0x3fc1b8a2	1.513447
52	0x4043d6f3	3.0599945
53	0x3fd5d17a	1.6704552
54	0x3fe96c5c	1.8236194
55	0x3f842e73	1.0326675
56	0x3fb5b790	1.4196644
57	0x3fbd6368	1.4795961
58	0x3fc8bb7d	1.5682217
59	0x3f87ca99	1.0608703
60	0x3f9f3858	1.243907
61	0x3f9eeccd	1.2416016
62	0x3f4d9991	0.8031245
63	0x3f225b57	0.63420624
