maml-notebook/model/model-epoch_00024-train_loss_0.146-train_acc_0.841-test_loss_0.572-test_acc_0.831.pt (torch_old, 305688 bytes, 20 tensors)

conv1.weight f4 [64, 1, 3, 3]
0.037579432 0.11145619 -0.035596088 -0.022097388 0.060322843 0.043605108 -0.041133344 0.014534023
0.018415589 -0.0069120997 -0.12373698 -0.017496487 0.04069169 0.07095763 -0.043360148 0.005536925
0.052552484 0.081389144 -0.020006718 -0.029612329 -0.07366757 -0.02095157 0.048690807 -0.0850762
-0.054294467 0.028057203 -0.026895687 -0.14929341 0.040787965 -0.08583427 0.013920384 0.10693115
-0.044816222 0.035286468 0.06676531 -0.024201356 -0.0034661868 0.074384116 -0.034848936 0.027074283
-0.010444345 -0.046359412 0.056209862 0.028016713 -0.058860376 0.001941535 -0.07756684 -0.024431193
-0.11849143 -0.05962059 -0.018339617 0.042237207 -0.0064654807 0.026738627 -0.07556866 -0.0036261282
-0.09424803 0.021808298 -0.054772373 0.13199562 -0.024271864 0.017460616 -0.11946973 -0.054486353
-0.03137119 -0.036425512 0.0032681662 -0.023816831 0.09463313 0.07059576 0.091282725 0.00053494563
0.012349818 -0.034020334 0.020040497 0.06472297 -0.02440091 0.09327091 -0.012698989 0.04382519
-0.051549338 0.057552885 -0.06418659 0.03480273 0.10740987 0.017844973 0.14929557 -0.0015550625
-0.044733763 0.040692113 -0.02353228 -0.03790341 -0.00035389018 0.038229402 0.08638027 0.027576571
0.016522093 -0.036847603 -0.01907497 -0.01358628 0.026571184 0.027192242 0.028617192 -0.053772703
0.0436117 0.012581674 0.067720175 -0.04288739 0.013281158 -0.019053029 0.007532554 -0.08342035
-0.014206733 -0.0155877955 -0.021606524 0.039843056 -0.04786491 0.018479 0.035846774 0.0018048502
0.0098258415 -0.008668334 0.07357156 -0.0070815925 -0.09774716 -0.053806167 0.055283256 0.02097217
0.005935051 -0.028088614 -0.08109934 0.04372977 -0.027939962 -0.07513109 -0.07699184 0.10362914
-0.15021533 -0.026096188 0.052821472 0.047419555 0.033179652 -0.015478361 -0.002789978 0.058499034
0.0040569208 -0.11168966 -0.040989675 0.012038314 0.011556351 -0.02079101 0.047169574 -0.12255143
-0.0021000165 0.10859109 0.08355929 0.038447503 -0.06354692 0.0058628554 0.029585574 -0.009390802
0.0038417974 -0.007920819 -0.040960796 -0.083286375 -0.07268651 -0.04562429 0.050524622 -0.00604713
0.053219352 0.048964214 0.07119324 -0.114737965 0.007083335 0.028102666 0.018030016 0.017782783
-0.03639359 0.0025037744 0.009745661 -0.029205024 0.06502134 0.055270568 0.027298905 0.042229865
-0.15962724 -0.048997786 0.06838579 -0.020119628 -0.04025288 -0.024998482 0.0031964805 0.1254737
-0.11550977 0.038437657 0.08900759 -0.1023417 0.07825557 0.027371544 0.020784346 0.013346592
-0.07190029 0.03530758 0.102769814 0.10681126 -0.046661194 -0.013160743 -0.011804568 0.014823573
-0.0014997134 -0.04561713 0.0041960035 0.051891267 -0.009065124 0.012904526 0.041077927 -0.09939158
-0.035810877 -0.09427514 -0.08033471 -0.015901564 0.049925607 -0.0057168975 0.03449475 0.025647162
0.06371254 -0.05852164 0.070762664 0.013845624 0.039222263 -0.047167134 0.06582915 0.053818174
0.028713988 -0.061316032 -0.0014916026 -0.007837101 0.005982733 -0.076930895 0.037337244 0.022617416
-0.07377688 0.012127101 0.043207698 -0.019526204 0.01666742 0.08873906 0.0986093 0.017103015
-0.0040624603 -0.0628172 -0.015057853 -0.09105875 0.09279576 0.027658647 -0.09061117 -0.046249643
00000000: e4ec 193d 2543 e43d 34cd 11bd 9505 b5bc
00000010: 1615 773d 459b 323d 707b 28bd 1c20 6e3c
00000020: 4adc 963c e57e e2bb d069 fdbd cb54 8fbc
00000030: 54ac 263d 3c52 913d 699a 31bd 186f b53b
00000040: 4641 573d 5aaf a63d 21e5 a3bc 8e95 f2bc
00000050: 06df 96bd a0a2 abbc 0370 473d 6e3c aebd
00000060: e063 5ebd 38d8 e53c 5854 dcbc 5fe0 18be
00000070: 4811 273d e1c9 afbd 5312 643c b8fe da3d
00000080: 3791 37bd 8b88 103d 40bc 883d ec41 c6bc
00000090: f728 63bb b356 983d c2bd 0ebd e3ca dd3c
000000a0: c21e 2bbc 5ee3 3dbd 503c 663d 4e83 e53c
000000b0: 9417 71bd 1b7b fe3a 5ddb 9ebd ed23 c8bc
000000c0: a3ab f2bd b834 74bd f73c 96bc ec00 2d3d
000000d0: 62dc d3bb f70a db3c bec3 9abd 56a4 6dbb
000000e0: 1c05 c1bd 51a7 b23c ff58 60bd dc29 073e
000000f0: cad5 c6bc 9109 8f3c 8cac f4bd 152d 5fbd
00000100: 147f 00bd eb32 15bd bb2e 563b 841b c3bc
00000110: 04cf c13d 8394 903d 70f2 ba3d 983b 0c3a
00000120: e456 4a3c e858 0bbd f82b a43c 7a8d 843d
00000130: 6be4 c7bc d204 bf3d 6c0f 50bc 0b82 333d
00000140: 6625 53bd 93bc 6b3d 4274 83bd 4f8d 0e3d
00000150: b5f9 db3d 9f2f 923c f0e0 183e 3dd3 cbba
00000160: c03a 37bd c6ac 263d c5c6 c0bc 9b40 1bbd
00000170: 568a b9b9 6f96 1c3d 24e8 b03d 43e8 e13c
00000180: 5759 873c 83ed 16bd 1d43 9cbc fd98 5ebc
00000190: d0ab d93c 44c2 de3c 9a6e ea3c c440 5cbd
000001a0: 2fa2 323d 5e23 4e3c e0b0 8a3d b0aa 2fbd
000001b0: 3799 593c 1915 9cbc a5d3 f63b 4ad8 aabd
000001c0: 5bc3 68bc f463 7fbc 2a00 b1bc 7932 233d
000001d0: ff0d 44bd 4661 973c 11d4 123d b990 ec3a
000001e0: 91fc 203c a105 0ebc b0ac 963d b40c e8bb
000001f0: aa2f c8bd db63 5cbd b270 623d d4cd ab3c
00000200: d17a c23b 181a e6bc 6917 a6bd fd1d 333d
00000210: 59e2 e4bc 54de 99bd e6ad 9dbd 843b d43d
00000220: 0cd2 19be acc7 d5bc 545b 583d 023b 423d
00000230: 63e7 073d f498 7dbc 10d8 36bb af9c 6f3d
00000240: ebef 843b 8cbd e4bd cae4 27bd 593c 453c
00000250: d956 3d3c e951 aabc e234 413d 3efc fabd
00000260: 6ea0 09bb 0165 de3d 2221 ab3d 217b 1d3d
00000270: e324 82bd 321d c03b 725d f23c e1db 19bc
00000280: aac6 7b3b 53c6 01bc 82c6 27bd 0c92 aabd
00000290: aadc 94bd 89e0 3abd e8f2 4e3d 0127 c6bb
000002a0: 89fc 593d b38e 483d c3cd 913d bdfb eabd
000002b0: 521b e83b 9037 e63c afb3 933c 33ad 913c
000002c0: 7211 15bd 5d16 243b 44ac 1f3c 603f efbc
000002d0: e929 853d 6463 623d f4a1 df3c 39f9 2c3d
000002e0: 5375 23be e7b1 48bd d90d 8c3d ebd1 a4bc
000002f0: 34e0 24bd 9ec9 ccbc 0b7c 513b 2d7c 003e
00000300: 6390 ecbd ce70 1d3d 9d49 b63d 8698 d1bd
00000310: 7544 a03d 4a3a e03c ef43 aa3c aaab 5a3c
00000320: 7640 93bd ae9e 103d fb78 d23d ddbf da3d
00000330: cf1f 3fbd 28a0 57bc f267 41bc 92de 723c
00000340: 0892 c4ba 07d9 3abd a17e 893b f08b 543d
00000350: e385 14bc 816d 533c 5441 283d d08d cbbd
00000360: 6dae 12bd 5313 c1bd 8686 a4bd ff43 82bc
00000370: cb7e 4c3d d054 bbbb 5e4a 0d3d ff19 d23c
00000380: b87b 823d 63b4 6fbd 04ec 903d c2d8 623c
00000390: 86a7 203d 5332 41bd 6fd1 863d 7270 5c3d
000003a0: 9939 eb3c 8526 7bbd e181 c3ba 2f67 00bc
000003b0: cd0a c43b f28d 9dbd f0ee 183d 2948 b93c
000003c0: 5518 97bd c0b0 463c 8efa 303d 6bf5 9fbc
000003d0: 1d8a 883c d3bc b53d acf3 c93d 9f1b 8c3c
000003e0: 631e 85bb 4ea6 80bd 37b5 76bc 037d babd
000003f0: b40b be3d 6394 e23c 5992 b9bd 4470 3dbd

conv1.bias f4 [64]
0.0067526074 0.0012545611 -8.697601e-05 0.002689869 -0.0035158063 0.0019299893 0.0013850669 0.00979664
0.00433015 0.014307081 -0.00445547 0.00049433514 -0.005129111 -0.003394383 -0.0037339267 -0.0016659608
0.0032838967 0.0016929278 0.0047573512 0.006496396 0.0066801114 -0.00016294015 -0.0074033663 0.0030770674
0.008290045 0.006086638 -0.0076746433 0.001286711 -0.001698953 0.002528293 0.0026397118 0.000534253
0.007806925 -0.0080597345 0.0046121106 -0.0027308436 -0.0080589745 -0.007015773 -0.003341484 -0.008532035
0.007584365 -0.0015098874 0.008017362 -0.002270255 0.003891921 -0.00020544737 -0.011069495 -0.0016632419
0.0050300327 0.00056729326 -0.002490412 0.004207399 0.0010822389 -0.0062570204 -0.0032616288 0.006740498
0.0021872958 -0.0021360265 0.0067126923 0.0074788122 -0.0026944997 0.010689811 -0.0089595625 -0.008060497
00000000: fa44 dd3b 1670 a43a e466 b6b8 8348 303b
00000010: 7169 66bb b2f7 fc3a 228b b53a 1682 203c
00000020: eee3 8d3b 3f68 6a3c 31ff 91bb 4596 013a
00000030: 1a12 a8bb 4c74 5ebb e5b4 74bb 5e5c daba
00000040: a536 573b 3be5 dd3a 8ee3 9b3b b8df d43b
00000050: d6e4 da3b eada 2ab9 f097 f2bb a0a8 493b
00000060: f8d2 073c 6c72 c73b 937b fbbb dba6 a83a
00000070: 67af deba b8b1 253b 04ff 2c3b 1d0d 0c3a
00000080: 3cd1 ff3b fa0c 04bc 3021 973b f4f7 32bb
00000090: ca09 04bc 92e4 e5bb cdfc 5abb f3c9 0bbc
000000a0: 4486 f83b 6ae7 c5ba 415b 033c 8fc8 14bb
000000b0: 990f 7f3b 5c6d 57b9 d45c 35bc 2301 daba
000000c0: f9d2 a43b 68b6 143a 2e36 23bb 39de 893b
000000d0: e9d9 8d3a b107 cdbb 0dc1 55bb 65df dc3b
000000e0: bc58 0f3b 94fc 0bbb 25f6 db3b d310 f53b
000000f0: 3496 30bb 5124 2f3c 21cb 12bc 2d10 04bc

conv2.weight f4 [64, 64, 3, 3]
-0.04671352 -0.040569108 0.0007437526 0.050600003 -0.044527777 -0.085662715 0.07708872 -0.038111627
0.0580269 0.0007103664 -0.041514054 -0.07976867 0.012420197 -0.02744192 -0.016436834 -0.07608793
-0.03476071 0.08080783 0.010225563 -0.08004583 -0.038617544 -0.0024965913 -0.038001888 -0.060248177
-0.017642014 -0.055321913 0.024915725 -0.06118048 0.020490771 -0.03761144 0.0022064769 0.013831501
0.0021765481 -0.010878063 -0.016817942 0.04161395 -0.06957381 -0.075657345 -0.059597258 -0.0134919
-0.055056542 -0.087758385 0.011762856 0.0016967435 0.049151547 -0.018750377 -0.013745012 0.05475675
-0.033940583 -0.011364982 -0.040569838 -0.021174736 -0.024896432 -0.039491165 -0.013494454 -0.040375307
0.043213848 -0.0012807639 0.021235446 -0.038214907 -0.02109351 0.03882863 -0.007929003 0.034407973
0.02551589 -0.027846428 -0.02473807 -0.00064565596 0.04174833 0.05714574 -0.06001016 -0.0030668532
-0.045896403 -0.044508863 0.060217287 0.10169097 -0.03482744 -0.026589837 0.04953471 0.015262028
-0.0044645313 0.0145815285 0.047123753 -0.00068148423 -0.044353895 0.021461293 0.02040488 -0.04260034
0.010545681 -0.017293388 0.02808106 -0.11032252 -0.022590633 -0.034376416 -0.018041449 0.019689707
0.012209699 0.0022646196 0.015371048 -0.06375066 -0.023937846 -0.06416442 0.041551884 -0.01792396
0.009719117 -0.03401492 0.06256866 0.015412043 0.08927319 -0.07087492 -0.016344111 0.07184176
-0.08115604 -0.011953943 -0.05862876 -0.006059315 -0.021231972 0.00865607 0.053292308 -0.02595395
0.05338559 -0.0061869686 0.07479579 0.031645663 -0.05130899 -0.035485405 0.01895238 -0.050889324
-0.019263467 0.043388847 0.01166147 -0.086596385 -0.09734586 -0.010447313 -0.07007889 0.03354332
-0.07794196 -0.0013954355 -0.055121813 -0.028481206 -0.048295263 -0.037572738 -0.026109278 0.013041656
0.019825276 -0.016493523 -0.079832144 0.00077395275 -0.15083322 -0.15063041 0.023183273 -0.05426672
-0.05320092 -0.01826022 0.025296437 -0.068370424 -0.069519736 0.020492025 -0.021279078 0.033535328
0.07973187 -0.024074562 -0.015482575 0.0017197258 0.026372818 0.015593901 0.030323194 0.061910078
-0.017483382 0.030290328 -0.11156546 -0.072143115 -0.029535824 0.0013239902 0.08032993 -0.0634367
-0.036834862 -0.04052363 -0.002185575 -0.056235746 0.06923038 -0.03076706 -0.039532907 0.001291292
0.0066797095 0.035348807 -0.08050016 -0.04682875 0.018833399 0.017801773 -0.03493231 -0.046199948
-0.015516913 -0.011750082 0.0685411 -0.035411566 -0.05271426 -0.032671824 -0.012583292 0.008270391
-0.020922473 -0.05760176 0.051667195 -0.025394512 0.074836865 -0.08802125 -0.04557612 -0.008033628
-0.02367564 -0.005424196 0.0031313046 0.0008736342 0.012449953 0.015357193 0.019256448 -0.02007183
0.012314566 -0.018895982 -0.0077109933 0.005336215 0.011784942 -0.034456115 -0.04050161 -0.010207228
-0.037111208 -0.11263842 -0.06312929 0.0074563827 -0.0032689204 0.029879969 -0.051717088 0.022462908
0.01651584 0.042251617 -0.01962373 0.03133916 -0.0048742243 -0.018386455 0.0015548018 -0.009803872
0.040946655 0.054804 -0.03457443 0.07195937 -0.0077360254 -0.046572413 0.06780023 0.0019300032
-0.10370962 0.012354512 -0.020704536 0.052171458 0.0039128633 -0.0024668542 -0.019511469 0.012111425
00000000: ad56 3fbd cb2b 26bd 64f8 423a f341 4f3d
00000010: c262 36bd ef6f afbd b1e0 9d3d f01a 1cbd
00000020: 9dad 6d3d e237 3a3a a40a 2abd c25d a3bd
00000030: 157e 4b3c e1cd e0bc 8aa6 86bc fdd3 9bbd
00000040: 3f61 0ebd 937e a53d 1f89 273c 11ef a3bd
00000050: 6e2d 1ebd da9d 23bb dea7 1bbd cbc6 76bd
00000060: fc85 90bc 3b99 62bd 101c cc3c 6298 7abd
00000070: 43dc a73c 740e 1abd 8a9a 103b 859d 623c
00000080: 6ba4 0e3b e739 32bc c8c5 89bc 6473 2a3d
00000090: b77c 8ebd 3df2 9abd 411c 74bd 210d 5dbc
000000a0: f882 61bd abba b3bd feb8 403c 4465 de3a
000000b0: 2253 493d 649a 99bc c232 61bc 9d48 603d
000000c0: 4805 0bbd 3134 3abc 8f2c 26bd a476 adbc
000000d0: 9af3 cbbc 7dc1 21bd d817 5dbc 9460 25bd
000000e0: 0101 313d 4edf a7ba f5f5 ad3c 3c87 1cbd
000000f0: 4ccc acbc c50a 1f3d a6e8 01bc 60ef 0c3d
00000100: b306 d13c 311e e4bc 7ea7 cabc 3d41 29ba
00000110: 4c00 2b3d a711 6a3d 37cd 75bd 42fd 48bb
00000120: defd 3bbd ed4e 36bd 67a6 763d 5b43 d03d
00000130: 38a7 0ebd eed2 d9bc e8e4 4a3d 960d 7a3c
00000140: 344b 92bb 5de7 6e3c d604 413d a2a5 32ba
00000150: 6eac 35bd 98cf af3c 2328 a73c b27d 2ebd
00000160: cbc7 2c3c ddaa 8dbc 400a e63c c6f0 e1bd
00000170: fe0f b9bc 49ce 0cbd a9cb 93bc 4f4c a13c
00000180: 300b 483c 036a 143b d9d6 7b3c b58f 82bd
00000190: 4d19 c4bc a368 83bd 4f32 2a3d 45d5 92bc
000001a0: ee3c 1f3c 3b53 0bbd ff23 803d cb82 7c3c
000001b0: ddd4 b63d df26 91bd 16e4 85bc c621 933d
000001c0: 2335 a6bd 79da 43bc b624 70bd 388d c6bb
000001d0: acee adbc 30d2 0d3c 0949 5a3d 619d d4bc
000001e0: d9aa 5a3d 0ebc cabb 892e 993d e29e 013d
000001f0: 6029 52bd 2559 11bd 0642 9b3c 5371 50bd
00000200: 6bce 9dbc 81b8 313d c00f 3f3c 7259 b1bd
00000210: 445d c7bd 352b 2bbc 8585 8fbd b864 093d
00000220: 09a0 9fbd 0ce7 b6ba 69c7 61bd 6b51 e9bc
00000230: 41d1 45bd dfe5 19bd 20e3 d5bc acac 553c
00000240: 9e68 a23c 6d1d 87bc 097f a3bd 17e3 4a3a
00000250: 0674 1abe dc3e 1abe d9ea bd3c c846 5ebd
00000260: 35e9 59bd 7596 95bc 793a cf3c cb05 8cbd
00000270: 5d60 8ebd e4de a73c 7651 aebc 575c 093d
00000280: 764a a33d 0438 c5bc a0aa 7dbc 6c68 e13a
00000290: cf0b d83c 907d 7f3c 5968 f83c 6c95 7d3d
000002a0: 4f39 8fbc 6c23 f83c 6f7c e4bd c5bf 93bd
000002b0: 1df5 f1bc bd89 ad3a 0584 a43d 1aeb 81bd
000002c0: 27e0 16bd 1bfc 25bd dd3b 0fbb 7457 66bd
000002d0: a8c8 8d3d 340b fcbc 42ed 21bd 9240 a93a
000002e0: 77e1 da3b e9c9 103d 45dd a4bd 81cf 3fbd
000002f0: 8048 9a3c 06d5 913c 2f15 0fbd 283c 3dbd
00000300: a63a 7ebc 6a83 40bc 475f 8c3d b80b 11bd
00000310: e8ea 57bd e4d2 05bd 272a 4ebc 8980 073c
00000320: 9b65 abbc d3ef 6bbd fba0 533d 2708 d0bc
00000330: 1244 993d 7c44 b4bd 07ae 3abd 7a9f 03bc
00000340: 6af3 c1bc 74bd b1bb 9336 4d3b 9904 653a
00000350: e3fa 4b3c bc9c 7b3c b3bf 9d3c ae6d a4bc
00000360: 09c3 493c bfcb 9abc 80ac fcbb 6adb ae3b
00000370: a115 413c db21 0dbd 04e5 25bd 383c 27bc
00000380: ec01 18bd f9ae e6bd ee49 81bd ac54 f43b
00000390: 623b 56bb d6c6 f43c 4cd5 53bd 2204 b83c
000003a0: 3a4c 873c 0810 2d3d f2c1 a0bc 7e5d 003d
000003b0: f5b7 9fbb 319f 96bc 7eca cb3a 6ba0 20bc
000003c0: aeb7 273d 297a 603d eb9d 0dbd 6f5f 933d
000003d0: 7c7e fdbb b7c2 3ebd d9da 8a3d 29f8 fc3a
000003e0: b665 d4bd 946a 4a3c 8f9c a9bc bdb1 553d
000003f0: 7a37 803b f2aa 21bb 84d6 9fbc 006f 463c

conv2.bias f4 [64]
0.0026813573 -0.0008854884 0.0018110188 -0.00047192854 0.0048521524 -0.0025933962 0.00279853 -0.0033348866
0.0016334208 -0.0014493814 -0.004332019 0.00052869046 0.0020907926 0.002615974 0.003177157 0.0011902455
-0.0022950042 1.2982552e-05 -0.0040777274 -0.009996684 -0.004665802 -0.0030522514 -0.0031609545 -0.001771451
-0.003139967 -0.004166456 0.0030583546 0.00017652306 -0.0020719292 0.0009540058 -0.0018077195 0.0017084633
-0.0028234206 0.00048910145 -0.005834803 -0.0023807932 0.0063757654 -0.005032021 -0.002015729 0.00095747644
-0.00092624815 -0.0010093505 0.0038242294 0.0051658335 0.0009879834 -0.0014529234 -0.003474752 0.0027159587
-0.004541532 0.0049377847 -0.004473069 0.0013746347 0.0010221285 -0.0025291478 -0.0035563211 -0.0024864215
-0.003923035 -0.001980122 -0.00042045143 -0.003576916 0.001308777 0.0028662374 -0.00086177513 -0.0031052285
00000000: b6b9 2f3b 1f20 68ba b55f ed3a 2d6d f7b9
00000010: cefe 9e3b f8f5 29bb 8b67 373b 1d8e 5abb
00000020: 8218 d63a 2bf9 bdba 9cf3 8dbb d197 0a3a
00000030: ae05 093b c370 2b3b d937 503b 0302 9c3a
00000040: c867 16bb a3cf 5937 759e 85bb 22c9 23bc
00000050: 95e3 98bb 4808 48bb 0428 4fbb 0830 e8ba
00000060: e8c7 4dbb c486 88bb ad6e 483b 0c19 3939
00000070: 34c9 07bb 3f16 7a3a 00f1 ecba 84ee df3a
00000080: 2309 39bb 0b37 003a e031 bfbb 1507 1cbb
00000090: cceb d03b a7e3 a4bb 521a 04bb 28ff 7a3a
000000a0: 76cf 72ba 2f4c 84ba ec9f 7a3b 2746 a93b
000000b0: 397f 813a 0570 beba aab8 63bb 3afe 313b
000000c0: 22d1 94bb 24cd a13b d392 92bb 162d b43a
000000d0: f1f8 853a 0fc0 25bb 2b11 69bb 3bf3 22bb
000000e0: ce8c 80bb efc4 01bb 0970 dcb9 b16a 6abb
000000f0: 458b ab3a 7cd7 3b3b c0e8 61ba 1781 4bbb

conv3.weight f4 [64, 64, 3, 3]
-0.05568586 -0.008850106 -0.02365349 0.009572589 0.011120399 0.05003161 0.0137425065 3.2597854e-05
0.01565814 -0.06697859 0.021945413 -0.03684351 0.016026296 -0.012563101 0.0026670136 0.0501493
0.010813087 -0.011183748 0.011305028 0.03998162 -0.031530432 0.011798444 -0.021692188 -0.01402945
0.073815264 0.014217982 0.010409167 -0.04109171 0.058660794 -0.0349338 0.050225224 -0.038475376
-0.026935097 -0.08670416 0.023645813 -0.041213233 0.078231625 0.033193193 0.009229469 -0.002636638
0.055660646 -0.030379629 0.014308945 -0.037973795 -0.025068171 0.025987292 -0.092481114 -0.061856896
0.009218111 0.021632567 -0.02977104 0.00031442774 -0.030048147 -0.07690468 0.035590816 0.0533738
0.020429151 -0.0150446575 0.06715752 0.049113438 -0.019149855 -0.038197663 -0.02901573 0.043126278
-0.028638601 0.026667167 0.011715187 -0.052245077 -0.02106298 0.08962801 -0.02138155 -0.023380425
0.0221069 -0.010523454 0.0416177 -0.025629215 -0.013004108 0.056621313 0.03610682 0.013981393
0.019211264 0.013661244 0.0065162834 0.08152615 0.01929717 0.041954592 0.0012728104 0.0063336496
-0.021764254 -0.09819736 -0.018332696 0.034915734 -0.015103711 0.08200868 0.0039813602 0.022932747
0.031565186 0.0019309806 0.01451131 -0.040688865 0.04834949 0.07844993 0.029523866 -0.010998903
-0.07723087 -0.038595084 -0.006718405 -0.02786505 -0.03137432 0.02428096 0.054801088 -0.03488078
0.007804484 -0.044237938 -0.006934535 0.08276148 0.017964069 0.08461513 -0.014327917 -0.047277484
0.00037274876 0.02351921 -0.09271511 0.025924802 0.07308038 -0.033566475 -0.02008714 -0.00064881035
0.018613013 -0.03095376 -0.002973931 0.020114038 -0.027561963 0.020516075 0.03985357 0.021970218
0.0036236253 0.02705301 0.042884186 -0.00044934705 0.0032333788 0.011158261 0.046050504 -0.054372087
-0.063242294 0.06015014 0.020678962 0.020227611 -0.07396306 0.0044228346 -0.059968665 -0.028894018
-0.022150548 -0.02414182 -0.027666306 -0.022149283 -0.030397499 0.00055717054 0.021459231 0.036373258
-0.007330245 -0.019475684 0.008789452 0.01905181 0.015909417 -0.012712275 0.04669712 0.07727966
0.09151758 -0.010823647 -0.00035282676 0.002740799 -0.0007492706 0.052346077 -0.021442877 0.026681306
-0.0043890467 -0.014639657 -0.071346134 0.025572242 0.018997889 0.016042927 -0.04544871 -0.040715367
-0.06160367 0.012501003 -0.03129452 0.019281441 0.038559232 0.07391497 -0.0030216821 -0.009964677
0.0067225187 -0.019342015 -0.0011139308 0.012799273 0.0023547222 0.009520097 -0.05430395 0.041779958
-0.02464382 0.0035185143 -0.02268393 0.034598466 -0.0024979461 0.015799593 -0.016831767 -0.016622672
-0.04489585 0.020958513 -0.0028538294 -0.0093374895 -0.029427215 -0.032232784 0.031418487 -0.042028192
-0.020865053 0.09834225 -0.0024941324 0.01654857 -0.033524934 0.0010276664 -0.014022209 0.010274496
-0.041589584 0.010924476 -0.023079168 0.048909135 0.0700456 -0.02788368 0.04538154 0.0214369
-0.036880028 0.030316185 -0.073392406 0.011884736 0.063557364 0.02077958 0.008829762 -0.016737856
-0.10249922 -0.02148419 0.08880092 0.012508837 -0.022755612 0.06795439 -0.012714993 -0.03985617
0.0496306 -0.0317108 -0.057938784 -0.009127088 0.015720356 -0.0006215144 0.027826259 -0.019451354
00000000: db16 64bd 0900 11bc f7c4 c1bc 59d6 1c3c
00000010: 5632 363c f2ed 4c3d 4028 613c aeb9 0838
00000020: 8045 803c 122c 89bd dec6 b33c 38e9 16bd
00000030: 9449 833c 77d5 4dbc 10c9 2e3b 5a69 4d3d
00000040: 6029 313c 0a3c 37bc b938 393c c4c3 233d
00000050: 0e26 01bd 434e 413c d1b3 b1bc c7db 65bc
00000060: 752c 973d 8af2 683c 368b 2a3c c84f 28bd
00000070: 4d46 703d bf16 0fbd f7b8 4d3d 5b98 1dbd
00000080: fea6 dcbc f391 b1bd ddb4 c13c 35cf 28bd
00000090: e737 a03d 96f5 073d 3337 173c 72cb 2cbb
000000a0: 6bfc 633d b3de f8bc 1170 6a3c 698a 1bbd
000000b0: c45b cdbc 4de3 d43c bd66 bdbd a85d 7dbd
000000c0: 8f07 173c c836 b13c 65e2 f3bc c7d9 a439
000000d0: 8827 f6bc 3380 9dbd adc7 113d 7c9e 5a3d
000000e0: 095b a73c de7d 76bc e289 893d 2c2b 493d
000000f0: 28e0 9cbc 2775 1cbd 65b2 edbc 2ea5 303d
00000100: 809b eabc 1a75 da3c 0ef1 3f3c effe 55bd
00000110: 458c acbc e48e b73d 5c28 afbc 4e88 bfbc
00000120: 8819 b53c 916a 2cbc 5277 2a3d 5cf4 d1bc
00000130: 2f0f 55bc c0eb 673d bfe4 133d 3612 653c
00000140: f160 9d3c 69d3 5f3c 8c86 d53b 2ff7 a63d
00000150: 1915 9e3c 94d8 2b3d 6ed4 a63a 818a cf3b
00000160: f34a b2bc b31b c9bd 732e 96bc cd03 0f3d
00000170: 8e75 77bc 2bf4 a73d 1276 823b 75dd bb3c
00000180: 7f4a 013d f518 fd3a d8c0 6d3c 5ea9 26bd
00000190: 1d0a 463d 5baa a03d 09dc f13c be34 34bc
000001a0: 382b 9ebd e115 1ebd 1126 dcbb 3f45 e4bc
000001b0: 5c82 00bd dde8 c63c 1b77 603d 26df 0ebd
000001c0: c2bc ff3b d732 35bd 193b e3bb da7e a93d
000001d0: 6229 933c b34a ad3d a4bf 6abc 09a6 41bd
000001e0: 7e6d c339 5cab c03c 6be1 bdbd 4060 d43c
000001f0: 2bab 953d 007d 09bd c98d a4bc ed14 2aba
00000200: 517a 983c bd92 fdbc 48e6 42bb 32c6 a43c
00000210: a0c9 e1bc 5411 a83c 7f3d 233d e3fa b33c
00000220: 587a 6d3b 469e dd3c 54a7 2f3d 5796 ebb9
00000230: 18e7 533b 24d1 363c 749f 3c3d 44b5 5ebd
00000240: 2d85 81bd fe5f 763d ed66 a93c 60b4 a53c
00000250: f279 97bd 6ded 903b b4a1 75bd 26b3 ecbc
00000260: 1175 b5bc 11c5 c5bc 73a4 e2bc 6a72 b5bc
00000270: 2d04 f9bc 150f 123a 45cb af3c 20fc 143d
00000280: 8d32 f0bb 788b 9fbc a201 103c 8b12 9c3c
00000290: 7754 823c 2547 50bc 7b45 3f3d cc44 9e3d
000002a0: 926d bb3d aa55 31bc 9bfb b8b9 fa9e 333b
000002b0: b36a 44ba d768 563d f9a8 afbc c192 da3c
000002c0: fed1 8fbb 2cdb 6fbc ec1d 92bd e17c d13c
000002d0: 76a1 9b3c 756c 833c 6d28 3abd 28c5 26bd
000002e0: 2154 7cbd 02d1 4c3c af2e 00bd 1df4 9d3c
000002f0: 49f0 1d3d bb60 973d 6a07 46bb e242 23bc
00000300: 9348 dc3b 2573 9ebc 5101 92ba 0bb4 513c
00000310: af51 1a3b 2efa 1b3c d26d 5ebd 7621 2b3d
00000320: d6e1 c9bc e096 663b a6d3 b9bc 1fb7 0d3d
00000330: 95b4 23bb 266e 813c c6e2 89bc 452c 88bc
00000340: b6e4 37bd 30b1 ab3c 5007 3bbb 45fc 18bc
00000350: 5811 f1bc 8606 04bd acb0 003d c125 2cbd
00000360: 30ed aabc a967 c93d 9974 23bb de90 873c
00000370: 7151 09bd c3b2 863a 68bd 65bc 5c56 283c
00000380: d759 2abd 93fc 323c 8610 bdbc f254 483d
00000390: 1174 8f3d 516c e4bc fee1 393d 709c af3c
000003a0: 830f 17bd a659 f83c c24e 96bd 32b8 423c
000003b0: 5d2a 823d f039 aa3c b5aa 103c d41d 89bc
000003c0: 1ceb d1bd 9dff afbc 42dd b53d ddf1 4c3c
000003d0: fa69 babc ac2b 8b3d 8c52 50bc 3940 23bd
000003e0: 7549 4b3d 2fe3 01bd 3851 6dbd c889 15bc
000003f0: fac7 803c 20ed 22ba e5f3 e33c 7258 9fbc

conv3.bias f4 [64]
0.011240934 0.007937482 -0.018497387 0.019596532 -0.012244548 -0.018957414 0.018367184 0.022472689
0.019418174 0.011983513 0.01887099 0.020726627 0.014716438 -0.01609169 0.019500362 0.017643888
-0.0019674725 -0.0038527518 -0.0021183272 0.018667344 0.021659205 -0.016758304 -0.0117548825 0.014072323
0.019369746 -0.013087428 -0.003352829 0.015171639 0.020198733 0.014106053 -0.0027202475 0.019758109
0.020574262 0.016694268 0.017014937 0.014798781 -0.018669365 -0.00806595 0.020009782 0.016609479
-0.009877602 -0.011642561 0.021714842 0.00013405435 -0.006062642 -0.016246334 -0.012854524 0.021940777
0.013678915 0.004311523 -0.0031173544 -0.020086288 -0.0010249821 0.020923836 -0.006855663 0.020528514
-0.00035668132 -0.011741509 0.0074126697 0.021974457 0.018523982 -0.015540787 0.021935038 0.009415726
00000000: e52b 383c 360c 023c d587 97bc e888 a03c
00000010: 5b9d 48bc 944c 9bbc c776 963c a518 b83c
00000020: dd12 9f3c 7f56 443c 5697 9a3c e3ca a93c
00000030: 371d 713c b8d2 83bc 39bf 9f3c ea89 903c
00000040: b6f0 00bb 737e 7cbb a2d3 0abb 42ec 983c
00000050: a56e b13c b648 89bc 8d97 40bc 9a8f 663c
00000060: 4dad 9e3c a76c 56bc 23bb 5bbb 7792 783c
00000070: d077 a53c 131d 673c 2e46 32bb c2db a13c
00000080: 5b8b a83c 6bc2 883c e962 8b3c 9676 723c
00000090: 7ff0 98bc 0c27 04bc 8eeb a33c 9a10 883c
000000a0: aad5 21bc 71c0 3ebc 53e3 b13c f190 0c39
000000b0: 21a9 c6bb 0817 85bc c89b 52bc 25bd b33c
000000c0: 871d 603c ad47 8d3b 874c 4cbb 008c a4bc
000000d0: b158 86ba 7768 ab3c 78a5 e0bb 6a2b a83c
000000e0: f500 bbb9 755f 40bc fbe5 f23b c703 b43c
000000f0: 9bbf 973c c99e 7ebc 1cb1 b33c 6b44 1a3c

bn1.weight f4 [64]
1.0113283 1.0196315 0.9903998 0.9889611 1.0093789 0.9897156 0.98465645 1.0126474
0.98703754 0.9892619 1.0114635 1.0172253 0.9945725 0.99421674 0.9954323 0.9818351
1.01117 1.0029051 1.0188459 0.99220407 0.9841397 1.019586 0.9922134 0.9988402
1.0073897 1.01609 0.9956022 1.0005314 1.0136551 0.99833906 1.0038973 1.0057422
0.9980129 0.98597616 0.9853635 0.98542064 1.0138248 0.99251306 0.9914494 1.003129
1.0122405 0.995232 1.0128739 0.99572504 0.9947357 1.0141867 1.0109853 0.99798733
0.9892838 1.002103 1.017176 0.99360037 0.9997479 1.0150864 1.0194563 1.0096118
0.9866869 1.0018111 0.9953189 1.013384 1.0001698 0.99346447 0.984447 1.0091913
00000000: 3573 813f 4983 823f d78a 7d3f 8e2c 7d3f
00000010: 5433 813f 005e 7d3f 7212 7c3f 6e9e 813f
00000020: 7eae 7c3f 4540 7d3f a377 813f 7034 823f
00000030: 4e9c 7e3f fd84 7e3f a7d4 7e3f 8c59 7b3f
00000040: 056e 813f 325f 803f 8b69 823f 1601 7e3f
00000050: 94f0 7b3f cb81 823f b301 7e3f feb3 7f3f
00000060: 25f2 803f 3d0f 823f c9df 7e3f 6a11 803f
00000070: 73bf 813f 2693 7f3f b57f 803f 29bc 803f
00000080: c67d 7f3f ef68 7c3f c840 7c3f 8744 7c3f
00000090: 03c5 813f 5615 7e3f a1cf 7d3f 8866 803f
000000a0: 1991 813f 86c7 7e3f daa5 813f d6e7 7e3f
000000b0: 00a7 7e3f dfd0 813f f767 813f 197c 7f3f
000000c0: b441 7d3f e944 803f d332 823f 985c 7e3f
000000d0: 7aef 7f3f 5aee 813f 8b7d 823f f63a 813f
000000e0: 8397 7c3f 593b 803f 38cd 7e3f 91b6 813f
000000f0: 9005 803f b053 7e3f b804 7c3f 2e2d 813f

bn1.bias f4 [64]
0.008222828 -0.010262373 0.00021624187 -0.011940608 -0.020134311 0.015346196 0.009061694 0.013420619
-0.012013885 -0.011176856 0.0018407373 0.012860531 -0.0004906732 1.5983804e-05 0.015343889 -0.010973576
0.016148247 0.0014846119 0.00400247 -0.0017155386 0.0035203868 -0.019654928 -0.010817659 -0.00010012893
0.003875817 -0.0092832185 -0.0012396226 -0.014226183 0.004619075 -0.020028653 -0.0004761431 0.0067407046
0.014692553 -0.017314969 0.001653852 -0.008598831 -0.015669925 -0.002032275 0.004715845 0.013145875
0.017122252 -0.015425671 0.008589227 0.0005103293 -0.010849558 0.013515307 -0.0014029082 -0.0030958217
-0.010299781 -0.01588913 0.00036670908 0.011028331 0.005219039 -0.0030672313 0.014484875 -0.017433444
0.017586078 -0.013740825 0.019355474 0.014587768 0.009359394 -0.005223741 -0.019515377 -0.018621296
00000000: 0ab9 063c 8323 28bc fcbe 6239 8aa2 43bc
00000010: b6f0 a4bc 9c6e 7b3c 8077 143c 28e2 5b3c
00000020: e3d5 44bc 221f 37bc e544 f13a fab4 523c
00000030: 85a0 00ba f514 8637 ef64 7b3c 84ca 33bc
00000040: 5449 843c 4f97 c23a 2727 833b ecdb e0ba
00000050: 4ab6 663b 5f03 a1bc 8d3c 31bc 4ffc d1b8
00000060: 6b01 7e3b a418 18bc d57a a2ba f014 69bc
00000070: 9c5b 973b 2113 a4bc d8a2 f9b9 21e1 dc3b
00000080: 09b9 703c 1fd8 8dbc 11c6 d83a 1ce2 0cbc
00000090: 375e 80bc eb2f 05bb 6087 9a3b cc61 573c
000000a0: f743 8c3c f4bb 7cbc d4b9 0c3c 9fc7 053a
000000b0: 58c2 31bc 4e6f 5d3c cae1 b7ba 45e3 4abb
000000c0: 6ac0 28bc ec29 82bc dc42 c039 2cb0 343c
000000d0: 7904 ab3b 9a03 49bb f851 6d3c 95d0 8ebc
000000e0: ae10 903c 3221 61bc 5f8f 9e3c 8901 6f3c
000000f0: 2558 193c ea2b abbb b6de 9fbc b08b 98bc

bn1.running_mean f4 [64]
-0.0036473307 -0.0005058534 0.012201743 0.0056108055 -0.0049076146 0.014885233 0.011686957 0.004657018
-0.001298956 -0.00170802 -0.007262608 -0.004681398 0.0021115865 -0.0027894278 0.0038237243 -0.0062900763
0.014852709 -0.00914808 0.0076240455 0.011394934 0.006902961 -0.006689218 -0.014797095 0.004338613
0.012598287 0.00075038953 -0.005653964 -0.0012360683 -0.01010318 -0.007809166 -0.002369223 0.0024106214
0.025604108 -0.01708077 0.01646164 -0.013017097 -0.008889978 0.0024061492 -0.0053592226 0.011845452
0.016779194 -0.0016385389 0.0009866502 -0.016978974 -0.0060975202 -0.012836698 -0.022115104 -0.015161135
0.010509591 -0.001311674 -0.0043224515 0.0043058055 -0.007954945 -0.007336403 -0.018504428 0.0075760745
0.022807682 -0.008231604 0.014936996 0.0032426952 0.0070179007 0.016338328 -0.009347678 -0.014960915
00000000: 0e08 6fbb 3f9b 04ba d2e9 473c d9da b73b
00000010: 0ed0 a0bb 31e1 733c a77a 3f3c e699 983b
00000020: bb41 aaba a4df dfba 2cfb edbb 6a66 99bb
00000030: 8b62 0a3b d5ce 36bb 7397 7a3b fc1c cebb
00000040: c758 733c d4e1 15bc 21d3 f93b d1b1 3a3c
00000050: 3c32 e23b 3a31 dbbb 846f 72bc ec2a 8e3b
00000060: 0c69 4e3c cab5 443a e344 b9bb 9203 a2ba
00000070: cf87 25bc 08e4 ffbb f744 1bbb 84fb 1d3b
00000080: b5bf d13c f9ec 8bbc 90da 863c a945 55bc
00000090: 45a7 11bc 7cb0 1d3b 6b9c afbb 6d13 423c
000000a0: 8574 893c 3ec4 d6ba 7d52 813a 7d17 8bbc
000000b0: b5cd c7bb 0451 52bc bc2a b5bc 6966 78bc
000000c0: 6b30 2c3c 7aec abba 5aa3 8dbb b717 8d3b
000000d0: 7555 02bc 3566 f0bb 9996 97bc b840 f83b
000000e0: 2dd7 ba3c d9dd 06bc 4dba 743c 6683 543b
000000f0: 6bf6 e53b f5d7 853c 0127 19bc a01e 75bc

bn1.running_var f4 [64]
0.03352954 0.03216601 0.031638056 0.04632884 0.017783675 0.054827556 0.03461919 0.039722383
0.014773719 0.06967307 0.0149374185 0.0071804947 0.015316638 0.020745048 0.039509255 0.027493382
0.04264366 0.041363575 0.046137378 0.012345277 0.04526167 0.07765352 0.037488155 0.014668258
0.039434567 0.012935105 0.016773267 0.033910178 0.034983356 0.033051554 0.03739129 0.0070430785
0.07065888 0.027116587 0.051722273 0.040438756 0.025300315 0.020032546 0.007962294 0.105208375
0.04129545 0.0368925 0.04773273 0.05823998 0.040544093 0.04078242 0.041937765 0.044451207
0.007400948 0.01095155 0.03784511 0.0076587643 0.035809636 0.024944464 0.060992382 0.022579452
0.08758005 0.063825704 0.036831655 0.0059499796 0.022503238 0.02342266 0.032924287 0.04669904
00000000: 4556 093d 82c0 033d e896 013d 4fc3 3d3d
00000010: 12af 913c dc92 603d dacc 0d3d f0b3 223d
00000020: 780d 723c c1b0 8e3d 13bc 743c 5b4a eb3b
00000030: a3f2 7a3c 85f1 a93c 75d4 213d cd39 e13c
00000040: 1eab 2e3d da6c 293d 8cfa 3c3d d843 4a3c
00000050: 4d64 393d cf08 9f3d 2e8d 193d 2253 703c
00000060: 2486 213d c3ed 533c 1768 893c 66e5 0a3d
00000070: b54a 0f3d 1161 073d 9c27 193d a0c9 e63b
00000080: 9ab5 903d 9b23 de3c bcda 533d 1ca3 253d
00000090: 9b42 cf3c 4b1b a43c 4874 023c 7d77 d73d
000000a0: 6b25 293d 971c 173d 6583 433d 0c8d 6e3d
000000b0: 9011 263d 780b 273d efc6 2b3d 7812 363d
000000c0: a783 f23b 216e 333c 7903 1b3d 5ff6 fa3b
000000d0: 20ad 123d 5558 cc3c 26d3 793d 8bf8 b83c
000000e0: 2b5d b33d 0db7 823d cadc 163d 0cf8 c23b
000000f0: b658 b83c e1e0 bf3c 9edb 063d 7e47 3f3d

bn2.weight f4 [64]
0.9957682 1.0098462 0.9887245 1.0032262 1.0049961 0.9900075 0.9981281 1.0069274
1.0027952 0.9977979 0.9822705 1.0112436 0.98958474 1.0045059 1.0150791 1.0180922
1.0175704 0.9858093 0.9854258 0.9971827 0.9999047 0.99030197 0.9907799 1.0192125
0.9998711 0.9917729 1.006572 1.0057837 0.9813076 0.99057513 0.99605495 1.004684
1.0077089 0.9930376 1.0159079 0.9880409 0.99712276 0.9915282 0.99149925 0.9985097
0.9897075 1.0157963 1.0002933 0.99648404 0.99032503 1.0058507 0.9834786 0.99585485
0.9848788 0.99286854 1.0207802 0.98958075 1.0109558 1.0023699 0.98379093 1.0062938
1.0067534 1.014637 0.9855395 0.9892214 0.99185413 1.0117376 0.98500335 1.0178607
00000000: aaea 7e3f a442 813f 0d1d 7d3f b769 803f
00000010: b6a3 803f 2271 7d3f 5385 7f3f ffe2 803f
00000020: 985b 803f af6f 7f3f 1476 7b3f 6e70 813f
00000030: 6d55 7d3f a693 803f 1dee 813f d850 823f
00000040: bf3f 823f 005e 7c3f dd44 7c3f 5e47 7f3f
00000050: c1f9 7f3f 6e84 7d3f c0a3 7d3f 8e75 823f
00000060: 8df7 7f3f d4e4 7d3f 5ad7 803f 85bd 803f
00000070: fa36 7b3f 5596 7d3f 75fd 7e3f 7c99 803f
00000080: 9bfc 803f b637 7e3f 4509 823f 40f0 7c3f
00000090: 7043 7f3f cbd4 7d3f e5d2 7d3f 559e 7f3f
000000a0: 795d 7d3f 9d05 823f 9c09 803f 9419 7f3f
000000b0: f185 7d3f b7bf 803f 41c5 7b3f 58f0 7e3f
000000c0: 0421 7c3f a22c 7e3f eda8 823f 2a55 7d3f
000000d0: 0067 813f a84d 803f b9d9 7b3f 3cce 803f
000000e0: 4cdd 803f a0df 813f 514c 7c3f 9d3d 7d3f
000000f0: 27ea 7d3f 9e80 813f 2e29 7c3f 4249 823f

bn2.bias f4 [64]
0.010126789 0.008898516 -0.022353437 -0.006583383 0.0016348863 -0.014424216 0.0026792253 -0.0071687265
-0.0017919707 -0.023145502 -0.012778567 0.015675208 0.0020424544 -0.021389011 0.019622039 0.01335204
0.008444629 -0.020993466 -0.01609922 0.012592232 0.01176305 0.006361111 -0.006223806 0.021060891
0.008651686 0.01932759 0.002468233 -0.011662972 0.014404985 0.015624036 -0.0012182788 -0.011968363
0.011054018 0.012115128 0.020107254 -0.011273087 -0.020342212 0.019448655 -0.0064551337 0.008526341
-0.014483812 0.017718893 0.0123549905 -0.01901441 -0.0048223073 0.019277988 -0.010198487 -0.0008591312
0.0006689547 -0.011825862 0.0068694153 -0.00946945 0.01035961 0.0042219814 -0.00028531018 -0.016896468
-0.02228371 0.016829994 0.0037920347 -0.0092840735 -0.008691782 0.0037907737 0.0057970965 0.02485756
00000000: d5ea 253c 15cb 113c 8e1e b7bc 6bb9 d7bb
00000010: ae49 d63a 8c53 6cbc f195 2f3b a3e7 eabb
00000020: 8fe0 eaba a39b bdbc 325d 51bc 4b69 803c
00000030: b3da 053b 0238 afbc 66be a03c 84c2 5a3c
00000040: 575b 0a3c 7dfa abbc 83e2 83bc a64f 4e3c
00000050: cfb9 403c de70 d03b 12f1 cbbb e487 ac3c
00000060: cdbf 0d3c e554 9e3c 14c2 213b 0d16 3fbc
00000070: e302 6c3c f5fb 7f3c a7ae 9fba f416 44bc
00000080: e91b 353c 887e 463c f8b7 a43c c1b2 38bc
00000090: b6a4 a6bc c952 9f3c 9685 d3bb 11b2 0b3c
000000a0: 834d 6dbc 3627 913c 966c 4a3c 1cc4 9bbc
000000b0: 7204 9ebb dfec 9d3c 8e17 27bc 5237 61ba
000000c0: ca5c 2f3a 43c1 41bc d518 e13b c125 1bbc
000000d0: 5bbb 293c 8c58 8a3b af95 95b9 766a 8abc
000000e0: 548c b6bc 0edf 893c c983 783b 3a1c 18bc
000000f0: fa67 0ebc a16e 783b 92f5 bd3b 15a2 cb3c

bn2.running_mean f4 [64]
-2.9025455 -0.5139851 2.8149884 2.3130298 0.48575673 2.24729 -0.23482107 -0.8062507
-0.23754144 -0.6512232 0.9038399 2.078503 1.4404589 1.5785754 0.58309567 -0.60994667
0.66456735 -0.60324746 1.5130293 1.7948278 2.3382869 -1.3101166 -3.189839 0.8500892
0.2775551 2.405555 1.5799183 0.86352557 2.247666 1.6497407 0.5507055 2.2249763
2.4220307 0.65585995 0.4046189 -0.60610944 1.1868631 -0.029305842 -0.39101672 1.5709507
1.2758052 0.020572694 0.9402697 -0.058894046 -1.7268393 0.79838264 -2.43108 -0.5716019
1.2644151 1.0780172 0.68287736 0.21434487 1.0316586 0.34332532 2.4795637 0.014693224
0.22864251 0.44480455 3.2031255 -0.5415701 -0.28188387 -0.9003089 0.95321256 0.66690105
00000000: 4ec3 39c0 8794 03bf c528 3440 ae08 1440
00000010: 1bb5 f83e 99d3 0f40 ef74 70be 7266 4ebf
00000020: 103e 73be 90b6 26bf 0d62 673f 3106 0540
00000030: f560 b83f c20e ca3f c245 153f 7725 1cbf
00000040: 1621 2a3f 6d6e 1abf f2aa c13f ebbc e53f
00000050: 7ea6 1540 e7b1 a7bf 5226 4cc0 729f 593f
00000060: b41b 8e3e 9df4 1940 c33a ca3f 0310 5d3f
00000070: c2d9 0f40 b42a d33f 09fb 0c3f 0366 0e40
00000080: 8d02 1b40 70e6 273f 352a cf3e fd29 1bbf
00000090: 21eb 973f ce12 f0bc 5833 c8be ea14 c93f
000000a0: 964d a33f 1188 a83c 84b5 703f e23a 71bd
000000b0: 1209 ddbf ce62 4c3f d196 1bc0 8154 12bf
000000c0: 5bd8 a13f 78fc 893f 0dd1 2e3f 397d 5b3e
000000d0: 640d 843f 56c8 af3e 2cb1 1e40 d9bb 703c
000000e0: 4321 6a3e 6cbd e33e 0200 4d40 57a4 0abf
000000f0: 1553 90be a57a 66bf bd05 743f 07ba 2a3f

bn2.running_var f4 [64]
6.1516356 2.7981536 5.0690265 5.555718 2.1042528 4.329723 2.7778113 2.3370519
1.3619151 1.4182616 1.0195179 2.714644 2.8378325 3.0282624 3.1181102 2.4906094
1.9946573 3.1131344 3.8488746 2.4083815 5.2276692 1.1057177 6.410636 3.2796385
1.3809412 5.6734724 3.6707783 1.6015544 3.7913857 5.252692 3.3214228 5.709936
4.4532466 1.9351226 1.2915177 2.0885894 2.2260668 1.701226 2.4204764 3.0733519
1.5526785 1.913577 3.4261417 2.197796 5.1730323 2.47598 5.2492976 2.512542
2.9737 3.2713912 2.227001 1.763914 2.581873 1.4074007 6.2965984 2.041234
2.6649554 2.6645663 6.4553695 2.18279 3.2214386 1.584936 2.297654 1.8115782
00000000: 33da c440 f314 3340 7735 a240 71c8 b140
00000010: 14ac 0640 178d 8a40 a9c7 3140 4292 1540
00000020: 3c53 ae3f 9989 b53f 907f 823f babc 2d40
00000030: 0c9f 3540 0dcf 4140 1e8f 4740 2566 1f40
00000040: ee50 ff3f 983d 4740 f653 7640 ec22 1a40
00000050: 1149 a740 2888 8d3f ee23 cd40 99e5 5140
00000060: aec2 b03f 168d b540 08ee 6a40 bcff cc3f
00000070: 10a6 7240 0e16 a840 3192 5440 ccb7 b640
00000080: ff80 8e40 19b2 f73f 7450 a53f 73ab 0540
00000090: e177 0e40 c6c1 d93f 16e9 1a40 ccb1 4440
000000a0: 2bbe c63f 17f0 f43f e845 5b40 b1a8 0c40
000000b0: 7b89 a540 7576 1e40 3ffa a740 7dcd 2040
000000c0: 1a51 3e40 795e 5140 2f87 0e40 efc7 e13f
000000d0: 683d 2540 b525 b43f bc7d c940 94a3 0240
000000e0: a18e 2a40 4188 2a40 6392 ce40 d5b2 0b40
000000f0: 0d2c 4e40 2fdf ca3f c30c 1340 cbe1 e73f

bn3.weight f4 [64]
1.0252763 1.0250993 1.0262613 1.0260895 1.0263464 1.0252734 1.0246259 1.0261493
1.0247034 1.0256484 1.0252067 1.025501 1.0250787 1.0244046 1.0246794 1.0253146
1.0254818 1.0254694 1.0253695 1.0256999 1.0256383 1.0258601 1.0249057 1.0246675
1.0262707 1.0246634 1.0256598 1.0255646 1.0254314 1.0251479 1.0249476 1.0254955
1.0256201 1.0247781 1.025059 1.0256385 1.0256732 1.02579 1.026295 1.0242696
1.025855 1.0254567 1.0248263 1.0248574 1.0260307 1.0256748 1.0260243 1.0260994
1.0246547 1.0249935 1.0246608 1.025075 1.0241352 1.0245643 1.0255263 1.025931
1.026066 1.0260969 1.0259461 1.0251395 1.0257264 1.0260768 1.0257345 1.0262069
00000000: 413c 833f 7436 833f 885c 833f e756 833f
00000010: 525f 833f 293c 833f f126 833f dc58 833f
00000020: 7b29 833f 7248 833f f939 833f 9e43 833f
00000030: c735 833f b11f 833f b228 833f 823d 833f
00000040: fd42 833f 9542 833f 4f3f 833f 224a 833f
00000050: 1e48 833f 624f 833f 1c30 833f 4e28 833f
00000060: d75c 833f 2c28 833f d248 833f b345 833f
00000070: 5641 833f 0c38 833f 7c31 833f 7043 833f
00000080: 8547 833f ee2b 833f 2235 833f 1f48 833f
00000090: 4249 833f 164d 833f a25d 833f 441b 833f
000000a0: 374f 833f 2a42 833f 822d 833f 872e 833f
000000b0: f954 833f 5049 833f c454 833f 3a57 833f
000000c0: e327 833f fd32 833f 1628 833f a835 833f
000000d0: dd16 833f ec24 833f 7244 833f b551 833f
000000e0: 2156 833f 2557 833f 3452 833f c537 833f
000000f0: 014b 833f 7c56 833f 454b 833f bf5a 833f

bn3.bias f4 [64]
0.026027353 0.023096686 0.025713362 0.023042012 0.025737133 0.025013473 0.02420096 0.024988154
0.023155946 0.02547092 0.025612962 0.02272299 0.025328835 0.025704267 0.025782086 0.02141745
0.02510559 0.02585049 0.025819348 0.025019683 0.025460513 0.024922397 0.024913004 0.023978971
0.024202239 0.025784412 0.025855545 0.024316488 0.017157182 0.025544865 0.016046815 0.025118383
0.026218368 0.023614965 0.018462675 0.026130017 0.02586278 0.018561546 0.025793303 0.024147844
0.025965462 0.025649726 0.023925228 0.020355508 0.024908766 0.025908178 0.025933782 0.024946975
0.023194866 0.026178481 0.020138413 0.025147984 0.024801549 0.023440877 0.0245927 0.025000814
0.024276713 0.024105929 0.024351902 0.024022914 0.025801923 0.02247941 0.026428798 0.022260828
00000000: 5137 d53c 4335 bd3c d4a4 d23c 9ac2 bc3c
00000010: aed6 d23c 0ee9 cc3c 1741 c63c f5b3 cc3c
00000020: 8ab1 bd3c 64a8 d03c 46d2 d13c 9025 ba3c
00000030: 6b7e cf3c c191 d23c f434 d33c a673 af3c
00000040: 3daa cd3c 68c4 d33c 1983 d33c 14f6 cc3c
00000050: 9192 d03c 0e2a cc3c 5b16 cc3c 8c6f c43c
00000060: c643 c63c d539 d33c 02cf d33c 5f33 c73c
00000070: 388d 8c3c 7743 d13c 9c74 833c 11c5 cd3c
00000080: e7c7 d63c 2c74 c13c 093f 973c 9e0e d63c
00000090: 2ede d33c 620e 983c 7a4c d33c b3d1 c53c
000000a0: 85b5 d43c 601f d23c d7fe c33c 98c0 a63c
000000b0: 780d cc3c 633d d43c 1573 d43c 995d cc3c
000000c0: 2903 be3c 4174 d63c 50f9 a43c 2503 ce3c
000000d0: 9e2c cb3c 1507 c03c a176 c93c 82ce cc3c
000000e0: f5df c63c cc79 c53c a47d c73c b4cb c43c
000000f0: 8e5e d33c bd26 b83c 3581 d83c 575c b63c

bn3.running_mean f4 [64]
0.9174563 1.9322966 -0.81367946 0.5470526 -0.8198356 -2.1900575 1.6213676 1.8962379
1.9394406 1.3995528 0.74972826 1.8934655 1.8551164 -1.6417124 1.5930859 1.6062531
-0.35511947 0.67730105 -0.5486491 1.216023 1.9001993 -0.8382426 -1.8227506 1.1564085
1.2513604 -0.6125063 -1.7387543 1.6076871 2.2624812 1.1590934 -1.7321355 1.2366047
1.2369878 1.6656189 1.2900108 0.016020205 -1.1004182 -0.5875699 1.2569969 0.21802709
0.16713607 0.524032 2.3174624 -0.117447264 0.9577644 -0.5365796 -2.1349058 2.1538014
1.9073148 -0.4339556 0.505937 -0.9524831 0.2062138 3.0838573 -0.14042418 1.4034693
0.10670483 1.0881653 1.055888 2.5067503 1.5630062 -0.76985425 0.9304271 -0.18595098
00000000: 6bde 6a3f 7f55 f73f 4c4d 50bf a40b 0c3f
00000010: bfe0 51bf e729 0cc0 f988 cf3f ecb7 f23f
00000020: 973f f83f 8c24 b33f 31ee 3f3f 145d f23f
00000030: 7474 ed3f a223 d2bf 3dea cb3f b499 cd3f
00000040: 38d2 b5be 9a63 2d3f 4474 0cbf a4a6 9b3f
00000050: bb39 f33f 1197 56bf e44f e9bf 3205 943f
00000060: 942c a03f 36cd 1cbf 808f debf b1c8 cd3f
00000070: 7ecc 1040 2c5d 943f 9eb6 ddbf 1049 9e3f
00000080: 9e55 9e3f 0033 d53f 131f a53f ce3c 833c
00000090: 81da 8cbf fb6a 16bf 46e5 a03f 7e42 5f3e
000000a0: b825 2b3e f626 063f 4e51 1440 3188 f0bd
000000b0: 0c30 753f 485d 09bf 4ca2 08c0 e2d7 0940
000000c0: e422 f43f 6e2f debe 1685 013f efd5 73bf
000000d0: b629 533e eb5d 4540 5bcb 0fbe e2a4 b33f
000000e0: 1088 da3d 0049 8b3f 5727 873f 996e 2040
000000f0: 9610 c83f 2b15 45bf 7830 6e3f ef69 3ebe

bn3.running_var f4 [64]
1.2925435 1.747711 1.3130124 0.5149482 0.5939972 2.82842 1.0472008 1.3957692
1.3578147 1.6569995 1.1312196 0.82636017 0.8929008 1.7768673 2.3355682 1.253193
1.1158892 1.953376 1.2102493 1.7977111 0.95488274 1.530167 0.9381057 1.1847975
1.239502 1.5400287 2.8584201 1.7497226 2.0026937 1.2433653 1.8594732 3.116419
1.006791 1.2903732 1.6154324 1.6595063 1.2481806 1.1287305 0.7526566 2.286557
0.7145932 1.0302265 1.49458 1.805395 0.5688813 1.7315025 0.6733557 2.280808
2.2362027 1.0620873 1.6742637 1.1100954 3.0717242 1.8981463 1.326045 1.1661967
1.451796 1.7833767 2.6438458 1.588425 1.588196 0.7417377 0.8132735 1.140733
00000000: 1172 a53f feb4 df3f ca10 a83f a5d3 033f
00000010: 3310 183f d504 3540 ad0a 863f 91a8 b23f
00000020: dfcc ad3f 8f18 d43f cecb 903f 578c 533f
00000030: 2695 643f 6370 e33f f379 1540 a168 a03f
00000040: 75d5 8e3f 3a08 fa3f 73e9 9a3f 661b e63f
00000050: 3273 743f 83dc c33f b227 703f 72a7 973f
00000060: 00a8 9e3f a91f c53f 5bf0 3640 e9f6 df3f
00000070: 222c 0040 9826 9f3f 3803 ee3f 6973 4740
00000080: 87de 803f f32a a53f 7dc6 ce3f b46a d43f
00000090: 62c4 9f3f 3e7a 903f 1aae 403f f356 1240
000000a0: 94ef 363f 76de 833f 664e bf3f 2f17 e73f
000000b0: 34a2 113f e0a1 dd3f 0a61 2c3f c2f8 1140
000000c0: f21d 0f40 7af2 873f 464e d63f 9b17 8e3f
000000d0: 2197 4440 75f6 f23f d8bb a93f ef45 953f
000000e0: 74d4 b93f b045 e43f c534 2940 8351 cb3f
000000f0: 024a cb3f 86e2 3d3f b132 503f 8a03 923f

fc.weight f4 [5, 64]
-0.0087126875 0.0019477316 0.0015884404 -0.007765998 0.0017868796 -0.003048077 -0.0029163433 0.001258671
0.009669105 -0.0008520925 -0.007837583 -0.015327705 -0.00656801 -0.004620711 0.0055921413 0.0074024103
-0.0017751985 0.001334908 -0.011778417 -0.008890334 0.005207982 0.010440954 0.0020926988 0.01086212
-0.011628748 -0.0007703934 -0.0028364756 -0.0032504925 0.010778051 -0.012514099 -0.006005916 -0.0007537109
0.015697123 0.0038064225 -0.001790879 0.0061749127 -0.0033322535 -0.0064076446 0.007923809 -0.0012131247
0.008370533 -0.004712238 -0.016091222 -0.0020899721 -0.005759386 -0.00083059387 0.010063133 0.0036031005
-0.0009905972 0.011121171 -0.032163884 -0.0013874259 -0.004058664 -0.0005148351 -0.008162069 -0.006111346
0.0031257302 0.0054004625 -0.00035309474 0.0011575953 -0.0053166295 -0.004351401 0.009126942 0.0027922955
0.014571188 -0.0034519492 0.0057971347 -0.0030052653 0.009495707 -0.0027772964 0.0022679693 0.00689817
0.007861462 -0.004661248 -0.0017810725 0.00052480085 -0.0058317175 0.0042111264 0.0066279066 0.0051787044
0.006758857 0.007453042 -0.0050621484 -0.010102934 0.004625867 0.008810035 -0.0063395686 0.0020071347
-0.0004290197 0.0035535942 0.00084427145 -0.0013494727 -0.008521207 -0.00072231615 0.0031804089 -0.006780245
0.0073175873 0.002725957 -0.00023556355 0.010601373 -0.00019561974 -0.0021173658 0.012237451 0.007137082
0.0049498198 -0.009912265 -0.0020576222 0.006379755 0.0013195643 0.007794734 0.009925722 -0.0052579613
-0.00068109855 0.00030017042 -0.006378769 0.005849617 0.008537522 0.009558936 0.0031967307 -0.0062993574
0.00075814984 -0.0009546218 0.0052772085 0.001510641 0.0022886384 0.005624633 0.006089216 0.0044365535
-0.013830001 -0.0025033234 7.160264e-05 -0.0013990632 0.011620648 0.0040299697 -0.001666303 0.0013365895
0.0036527517 -0.0037036221 -0.018264223 -7.513515e-05 5.1260845e-06 -0.0060106004 0.0064055184 0.005450366
-0.003263357 -0.0053677754 -0.0106540015 -0.0048566666 0.0009933393 0.0032566804 0.00496356 0.01806404
-0.012353373 0.0010443589 -0.0038432055 0.0044464087 0.0069456487 -0.0013979429 0.0036001122 0.005183998
0.007245401 0.00024182367 0.00094223325 0.0070531205 -0.0067041363 -0.0059556663 0.01764609 0.0020706584
0.0062091905 -0.0020982332 -0.0037282219 0.004947198 0.0044365823 0.0016318967 0.0115863215 0.00093060755
-0.0004636643 0.0026129833 -0.015440979 -0.00092009874 0.0075641815 -0.0019467091 0.004770322 0.00023698008
0.0027347305 0.010919005 -0.006178564 0.0025569305 -0.027309315 0.007871056 0.0016113686 -0.0037339267
0.0010659421 0.0076097236 -0.0008717505 0.005274698 0.0021990682 0.00012076328 0.005852119 -0.0016767324
-0.0031973491 -0.0022372568 0.0038081543 0.0029491654 -0.005416835 -0.0016405401 -0.0029846174 -0.0038714774
0.0041554603 0.003111609 -0.018982308 -0.0038196172 -0.0006763928 0.010646071 -0.0027565248 0.019273529
-0.0029721227 0.0068612206 -0.007286511 -0.0075186384 0.0054700514 -0.005850465 0.0029755663 -0.0073433276
-0.005526759 -0.028334849 0.005436161 -0.0052627046 0.0007589125 -0.007288998 0.0073442743 0.006981764
0.004660094 -0.0046648816 -0.008812051 -0.0025374345 -0.003269571 0.006097373 0.012353336 -0.0011755603
-0.008782207 0.0015448134 -0.01741377 -0.0033222754 -0.006422121 0.011098211 -0.0020611575 0.0024550806
0.003136255 -0.00041560363 -0.005522322 -0.0010178443 0.0032788764 0.003021581 -0.00030333945 0.003774788
00000000: a9bf 0ebc 074b ff3a 3733 d03a ea79 febb
00000010: bb35 ea3a 3fc2 47bb 1f20 3fbb fef9 a43a
00000020: 2a6b 1e3c f65e 5fba 3569 00bc 0e21 7bbc
00000030: 7638 d7bb 5569 97bb 483e b73b eb8f f23b
00000040: c7ad e8ba 14f8 ae3a 43fa 40bc c3a8 11bc
00000050: b8a7 aa3b 8910 2b3c a925 093b 09f7 313c
00000060: 8186 3ebc 3af4 49ba 2ae4 39bb 3706 55bb
00000070: 6c96 303c ef07 4dbc 46cd c4bb af94 45ba
00000080: 4197 803c 2c75 793b edbb eaba ec56 ca3b
00000090: f061 5abb 38f7 d1bb ddd2 013c b601 9fba
000000a0: 8f24 093c 1e69 9abb bdd1 83bc eaf7 08bb
000000b0: 3bb9 bcbb 36bc 59ba d7df 243c ff21 6c3b
000000c0: edd6 81ba 9235 363c 47be 03bd 4ada b5ba
000000d0: 8bfe 84bb 00f6 06ba 33ba 05bc b041 c8bb
000000e0: 0dd9 4c3b 5df6 b03b 931f b9b9 74ba 973a
000000f0: 1f37 aebb 3296 8ebb 2b89 153c f2fe 363b
00000100: febb 6e3c 193a 62bb e4f5 bd3b fcf3 44bb
00000110: e293 1b3c 4d03 36bb 36a2 143b 0b0a e23b
00000120: 5dcd 003c 62bd 98bb e072 e9ba ca92 093a
00000130: fe17 bfbb 7dfd 893b e92e d93b 1fb2 a93b
00000140: 6779 dd3b a638 f43b 61e0 a5bb c786 25bc
00000150: 9694 973b f757 103c 28bc cfbb 228a 033b
00000160: 0dee e0b9 6be3 683b 1952 5d3a cae0 b0ba
00000170: 889c 0bbc d159 3dba 686e 503b d12c debb
00000180: 5fc8 ef3b f8a5 323b 9c01 77b9 62b1 2d3c
00000190: 461f 4db9 81c3 0abb 977f 483c 2fde e93b
000001a0: 1932 a23b 0e67 22bc 2cd9 06bb 440d d13b
000001b0: 3bf5 ac3a f86a ff3b 7f9f 223c fa4a acbb
000001c0: c08b 32ba 3160 9d39 fe04 d1bb 25ae bf3b
000001d0: f6e0 0b3c 159d 1c3c 3e80 513b d76a cebb
000001e0: 93be 463a 963f 7aba 6fec ac3b b300 c63a
000001f0: fbfc 153b d74e b83b 0c88 c73b 8260 913b
00000200: 3a97 62bc cc0e 24bb 6029 9638 c560 b7ba
00000210: 8864 3e3c d60d 843b da67 daba 8030 af3a
00000220: 0163 6f3b 78b8 72bb da9e 95bc e091 9db8
00000230: bb00 ac36 92f4 c4bb 62e5 d13b fc98 b23b
00000240: 0cde 55bb 2ae4 afbb 1f8e 2ebc ac24 9fbb
00000250: f032 823a 086e 553b 5ca5 a23b 0afb 933c
00000260: cd65 4abc dfe2 883a 4ade 7bbb 2eb3 913b
00000270: 5398 e33b 2e3b b7ba dcef 6b3b 87de a93b
00000280: d46a ed3b 0c92 7d39 3400 773a dd1d e73b
00000290: 5fae dbbb c027 c3bb 888e 903c e2b3 073b
000002a0: 7776 cb3b 8382 09bb 2f55 74bb 1b1c a23b
000002b0: c060 913b 5ee5 d53a 8ed4 3d3c 04f4 733a
000002c0: f817 f3b9 963e 2b3b 29fc 7cbc c832 71ba
000002d0: f4dc f73b b828 ffba 5c50 9c3b db7d 7839
000002e0: 2a39 333b a0e5 323c 8d75 cabb 2d92 273b
000002f0: c9b7 dfbc 9af5 003c 8f34 d33a e5b4 74bb
00000300: 15b7 8b3a fd5a f93b 3086 64ba 60d7 ac3b
00000310: 3e1e 103b 4b42 fd38 22c3 bf3b cec5 dbba
00000320: 9e8a 51bb f19e 12bb 3a92 793b c946 413b
00000330: b57f b1bb 6407 d7ba 9299 43bb 9db8 7dbb
00000340: 872a 883b 23ec 4b3b c980 9bbc 8b52 7abb
00000350: f44f 31ba dc6c 2e3c d0a6 34bb 85e3 9d3c
00000360: f2c7 42bb 17d4 e03b afc3 eebb e95e f6bb
00000370: 1e3e b33b 42b5 bfbb b801 433b 4ca0 f0bb
00000380: d119 b5bb 7c1e e8bc d321 b23b c472 acbb
00000390: c1f1 463a 8cd8 eebb 3da8 f03b 48c7 e43b
000003a0: b4b3 983b dddb 98bb 6c60 10bc 164b 26bb
000003b0: 4d46 56bb 79cc c73b a665 4a3c 4215 9aba
000003c0: 3fe3 0fbc 567b ca3a 53a7 8ebc 88ba 59bb
000003d0: a870 d2bb 45d5 353c 7c14 07bb 6be5 203b
000003e0: a189 4d3b 60e5 d9b9 98f4 b4bb 3069 85ba
000003f0: 6be2 563b b805 463b 8809 9fb9 6f62 773b

fc.bias f4 [5]
0.98576075 1.0178068 0.9988233 0.989246 1.0071902
00000000: d15a 7c3f 7e47 823f e2b2 7f3f 3a3f 7d3f
00000010: 9ceb 803f
