maml-notebook/model/model-epoch_00030-train_loss_0.140-train_acc_0.854-test_loss_0.511-test_acc_0.857.pt (torch_old, 305688 bytes, 20 tensors)

conv1.weight f4 [64, 1, 3, 3]
0	0x3d1e6f52	0.038680382
1	0x3dd73ad6	0.10509269
2	0xbd25b455	-0.04045518
3	0xbcd6ef47	-0.026237143
4	0x3d5df52a	0.054188885
5	0x3d2af9ab	0.04174201
6	0xbd3a0024	-0.04541029
7	0x3c629600	0.013829708
8	0x3ca624a2	0.02028114
9	0xbbfd1759	-0.0077237305
10	0xbdfa521a	-0.12222691
11	0xbca2f160	-0.019890487
12	0x3d33a1f2	0.043855615
13	0x3d965e01	0.073421486
14	0xbd2fc56e	-0.042912893
15	0x3b81519d	0.0039464966
16	0x3d623201	0.05522347
17	0x3da01a3f	0.07817506
18	0xbcc2bf0d	-0.02377274
19	0xbcf4682a	-0.029834826
20	0xbd99861d	-0.07496283
21	0xbcac6385	-0.021043548
22	0x3d50218e	0.05081325
23	0xbda65c46	-0.081230685
24	0xbd65abf8	-0.056072205
25	0x3ce84ca6	0.028356861
26	0xbcfe1144	-0.031014092
27	0xbe188908	-0.14896023
28	0x3d22f3fb	0.03978346
29	0xbdb64ba2	-0.089011446
30	0x3c4d671c	0.01253679
31	0x3dda5b38	0.1066193
32	0xbd42a253	-0.047518086
33	0x3d055e67	0.032560732
34	0x3d8d9046	0.069122836
35	0xbcc5875c	-0.024112396
36	0xbb1e3410	-0.0024139918
37	0x3d99e185	0.075137176
38	0xbd10c161	-0.03534067
39	0x3cebfd0e	0.02880719
40	0xbc0aefd6	-0.008480033
41	0xbd3ed70f	-0.046591815
42	0x3d659da1	0.05605853
43	0x3ce2ff7d	0.027709717
44	0xbd79a157	-0.06094488
45	0x3b580676	0.0032962835
46	0xbd9e6506	-0.077341124
47	0xbcc96530	-0.024584383
48	0xbdf56868	-0.119828045
49	0xbd6b9f09	-0.057524715
50	0xbca70b24	-0.020391054
51	0x3d318f1a	0.043349363
52	0xbb89fac5	-0.0042108023
53	0x3ce1a136	0.027542692
54	0xbda0013c	-0.078127354
55	0xbb3cc528	-0.0028804038
56	0xbdc1e3fe	-0.09467314
57	0x3cc54419	0.024080323
58	0xbd4c8f6b	-0.04994146
59	0x3e067456	0.13130316
60	0xbce34b42	-0.027745847
61	0x3c805a0e	0.015667941
62	0xbdf83624	-0.121197015
63	0xbd6181e3	-0.05505551
64	0xbd06452d	-0.032780815
65	0xbd1de15b	-0.038544994
66	0x3bb658d6	0.0055647893
67	0xbcbbbc69	-0.02291699
68	0x3dc0180f	0.09379589
69	0x3d8d999b	0.069140635
70	0x3dbb02dc	0.09131405
71	0x398d0296	0.00026895542
72	0x3c47c3c3	0.012192669
73	0xbd0466cc	-0.032324597
74	0x3ca4efeb	0.020133933
75	0x3d89cb10	0.06728184
76	0xbcba32bf	-0.022729276
77	0x3dc2f8d0	0.095201135
78	0xbc34030c	-0.010987055
79	0x3d326167	0.04354992
80	0xbd5bd7c3	-0.053672563
81	0x3d603607	0.054739024
82	0xbd870d50	-0.06594336
83	0x3d135aa5	0.035975117
84	0x3dd89e7f	0.10577106
85	0x3c85fe96	0.016356748
86	0x3e1851b4	0.14874917
87	0xb92f2484	-0.00016702904
88	0xbd3e4921	-0.04645646
89	0x3d247e47	0.04015949
90	0xbcd3c228	-0.025849417
91	0xbd27ef09	-0.040999446
92	0xbabbfa6e	-0.0014341602
93	0x3d1d1536	0.038350306
94	0x3dad5c5d	0.084648825
95	0x3ced7a00	0.028988838
96	0x3c8c7111	0.017143758
97	0xbd21b846	-0.039482377
98	0xbcb2f647	-0.02184595
99	0xbc868bcf	-0.016424088
100	0x3cf04601	0.029330255
101	0x3cf9d283	0.030495888
102	0x3cf1c899	0.029514598
103	0xbd4c0948	-0.04981354
104	0x3d42cbe3	0.047557723
105	0x3c66270e	0.014047397
106	0x3d89ab46	0.06722121
107	0xbd368e8a	-0.04456953
108	0x3c5ccd6d	0.013476712
109	0xbc8b10ea	-0.016975839
110	0x3bbde763	0.0057954057
111	0xbdac8443	-0.084236644
112	0xbc424ba5	-0.011858855
113	0xbc8b75b0	-0.017023891
114	0xbcb89955	-0.022534052
115	0x3d27845f	0.040897723
116	0xbd50ed71	-0.05100769
117	0x3ca3f3f1	0.020013781
118	0x3d1754f2	0.036946245
119	0x3b70ed55	0.0036762555
120	0x3c47e63e	0.01220089
121	0xbbd2f2f1	-0.0064376523
122	0x3d980717	0.07423227
123	0xbbf72f4f	-0.0075434814
124	0xbdcbbd83	-0.09948256
125	0xbd5a8456	-0.05334886
126	0x3d60b776	0.054862462
127	0x3cafe1f2	0.021470044
128	0x3bff4697	0.0077903974
129	0xbcd605a7	-0.026125742
130	0xbda28685	-0.07935814
131	0x3d4066a4	0.046972886
132	0xbcef0d0d	-0.029181028
133	0xbda1b82e	-0.078964576
134	0xbd9c40a2	-0.07629515
135	0x3dd0af79	0.10189719
136	0xbe1881a0	-0.14893198
137	0xbcdca3e2	-0.026933614
138	0x3d5b12e3	0.05348481
139	0x3d4fffca	0.05078105
140	0x3d0ff2bd	0.035143603
141	0xbc77aa29	-0.015116253
142	0x3902345f	0.00012417276
143	0x3d7d60b1	0.06185979
144	0x3b39a3da	0.0028326423
145	0xbde6c9bb	-0.11268946
146	0xbd2c5c21	-0.04208005
147	0x3c60ab19	0.013712668
148	0x3c338a2e	0.010958238
149	0xbca4a231	-0.02009687
150	0x3d41f770	0.047355115
151	0xbdfaa751	-0.12238944
152	0xbae193d5	-0.0017210195
153	0x3dd0caef	0.101949565
154	0x3d9e27ec	0.07722458
155	0x3d0be0f4	0.03415008
156	0xbd8c1ce6	-0.068414494
157	0x3b6b5a76	0.0035912073
158	0x3cfffb48	0.03124775
159	0xbc8120a1	-0.015762629
160	0xbae88279	-0.0017739079
161	0xbc3aa556	-0.011391958
162	0xbd2aa8f9	-0.04166505
163	0xbdace6a4	-0.08442429
164	0xbd9da8d7	-0.07698219
165	0xbd2df7cf	-0.042472657
166	0x3d4dad61	0.050214175
167	0xbb5e3b7e	-0.0033909972
168	0x3d5a6cf5	0.053326566
169	0x3d42e2ad	0.047579456
170	0x3d924d68	0.0714367
171	0xbdee0a44	-0.11623052
172	0x3c044669	0.008073428
173	0x3cd74d9e	0.026282128
174	0x3c884bf2	0.016637776
175	0x3cb47071	0.022026272
176	0xbd14cb90	-0.036326945
177	0xb9358c0c	-0.00017313677
178	0x3c262403	0.010140422
179	0xbcf9b63f	-0.03048241
180	0x3d8b3b02	0.06798364
181	0x3d6454a5	0.055744786
182	0x3cd9bb4a	0.026578564
183	0x3d356399	0.044284437
184	0xbe215d41	-0.1575823
185	0xbd51c24e	-0.051210694
186	0x3d911dee	0.07085787
187	0xbc959cfc	-0.018263333
188	0xbd1c3d64	-0.038144484
189	0xbcde8286	-0.027161848
190	0x3b8ec630	0.004357122
191	0x3dfc9aff	0.12334251
192	0xbdedf112	-0.11618246
193	0x3d29ec5d	0.04148518
194	0x3db90c85	0.09035591
195	0xbdd2cc40	-0.10292864
196	0x3da36e02	0.07979967
197	0x3cea29f2	0.028584454
198	0x3ca8ae14	0.02059082
199	0x3c3bd866	0.011465168
200	0xbd97ebb2	-0.07418002
201	0x3d1297a2	0.03578914
202	0x3dd13a0c	0.1021615
203	0x3dd49cf8	0.10381502
204	0xbd43d916	-0.04781445
205	0xbc85b491	-0.016321452
206	0xbc20fe7f	-0.009826302
207	0x3c254efe	0.010089634
208	0xba6e31bd	-0.0009086391
209	0xbd3c53db	-0.04597841
210	0x3b2addd4	0.0026072161
211	0x3d5cf3e7	0.05394354
212	0xbc1ea095	-0.00968184
213	0x3c56965f	0.013097375
214	0x3d391112	0.045182295
215	0xbdc91828	-0.098190606
216	0xbd15f2f2	-0.036608644
217	0xbdb6e030	-0.08929479
218	0xbda22a0d	-0.07918177
219	0xbc6d7888	-0.014494069
220	0x3d5fe6be	0.054663412
221	0xbaf69899	-0.0018813788
222	0x3d090ceb	0.033459585
223	0x3cf72929	0.030170994
224	0x3d874408	0.06604773
225	0xbd797df9	-0.060911153
226	0x3d8cf267	0.06882172
227	0x3c896a1d	0.016774232
228	0x3d2704ac	0.04077594
229	0xbd3a9646	-0.04555347
230	0x3d87f594	0.06638637
231	0x3d654a6f	0.05597919
232	0x3cf9427c	0.03042721
233	0xbd8090d7	-0.06277626
234	0xbae0a731	-0.0017139671
235	0xbb8d1213	-0.004305133
236	0x3c247343	0.010037246
237	0xbd9a27b7	-0.07527106
238	0x3d2624b6	0.040562354
239	0x3ccfd97a	0.025372256
240	0xbd92bc87	-0.07164865
241	0x3c529729	0.012853422
242	0x3d3ae8b0	0.045632064
243	0xbca65c84	-0.020307787
244	0x3c960ca3	0.018316573
245	0x3db6b9aa	0.08922131
246	0x3dc9f97b	0.09862038
247	0x3c9ec60d	0.019381547
248	0xbb00fc7b	-0.001968174
249	0xbd7ea2b8	-0.0621669
250	0xbc8e8e9a	-0.017401982
251	0xbdbce29a	-0.09222908
252	0x3dc76780	0.09736538
253	0x3d0462e3	0.03232087
254	0xbdbfceb2	-0.09365596
255	0xbd2bdfa4	-0.041961327

conv1.bias f4 [64]
0	0x3bc90944	0.0061351378
1	0x38dcb225	0.000105235995
2	0xb9f4f61f	-0.0004672268
3	0x3b208f62	0.0024499525
4	0xbb9bbefa	-0.004752991
5	0x3ada06c0	0.0016634092
6	0x3afa160b	0.0019080056
7	0x3c32d1b5	0.010914256
8	0x3b3de2f7	0.0028974393
9	0x3c709f6e	0.0146864485
10	0xbb74a7b3	-0.0037331402
11	0x398e113c	0.0002709719
12	0xbba89277	-0.005144413
13	0xbb7bdb4f	-0.0038430279
14	0xbb5c6607	-0.003363015
15	0xbb56ac74	-0.0032756599
16	0x3b9a0dfc	0.004701374
17	0x3ac5501f	0.0015053785
18	0x3b8c5747	0.004282865
19	0x3bdcb484	0.0067353863
20	0x3bf8fc5f	0.0075984444
21	0xb945f292	-0.00018877749
22	0xbbf78014	-0.00755311
23	0x3b85d649	0.0040843827
24	0x3c059abd	0.008154568
25	0x3ba94219	0.00516535
26	0xbbe279ea	-0.006911506
27	0x3aab4113	0.0013065658
28	0xb9c86eb7	-0.00038229462
29	0x3af7290d	0.0018856839
30	0x3b9140df	0.004432782
31	0x39a34820	0.0003114352
32	0x3bed9cdd	0.0072513656
33	0xbc090967	-0.008364058
34	0x3b7e7889	0.0038829169
35	0xbb5a374e	-0.0033297124
36	0xbc05be75	-0.008163084
37	0xbbd45aa7	-0.006480533
38	0xbb39f162	-0.0028372635
39	0xbc15b375	-0.009137024
40	0x3c0fd512	0.008778827
41	0xbb028be1	-0.00199198
42	0x3bee8a64	0.007279681
43	0xbaed7ece	-0.0018119456
44	0x3b96f75e	0.004607125
45	0xbae8a645	-0.0017749747
46	0xbc4c3d80	-0.012465835
47	0xbada144a	-0.0016638127
48	0x3ba6f547	0.0050951573
49	0x38623626	5.393303e-05
50	0xbb183d63	-0.0023229949
51	0x3b829c56	0.003985922
52	0x3b0e2994	0.0021692263
53	0xbc03fc2e	-0.00805573
54	0xbb516841	-0.003195301
55	0x3c083624	0.008313689
56	0x3aad9102	0.0013242068
57	0xbb128b4a	-0.0022360855
58	0x3bec5f48	0.007213507
59	0x3c0ea96d	0.008707386
60	0xbb6f0e06	-0.0036476864
61	0x3c3bf331	0.011471556
62	0xbc0ca9ff	-0.008585452
63	0xbc048371	-0.008087979

conv2.weight f4 [64, 64, 3, 3]
0	0xbd3a7e70	-0.045530736
1	0xbd1ae2af	-0.03781384
2	0x38e10ae6	0.00010730866
3	0x3d4ea6d3	0.050452065
4	0xbd36c5ef	-0.044622358
5	0xbdae1f1d	-0.08502028
6	0x3d969d38	0.07354206
7	0xbd26ee9e	-0.040754907
8	0x3d694b28	0.05695644
9	0x3aa58951	0.0012629424
10	0xbd26207f	-0.040558334
11	0xbda76b7b	-0.08174797
12	0x3c833431	0.016016098
13	0xbcdc2cbf	-0.026876805
14	0xbc8e7878	-0.017391428
15	0xbd9b4421	-0.07581354
16	0xbd1259f3	-0.035730314
17	0x3da2b52c	0.07944712
18	0x3c232d62	0.009959551
19	0xbda0c7b6	-0.07850592
20	0xbd1cec11	-0.038311068
21	0xbb258d3d	-0.0025261187
22	0xbd1d1907	-0.038353946
23	0xbd79af48	-0.060958177
24	0xbc9f3be8	-0.019437745
25	0xbd6944c2	-0.05695034
26	0x3cc0e458	0.023546383
27	0xbd810082	-0.06298925
28	0x3cae794a	0.02129807
29	0xbd16910e	-0.03675943
30	0x3b25331b	0.0025207463
31	0x3c847373	0.016168332
32	0x3b0e8f6c	0.0021752967
33	0xbc397230	-0.011318728
34	0xbc9139c1	-0.017727735
35	0x3d2681ee	0.040651254
36	0xbd907559	-0.07053632
37	0xbd9a8b7c	-0.07546136
38	0xbd74da5d	-0.05977856
39	0xbc7c2333	-0.0153892515
40	0xbd6381c2	-0.05554367
41	0xbdb6079c	-0.0888817
42	0x3c17aad6	0.009257039
43	0x3ad281c0	0.0016060397
44	0x3d459d39	0.048245642
45	0xbc9af41d	-0.01891523
46	0xbc45224d	-0.012032104
47	0x3d5ea385	0.054355163
48	0xbd06bac2	-0.03289295
49	0xbc3f1d0b	-0.011664639
50	0xbd2947c2	-0.0413282
51	0xbcafbc3f	-0.021452067
52	0xbcd3a35c	-0.025834732
53	0xbd26bfc0	-0.04071021
54	0xbc4d7578	-0.012540214
55	0xbd21d937	-0.039513793
56	0x3d2bd379	0.041949723
57	0xbab42878	-0.0013744971
58	0x3caea22b	0.021317562
59	0xbd207f0b	-0.039183658
60	0xbcc1ab90	-0.023641378
61	0x3d16c108	0.036805183
62	0xbc1e74f0	-0.009671435
63	0x3d192639	0.037389968
64	0x3ce1726f	0.027520387
65	0xbcec9416	-0.028879207
66	0xbcb2608e	-0.021774556
67	0x3b0df399	0.0021660088
68	0x3d2f0db7	0.04273769
69	0x3d706e77	0.058699097
70	0xbd778422	-0.060428746
71	0xbb9df1c1	-0.004820079
72	0xbd3e4c6a	-0.046459593
73	0xbd32a8ad	-0.043617893
74	0x3d6fdff2	0.05856318
75	0x3dcba622	0.09943797
76	0xbd0dec38	-0.034649104
77	0xbce8efd1	-0.028434666
78	0x3d3f9fa0	0.04678309
79	0x3c5d2697	0.01349797
80	0xbbbdf4f7	-0.0057970244
81	0x3c55c169	0.013046601
82	0x3d441356	0.047870003
83	0xbadc415b	-0.0016804145
84	0xbd402469	-0.046909723
85	0x3ca88e82	0.020575766
86	0x3ca2d7aa	0.019878227
87	0xbd3e1ef0	-0.046416223
88	0x3c17e1e7	0.009270168
89	0xbc97d4ab	-0.018534025
90	0x3d0028f6	0.031289063
91	0xbde0b984	-0.10972884
92	0xbcc443e0	-0.023958147
93	0xbd079ba9	-0.033107433
94	0xbc95d90b	-0.01829197
95	0x3c980376	0.018556338
96	0x3c43bc4f	0.011946752
97	0x3a6d9b06	0.0009063933
98	0x3c63123d	0.013859329
99	0xbd80ab73	-0.06282701
100	0xbcb98780	-0.02264762
101	0xbd89d73c	-0.06730506
102	0x3d20f80f	0.039299067
103	0xbc8cc1be	-0.017182227
104	0x3bd3691a	0.006451738
105	0xbd0b1be2	-0.033962138
106	0x3d7b0e93	0.061293196
107	0x3c80db0b	0.015729448
108	0x3db5b43e	0.08872269
109	0xbd8e1cbd	-0.06939075
110	0xbc84d4df	-0.016214786
111	0x3d9298e7	0.0715807
112	0xbda753bf	-0.0817027
113	0xbc519814	-0.012792606
114	0xbd7417e7	-0.059593108
115	0xbc023bbc	-0.007948812
116	0xbcb74ead	-0.022376383
117	0x3c40494f	0.011736228
118	0x3d5ab1e4	0.053392306
119	0xbcdd896f	-0.027043073
120	0x3d585373	0.05281396
121	0xbbeaca68	-0.007165242
122	0x3d96e4a3	0.07367828
123	0x3ce6d522	0.028177802
124	0xbd5a3d3a	-0.053281046
125	0xbd17ed87	-0.037091758
126	0x3caff4d4	0.021479048
127	0xbd4d0a20	-0.050058484
128	0xbca29287	-0.01984526
129	0x3d322e86	0.0435014
130	0x3c36858c	0.0111402385
131	0xbdb359eb	-0.08757385
132	0xbdce1a07	-0.10063558
133	0xbc4d1305	-0.012516742
134	0xbd926a83	-0.07149222
135	0x3cffc0f1	0.031219931
136	0xbd9afd60	-0.07567859
137	0xbb65388e	-0.0034976336
138	0xbd63627d	-0.055513848
139	0xbce77261	-0.028252782
140	0xbd487b79	-0.048945878
141	0xbd209a1b	-0.039209466
142	0xbce26f29	-0.027640896
143	0x3c42ca68	0.011889078
144	0x3ca05802	0.019573215
145	0xbc7dcb38	-0.015490346
146	0xbda4a06e	-0.08038412
147	0x39bf98d0	0.00036544213
148	0xbe1afc92	-0.1513541
149	0xbe1af01f	-0.15130661
150	0x3cad056f	0.021120755
151	0xbd64a7f5	-0.05582424
152	0xbd5ed384	-0.054400936
153	0xbc737eb0	-0.014861748
154	0x3cedf591	0.02904776
155	0xbd87c6ce	-0.06629716
156	0xbd8901e4	-0.06689814
157	0x3ca64af3	0.02029941
158	0xbcb1678f	-0.021655826
159	0x3d093e76	0.033506833
160	0x3d9fcd6d	0.07802854
161	0xbcc450ed	-0.02396437
162	0xbc6b693b	-0.014368351
163	0x3b6b75e5	0.0035928425
164	0x3cc98962	0.024601642
165	0x3c96b2c3	0.018395787
166	0x3cfc4de3	0.030798858
167	0x3d7b9d55	0.06142934
168	0xbc8a9521	-0.016916813
169	0x3cf1e357	0.02952735
170	0xbde77d07	-0.11303144
171	0xbd980a54	-0.07423845
172	0xbcebe90d	-0.02879765
173	0x3b60a148	0.0034275819
174	0x3da54165	0.08069114
175	0xbd795711	-0.06087405
176	0xbd18a9ea	-0.037271418
177	0xbd25ea75	-0.0405068
178	0xbb4cd6fc	-0.003125607
179	0xbd693e9d	-0.05694448
180	0x3d8da102	0.069154754
181	0xbcf9663a	-0.030444253
182	0xbd258c2b	-0.040416878
183	0x39492d5e	0.00019185754
184	0x3bbe631a	0.0058101537
185	0x3d0b8364	0.03406085
186	0xbdac39b0	-0.084094405
187	0xbd4499b5	-0.04799815
188	0x3c90fa74	0.01769755
189	0x3c747073	0.014919388
190	0xbd073174	-0.033006147
191	0xbd37f13f	-0.044907805
192	0xbc8d8a29	-0.017277794
193	0xbc40c9f3	-0.011766898
194	0x3d8d6a23	0.069050096
195	0xbd1cb4a1	-0.0382582
196	0xbd604cb4	-0.05476065
197	0xbd02054a	-0.031743325
198	0xbc2873bf	-0.010281502
199	0x3c11097c	0.008852359
200	0xbcbbfcf6	-0.02294777
201	0xbd6ab3b8	-0.0573003
202	0x3d505d25	0.05087008
203	0xbcd74cb6	-0.026281696
204	0x3d925eef	0.071470134
205	0xbdb9f83c	-0.0908055
206	0xbd45040f	-0.048099574
207	0xbc05ed38	-0.008174233
208	0xbcc14f4c	-0.023597382
209	0xbbd287b3	-0.006424868
210	0x3a7834f0	0.00094683375
211	0x39cecd85	0.00039444506
212	0x3c341dad	0.010993403
213	0x3c4f47c9	0.012651392
214	0x3c94cfae	0.018165436
215	0xbca99a9b	-0.020703604
216	0x3c58074a	0.013185332
217	0xbc8e360f	-0.017359762
218	0xbc1f7a3f	-0.009733736
219	0x3c0ba633	0.008523512
220	0x3c469af0	0.012121901
221	0xbd0f78cc	-0.03502731
222	0xbd24d1c5	-0.040239114
223	0xbc332508	-0.010934122
224	0xbd1cf88e	-0.038322978
225	0xbde9cc8b	-0.114159666
226	0xbd8026fe	-0.06257437
227	0x3be39d31	0.006946229
228	0xbb9a7271	-0.0047133495
229	0x3d06b6cc	0.032889172
230	0xbd5aca1c	-0.053415403
231	0x3cb40ca8	0.021978691
232	0x3c823cf0	0.015898198
233	0x3d2bc5c9	0.04193667
234	0xbcb06743	-0.021533614
235	0x3d0a152c	0.033711597
236	0xbb8de5c3	-0.0043303682
237	0xbca02070	-0.019546717
238	0x3a81ed41	0.0009912626
239	0xbc225e0a	-0.009910116
240	0x3d1ee2d0	0.038790524
241	0x3d5653d2	0.05232603
242	0xbd0de110	-0.034638464
243	0x3d9a36aa	0.075299576
244	0xbbf292e9	-0.007402767
245	0xbd4287c0	-0.047492743
246	0x3d8a2a6c	0.067463726
247	0x3a8e6513	0.0010863863
248	0xbdd7cbfa	-0.10536952
249	0x3c2a1138	0.010380082
250	0xbcbac72a	-0.022800047
251	0x3d4ffe5a	0.050779678
252	0x3bdd359e	0.0067507764
253	0x399001ea	0.00027467246
254	0xbcb61a90	-0.022229463
255	0x3c7b6cd6	0.015345773

conv2.bias f4 [64]
0	0x3b3898c0	0.0028167218
1	0xba79a4f2	-0.0009523175
2	0x3acf620e	0.0015822069
3	0xb986e1af	-0.0002572662
4	0x3bb0a84b	0.005391156
5	0xbafc3433	-0.0019241631
6	0x3b3a81e4	0.0028458769
7	0xbb7f2d72	-0.0038937
8	0x3b0c7334	0.002143097
9	0xba733721	-0.0009277929
10	0xbbab531b	-0.005228413
11	0x3af1aee1	0.0018438959
12	0x3b152024	0.0022754753
13	0x3b42a344	0.0029699365
14	0x3b80e60a	0.003933673
15	0x398b0549	0.00026516084
16	0xbb2dbcbf	-0.0026510207
17	0x3a1d844d	0.0006008789
18	0xbba59b3b	-0.0050539053
19	0xbc39bc9b	-0.011336471
20	0xbb8f39c5	-0.0043709003
21	0xbb469b09	-0.003030481
22	0xbb7a6efb	-0.0038213122
23	0xbae17392	-0.001720058
24	0xbb500143	-0.0031739033
25	0xbb85b616	-0.004080544
26	0x3b72e6dd	0.0037063875
27	0x39d1e64d	0.00040035174
28	0xbb08dfa5	-0.0020885256
29	0x3a06d293	0.00051430723
30	0xbb090235	-0.0020905857
31	0x3afb5500	0.0019175112
32	0xbb33382a	-0.0027346709
33	0x3a29390c	0.0006455339
34	0xbba516e6	-0.00503813
35	0xbb22d472	-0.0024845866
36	0x3bf0b4e8	0.0073457845
37	0xbbbd7587	-0.0057818326
38	0xbad2647f	-0.0016051679
39	0x3ac07193	0.0014682285
40	0xbaa63b04	-0.0012682383
41	0xb8be6b8f	-9.07994e-05
42	0x3bb21247	0.0054343077
43	0x3ba9839d	0.00517316
44	0x3acbc4e7	0.0015546352
45	0xbb18ee5a	-0.0023335428
46	0xbb748546	-0.0037310882
47	0x3b554967	0.0032544972
48	0xbb93d1f2	-0.0045111114
49	0x3ba16671	0.004925542
50	0xbba68cf7	-0.0050827223
51	0x3ab85a7e	0.0014065055
52	0x3a3db775	0.0007237115
53	0xbb38b412	-0.0028183502
54	0xbb4556ce	-0.0030111554
55	0xbb3df735	-0.0028986458
56	0xbb65622d	-0.0035001144
57	0xbb07cb8e	-0.0020720693
58	0xb8960cc2	-7.154934e-05
59	0xbb864318	-0.0040973537
60	0x3ae2b87a	0.001729741
61	0x3ab42df4	0.0013746605
62	0xbad14b6c	-0.0015967912
63	0xbb1c0c8b	-0.0023811187

conv3.weight f4 [64, 64, 3, 3]
0	0xbd552740	-0.052039385
1	0xbb82d6e4	-0.003992902
2	0xbcd0029c	-0.02539187
3	0x3c022799	0.007944011
4	0x3c289261	0.010288806
5	0x3d364523	0.044499528
6	0x3c6a141e	0.014287023
7	0xbaf63cf1	-0.0018786473
8	0x3c23301a	0.009960199
9	0xbd80cd85	-0.062892
10	0x3cc29f0e	0.023757484
11	0xbd0f57dc	-0.0349959
12	0x3ca6a208	0.020340934
13	0xbc51ee95	-0.01281323
14	0xbb1437eb	-0.0022616338
15	0x3d503366	0.050830267
16	0x3c22e862	0.0099431
17	0xbc6afe3d	-0.014342842
18	0x3bbf6268	0.0058405884
19	0x3d1358a0	0.03597319
20	0xbd0bfca5	-0.034176487
21	0x3bd75f1d	0.0065726177
22	0xbcb729a0	-0.022358716
23	0xbc521abe	-0.012823759
24	0x3d967b6b	0.07347759
25	0x3c7f31b6	0.015575817
26	0x3c5ddd34	0.0135415085
27	0xbd36a06d	-0.044586588
28	0x3d5b9dd3	0.05361731
29	0xbd13a1dc	-0.036043033
30	0x3d43bb98	0.047786325
31	0xbd2185c6	-0.039434217
32	0xbcc58257	-0.024110002
33	0xbdb1b737	-0.086775236
34	0x3cc9f4d9	0.024652885
35	0xbd12c250	-0.035829842
36	0x3d9c5856	0.07634036
37	0x3d0365ea	0.032079615
38	0x3c1b84f7	0.0094921505
39	0x3a840fce	0.0010075511
40	0x3d63a8a0	0.055580735
41	0xbd046be7	-0.032329466
42	0x3c6fa4de	0.01462671
43	0xbd17707a	-0.0369725
44	0xbcdb6daa	-0.02678569
45	0x3cb337e3	0.021877235
46	0xbdc65a13	-0.09685149
47	0xbd86c7cf	-0.06581079
48	0x3b87d883	0.0041456833
49	0x3ca4ce8d	0.020118022
50	0xbcf1edb7	-0.029532297
51	0x3a978537	0.0011560087
52	0xbce1a92b	-0.027546486
53	0xbd96f516	-0.07370965
54	0x3d2282e3	0.039675605
55	0x3d50914f	0.050919827
56	0x3c80d990	0.015728742
57	0xbc702eab	-0.014659564
58	0x3d8514e2	0.06498124
59	0x3d360f37	0.044448104
60	0xbcb6393c	-0.022244088
61	0xbd231bf3	-0.039821576
62	0xbcdacb17	-0.026708169
63	0x3d4099ca	0.047021665
64	0xbcef603e	-0.029220697
65	0x3cecf35a	0.028924633
66	0x3c776f86	0.015102273
67	0xbd5faf35	-0.05461045
68	0xbcc59866	-0.02412052
69	0x3dbd39c7	0.09239536
70	0xbcb91d80	-0.022597075
71	0xbcd01329	-0.025399761
72	0x3cae75f2	0.021296475
73	0xbc3165cc	-0.010827493
74	0x3d417882	0.047234066
75	0xbce16e26	-0.027518343
76	0xbc331060	-0.010929197
77	0x3d7bce46	0.061476015
78	0x3d0ddcc4	0.034634367
79	0x3c80c114	0.015717067
80	0x3cc3df32	0.023910139
81	0x3c77d645	0.015126769
82	0x3bb95533	0.0056559085
83	0x3dacfad7	0.084462814
84	0x3c8a64bb	0.016893735
85	0x3d32777c	0.04357098
86	0x3bbae203	0.005703212
87	0x3b762842	0.0037560617
88	0xbc9a3351	-0.018823298
89	0xbdbd9a60	-0.0925796
90	0xbc981f5b	-0.018569639
91	0x3cf1ddc6	0.029524695
92	0xbc36fe6d	-0.011169058
93	0x3da26c89	0.07930858
94	0x3b99607d	0.0046806918
95	0x3ce59a78	0.028027758
96	0x3d0ec984	0.03486015
97	0x3bad6528	0.0052916
98	0x3c898666	0.016787719
99	0xbd2d1f10	-0.04226595
100	0x3d3864b9	0.04501793
101	0x3d9b4943	0.07582333
102	0x3cf41274	0.029793955
103	0xbc3e6e8e	-0.011623038
104	0xbd9fba40	-0.07799196
105	0xbd1f9c5a	-0.038967468
106	0xbbfbdc19	-0.00768615
107	0xbce3b222	-0.027794901
108	0xbd11bb94	-0.03557928
109	0x3ca66173	0.02031014
110	0x3d5d1abf	0.053980585
111	0xbd1e6fa5	-0.03868069
112	0x3bbdbcdf	0.0057903375
113	0xbd23a7b8	-0.03995487
114	0xbc1e985f	-0.009679883
115	0x3dac1ae4	0.084035665
116	0x3cbb387d	0.022854084
117	0x3da800f7	0.08203309
118	0xbc8a3ff6	-0.016876202
119	0xbd4e0f9a	-0.050307848
120	0x3b281627	0.002564797
121	0x3cbf0a4a	0.023320336
122	0xbdbdffe7	-0.09277325
123	0x3cca0ff6	0.024665814
124	0x3d9486f3	0.07252302
125	0xbcf8d270	-0.030373782
126	0xbcc0173d	-0.02344858
127	0xbba1a98f	-0.004933543
128	0x3cb393c8	0.021921054
129	0xbd09ec42	-0.03367258
130	0xbb924614	-0.0044639204
131	0x3ccc3e0d	0.024931932
132	0xbceb6894	-0.02873639
133	0x3cb7f743	0.02245677
134	0x3d3c225c	0.045931205
135	0x3cd8c055	0.026458899
136	0x3b703053	0.0036649897
137	0x3ce30a25	0.027714798
138	0x3d46bf86	0.048522495
139	0xbb5b9dfa	-0.003351091
140	0xbaae9a1c	-0.0013321075
141	0x3c65b8d4	0.014021117
142	0x3d2fbee8	0.04290667
143	0xbd76ecdb	-0.060284477
144	0xbd72a9ae	-0.05924385
145	0x3d68dab6	0.056849204
146	0x3c88fdbf	0.016722558
147	0x3ca1dd64	0.019758888
148	0xbd9bd9c7	-0.07609897
149	0x3ae35f1b	0.0017347069
150	0xbd82026e	-0.0634812
151	0xbd087825	-0.033317704
152	0xbca16b7c	-0.019704573
153	0xbcab2491	-0.02089146
154	0xbcd24a7d	-0.025670284
155	0xbcd3046a	-0.02575894
156	0xbd071356	-0.032977425
157	0x3b0bf7b9	0.002135737
158	0x3ca888ec	0.020573102
159	0x3d01231f	0.031527635
160	0xbc04a8fd	-0.008096931
161	0xbc900cea	-0.017584283
162	0x3bbf17cc	0.005831694
163	0x3c6df22d	0.014523071
164	0x3c557bd3	0.01303001
165	0xbc57cf36	-0.0131719615
166	0x3d33cf32	0.04389877
167	0x3d9c6e08	0.07638174
168	0x3dbbc8e3	0.091691755
169	0xbc1c033d	-0.009522256
170	0x3ada4d9a	0.0016655207
171	0x39db032d	0.000417733
172	0xbbb182d7	-0.0054172087
173	0x3d520984	0.051278606
174	0xbc9d9d86	-0.019240152
175	0x3cc4a75d	0.024005586
176	0xbb8ce041	-0.004299194
177	0xbc5c112a	-0.013431827
178	0xbd8d16dd	-0.068891264
179	0x3ce77cc4	0.028257735
180	0x3c869a0c	0.016430877
181	0x3c4da9a1	0.01255265
182	0xbd4463be	-0.047946684
183	0xbd272498	-0.040806383
184	0xbd82d597	-0.06388395
185	0x3c5275aa	0.012845436
186	0xbd01818f	-0.031617697
187	0x3c9bf637	0.019038303
188	0x3d2c5a2d	0.042078186
189	0x3d95d4b8	0.073159635
190	0xbae72ae7	-0.0017636687
191	0xbbe06bd5	-0.006848792
192	0x3c249a46	0.010046547
193	0xbc8f5832	-0.01749811
194	0x3a84d83d	0.0010135245
195	0x3c15e2bf	0.009148299
196	0x3b0cf837	0.0021510252
197	0x3c5d3c8d	0.013503206
198	0xbd535759	-0.051596973
199	0x3d3997ef	0.04531091
200	0xbccc7dba	-0.024962295
201	0x3b4cc53b	0.0031245488
202	0xbcb86ae4	-0.022511907
203	0x3cf07b9e	0.02935582
204	0xba9d9c07	-0.0012024649
205	0x3c5b1d52	0.01337369
206	0xbcaf1009	-0.02136995
207	0xbc80133f	-0.015634177
208	0xbd3dc0c3	-0.04632641
209	0x3c931ece	0.017959025
210	0x3a91e422	0.0011130611
211	0xbc375c30	-0.011191413
212	0xbd063db3	-0.032773685
213	0xbd0ed72a	-0.034873165
214	0x3ce9a485	0.028520832
215	0xbd2cf473	-0.042225312
216	0xbcd1fab2	-0.025632236
217	0x3dbe9cee	0.09307276
218	0xbbdfa47b	-0.0068250275
219	0x3c452e26	0.012034928
220	0xbd0f8b53	-0.03504498
221	0x3b9b1d37	0.0047337073
222	0xbc9fd8ce	-0.01951256
223	0x3c22631d	0.009911326
224	0xbd136413	-0.03598411
225	0x3c0100e2	0.007873746
226	0xbcdd575c	-0.027019195
227	0x3d4b50e9	0.04963771
228	0x3d9014e4	0.070352346
229	0xbceb42e0	-0.028718412
230	0x3d47475f	0.04865205
231	0x3ca7d91c	0.020489268
232	0xbd0c743e	-0.034290545
233	0x3d12887e	0.0357747
234	0xbd9a3f9b	-0.07531663
235	0x3be6c7a2	0.007042841
236	0x3d829408	0.06375891
237	0x3ca302cd	0.019898796
238	0x3bffd596	0.007807444
239	0xbc596b1f	-0.013270169
240	0xbdcfea40	-0.101521015
241	0xbc975503	-0.018473154
242	0x3dc09e05	0.0940514
243	0x3c561233	0.0130658625
244	0xbcbc60cf	-0.02299538
245	0x3d844217	0.06457918
246	0xbc3441aa	-0.011001984
247	0xbd2dc994	-0.042428568
248	0x3d418b5f	0.047252055
249	0xbcf3525c	-0.029702358
250	0xbd6cac09	-0.057781253
251	0xbc2dd0c6	-0.0106088575
252	0x3c3a4675	0.011369337
253	0xbb99375f	-0.00467579
254	0x3ccac985	0.024754295
255	0xbc9c67c1	-0.019092442

conv3.bias f4 [64]
0	0x3c78adfe	0.015178202
1	0x3c5031f1	0.012707219
2	0xbcba893e	-0.02277052
3	0x3cc3c4ff	0.023897646
4	0xbc84033f	-0.01611483
5	0xbcc2ac6d	-0.02376386
6	0x3cb75395	0.022378722
7	0x3ce18c9e	0.027532872
8	0x3cc54eb1	0.024085375
9	0x3c8aff33	0.016967392
10	0x3cb76633	0.0223876
11	0x3cce1f3e	0.025161382
12	0x3ca21647	0.019786013
13	0xbcad7e77	-0.021178467
14	0x3cc487f0	0.023990601
15	0x3cb3a4bb	0.021929136
16	0xbbbc23c5	-0.0057415687
17	0xbaf3dd8b	-0.0018605454
18	0xbba96577	-0.0051695663
19	0x3cb750aa	0.02237733
20	0x3cde3244	0.027123578
21	0xbc978115	-0.018494168
22	0xbc6edbfd	-0.0145788165
23	0x3c9e16b3	0.019297933
24	0x3ccf7cb9	0.025328027
25	0xbc6aab8a	-0.014323125
26	0xbc05d8fe	-0.008169411
27	0x3caa4827	0.020786358
28	0x3cd18c11	0.025579484
29	0x3ca41027	0.020027233
30	0xbbd45092	-0.0064793313
31	0x3cc30c58	0.023809597
32	0x3cd00ec4	0.025397666
33	0x3cae8459	0.021303343
34	0x3cab0ac9	0.020879166
35	0x3c8edd46	0.017439496
36	0xbcc0a0c3	-0.023514157
37	0xbc31fced	-0.010863525
38	0x3ccdc2d5	0.025117317
39	0x3c9935f4	0.018702485
40	0xbc250d17	-0.010073922
41	0xbc37233b	-0.011177833
42	0x3cd6b5e5	0.026209781
43	0x3a5a1f00	0.00083206594
44	0xbabca4f8	-0.0014392426
45	0xbcacff53	-0.021117842
46	0xbc933517	-0.017969651
47	0x3cdbcc80	0.026830912
48	0x3ca1cdcf	0.019751457
49	0x3aed9055	0.0018124679
50	0xbac376b0	-0.0014912691
51	0xbcc8052f	-0.024416534
52	0xba7af9c9	-0.0009573964
53	0x3cd343d1	0.025789173
54	0xbbe7c8c5	-0.007073494
55	0x3cd08328	0.025453165
56	0x39f6e9c2	0.0004709494
57	0xbc1bc6ba	-0.009507829
58	0x3c3e7ddd	0.011626688
59	0x3cdf0fba	0.027229179
60	0x3cc250b2	0.02372012
61	0xbca9ac73	-0.020712113
62	0x3cd88a48	0.026433125
63	0x3c21292b	0.009836475

bn1.weight f4 [64]
0	0x3f82437e	1.0176847
1	0x3f82cc2c	1.0218558
2	0x3f7d6c04	0.98992944
3	0x3f7d145b	0.98859185
4	0x3f8189e8	1.0120211
5	0x3f7d2a4b	0.9889266
6	0x3f7c0663	0.98447245
7	0x3f81e62c	1.0148368
8	0x3f7bee24	0.9841025
9	0x3f7d7033	0.9899933
10	0x3f81ff2b	1.0155996
11	0x3f82998a	1.0203106
12	0x3f7e57c9	0.993527
13	0x3f7dc0a8	0.99122095
14	0x3f7e947a	0.9944531
15	0x3f7acbd2	0.97967255
16	0x3f8163c9	1.0108577
17	0x3f811f45	1.0087668
18	0x3f82bc66	1.0213745
19	0x3f7d903c	0.9904821
20	0x3f7b497a	0.9815899
21	0x3f82dd7e	1.0223844
22	0x3f7e9923	0.9945242
23	0x3f7fc176	0.9990457
24	0x3f810689	1.0080119
25	0x3f826deb	1.0189794
26	0x3f7ed139	0.99538
27	0x3f8080d2	1.0039313
28	0x3f820e7b	1.0160669
29	0x3f7f7f0b	0.9980323
30	0x3f8077ad	1.0036522
31	0x3f805c29	1.0028125
32	0x3f7e7569	0.99397904
33	0x3f7c0c48	0.9845624
34	0x3f7b5784	0.98180413
35	0x3f7c6927	0.9859795
36	0x3f81dc4e	1.0145357
37	0x3f7d1da1	0.98873335
38	0x3f7c79d3	0.9862339
39	0x3f8051de	1.0024984
40	0x3f8166c3	1.0109485
41	0x3f7e47d5	0.99328357
42	0x3f81fc67	1.0155152
43	0x3f802f90	1.0014515
44	0x3f7f0477	0.9961619
45	0x3f82a1aa	1.0205586
46	0x3f823335	1.0171877
47	0x3f80563d	1.0026318
48	0x3f7c90d0	0.98658466
49	0x3f8031de	1.0015218
50	0x3f829425	1.020146
51	0x3f7d8f72	0.99047005
52	0x3f80534b	1.0025419
53	0x3f821bd1	1.0164739
54	0x3f8324fe	1.0245664
55	0x3f815ed2	1.0107062
56	0x3f7c1d95	0.9848264
57	0x3f80a52b	1.0050405
58	0x3f7ddca6	0.9916481
59	0x3f81ddf4	1.014586
60	0x3f7fbfec	0.99902225
61	0x3f7e9860	0.99451256
62	0x3f7c11bb	0.98464555
63	0x3f8186dd	1.0119282

bn1.bias f4 [64]
0	0x3c54b45c	0.012982454
1	0xbc58cdfb	-0.013232703
2	0xbb3a9668	-0.0028470997
3	0xbc235f3c	-0.009971436
4	0xbcb77e7b	-0.022399178
5	0x3c89b395	0.016809264
6	0x3c289893	0.010290283
7	0x3c53ff8a	0.012939343
8	0xbc53d4f3	-0.012929189
9	0xbc261eef	-0.010139211
10	0x3b622d5e	0.0034511904
11	0x3c5c93da	0.013462985
12	0x3a193227	0.000584396
13	0xbabedb01	-0.0014561118
14	0x3c9b289e	0.018940266
15	0xbc7de70d	-0.015496981
16	0x3c90ccc2	0.017675761
17	0x3b8f5816	0.0043745143
18	0x3bbd0913	0.005768904
19	0xbb1522e9	-0.0022756404
20	0x3ba76aee	0.0051091826
21	0xbcaec2bf	-0.021333097
22	0xbc29c1f1	-0.010361181
23	0x3b3969f4	0.0028291913
24	0x3b706473	0.0036680966
25	0xbc3d4166	-0.011551237
26	0x3888934c	6.5124215e-05
27	0xbc894fe3	-0.016761726
28	0x3b0a152e	0.0021069753
29	0xbcb13e63	-0.021636194
30	0xbaa9b219	-0.0012946754
31	0x3b47ec6d	0.003050591
32	0x3c691429	0.014225998
33	0xbc9e8ce6	-0.019354295
34	0x3b0407e6	0.002014631
35	0xbc038fcb	-0.008029888
36	0xbc8d2b7e	-0.017232653
37	0xbb90a5dd	-0.0044143037
38	0x3b63c6bb	0.0034755904
39	0x3c690a5f	0.014223664
40	0x3c9835fe	0.018580433
41	0xbc9699c6	-0.018383872
42	0x3bb94aaf	0.005654655
43	0xbae77e2a	-0.0017661501
44	0xbc403f34	-0.011733819
45	0x3c7c5648	0.01540143
46	0xba46aa13	-0.00075784436
47	0x3a8bfbda	0.0010679916
48	0xbc3f66bf	-0.011682211
49	0xbcab15ce	-0.02088442
50	0xbb879781	-0.0041379337
51	0x3c4d7fe7	0.012542701
52	0x3bce7e8d	0.006301707
53	0xb955ab63	-0.0002037711
54	0x3c8c2633	0.017108059
55	0xbc999be9	-0.018751102
56	0x3ca2946c	0.019846164
57	0xbc75c159	-0.014999711
58	0x3ca70017	0.020385785
59	0x3c59633f	0.013268291
60	0x3c1f967e	0.00974047
61	0xbb49560a	-0.003072145
62	0xbcb37d51	-0.021910341
63	0xbca853cc	-0.02054777

bn1.running_mean f4 [64]
0	0xbc17ef12	-0.009273307
1	0xbbbc65dc	-0.0057494473
2	0x3cb36ed6	0.021903437
3	0x3bdbe6c0	0.006710857
4	0xbbffe8a5	-0.007809716
5	0x3cbf7b96	0.02337436
6	0x3ca9fe32	0.020751093
7	0x387d0eb1	6.0333583e-05
8	0xbc0356b5	-0.008016278
9	0xbc50f50e	-0.012753738
10	0xbc03494e	-0.008013083
11	0xbc191fb2	-0.009345936
12	0x3c09c614	0.008409042
13	0xbaf2e973	-0.0018532708
14	0x3c3e893d	0.0116294
15	0xbc5cbc64	-0.01347265
16	0x3ccf58b7	0.025310857
17	0xbc5609fe	-0.013063906
18	0x3bd9a0d9	0.006641489
19	0x3c836520	0.016039431
20	0x3c004d7e	0.007830976
21	0xbc3a7951	-0.011381463
22	0xbca146db	-0.019687107
23	0x3bda5707	0.0066632065
24	0x3c3fdf65	0.011710976
25	0xbba0e232	-0.004909777
26	0xbba17052	-0.0049267197
27	0xbac9a0a1	-0.0015382954
28	0xbc8fa7f6	-0.017536145
29	0xbc8af21a	-0.016961146
30	0xbbd97333	-0.0066360473
31	0x3b784d43	0.0037887848
32	0x3d26ac12	0.040691443
33	0xbcd5b899	-0.026089
34	0x3cceb631	0.02523336
35	0xbca8aa1b	-0.020588925
36	0xbc077de6	-0.008269763
37	0x3c3b8d46	0.011447256
38	0xbbe38ef4	-0.0069445316
39	0x3ce1c0f0	0.02755782
40	0x3cc30ee3	0.02381081
41	0xbae52b96	-0.0017484303
42	0xbb38ad7f	-0.0028179584
43	0xbccbce4e	-0.024878647
44	0xbc32b654	-0.010907728
45	0xbcb3c8d5	-0.02194635
46	0xbcf687fc	-0.03009414
47	0xbcca4c6e	-0.024694648
48	0x3c836531	0.016039463
49	0xbb6d264d	-0.003618616
50	0xbbf54ef8	-0.0074862204
51	0x3b7f9bff	0.0039002893
52	0xbc5244df	-0.012833803
53	0xbc16542b	-0.009175341
54	0xbcfaaae1	-0.03059906
55	0x3c18970f	0.009313359
56	0x3d245029	0.04011551
57	0xbc75dbd7	-0.015006027
58	0x3cb9cd35	0.022680858
59	0x3a91cde5	0.0011123983
60	0x3c5b6bb4	0.013392378
61	0x3cb7a6b8	0.022418365
62	0xbc1e8be2	-0.009676905
63	0xbc9cd902	-0.019146446

bn1.running_var f4 [64]
0	0x3d166816	0.036720358
1	0x3cfa5787	0.030559314
2	0x3d25b1f4	0.040452912
3	0x3d377204	0.04478647
4	0x3cd1ba68	0.02560158
5	0x3d6384be	0.055546515
6	0x3d066955	0.032815296
7	0x3d053af4	0.032526925
8	0x3c802322	0.015641753
9	0x3d92e326	0.071722314
10	0x3c111239	0.008854442
11	0x3c30297a	0.010752076
12	0x3c8f4b37	0.01749192
13	0x3c9575b7	0.018244607
14	0x3d29d6e0	0.041464686
15	0x3d087b47	0.03332069
16	0x3d5d15d0	0.05397588
17	0x3d080119	0.03320417
18	0x3d0e12f6	0.03468605
19	0x3c740058	0.01489266
20	0x3d3d5867	0.046226885
21	0x3de49690	0.1116153
22	0x3d037faa	0.03210417
23	0x3c92619e	0.017868813
24	0x3cee71b1	0.029106947
25	0x3c8d539b	0.01725178
26	0x3cc4cfac	0.024024807
27	0x3cc5be55	0.024138609
28	0x3d2562a0	0.04037726
29	0x3d35f598	0.04442367
30	0x3d155dfb	0.03646658
31	0x3c10196a	0.008795122
32	0x3dc12bb3	0.09432163
33	0x3d0dc118	0.034607977
34	0x3d8a59c5	0.067554034
35	0x3d124f8f	0.035720404
36	0x3c97d374	0.018533446
37	0x3ce38a89	0.02777602
38	0x3c1f94ab	0.009740035
39	0x3debee6f	0.11520087
40	0x3d4d8209	0.05017284
41	0x3d0da4e4	0.03458108
42	0x3d258017	0.04040536
43	0x3d7b5e30	0.06136912
44	0x3d035cc8	0.032070905
45	0x3d2e10d1	0.042496506
46	0x3d136c6a	0.035992064
47	0x3d33ba43	0.043878805
48	0x3c38d175	0.011280407
49	0x3c6ede6d	0.014579398
50	0x3cf044e1	0.029329719
51	0x3bed8424	0.0072484184
52	0x3d0498a1	0.03237212
53	0x3d0418ca	0.032250203
54	0x3d8b9ef9	0.06817431
55	0x3d059086	0.03260853
56	0x3deaefed	0.114715435
57	0x3d92d126	0.07168798
58	0x3d319dac	0.04336326
59	0x3c119455	0.008885463
60	0x3ce158eb	0.02750822
61	0x3cd77872	0.02630255
62	0x3c94a307	0.018144144
63	0x3d6ec0a8	0.0582892

bn2.weight f4 [64]
0	0x3f7f17c0	0.99645615
1	0x3f814a30	1.0100765
2	0x3f7d9c66	0.9906677
3	0x3f808a0a	1.0042126
4	0x3f805c34	1.0028138
5	0x3f7d8011	0.9902354
6	0x3f7ee24f	0.9956407
7	0x3f813914	1.0095544
8	0x3f80d23b	1.0064157
9	0x3f800d2e	1.0004022
10	0x3f7a4acd	0.97770387
11	0x3f8155e0	1.0104332
12	0x3f7c9d5f	0.9867763
13	0x3f80fb68	1.0076723
14	0x3f81ee28	1.0150805
15	0x3f832f6e	1.0248849
16	0x3f8287b9	1.0197669
17	0x3f7bb456	0.98322046
18	0x3f7b7258	0.9822135
19	0x3f7fbe60	0.99899864
20	0x3f801339	1.0005866
21	0x3f7c988e	0.9867028
22	0x3f7cdd7b	0.9877545
23	0x3f82d439	1.0221015
24	0x3f7f31a1	0.996851
25	0x3f7cd6a7	0.98765033
26	0x3f812de6	1.0092132
27	0x3f808409	1.0040294
28	0x3f7a3d66	0.97749937
29	0x3f7c6f5f	0.9860744
30	0x3f7e94da	0.9944588
31	0x3f80e99f	1.0071295
32	0x3f80d848	1.0066004
33	0x3f7ee060	0.9956112
34	0x3f820955	1.0159098
35	0x3f7cfd8f	0.988244
36	0x3f7f40d7	0.9970831
37	0x3f7dc5c6	0.99129903
38	0x3f7dac2c	0.9909084
39	0x3f7f7fd2	0.99804413
40	0x3f7c5e56	0.98581445
41	0x3f822dc6	1.0170219
42	0x3f7f6bdf	0.99773973
43	0x3f800537	1.0001591
44	0x3f7d28e9	0.9889055
45	0x3f80493f	1.0022353
46	0x3f7b1296	0.98075235
47	0x3f7f3c26	0.99701154
48	0x3f7b1def	0.9809255
49	0x3f7e9334	0.99443364
50	0x3f8354cc	1.0260253
51	0x3f7db17c	0.99098945
52	0x3f816489	1.0108806
53	0x3f802a86	1.0012977
54	0x3f7b6bf5	0.98211604
55	0x3f81665d	1.0109364
56	0x3f8174b3	1.0113739
57	0x3f824878	1.0178366
58	0x3f7bf5d1	0.9842196
59	0x3f7c86be	0.986431
60	0x3f7ecb47	0.99528927
61	0x3f813ec6	1.0097282
62	0x3f7b2db4	0.9811661
63	0x3f82e0a5	1.0224806

bn2.bias f4 [64]
0	0x3c2a2d57	0.010386786
1	0x3bc8d322	0.0061286846
2	0xbcd3a67b	-0.02583622
3	0xbc07f2bd	-0.008297619
4	0x3b53bc15	0.003230815
5	0xbca6aaf9	-0.020345198
6	0xbaa82614	-0.0012828731
7	0xbc3329cf	-0.010935261
8	0xbbd37b11	-0.0064538796
9	0xbce0da8d	-0.027447963
10	0xbc3fe383	-0.011711958
11	0x3c7d9aac	0.015478771
12	0xba0c107c	-0.00053430325
13	0xbcd5db8d	-0.026105667
14	0x3cc0d967	0.023541166
15	0x3c758f97	0.014987848
16	0x3c5220aa	0.0128251705
17	0xbcc83c22	-0.024442736
18	0xbca02f7a	-0.019553889
19	0x3c973e27	0.018462254
20	0x3c664322	0.014054092
21	0x3c024667	0.007951356
22	0xbc19a57c	-0.009377833
23	0x3cd6f6c4	0.026240714
24	0x3c1d4cb9	0.009600812
25	0x3ca879c3	0.020565873
26	0x3b3ce9d8	0.0028825905
27	0xbc741da2	-0.014899643
28	0x3c7ee426	0.0155573245
29	0x3c6a52ff	0.014302014
30	0xba665212	-0.0008786033
31	0xbc8de51e	-0.017321166
32	0x3c106e66	0.008815384
33	0x3c960ce2	0.01831669
34	0x3ccaf432	0.024774645
35	0xbc83430f	-0.016023187
36	0xbcc5f56d	-0.02416488
37	0x3cc550fb	0.024086466
38	0xbc2299f5	-0.0099244015
39	0x3c1fa621	0.009744198
40	0xbc8cab04	-0.01717139
41	0x3c8251b4	0.0159081
42	0x3c28e863	0.010309312
43	0xbcad4233	-0.02114973
44	0xbbd43a47	-0.0064766738
45	0x3caa4b75	0.020787934
46	0xbc692fcd	-0.014232588
47	0xbbd889e1	-0.0066082333
48	0xb8ecef8c	-0.00011297976
49	0xbc69986d	-0.014257533
50	0x3be1ef9a	0.006895018
51	0xbc23888e	-0.009981288
52	0x3c2a2ca4	0.01038662
53	0x3bb6b588	0.0055758394
54	0xbaaaf7e4	-0.0013043848
55	0xbcbb7bff	-0.022886274
56	0xbcde0925	-0.02710397
57	0x3ca2dd59	0.019880937
58	0x3b49d84a	0.0030799084
59	0xbc608d4f	-0.013705566
60	0xbc264d54	-0.010150272
61	0xbae6adbe	-0.0017599387
62	0x3c2e435e	0.010636179
63	0x3cf77bc0	0.030210376

bn2.running_mean f4 [64]
0	0xc0427641	-3.0384676
1	0xbee9c5ac	-0.45658624
2	0x403499dc	2.8218908
3	0x401bce1e	2.4344554
4	0x3f073c58	0.5282645
5	0x400a5c5f	2.161888
6	0xbe5d812d	-0.21631308
7	0xbf2cdfa6	-0.6752876
8	0x3d7a3bf8	0.061092347
9	0xbef84d39	-0.48496416
10	0x3f92b4c2	1.1461413
11	0x4004b799	2.073706
12	0x3fc6d4b4	1.5533662
13	0x3fcf0b35	1.6175295
14	0x3f2f0ec3	0.683819
15	0xbdcc4ab3	-0.09975185
16	0x3f41b99a	0.7567383
17	0xbefaaa57	-0.48958084
18	0x3fc919fd	1.5711056
19	0x3ffc8dac	1.9730735
20	0x4011034c	2.2658262
21	0xbfb1eb9f	-1.3900031
22	0xc0530e80	-3.29776
23	0x3f1f0bad	0.6212719
24	0x3ebc5d8b	0.36790118
25	0x402797cf	2.6186407
26	0x3fcc2525	1.5948836
27	0x3f56bd80	0.83882904
28	0x401935b6	2.3939033
29	0x3fd5112f	1.6645869
30	0x3ee1d280	0.4410591
31	0x4010f889	2.2651694
32	0x401d8cbc	2.4617147
33	0x3f3105da	0.69149554
34	0x3f0c19a5	0.5472663
35	0xbf05a0ae	-0.521983
36	0x3fc5d35e	1.5455129
37	0xbd8aa961	-0.06770588
38	0xbd6d2019	-0.05789194
39	0x3fd1b677	1.6383809
40	0x3fb3ddb3	1.4052032
41	0xbdb0c03f	-0.08630418
42	0x3f8cea0b	1.1008924
43	0x3db9b89d	0.09068415
44	0xbfc34e5e	-1.5258291
45	0x3f891613	1.0709862
46	0xc01e6cdf	-2.475395
47	0xbef8610f	-0.4851155
48	0x3fa2ab9a	1.2708619
49	0x3f8e77f4	1.1130357
50	0x3f3e4d61	0.7433682
51	0x3d8efb7c	0.069815606
52	0x3f85ed72	1.0463088
53	0x3e7a5724	0.24447304
54	0x402cd982	2.7007756
55	0x3e5b94c8	0.21443474
56	0x3eee4699	0.46538237
57	0x3f081081	0.5315018
58	0x40532852	3.299336
59	0xbe87a904	-0.26496136
60	0x3db6ff25	0.08935384
61	0xbf8f3221	-1.1187173
62	0x3f91906c	1.1372199
63	0x3f6d0d6f	0.92598623

bn2.running_var f4 [64]
0	0x4100ec15	8.057637
1	0x3fd0c280	1.6309357
2	0x40bb6623	5.856218
3	0x40e77a1b	7.2336555
4	0x400346c2	2.0511937
5	0x40ad2576	5.410823
6	0x407a58bf	3.9116666
7	0x404868c5	3.1313946
8	0x3f9c9db2	1.2235625
9	0x3fdde542	1.7335589
10	0x3f8f8f44	1.1215596
11	0x404afabc	3.1715536
12	0x4081ccdf	4.0562587
13	0x4092dd6d	4.5895295
14	0x406cc2db	3.699393
15	0x400f4493	2.2385604
16	0x402cac9e	2.6980357
17	0x408b9186	4.361514
18	0x405a67ee	3.4125934
19	0x40487a40	3.1324615
20	0x40d6bed8	6.7107964
21	0x3f5457f7	0.82946724
22	0x410d0e98	8.816063
23	0x40523ee9	3.2850897
24	0x3fc7ae3e	1.560005
25	0x40ef526b	7.478811
26	0x408bfcd6	4.374614
27	0x3fcd9809	1.6062022
28	0x40ac824c	5.3909054
29	0x40988418	4.7661247
30	0x4022a7e9	2.5414984
31	0x40e84576	7.258479
32	0x40bec28d	5.961249
33	0x3fc21ffb	1.516601
34	0x3f8d3704	1.1032414
35	0x4001ca8f	2.0279882
36	0x401cbd94	2.449071
37	0x400389a5	2.0552762
38	0x4021a978	2.5259686
39	0x4057f6ea	3.3744454
40	0x400ec8b3	2.2309997
41	0x3fbdaab8	1.4817724
42	0x406c52a6	3.6925445
43	0x404023b3	3.002179
44	0x40cbbf7b	6.367124
45	0x404e154b	3.2200496
46	0x40c12263	6.0354476
47	0x3fbbb9f6	1.4666126
48	0x408ea509	4.457646
49	0x4081dae8	4.057972
50	0x400de8f0	2.2173424
51	0x401eb62e	2.4798694
52	0x403b23e4	2.9240656
53	0x3fc06686	1.5031288
54	0x40fc53aa	7.885213
55	0x3ff9aa8f	1.9505175
56	0x40221cc4	2.5330057
57	0x406e3e4e	3.7225528
58	0x40f8c3f8	7.773922
59	0x3fe10131	1.7578489
60	0x404a2591	3.1585429
61	0x3fa6efd3	1.3041939
62	0x3ff27967	1.8943299
63	0x4025156d	2.5794327

bn3.weight f4 [64]
0	0x3f8418ab	1.0320028
1	0x3f83f90d	1.0310379
2	0x3f843145	1.0327536
3	0x3f842727	1.0324448
4	0x3f843420	1.0328407
5	0x3f840557	1.031413
6	0x3f83db21	1.0301248
7	0x3f8423ed	1.0323464
8	0x3f83ed47	1.0306786
9	0x3f84126c	1.0318122
10	0x3f84027d	1.0313259
11	0x3f840cc4	1.0316396
12	0x3f8410c8	1.0317621
13	0x3f83e7eb	1.0305151
14	0x3f83dfd5	1.0302683
15	0x3f83fd50	1.031168
16	0x3f84060e	1.0314348
17	0x3f840933	1.0315307
18	0x3f841392	1.0318472
19	0x3f841502	1.0318911
20	0x3f840bf8	1.0316153
21	0x3f8424cb	1.0323728
22	0x3f83ef2a	1.0307362
23	0x3f83e2bc	1.0303569
24	0x3f843b35	1.0330569
25	0x3f83e413	1.0303978
26	0x3f8423b4	1.0323396
27	0x3f8417b1	1.031973
28	0x3f84112c	1.031774
29	0x3f83f7b6	1.030997
30	0x3f83fcd2	1.031153
31	0x3f840414	1.0313745
32	0x3f8412d9	1.0318252
33	0x3f83f927	1.031041
34	0x3f83ff3b	1.0312265
35	0x3f841456	1.0318706
36	0x3f8418f0	1.032011
37	0x3f8422ec	1.0323157
38	0x3f8432a9	1.032796
39	0x3f83cf16	1.0297573
40	0x3f84257e	1.0323942
41	0x3f840e31	1.0316831
42	0x3f83ecca	1.0306637
43	0x3f83f1de	1.0308187
44	0x3f8427b2	1.0324614
45	0x3f841870	1.0319958
46	0x3f84225f	1.0322989
47	0x3f842595	1.0323969
48	0x3f83e573	1.0304397
49	0x3f83fe74	1.0312028
50	0x3f83e6e0	1.0304832
51	0x3f83f6c2	1.030968
52	0x3f83d399	1.029895
53	0x3f83e03a	1.0302804
54	0x3f8412cc	1.0318236
55	0x3f84254e	1.0323884
56	0x3f842e97	1.0326718
57	0x3f842e1a	1.0326569
58	0x3f8420e5	1.0322539
59	0x3f83fd26	1.031163
60	0x3f841d17	1.0321378
61	0x3f8429a4	1.0325208
62	0x3f8410f0	1.0317669
63	0x3f842e1f	1.0326575

bn3.bias f4 [64]
0	0x3d064cfd	0.032788265
1	0x3ce511f5	0.027962664
2	0x3d01cf48	0.03169182
3	0x3cf28203	0.02960301
4	0x3d0372ad	0.032091785
5	0x3cfed793	0.031108653
6	0x3cf57432	0.029962633
7	0x3d020b6c	0.031749174
8	0x3ce979ea	0.028500516
9	0x3d02690e	0.03183847
10	0x3d03a22b	0.032137077
11	0x3cef8379	0.029237496
12	0x3d01b1a7	0.031663563
13	0x3d03adaf	0.03214806
14	0x3d02dee7	0.031950857
15	0x3ce0b5e7	0.027430488
16	0x3cff925a	0.031197716
17	0x3d026aa2	0.031839974
18	0x3d05a9f7	0.032632794
19	0x3d010ac0	0.031504393
20	0x3d02f94e	0.031976037
21	0x3cf87172	0.030327532
22	0x3cfaa0e6	0.0305943
23	0x3cf1285b	0.029438188
24	0x3cf8406b	0.030304154
25	0x3d028ae3	0.031870734
26	0x3d052e80	0.03251505
27	0x3cf8c632	0.030367944
28	0x3cc3d87d	0.02390694
29	0x3d012a20	0.031534314
30	0x3cbb1be1	0.022840442
31	0x3d00bd0f	0.0314303
32	0x3d06a150	0.032868683
33	0x3cf7ca62	0.03024787
34	0x3ccdd0c1	0.025123956
35	0x3d04d741	0.032431845
36	0x3d03b7e7	0.032157805
37	0x3ccd9b70	0.025098532
38	0x3d047c33	0.032345008
39	0x3cf3f483	0.029779678
40	0x3d041af1	0.032252256
41	0x3d022106	0.031769775
42	0x3cf50d78	0.029913649
43	0x3cd64fd1	0.026161106
44	0x3cf89817	0.03034596
45	0x3d046d10	0.032330573
46	0x3d035472	0.032062955
47	0x3cff4782	0.031162027
48	0x3ce9a402	0.028520588
49	0x3d06aec0	0.0328815
50	0x3cd7de6f	0.026351182
51	0x3cfcf7f0	0.030879945
52	0x3cfde8e5	0.030994842
53	0x3ceccd82	0.028906588
54	0x3cf9798e	0.03045347
55	0x3d012ee1	0.031538848
56	0x3cfa4995	0.030552665
57	0x3cefd95a	0.029278446
58	0x3cf59206	0.029976856
59	0x3cf56f7c	0.029960386
60	0x3d04ac99	0.032391164
61	0x3cebeec6	0.02880038
62	0x3d0775b6	0.033071242
63	0x3cedb746	0.029018056

bn3.running_mean f4 [64]
0	0x3f3e9306	0.7444309
1	0x3fe02e2a	1.7514088
2	0xbf23c9b4	-0.6397965
3	0x3f4bf740	0.7967415
4	0xbe3cf1c5	-0.18451603
5	0xc011f191	-2.280369
6	0x402063db	2.5060947
7	0x3feadddb	1.8348955
8	0x3fd2d5d0	1.64715
9	0x3f531956	0.82460535
10	0x3f885433	1.0650696
11	0x3fddd51d	1.7330662
12	0x4001717d	2.0225518
13	0xbf72e8ab	-0.94886273
14	0x3fd69328	1.6763659
15	0x3fb3ff67	1.4062318
16	0xbf119f16	-0.5688337
17	0x3f89ec40	1.0775223
18	0x3e1ff038	0.1561898
19	0x3fa39d6e	1.2782419
20	0x40116fcc	2.2724485
21	0xbc136245	-0.008995597
22	0xbfbc84de	-1.4728048
23	0x3fd1c5d7	1.6388501
24	0x3f7e07ef	0.99230856
25	0x3e9a4ab6	0.30135125
26	0xc00f82ff	-2.2423704
27	0x3fba30f5	1.454619
28	0x4005fcc2	2.093552
29	0x3fd889ac	1.6917014
30	0xc007f710	-2.1244545
31	0x3f4ecd85	0.8078235
32	0x3fa44147	1.2832421
33	0x400e4fb3	2.2236145
34	0x3fe18a39	1.7620307
35	0x3f433d31	0.76265246
36	0xbf3fe33d	-0.74956113
37	0xbec71880	-0.3888588
38	0x3f98d807	1.1940926
39	0x3f7b6d8c	0.9821403
40	0x3e65e7a7	0.2245165
41	0x3f413d16	0.75483835
42	0x400fee98	2.2489376
43	0x3f075f8a	0.52880156
44	0x3f3f60f2	0.747573
45	0xbea71efa	-0.3264082
46	0xbfd4952c	-1.6608024
47	0x400bcc38	2.1843395
48	0x3fa7c2dd	1.3106343
49	0xbdd38557	-0.10328167
50	0x3f9830ec	1.188993
51	0xbf8409ea	-1.0315526
52	0x3f275e8b	0.65378636
53	0x4045ecee	3.092586
54	0x3cd0f53f	0.025507567
55	0x3fe0be2c	1.7558036
56	0x3f088f56	0.53343713
57	0x3f55cda0	0.83516884
58	0x3f662394	0.8989804
59	0x4028e086	2.6387038
60	0x3fb49d2a	1.4110463
61	0xbf852be4	-1.0404019
62	0x3f993835	1.1970278
63	0xbe89a3a4	-0.2688266

bn3.running_var f4 [64]
0	0x3f611c1c	0.87933517
1	0x3fba582e	1.455816
2	0x3fa149b3	1.2600616
3	0x3f4605d7	0.7735266
4	0x3f66c1cd	0.90139467
5	0x3fccecf4	1.6009812
6	0x4061c976	3.5279212
7	0x3fdf5f23	1.7450908
8	0x3f5465c2	0.8296777
9	0x3f5072dd	0.8142527
10	0x3fa96072	1.3232558
11	0x3fdd7de9	1.730405
12	0x3fe05e93	1.7528862
13	0x3f641892	0.8909999
14	0x3fc1d953	1.5144447
15	0x3f874c26	1.0570114
16	0x3f4dfb12	0.8046123
17	0x3fb46209	1.4092418
18	0x3fe90890	1.8205738
19	0x3fe71dc0	1.8055954
20	0x3f6a4075	0.91504604
21	0x3f83dba7	1.0301408
22	0x3ffd8ca3	1.9808544
23	0x40173dbe	2.3631434
24	0x3f83f657	1.0309552
25	0x3fb9ba86	1.4510047
26	0x3fee408b	1.8613447
27	0x3f3b80f6	0.73243654
28	0x40097418	2.1477108
29	0x3fd08efe	1.6293638
30	0x40246300	2.5685425
31	0x3f8ebc58	1.1151228
32	0x40209e20	2.5096512
33	0x3ff48ff7	1.9106435
34	0x40016969	2.0220587
35	0x3fb24685	1.3927771
36	0x3f6ffc30	0.9374418
37	0x3f19f41f	0.60138124
38	0x3fc65923	1.5495952
39	0x400c7ba7	2.1950471
40	0x3f83f826	1.0310104
41	0x3f8792f4	1.0591722
42	0x40083bc2	2.1286473
43	0x3fb706f2	1.4298995
44	0x3fcb4f49	1.5883571
45	0x3f29c677	0.6631846
46	0x3fdc568d	1.7213913
47	0x3fc7891a	1.5588715
48	0x3fee19c6	1.8601615
49	0x3fa7e484	1.3116612
50	0x40065a13	2.0992477
51	0x3fa97936	1.3240116
52	0x3fd96315	1.6983362
53	0x3f92325e	1.1421621
54	0x3fe8c733	1.8185791
55	0x3fb8fdda	1.4452469
56	0x3fc98742	1.5744402
57	0x3fb41f2c	1.4072013
58	0x3f333eba	0.7001759
59	0x3f9aa7d6	1.208247
60	0x4006aa49	2.1041434
61	0x3f351db1	0.7074843
62	0x3fcde0f3	1.6084274
63	0x3fc89e3a	1.5673287
