maml-notebook_original_test/maml-notebook/completed_model/model1/model-epoch_00047-train_loss_0.125-train_acc_0.880-test_loss_0.477-test_acc_0.862.pt (torch_old, 305688 bytes, 20 tensors)

conv1.weight f4 [64, 1, 3, 3]
0.009526529 0.057451405 0.04578886 -0.08815796 0.053534977 0.036610503 -0.009312138 -0.027370146
0.040533926 0.02364505 -0.013806781 -0.01480005 0.0022713942 -0.032308776 -0.09073139 -0.047772985
0.0016651801 -0.008488289 -0.060338512 0.13484545 0.13423194 -0.08624318 -0.04404977 -0.081757136
-0.011080926 0.099506 0.015585542 -0.031245122 -0.028922684 0.00086212787 -0.051349375 0.09167616
-0.12917617 -0.044249043 0.010056054 -0.002546399 -0.06172127 0.0072239144 -0.1407936 -0.04336634
0.020174751 0.07383989 -0.025951752 -0.027494809 -0.0076470077 0.10617695 -0.07399569 -0.041449245
-0.09413489 0.015623396 0.048464473 0.22871923 -0.0024213789 0.012403844 -0.019278362 0.028302442
0.10365233 -0.028382275 -0.10836725 -0.111286804 0.065604456 0.070256695 0.052377403 0.0035607358
-0.02284844 0.009202883 -0.035540678 0.016148653 -0.07874374 -0.05097226 0.008365109 -0.012510777
-0.086830184 0.021649918 0.029993892 0.0020207264 -0.063312404 0.021471463 -0.09863473 -0.01219673
0.037280753 -0.041338302 -0.10596424 0.0500948 0.11738628 0.046567433 -0.0627226 0.05041455
0.09613285 0.040767577 0.037144016 0.05925597 -0.040271442 -0.047637966 0.034562036 0.022007018
0.012070993 0.013807995 0.028090432 0.111512825 -0.02597582 -0.068835266 -0.14637816 -0.13459362
-0.017611092 -0.03459424 0.031543348 0.031394135 -0.0031425008 0.034420643 0.018857487 0.027791584
0.025108427 0.00050351094 -0.02870269 0.10223225 -0.057280798 -0.009258119 0.027210722 0.11489741
0.06766633 0.0050519793 -0.015741663 0.14943975 -0.074324295 0.036210332 0.07502338 0.114953846
-0.05507793 0.06422131 -0.014711543 0.037147835 -0.01997347 -0.026931258 -0.07921523 -0.035144493
0.020341285 0.029148415 -0.13455658 0.04933727 0.096570976 -0.05437061 0.025536891 0.02871233
-0.078220114 -0.01988127 0.011486399 0.069067694 0.023295777 -0.04991282 0.07956908 0.0033651995
0.07231909 -0.022741757 0.02480915 -0.063230485 0.068924464 0.07964679 0.030783338 -0.029567165
-0.08402577 0.037117116 0.0432854 0.00026851782 0.09120424 -0.023437468 0.07392014 -0.023673752
0.068819694 0.0155016845 -0.070418626 -0.04874989 0.056413077 0.036179475 -0.03740342 0.012606962
-0.07188868 0.014206064 0.024611399 -0.08132807 -0.10105281 0.01941161 0.08027588 -0.011749073
0.014922697 0.01209946 -0.059333522 0.019150058 0.044839017 0.032469653 -0.07074915 0.048197195
-0.025093356 0.0060856226 0.027652685 0.07874228 -0.041791443 0.038833253 -0.059432484 0.055522233
-0.09545438 -0.023340175 0.022422189 -0.021734454 -0.034198783 0.015483086 -0.003975965 0.010766205
-0.02185006 -0.032197468 0.07470241 0.07756221 0.045279264 -0.05185838 -0.012803801 0.001569943
0.010494883 -0.05472964 -0.046493866 -0.0007065049 -0.10267786 0.09717974 -0.026796114 -0.035084862
0.08385968 -0.045005165 -0.10091883 -0.04125931 0.044492975 0.025003381 0.12770605 -0.005315886
-0.013805547 -0.02615404 -0.14695105 -0.044351913 -0.08440809 0.02731289 -0.06455057 -0.06358364
-0.029321956 0.0016384661 0.102144934 -0.054393303 -0.00648756 -0.031825453 -0.05321855 -0.07386184
-0.020071855 0.08338688 0.104127385 0.0362412 -0.013601046 0.054557733 -0.05392437 -0.024848877
00000000: 2915 1c3c 2a52 6b3d 1a8d 3b3d 298c b4bd
00000010: 7e47 5b3d e5f4 153d f091 18bc 5b37 e0bc
00000020: e706 263d 44b3 c13c d635 62bc e97b 72bc
00000030: acdb 143b 3556 04bd 61d1 b9bd 9bad 43bd
00000040: 2c42 da3a 7712 0bbc 8425 77bd ed14 0a3e
00000050: 1974 093e 44a0 b0bd 886d 34bd 4970 a7bd
00000060: c68c 35bc cdc9 cb3d 805a 7f3c c5f5 ffbc
00000070: 44ef ecbc 6c00 623a b953 52bd b6c0 bb3d
00000080: c246 04be 7c3e 35bd 26c2 243c 7ce1 26bb
00000090: 71cf 7cbd 96b6 ec3b 332c 10be e7a0 31bd
000000a0: 8545 a53c 5e39 973d c598 d4bc cb3c e1bc
000000b0: c093 fabb 4d73 d93d 0d8b 97bd afc6 29bd
000000c0: cbc9 c0bd 46f9 7f3c af82 463d 6035 6a3e
000000d0: ffaf 1ebb 7e39 4b3c a8ed 9dbc 86da e73c
000000e0: ac47 d43d f281 e8bc a6ef ddbd 56ea e3bd
000000f0: a15b 863d bee2 8f3d b089 563d 3c5b 693b
00000100: a72c bbbc b0c7 163c 1a93 11bd 2e4a 843c
00000110: 6644 a1bd 4ac8 50bd cf0d 093c 01fa 4cbc
00000120: 06d4 b1bd 2b5b b13c c0b5 f53c 2a6e 043b
00000130: efa9 81bd ece4 af3c 0101 cabd cbd4 47bc
00000140: b4b3 183d 5a52 29bd c803 d9bd 3430 4d3d
00000150: 3868 f03d 7ebd 3e3d b574 80bd 7d7f 4e3d
00000160: 4de1 c43d e7fb 263d 5324 183d 63b6 723d
00000170: abf3 24bd 0720 43bd ec90 0d3d 1048 b43c
00000180: 6ac5 453c ee3a 623c e81d e63c d660 e43d
00000190: 3ecb d4bc 81f9 8cbd 28e4 15be e9d2 09be
000001a0: 2345 90bc b1b2 0dbd 9933 013d 2397 003d
000001b0: 6af2 4dbb a9fc 0c3d 047b 9a3c 2dab e33c
000001c0: 30b0 cd3c 0cfe 033a e721 ebbc 245f d13d
000001d0: 459f 6abd 5eaf 17bc 05e9 de3c 554f eb3d
000001e0: a594 8a3d 138b a53b a9f4 80bc bc06 193e
000001f0: 5637 98bd 4951 143d dca5 993d ec6c eb3d
00000200: 6599 61bd 7686 833d af08 71bc 5428 183d
00000210: 679f a3bc f19e dcbc 983b a2bd acf3 0fbd
00000220: c4a2 a63c a8c8 ee3c 33c9 09be e115 4a3d
00000230: 01c7 c53d b7b3 5ebd be32 d13c 1f36 eb3c
00000240: de31 a0bd 0cde a2bc 7331 3c3c 5d73 8d3d
00000250: c9d6 be3c 6371 4cbd 1df5 a23d ae8a 5c3b
00000260: 081c 943d ec4c babc 8f3c cb3c fc7e 81bd
00000270: 4528 8d3d db1d a33d 572d fc3c d736 f2bc
00000280: b415 acbd 1e08 183d 084c 313d dac7 8c39
00000290: 4ac9 ba3d efff bfbc 7163 973d 75ef c1bc
000002a0: 57f1 8c3d c7fa 7d3c a437 90bd f7ad 47bd
000002b0: 6611 673d ee30 143d 5434 19bd 6e8d 4e3c
000002c0: 5f3a 93bd 8dc0 683c d89d c93c 558f a6bd
000002d0: c7f4 cebd 1905 9f3c ae67 a43d 2f7f 40bc
000002e0: 547e 743c d03c 463c b507 73bd 95e0 9c3c
000002f0: 1ea9 373d e6fe 043d eee4 90bd 6c6a 453d
00000300: 9590 cdbc e769 c73b e287 e23c a243 a13d
00000310: 812d 2bbd 9e0f 1f3d 7a6f 73bd 486b 633d
00000320: 967d c3bd e533 bfbc bdae b73c 740c b2bc
00000330: 0614 0cbd c5ac 7d3c d048 82bb bd64 303c
00000340: e6fe b2bc 7ee1 03bd 94fd 983d f0d8 9e3d
00000350: c076 393d 7469 54bd 09c7 51bc 8cc6 cd3a
00000360: bbf2 2b3c 302c 60bd 5a70 3ebd be34 39ba
00000370: c548 d2bd 2c06 c73d 8683 dbbc 25b5 0fbd
00000380: a0be ab3d 5657 38bd 88ae cebd 86ff 28bd
00000390: 443e 363d e4d3 cc3c 60c5 023e e230 aebb
000003a0: a930 62bc ff40 d6bc 567a 16be 5aaa 35bd
000003b0: 26de acbd 48bf df3c 1733 84bd 2438 82bd
000003c0: 9934 f0bc cdc1 d63a 5d31 d13d 83cb 5ebd
000003d0: 9995 d4bb 685b 02bd b2fb 59bd e044 97bd
000003e0: bb6d a4bc bec6 aa3d bd40 d53d a771 143d
000003f0: ecd6 5ebc ee77 5f3d cddf 5cbd df8f cbbc

conv1.bias f4 [64]
-0.008505399 -0.00029005416 0.004939886 0.0026387332 0.007472474 0.001978907 -0.0007890464 -0.01641313
0.010728711 0.005353056 -0.0136452615 0.0044591464 0.006770286 0.00045344874 -0.0015324944 0.008288157
0.0023866869 0.005649964 0.021820156 -0.006656223 -0.0049979053 -0.0038866166 0.00819241 -0.0048763426
-0.0053878706 -0.0074283537 -0.008341558 -0.007219423 0.001054286 0.0012122256 -0.004243465 -0.0015229805
-0.003965742 -0.007837587 -0.0064989273 0.008377176 0.0018142067 -0.003237063 0.0068888846 0.0077218474
0.0028906872 0.011144125 9.9871555e-05 0.0030397282 -0.0050918823 -0.001614165 0.006860357 -0.0020077636
0.011487143 -0.0010568378 -0.00026403018 0.0030375193 -0.0044271653 0.0021210036 -0.0019215139 0.011889717
0.0008022726 0.002786141 0.0013499282 -0.0071811713 0.001154296 1.8034054e-05 -0.007987443 -0.007400567
00000000: 3b5a 0bbc 6912 98b9 c4de a13b 99ee 2c3b
00000010: a8db f43b 8db0 013b 02d8 4eba d474 86bc
00000020: 7ac7 2f3c b068 af3b 6090 5fbc 081e 923b
00000030: 46d9 dd3b dcbc ed39 fbdd c8ba 0dcb 073c
00000040: f669 1c3b 5523 b93b 2fc0 b23c 721c dabb
00000050: 78c5 a3bb 9bb6 7ebb 7539 063c bac9 9fbb
00000060: bc8c b0bb 8c69 f3bb 08ab 08bc e990 ecbb
00000070: f82f 8a3a 8be3 9e3a c40c 8bbb bf9e c7ba
00000080: 0ef3 81bb 3969 00bc f4f4 d4bb 6c40 093c
00000090: adca ed3a e824 54bb 27bc e13b 8d07 fd3b
000000a0: af71 3d3b d995 363c 2272 d138 2d36 473b
000000b0: ced9 a6bb 6492 d3ba d8cc e03b af94 03bb
000000c0: 9234 3c3c 9885 8aba 886d 8ab9 1e11 473b
000000d0: c111 91bb 8900 0b3b 4fdb fbba 16cd 423c
000000e0: 9a4f 523a b097 363b 13f0 b03a 0850 ebbb
000000f0: bf4b 973a d647 9737 c4dd 02bc 7580 f2bb

conv2.weight f4 [64, 64, 3, 3]
-0.0058197435 -0.026484309 -0.009437828 0.02958699 0.053825058 0.0065035373 0.021851689 0.013184059
0.03461912 -0.088912256 0.046917032 0.033628084 0.104809284 -0.035256334 0.019366061 -0.03321333
0.013851988 0.0068706092 0.044006422 -0.025283607 0.01427764 -0.026499609 0.044746287 0.022706307
-0.040881485 0.005228385 -0.040150892 0.027863787 -0.009835116 0.012695405 0.06725472 0.066049546
0.013101962 -0.019977886 0.043571807 0.03760626 0.054737315 -0.023458142 0.003845629 0.012562916
0.017304419 0.03648217 -0.029020654 0.014175351 -0.0156059 0.08263843 -0.016887212 0.014883914
0.14184885 0.010451082 0.021207126 -0.03961433 -0.02079991 -0.02626299 -0.074964054 -0.00397914
0.0043020826 -0.035329368 0.07942672 -0.034009054 0.029431567 0.007913903 -0.0018986478 0.022108331
-0.09657349 -0.01136564 -0.024083287 0.022310361 0.008874147 0.03350997 -0.035004992 0.027886469
-0.014436203 -0.039045356 -0.009516608 0.009383844 -0.020981155 0.02628962 -0.008580189 -0.006671236
0.030004134 -0.08581933 0.061073124 0.04840667 0.027039243 -0.017886564 -0.022639459 -0.046427578
0.013144296 -0.05205658 -0.016411738 0.032314267 0.033878718 -0.006241641 0.04549778 -0.0156121105
-0.017632263 -0.024218485 0.03133655 0.007876543 0.028532417 0.037646547 -0.03525169 -0.016273731
-0.025973307 -0.033811618 0.00033630483 0.048579864 0.026990768 -0.037899505 0.024696473 0.06484851
0.002554905 -0.02690874 0.06274933 0.015211923 0.0007897179 0.011965753 0.02402387 -0.041302003
0.020515475 0.06649838 -0.0045954934 0.06164773 0.03570767 0.01177864 0.038118053 0.071918406
-0.013137044 0.039283387 0.03410231 0.042251337 -0.029190546 0.0005102696 0.0032285394 0.04013294
0.06675377 0.062440168 -0.008099226 -0.062390774 0.03513018 -0.03783897 0.044524204 0.08694735
-0.077490635 -0.02333499 -0.019113382 0.055444933 0.0022845916 0.023874773 0.012823337 -0.03814083
-0.03862041 0.0052229096 0.0089296745 -0.0017541078 -0.01882418 0.008609151 -0.018960752 0.10813266
-0.024608085 0.10021625 0.002972533 -0.0025254793 -0.07929859 0.042095657 -0.063531704 -0.033588856
-0.06864239 -0.07539343 0.052383754 0.028916065 0.028855043 -0.02086615 -0.008139877 -0.08531805
-0.092343196 -0.07499903 0.03722618 0.0033834712 -0.041420456 -0.00068823766 0.021882603 0.025638927
-0.09638631 0.03389364 0.055503875 -0.002616606 0.11643207 -0.03169699 0.022073727 0.041578915
-0.032247677 -0.011908477 0.06459068 0.006063143 -0.045955066 0.058183763 -0.062216442 0.03284511
0.024882805 0.048306316 -0.004938213 -0.008951697 0.022387948 -0.00614209 -0.018708475 -0.023713766
-0.0153592145 -0.014709487 -0.036716502 -0.08721271 -0.0034586114 -0.11375989 -0.023015738 -0.01444469
-0.03643644 0.06887752 0.036591515 0.02761756 0.0026121389 -0.02340207 0.043148983 -0.013622567
0.13379075 -0.031176127 -0.027278306 0.05360711 0.0005943142 0.029582957 0.04471358 -0.026178211
-0.054395333 0.03842752 0.010958408 0.007876373 2.4753992e-05 0.016191142 -0.0137893045 -0.021627994
0.0594312 -0.035858978 -0.021355744 -0.028680535 0.02142816 -0.040491823 -0.047304712 -0.02073826
0.037825655 -0.026081167 0.060139403 0.024234014 -0.01046718 0.08530838 0.036036834 0.034065917
00000000: 8cb3 bebb 9ff5 d8bc 1fa1 1abc 6a60 f23c
00000010: aa77 5c3d a01b d53b 5002 b33c f401 583c
00000020: c7cc 0d3d a117 b6bd 132c 403d 9abd 093d
00000030: 40a6 d63d f268 10bd 93a5 9e3c b30a 08bd
00000040: 73f3 623c d922 e13b 1440 343d 911f cfbc
00000050: c3ec 693c b515 d9bc e247 373d 9402 ba3c
00000060: 5873 27bd df52 ab3b 4375 24bd 9942 e43c
00000070: 7723 21bc 6300 503c d8bc 893d fc44 873d
00000080: 9da9 563c aaa8 a3bc 5a78 323d 0609 1a3d
00000090: 3c34 603d 4a2b c0bc f306 7c3b b0d4 4d3c
000000a0: ffc1 8d3c 546e 153d b9bc edbc bb3f 683c
000000b0: e4af 7fbc 563e a93d 0d57 8abc a9db 733c
000000c0: d340 113e 043b 2b3c 91ba ad3c a342 22bd
000000d0: 9364 aabc 7b25 d7bc c186 99bd 7263 82bb
000000e0: 7cf8 8c3b 87b5 10bd 7aaa a23d 144d 0bbd
000000f0: 781a f13c 51a9 013c 0cdc f8ba 881c b53c
00000100: 52c8 c5bd f336 3abc 504a c5bc 38c4 b63c
00000110: df64 113c c041 093d 6561 0fbd 2a72 e43c
00000120: d385 6cbc 06ee 1fbd 8ceb 1bbc b2be 193c
00000130: ace0 abbc 545d d73c ec93 0cbc 629a dabb
00000140: 3bcb f53c 0bc2 afbd d027 7a3d 1346 463d
00000150: 6781 dd3c d886 92bc 6376 b9bc d82a 3ebd
00000160: 2c5b 573c 4839 55bd e971 86bc f75b 043d
00000170: 69c4 0a3d ae86 ccbb e15b 3a3d f0c9 7fbc
00000180: 8971 90bc d865 c6bc c15a 003d 9e0c 013c
00000190: d1bc e93c 4433 1a3d 1364 10bd 7d50 85bc
000001a0: f9c5 d4bc 0d7e 0abd 1252 b039 aefb 463d
000001b0: be1b dd3c 833c 1bbd 4250 ca3c 4ccf 843d
000001c0: 3170 273b b86f dcbc b982 803d 6e3b 793c
000001d0: 1205 4f3a 010c 443c b5cd c43c 4a2c 29bd
000001e0: 1210 a83c 4d30 883d cb95 96bb 5582 7c3d
000001f0: 3542 123d 32fb 403c ad21 1c3d f549 933d
00000200: c23c 57bc 9ee7 203d ddae 0b3d bd0f 2d3d
00000210: 0321 efbc 9dc3 053a e795 533b 7062 243d
00000220: 33b6 883d 43c1 7f3d 9eb2 04bc 788d 7fbd
00000230: aae4 0f3d 09fd 1abd 035f 363d 7411 b23d
00000240: 69b3 9ebd 0529 bfbc ab93 9cbc 3a1a 633d
00000250: 16b9 153b 0795 c33c f918 523c 8f39 1cbd
00000260: 6f30 1ebd f124 ab3b c54d 123c 17ea e5ba
00000270: 2b35 9abc 650d 0d3c 9453 9bbc a874 dd3d
00000280: e596 c9bc 2d3e cd3d d4ce 423b 8382 25bb
00000290: 4d67 a2bd 7f6c 2c3d e91c 82bd 7894 09bd
000002a0: 6294 8cbd df67 9abd 5990 563d 62e1 ec3c
000002b0: 6961 ec3c 7def aabc 1e5d 05bc 3bbb aebd
000002c0: 6e1e bdbd 1799 99bd 7b7a 183d 3abd 5d3b
000002d0: 7fa8 29bd d96a 34ba 2543 b33c ba08 d23c
000002e0: 3066 c5bd 0fd4 0a3d 0858 633d 5d7b 2bbb
000002f0: f073 ee3d b4d4 01bd f6d3 b43c a74e 2a3d
00000300: 2416 04bd c61b 43bc 1e48 843d 54ad c63b
00000310: 613b 3cbd 1952 6e3d abd6 7ebd 9888 063d
00000320: 06d7 cb3c d8dc 453d bcd0 a1bb 23aa 12bc
00000330: ee66 b73c 9643 c9bb 8442 99bc 5f43 c2bc
00000340: 37a5 7bbc 0f00 71bc 0b64 16bd 949c b2bd
00000350: dfa9 62bb f2fa e8bd 808b bcbc 6ca9 6cbc
00000360: 603e 15bd a80f 8d3d fce0 153d 393e e23c
00000370: 6b30 2b3b b3b5 bfbc fdbc 303d 3031 5fbc
00000380: 7100 093e 1465 ffbc c176 dfbc 2193 5b3d
00000390: c0cb 1b3a f557 f23c 9625 373d b073 d6bc
000003a0: a4cd 5ebd 2d66 1d3d e58a 333c e70b 013c
000003b0: cba6 cf37 49a3 843c 89ec 61bc 312d b1bc
000003c0: 216e 733d dde0 12bd 3ef2 aebc 71f3 eabc
000003d0: 1c8a af3c c1da 25bd 96c2 41bd 49e3 a9bc
000003e0: 13ef 1a3d 2ca8 d5bc bc54 763d 6986 c63c
000003f0: 897e 2bbc 29b6 ae3d 5c9b 133d b488 0b3d

conv2.bias f4 [64]
0.0021023573 0.004739699 0.001866712 0.0030787743 -0.0056637484 0.005379772 0.0021921194 0.0036971788
0.0018077488 0.002072276 0.00084677956 0.0057148165 0.0063681765 0.005864662 0.0032184946 0.0069301324
0.0013981255 0.007667146 -0.004236556 -0.0037123538 -0.0048473333 -0.0009430482 0.0025748343 0.0024055056
-0.0037304703 -0.0053090206 0.007638619 0.00094372325 -0.0037603327 -2.713629e-06 0.0026817666 0.003091737
0.0051387316 -0.0017985068 0.0045485855 -0.0035147837 0.0018531096 -0.0006817434 0.0034686548 -0.0032426543
0.002542923 -0.0008461615 0.0010202781 0.0030468039 6.505457e-06 -0.003992636 -0.0008708467 0.006447081
-0.001885227 0.011879915 -0.0017488291 0.00042654548 -0.0023039973 0.0018702848 -0.002627727 -0.0032021701
0.00063449034 -4.7525778e-06 0.003580283 0.0010248289 0.0014533113 -0.00067327695 -0.005308525 0.0012259993
00000000: b4c7 093b 7a4f 9b3b 76ac f43a 43c5 493b
00000010: f796 b9bb cc48 b03b a9a9 0f3b 5e4c 723b
00000020: fcf1 ec3a 06cf 073b 6afa 5d3a 5b43 bb3b
00000030: 23ac d03b 5a2c c03b 61ed 523b 2a16 e33b
00000040: 4f41 b73a af3c fb3b cfd2 8abb f64a 73bb
00000050: 61d6 9ebb e536 77ba 8dbe 283b b0a5 1d3b
00000060: e87a 74bb 4bf7 adbb 614d fa3b 3264 773a
00000070: ea6f 76bb cb1b 36b6 94c0 2f3b bd9e 4a3b
00000080: ce62 a83b e0bb ebba 4d0c 953b 4958 66bb
00000090: 0ae4 f23a 06b7 32ba 5f52 633b b682 54bb
000000a0: 2ba7 263b f0d0 5dba daba 853a e3ac 473b
000000b0: 7349 da36 a9d4 82bb 8849 64ba 0942 d33b
000000c0: b919 f7ba faa3 423c f838 e5ba f7a1 df39
000000d0: a9fe 16bb 5824 f53a f235 2cbb 80db 51bb
000000e0: ed53 263a 5578 9fb6 2ea3 6a3b 8d53 863a
000000f0: 097d be3a da7e 30ba 23f3 adbb b6b1 a03a

conv3.weight f4 [64, 64, 3, 3]
0.048001025 0.03316225 0.029573068 0.003972258 0.0021154042 -0.012067037 0.007440401 -0.015315985
0.019145329 0.013991644 0.008450551 0.023757348 0.0145304175 -0.02007026 -0.01774197 -0.11867357
-0.044815384 0.024855822 -0.007408201 -0.009183386 0.025560165 -0.073778935 -0.06407782 -0.011045875
-0.011767287 -0.013928919 0.013023431 0.0033795198 -0.039968345 -0.072000064 0.017950902 -0.010176984
0.04268368 -0.09306339 -0.0031843123 0.013848774 0.013092607 -0.016893253 -0.020801315 -0.03810867
-0.00857413 0.051906325 0.028162334 -0.036686137 0.026219243 -0.06804179 0.09441027 0.09221316
0.027579019 0.011988848 0.048325896 -0.026661558 0.0040835775 0.053402927 0.012735928 -0.043205246
-0.054777805 0.0327842 0.067677714 -0.026084581 -0.006731375 -0.03446614 -0.02845512 -0.055781927
-0.036336098 0.018518873 0.11951157 -0.0031545435 0.0034201283 0.01187598 0.013929537 -0.010626739
0.087770164 -0.012237313 -0.0805244 -0.014079292 0.0003115969 -0.0072727054 0.044022 -0.035793826
0.034034494 -0.054930497 -0.004722134 0.026564235 -0.02390392 0.020393126 0.06656688 -0.003769989
0.001486725 -0.0148222335 0.013036175 -0.028219843 -0.04830044 0.00059111434 -0.08127895 -0.044251647
-0.12220565 -0.011710741 -0.023713062 0.023480808 0.023092264 -0.010005349 -0.047028933 0.049098983
-0.003066007 -0.009604442 0.004655872 -0.006493076 -0.020801667 -0.012822586 0.01263812 0.006829912
-0.011131567 0.04862884 0.05678484 0.03926826 -0.075255014 0.045920204 0.07543962 0.04007785
0.053406496 0.0559398 -0.02418653 0.0065787337 0.010475619 0.04637965 0.05703782 -0.00096840016
0.018579766 -0.012444613 0.016775845 -0.050973643 0.030084146 -0.01029151 -0.0069026924 0.05989153
0.026158424 -0.04190536 -0.057277206 0.015568601 0.091061406 0.040267378 -0.0011358437 0.05442295
-0.061316166 0.0153484205 0.01126676 0.053519942 0.0043658176 0.04434977 0.009832006 -0.06219834
0.07247114 0.03472082 -0.027430722 0.028505297 -0.055484727 0.069208644 0.089732796 0.004467642
-0.05723288 0.029817285 0.09458965 -0.010842803 -0.017429443 0.039510135 0.035902493 0.015233248
0.014696764 -0.032599837 -0.067645796 -0.004394874 -0.061726194 -0.01462708 -0.0017054137 -0.0646731
-0.09387246 0.022049708 0.0015656943 -0.10191301 0.0228583 -0.066659465 0.03611956 0.0028362493
-0.033134226 -0.049603563 0.09667946 -0.017276779 -0.019974349 0.016772011 0.08121613 -0.008057209
0.025098756 0.08582209 0.04231877 -0.0036352035 0.02315825 0.0031292108 -0.0014155533 -0.049924035
0.004634292 -0.022883154 -0.052103795 -0.012933255 0.012244816 0.04243434 0.008083097 -0.040037803
-0.028815497 0.09878037 -0.020264972 0.07535428 -0.0031288145 -0.03792868 0.019027034 0.040190525
0.05669117 -0.029384632 -0.0063693253 -0.07578944 -0.05438604 0.05822973 0.020965127 0.050990965
0.059225988 -0.12330199 -0.011793342 0.06646666 0.08256501 0.003904116 -0.097864814 0.07693651
0.037064105 0.003706362 -0.055169422 -0.011535149 0.04515046 0.04730495 0.047269747 0.04138551
-0.038597543 0.0029428026 -0.019812819 0.032600544 0.051134765 -0.028551681 0.016661815 0.0076613124
-0.029383676 0.028833238 0.036177497 0.081139036 -0.038411986 -0.09943364 -0.016019115 0.02630522
00000000: b99c 443d 24d5 073d 3843 f23c b729 823b
00000010: 98a2 0a3b d2b4 45bc 9bce f33b e6ef 7abc
00000020: aad6 9c3c 353d 653c 2e74 0a3c c59e c23c
00000030: fd10 6e3c 636a a4bc 9c57 91bc 210b f3bd
00000040: 5690 37bd 709e cb3c 7fc0 f2bb ea75 16bc
00000050: 8d63 d13c 6919 97bd 3b3b 83bd c2f9 34bc
00000060: 94cb 40bc 1f36 64bc 3b60 553c ef7a 5d3b
00000070: d9b5 23bd c574 93bd c50d 933c 5dbd 26bc
00000080: 15d5 2e3d 0598 bebd e5af 50bb f8e5 623c
00000090: 6082 563c b863 8abc 8567 aabc d617 1cbd
000000a0: 827a 0cbc ba9b 543d b2b4 e63c 3444 16bd
000000b0: bdc9 d63c 7e59 8bbd 2c5a c13d 41da bc3d
000000c0: 65ed e13c e06c 443c 60f1 453d 5769 dabc
000000d0: 88cf 853b 07bd 5a3d 5baa 503c fcf7 30bd
000000e0: b15e 60bd ba48 063d 9d9a 8a3d 55af d5bc
000000f0: de92 dcbb 5e2c 0dbd b61a e9bc 977b 64bd
00000100: 29d5 14bd e4b4 973c 7bc2 f43d 75bc 4ebb
00000110: 3b24 603b 7893 423c b638 643c c61b 2ebc
00000120: d8c0 b33d 037f 48bc fae9 a4bd d5ac 66bc
00000130: d45d a339 e04f eebb 6a50 343d 8c9c 12bd
00000140: c167 0b3d cdfe 60bd 22bc 9abb 3d9d d93c
00000150: 27d2 c3bc 7c0f a73c 3754 883d eb11 77bb
00000160: 37de c23a f4d8 72bc ae95 553c 4d2d e7bc
00000170: afd6 45bd 03f5 1a3a 9475 a6bd 3741 35bd
00000180: f546 fabd 68de 3fbc e541 c2bc d35a c03c
00000190: fd2b bd3c 7aed 23bc 69a1 40bd 041c 493d
000001a0: 10ef 48bb f35b 1dbc 4990 983b dfc3 d4bb
000001b0: 4268 aabc d315 52bc 1e10 4f3c 74cd df3b
000001c0: 2d61 36bc 092f 473d 3897 683d c1d7 203d
000001d0: 4d1f 9abd d316 3c3d 1680 9a3d ac28 243d
000001e0: c5c0 5a3d 2221 653d d422 c6bc 6b92 d73b
000001f0: eea1 2b3c 96f8 3d3d 7da0 693d 3cdc 7dba
00000200: 9834 983c 7de4 4bbc 7f6d 893c bdc9 50bd
00000210: 0773 f63c b99d 28bc fb2f e2bb d250 753d
00000220: 314a d63c f4a4 2bbd 819b 6abd 7213 7f3c
00000230: 677e ba3d 68ef 243d 97e0 94ba 99ea 5e3d
00000240: a926 7bbd f177 7b3c 3798 383c ba37 5b3d
00000250: 220f 8f3b 1ba8 353d 6c16 213c b0c3 7ebd
00000260: c06b 943d 6b37 0e3d 65b6 e0bc f183 e93c
00000270: f443 63bd 43bd 8d3d d4c5 b73d 4c65 923b
00000280: 066d 6abd 6143 f43c 38b8 c13d 03a6 31bc
00000290: 31c8 8ebc 61d5 213d 7e0e 133d df94 793c
000002a0: b2ca 703c 6887 05bd e189 8abd e002 90bb
000002b0: 9bd4 7cbd 6ca6 6fbc 3088 dfba 5573 84bd
000002c0: 3440 c0bd 97a1 b43c fc37 cd3a c5b7 d0bd
000002d0: 5441 bb3c c284 88bd 1bf2 133d 5ee0 393b
000002e0: c1b7 07bd 1b2d 4bbd e1ff c53d 0888 8dbc
000002f0: 3fa1 a3bc 7565 893c a454 a63d 6202 04bc
00000300: e89b cd3c 7ec3 af3d 7256 2d3d 983c 6ebb
00000310: 5fb6 bd3c 7213 4d3b 168a b9ba 257d 4cbd
00000320: 42db 973b 7475 bbbc ca6a 55bd 01e6 53bc
00000330: 7b9e 483c a1cf 2d3d f76e 043c aefe 23bd
00000340: 7a0e ecbc 5d4d ca3d ba02 a6bc 5853 9a3d
00000350: cc0c 4dbb 1b5b 1bbd 95de 9b3c d29e 243d
00000360: 0035 683d 0ab8 f0bc c6b5 d0bb 7e37 9bbd
00000370: e5c3 5ebd 4c82 6e3d 0fbf ab3c e7db 503d
00000380: f396 723d c185 fcbd dd38 41bc ac1f 883d
00000390: d817 a93d 33dc 7f3b 596d c8bd e490 9d3d
000003a0: 88d0 173d 70e6 723b 55f9 61bd ecfd 3cbc
000003b0: b0ef 383d d6c2 413d ec9d 413d da83 293d
000003c0: 7518 1ebd 09dc 403b 7e4e a2bc 2688 053d
000003d0: b072 513d 37e5 e9bc 5c7e 883c bf0b fb3b
000003e0: 09b6 f0bc af33 ec3c db2e 143d 392c a63d
000003f0: e355 1dbd dda3 cbbd 853a 83bc 0b7e d73c

conv3.bias f4 [64]
0.038142275 0.040809907 0.03999467 -0.023247525 -0.029800924 -0.011967321 0.03231992 0.04178801
0.042559892 -0.035356242 0.036331642 -0.028098196 -0.036080327 -0.027529106 0.037264675 0.037052818
0.021364508 0.030958857 0.03723795 -0.007658114 0.038775627 0.030751891 0.013321329 -0.0037208889
0.02736679 -0.02201953 0.041324306 0.0329679 0.038774986 0.039946925 0.020562282 0.04127805
-0.032716587 -0.030759096 -0.035149693 0.024783142 0.04337551 0.042686593 0.039717074 0.039710477
0.04018802 0.013186151 0.04403753 0.037927955 0.035897214 0.03544037 0.020754728 0.02236046
0.03980236 0.035895992 -0.022613196 0.030012283 -0.032158878 0.031032631 -0.03061774 -0.03137291
-0.035182916 0.024706708 0.0006345808 0.037450787 0.021790117 0.020077571 0.0350194 -0.013268078
00000000: 133b 1c3d 4a28 273d 73d1 233d 9871 bebc
00000010: 1121 f4bc 9512 44bc e461 043d e829 2b3d
00000020: 4853 2e3d b5d1 10bd 7dd0 143d 302e e6bc
00000030: f7c8 13bd b884 e1bc d8a2 183d b2c4 173d
00000040: 9f04 af3c 6e9d fd3c d286 183d ebf0 fabb
00000050: 31d3 1e3d 64eb fb3c b441 5a3c 28da 73bb
00000060: 5230 e03c 4d62 b4bc ad43 293d 5909 073d
00000070: 85d2 1e3d 639f 233d 3b72 a83c 2c13 293d
00000080: d401 06bd 80fa fbbc 20f9 0fbd 0406 cb3c
00000090: 85aa 313d 23d8 2e3d 5fae 223d 74a7 223d
000000a0: 319c 243d ba0a 583c b260 343d 585a 1b3d
000000b0: f508 133d ec29 113d d205 aa3c 492d b73c
000000c0: cd07 233d ad07 133d 4f3f b9bc 52dc f53c
000000d0: 07b9 03bd 2538 fe3c 0ed2 fabc e180 00bd
000000e0: f61b 10bd b965 ca3c ff59 263a ff65 193d
000000f0: 3081 b23c b879 a43c 8170 0f3d 5a62 59bc

bn1.weight f4 [64]
1.0217878 0.9746338 0.981492 0.98431593 1.0231686 0.9740719 0.9991495 0.97436637
1.012132 1.0173204 1.0034597 1.0063367 1.0189735 0.99092126 0.98490894 1.0260063
0.9717567 0.99819064 1.0290312 0.99336165 1.0115774 0.97276926 1.0222086 1.0356473
0.98758364 1.0132182 0.97279596 1.0201501 1.004508 0.9975074 1.0128253 0.9846457
1.0035925 0.9723066 0.9979745 0.9788479 0.9851221 1.0159405 1.0190408 0.97604245
1.0243542 0.99072963 1.0217897 0.9902924 1.0285678 1.0058713 0.9799953 0.9817722
0.9745495 0.9789453 1.0008868 1.033858 1.0399181 0.96933603 1.0249363 0.9857033
1.0276599 1.02471 1.012867 0.98770446 0.98809993 0.9760145 0.98036224 1.0142835
00000000: f1c9 823f 9a81 793f 0f43 7b3f 21fc 7b3f
00000010: 30f7 823f c75c 793f 43c8 7f3f 1370 793f
00000020: 8b8d 813f 8e37 823f 5e71 803f a4cf 803f
00000030: b96d 823f 04ad 7d3f fe22 7c3f 2d54 833f
00000040: 0cc5 783f 6c89 7f3f 4bb7 833f f34c 7e3f
00000050: 5e7b 813f 6807 793f bbd7 823f 1790 843f
00000060: 48d2 7c3f 22b1 813f 2809 793f 4794 823f
00000070: b893 803f a55c 7f3f 42a4 813f be11 7c3f
00000080: b875 803f 16e9 783f 427b 7f3f c795 7a3f
00000090: f630 7c3f 570a 823f ee6f 823f ebdd 793f
000000a0: 0a1e 833f 75a0 7d3f 01ca 823f cd83 7d3f
000000b0: 1ca8 833f 64c0 803f f9e0 7a3f 6c55 7b3f
000000c0: 137c 793f 299c 7a3f 0f1d 803f 7555 843f
000000d0: 091c 853f 6826 783f 1d31 833f 0d57 7c3f
000000e0: 5c8a 833f b329 833f a0a5 813f 33da 7c3f
000000f0: 1ef4 7c3f 16dc 793f 05f9 7a3f 0bd4 813f

bn1.bias f4 [64]
-0.020121569 -0.0141401775 -0.025783073 0.022109378 0.0036631634 -0.03217551 -0.03313436 -0.0018781029
0.0064512948 0.021440787 0.019254863 0.005934047 0.02161436 0.009028239 -0.004667749 -0.028945617
-0.03778123 -0.020644188 -0.01405172 0.023624804 -0.025044603 -0.025176829 0.023041036 0.0014182184
0.0037027078 0.012146084 0.005385814 -0.009376658 0.021284118 -0.024494557 -0.026259856 -0.018322127
0.017677423 -0.0045627584 -0.013406876 -0.029119855 0.008692885 -0.035549395 0.019199243 0.0011366991
0.007181905 -0.022102656 0.010903307 -0.013807099 0.015652468 0.0044932584 -0.004048004 0.011575174
0.035494033 0.006048431 0.0065547777 0.0031921843 0.019415345 0.03089811 -0.013156428 -0.006934165
-0.042678203 0.007818785 0.016199961 -0.0211465 -0.0014355166 -0.020173494 -0.025995752 0.011165285
00000000: fdd5 a4bc 34ac 67bc 0637 d3bc ba1e b53c
00000010: af11 703b 78ca 03bd e5b7 07bd ad2a f6ba
00000020: 6265 d33b 97a4 af3c 60bc 9d3c 6572 c23b
00000030: 9910 b13c 2eeb 133c ebf3 98bb 5c1f edbc
00000040: 7ec0 1abd 001e a9bc 2f39 66bc ce88 c13c
00000050: 572a cdbc a33f cebc 8ec0 bc3c 83e3 b93a
00000060: 21a9 723b 5e00 473c 7b7b b03b 8ea0 19bc
00000070: 085c ae3c cfa8 c8bc e91e d7bc 4918 96bc
00000080: 3ed0 903c 3183 95bb 83a8 5bbc c38c eebc
00000090: 9a6c 0e3c 3e9c 11bd bb47 9d3c 4bfd 943a
000000a0: 3056 eb3b a110 b5bc c9a3 323c 2c37 62bc
000000b0: 9b39 803c 2f3c 933b 1ea5 84bb cca5 3d3c
000000c0: 3162 113d eb31 c63b 76c9 d63b f733 513b
000000d0: ee0c 9f3c 081e fd3c 0f8e 57bc fe37 e3bb
000000e0: 57cf 2ebd 5c1a 003c c8b5 843c 6d3b adbc
000000f0: f227 bcba e242 a5bc 0bf5 d4bc 99ee 363c

bn1.running_mean f4 [64]
-0.027054962 0.02780107 -0.0106951 0.03162273 0.039738372 -0.029050324 -0.008305782 0.009318161
0.034024686 -0.024556471 -0.032562073 0.04460274 -0.011970325 -0.04684662 -0.016214076 0.003817102
-0.014993555 -0.00023459767 -0.0058559785 0.008387213 -0.008046424 -0.018661989 0.030646844 -0.018717736
0.006630383 -0.0019092154 0.039067447 -0.0043313797 0.005301719 -0.005395522 -0.017689113 -0.020960312
-0.0070466995 0.021541338 -0.013842669 -0.014799687 0.0053545507 -0.009495574 0.03204566 0.013081396
-0.015554546 0.0031178016 -0.010641845 -0.03270115 -0.011147999 -0.08861242 0.029647144 0.028759526
0.041216746 0.062071923 0.05813584 -0.009550244 -0.024744362 0.032878127 0.030399837 0.046796765
-0.013808224 -0.014335477 0.009952192 -0.009620919 0.040983193 -0.00071417453 -0.018803066 0.07443704
00000000: 5ea2 ddbc 12bf e33c 803a 2fbc d686 013d
00000010: b4c4 223d f2fa edbc fa14 08bc 33ab 183c
00000020: 785d 0b3d a72a c9bc cf5f 05bd 5db1 363d
00000030: 2f1f 44bc 3ee2 3fbd 62d3 84bc 5828 7a3b
00000040: 87a7 75bc 55fe 75b9 82e3 bfbb 856a 093c
00000050: 26d5 03bc 07e1 98bc 170f fb3c f055 99bc
00000060: af43 d93b a33e faba 3005 203d 3fee 8dbb
00000070: 0bba ad3b ebcc b0bb c2e8 90bc f6b4 abbc
00000080: 00e8 e6bb 7677 b03c 5dcc 62bc 637a 72bc
00000090: 3a75 af3b 5393 1bbc 4f42 033d 5a53 563c
000000a0: 7fd8 7ebc 0854 4c3b 225b 2ebc a4f1 05bd
000000b0: 19a6 36bc 6e7a b5bd 91de f23c 1999 eb3c
000000c0: e4d2 283d 213f 7e3d d91f 6e3d a078 1cbc
000000d0: b0b4 cabc 37ab 063d 1409 f93c f7ad 3f3d
000000e0: e43b 62bc 59df 6abc 850e 233c 0fa1 1dbc
000000f0: fedd 273d 7137 3bba e308 9abc 7272 983d

bn1.running_var f4 [64]
0.035822257 0.029348353 0.07685157 0.034036275 0.04008438 0.07606709 0.039793663 0.020185476
0.04367785 0.06875613 0.016141193 0.09128716 0.023849176 0.07438939 0.05451161 0.07149688
0.032831058 0.021744741 0.036350273 0.027250906 0.04050046 0.017210215 0.024138976 0.0227073
0.047808733 0.0337291 0.10338039 0.04519593 0.029134668 0.04267115 0.009135405 0.06354025
0.023761345 0.036278304 0.057792783 0.049451325 0.021156587 0.023686256 0.033166297 0.040570237
0.024183732 0.04035897 0.05092239 0.06570872 0.020259537 0.18961176 0.0534 0.03383683
0.04755769 0.16759329 0.1142142 0.050053257 0.025614843 0.059619546 0.044694968 0.09073761
0.04542745 0.022506263 0.045405976 0.011258228 0.059962373 0.03686741 0.042461388 0.16296643
00000000: 5cba 123d f56b f03c 5b64 9d3d 9f69 0b3d
00000010: 852f 243d 10c9 9b3d aefe 223d 035c a53c
00000020: 8ce7 323d 04d0 8c3d 893a 843c c3f4 ba3d
00000030: 595f c33c 7759 983d 9147 5f3d f56c 923d
00000040: dc79 063d 0722 b23c 06e4 143d 4b3d df3c
00000050: cfe3 253d 70fc 8c3c 1abf c53c a904 ba3c
00000060: 17d3 433d 8627 0a3d 19b9 d33d 5e1f 393d
00000070: d4ab ee3c f2c7 2e3d aaac 153c 6421 823d
00000080: 27a7 c23c 8f98 143d 20b8 6c3d 798d 4a3d
00000090: 9450 ad3c ae09 c23c 62d9 073d fa2c 263d
000000a0: f61c c63c 734f 253d ff93 503d 4b92 863d
000000b0: 54f7 a53c 9629 423e f5b9 5a3d 7d98 0a3d
000000c0: dacb 423d 939d 2b3e 22e9 e93d a504 4d3d
000000d0: 38d6 d13c a033 743d 1212 373d a4d4 b93d
000000e0: 2212 3a3d 0e5f b83c 9efb 393d 6e74 383c
000000f0: 1b9b 753d 4802 173d feeb 2d3d ace0 263e

bn2.weight f4 [64]
0.9930912 1.0194056 0.99842435 1.0032357 1.0316427 1.0092504 1.0049075 1.0082307
0.9792749 1.0285051 1.0052849 1.0128107 0.9855153 0.9722294 0.99054927 1.0000556
0.984369 0.9857308 0.9733093 1.0057164 0.98880196 0.9846007 0.9724009 1.014917
0.99205863 1.0229232 0.98440164 1.0266566 0.9915189 0.9748753 1.0158249 1.0101311
1.0031201 0.9830563 0.98383427 0.9945868 1.0132899 1.0131892 1.0094702 0.97416353
1.0066322 1.0207566 0.9917212 0.98928523 0.98545474 1.0239099 1.0190823 0.99928385
1.0098971 0.99002963 1.005001 0.9888499 0.9826441 1.0196135 1.0090665 0.9836321
1.0159359 0.9710201 0.99635917 1.0030632 0.99485356 0.9675164 1.0090723 0.983664
00000000: 3a3b 7e3f e27b 823f bd98 7f3f 076a 803f
00000010: de0c 843f 1e2f 813f cfa0 803f b40d 813f
00000020: c3b1 7a3f 0ea6 833f 2dad 803f c8a3 813f
00000030: bb4a 7c3f 07e4 783f a394 7d3f d201 803f
00000040: 9bff 7b3f db58 7c3f cc2a 793f 51bb 803f
00000050: 2022 7d3f cb0e 7c3f 44ef 783f cde8 813f
00000060: 8ef7 7d3f 26ef 823f bf01 7c3f 7c69 833f
00000070: 2fd4 7d3f 6d91 793f 8d06 823f fa4b 813f
00000080: 3d66 803f 94a9 7b3f 90dc 7b3f 3e9d 7e3f
00000090: 7cb3 813f 2fb0 813f 5236 813f c862 793f
000000a0: 53d9 803f 27a8 823f 71e1 7d3f cc41 7d3f
000000b0: c346 7c3f 7b0f 833f 4a71 823f 11d1 7f3f
000000c0: 4f44 813f 9572 7d3f dfa3 803f 4425 7d3f
000000d0: 908e 7b3f b282 823f 1729 813f 50cf 7b3f
000000e0: 300a 823f c694 783f 6511 7f3f 6064 803f
000000f0: b9ae 7e3f 28af 773f 4829 813f 67d1 7b3f

bn2.bias f4 [64]
0.024223799 -0.008829697 -0.01947103 -0.030374113 0.037479855 0.00039739066 -0.04126487 0.008795166
0.0031753795 -0.015827652 0.04502238 -0.021254038 0.0054097865 -0.019696465 0.025864506 -0.014879872
-0.022854682 -0.0022459528 -0.03697518 -0.0019009176 -0.02876361 -0.017975727 -0.04123317 -0.028626034
0.027174322 -0.029424645 -0.03229178 -0.035513345 0.022832837 -0.010571275 -0.012680083 0.029933041
-0.009194452 0.016193315 0.017936114 -0.0017096904 -0.031731453 0.0051270807 -0.02073863 -0.03375657
-0.01778118 -0.017263263 0.028292088 -0.015307013 -0.01527853 -0.010212547 0.038837817 -0.04123544
0.004813232 0.039770167 -0.017933173 -0.03338512 -0.030396856 0.0020656767 0.017054481 -0.012534705
-0.029265493 0.007846027 0.02831121 -0.02943087 -0.009082962 0.01212114 -0.020978184 0.0049684085
00000000: fd70 c63c 6faa 10bc b681 9fbc 22d3 f8bc
00000010: 7a84 193d df58 d039 5a05 29bd 9a19 103c
00000020: 071a 503b fea8 81bc 6369 383d f31c aebc
00000030: 9444 b13b 7b5a a1bc cde1 d33c b5ca 73bc
00000040: be39 bbbc d630 13bb 4973 17bd 3628 f9ba
00000050: aaa1 ebbc d541 93bc 1de4 28bd 2581 eabc
00000060: af9c de3c f40b f1bc 6344 04bd 7176 11bd
00000070: ee0b bb3c 2433 2dbc 1fc0 4fbc 2336 f53c
00000080: 54a4 16bc d8a7 843c c2ee 923c b117 e0ba
00000090: d7f8 01bd 1201 a83b 0fe4 a9bc 5444 0abd
000000a0: d6a9 91bc b06b 8dbc cfc4 e73c 44ca 7abc
000000b0: cd52 7abc 8752 27bc 6714 1f3d 7ee6 28bd
000000c0: 51b8 9d3b 0be6 223d 97e8 92bc d6be 08bd
000000d0: d402 f9bc 4e60 073b d7b5 8b3c 5d5e 4dbc
000000e0: 30be efbc 9f8c 003c e9ec e73c 0219 f1bc
000000f0: b4d0 14bc bf97 463c 71da abbc 08ce a23b

bn2.running_mean f4 [64]
1.9819503 0.05667533 0.32575566 -2.1523426 0.6076761 2.072899 0.012359096 2.1675982
2.1624823 -0.08483788 1.2199916 1.472399 -0.4017273 -0.34572163 1.2378527 2.0002723
-2.644984 2.293409 -1.2088139 -0.7399602 -0.60402423 -3.5832543 0.21410273 3.911656
0.60058856 1.1044992 -0.38027173 -0.71712404 2.3983576 1.4696344 0.99502397 0.24723473
-4.3797393 0.3800175 1.0247872 -0.46643692 -0.056815498 0.60362446 3.7281854 -0.43456084
1.81898 2.5444655 2.111032 -2.3982663 2.7263842 3.3803082 0.5853821 2.9253495
-0.75077254 2.475177 2.032206 3.1659257 -0.12242389 0.39786422 3.0372016 2.193305
2.724804 -0.6751711 3.420808 0.06506126 -3.971523 4.033458 2.6890266 1.2380742
00000000: 8cb0 fd3f 6424 683d 72c9 a63e fbbf 09c0
00000010: a990 1b3f 61aa 0440 ce7d 4a3c eeb9 0a40
00000020: 1c66 0a40 7cbf adbd af28 9c3f 9277 bc3f
00000030: 33af cdbe 6d02 b1be f571 9e3f 7604 0040
00000040: 6b47 29c0 37c7 1240 6aba 9abf 086e 3dbf
00000050: 55a1 1abf 0a54 65c0 bf3d 5b3e 9258 7a40
00000060: 2cc0 193f 3b60 8d3f fab2 c2be 7195 37bf
00000070: b17e 1940 fb1c bc3f e4b9 7e3f 1a2b 7d3e
00000080: d326 8cc0 a791 c23e 3a2c 833f d2d0 eebe
00000090: 5eb7 68bd 2287 1a3f 979a 6e40 c27e debe
000000a0: 56d4 e83f 86d8 2240 261b 0740 327d 19c0
000000b0: 147d 2e40 f856 5840 9adb 153f ed38 3b40
000000c0: a132 40bf 4d69 1e40 aa0f 0240 879e 4a40
000000d0: 60b9 fabd dcb4 cb3e 8361 4240 1c5f 0c40
000000e0: 3063 2e40 03d8 2cbf 85ee 5a40 d63e 853d
000000f0: 6f2d 7ec0 1712 8140 0319 2c40 3779 9e3f

bn2.running_var f4 [64]
5.3953605 2.850177 3.0973575 3.6704075 3.3492239 4.139101 1.9478508 4.9295926
5.8664284 2.719137 1.3426169 3.0145957 1.6439948 3.1357615 1.8691608 2.8698273
4.644476 3.8072262 2.419471 3.3825104 3.0213296 3.6369207 2.7758112 6.3713946
1.7920451 2.779783 2.2951372 3.2784574 4.789276 5.072299 4.6718426 3.551193
7.2127123 2.8623765 1.8535099 3.0028155 1.3947548 2.558799 5.407355 2.9472377
4.1199903 3.6020255 5.2414637 3.7463531 3.3002503 4.2419014 1.5137812 5.700635
3.167609 3.3472002 3.6278048 4.7256713 1.7917492 3.9009364 4.9739428 3.8164494
4.597393 3.002817 6.578683 5.101952 5.317555 8.056269 4.883371 3.1308076
00000000: cba6 ac40 4d69 3640 1b3b 4640 f5e7 6a40
00000010: af59 5640 8473 8440 2d53 f93f 39bf 9d40
00000020: c8b9 bb40 5706 2e40 dfda ab3f 23ef 4040
00000030: 6c6e d23f 51b0 4840 a940 ef3f 40ab 3740
00000040: 8c9f 9440 98a9 7340 9dd8 1a40 0d7b 5840
00000050: 775d 4140 4fc3 6840 e4a6 3140 77e2 cb40
00000060: bc61 e53f f7e7 3140 87e3 1240 3fd2 5140
00000070: c041 9940 4650 a240 bc7f 9540 bf46 6340
00000080: 8ace e640 2d31 3740 d03f ed3f 212e 4040
00000090: 5387 b23f 5dc3 2340 0d09 ad40 8b9f 3c40
000000a0: f6d6 8340 9687 6640 12ba a740 40c4 6f40
000000b0: 4d37 5340 a8bd 8740 95c3 c13f 9a6b b640
000000c0: 1bba 4a40 8738 5640 f42d 6840 b338 9740
000000d0: 0a58 e53f f1a8 7940 8a2a 9f40 b540 7440
000000e0: d81d 9340 272e 4040 9284 d240 3143 a340
000000f0: 6929 aa40 7ae6 0041 9344 9c40 275f 4840

bn3.weight f4 [64]
1.0475539 1.0490491 1.049317 1.0485454 1.0484844 1.0507882 1.0500275 1.050102
1.0495337 1.0505258 1.048173 1.0504338 1.0511551 1.0508815 1.0490395 1.046706
1.0496919 1.0473948 1.0494696 1.0511914 1.0484719 1.0482875 1.0507699 1.0473185
1.050721 1.0499035 1.0482882 1.051887 1.0477209 1.0501904 1.0470359 1.0492853
1.0511675 1.0489191 1.0509344 1.0480397 1.050304 1.0496212 1.0501974 1.0485475
1.0478064 1.0496657 1.0510291 1.047415 1.0495588 1.0477877 1.0519269 1.0496218
1.049527 1.0475118 1.0485876 1.0513046 1.0509716 1.0487102 1.0498997 1.0506375
1.0502827 1.0489581 1.0483917 1.0482951 1.0497639 1.0490295 1.0499289 1.0478348
00000000: 3f16 863f 3e47 863f 0550 863f bc36 863f
00000010: bd34 863f 3a80 863f 4d67 863f be69 863f
00000020: 1f57 863f a177 863f 882a 863f 9d74 863f
00000030: 408c 863f 4983 863f ed46 863f 76fa 853f
00000040: 4e5c 863f 0811 863f 0555 863f 718d 863f
00000050: 5434 863f 492e 863f a17f 863f 880e 863f
00000060: 077e 863f 3d63 863f 4f2e 863f 3ca4 863f
00000070: b81b 863f a46c 863f 4605 863f fb4e 863f
00000080: a88c 863f fb42 863f 0585 863f 2a26 863f
00000090: 5d70 863f fd59 863f de6c 863f ce36 863f
000000a0: 851e 863f 725b 863f 1f88 863f b211 863f
000000b0: f157 863f e81d 863f 8aa5 863f 025a 863f
000000c0: e756 863f de14 863f 1e38 863f 2691 863f
000000d0: 3d86 863f 233c 863f 1d63 863f 4a7b 863f
000000e0: aa6f 863f 4244 863f b331 863f 892e 863f
000000f0: aa5e 863f 9946 863f 1264 863f 731f 863f

bn3.bias f4 [64]
0.051023103 0.047534913 0.048217285 0.045430195 0.04661954 0.044683445 0.04608247 0.049111873
0.04918135 0.046610314 0.045630313 0.046981383 0.0485032 0.050163597 0.04946065 0.049936812
0.050896592 0.05176913 0.04883921 0.052431714 0.05287546 0.042080868 0.045499377 0.04747212
0.051951062 0.045039512 0.049311955 0.048780575 0.051550653 0.046466496 0.04181503 0.048298907
0.0463773 0.048046015 0.049086347 0.051594567 0.051784985 0.035267092 0.048598316 0.047315825
0.04641612 0.04345599 0.03891885 0.049630318 0.048555303 0.043089524 0.046294834 0.047743376
0.04959026 0.05003607 0.04520624 0.049670618 0.046097517 0.052423928 0.049538683 0.047987286
0.04889816 0.048339706 0.052215785 0.047754765 0.041507136 0.04517853 0.051895805 0.0462376
00000000: 9afd 503d f8b3 423d 7d7f 453d 0315 3a3d
00000010: 21f4 3e3d fd05 373d f9c0 3c3d 8829 493d
00000020: 6272 493d 75ea 3e3d dae6 3a3d 8d6f 403d
00000030: 4bab 463d 5878 4d3d 4097 4a3d 8b8a 4c3d
00000040: f278 503d de0b 543d a00b 483d a3c2 563d
00000050: f093 583d fd5c 2c3d 8e5d 3a3d 2072 423d
00000060: a3ca 543d 5a7b 383d 55fb 493d 24ce 473d
00000070: c726 533d a753 3e3d 3d46 2b3d 13d5 453d
00000080: 20f6 3d3d e6cb 443d c40e 493d d354 533d
00000090: 7e1c 543d 3a74 103d 070f 473d 3dce 413d
000000a0: d41e 3e3d e8fe 313d 5f69 1f3d 2949 4b3d
000000b0: ede1 463d a47e 303d a79f 3d3d 8f8e 433d
000000c0: 281f 4b3d 9ff2 4c3d 2e2a 393d 6b73 4b3d
000000d0: c0d0 3c3d 79ba 563d 13e9 4a3d 518e 443d
000000e0: 7049 483d dbff 453d 38e0 553d 809a 433d
000000f0: 6303 2a3d 1f0d 393d b290 543d a363 3d3d

bn3.running_mean f4 [64]
1.7590224 1.0399956 1.3794197 0.2878362 -0.26456657 0.37563452 1.6182319 1.930492
1.9108343 -1.1295116 2.094113 0.28709134 -0.661515 -0.21795326 1.373751 1.8629823
0.71342945 0.2829189 1.113661 0.118879795 1.6162782 1.0615621 0.41185105 -0.62816125
-0.09241702 -0.1328076 2.1568058 1.1614177 2.2456036 0.86780065 1.4768223 1.3728343
0.17380242 -0.5076091 -2.14117 0.5153879 1.6399944 2.4760566 0.9092128 1.3131404
1.8270652 0.74835515 2.3401108 1.7662215 2.0450292 0.67507553 2.0526083 1.1151531
1.3025986 1.8826013 -0.47673443 1.1287304 -0.51123905 1.0892247 -1.0988762 -0.7597332
-0.8690129 1.4101025 0.12875544 1.3449789 1.0804873 -0.029380715 1.0743443 0.0981738
00000000: a527 e13f 931e 853f d390 b03f 445f 933e
00000010: 4575 87be 2b53 c03e 3922 cf3f 5d1a f73f
00000020: 3896 f43f d693 90bf f305 0640 a3fd 923e
00000030: 0c59 29bf 242f 5fbe 13d7 af3f 3476 ee3f
00000040: 50a3 363f bfda 903e 728c 8e3f 4077 f33d
00000050: 34e2 ce3f 44e1 873f 24de d23e 2dcf 20bf
00000060: 2245 bdbd b7fe 07be 1b09 0a40 56a9 943f
00000070: f8b7 0f40 2f28 5e3f 8308 bd3f 09b9 af3f
00000080: 43f9 313e acf2 01bf ee08 09c0 76f0 033f
00000090: 56eb d13f b677 1e40 2cc2 683f fc14 a83f
000000a0: 46dd e93f 3494 3f3f 60c4 1540 8c13 e23f
000000b0: c2e1 0240 c0d1 2c3f ef5d 0340 56bd 8e3f
000000c0: 8dbb a63f 14f9 f03f 8916 f4be 3d7a 903f
000000d0: 90e0 02bf b76b 8b3f faa7 8cbf e07d 42bf
000000e0: a177 5ebf 3d7e b43f 77d8 033e 4528 ac3f
000000f0: 684d 8a3f d3af f0bc 1d84 893f 580f c93d

bn3.running_var f4 [64]
1.5467788 1.116879 1.5055388 1.7346895 0.33581418 1.4416436 0.8106329 0.47750363
0.6201485 1.6610416 1.20669 0.54757774 1.3257391 0.891761 1.3532913 0.8661926
1.0504493 1.1947682 1.404094 0.7702111 0.7768762 1.1686201 1.5108664 2.3375273
1.9060826 1.7942609 1.0390501 1.2339705 1.7341213 1.5110589 1.5813564 0.9150575
0.702696 1.2304039 1.173946 2.366915 0.45324507 0.88514143 1.347157 0.53200626
1.3322017 1.3973674 0.9565538 1.1667998 1.1527141 1.3057673 0.8845876 0.7973673
1.2098827 1.7212715 1.4541224 1.2099984 0.85556626 1.152145 1.5755708 1.1542916
0.76162857 1.1863686 1.1122284 1.2871497 1.4950649 1.5437759 0.6035479 1.9081001
00000000: d9fc c53f e4f5 8e3f 7fb5 c03f 4e0a de3f
00000010: d6ef ab3e c787 b83f a385 4f3f 5b7b f43e
00000020: 0dc2 1e3f 039d d43f d174 9a3f 0e2e 0c3f
00000030: d2b1 a93f 734a 643f a638 ad3f ccbe 5d3f
00000040: 1f75 863f 2aee 983f 5ab9 b33f 8e2c 453f
00000050: 5ce1 463f 5895 953f 1264 c13f 0c9a 1540
00000060: 84fa f33f 57aa e53f 98ff 843f bff2 9d3f
00000070: b0f7 dd3f 616a c13f e369 ca3f 3541 6a3f
00000080: e3e3 333f e07d 9d3f dd43 963f 897b 1740
00000090: bd0f e83e a198 623f a46f ac3f 9031 083f
000000a0: 9685 aa3f efdc b23f b6e0 743f b259 953f
000000b0: 238c 933f 6223 a73f 5574 623f 4320 4c3f
000000c0: 70dd 9a3f a052 dc3f af20 ba3f 3ae1 9a3f
000000d0: 6406 5b3f 7d79 933f 4eac c93f d4bf 933f
000000e0: 17fa 423f edda 973f 805d 8e3f 52c1 a43f
000000f0: 495e bf3f 739a c53f 1d82 1a3f a03c f43f

fc.weight f4 [5, 64]
0.0057534026 0.002276592 -0.0002889057 0.010448334 0.008483581 0.008002706 0.00011751641 0.001426961
0.0054850653 0.0050149816 0.007111407 0.002664574 0.0010326602 0.0021183623 0.008341378 -0.0014170324
0.0009458659 0.0076343827 0.0049341107 0.00078837405 0.009860137 0.02042984 0.007141875 0.003325686
0.0017629872 0.012418938 0.002906767 -0.0007734661 0.0028846462 0.0018642268 0.001963512 0.0049703084
0.007829344 0.0031031515 0.00386813 0.0005422206 -0.0034026753 -0.0021581554 0.015321169 0.0050796964
0.0073236837 0.008804245 0.006428469 0.0034194305 0.0060347947 -0.003644871 0.0076679317 0.0033939893
0.00815533 0.0020834177 0.0040084324 0.0027366304 -0.004565866 -0.0070260935 0.0030411754 0.0076226215
0.0025193773 0.0006295797 0.0035755064 -0.0006238323 0.0037962578 0.012960876 0.0018166585 -0.00028695306
-0.00071467756 -0.0036267384 -0.009152268 -0.0036431374 -0.0023963167 -0.0015461544 -0.012742458 -0.0027573216
-0.0062859775 -0.0004102404 -0.005980248 -0.0069212373 -0.011062578 -0.007456836 -0.0074906256 -0.009650279
-0.0049059684 -0.001173787 -0.009806552 -0.0064434144 -0.00080028945 0.009691701 0.0021409593 -0.0048037893
-0.0053410274 0.0010857664 -0.012251058 -0.0058039273 -0.0070995414 -0.0062442627 -0.0055660265 -0.00375858
-0.0016777549 -0.008296352 -0.0009741421 -0.0050767683 -0.012226235 -0.0038577497 -0.005309656 -0.0035386102
-0.006509867 -0.0031091762 -0.006336871 -0.0032681127 -0.008704608 -0.012549077 -0.00811312 -0.0011958022
-0.0020389613 -0.0029621772 -0.0042278618 -0.0032370393 -0.010683723 -0.0019163475 0.0027146968 0.0001602206
-0.00622321 -0.009469125 -0.005295146 -0.010300369 -0.0026843029 0.006641312 -0.011261525 -0.007258959
-0.0052092564 -0.0013089912 -0.012301483 0.0029265503 -2.0857124e-05 -0.00015397731 -0.00835776 -0.0032350016
-0.0019251801 -0.0031080972 0.0022007779 -0.0017308721 -0.0069971173 -0.0025061166 0.00028708926 -0.01047123
-0.0015988628 -0.0035211127 -0.005007428 -0.007684434 -0.0019082573 0.0066941166 -0.000805793 -0.009463016
-0.0057573644 0.0022128199 0.00024710599 -0.007409862 -0.0003514656 -0.004561275 -0.0055644293 -0.0058435337
-0.002674741 -0.002078423 -0.002632178 -0.006258984 -0.012282031 -0.014276245 0.0016740739 -0.0023598091
-0.0030715193 0.0030374285 -0.009817784 -0.0038477632 -0.0011700966 -0.01190965 -0.0036271152 -0.005032705
-0.0020883093 -0.0066536465 -0.008102452 -0.0037609339 -0.013543811 -0.008209011 -0.003269386 0.00015720539
-0.0065925904 -0.006074441 -0.004659044 -0.0115270335 -0.0054784045 0.0008526022 -0.0031365324 -0.0141546875
0.018700765 0.005889681 0.009014502 0.011346388 0.0152085945 0.020141512 0.005724424 0.0035520592
0.016312035 0.008829143 0.0069942013 0.0044659767 0.0037697847 0.010318408 0.02012387 0.008876392
0.009914248 0.0155537175 0.004113745 0.0092012165 0.011741592 0.018131351 0.015436361 0.013717084
0.009115384 0.015908385 0.010368413 0.0044611585 0.009768085 0.005950777 0.00946235 0.01412019
0.011021902 0.013761194 0.014278564 0.009548579 0.0029128653 0.005762924 0.022779336 0.0129302405
0.01100503 0.014930673 0.0023063847 0.0065352013 0.013346503 -0.0040197447 0.015231196 0.011024207
0.013481224 0.008198516 0.015970672 0.0073536416 -0.0011274309 0.0065858494 0.017766392 0.013200923
0.005226104 0.0011516729 0.008878009 0.015514562 0.0052550486 0.014000127 0.015093726 0.009717713
00000000: 0a87 bc3b e032 153b 4478 97b9 7d2f 2b3c
00000010: b8fe 0a3c c81d 033c 2473 f638 de08 bb3a
00000020: 10bc b33b b754 a43b ce06 e93b 22a0 2e3b
00000030: 545a 873a 39d4 0a3b 46aa 083c b8bb b9ba
00000040: fcf3 773a d829 fa3b 52ae a13b e3aa 4e3a
00000050: 698c 213c 7b5c a73c 6406 ea3b c1f3 593b
00000060: 0914 e73a cd78 4b3c 757f 3e3b 6ec2 4aba
00000070: 550c 3d3b 1259 f43a 44ae 003b f8dd a23b
00000080: a646 003c 3e5e 4b3b 7480 7d3b cf23 0e3a
00000090: 6bff 5ebb d76f 0dbb a405 7b3c 9573 a63b
000000a0: 83fb ef3b ae3f 103c e8a5 d23b 8618 603b
000000b0: 87bf c53b cade 6ebb 4643 fb3b b16d 5e3b
000000c0: ef9d 053c f389 083b 2b59 833b 0a59 333b
000000d0: 439d 95bb 253b e6bb 754e 473b 2fc7 f93b
000000e0: 231c 253b 610a 253a 0b53 6a3b ad88 23ba
000000f0: a3ca 783b db59 543c f21c ee3a 3072 96b9
00000100: 3359 3bba 93ae 6dbb 65f3 15bc b4c1 6ebb
00000110: 860b 1dbb 55a8 caba bec5 50bc 2eb4 34bb
00000120: 9afa cdbb 8915 d7b9 f5f5 c3bb 8ccb e2bb
00000130: d13f 35bc 7958 f4bb ec73 f5bb 341c 1ebc
00000140: 3fc2 a0bb c2d9 99ba a9ab 20bc 4723 d3bb
00000150: 84ca 51ba f1c9 1e3c 564f 0c3b 1b69 9dbb
00000160: c903 afbb 4650 8e3a a9b8 48bc df2e bebb
00000170: 45a3 e8bb ac9c ccbb 3763 b6bb 8252 76bb
00000180: 1de8 dbba 6ced 07bc 925d 7fba 055b a6bb
00000190: 8c50 48bc 4dd2 7cbb 9ffc adbb 07e8 67bb
000001a0: b950 d5bb 52c3 4bbb 87a5 cfbb d52d 56bb
000001b0: c69d 0ebc a59a 4dbc e4ec 04bc 77bc 9cba
000001c0: 18a0 05bb 1621 42bb e089 8abb 8224 54bb
000001d0: c80a 2fbc f42d fbba 0ee9 313b e400 2839
000001e0: 12ec cbbb 6424 1bbc e782 adbb e1c2 28bc
000001f0: 21eb 2fbb 5d9f d93b 4282 38bc 90dc edbb
00000200: 69b2 aabb 7592 abba 298c 49bc 5ecb 3f3b
00000210: 55f6 aeb7 f874 21b9 fcee 08bc 5202 54bb
00000220: 5356 fcba 38b1 4bbb ed3a 103b 6ede e2ba
00000230: 1348 e5bb a93d 24bb 7884 9639 868f 2bbc
00000240: ef90 d1ba 78c2 66bb 5a15 a4bb b4cd fbbb
00000250: 7d1e faba 525a db3b da3b 53ba c40a 1bbc
00000260: 46a8 bcbb f504 113b 018e 8139 6dce f2bb
00000270: ea44 b8b9 bf76 95bb d155 b6bb 1d7b bfbb
00000280: b54a 2fbb 2736 08bb 9e80 2cbb 2a18 cdbb
00000290: 923a 49bc e9e6 69bc 996c db3a 07a7 1abb
000002a0: 8b4b 49bb 980f 473b c5da 20bc c12a 7cbb
000002b0: ed5d 99ba b120 43bc e5b4 6dbb 64e9 a4bb
000002c0: 04dc 08bb d506 dabb 26c0 04bc 007a 76bb
000002d0: dce6 5dbc 167f 06bc 3243 56bb 80d7 2439
000002e0: a806 d8bb 1b0c c7bb e5aa 98bb e2db 3cbc
000002f0: 3084 b3bb 2a81 5f3a 488e 4dbb 10e9 67bc
00000300: 5932 993c 3afe c03b 90b1 133c 33e6 393c
00000310: 782d 793c d0ff a43c f393 bb3b aac9 683b
00000320: d1a0 853c 1ca8 103c 9d2f e53b 5457 923b
00000330: 7e0e 773b 8a0e 293c d0da a43c 496e 113c
00000340: 5f6f 223c 05d5 7e3c 98cc 863b b3c0 163c
00000350: ce5f 403c 3388 943c cae8 7c3c 9fbd 603c
00000360: b158 153c 4d52 823c 47e0 293c e92e 923b
00000370: 510a 203c bcfe c23b f907 1b3c 5f58 673c
00000380: 3595 343c a276 613c a3f0 693c a571 1c3c
00000390: c5e5 3e3b e9d6 bc3b bb9b ba3c 5cd9 533c
000003a0: 714e 343c c89f 743c b726 173b 3e25 d63b
000003b0: 4aab 5a3c 10b8 83bb 448c 793c e09e 343c
000003c0: 5ae0 5c3c 1253 063c edd4 823c d1f6 f03b
000003d0: 4ec6 93ba 1cce d73b d38a 913c af48 583c
000003e0: bd3f ab3b bbf3 963a 1275 113c ca30 7e3c
000003f0: 8b32 ac3b ca60 653c ad4b 773c 0b37 1f3c

fc.bias f4 [5]
1.0221201 0.96642303 0.97103935 1.0451717 0.9804263
00000000: d5d4 823f 8067 773f 0996 783f 30c8 853f
00000010: 38fd 7a3f
