maml-notebook_original_test/maml-notebook/completed_model/model1/model-epoch_00027-train_loss_0.143-train_acc_0.854-test_loss_0.538-test_acc_0.858.pt (torch_old, 305688 bytes, 20 tensors)

conv1.weight f4 [64, 1, 3, 3]
00000000: 639b 0f3b 43d3 523d 4fb6 6d3d cad9 a8bd
00000010: 258e 863d 01fa bc3c a7c3 e7bb 549a e6bc
00000020: 9cae f53c 0cfb f93c a2bd 34bc 8808 11bc
00000030: e1e4 24bb b2bc d8bc 554b b1bd 19c0 3cbd
00000040: 8fbe 113b 13cc 15bc 53de 7abd 8700 0a3e
00000050: 10af 073e 2760 b4bd 8d8c 2dbd 6a2d aebd
00000060: 8b5b a2bc ade9 bd3d 23bc b53b a041 03bd
00000070: 3f1e 0bbd 7ba0 b73b 9f6d 46bd e3f1 c23d
00000080: fbaa f8bd 4754 11bd bc10 7a3c 89ef 3c3b
00000090: 6805 83bd e65f 883b 36eb 0dbe d955 48bd
000000a0: 3f01 c23b 8042 8c3d ef65 97bc bc29 d8bc
000000b0: 16cd 9b3b 0b8a d33d ca68 9ebd 0130 3bbd
000000c0: 1651 cbbd c5c4 633c ec36 303d cb41 653e
000000d0: fe2f 80bb f055 e73b 49f6 e7bc 0dfb bd3c
000000e0: 9456 d63d 6153 f9bc 06c8 eabd fc84 e9bd
000000f0: 83b3 703d a30e 793d 4d16 3c3d d31a 243c
00000100: 8573 d1bc 5f37 553c 57d7 fdbc bd29 823c
00000110: 1b40 8fbd 4729 3dbd 46dc 0c3b a9e0 2abc
00000120: 474c afbd 14d6 e23c bc48 103d fb74 7fbb
00000130: 7b4d 80bd a318 a93c 189e c2bd 015b 3abc
00000140: 9048 023d 6b3b 6bbd 9b5e c7bd 2da5 593d
00000150: 9e6c d93d 9ad7 823d d291 6ebd 0877 223d
00000160: 0be8 ca3d 9a70 123d bda5 2f3d 8075 923d
00000170: 32f4 14bd ab9b 2abd 32c4 d23c c058 853c
00000180: 28c0 943c 5724 863c 4c29 d13c 90cb d93d
00000190: 1cde 01bd 49b5 8bbd b579 18be e46f 12be
000001a0: 254a 7abc 348c d6bc 8e45 af3c 4903 a53c
000001b0: 1dd3 edbb c2f4 c53c f272 6b3c c254 bf3c
000001c0: 01e0 573c 9c81 8638 e2f0 d2bc 345b cf3d
000001d0: 7da8 71bd 76d7 0ebc cf13 ad3c ea6d e83d
000001e0: fea9 773d 84b5 8b3a cb4e 51bc 1a32 183e
000001f0: 842d 9dbd 4738 1b3d df03 903d 4164 ee3d
00000200: abc3 80bd 4952 603d 9066 14bc 21c1 203d
00000210: 4b3e d2bc a9c5 99bc f97b 93bd b2e3 02bd
00000220: a806 a13c aab3 e83c 02c0 03be 6f3d 6d3d
00000230: 6b01 cd3d 90a2 5dbd 6556 cf3c 8194 a73c
00000240: d352 92bd 7aea dabc 8bba 9e3c 759d 8f3d
00000250: 982a 603c 1fa6 5bbd 7a2f 923d d9b7 c4bb
00000260: 1fa6 8e3d 93d7 acbc 24c0 433c 2abb 82bd
00000270: 97e4 803d 3d3d 953d d150 043d 68fa f8bc
00000280: 906e b1bd 706c 333d f753 843d 59ee 8a3c
00000290: 0f9f b33d 1ee3 d7bc 1e69 923d b68a 68bc
000002a0: 9c7b 883d 953b ad3c 4232 73bd b902 31bd
000002b0: f8cb 5f3d 42e7 033d 9049 2bbd dbef f83b
000002c0: 91f7 91bd c37f 713c be2f aa3c 8ce1 aabd
000002d0: 00dc c3bd c4e3 bc3c c165 923d 97fd f1bb
000002e0: dd58 9d3c 4538 823b b223 94bd 6a6f 5c3c
000002f0: 2ad9 093d c043 e53c c961 8abd e860 283d
00000300: 50ca 06bd 68ae 063c be44 ae3c 4bf8 ad3d
00000310: 621c 14bd 15a6 1a3d 1ae7 6abd 376d 4e3d
00000320: 447b c0bd 1746 bbbc 1060 9e3c 5a4e adbc
00000330: 53e8 eabc 9e95 4d3c da80 04ba 54af b23b
00000340: 166f adbc b0a1 e6bc da52 883d 8d8a 953d
00000350: 47db 083d ec49 56bd fd88 8abb 0b2a 0e3a
00000360: 1592 113c d52b 4bbd b88b 60bd ec6c 90bb
00000370: d5d8 dfbd 64ef b23d de43 afbc 95e7 14bd
00000380: cdfa 9d3d 0b5b 46bd 46f9 dfbd b237 2abd
00000390: 38d0 283d 684a 9a3c f142 f63d 48e7 46bc
000003a0: 43d9 bcbc 3957 b1bc d1ec 0fbe 5758 57bd
000003b0: f9b9 a4bd c8b8 143d 281b 82bd b16b 84bd
000003c0: a9de e6bc 9fe4 513b c384 dc3d d1ec 58bd
000003d0: dd13 37bc a30e 1bbd 5eaa 51bd b82e b5bd
000003e0: f990 04bd ed8c a03d 9dde ba3d 9044 d73c
000003f0: db1c bcbc 1fed 6b3d 0f55 72bd e4a6 c5bc
0.0021912686 0.051471006 0.05803519 -0.08244665 0.06570081 0.02306843 -0.007072884 -0.028149761
0.029990487 0.030515216 -0.01103154 -0.008852132 -0.0025160837 -0.026457164 -0.086569466 -0.046081636
0.0022238826 -0.009142893 -0.06124718 0.13476764 0.13250375 -0.08807402 -0.042370368 -0.08504756
-0.019819042 0.09273086 0.0055461093 -0.032045007 -0.03396439 0.0056038476 -0.048444387 0.095187925
-0.12141987 -0.035480764 0.015262779 0.0028829298 -0.063975155 0.0041618226 -0.13859257 -0.048909996
0.0059205587 0.06848621 -0.018481223 -0.026387088 0.0047546728 0.10329064 -0.07734831 -0.045700077
-0.09927575 0.013901894 0.043021128 0.2238838 -0.003911971 0.007059805 -0.02831568 0.023191
0.10465732 -0.030435266 -0.11463933 -0.11402318 0.058764946 0.060804974 0.045919705 0.010016161
-0.02556778 0.01301369 -0.030986471 0.015889043 -0.06994649 -0.046181943 0.0021493598 -0.01042954
-0.085594706 0.027689971 0.035225615 -0.0038979638 -0.06264778 0.02064163 -0.0950281 -0.011374236
0.031807482 -0.057429712 -0.097348414 0.05313604 0.1061642 0.06388779 -0.058244534 0.0396643
0.0990754 0.035751916 0.04288267 0.071513176 -0.036365695 -0.041652363 0.025728319 0.01627767
0.018158033 0.01637475 0.025532387 0.106345296 -0.03170596 -0.06821687 -0.14890178 -0.14300495
-0.0152764665 -0.026189901 0.021395471 0.020143168 -0.0072578327 0.024164561 0.014370667 0.023355845
0.013175965 6.4137595e-05 -0.025749628 0.101248175 -0.058998574 -0.008718362 0.02112761 0.113490894
0.06046485 0.0010658954 -0.012775133 0.14862862 -0.07674697 0.037895467 0.07031988 0.11640216
-0.06287321 0.054765973 -0.009057656 0.039246682 -0.02566447 -0.01877101 -0.0720138 -0.03195543
0.019656494 0.028405983 -0.12866214 0.057919916 0.10010036 -0.05411011 0.02530975 0.020456554
-0.07144704 -0.026723135 0.01937606 0.070124544 0.01368203 -0.053625222 0.07137962 -0.0060033617
0.06965279 -0.021098888 0.011947665 -0.06383355 0.062936 0.07287071 0.032303635 -0.03039284
-0.08663666 0.043804586 0.064613275 0.016959356 0.087705724 -0.026353415 0.07148956 -0.0141932275
0.066642016 0.021146575 -0.0593741 -0.043215487 0.05463788 0.032202967 -0.0418182 0.0075969524
-0.07127298 0.014739933 0.020774718 -0.08343801 -0.09563446 0.023057826 0.07148314 -0.0073849666
0.019207412 0.003973993 -0.07233371 0.013454298 0.03365437 0.027986407 -0.06756932 0.041108042
-0.032907784 0.008220293 0.021273013 0.08494624 -0.03615988 0.037756044 -0.057349302 0.050397124
-0.09398511 -0.02286057 0.019332916 -0.021155525 -0.028675234 0.012547879 -0.0005054601 0.0054530296
-0.021171134 -0.02815327 0.06656428 0.07301817 0.033412244 -0.05231659 -0.004227756 0.0005423135
0.008884926 -0.04960235 -0.054820746 -0.0044075157 -0.10930029 0.087370664 -0.021394666 -0.036353666
0.07713852 -0.04842667 -0.10936217 -0.04155702 0.041214198 0.018834308 0.12024487 -0.012140103
-0.023052817 -0.021648036 -0.14055182 -0.05257448 -0.08043284 0.036309034 -0.06352836 -0.06465853
-0.028182345 0.0032027138 0.1076751 -0.05296022 -0.011174169 -0.037855756 -0.051187865 -0.088468015
-0.03236482 0.078393795 0.09124491 0.02627781 -0.022962978 0.057599183 -0.05916315 -0.024127431

conv1.bias f4 [64]
00000000: db46 86bb 1f19 09ba e916 d13b e271 863b
00000010: a472 8b3b 0522 943b e11d a33a 51f5 4fbc
00000020: 671f 1c3c f0cb 023a 599b 2ebc fa86 883b
00000030: f531 e73b b92a 123b ca5d 543b 6df1 0a3c
00000040: 17ba d83a 097c c73b aacb 3f3c aef6 bfbb
00000050: 606b d7bb e34c b2bb 008f 043c 8d74 fdbb
00000060: 2203 83bb d131 9fbb f7f7 b4bb 0938 edbb
00000070: 8501 383b 43d7 09bb 1e7e 0cbb e5b4 1b3a
00000080: 8ac8 83bb a131 bdbb 0623 70bb e70a da3b
00000090: 1ed5 d6ba 5992 5ebb 61f9 903b 38c9 9f3b
000000a0: 7fe6 8538 7823 e73b d65f bab9 3606 00b9
000000b0: 14f4 d9bb 7c86 043b e0b1 1e3c 00e8 97bb
000000c0: 0c3e 2a3c 7bc6 a5bb 8db3 30bb fec3 383b
000000d0: 01c6 aabb b9b0 963b aa7f 463b ae51 1c3c
000000e0: 06b0 493b c542 403b fe15 f93a d3ed 84bb
000000f0: 47aa 323b 03d9 41b9 4a93 f6bb 2807 b4bb
-0.004097802 -0.00052298786 0.006380905 0.0041029314 0.0042556096 0.004520657 0.0012444818 -0.012692765
0.009528971 0.00049894955 -0.010657155 0.004166481 0.007055516 0.0022303297 0.0032404535 0.008480412
0.0016534951 0.006087784 0.011706272 -0.005858264 -0.0065740794 -0.0054412945 0.0080907345 -0.007734841
-0.003998176 -0.0048582335 -0.005522724 -0.007239346 0.0028077078 -0.0021032847 -0.0021437476 0.0005939736
-0.004021709 -0.0057737385 -0.003664197 0.0066541317 -0.0016390418 -0.0033961742 0.0044242595 0.004876282
6.3848674e-05 0.0070537888 -0.00035548088 -0.00012209345 -0.006651411 0.002022176 0.009685963 -0.004635811
0.01039077 -0.005059061 -0.002696249 0.0028192992 -0.005211592 0.0045987037 0.0030288496 0.009540958
0.0030775084 0.0029336673 0.0019003747 -0.004056671 0.0027262138 -0.00018486757 -0.0075248824 -0.005494017

conv2.weight f4 [64, 64, 3, 3]
00000000: 3032 e0ba 0f6e b4bc 3fd0 f6bb 3cb0 013d
00000010: 54b3 4f3d c247 1cbb e934 9a3c 2f2d 863b
00000020: ea37 f63c 4ff4 a7bd 3d54 513d 8cf3 0f3d
00000030: 6bb2 d33d a896 0fbd 285f b93c 475c 02bd
00000040: 9a06 943c 4a62 f03b 7097 623d 2af9 a5bc
00000050: 69b9 a73c 4c10 d1bc 1407 0d3d c334 ba3c
00000060: 27b9 1abd 0e63 e13b 9ac3 13bd de67 1e3d
00000070: 8d2b e6bb 103c 823c f244 883d 1aad 793d
00000080: 350f 633c 616d 9fbc 882a 303d 055d 003d
00000090: ec36 833d d9ff a2bc 6fdd 1d3c 7c0c cc3c
000000a0: 4c4e b33c 8b21 2d3d 7978 f7bc c5f8 943c
000000b0: 8c86 50bc e0e2 b93d 4710 d9bb 81eb 7d3c
000000c0: d8c8 113e 664f 373c c90d 7b3c 56c6 0abd
000000d0: 370d 81bc 5f4c bbbc 9008 87bd 58a9 ad3b
000000e0: 6c55 b33b 1d17 14bd e6be 8f3d 1f6c 25bd
000000f0: 1dc6 173d 7a88 7e3c 2ef1 963b 7e7c 043d
00000100: e0c4 bebd 477e f9bb 159f c6bc 296d 983c
00000110: bf96 483c 71f7 153d 9b50 07bd 69dd cf3c
00000120: 4fed bdbb 88e7 fabc bf37 dabb 1455 3c3c
00000130: 95be b0bc 7cf4 fd3c ee25 f6bb f444 a7bb
00000140: a08e d73c 9764 a5bd 9292 8c3d 7d01 553d
00000150: 2691 0f3d 2719 16bc 9f34 e7bc 543c 1dbd
00000160: a29b 8d3c 387d 4cbd 419f 2ebc 5026 0e3d
00000170: 617f 1f3d 55d8 b6b9 6e55 3d3d aa20 b8bc
00000180: 3733 80bc 4315 f1bc f0c5 e53c 4f14 883c
00000190: e83d 023d 7fcf 213d 6984 22bd 733f bebc
000001a0: 23bb e1bc 1ede 15bd 431b 1e3c bd76 673d
000001b0: 6209 d13c 683c 29bd 560c 903c cda6 763d
000001c0: 080b 49bb 88a9 17bd 449e 7e3d 7ced 253c
000001d0: 6269 25bc f179 193c abd4 c93c 8d1f 4dbd
000001e0: 842a 663c b8ac 763d 8d55 50bc 20f0 7a3d
000001f0: dff2 d13c d9a3 893b 4a06 2d3d 9a18 8f3d
00000200: 4465 27bc 8e6d 213d 3bf7 013d 155a 323d
00000210: abaa b6bc cf2b ad3a a106 cebb a194 2c3d
00000220: 01cb 863d e258 7f3d 25d0 11bc ae1e 87bd
00000230: 149f 083d 9904 4dbd e5b8 1d3d 091e ae3d
00000240: 7b03 93bd 6732 95bc f6dc abbc 6ffd 693d
00000250: fd69 ce3a 3ed6 ae3c 3824 9b3c 12bc febc
00000260: 3ec0 13bd fab4 2f3c bf67 0b3c 0f84 8cbb
00000270: ade9 1ebc 909f 3a3c 9825 94bc 6a36 e83d
00000280: 6ea3 9ebc b023 c63d 91ec 29bc 6480 84bc
00000290: 3297 b2bd 5aa0 023d 1116 8abd 7f4d 09bd
000002a0: bfac 6cbd c56c 8dbd ee96 513d de52 1a3d
000002b0: 7e15 023d c7ac 96bc 3386 f4bb 2d56 bdbd
000002c0: af14 c9bd cdef 95bd 0550 0b3d 9a1b 1ebb
000002d0: 3649 19bd 9b3c a33a 5bd3 ab3c e35f e03c
000002e0: ced2 cebd 8274 0c3d 4c57 463d bbe1 b4bb
000002f0: 72f5 e83d 0e8b bebc 48cc e93c 208f 193d
00000300: 0df6 19bd 5a3e 72bc 12ed 6a3d 8545 de3a
00000310: 4479 59bd 194d 653d 6287 51bd 64dd 103d
00000320: e690 0d3d 2a17 5c3d ce3d 91bb e6a5 e1bb
00000330: d4a8 bb3c ae78 13bc fd49 d3bc 06c3 3cbc
00000340: c8bd 08bc 232d 24bc 1e41 92bc 81bf 9fbd
00000350: b4bb 123a 3e8d c8bd fa1f 96bc cb7d b4bc
00000360: eb22 fbbc 7d2c 933d 7d7b 093d 9bb5 bc3c
00000370: 1ef4 68ba 4506 e5bc 2459 093d 00d2 05bc
00000380: d85d 083e 28da b3bc 6690 aabc 4eeb 563d
00000390: 34e6 223c 3ddf 0e3d b391 3f3d 7847 b8bc
000003a0: bbd9 68bd 63cb 263d 4e0a b63c 753e 763c
000003b0: ce96 6c3b ca12 a13c c5d5 51bc 3a3d 5fbc
000003c0: 9d5d 883d a012 c8bc 6f66 87bc 0f76 89bc
000003d0: a835 fe3c b25c 1ebd 5e06 2cbd a6a6 c3bc
000003e0: e169 143d 5fbd 89bc 4c22 913d 8cd0 0a3d
000003f0: 136f 00bc 555e b73d 45c3 053d 0359 053d
-0.0017104801 -0.022025136 -0.007532149 0.03166221 0.05070813 -0.0023846482 0.018824058 0.004094742
0.030055959 -0.08200895 0.051105727 0.035144374 0.10336765 -0.035055786 0.022628382 -0.031826284
0.018069554 0.0073359357 0.055320203 -0.020260412 0.020474153 -0.025520466 0.03443058 0.022730237
-0.03777423 0.0068782633 -0.036075212 0.038673274 -0.0070242346 0.01589778 0.06653775 0.0609561
0.013858606 -0.019461336 0.04300931 0.03133871 0.0640696 -0.019897388 0.009635313 0.024908297
0.02188792 0.042268317 -0.030208813 0.018185029 -0.012727391 0.09076476 -0.006624255 0.015498043
0.14236772 0.011188364 0.015323111 -0.033880554 -0.015753372 -0.022863565 -0.0659343 0.0052997284
0.0054728296 -0.036154855 0.07018833 -0.040386315 0.03705417 0.015535468 0.0046063876 0.032345288
-0.09314895 -0.0076139304 -0.024245778 0.01860674 0.012242972 0.03661293 -0.033035856 0.025374131
-0.0057961117 -0.03062798 -0.0066594775 0.011494894 -0.021575252 0.031000368 -0.007511846 -0.0051046554
0.026313126 -0.080758266 0.068638936 0.052003372 0.035050534 -0.00916127 -0.028223334 -0.03838761
0.017286126 -0.049924105 -0.010658086 0.034704506 0.038939837 -0.00034874925 0.04622405 -0.022476513
-0.015649421 -0.029429084 0.028048486 0.016611246 0.03179732 0.039504524 -0.039677057 -0.023223614
-0.027555054 -0.03658878 0.009650054 0.056509722 0.02551717 -0.041317374 0.017584007 0.060217667
-0.003067674 -0.037026912 0.062162653 0.0101274215 -0.010095926 0.009367452 0.02463754 -0.050078917
0.014048222 0.06022331 -0.012715709 0.061264157 0.025628505 0.0042004404 0.042242326 0.06987114
-0.010217015 0.03941112 0.031729918 0.04354294 -0.022298178 0.0013211909 -0.0062874113 0.04213393
0.06581689 0.062340625 -0.008899723 -0.065976486 0.033354834 -0.050053213 0.038506407 0.085018225
-0.07178398 -0.01821251 -0.020979386 0.05712646 0.001574814 0.021342393 0.018938169 -0.031095538
-0.03607201 0.0107243005 0.008508622 -0.0042882035 -0.009699267 0.011390582 -0.018084332 0.11338504
-0.019365039 0.096747756 -0.010371343 -0.016174503 -0.087202445 0.031891204 -0.0674249 -0.03352117
-0.05778193 -0.06905512 0.05116933 0.037676685 0.031758778 -0.018392934 -0.007462287 -0.09244952
-0.09818398 -0.07321129 0.03401186 -0.0024125339 -0.037423335 0.0012453975 0.020974806 0.027389472
-0.100988016 0.034290798 0.048423097 -0.005520073 0.1137494 -0.023259666 0.028539792 0.03749001
-0.037588168 -0.014785374 0.057354994 0.0016957974 -0.053094164 0.05598173 -0.0511545 0.035367385
0.034562014 0.05373303 -0.0044324165 -0.0068862317 0.022907652 -0.00900094 -0.025792116 -0.011521107
-0.008346029 -0.010020527 -0.017853316 -0.07800198 0.0005597428 -0.09792565 -0.018325794 -0.022032639
-0.030656299 0.0718622 0.033565033 0.023035815 -0.0008886474 -0.027957091 0.033532277 -0.008167744
0.13317049 -0.021954611 -0.020820808 0.052470498 0.00994258 0.034880865 0.04676981 -0.022495016
-0.05684827 0.04072131 0.02222171 0.015029539 0.0036100629 0.01966228 -0.012807314 -0.013625437
0.0665848 -0.024422944 -0.016528336 -0.016779928 0.031031445 -0.03866262 -0.04199826 -0.023883175
0.036233786 -0.016813932 0.0708662 0.033890292 -0.007838982 0.08953539 0.032656927 0.03255559

conv2.bias f4 [64]
00000000: 350c 103a 2daf b13b 5ac2 ea3a eb29 0a3a
00000010: f890 babb 696a 653b cbd1 eb3a 2a1a 203b
00000020: 3b98 c83a 132e 363b bdd3 4e3b 9950 b83b
00000030: e838 963b 073a b53b 2d28 913b ef9f 9b3b
00000040: 2755 953a bdf7 993b d661 24bb f23d 0bbb
00000050: adf3 95bb c81d 88ba b083 443b 8440 343b
00000060: f56f c4ba 146c 6abb e9ff ac3b 5d23 53ba
00000070: 70b2 30bb 06c1 8239 4fd7 9b3b f4a6 1f3b
00000080: a1f2 843b 1b94 26bb 8629 2a3b 4202 85ba
00000090: b766 433a 3ef6 12bb 7a52 4d3b 032e 85bb
000000a0: 2c7f 5d3b 25b5 cf39 d0ce 623a 3031 623b
000000b0: d844 1f39 4334 eab9 af84 efba c58e 873b
000000c0: 6176 3cbb 2eb4 0b3c 7e3f a0b9 96f2 1a3a
000000d0: f33a f8ba b000 5a39 13fb 03bb 09e2 0cbb
000000e0: 1c5a a63a d5a3 27ba 16d1 313b 6f91 34b8
000000f0: 70a9 f73a 8c35 01ba 100e 8fbb 3572 453b
0.0005494983 0.005422494 0.0017910704 0.00052705285 -0.005693551 0.0035006052 0.00179916 0.0024429657
0.0015304157 0.0027798458 0.0031559311 0.0056248424 0.0045844205 0.005530599 0.004429838 0.00474929
0.0011393175 0.004698722 -0.0025082729 -0.002124664 -0.0045761676 -0.0010384852 0.0029985718 0.0027504275
-0.0014986979 -0.0035769986 0.0052795303 -0.0008054281 -0.0026961826 0.00024939346 0.0047558914 0.0024360986
0.004057244 -0.0025417868 0.0025964691 -0.0010147768 0.00074539654 -0.0022424604 0.0031329677 -0.004064323
0.0033797724 0.0003961708 0.0008652033 0.0034514181 0.00015189068 -0.00044670896 -0.0018273796 0.0041368925
-0.0028757083 0.008526845 -0.00030564883 0.0005910782 -0.0018938467 0.00020790356 -0.0020138666 -0.0021497032
0.001269165 -0.00063949573 0.0027132682 -4.305079e-05 0.0018895101 -0.00049289386 -0.00436569 0.0030127887

conv3.weight f4 [64, 64, 3, 3]
00000000: 9512 4e3d 220a 223d a205 053d 201a 163b
00000010: 7afb b93a e7ea 1fbc 8428 6a3c c719 b2bc
00000020: 02c5 283c c30a ea3c e601 893c 6089 2a3d
00000030: c6e9 d73c dbdd 64bc ca9f adbc e014 e6bd
00000040: f249 25bd 49cc ef3c 0ad4 cd3b 4a68 983b
00000050: 3049 283d cd40 a5bd 9ef7 94bd 5e71 95bc
00000060: 6eb2 a339 7273 68bc 88d3 9c3c 5f8a e0b9
00000070: a88d 1bbd 53d8 8dbd d7f4 e03c 790b 48bc
00000080: 5327 5b3d b6d1 bfbd e4bd 21bc 26d2 4d3c
00000090: e832 1c3b f3ef a0bc b8c0 83bc 0d58 00bd
000000a0: 4770 51bb 6eea 703d 4056 0f3d f21c 07bd
000000b0: 5d83 883c 43a8 81bd c109 d03d 5480 c03d
000000c0: e6db e43c 8ea0 013c b0a5 1f3d 730b c8bc
000000d0: 6339 e5bb 9d1d 233d afc5 593c ea9a 1fbd
000000e0: 1bfd 49bd c5c2 ca3c 305a 833d c8c6 48bc
000000f0: 5641 f9bb a863 37bd acd8 d6bc 4e81 6dbd
00000100: fcf2 fabc 2c43 7d3c da56 e63d 8dce 4cbb
00000110: 93da 7c3b 8977 693c 8e64 0e3c b068 bbbc
00000120: 4d67 c33d a1ba 40bb 11a1 9cbd 799b 70bc
00000130: f172 223b 89d8 e8bb e2fd 313d 9359 2cbd
00000140: 603c 153d 509a 5fbd b5b8 37bb f3b9 e03c
00000150: ffaa 91bc 14c6 1b3d 0ce0 9e3d 5d85 cdbb
00000160: a71e 123c e402 dcbb 9d5f 423c d15c dabc
00000170: c5fd 24bd 0a56 123c 7999 a2bd 3a1a 1ebd
00000180: cf14 eebd e50d a4bb e83d d8bc 9d3a e23c
00000190: 4556 c73c 8ae8 19bc e781 53bd 6c33 273d
000001a0: cb50 67bc 113d eebb 8fcf 8c3a 9845 77bc
000001b0: 8017 5bbc 196e 8abb 0bfa e23c d269 f63b
000001c0: a4a8 9fbc f30d 6e3d 26ff 863d 5a69 d23c
000001d0: 52d1 a9bd b796 603d 8b2e 933d 4364 103d
000001e0: e966 833d ee27 5e3d 2656 cebc 84b8 5e3c
000001f0: 7ca3 953b 4d7a 413d 9141 853d 4392 9d3b
00000200: 72ce c63c 17e8 b6bc 2670 c53c aa8e 15bd
00000210: e18b e13c e435 debc 5383 d93b fdec 823d
00000220: 65a3 ec3c 64c2 2bbd 2842 59bd 00b2 773b
00000230: 8a0c a43d 8a51 5d3d f3cd 42bc 0bb2 183d
00000240: f0aa 79bd 84ac f53b 4196 e53b 3261 6d3d
00000250: a60c 74bb 4a7c 263d f627 093c 5c8c 84bd
00000260: 4577 9b3d 3afe 173d 260e dcbc a1bf 003d
00000270: b79e 51bd a2e8 843d 3e92 bc3d d606 713c
00000280: ac83 60bd 8bf5 e93c cff8 d93d 9ca5 ccbb
00000290: 3957 27bc 2021 413d 5413 263d e233 333c
000002a0: 9de0 863c 0370 febc 48cf 70bd a8fc 77bb
000002b0: bc69 97bd 7e5c 95bc b28b d33a 4f86 51bd
000002c0: d45c babd fa3f 753c 2bc1 7c3c 5d39 b7bd
000002d0: eb2b 823c 6b41 a1bd add4 083d eafb 5f3c
000002e0: 2248 c4bc c92f 17bd 943c ad3d 41ba 35bc
000002f0: a08a b5bc 06fe d33c 82e9 a23d 4cbd 37bc
00000300: ac1d e43c 1b49 993d 5c60 0a3d 4227 96bb
00000310: 33ea ab3c d57c bb3b 5a33 2fbc 87db 68bd
00000320: cc5f 5e3c ea5f aebb 917f 42bd 0616 0c39
00000330: 9504 9c3c a428 5b3d 10a3 ef3b ddd6 29bd
00000340: b1d9 9fbc e5c0 d63d 2843 cebc 9a82 973d
00000350: 78a4 353b 9b0d 0dbd 2308 6e3c 3be9 203d
00000360: b565 903d de47 f3bc 797a 65bb 12ad 9dbd
00000370: 02fb 6fbd 237b 823d 425b 973c afda 503d
00000380: 1e2f 653d 8a35 f3bd 713c 71bb 98ac 903d
00000390: ac8c a53d d967 c63b b137 bdbd 91d9 883d
000003a0: fbd2 f03c cf21 333c ee48 73bd 037c 1ebc
000003b0: 8ce2 333d 37ae 593d bd68 323d 388f 203d
000003c0: 46ec f4bc 7bf0 c9bb f5d4 debc 2808 2b3d
000003d0: 7bc5 733d 9f4b 16bd 0d3a ea3c 15a8 843c
000003e0: c13a 0abd 1a12 e23c 95e9 083d 1fc8 973d
000003f0: 36b4 f5bc f6d1 bebd 6ac6 39bc ce92 ab3c
0.05031069 0.039560445 0.032476075 0.0022903755 0.0014189326 -0.009760595 0.014291886 -0.021740807
0.010300877 0.028569585 0.016724538 0.041634917 0.026356589 -0.01396891 -0.021194357 -0.1123445
-0.040353723 0.029272215 0.0062813805 0.004651104 0.041085422 -0.080690004 -0.07273792 -0.018242534
0.00031222723 -0.014187681 0.019143835 -0.00042827704 -0.03797689 -0.06926026 0.027460499 -0.012209767
0.0535043 -0.09366171 -0.009871934 0.01256231 0.0023834053 -0.019645667 -0.016083106 -0.03133397
-0.0031957792 0.05881732 0.034994364 -0.03298659 0.016664201 -0.063309215 0.101581104 0.09399477
0.027936887 0.007911814 0.03897637 -0.024419522 -0.0069953664 0.039823163 0.01329176 -0.038966097
-0.049313646 0.024751076 0.06413686 -0.012254424 -0.0076066656 -0.044772774 -0.026226364 -0.057984643
-0.030633442 0.01545791 0.11247034 -0.0031251044 0.0038582429 0.014249691 0.008690966 -0.022877067
0.095411874 -0.0029408114 -0.076479085 -0.014685505 0.0024787749 -0.007105891 0.043455012 -0.042077612
0.03643453 -0.054590523 -0.0028033678 0.027432417 -0.017781733 0.0380307 0.07757577 -0.0062720017
0.008918441 -0.006714212 0.011863616 -0.026655586 -0.040281076 0.008931646 -0.07939429 -0.03859923
-0.11625063 -0.005006539 -0.026396707 0.02761584 0.024333129 -0.009393821 -0.051637556 0.040820524
-0.014118384 -0.0072704633 0.001074301 -0.015092276 -0.013372302 -0.0042245504 0.02770712 0.007519939
-0.019489594 0.05811877 0.065916345 0.025685001 -0.08291878 0.054831233 0.07186612 0.035251867
0.06416113 0.0542373 -0.025187563 0.013593797 0.004566608 0.047235776 0.065066464 0.0048086955
0.024268363 -0.022327466 0.024101328 -0.03651301 0.02753252 -0.027125306 0.0066379695 0.06392858
0.028886506 -0.041933432 -0.053041607 0.0037795305 0.08010204 0.05403284 -0.011889922 0.03727917
-0.060954034 0.007497372 0.007006437 0.05795402 -0.0037238984 0.040645875 0.008371344 -0.06472084
0.07591108 0.037107684 -0.026862215 0.03143275 -0.051176753 0.06489684 0.09207581 0.0147111025
-0.054813072 0.028559467 0.106431596 -0.006245328 -0.010213667 0.04715073 0.040545776 0.010937663
0.016464526 -0.03105927 -0.05879143 -0.0037839804 -0.07393214 -0.01823258 0.0016139655 -0.051153477
-0.09099737 0.0149688665 0.015426914 -0.08946488 0.015890082 -0.078738056 0.03340595 0.013670901
-0.023960177 -0.036910806 0.0845882 -0.01109177 -0.022160828 0.025877964 0.07954694 -0.0112145655
0.02784618 0.07484647 0.0337833 -0.0045823166 0.020985698 0.0057216682 -0.0106933955 -0.056849983
0.013572644 -0.0053214924 -0.047484938 0.00013359645 0.019045154 0.053505555 0.0073131397 -0.041464675
-0.019512983 0.104860105 -0.025178507 0.07397957 0.002771644 -0.034436803 0.014528307 0.039284926
0.07050649 -0.029697355 -0.0035015626 -0.07699026 -0.05858899 0.06371143 0.018476132 0.050989803
0.055953138 -0.11875446 -0.0036809708 0.0706417 0.08083472 0.00605486 -0.09239138 0.066821225
0.029397478 0.010933354 -0.059395723 -0.009673121 0.043917224 0.05314466 0.043556917 0.039199084
-0.02989782 -0.0061627007 -0.027201155 0.041755825 0.059514504 -0.03669321 0.028592134 0.016193429
-0.03374744 0.027596522 0.033425886 0.07411217 -0.029993158 -0.093173906 -0.0113388095 0.020944025

conv3.bias f4 [64]
00000000: 1ec9 bd3c 5cdc bf3c 212e cb3c 308b 80bc
00000010: 89a1 9dbc 825d ddbb c028 2f3c 5057 c83c
00000020: 2797 c73c 1ecf a3bc 9331 853c 03f8 9fbc
00000030: 7a10 a5bc 3d7a 44bc 9c43 ad3c 2b7c c43c
00000040: 2288 2a3c 4aa9 a53c 6705 9e3c 41ae a93a
00000050: a3ef bb3c a147 813c 1bc6 e93b 3419 a73b
00000060: 887f 993c d3fb 85bc 30ce cc3c 6b87 663c
00000070: cb3b ba3c e4c0 ca3c 913e 663b 6127 c43c
00000080: 2b66 b0bc 9931 8ebc d312 7dbc c269 7a3c
00000090: ed9e bc3c c98b bb3c 53da c53c dd52 a83c
000000a0: 0f32 bd3c eccb b1bb 29a1 c33c 6ec5 bc3c
000000b0: e12d 913c e719 a83c ffd7 7b3a 16ad 193b
000000c0: 4d5d b33c a7cf b73c 5a4f 8cbc fd1f 4f3c
000000d0: a13b 93bc 5511 a43c e282 83bc 826b 8cbc
000000e0: 5a3c 86bc 34ce 413c cd12 62ba c09b bb3c
000000f0: 1aa0 363c 08bb 183c 9f4e a13c dd3f dbbb
0.02316719 0.023420505 0.02480227 -0.01569137 -0.019242065 -0.0067555318 0.010690868 0.024455696
0.024364067 -0.019996222 0.01625899 -0.01952744 -0.020149458 -0.0119920345 0.021150403 0.02398499
0.010408433 0.020222325 0.019289685 0.0012945608 0.022941416 0.015781226 0.0071342117 0.00509944
0.01873757 -0.01635543 0.025000662 0.014070372 0.02273359 0.02475018 0.0035132507 0.023944559
-0.021533092 -0.017357634 -0.015446383 0.015284004 0.023025 0.022893803 0.024151957 0.020547325
0.023095159 -0.0054259207 0.023880558 0.02304336 0.017722072 0.020520164 0.0009607076 0.0023449115
0.021895075 0.022437884 -0.017127682 0.012641904 -0.01797277 0.020027796 -0.01605362 -0.017141107
-0.0163862 0.011828948 -0.00086240174 0.022901416 0.01114657 0.0093219355 0.01969081 -0.0066909627

bn1.weight f4 [64]
00000000: 4507 813f 434a 7c3f 1c12 7c3f 03f1 7d3f
00000010: 120a 823f f4be 7a3f 24d5 803f 194d 7b3f
00000020: 6b8e 813f 8141 823f fa6b 7d3f a8ff 803f
00000030: 2de0 813f c01f 7e3f 6c53 7d3f 8264 823f
00000040: 2e89 7a3f 223e 7e3f 96e5 803f 4d3d 7e3f
00000050: b8e4 803f 1e8f 7a3f 8272 823f b662 823f
00000060: 6369 7e3f 4216 823f 2e41 7d3f 5e27 823f
00000070: ed9f 803f 1742 7e3f afab 813f 8e8b 7c3f
00000080: 1e2a 7f3f 6cd5 7b3f 1bd1 7e3f e732 7b3f
00000090: 9d11 7d3f bf7b 813f 8b87 823f ff44 7c3f
000000a0: 4b19 823f cc11 7d3f da31 813f 4f18 7d3f
000000b0: 5dd7 823f 405f 7e3f 3906 7e3f 0688 7b3f
000000c0: 84ea 7b3f d2de 7b3f dcc0 803f 960d 833f
000000d0: 2569 833f 584c 7a3f 7092 823f a791 7d3f
000000e0: e398 823f fa52 823f 567c 813f 94cb 7d3f
000000f0: 1431 7d3f 57a2 7b3f 2c5c 7a3f 84aa 813f
1.0080343 0.98550814 0.9846513 0.9919588 1.0159323 0.9794762 1.0065045 0.98164517
1.0121588 1.017624 0.98992884 1.007802 1.0146538 0.99267197 0.98955417 1.0186923
0.9786557 0.9931356 1.0070064 0.9931229 1.00698 0.9787463 1.0191195 1.0186374
0.9937956 1.0163043 0.9892758 1.0168264 1.0048805 0.99319595 1.0130519 0.98650444
0.9967364 0.9837253 0.9953782 0.98124546 0.98855 1.0115889 1.0197614 0.9854278
1.0163969 0.9885528 1.0093338 0.98865217 1.0221974 0.9936409 0.99228245 0.9825443
0.9840472 0.9838687 1.0058856 1.0238521 1.0266463 0.9777274 1.0200939 0.9905037
1.0202907 1.0181572 1.0116069 0.9913876 0.9890301 0.98294586 0.97796893 1.0130162

bn1.bias f4 [64]
00000000: af1b 3bbc 1639 02bc 38eb 9cbc 0666 643c
00000010: 7624 f33b 7105 b0bc 8d6c b3bc b8f0 62bb
00000020: 0cd8 9a3b 741c b03c 2a55 c63b 1cb8 153c
00000030: 08c8 853c 027c 713b 90c2 823b b356 d0bc
00000040: c535 9fbc 620d 97bc 59be 2cbc 3357 3c3c
00000050: 9661 91bc 21e7 82bc 9dc5 993c 2232 fa3b
00000060: 8d5a 3b3c 4cc5 683c 42c3 143c a376 0abc
00000070: 9c6f 823c 4bc3 74bc 0918 a0bc 4116 6dbc
00000080: 5634 363c 2793 cd3b bfb7 d6bb a8fe b3bc
00000090: fbab 4dbb e5b4 b5bc 44e2 793c 94d1 c4b9
000000a0: 81f7 733c 7f01 8bbc bd65 053c 65f5 92bc
000000b0: 936f 9c3c 799e e2bb 2d83 873b cacd 3e3c
000000c0: f931 b93c c1ef d8bb b1e8 373c f9f1 ec3b
000000d0: 69c3 b53c 8909 913c 7c50 1fbb 4407 97bb
000000e0: fb39 d6bc 5cb6 8d3c 672d 1f3c 0e5f 73bc
000000f0: 243e 47bb 5647 84bc adc2 b6bc d06c 443c
-0.0114201745 -0.007948181 -0.01915513 0.01394034 0.007420118 -0.02148697 -0.021902347 -0.0034628343
0.004725462 0.021497943 0.006052633 0.009138133 0.016330734 0.0036847596 0.003990479 -0.025431966
-0.019434819 -0.018438999 -0.010543429 0.011495399 -0.017746728 -0.015979351 0.018770987 0.007635371
0.011435163 0.0142071955 0.009079756 -0.008451137 0.01592236 -0.01493914 -0.01954271 -0.014470638
0.011120876 0.0062736454 -0.006552666 -0.021972016 -0.0031383026 -0.022180984 0.0152517 -0.0003754018
0.0148905525 -0.016968487 0.008141932 -0.017939279 0.019096171 -0.006915864 0.0041355104 0.011645744
0.022606837 -0.006620378 0.011224912 0.007230994 0.022187905 0.017704742 -0.0024309447 -0.0046090204
-0.026150694 0.01729887 0.009715415 -0.014854206 -0.003040203 -0.016147297 -0.022309626 0.011988834

bn1.running_mean f4 [64]
00000000: 36d0 87bb f710 cdb8 2298 cc3b dc08 923b
00000010: 052b 953b 9335 8c3b 227d bf3a e67a 46bc
00000020: dc5a 203c 6fd5 ecb8 b7d7 2cbc b9d6 8d3b
00000030: ce85 e33b 13dd f33a 92ce 483b fac3 093c
00000040: 5643 bb3a c085 c23b 9d25 333c 7595 b3bb
00000050: 7c74 dabb 89ab b1bb e3b3 073c 6771 03bc
00000060: 1b46 71bb 07f0 94bb 7d44 9dbb 7590 e2bb
00000070: 32d7 4d3b aba9 12bb c390 16bb e102 bf39
00000080: 4754 83bb 316b afbb 29b2 5cbb 5ffe cf3b
00000090: 0b7d e5ba fe2d 60bb 0734 9d3b 6a0d 983b
000000a0: c908 0bb9 4387 da3b e15d f3b9 d6c6 3cba
000000b0: 2233 d8bb 6a12 a23a 5238 263c cd1f 8dbb
000000c0: 7ed0 2c3c cf52 8ebb 56e9 0ebb 0428 2f3b
000000d0: f7fd b4bb d60b a23b dfbe 623b 7abd 213c
000000e0: 0517 523b 4dc5 493b 4236 0c3b ce5b 81bb
000000f0: 6969 543b 243d a6b9 33a6 f1bb 8154 8bbb
-0.0041446937 -9.778322e-05 0.0062437216 0.0044566225 0.0045522475 0.0042788475 0.0014609436 -0.012114262
0.009787288 -0.00011293112 -0.010549477 0.0043285755 0.006943441 0.0018605314 0.0030640704 0.008408541
0.0014287035 0.0059363544 0.010934261 -0.005480463 -0.006666718 -0.00542206 0.008282634 -0.008022643
-0.0036815468 -0.004545215 -0.004799424 -0.0069141933 0.0031408784 -0.0022378962 -0.0022974468 0.00036432504
-0.0040078494 -0.0053533544 -0.0033675528 0.006347462 -0.0017508579 -0.00342071 0.004797462 0.004640271
-0.00013259346 0.0066689565 -0.00046418517 -0.000720126 -0.0065978924 0.0012365107 0.010145264 -0.0043067695
0.010547755 -0.0043433676 -0.002180656 0.0026726732 -0.005523439 0.0049452586 0.0034598631 0.009871835
0.0032057178 0.0030787766 0.0021394645 -0.0039477115 0.0032411462 -0.0003170754 -0.007374549 -0.004252017

bn1.running_var f4 [64]
00000000: 20c3 bf3c 57de 983c 0ac4 3b3d d2b0 8d3c
00000010: 4771 013d c380 4b3d 6127 cc3c d677 3c3c
00000020: 0eba ff3c fb1c 3e3d 1c4d 683c 4f63 9b3d
00000030: 1b6a 293c 3e59 473d 08c0 073d 8140 363d
00000040: 7ce1 8b3c 9f47 373c d745 1a3d 91d5 843c
00000050: 3ee8 bf3c bf4d 223c ee76 713c 0d78 453c
00000060: 2652 e73c 5d8a c33c 1ce6 953d a0f9 043d
00000070: 3c59 823c 61de b83c 96ff bb3b adb8 073d
00000080: 6e7d 633c 9e00 be3c e8c3 1c3d 30a9 e13c
00000090: 0298 0c3c 1f48 583c 3fb2 b33c 6e54 cf3c
000000a0: 3b18 523c 375c ef3c 551e 073d 1dfd 553d
000000b0: 96d1 243c 99f6 133e b147 e93c 0e89 c03c
000000c0: 8f9c f63c b5db de3d d113 ac3d f17b 043d
000000d0: 83e6 8d3c 5da2 1d3d 3882 df3c 800c 8b3d
000000e0: 7347 d93c 516d 153c c8dc fe3c 88d8 c63b
000000f0: 3868 3e3d 8057 b13c 4c4d df3c e5ac 0e3e
0.023408473 0.018660707 0.045841254 0.017296229 0.03160217 0.049683344 0.024921121 0.0115031805
0.031216647 0.046414357 0.014178541 0.07587301 0.010340239 0.048669092 0.03314212 0.04449511
0.017075293 0.011186509 0.03766426 0.016215118 0.023426171 0.009906231 0.014737828 0.012052548
0.028237414 0.023869688 0.073192805 0.032464623 0.01591169 0.022566976 0.0057372553 0.033135105
0.013884885 0.023193654 0.03827277 0.027546495 0.008581163 0.013200789 0.02193558 0.025308814
0.01282316 0.029218776 0.03298791 0.05224334 0.010059735 0.14449538 0.028476568 0.023502853
0.03010395 0.108817495 0.08402217 0.032344762 0.01732183 0.03848492 0.027283773 0.067894936
0.026523327 0.009120301 0.031111136 0.006068293 0.04648611 0.021648169 0.027258538 0.13933142

bn2.weight f4 [64]
00000000: 767f 7f3f 84de 813f 0b3e 7f3f f182 7f3f
00000010: 65bd 823f 9bfb 803f 5cf6 7e3f 220a 803f
00000020: 98e2 7b3f 88b4 823f bd08 7e3f 0428 823f
00000030: d3f3 7d3f 2676 7b3f 5754 7d3f 0b1e 803f
00000040: 8c6b 7d3f 8c15 7e3f ac99 7b3f a7e6 803f
00000050: 6464 7c3f ed56 7c3f a4d8 793f e9c7 803f
00000060: 1b41 7f3f 85d8 823f 21fd 7a3f fc5e 823f
00000070: 871c 7d3f 5787 7a3f faac 813f eb21 813f
00000080: d22a 7f3f 0ce9 7c3f 8877 7d3f 7a6b 7e3f
00000090: f022 803f 6669 823f 2aea 803f 1dfd 7a3f
000000a0: a558 803f 524e 823f fdd3 7f3f b542 7d3f
000000b0: 4de1 7b3f f084 823f bb17 823f 8ca1 7f3f
000000c0: 53c3 813f 0372 7f3f dc95 803f b255 7d3f
000000d0: 9123 7d3f f349 813f ea42 803f 426f 7c3f
000000e0: b153 813f fea4 7b3f 408e 7f3f 03fe 7f3f
000000f0: 3b8c 7c3f 29b6 7a3f 99e7 803f 3d4b 7f3f
0.99803865 1.0146031 0.99704045 0.99809176 1.0214049 1.0076784 0.99594665 1.0003092
0.9839263 1.0211344 0.99232084 1.0168462 0.9920017 0.98227155 0.9895682 1.0009168
0.9899223 0.9925163 0.9828136 1.007039 0.98590684 0.9857014 0.9759619 1.0061008
0.9970872 1.0222327 0.98042494 1.0185237 0.98871654 0.9786276 1.0130913 1.0088476
0.99674714 0.987931 0.99010515 0.99382746 1.0010662 1.0188415 1.0071461 0.9804247
1.0027052 1.0180151 0.99932843 0.9892991 0.98390657 1.0196819 1.0163492 0.99855876
1.0137733 0.99783343 1.0045733 0.98958886 0.98882395 1.0100693 1.002042 0.98607266
1.0103666 0.98298633 0.9982643 0.99996966 0.98651475 0.97934204 1.0070678 0.9972418

bn2.bias f4 [64]
00000000: be01 413c f88b 913b c435 58bc 9fb7 93bc
00000010: f065 dd3c e75b d9bb 4c17 cdbc 7a90 fc3b
00000020: 99e2 f4bb 25cf 7a3b d007 db3c 67cd 61bc
00000030: 56ac 583c a5e7 bbba d4db 8c3b 2068 c1bb
00000040: f42e ecbb 68c6 8fba f753 c0bc ba10 7f3b
00000050: eef0 98bc 1473 4abc e6c8 cabc fa94 33bc
00000060: 13b6 5b3c 3976 15bc fe0d 4dbc cf5b aabc
00000070: 2ff4 cd3b 4ec6 3bbc 413c 99bc 4a36 953c
00000080: 2fe3 4abc 0d09 663c 88f6 453b 3813 c43b
00000090: c45c 52bc 8e29 313c 4f4d 44bc 4146 8bbc
000000a0: 539e febb 9b76 62bc 9d18 953c eed6 05bc
000000b0: cc6c 9dbc bbbf 203b 5c2d bf3c a527 d1bc
000000c0: 8bb2 883c b9ac cd3c 026f ddbb ad47 9cbc
000000d0: 3cda 90bc f117 9f3a 75f5 463c 50c6 01bc
000000e0: 04b8 7bbc 467e 053c 51b3 ac3c e1ba 8fbc
000000f0: d99f abbb da20 193c b02b a4bb 7f10 0e3c
0.0117802005 0.0044417344 -0.0131964125 -0.018031893 0.027026147 -0.00663327 -0.025035523 0.0077076526
-0.0074733016 0.003827044 0.026737124 -0.013781882 0.013224682 -0.0014336003 0.0042986665 -0.0059023052
-0.0072077457 -0.0010969164 -0.023477538 0.0038919882 -0.018669572 -0.012356538 -0.024753999 -0.010960812
0.013410109 -0.009122425 -0.012515543 -0.02079573 0.0062852125 -0.011460854 -0.01870549 0.018214364
-0.012383266 0.014040244 0.0030206759 0.0059837364 -0.0128395 0.01081313 -0.011981322 -0.017001273
-0.0077703386 -0.013822223 0.018200213 -0.008168919 -0.019216917 0.0024528343 0.023337059 -0.0255316
0.016686698 0.025106775 -0.006757618 -0.019077146 -0.017682187 0.0012137872 0.012143482 -0.007920817
-0.015363697 0.008147782 0.021081598 -0.017545165 -0.005237561 0.009346211 -0.005010091 0.008670925

bn2.running_mean f4 [64]
00000000: 4da1 0040 d07d 83be 180f b7be c002 0cc0
00000010: 051d c73e 9c8d c33f af2a 7cbd fc01 0140
00000020: 96c9 d83f 7ae6 02bf 5534 453f aa9b 683f
00000030: 51ee d7be 63ef a6be 693e 363f 5f95 9c3f
00000040: 4866 00c0 65d6 973f 76dd 5cbf f599 8dbe
00000050: 66ba 94bf a190 34c0 c57d 35be cfe2 3040
00000060: 48f5 3c3f 732c 843f efd4 863d 8cc0 debe
00000070: c072 e83f 5ec1 b03f 844d 6e3f 9ec2 81bc
00000080: 1868 54c0 19e9 293f 9471 2e3f 1cfb d9bd
00000090: d07c 5cbf 5e46 e83e 877a 2440 ca2f e8be
000000a0: c2c6 fd3f 23e9 cd3f 993a 6a3f 8f7d 0ec0
000000b0: 6992 0e40 6f09 3340 923d 163f a3ae 0c40
000000c0: 1bfd 5fbd 60c4 9c3f ff35 cb3f d79d 1940
000000d0: ba98 a4be 3290 383e 5ed7 1140 5615 d83f
000000e0: 5baa 0f40 bc4c 26bf 87bf 1b40 6bba 523d
000000f0: f5b2 41c0 0a36 3040 bf38 0e40 b55d 4e3f
2.009845 -0.25681925 -0.35753703 -2.1876678 0.38889328 1.5277591 -0.061564144 2.015746
1.6936519 -0.5113293 0.7703298 0.90862525 -0.42174008 -0.32604513 0.7118898 1.2233084
-2.0062428 1.1862303 -0.8627542 -0.27656522 -1.1619384 -2.8213274 -0.17723759 2.7638433
0.7381177 1.0326065 0.065835826 -0.43506277 1.8160019 1.3809011 0.9308703 -0.015839871
-3.3188534 0.66371304 0.68142056 -0.106435984 -0.8612795 0.45366186 2.5699785 -0.4534896
1.9826281 1.6086773 0.9149566 -2.2264135 2.2276862 2.7974508 0.586877 2.198159
-0.05468474 1.2247429 1.5875853 2.4002588 -0.3214777 0.18023756 2.27877 1.6881511
2.2447727 -0.6496084 2.433565 0.051447313 -3.0265477 2.7532983 2.2222135 0.80611736

bn2.running_var f4 [64]
00000000: b601 0941 354a 6640 af6e 4640 d992 ee40
00000010: 79da 4240 dd35 c040 6523 0840 95a0 0541
00000020: bffd d540 023b 3640 8c02 4f3f 5b70 7540
00000030: 7b18 a33f 3914 3040 da56 ee3f ff72 5240
00000040: f35f b540 f9d8 8040 f48b 2440 3558 3240
00000050: 83fb 8c40 f293 d540 ac8f 2740 006c 1541
00000060: f551 8d3f 204f 4c40 b066 0e40 85ea 5c40
00000070: f2fe c840 f22f d740 7c65 9840 80a1 4f40
00000080: 6b56 4a41 9a4c 4040 8b09 c13f dad0 0b40
00000090: 13d1 3d40 4dac 1040 1628 0641 dc12 3e40
000000a0: df84 dc40 9ac5 7140 32ea 6440 face e140
000000b0: dac7 a140 f333 0741 d4d8 ec3f 57dc 0541
000000c0: 27ae 2940 4adf 0a40 8df1 b040 08ed ef40
000000d0: d26f 0840 432f 8a40 595d d140 4749 b640
000000e0: 516d 1741 30ee 3d40 6a34 1341 ba0d 9940
000000f0: e675 2c41 bc67 3a41 5b4b 0441 5089 2840
8.562918 3.5982792 3.1005056 7.4554257 3.0445845 6.006575 2.1271603 8.351705
6.687225 2.8473516 0.8086326 3.8349826 1.2741846 2.7512343 1.8620255 3.2882688
5.6679626 4.026486 2.571042 2.7866337 4.405702 6.6743097 2.618144 9.338867
1.1040636 3.1923294 2.2250175 3.451814 6.2811213 6.7246027 4.762388 3.2442322
12.646098 3.0046754 1.5081037 2.1846223 2.9658859 2.2605164 8.384787 2.969901
6.8912196 3.7776856 3.5767941 7.0565157 5.055646 8.450183 1.8503671 8.366294
2.6512544 2.1698785 5.529486 7.4976845 2.131825 4.3182693 6.542645 5.696445
9.464189 2.9676628 9.200296 4.7829256 10.778784 11.650326 8.268397 2.633381

bn3.weight f4 [64]
00000000: a982 833f 7ab5 833f ccaf 833f 928f 833f
00000010: 8482 833f fbb1 833f 4fad 833f 75b0 833f
00000020: 94a6 833f a4b2 833f 149f 833f c595 833f
00000030: 96ad 833f daa6 833f 3fa9 833f 3d9c 833f
00000040: c4a5 833f 5991 833f 8ec4 833f 68ad 833f
00000050: f898 833f 5c91 833f 08cb 833f 5e88 833f
00000060: fcbf 833f 6d9c 833f 8d9d 833f d8b5 833f
00000070: d57c 833f 2cae 833f d78a 833f 5797 833f
00000080: cfb8 833f 749e 833f b7a5 833f 6080 833f
00000090: 3fb8 833f 34b8 833f c8b7 833f efb7 833f
000000a0: 3d9b 833f eaa5 833f a4bb 833f 1aa4 833f
000000b0: cbb0 833f efa2 833f 99c9 833f d0a4 833f
000000c0: 3e9e 833f a4a3 833f 849d 833f 9dbc 833f
000000d0: 36b4 833f 0fa3 833f 48a3 833f 74bd 833f
000000e0: 7ca7 833f dc8f 833f 6ead 833f b8a0 833f
000000f0: 6dac 833f 01ac 833f d4a9 833f 029b 833f
1.0274249 1.0289757 1.0288024 1.0278189 1.0274205 1.028869 1.0287265 1.0288225
1.0285211 1.0288892 1.0282922 1.0280081 1.0287349 1.0285294 1.0286025 1.0282055
1.0284963 1.0278732 1.0294359 1.0287294 1.0281057 1.0278735 1.0296335 1.0275991
1.0292964 1.0282112 1.0282456 1.0289869 1.0272471 1.0287528 1.0276746 1.028056
1.0290774 1.0282731 1.0284947 1.0273552 1.0290602 1.0290589 1.029046 1.0290507
1.028175 1.0285008 1.0291638 1.0284455 1.0288328 1.0284098 1.0295898 1.0284672
1.0282667 1.0284314 1.0282445 1.0291935 1.0289371 1.0284137 1.0284204 1.0292192
1.0285487 1.0278277 1.0287302 1.0283422 1.0286995 1.0286866 1.0286202 1.028168

bn3.bias f4 [64]
00000000: 10f9 db3c 1cca d93c c338 dc3c ce32 c63c
00000010: 6139 db3c 0cf7 b33c 745d de3c 14ae d93c
00000020: 5b83 d03c 7b76 e23c 1b80 ce3c 9c27 e33c
00000030: 5c5b eb3c fa9c ea3c 1be3 e83c 36fe ef3c
00000040: 7678 f13c b2ef ee3c 9c4f ee3c 90d0 f13c
00000050: dec7 f43c b626 af3c 50b2 c43c 74e8 d83c
00000060: 4231 ef3c cc0a d93c 502e ef3c 5306 d33c
00000070: 0f5b e83c ac26 ce3c 2e11 b03c af4e db3c
00000080: 834e e33c f111 e83c 4fe9 e53c 88c0 e43c
00000090: 3dd7 ed3c 3f46 623c 49d9 e83c 0471 ef3c
000000a0: 8d1d dd3c 41d6 ce3c 397b 773c a8ca f03c
000000b0: dc53 da3c cb6e b63c 1dd6 cf3c 96af dd3c
000000c0: fcc4 d53c fa23 eb3c 2863 d73c f83e ea3c
000000d0: 4d29 cd3c 11a2 ed3c 1371 ea3c 9a6c ea3c
000000e0: 084a e43c e429 de3c bdaa f33c 759d e03c
000000f0: e6af 9e3c 03ec bd3c 5200 ec3c f543 c93c
0.02685216 0.026585631 0.026882535 0.024194147 0.026760759 0.021968387 0.027144171 0.026572265
0.02545326 0.027644387 0.02520757 0.027728848 0.028730087 0.028639305 0.028428605 0.029296022
0.029476386 0.02916703 0.029090695 0.029518396 0.02988046 0.021380764 0.024010807 0.02647803
0.029198293 0.026494406 0.029196888 0.025759852 0.028363733 0.025164925 0.021492567 0.026770918
0.027747398 0.028328868 0.028065352 0.027923837 0.029033298 0.013810693 0.028423922 0.029228695
0.02699163 0.025248649 0.015105062 0.029393509 0.026651315 0.022269627 0.025370652 0.027061265
0.026094906 0.028703678 0.026292399 0.028594479 0.025044108 0.029007943 0.028618371 0.028616238
0.027867332 0.027119584 0.0297445 0.027418831 0.019370984 0.023183828 0.028808746 0.024568537

bn3.running_mean f4 [64]
00000000: 2034 0f40 96f3 c13f 5071 d03f b0e2 a73e
00000010: 6723 ffbe 72c7 afbe e45b da3f 4534 f33f
00000020: 175c 1140 53bc a7bf 9112 0440 8777 13bf
00000030: 658c 21c0 c7d4 a2bf d614 fe3f d65e ad3f
00000040: 3cd1 bc3d 961e f43e ab08 783f 9135 f9be
00000050: 2732 d73f 40b0 8b3f a553 83bb 061b 1fbe
00000060: c774 593f 3821 02be 030f 0540 27b2 383f
00000070: b0c4 2f40 a023 e13f b1be 8c3f b5a7 e03f
00000080: 4ac9 66bf d0cf f2bf 7591 12c0 03a8 493f
00000090: 6ace be3f ae9c 1740 5bcb f63f f875 8e3f
000000a0: 792a 0540 756f 1b3f b40d 1a40 da07 b23f
000000b0: 275d f13f 83ff 5d3f 5a13 7f3f 49f9 b53f
000000c0: 971c db3f 6182 d03f 6830 8abd 2ba4 c23e
000000d0: 7f14 82bf 0fbd 6e3f 45f8 f9bf c062 8ebf
000000e0: 2ace b6bf 9627 1e3f 25e8 46be 9a36 f63f
000000f0: 8ffe f6bd 569c 223f 512d bc3f 5048 b83c
2.2375565 1.5152462 1.628458 0.32790136 -0.49831697 -0.34331852 1.7059293 1.9000326
2.2712457 -1.3104347 2.0636332 -0.5760426 -2.524194 -1.2721184 1.9850109 1.3544567
0.09219596 0.47679585 0.96888226 -0.4867368 1.681218 1.0913162 -0.004007774 -0.15537652
0.84943813 -0.12707984 2.0790412 0.7214684 2.7463799 1.7588997 1.0995694 1.755118
-0.9015089 -1.8969669 -2.290128 0.7877199 1.4906743 2.368938 1.9280809 1.1129751
2.0807173 0.60716945 2.4070864 1.3908646 1.8856553 0.86718005 0.99638903 1.4216701
1.71181 1.6289788 -0.06747514 0.38015875 -1.0162505 0.9325723 -1.9528891 -1.1123886
-1.4281666 0.61779153 -0.19424494 1.9235413 -0.12060272 0.635198 1.470133 0.022495419

bn3.running_var f4 [64]
00000000: 384a 3240 a421 9e3f 0508 a43f 081a 4a40
00000010: f60a 1140 50b1 c93f 7373 1e3f d02f 1040
00000020: 60c8 6640 9b6a 1c40 4552 073f 030d a03f
00000030: a08a 8740 5880 8f3f ac2e 8240 a686 983f
00000040: 774a ca3f f8b0 b13f b57e af3f 12af a33f
00000050: c9e0 0940 8ebe da3f 2430 a43f d108 7840
00000060: 04bb 4a40 3c59 2240 1d32 5740 4031 463f
00000070: dd9c 0241 afbb a13f 497e cd3f 5d1d 6b3f
00000080: f464 a93f d4d3 0e40 321e 8140 3138 e33f
00000090: 46c1 c53f 8c3d f43f 35e8 923f b09e 9e3f
000000a0: 30c6 763f 5462 bc3f 92b5 0c40 fa35 0e40
000000b0: fd4f 943f 497a e33f 0117 5b3f f79c 3b3f
000000c0: 5461 eb3f 72ca 383f 130b 1d40 6a28 df3f
000000d0: a026 fb3f 3f21 4440 0cd8 8a40 b8a4 3340
000000e0: 2587 0740 db8b f03f 745a 5e3f 3df3 1540
000000f0: 3d0a b73f 0084 d23f 8086 8f40 078d a33f
2.78578 1.2354016 1.2814947 3.1578388 2.266294 1.5757236 0.6189491 2.2529182
3.60598 2.4440067 0.5285991 1.2503971 4.235672 1.1211042 4.0681973 1.1916091
1.5803975 1.3882132 1.3710543 1.2787802 2.1543448 1.7089403 1.2827191 3.875538
3.1676645 2.5366964 3.3624337 0.774189 8.163297 1.2635401 1.6054164 0.9184168
1.3233933 2.231679 4.034936 1.7751523 1.5449607 1.9081283 1.1477114 1.2392178
0.9639616 1.4717507 2.1985822 2.2220445 1.158691 1.7771693 0.85581976 0.73286384
1.8389077 0.7218391 2.453801 1.7434208 1.9621162 3.0645292 4.338873 2.8069286
2.1176236 1.879268 0.8685677 2.342971 1.43 1.6446533 4.4851685 1.2777413

fc.weight f4 [5, 64]
00000000: 7d94 2d3b 5c94 19bb f041 5bbb 6990 2b3c
00000010: 54bd d63b 62ba 003c b59e 453b fde6 283b
00000020: 62a2 f23b a78e 3b3b 4e25 453b bae6 0b3b
00000030: 463e 07ba 1e4d 763b bd5e 4b3c 91fa 4dbb
00000040: 15b6 8bbc 0e77 963b 5a22 46bb 0e1f 0a3b
00000050: 0208 383c 0d48 ea3b dce6 d03a d9eb 69ba
00000060: 687f 86ba ddca 173c 4e6b 803b e63b 973b
00000070: 81b1 683b d6ac 7d39 a794 a039 6924 583a
00000080: 9377 a63b 38ec 203b ab32 c23b 3de8 fe3a
00000090: 66cf a6bb 5303 0cbc 3041 1f3c f082 dd3b
000000a0: 9958 5a3c d3a0 2e3c 51dc cb3b 4192 433b
000000b0: 2a78 3d3b 8308 0aba f106 e73b 3fbb 09bc
000000c0: 4f12 0e3c 84e3 003b 6f57 0d3b 5a12 daba
000000d0: 18d3 b6bb 7e46 76bc c7ec 79bb 3765 0fb8
000000e0: 5cba 54bb 85d4 dcba ff1d 613b a1cf c4bb
000000f0: 19ea 003c 2d1b b03c 1f30 093c 94c6 033b
00000100: c330 2b3a 6dc3 9a38 f0a1 49bb 0d66 53bb
00000110: e46e 6b3b dd71 213c 2d12 59bc 5044 903b
00000120: 1246 1abc 38cb a139 d870 51b8 25cf aebb
00000130: 9286 11bc 42af f43a ed83 30bc f00b b1bb
00000140: 4b65 c43b 2cac 49bb 593a ccba 37fb 00bc
00000150: 49f6 bdba 419f 6b3c ad8e 4f3b 2311 5dbb
00000160: ae7f c8bb 2b38 733b d4c6 aebc 335f b6bb
00000170: 1b9a edbb 5b34 f63a 0f63 70ba c407 9dbb
00000180: 25e3 16ba e2fc 70bc f2b5 74bb db68 31bb
00000190: ef36 34bc e00c a63b e6d9 733b b19a 043b
000001a0: 90e3 20bb 3d52 4abb 7663 49bb bbe0 0cbb
000001b0: 2e54 54bb a9db ecbb 44f7 35bc 39f5 5f3b
000001c0: 6b65 443b 9149 2f3b 0423 1abc df8b df39
000001d0: b423 15bc bf94 59bb 60e5 1c3c b5cd 4cba
000001e0: e21e 05bb 77b2 5fbb 3f47 63bb 8636 6e39
000001f0: ff19 c8bb 9ba8 023c 6c74 a9bc 8d0f 31bc
00000200: c396 323b 0858 8d3a cfad 52bc 0a98 113c
00000210: 1151 3c3b 02da 59bb 703f 4dbb 3f6f 023c
00000220: 42c1 f33a 3114 fb3a f832 ba3b e0b3 a7bb
00000230: 804f 85bb cc42 3dbb 152c b43b 2bc4 3bbb
00000240: c24b 013b 0f34 84ba 0373 c4bb 267f c3bb
00000250: a65a 8ebb 1e32 9b3b 9118 d23b e82f 893a
00000260: aef4 19bb eedf ea3b 6b4e 46b8 ffa2 4bbc
00000270: c321 833b 678b 723a 5506 e6ba dce9 a23a
00000280: d843 92bb 7f2e b93b c066 1c3a 4ad8 9cba
00000290: 25ac 02bc 97fc 6abc 095b cb3b 03d3 fabb
000002a0: dbad 59bb 3dd2 8739 ecc3 e8ba eb22 51bb
000002b0: 84a8 b03b 7d1e 1cbc 49a3 f6b9 f49a 60bb
000002c0: 4004 b43b e695 10b9 ce37 673a 8e1e 173b
000002d0: fd71 9ebc 6604 bcbb df7e 183b b47a 083c
000002e0: 3d8a 55bb 24f4 14bc 43f0 a9bb 1fce 28bc
000002f0: d4d0 a7ba d2ff 073c 3a8d 4bbb b0a8 71bc
00000300: faa9 db3b a6c7 503b 0eae c53b dd2f ab39
00000310: c1a9 fe3b ec02 a83b 3106 04bb 2d53 63bc
00000320: a8c9 e03b 756f 623b 245c 263b b876 f5ba
00000330: fe46 00bb 1f73 90b8 a7f2 393c 9abe 423a
00000340: 36c9 f73b 3b00 6a3c 05b8 993b d11a ce3b
00000350: 421c 513c 9387 933c ed27 a43b 206d a43b
00000360: 97d9 1d3b c1fb 203c c0e0 463c e08c 03bb
00000370: d000 8bba fec7 01bc 1666 aeba e4d6 413c
00000380: 7434 d13b ba46 d93a 23e2 d33b d51a 0abb
00000390: dbdc a2bb e9fc fa3a 322e b03c ebf7 eb3b
000003a0: f9e1 ee3b af8c 313c da4b 5ebc f778 14b9
000003b0: a403 ae3b 9978 6cbc 3dd9 1a3c 5d8a 863b
000003c0: 70fd 323a 7b01 55b9 c212 1b3c a6e2 6a3b
000003d0: 707a f2bb d72f fb3b db01 7b3b 1cb0 863b
000003e0: 3522 473b 26e2 84bb 289e 973b e91c 0c3c
000003f0: ffbd b13b bdd8 71ba c15c 533c 0df1 163c
0.002648621 -0.0023434376 -0.003345605 0.010471442 0.0065533314 0.007856937 0.0030154411 0.0025772445
0.0074046114 0.0028618963 0.003008205 0.002134724 -0.0005159121 0.0037582587 0.012412724 -0.0031429867
-0.017054597 0.004591829 -0.0030232877 0.002107564 0.011232378 0.0071497024 0.0015937942 -0.00089233887
-0.0010261359 0.009264675 0.0039190417 0.0046152947 0.0035506191 0.00024192347 0.00030628333 0.00082451716
0.0050801723 0.002455486 0.0059264502 0.0019447875 -0.005090642 -0.008545714 0.009720132 0.0067599937
0.013326787 0.010658461 0.006221332 0.0029841813 0.0028910735 -0.00052655506 0.007050388 -0.008406459
0.008671357 0.001966686 0.0021567007 -0.0016637549 -0.0055793636 -0.015031455 -0.0038135515 -3.418812e-05
-0.0032459712 -0.0016848004 0.0034350154 -0.0060061966 0.007868313 0.021497333 0.008373289 0.0020107375
0.00065303984 7.379693e-05 -0.0030766688 -0.0032256872 0.003592425 0.009853807 -0.013248962 0.0044026747
-0.00941612 0.00030859723 -4.9934577e-05 -0.005334752 -0.008882182 0.0018667954 -0.010773641 -0.0054030344
0.0059935204 -0.0030772788 -0.0015581354 -0.007872394 -0.0014492954 0.014381231 0.0031670735 -0.0033732138
-0.006118736 0.0037112336 -0.021335043 -0.005565548 -0.007251037 0.0018783914 -0.00091700343 -0.0047921855
-0.0005755893 -0.014708729 -0.0037339893 -0.0027070555 -0.010999425 0.005067453 0.0037208735 0.0020233805
-0.00245497 -0.0030871772 -0.003072945 -0.0021496254 -0.0032398808 -0.007228334 -0.011106316 0.0034173264
0.0029967676 0.002674673 -0.009407762 0.00042638087 -0.009102751 -0.0033200232 0.009576172 -0.0007812635
-0.0020312597 -0.0034133473 -0.0034679917 0.0002271776 -0.0061066146 0.007974769 -0.020685397 -0.01080693
0.0027250506 0.0010783682 -0.012858822 0.008886347 0.0028734843 -0.0033241515 -0.003131833 0.007961093
0.0018597024 0.0019155798 0.0056823455 -0.0051178783 -0.004068315 -0.0028878925 0.005498419 -0.002865086
0.0019728993 -0.0010086315 -0.005995156 -0.005966085 -0.004344302 0.004736199 0.00641162 0.0010466548
-0.0023491788 0.007167808 -4.727991e-05 -0.012428998 0.0040018274 0.000925234 -0.0017549495 0.0012429315
-0.004463654 0.0056512947 0.00059662387 -0.0011966315 -0.007975613 -0.014342449 0.0062059206 -0.007654549
-0.0033215198 0.00025905846 -0.0017758585 -0.0031911682 0.0053911824 -0.009528753 -0.00047042433 -0.0034272047
0.0054936707 -0.00013788752 0.0008820266 0.0023058983 -0.019341463 -0.005737829 0.002326898 0.008330036
-0.0032583617 -0.009091411 -0.005186112 -0.010303049 -0.0012803324 0.008300738 -0.003105952 -0.014749691
0.0067036124 0.003185728 0.006032712 0.00032651323 0.007771701 0.0051273014 -0.0020145292 -0.013874811
0.006859977 0.0034551297 0.002538451 -0.0018727398 -0.0019573565 -6.887898e-05 0.011349357 0.00074289145
0.007561828 0.0142822815 0.0046911263 0.006289818 0.012763085 0.018008983 0.0050096423 0.0050178915
0.0024085992 0.009825648 0.0121385455 -0.0020072982 -0.00106051 -0.007921217 -0.001330557 0.011831019
0.0063844267 0.0016576864 0.0064661666 -0.0021073122 -0.0049701757 0.001914886 0.021506403 0.007201185
0.0072901216 0.010836764 -0.013567889 -0.00014159443 0.0053104926 -0.01443305 0.009451208 0.0041058497
0.0006827926 -0.00020313814 0.009464921 0.003584066 -0.0073998496 0.007665615 0.0038300666 0.0041103493
0.003038538 -0.0040552793 0.004627008 0.008551815 0.0054242606 -0.0009225717 0.012900532 0.009212744

fc.bias f4 [5]
00000000: f43c 813f 7c13 7b3f 225a 7d3f aec7 823f
00000010: 9ec4 7f3f
1.0096726 0.98076606 0.98965657 1.0217187 0.9990939
