maml_omniglot_dup/maml_omniglot/output/maml-omniglot-5way-1shot-TEST_dup/train_iter_500.pth (torch_old, 310758 bytes, 20 tensors)

features.conv1.weight f4 [64, 3, 3, 3]
0	0xbd82b257	-0.06381672
1	0x3d013224	0.03154196
2	0xbdd10a0a	-0.10206993
3	0xbd0a7f59	-0.033812854
4	0x3cae734f	0.021295218
5	0xbd90eb58	-0.07076138
6	0x3c6b0623	0.014344725
7	0xbc2cf3ba	-0.010556156
8	0xbdbf9616	-0.093547985
9	0xbdabe5d5	-0.08393446
10	0xbcd55378	-0.026040778
11	0xbd203634	-0.039114192
12	0xbd67c384	-0.056582943
13	0xbc0a1f58	-0.0084303245
14	0xbd615748	-0.05501488
15	0xbd3d93a1	-0.046283368
16	0x3d412670	0.047155797
17	0x3d73946b	0.059467714
18	0xbd975e70	-0.073910594
19	0xbd1dbff2	-0.03851313
20	0x3c189061	0.009311766
21	0xbdc688ed	-0.09694085
22	0x3cb8d3a2	0.022561852
23	0x3d2b1a4c	0.041773126
24	0xbcee252e	-0.029070463
25	0xbb801722	-0.0039090076
26	0x3c0edcb1	0.008719609
27	0x3d81d520	0.063394785
28	0xbd5ed44b	-0.054401677
29	0x3cc3d800	0.023906708
30	0x3d7b4c67	0.06135216
31	0xbb853f1a	-0.00406636
32	0xbde167c2	-0.11006118
33	0x3d4898a3	0.04897369
34	0x3d1966dc	0.03745161
35	0x3da24932	0.07924117
36	0xbc8cca8a	-0.017186422
37	0x3cf7f334	0.030267335
38	0xbd955d2c	-0.07293162
39	0x3d287d28	0.041134983
40	0x3bede86f	0.0072603743
41	0xbc49f625	-0.012326752
42	0x3cd7d2eb	0.02634569
43	0x3ddf87ff	0.10914611
44	0x3da17f7f	0.07885646
45	0x3dd457c9	0.10368306
46	0xbd7794b0	-0.060444534
47	0xbda44634	-0.08021203
48	0x3d6a4b52	0.057200737
49	0xbe16b897	-0.14718853
50	0xbc96d2be	-0.018411037
51	0x3d1debbb	0.03855489
52	0x3ab357df	0.0013682804
53	0x3cd7c132	0.02633724
54	0x3d00eeaa	0.031477608
55	0xbd91166b	-0.07084354
56	0xbd9dbef1	-0.07702435
57	0xbc924ab4	-0.017857887
58	0xbd668ef7	-0.056288686
59	0xbdb77bff	-0.08959197
60	0xbd381c2c	-0.04494874
61	0xbd31fff4	-0.043456987
62	0x3d944950	0.07240546
63	0xbc95596f	-0.018231122
64	0xbd224190	-0.039613307
65	0xbd83a1de	-0.06427358
66	0xbdb389da	-0.087665275
67	0x3c565c18	0.01308348
68	0xbc859eb6	-0.01631103
69	0x3c8fc303	0.017549044
70	0xbdf48bb5	-0.119407095
71	0xbc7613cd	-0.015019369
72	0xbce5af16	-0.028037589
73	0xbd7bd76e	-0.061484747
74	0xbd73b4ee	-0.05949872
75	0x3d194ff2	0.037429757
76	0xbc5bc0af	-0.013412639
77	0xbdcc9d1e	-0.09990905
78	0xbd832f80	-0.06405544
79	0xbc27ee4e	-0.010249687
80	0xbc39932b	-0.0113265915
81	0xbd4319d9	-0.047632072
82	0x3dffbff6	0.124877855
83	0xbcde840a	-0.02716257
84	0xbdc4ec52	-0.09615387
85	0x3d44113a	0.04786799
86	0xbc6e7359	-0.014553868
87	0xbb085f3f	-0.0020808724
88	0x3d142ece	0.03617745
89	0xbd303245	-0.04301669
90	0xbc8c74dc	-0.017145567
91	0x3d49e8fb	0.049294453
92	0xbd61736b	-0.05504171
93	0x3c6c0cad	0.014407319
94	0x3d89d72a	0.067304924
95	0xbceeb8f2	-0.029140923
96	0x3b381b96	0.0028092614
97	0x3d89b554	0.06724039
98	0x3bdbc2d8	0.006706577
99	0xbd5c5233	-0.05378933
100	0xbdbcf917	-0.092271976
101	0xbcd60420	-0.026125014
102	0xbc49e622	-0.012322934
103	0x3ca61891	0.020275386
104	0xbd93300c	-0.071868986
105	0xbcb06d29	-0.021536427
106	0x3df2bfaf	0.11852967
107	0x3dc107fc	0.09425351
108	0xbb91bb20	-0.004447356
109	0x3d889d5e	0.066706404
110	0x3d6620c6	0.0561836
111	0xbd415518	-0.047200292
112	0x3cf8c73b	0.030368438
113	0xbd26df8e	-0.040740542
114	0xbba6affb	-0.0050868965
115	0xbcd64aa3	-0.026158636
116	0xbcd9b026	-0.026573252
117	0xbca9a0e2	-0.020706598
118	0x3d9d0473	0.07666864
119	0x3dc5cfe0	0.0965879
120	0x3dba8557	0.09107464
121	0xbd059b9e	-0.03261911
122	0xba9f1063	-0.0012135621
123	0x3cc253ec	0.023721658
124	0xbd2fa6b2	-0.042883582
125	0xbda399fe	-0.07988356
126	0x3c492a7d	0.012278196
127	0x3d836a18	0.0641672
128	0xbc9e8cc0	-0.019354224
129	0x3ddc95d7	0.10770767
130	0x3da22b94	0.07918468
131	0x3b977988	0.004622642
132	0x3d2e5727	0.042563584
133	0xbdd2ec20	-0.102989435
134	0xbdf0002b	-0.11718782
135	0x3bdc5d6e	0.006725005
136	0x3cdf9867	0.02729435
137	0x3d571cca	0.05251769
138	0xbd47aa9d	-0.048746694
139	0x3caf3513	0.021387612
140	0xbcb3a195	-0.021927634
141	0xba8f1149	-0.0010915186
142	0xbd89e7e1	-0.067336805
143	0x3d07166b	0.032980364
144	0xbca65486	-0.020303976
145	0xbb8d4a50	-0.0043118373
146	0x3deacfec	0.11465439
147	0xbd8305e9	-0.06397612
148	0xbd32925f	-0.04359662
149	0x3dc0f83c	0.09422347
150	0xbd1e86bb	-0.038702708
151	0xbd9991a5	-0.074984826
152	0x3dcd69e5	0.100299634
153	0x3de169ee	0.110065326
154	0x3df12119	0.11773891
155	0xbbe6d878	-0.007044848
156	0xbca5f845	-0.020259986
157	0xbd94dc1a	-0.072685435
158	0x3e3f1586	0.18660554
159	0x3d2715b1	0.04079217
160	0xbd9a1487	-0.075234465
161	0x3d298738	0.04138872
162	0x3cb8f6dc	0.02257865
163	0xbc5abc3b	-0.013350542
164	0x3da49945	0.08037046
165	0x3cef1716	0.029185813
166	0xbd6a60e7	-0.05722132
167	0xbce8d406	-0.028421413
168	0x3d99f9e9	0.0751837
169	0x3dbc4d10	0.09194386
170	0xbde370f2	-0.11105527
171	0x3c2e8cca	0.010653684
172	0xbd41b88f	-0.04729515
173	0xbd0bbb29	-0.034114037
174	0x3d8aed1b	0.067835055
175	0xbcc0e7bd	-0.023548001
176	0xbbe7c580	-0.0070731044
177	0x3cc79475	0.024362782
178	0xbd9b41a7	-0.075808816
179	0x3cca3088	0.024681345
180	0xbdabd150	-0.083895326
181	0x3d18c982	0.037301548
182	0x3d8e8658	0.06959218
183	0xbbbf6d32	-0.0058418745
184	0xbb046168	-0.002019966
185	0x3ce2aeca	0.027671237
186	0xbc70d66a	-0.014699558
187	0xbd5a4bc8	-0.053294927
188	0xbd86206f	-0.06549155
189	0x3cf73a99	0.030179309
190	0x3d1143ce	0.035465054
191	0xbca4b004	-0.020103462
192	0x3def0a76	0.11671917
193	0x3d2f7df2	0.04284472
194	0xbd587902	-0.052849777
195	0xbd43c02f	-0.047790702
196	0x3d95fcb1	0.07323588
197	0x3da5e544	0.081003696
198	0x3d928807	0.071548514
199	0xbd5a23f8	-0.05325696
200	0xbc979c11	-0.018507035
201	0xbc80c77d	-0.015720123
202	0x3e0e5234	0.13898546
203	0x3d2e560d	0.042562533
204	0xbda70707	-0.08155637
205	0xbd020b4c	-0.031749055
206	0x3d4a12a9	0.049334202
207	0x3d86cee7	0.06582432
208	0xbdbdc195	-0.092654385
209	0xbe1d3cd3	-0.15355234
210	0x3da4f617	0.080547504
211	0xbcbc4d7e	-0.02298617
212	0xbca383a2	-0.019960228
213	0xbd847da5	-0.06469277
214	0xbd9a0219	-0.07519931
215	0x3dc9da7c	0.09856126
216	0xbca03001	-0.01955414
217	0x3d32f46b	0.043690126
218	0xbcf779a4	-0.03020937
219	0x3db93950	0.090441346
220	0x3b89afb2	0.0042018527
221	0xbd8bc802	-0.06825258
222	0x3db8c532	0.09021987
223	0xbe401cdd	-0.1876101
224	0xbd88a749	-0.06672532
225	0x3ba232bc	0.0049498957
226	0xbc347f40	-0.011016667
227	0xbd802d36	-0.06258623
228	0x3c266d3c	0.010157879
229	0x3d16484a	0.036690034
230	0x3ca5df14	0.020247974
231	0x3dd26ca5	0.102746285
232	0xbce48eb2	-0.027900074
233	0xbda579dd	-0.08079884
234	0x3def3640	0.11680269
235	0xbd5417d8	-0.05178055
236	0xbc46daf1	-0.012137161
237	0xbd205486	-0.039143108
238	0x3d87c621	0.06629587
239	0xbb405b63	-0.0029351346
240	0x3deac7de	0.11463903
241	0xbbbc5d9e	-0.0057484647
242	0x3de39e45	0.11114172
243	0x3d84fc3a	0.06493421
244	0x3c7cea69	0.015436747
245	0x3cacdc21	0.02110106
246	0xbcec16db	-0.028819492
247	0xbd7d6c3d	-0.061870802
248	0x3dad145c	0.08451149
249	0xbdf6fb8c	-0.120596975
250	0x3da98b9b	0.08278581
251	0x3e027a19	0.12741889
252	0xbd015821	-0.031578187
253	0xbd65391b	-0.055962663
254	0x3d1c9388	0.038226634
255	0xbd035b94	-0.032069758

features.conv1.bias f4 [64]
0	0xb9a3849b	-0.00031188581
1	0xbb197d39	-0.0023420586
2	0x3992f1a8	0.00028027338
3	0x3ae231cc	0.0017257272
4	0x3adfc85e	0.0017073264
5	0xba42e664	-0.00074348436
6	0x3aa9f088	0.0012965361
7	0x39f0c567	0.00045923443
8	0xbac43903	-0.0014970604
9	0x37878791	1.6156382e-05
10	0xbb17b138	-0.0023146402
11	0xba6f12b9	-0.00091199164
12	0xba0ddb60	-0.00054114126
13	0x3a4ba826	0.00077688915
14	0x38cf317c	9.879746e-05
15	0xba8db685	-0.0010811841
16	0x3a1cf5b4	0.00059875404
17	0x3a67b103	0.00088383275
18	0x3a657647	0.00087532814
19	0xba9979a2	-0.0011709223
20	0xb9d26859	-0.00040132066
21	0x3ab25b6f	0.0013607572
22	0xb94303e3	-0.00018598097
23	0x3b862e78	0.004094895
24	0xba884339	-0.001039601
25	0xb973b14a	-0.00023240331
26	0x3acf5961	0.0015819484
27	0xbae9b96b	-0.0017831748
28	0xb9f09491	-0.00045887058
29	0xba550003	-0.0008125307
30	0xb9939934	-0.0002815217
31	0x3ac55ac5	0.0015056959
32	0x387dfe22	6.055658e-05
33	0xb96110f8	-0.00021463993
34	0x3a2d9d66	0.00066228805
35	0xbab8251a	-0.0014049143
36	0x3adfea0c	0.0017083301
37	0x39945d21	0.00028298146
38	0xbab914cb	-0.0014120577
39	0x3b34a6e3	0.0027565293
40	0xb8f81e53	-0.0001183121
41	0xba48245e	-0.00076348137
42	0x3a5dcc82	0.0008460955
43	0xba8e2dcd	-0.001084739
44	0xbad27c7a	-0.0016058825
45	0xba3cabdb	-0.00071972393
46	0xbad0e093	-0.0015936069
47	0x392ead7c	0.00016658561
48	0xb9c83701	-0.00038187954
49	0x3a2e0f87	0.0006639887
50	0xba634098	-0.0008668988
51	0x3a2bb92d	0.00065507257
52	0xbb339296	-0.0027400604
53	0xb9dc61ea	-0.00042034622
54	0x38c6a343	9.4717856e-05
55	0xba686f0f	-0.00088666467
56	0xba84e47e	-0.0010138897
57	0xb830edda	-4.2183186e-05
58	0x3aacfe1c	0.0013198289
59	0xb9fd8c24	-0.00048360333
60	0xbabd9254	-0.0014463165
61	0xb99d150f	-0.00029961063
62	0x39d315e6	0.00040261372
63	0x3a332615	0.0006833983

features.bn1.weight f4 [64]
0	0x3f787389	0.9705129
1	0x3f8acdd3	1.0844063
2	0x3f78ff53	0.97264594
3	0x3f79ba37	0.97549766
4	0x3f855386	1.0416114
5	0x3f85ac57	1.0443219
6	0x3f7f842b	0.9981105
7	0x3f8ae5db	1.0851396
8	0x3f78866a	0.970801
9	0x3f84240f	1.0323504
10	0x3f7fcbce	0.99920356
11	0x3f73c1b8	0.95217466
12	0x3f870518	1.054843
13	0x3f8de195	1.1084467
14	0x3f813ed6	1.0097301
15	0x3f720b2b	0.9454829
16	0x3f78710d	0.970475
17	0x3f751b78	0.9574504
18	0x3f76378f	0.96178526
19	0x3f8ac257	1.0840558
20	0x3f6e2b76	0.93035066
21	0x3f7950e4	0.97389054
22	0x3f6f4d2d	0.93477136
23	0x3f80fe08	1.0077524
24	0x3f83842b	1.027471
25	0x3f8140b6	1.0097873
26	0x3f7956d8	0.9739814
27	0x3f82bf86	1.0214698
28	0x3f88862c	1.0665946
29	0x3f837064	1.0268674
30	0x3f7df898	0.9920745
31	0x3f871984	1.0554662
32	0x3f888b84	1.0667577
33	0x3f757d35	0.95894176
34	0x3f86b157	1.052287
35	0x3f864e14	1.0492578
36	0x3f8d7171	1.1050245
37	0x3f873d02	1.0565493
38	0x3f80df0d	1.006807
39	0x3f8d9547	1.1061181
40	0x3f77298c	0.9654777
41	0x3f800802	1.0002444
42	0x3f778700	0.9669037
43	0x3f7de98d	0.99184495
44	0x3f88e5f9	1.0695182
45	0x3f855167	1.0415467
46	0x3f88119e	1.0630376
47	0x3f7a5130	0.9778013
48	0x3f720cca	0.94550765
49	0x3f840332	1.0313475
50	0x3f7071b0	0.93923473
51	0x3f83e595	1.0304438
52	0x3f766d65	0.9626067
53	0x3f7fd353	0.9993183
54	0x3f80e7d7	1.0070752
55	0x3f784b3c	0.969898
56	0x3f85202c	1.0400443
57	0x3f824889	1.0178386
58	0x3f7f776e	0.9979161
59	0x3f78000b	0.96875066
60	0x3f7462f3	0.95463485
61	0x3f8c4f45	1.0961691
62	0x3f717c61	0.9433041
63	0x3f7c4655	0.9854482

features.bn1.bias f4 [64]
0	0x3bbd20e4	0.005771743
1	0xbd1b1738	-0.03786394
2	0x3b7ba2af	0.0038396528
3	0x3b3bdca8	0.0028665457
4	0xbd3024e7	-0.043003943
5	0xbc4236bf	-0.011853873
6	0xbd553e52	-0.052061386
7	0x3cdc0344	0.026857026
8	0x3b99d07e	0.0046940437
9	0xbc27ad1d	-0.0102341445
10	0xbb9287dd	-0.0044717626
11	0xbe03ddd7	-0.12877594
12	0xbd2199d2	-0.039453335
13	0xbc00609d	-0.007835534
14	0xbd079650	-0.033102334
15	0x3ca7aaea	0.02046724
16	0xbd5609f7	-0.052255597
17	0x3d02a3b9	0.03189442
18	0xbd30a1f0	-0.043123186
19	0x3be2f83a	0.0069265636
20	0x3d2fb4b5	0.042896945
21	0x3b9e70f6	0.0048352433
22	0xbd1aa584	-0.037755504
23	0xbdb976b4	-0.09055844
24	0xbcc7a3f5	-0.024370173
25	0xbc9a7472	-0.018854354
26	0xbbbbbfae	-0.005729637
27	0xbccc8d30	-0.024969667
28	0xbc80d03f	-0.0157243
29	0xbdc0e0b9	-0.094178624
30	0xbb769571	-0.0037625695
31	0xbdab17da	-0.08354159
32	0xbcdefe8e	-0.02722099
33	0xbd637422	-0.055530675
34	0xbc1a359c	-0.0094121955
35	0xbcbdff00	-0.023192883
36	0xbd818947	-0.06325012
37	0xbd86641c	-0.06562063
38	0xbdc9e6a1	-0.09858442
39	0x3d62afd9	0.055343483
40	0x3d3d1049	0.04615811
41	0xb99b8d44	-0.00029669155
42	0xbd852c31	-0.065025695
43	0x3d5e5826	0.054283284
44	0x3d341a5a	0.043970443
45	0x3c318c4f	0.010836675
46	0xbd8bcf95	-0.068267025
47	0xbdc98cb2	-0.098412886
48	0xbd9a42c3	-0.07532265
49	0x3bc95f55	0.0061453977
50	0xbd8f1bc1	-0.069877155
51	0xbb9d3eea	-0.0047987597
52	0xbd662be7	-0.056194212
53	0xbd7a4511	-0.061101023
54	0xbce46689	-0.027880924
55	0xbbfeb573	-0.0077730953
56	0xbd0189f4	-0.031625703
57	0xbd7dc63d	-0.061956633
58	0x3d5bdbfe	0.053676598
59	0xbd21d5d2	-0.039510556
60	0xbde38d4e	-0.11110936
61	0xbd8be732	-0.068312064
62	0xbd8e160e	-0.069378
63	0xbd21ee37	-0.03953382

features.bn1.running_mean f4 [64]
0	0xbc2caf46	-0.010539835
1	0xbe26f923	-0.16305976
2	0xbdf1bd18	-0.11803645
3	0xbd75c6e8	-0.060004145
4	0x3d06ee60	0.032942176
5	0x3e8abca7	0.27097055
6	0xbdb4cf82	-0.088286415
7	0xbe86072c	-0.26177347
8	0x3e9b54fe	0.3033828
9	0xbd3c7332	-0.046008296
10	0x3e01471b	0.12624781
11	0x3e1cc964	0.153112
12	0xbd6e268a	-0.058142222
13	0xbe5763bd	-0.21034141
14	0x3e9524a7	0.29129526
15	0x3dbc8a93	0.092061184
16	0xbc4d371d	-0.012525347
17	0xbdf2b50a	-0.11850937
18	0x3cd287d9	0.025699543
19	0xbe252724	-0.16128212
20	0x3e3edd6a	0.1863915
21	0x3e4e0216	0.20117983
22	0xbda5aff8	-0.08090204
23	0xbe056802	-0.13027957
24	0x3bb10860	0.0054026097
25	0xbe31e8e0	-0.17373991
26	0x3e0fa5a1	0.14028026
27	0xbdd298a2	-0.10283019
28	0x3c252416	0.010079404
29	0x3e9f9cf8	0.31174445
30	0x3ed9eebb	0.4256495
31	0x3e68e872	0.22744921
32	0xbd20d0fb	-0.0392618
33	0xbeba11eb	-0.36341795
34	0xbd7a727c	-0.061144337
35	0xbd522377	-0.051303353
36	0xbe1ac2f3	-0.1511343
37	0x3cac3936	0.021023374
38	0xbddc0433	-0.107429884
39	0xbe52ffd0	-0.20605397
40	0x3c355014	0.011066455
41	0x3d9fa9a8	0.07796031
42	0xbd19d4f1	-0.037556592
43	0x3e201acf	0.15635227
44	0xbdb07f36	-0.086180136
45	0x3e8a1255	0.2696711
46	0x3e0def45	0.13860805
47	0x3dfb0fcd	0.12258873
48	0x3e322b11	0.17399241
49	0xbe5fb074	-0.21844655
50	0x3e5a8e1c	0.21343273
51	0xbe5cc001	-0.21557619
52	0xbe8d6141	-0.2761326
53	0x3cf6d448	0.03013052
54	0x3e3e8a55	0.18607457
55	0x3c8e74af	0.017389623
56	0xbea4a088	-0.32153726
57	0x3e116528	0.14198744
58	0x3e785436	0.24250874
59	0xbe3504ec	-0.17677659
60	0xbd893cd0	-0.06701052
61	0xbe649323	-0.22321753
62	0xbe41286a	-0.18863073
63	0xbc0d61bd	-0.00862926

features.bn1.running_var f4 [64]
0	0x3fb29dab	1.3954366
1	0x3f833f3b	1.0253671
2	0x40108c02	2.2585454
3	0x3eecbdb8	0.46238494
4	0x3f15ff34	0.58592534
5	0x3f7a37e8	0.97741556
6	0x3ea0fdfd	0.31443778
7	0x3f647446	0.8923992
8	0x3f8ba95e	1.0911062
9	0x3fd12d0a	1.634187
10	0x3ebc99c6	0.3683607
11	0x3e5adde5	0.21373709
12	0x3fdaddc4	1.7098927
13	0x3f63a6ce	0.889264
14	0x3fa78a69	1.3089114
15	0x3f950e61	1.1645013
16	0x3f66e306	0.9019016
17	0x3f02ab9d	0.5104311
18	0x3f0755ca	0.5286528
19	0x3f1d608a	0.6147543
20	0x3ed18651	0.40922788
21	0x3ec250f0	0.37952375
22	0x3ee4e956	0.4470927
23	0x3ed7f135	0.42176214
24	0x3f446da6	0.7672981
25	0x3fd75d0c	1.6825271
26	0x3f4b051b	0.79304665
27	0x3f3776f0	0.7166586
28	0x3f43f7cb	0.7654998
29	0x400c6b72	2.194058
30	0x3fb4b539	1.4117805
31	0x3f6000f3	0.8750145
32	0x3f460ea2	0.7736608
33	0x3f61327e	0.8796767
34	0x3f263774	0.64928365
35	0x3ee2ba29	0.44282654
36	0x3f92fbe8	1.1483126
37	0x3f90972d	1.1296135
38	0x3f05c26f	0.5224981
39	0x3f83127d	1.0240017
40	0x3ee6f52e	0.45108932
41	0x3f2a0cbc	0.6642568
42	0x3f107eda	0.5644356
43	0x3fb9bf38	1.451148
44	0x3f2efb08	0.68351793
45	0x3fa95a3d	1.3230664
46	0x3f4a6282	0.7905656
47	0x3fa04e32	1.2523863
48	0x3f9980f0	1.1992474
49	0x3f33c7ae	0.7022656
50	0x3f0c190d	0.54725724
51	0x3f848bfb	1.0355219
52	0x3f2f6d99	0.6852661
53	0x400abfc2	2.167954
54	0x3f5ad490	0.85480595
55	0x40257d85	2.585786
56	0x3f3f291e	0.74672115
57	0x3f2e6ac4	0.6813166
58	0x3f9fbe15	1.2479883
59	0x3f95c888	1.1701822
60	0x3f94bdf6	1.1620471
61	0x3f950e4b	1.1644987
62	0x3f2e87a4	0.6817572
63	0x3f61bca3	0.8817846

features.conv2.weight f4 [64, 64, 3, 3]
0	0x3cbfc5e9	0.0234098
1	0x3e1eeaa9	0.15519203
2	0x3cf81690	0.030284196
3	0xbcb108e9	-0.021610694
4	0x3d85ff2a	0.06542809
5	0xbd3e9016	-0.04652413
6	0xbbecb5c7	-0.007223818
7	0x3cee590d	0.029095197
8	0x3ddd8ed8	0.10818261
9	0xbd2af9a0	-0.041741967
10	0xbdba9004	-0.091095
11	0xbda26f05	-0.079313315
12	0xbd8a7aea	-0.06761725
13	0xbd64a7ba	-0.05582402
14	0x3e17b5c0	0.14815426
15	0xbe18c78c	-0.14919871
16	0x3c3184c7	0.010834879
17	0xbd101e02	-0.035184868
18	0x3c903e67	0.01760788
19	0x3b029b2d	0.0019928918
20	0xbd83715e	-0.064181075
21	0x3c81115e	0.015755352
22	0xbd09448b	-0.033512633
23	0xbd2e8f1d	-0.042616952
24	0xbe27e5da	-0.16396275
25	0xbb72c9b7	-0.00370465
26	0xbceb7235	-0.028740982
27	0x3d6eae71	0.05827183
28	0xba76d24f	-0.00094154937
29	0x3caf606c	0.021408282
30	0xbdb2c043	-0.08728077
31	0x3dc7b0e3	0.09750535
32	0x3c111d86	0.008857137
33	0xb966c2cf	-0.00022007081
34	0x3d61b32a	0.055102505
35	0xbcbf5b62	-0.023359004
36	0xbd47fa8c	-0.048822924
37	0x3dae79bc	0.08519313
38	0xbd2b85d4	-0.041875675
39	0x3d34640b	0.04404072
40	0x3b1f3a81	0.0024296346
41	0x3da27f15	0.07934395
42	0xbdc4e13f	-0.09613275
43	0xbce6737f	-0.028131245
44	0x3d3efa3b	0.046625357
45	0xbdbc07d4	-0.091811806
46	0x3d80cce3	0.06289079
47	0x3cde8b99	0.027166175
48	0x3d67f9ba	0.056634642
49	0x3d0395f4	0.03212543
50	0xbc79454d	-0.0152142765
51	0xbda14ef4	-0.07876387
52	0xbc9bf47a	-0.019037474
53	0x3d973f96	0.07385175
54	0x3dc749bc	0.097308606
55	0xbb900a0d	-0.0043957294
56	0x3d8f2c62	0.06990887
57	0xbc894282	-0.016755346
58	0xba817e9f	-0.0009879655
59	0x3e264423	0.1623693
60	0xbd8c45bf	-0.068492405
61	0x3bc12d8e	0.005895323
62	0xbc3361fd	-0.010948655
63	0xbc09d318	-0.008412145
64	0xbdb9a9ab	-0.09065565
65	0xbc125981	-0.008932472
66	0x3b0f47bc	0.0021862825
67	0x3c2204b7	0.009888819
68	0xbd756d74	-0.059918836
69	0xbce902aa	-0.028443653
70	0xbc5ec947	-0.013597793
71	0xbcbf5b81	-0.023359062
72	0x3ccdf6e5	0.025142143
73	0x3d443860	0.047905326
74	0xbcf04116	-0.02932791
75	0x3dbeecd3	0.093225144
76	0xbabab010	-0.0014243145
77	0x3dc32879	0.09529204
78	0xbc53a2fb	-0.012917276
79	0x3cff9cfe	0.03120279
80	0x3ce6b79a	0.02816372
81	0xbddd3918	-0.108019054
82	0x3e0ce7b2	0.1376026
83	0x3d0c2bb1	0.034221355
84	0x3dfe1070	0.12405479
85	0xbd8888a1	-0.06666685
86	0xbc647929	-0.013944902
87	0xbd9eca86	-0.07753472
88	0x3d46a36b	0.04849569
89	0xbd663e4d	-0.05621176
90	0xbe0ff4bf	-0.14058207
91	0xbd10fb7d	-0.035396088
92	0x3db5f6ce	0.08884965
93	0xba9bf991	-0.0011899938
94	0x3d1d1adc	0.038355693
95	0x3d255768	0.04036656
96	0xbd04cf22	-0.0324241
97	0xbba85265	-0.0051367753
98	0x3ceae066	0.028671455
99	0x3d4c3265	0.049852747
100	0xbd0eeead	-0.034895588
101	0x3d6f5ad1	0.05843622
102	0xbddb9b50	-0.10722983
103	0xbe2499e7	-0.16074334
104	0xbd98dbc7	-0.07463794
105	0xbe2dec29	-0.16984619
106	0xbb3cfa40	-0.0028835684
107	0xbcafe85a	-0.021473099
108	0x3d59b713	0.05315311
109	0x3d3d9934	0.046288684
110	0x3c319f58	0.010841213
111	0xbda6bb2b	-0.08141168
112	0x3cfa25f8	0.030535683
113	0x3d967e2c	0.07348284
114	0xbe00dcd5	-0.1258424
115	0xbc0cfbbf	-0.008604943
116	0x3d7fb442	0.062427767
117	0xbd6902e7	-0.056887534
118	0xbd72b1b3	-0.0592515
119	0x3c939f05	0.018020162
120	0xbd4a30e0	-0.049363017
121	0xbdf22c58	-0.11824864
122	0x3c128fa4	0.008945379
123	0xbd5e65f8	-0.054296464
124	0xbd2e716a	-0.04258863
125	0xbd8e08a2	-0.0693524
126	0xbceca014	-0.028884925
127	0x3d55d555	0.052205402
128	0x3d893ca1	0.06701017
129	0xbd6cc3ec	-0.057804033
130	0x3d8b55d4	0.0680348
131	0xbdea1a72	-0.11430825
132	0x3d753731	0.059867088
133	0x3d5119c9	0.05104998
134	0x3d9c499b	0.07631227
135	0xbc981024	-0.018562384
136	0xbd20e2a1	-0.03927863
137	0x3d5193f3	0.051166486
138	0xbe120103	-0.14258198
139	0x3d38a396	0.045077883
140	0xbce851bc	-0.028359286
141	0xbdc7b19f	-0.097506754
142	0x3dd8e66c	0.105908245
143	0xbded097f	-0.11574077
144	0x3c82e2c5	0.015977273
145	0xbc124783	-0.008928183
146	0x3d24dbe8	0.04024878
147	0xbd0e2c58	-0.03471026
148	0x3ddf99b3	0.10917988
149	0xbc47a6c6	-0.012185758
150	0x3e22954f	0.15877269
151	0x3d2b945b	0.04188953
152	0xbd08d840	-0.033409357
153	0x3cb02afa	0.021504868
154	0xbd61783c	-0.055046305
155	0xbd09a46b	-0.033604067
156	0xbd4f7ad4	-0.050654247
157	0xbbccea23	-0.006253497
158	0x3da191a5	0.078891076
159	0xbdc1314c	-0.09433231
160	0xbd68a939	-0.05680201
161	0xbd97cb41	-0.074118145
162	0xbdc93582	-0.09824659
163	0xbd87451f	-0.06604981
164	0xbc3faaaa	-0.011698404
165	0xbdabb37b	-0.083838426
166	0x3cb29db2	0.02180371
167	0xbccc76a0	-0.024958909
168	0x3c2da8e3	0.010599348
169	0x3d18fd5b	0.037350994
170	0xbd8a155a	-0.06742354
171	0xbdb97b67	-0.0905674
172	0xbd123485	-0.035694618
173	0x3d75c6cc	0.06000404
174	0xbd912a82	-0.07088186
175	0xbe0c3425	-0.13691767
176	0xbdc01c1a	-0.0938036
177	0x3d72d294	0.059282854
178	0x3d595a40	0.053064585
179	0xbda6dd99	-0.08147735
180	0xbc88c920	-0.016697466
181	0xbd2f26cf	-0.04276162
182	0xbb6683ca	-0.0035173767
183	0xbddf5cc9	-0.10906369
184	0x3de9494c	0.113909334
185	0x3df4ed17	0.11959284
186	0xbd44b97c	-0.048028454
187	0xbd1434eb	-0.03618328
188	0xbcf2ef85	-0.029655227
189	0xbe183c00	-0.14866638
190	0xbd97fbc1	-0.07421065
191	0xbdb1080b	-0.08644112
192	0xbce21a0f	-0.027600316
193	0x3d2e1076	0.042496167
194	0xbcc24e15	-0.023718873
195	0xbdeb9c02	-0.115043655
196	0x3bb75208	0.0055944957
197	0x3dc7d7be	0.097579464
198	0xbda7478d	-0.08167944
199	0xbd732c1e	-0.059368245
200	0x3caf30d1	0.021385582
201	0xbd571025	-0.05250563
202	0xbd7193a7	-0.058978703
203	0x3d4d5240	0.050127268
204	0x3d00e1b2	0.03146524
205	0x3d45359c	0.04814683
206	0x3d39a5b2	0.045324035
207	0xb9c86063	-0.00038218786
208	0x3c5d4fdd	0.01350781
209	0x3d8772ff	0.06613731
210	0x3c214392	0.00984277
211	0x3d8bb814	0.068222195
212	0x3d297edf	0.04138076
213	0xbd644e65	-0.055738825
214	0x3be627de	0.0070237955
215	0x3e2031fb	0.15644066
216	0xbd9a59e1	-0.07536674
217	0x3c0b9f30	0.00852184
218	0xbdb28187	-0.08716112
219	0xbb0ef209	-0.0021811745
220	0xbdc8ec9d	-0.098107554
221	0xbcd28d7f	-0.025702236
222	0xbdf3100c	-0.11868295
223	0xbdc4e0d6	-0.096131966
224	0xbd8b18f0	-0.06791866
225	0xbc0d520f	-0.008625521
226	0xbd054794	-0.032538965
227	0xbdb680bd	-0.08911274
228	0xbd12a1cc	-0.035798833
229	0xbc8d6024	-0.017257757
230	0x3d160076	0.036621533
231	0x3d959a20	0.07304788
232	0x3c8fac7c	0.017538302
233	0xbe02b148	-0.1276294
234	0xbd8917e5	-0.06694011
235	0x3b46e2ae	0.0030347514
236	0xbc17e5d4	-0.009271104
237	0x3d7bf44e	0.061512284
238	0x3e13e34a	0.14442173
239	0xbc170f81	-0.009220005
240	0x3c17026c	0.009216886
241	0x3dbd8eee	0.09255777
242	0xbbc346a6	-0.0059593497
243	0xbcd2b4b5	-0.025720933
244	0xbd29bf22	-0.041442044
245	0xbbb05f33	-0.0053824424
246	0x3d102fa2	0.035201676
247	0x3e026aaa	0.12736002
248	0xbd3454db	-0.044026237
249	0x3d617f24	0.05505289
250	0x3d7d3db0	0.061826408
251	0x3d6d3274	0.057909444
252	0xbd0715d7	-0.032979812
253	0x3c66af47	0.014079875
254	0x3be983e5	0.0071263188
255	0xbe3f5a6d	-0.18686838

features.conv2.bias f4 [64]
0	0xb9823a8f	-0.00024839162
1	0xb75e0c0c	-1.3235036e-05
2	0x39ac5ab0	0.00032873964
3	0xb968df1e	-0.00022208362
4	0xb9819c88	-0.00024721422
5	0x36d32215	6.2922577e-06
6	0x39a4b603	0.00031416127
7	0xb8cd7534	-9.7969925e-05
8	0x3757b955	1.285815e-05
9	0x398d2be5	0.0002692632
10	0xb7b2f09a	-2.1331292e-05
11	0x390e6ae5	0.00013581997
12	0x3926d42a	0.00015910031
13	0x38e1768f	0.00010750919
14	0x39437a7b	0.00018642277
15	0x3954d654	0.00020297739
16	0xb7c6e885	-2.3711715e-05
17	0xb820958d	-3.8286253e-05
18	0x39603d2d	0.00021385094
19	0xb951acc2	-0.0001999615
20	0x38f523d5	0.000116891846
21	0xb7bc15c1	-2.2421476e-05
22	0xb92becae	-0.00016396001
23	0xb9595cd0	-0.00020729308
24	0x39cc9fd2	0.00039028988
25	0x384ac8f3	4.83477e-05
26	0x390b738a	0.00013299115
27	0x38b68ca6	8.704634e-05
28	0x390775fa	0.00012918553
29	0x3a25ac05	0.00063198834
30	0x3933a36c	0.0001713165
31	0xb7e41598	-2.7189773e-05
32	0x399fae95	0.00030456917
33	0xb7c7a931	-2.3801435e-05
34	0xb9a13c8a	-0.00030753418
35	0x394c3ba6	0.00019477177
36	0xb91572de	-0.00014252539
37	0xb9eb9a33	-0.0004493758
38	0x382772fb	3.9922987e-05
39	0xb8db51d1	-0.00010457973
40	0x38a494f5	7.847875e-05
41	0x3a0c5793	0.0005353626
42	0x3961135b	0.00021464883
43	0x37f8b539	2.9648292e-05
44	0x398491ba	0.00025285577
45	0x394c99da	0.0001951227
46	0xba12efd7	-0.0005605197
47	0x39b471bd	0.00034417017
48	0xb9c42b04	-0.00037416082
49	0x39a6c95c	0.00031812012
50	0xb921740f	-0.00015397392
51	0x38cbf282	9.724965e-05
52	0x37ed5d80	2.8296141e-05
53	0x3971f274	0.00023073872
54	0xb9b4d015	-0.0003448731
55	0xb97de7ed	-0.0002421436
56	0x3903aa96	0.00012556682
57	0xb95c8b88	-0.00021032814
58	0xb855e387	-5.099506e-05
59	0x39b8dd34	0.00035260024
60	0x397776cf	0.00023600015
61	0x3787c5ea	1.6185415e-05
62	0x39837f70	0.00025081215
63	0xb902030e	-0.00012398904

features.bn2.weight f4 [64]
0	0x3f8865ad	1.0656029
1	0x3f7f71a0	0.99782753
2	0x3f6c8f6d	0.9240635
3	0x3f900884	1.1252599
4	0x3f82b16f	1.0210398
5	0x3f700ed1	0.9377261
6	0x3f7e3309	0.99296623
7	0x3f7a2c62	0.9772397
8	0x3f79bace	0.97550666
9	0x3f78d8de	0.97205913
10	0x3f6c7c90	0.9237757
11	0x3f7a5dcf	0.9779939
12	0x3f8050b8	1.0024633
13	0x3f81370c	1.0094924
14	0x3f87775b	1.0583299
15	0x3f842d87	1.0326394
16	0x3f77d3be	0.9680747
17	0x3f764152	0.9619342
18	0x3f7656b2	0.96226037
19	0x3f76c8b4	0.964
20	0x3f700a1c	0.93765426
21	0x3f7613ba	0.9612385
22	0x3f7c4a09	0.9855047
23	0x3f7b3719	0.9813095
24	0x3f8a82cf	1.082117
25	0x3f778b9b	0.96697396
26	0x3f71237d	0.94194776
27	0x3f809c8d	1.0047776
28	0x3f7802f7	0.96879524
29	0x3f739a8f	0.9515771
30	0x3f8c9e36	1.0985782
31	0x3f7e107d	0.9924391
32	0x3f6d107a	0.92603266
33	0x3f6e7951	0.93153864
34	0x3f8bfeac	1.0937095
35	0x3f8a7f17	1.0820035
36	0x3f7bf711	0.9842387
37	0x3f83cece	1.0297487
38	0x3f80f875	1.0075823
39	0x3f7b1cbe	0.9809073
40	0x3f74f1e0	0.9568157
41	0x3f74e9fd	0.9566954
42	0x3f80c723	1.0060772
43	0x3f7579db	0.9588906
44	0x3f7d445c	0.98932433
45	0x3f7ff706	0.999863
46	0x3f84b175	1.0366656
47	0x3f82c057	1.0214947
48	0x3f7df9e3	0.9920942
49	0x3f70aec0	0.9401665
50	0x3f8a5685	1.0807654
51	0x3f748e83	0.95529956
52	0x3f77d595	0.96810275
53	0x3f717224	0.9431479
54	0x3f8552c5	1.0415884
55	0x3f750317	0.9570784
56	0x3f81e8c8	1.0149164
57	0x3f7a3525	0.9773734
58	0x3f8d6f03	1.1049503
59	0x3f82c4d4	1.0216317
60	0x3f73d768	0.9525056
61	0x3f85c214	1.0449853
62	0x3f80c35b	1.0059618
63	0x3f711ae0	0.94181633

features.bn2.bias f4 [64]
0	0xbe322c99	-0.17399825
1	0xbd206b04	-0.039164558
2	0xbd9e0b5d	-0.07717011
3	0xbdfce47d	-0.12348268
4	0xbc2d81da	-0.010590041
5	0xbd64dc86	-0.05587437
6	0xbda343ab	-0.07971891
7	0xbdc17d83	-0.094477676
8	0x3b0e1f42	0.0021686112
9	0xbe2325ae	-0.15932342
10	0xbbc26d76	-0.005933459
11	0xbd299ac0	-0.041407347
12	0xbd6ca47a	-0.057774045
13	0xbc69809b	-0.014251853
14	0xbe16bc80	-0.14720345
15	0xbd8083c6	-0.06275134
16	0xbd51de08	-0.051237136
17	0xbd9f61ac	-0.07782301
18	0xbdeb3540	-0.11484766
19	0xbd41bc9d	-0.047299016
20	0xbd95d907	-0.07316785
21	0x3d0163b2	0.031589217
22	0xbded6878	-0.115921915
23	0xbdc469ec	-0.095905155
24	0xbcaf87dd	-0.02142709
25	0xbd65ef65	-0.056136508
26	0xbdf41087	-0.11917215
27	0xbe3a5504	-0.18196493
28	0x3c89fc9f	0.016844092
29	0xbdb71904	-0.08940318
30	0x3d433723	0.047660004
31	0xbe2475ca	-0.16060558
32	0xbcbf1ec7	-0.023330105
33	0x3d8c1070	0.06839073
34	0xbdf9ecc8	-0.122033656
35	0xbe46ce2d	-0.19414587
36	0xbdb01d8d	-0.08599386
37	0xbe0cbf15	-0.13744767
38	0xbe33bca1	-0.17552425
39	0xbd203247	-0.03911045
40	0xbdc01209	-0.0937844
41	0xbcca8579	-0.024721848
42	0xbdff06fb	-0.12452503
43	0xbd66b55c	-0.0563253
44	0xbd65b870	-0.056084096
45	0xbe217400	-0.15766907
46	0xbd1af116	-0.037827574
47	0xbd687e5a	-0.056761123
48	0xbd9c2841	-0.07624865
49	0xbda4a19e	-0.080386385
50	0xbd171345	-0.03688361
51	0xbe4f6e3f	-0.202569
52	0xbd11bf57	-0.035582867
53	0xbe255fb8	-0.16149795
54	0xbdebb21a	-0.115085796
55	0xbe1783a1	-0.14796306
56	0xbd48e3a7	-0.04904523
57	0x3b249d7f	0.002511829
58	0xbcb07a92	-0.021542821
59	0xbd6a4710	-0.057196677
60	0xbd98460b	-0.07435235
61	0xbc23054b	-0.009949992
62	0xbc92410d	-0.017853284
63	0xbdf14e0e	-0.11782466

features.bn2.running_mean f4 [64]
0	0xc036d415	-2.8566945
1	0x401a0832	2.4067502
2	0x3f821d82	1.0165255
3	0x3f8c30ee	1.0952432
4	0xc053b910	-3.3081703
5	0xc05fde68	-3.4979496
6	0x3e2bd39f	0.16779946
7	0x4020932b	2.5089824
8	0x40630b4b	3.5475643
9	0x4034b7cc	2.823718
10	0x40080e77	2.1258829
11	0x3ed8e6c1	0.4236355
12	0x3fd1c351	1.6387731
13	0xc04ddb15	-3.2164967
14	0x3f8567c3	1.042229
15	0x3ff21e67	1.8915528
16	0xbf098bac	-0.5372875
17	0x3eed1c87	0.46310827
18	0x40661ec4	3.5956278
19	0xc00140cf	-2.0195806
20	0xbfe1b8bf	-1.7634505
21	0x40099fa2	2.1503682
22	0xbff567e7	-1.9172333
23	0xbf37e1e7	-0.71829075
24	0x3ed5b397	0.4173858
25	0xc010e228	-2.2638035
26	0xbd3516be	-0.04421114
27	0x40304167	2.7539918
28	0x40024eb7	2.0360544
29	0x3f6e150c	0.93000865
30	0xc0c8a947	-6.2706637
31	0x3fb6393c	1.4236217
32	0x4040b8bc	3.0112753
33	0x408f2bf4	4.4741154
34	0x3e6dee4b	0.23235433
35	0xbff458a7	-1.9089555
36	0x401a781f	2.4135816
37	0x3ecf25aa	0.40458423
38	0x4018124d	2.376117
39	0xc01af6bd	-2.4213097
40	0x403b2eeb	2.9247386
41	0x3f275d4e	0.65376747
42	0xbda37f1a	-0.07983227
43	0xc0824f65	-4.0721917
44	0xbea03a4e	-0.31294483
45	0xbec0e35a	-0.37673455
46	0x3f9635ba	1.1735146
47	0x3ebd4fe1	0.36975005
48	0x403f169b	2.9857547
49	0xbfbb2ece	-1.4623659
50	0x3fcf422f	1.6192073
51	0x404047ee	3.0043902
52	0x407ae6be	3.9203334
53	0x402ad525	2.6692593
54	0x3fdcb136	1.724158
55	0xbe9d1e31	-0.30687097
56	0xbc3a97ec	-0.01138876
57	0xc04c05f2	-3.1878629
58	0x3f833cc1	1.0252916
59	0x3ef8ad6e	0.48569816
60	0x404dc242	3.2149816
61	0xbe85970b	-0.260918
62	0xc07cbfc0	-3.9492035
63	0xbf383dfd	-0.71969587

features.bn2.running_var f4 [64]
0	0x4110a0e8	9.039284
1	0x41684e03	14.519046
2	0x413c0b35	11.752736
3	0x40d586ed	6.6727204
4	0x411355cd	9.208447
5	0x41323171	11.137071
6	0x40fa68b3	7.8252807
7	0x40bf3969	5.975758
8	0x41832d0b	16.396994
9	0x417e3d31	15.889939
10	0x407be78f	3.9360082
11	0x411cd173	9.801135
12	0x40f22d27	7.5680118
13	0x411d0cab	9.815593
14	0x40d966e5	6.7938104
15	0x4080d58b	4.0260673
16	0x40f73152	7.7247705
17	0x412cb30f	10.7937155
18	0x416d616f	14.8362875
19	0x40afcfb1	5.494103
20	0x41235ed4	10.210651
21	0x40de2416	6.941905
22	0x40de3f99	6.9452634
23	0x40cba374	6.363703
24	0x40b66aa1	5.700516
25	0x412057cb	10.021434
26	0x40a93277	5.2874103
27	0x4122fdb3	10.186938
28	0x40deba25	6.9602227
29	0x40573504	3.3626108
30	0x41b565ee	22.67477
31	0x40e9cd5d	7.3063188
32	0x415c2e7d	13.76135
33	0x41965639	18.7921
34	0x40eae83e	7.34085
35	0x40c164ed	6.04357
36	0x4177bd6d	15.483747
37	0x40b417db	5.627912
38	0x40c4d6ae	6.151206
39	0x413843de	11.516569
40	0x4169ba98	14.608055
41	0x4067e396	3.6232657
42	0x40aebdfe	5.4606924
43	0x4124ac60	10.292084
44	0x40b2eb9e	5.591262
45	0x40930baa	4.595174
46	0x40399913	2.899968
47	0x4116f4a5	9.434728
48	0x4111bbf9	9.108392
49	0x40ac42bd	5.383147
50	0x408032ea	4.006215
51	0x419be73d	19.48791
52	0x412ec480	10.922974
53	0x41327e99	11.155908
54	0x40f35324	7.603899
55	0x40b29fb0	5.581993
56	0x412a2c3f	10.635802
57	0x4121a78e	10.103407
58	0x4092bcf2	4.5855646
59	0x40c8302d	6.255881
60	0x4137281c	11.447292
61	0x40ecb2c3	7.3968215
62	0x414329e4	12.197727
63	0x411f2ea5	9.948888

features.conv3.weight f4 [64, 64, 3, 3]
0	0x3b8b215c	0.00424592
1	0xbca4f411	-0.020135911
2	0x3d522b85	0.051311035
3	0xbd441d6d	-0.047879625
4	0x3d0c8de9	0.034315024
5	0x3e3450d2	0.17608956
6	0x3d1bf68d	0.038076926
7	0x3cdf4bc4	0.027257808
8	0x3d6128bf	0.0549705
9	0xbdea0934	-0.114275366
10	0xbcce4649	-0.025179999
11	0x3d2ddd92	0.042447634
12	0xbe000fc9	-0.12506022
13	0xbd3719e8	-0.04470244
14	0xbd9c4d72	-0.07631959
15	0x3d2d7052	0.042343445
16	0xbd48eb92	-0.049052782
17	0xbd8e8d5d	-0.06960557
18	0xbdb47b18	-0.08812541
19	0x3d9c8d33	0.07644119
20	0xbc9ac7bb	-0.018894067
21	0xbd951863	-0.07280042
22	0x3b99ed13	0.004697451
23	0xbe26f23a	-0.1630334
24	0x3dcedfc3	0.10101273
25	0xbdfd98e3	-0.123826765
26	0x3d26fa1d	0.04076587
27	0xbce49fe2	-0.02790827
28	0x3ccbed25	0.024893353
29	0x3be0cb45	0.006860169
30	0xbd1029f0	-0.035196245
31	0x3d18e04d	0.037323285
32	0xbc457ed2	-0.012054162
33	0x3d02218f	0.031770285
34	0xbd518c3a	-0.05115912
35	0xbdc6f997	-0.09715574
36	0xbd78c998	-0.06073913
37	0x3c4d3a96	0.012526175
38	0xbe0e92d3	-0.13923196
39	0xbb9f2d60	-0.004857704
40	0x3db8249e	0.08991359
41	0xbe1f17e0	-0.15536451
42	0xbd0065bc	-0.03134702
43	0xbd1b88c8	-0.03797224
44	0xbdcc3781	-0.09971524
45	0x3ce9e388	0.028550878
46	0x3d197d7e	0.037473194
47	0xbd722aeb	-0.05912296
48	0x3b7f8454	0.0038988786
49	0xbd8ac783	-0.06776335
50	0xbd0b5adc	-0.034022197
51	0xbdd38e69	-0.10329897
52	0xbca34252	-0.019929085
53	0xba1595f3	-0.0005706243
54	0xbdbe9ad5	-0.093068756
55	0x3d2f691f	0.04282486
56	0xbd019c07	-0.03164294
57	0x3bc6a070	0.006061606
58	0x3cf081fe	0.02935886
59	0x3cc55d28	0.024092272
60	0xbd05a78e	-0.032630496
61	0xbbda1552	-0.0066553736
62	0xbc9c3933	-0.019070243
63	0x3cf4aee5	0.029868552
64	0xbc6e259b	-0.014535333
65	0xbd8ca372	-0.06867112
66	0x3ca49ce9	0.020094352
67	0xbdb1874e	-0.086683854
68	0xbd66a421	-0.05630887
69	0x3d93e75b	0.07221862
70	0x3dfac405	0.12244419
71	0xbc913620	-0.017726004
72	0xbd45e470	-0.048313558
73	0x3d400cee	0.04688733
74	0xbd0d4e25	-0.034498353
75	0x3d1adf8a	0.03781084
76	0xbdb1e79c	-0.08686754
77	0xbe009d93	-0.1256011
78	0xbac4f0e8	-0.0015025409
79	0x3d31b360	0.043383956
80	0xbd0f4700	-0.03497982
81	0xbd83262e	-0.064037666
82	0xbda19f53	-0.07891717
83	0xbd2a9e77	-0.04165503
84	0x3d354354	0.044253662
85	0xbadf9482	-0.0017057809
86	0xbda30b9a	-0.07961197
87	0xbcb5437a	-0.022126902
88	0xbc629035	-0.013828327
89	0xbe2f3023	-0.17108206
90	0x3d55fbc4	0.052242056
91	0x3d757332	0.059924312
92	0xbd618df6	-0.055067025
93	0xbca5a093	-0.02021817
94	0x3d64a77b	0.055823784
95	0xbb3aa151	-0.00284775
96	0x3bf505d6	0.0074775023
97	0xbd6acc65	-0.057323832
98	0xbdd82170	-0.10553253
99	0xbd236f6b	-0.03990118
100	0xbd2d97d3	-0.04238112
101	0xbb04ed0c	-0.0020282893
102	0x3c95a2b3	0.018266058
103	0x3cf2dfb7	0.029647691
104	0x3cddebc7	0.027089966
105	0x3c65a2a0	0.014015824
106	0x3d15fd8f	0.036618765
107	0xbc026f10	-0.00796105
108	0xbd68c626	-0.056829594
109	0x3dda7996	0.10667722
110	0x3d2b4634	0.041814998
111	0xbd4b9185	-0.049699325
112	0x3c339f9d	0.010963348
113	0xbca27dbb	-0.019835344
114	0xbcf63132	-0.030052755
115	0x3ab382aa	0.0013695557
116	0x3d4b1164	0.049577132
117	0x3d645484	0.055744663
118	0x3d8524e1	0.06501175
119	0xbb95aea3	-0.0045679375
120	0xbccc2e62	-0.02492446
121	0xbe2a5710	-0.16634774
122	0x3cccbc41	0.02499211
123	0xbce4e5c4	-0.027941592
124	0xbdabd8ee	-0.083909854
125	0xbd3cd724	-0.04610361
126	0x3cfdf66a	0.031001288
127	0x3c01d49b	0.007924224
128	0xbe0e73ea	-0.13911405
129	0x3c94b417	0.01815228
130	0xbc5800a2	-0.013183745
131	0xbcf3a503	-0.02974177
132	0x3de08e85	0.109646834
133	0x3c41d8af	0.011831447
134	0xb8749bcc	-5.831923e-05
135	0xbd00a2da	-0.031405307
136	0xbbf13089	-0.007360522
137	0x3d3a862e	0.04553812
138	0xbd976354	-0.07391992
139	0x3d39250f	0.045201357
140	0xbd04a1df	-0.032380935
141	0x3c0e4059	0.008682334
142	0x39591a29	0.00020704478
143	0x3c5cbc93	0.013472694
144	0xbd0a4218	-0.03375444
145	0x3b5bf781	0.0033564272
146	0x3e0aa964	0.1354118
147	0xbc4202ff	-0.011841535
148	0x3d43bd05	0.047787685
149	0xbc2834cc	-0.010266494
150	0x3d075d8b	0.033048194
151	0xbdd22295	-0.10260502
152	0xbcff9ee9	-0.031203704
153	0x3b8096cd	0.003924227
154	0x3b13caae	0.0022551226
155	0xbd62f685	-0.05541088
156	0xbd9bec97	-0.07613485
157	0xbcda0591	-0.026613982
158	0x3d722a8a	0.0591226
159	0x3d24c476	0.040226422
160	0xbd1b7a9b	-0.037958723
161	0x3d92914f	0.07156622
162	0xbd8a185c	-0.067429274
163	0xbb4c46ea	-0.0031170198
164	0x3d289462	0.041157134
165	0x3cfc23c8	0.03077878
166	0x3d177d0b	0.036984485
167	0xbd934ac2	-0.07191993
168	0x3cc2e154	0.023789085
169	0x3cadc316	0.021211188
170	0xbdb8c484	-0.090218574
171	0x3d137d3b	0.0360081
172	0xbd9cb3a9	-0.07651455
173	0x3dbfa688	0.09357935
174	0x3d5ac538	0.05341074
175	0xbc92b3b2	-0.017907951
176	0x3cda62f4	0.026658513
177	0xbd4cba8e	-0.0499826
178	0xbc88ab9b	-0.01668339
179	0x3cc332c4	0.023827918
180	0x3b9aca02	0.0047237882
181	0x3d10f22d	0.035387207
182	0xbcd049a5	-0.025425741
183	0xbb060083	-0.0020447082
184	0x3cce0db6	0.025153022
185	0xbdf476d7	-0.119367294
186	0x3e286817	0.16445957
187	0xbe1c4397	-0.15260158
188	0xbd8d76bf	-0.06907415
189	0xbc9a14fb	-0.018808832
190	0x3c0e7b5d	0.008696404
191	0x3d1cad50	0.03825122
192	0x3d17ed3c	0.03709148
193	0xbd2b8768	-0.04187718
194	0x3d403bf6	0.046932183
195	0xbc6de805	-0.01452065
196	0xbbff1ccb	-0.007785415
197	0xbe2a6885	-0.16641434
198	0x3dc1b6d2	0.09458698
199	0x3d9cbcfc	0.076532334
200	0xbcc4cf44	-0.024024613
201	0xbd496973	-0.04917283
202	0xbc809860	-0.015697658
203	0xbe0754e4	-0.13215977
204	0x3d5b9a0b	0.053613704
205	0x3d113ed6	0.035460316
206	0xbe3588f9	-0.17728032
207	0x38dffcb5	0.00010680539
208	0x3ba24be4	0.0049528945
209	0x3ce24be2	0.027624074
210	0xbdd4e38f	-0.10394966
211	0x3cef29fb	0.029194823
212	0x3d36e7bd	0.044654597
213	0x3d8243d7	0.06360596
214	0xbba6ba76	-0.005088146
215	0x3d7aa136	0.0611889
216	0xbd00529a	-0.031328775
217	0xbe21cc05	-0.15800484
218	0xbd2e1589	-0.042501006
219	0x3d7559ce	0.059900098
220	0xbd647c55	-0.055782635
221	0xbd91de6c	-0.07122502
222	0x3c3cfc98	0.011534832
223	0x3d87bb39	0.06627507
224	0xbdab2323	-0.08356311
225	0xbd159b89	-0.036525283
226	0xbd86376f	-0.06553542
227	0x3d1c43eb	0.03815071
228	0xbd14f8f5	-0.036370236
229	0xbd2d48e0	-0.042305827
230	0x3db3e135	0.08783189
231	0xbd20e6f5	-0.039282758
232	0xbd2727e7	-0.04080954
233	0xbd018043	-0.03161646
234	0x3c7c8e55	0.015414794
235	0x3d75b746	0.059989236
236	0xbd3dd0bc	-0.046341643
237	0x3d404d5d	0.04694878
238	0x3c8d805e	0.017273124
239	0xbe0b73d1	-0.13618399
240	0x3cba7920	0.022762835
241	0xbdb094b1	-0.08622111
242	0xbe4d00b9	-0.20019807
243	0xbca776c4	-0.020442374
244	0x3d259819	0.040428255
245	0x3d561c4b	0.052273076
246	0x3b344e41	0.0027512463
247	0xbcd59d45	-0.026075969
248	0x3d2c92ef	0.042132314
249	0xbd8358bf	-0.06413411
250	0xbca26e67	-0.019828035
251	0xbc6df8b1	-0.014524625
252	0xbd5cc75f	-0.053901073
253	0x3d1743c8	0.036929876
254	0x3d60823d	0.054811705
255	0xbd11be48	-0.035581857

features.conv3.bias f4 [64]
0	0xbada609f	-0.0016660875
1	0xba077f85	-0.0005168843
2	0xbb0cb3eb	-0.0021469544
3	0x39891f89	0.00026154172
4	0xbb28b951	-0.0025745223
5	0x3929a0a5	0.0001617694
6	0x3a36a380	0.00069671124
7	0x3a7e7291	0.0009706403
8	0x3a17f1bc	0.0005796214
9	0x3aae043b	0.0013276407
10	0xba5e9a3a	-0.00084916095
11	0x3a82d4c0	0.0009981617
12	0xba46afb6	-0.00075792836
13	0x3b1eb48d	0.0024216503
14	0xbb4bddae	-0.0031107473
15	0xba96da12	-0.0011509082
16	0x399276bf	0.00027935763
17	0x3b21e516	0.0024703196
18	0x3b0fc8e2	0.0021939804
19	0xbafb2c0f	-0.0019162911
20	0x3889dc5b	6.5737135e-05
21	0x3abdd748	0.0014483714
22	0x39c09a5a	0.00036736095
23	0x3a11e18a	0.0005564919
24	0x391ab080	0.00014752336
25	0xb9fba3e9	-0.00047996573
26	0x372621a4	9.902204e-06
27	0x3a7c221b	0.0009618119
28	0x3affb820	0.001950983
29	0xbaa6b6a3	-0.0012719225
30	0xbb01c3f9	-0.0019800647
31	0x3b354244	0.0027657906
32	0xbaf8d843	-0.001898535
33	0x3a8dee19	0.0010828405
34	0xbb218688	-0.0024646837
35	0xba748c05	-0.0009328726
36	0x3b476433	0.0030424714
37	0x3b31f1c2	0.0027152156
38	0x3a996b8a	0.0011705023
39	0x3b4ac80d	0.0030941993
40	0xba939f0b	-0.0011262608
41	0x3a85bef5	0.0010204004
42	0x3ad437a5	0.00161909
43	0x39f0d686	0.000459362
44	0xb95cf557	-0.00021072231
45	0x3b89cab9	0.0042050746
46	0xbaa6ffda	-0.0012741045
47	0xbaa94d1f	-0.0012916661
48	0x3b763405	0.0037567627
49	0x3b363e0a	0.0027807974
50	0x3b1f779f	0.0024332774
51	0x3b4ddf8c	0.0031413762
52	0xbaa1c8e9	-0.0012343201
53	0xb9f803c5	-0.00047305055
54	0x3a3feabc	0.000732105
55	0xbae3732b	-0.0017353048
56	0x3ad2dc27	0.0016087339
57	0x3ae70015	0.0017623926
58	0x39ead6b5	0.00044791927
59	0xbaa04c77	-0.001222982
60	0x3ae14918	0.0017187921
61	0xb9a04040	-0.00030565448
62	0x39b22b68	0.00033983146
63	0xbb2e076c	-0.0026554717

features.bn3.weight f4 [64]
0	0x3facbd7d	1.3495327
1	0x3fab819d	1.339893
2	0x3fb1aa1c	1.3880038
3	0x3fae0770	1.359602
4	0x3faf7239	1.3706733
5	0x3fa57336	1.2925785
6	0x3fad452d	1.3536736
7	0x3fa9b13a	1.325721
8	0x3facad9a	1.3490479
9	0x3fafa00c	1.3720717
10	0x3faae500	1.3351135
11	0x3fa632ee	1.2984293
12	0x3fac4667	1.3458985
13	0x3fb13379	1.3843833
14	0x3faaa51b	1.3331636
15	0x3fa8673c	1.3156505
16	0x3fab45de	1.3380697
17	0x3facc13b	1.3496469
18	0x3fb15bfb	1.3856195
19	0x3fb0a93b	1.3801645
20	0x3fafde26	1.3739669
21	0x3fafa532	1.3722289
22	0x3faf35d3	1.3688301
23	0x3faa04f5	1.3282763
24	0x3fb0cab1	1.3811857
25	0x3fab8372	1.3399489
26	0x3faa2222	1.3291667
27	0x3fabfc48	1.3436365
28	0x3faccb10	1.349947
29	0x3fae7395	1.3629023
30	0x3fb17b88	1.3865824
31	0x3faa5da5	1.3309828
32	0x3fb0a2f7	1.3799733
33	0x3faabc22	1.3338664
34	0x3fa6730c	1.300386
35	0x3fabfa72	1.3435805
36	0x3fac4ebc	1.3461528
37	0x3fae5876	1.3620746
38	0x3facbab7	1.3494481
39	0x3faeff56	1.3671672
40	0x3fafa9b7	1.3723668
41	0x3fad5337	1.354102
42	0x3fab876d	1.3400704
43	0x3fb0272a	1.3761952
44	0x3fab5840	1.3386307
45	0x3fb42a77	1.4075459
46	0x3fae7cbb	1.3631815
47	0x3faee2cd	1.3662964
48	0x3faa7e4d	1.3319794
49	0x3fa9b959	1.3259689
50	0x3fa6c62d	1.3029228
51	0x3facdf5f	1.3505667
52	0x3fb55f0b	1.416963
53	0x3fab4e77	1.338332
54	0x3fab32a9	1.3374835
55	0x3fadeb58	1.3587446
56	0x3fad5d27	1.3544053
57	0x3faa79bf	1.3318404
58	0x3faece83	1.3656772
59	0x3facffb5	1.3515536
60	0x3fa642aa	1.2989094
61	0x3fa8d185	1.318894
62	0x3fa9d111	1.3266927
63	0x3faf230f	1.3682574

features.bn3.bias f4 [64]
0	0x3e691acd	0.2276413
1	0x3e873c64	0.26413262
2	0x3e8c0dd5	0.27354303
3	0x3eaf0462	0.3418303
4	0x3e99e945	0.30060783
5	0x3e7af3a8	0.2450701
6	0x3e94e14c	0.29078138
7	0x3e8d5aed	0.27608433
8	0x3e8ecc77	0.2789037
9	0x3e7c581a	0.24642983
10	0x3e824d84	0.25449765
11	0x3e75ac81	0.23991586
12	0x3eacdcc6	0.33762187
13	0x3e8719df	0.26386926
14	0x3eaf1aaf	0.34200045
15	0x3e806a47	0.25081083
16	0x3e74413d	0.23853011
17	0x3e5cdc45	0.21568401
18	0x3e874b83	0.26424798
19	0x3eb7ca6d	0.35896626
20	0x3e904a5a	0.28181726
21	0x3e6cc542	0.23122123
22	0x3e848850	0.25885248
23	0x3e8b9001	0.27258304
24	0x3ea82138	0.32837844
25	0x3e874487	0.2641947
26	0x3e877c1c	0.26461875
27	0x3e9a4778	0.3013265
28	0x3e74a7a7	0.2389208
29	0x3ead51ca	0.33851463
30	0x3eb08be8	0.3448174
31	0x3e802ed7	0.25035736
32	0x3eaf8dd8	0.34287906
33	0x3e7d890c	0.2475931
34	0x3ead27a7	0.33819315
35	0x3eb2cc2f	0.34921405
36	0x3e997ccf	0.29978034
37	0x3e8a0164	0.26954186
38	0x3e8f47c4	0.2798444
39	0x3e818c82	0.2530251
40	0x3e90cd9b	0.28281865
41	0x3e8fcb62	0.28084856
42	0x3e9c5642	0.3053456
43	0x3e9ad820	0.30243015
44	0x3e941cf5	0.28928342
45	0x3e756fe4	0.23968464
46	0x3e9ca752	0.30596405
47	0x3e8b14fd	0.2716445
48	0x3e91f488	0.28506875
49	0x3e834629	0.25639465
50	0x3e85fdb1	0.26170114
51	0x3e6aba60	0.22922659
52	0x3ea7bdbe	0.3276195
53	0x3e97e64d	0.29667893
54	0x3e94308e	0.28943294
55	0x3ea5b4af	0.32364413
56	0x3e93fecf	0.2890534
57	0x3e71af85	0.23602112
58	0x3e6d2160	0.23157263
59	0x3ea28f07	0.31749746
60	0x3e8b1ed9	0.27171972
61	0x3e84ab62	0.25912005
62	0x3e90ec3b	0.2830523
63	0x3e97b5f8	0.2963102

features.bn3.running_mean f4 [64]
0	0xbee74535	-0.45169988
1	0x3f145bdc	0.57952666
2	0xbdfdfcdf	-0.12401747
3	0xbdb2e159	-0.08734388
4	0xbf9491a2	-1.1606944
5	0x3f024017	0.50879043
6	0x3f13415b	0.575216
7	0x3f1148fd	0.56751996
8	0x3f1083ac	0.56450915
9	0x3fca3901	1.5798646
10	0xbcaed132	-0.021339986
11	0x3fcdb80f	1.6071795
12	0x3e1354ce	0.14387819
13	0x3fc59c0a	1.5438244
14	0xbfc144d5	-1.5099131
15	0xbf7f67c1	-0.9976769
16	0x3f9c5b18	1.22153
17	0x401cba24	2.4488611
18	0x3ffb48b9	1.9631568
19	0x3e6654d1	0.22493292
20	0xbf11adfb	-0.569061
21	0x3e09b154	0.13446552
22	0xbea33b1e	-0.3188104
23	0x3ed6e626	0.41972464
24	0x3f566f91	0.83763987
25	0x3db12c8f	0.08651077
26	0xbf193346	-0.5984386
27	0x3f9922ac	1.1963706
28	0x3f26c7d1	0.65148646
29	0x3f8714cb	1.055322
30	0xbfce2fac	-1.6108298
31	0x4025d8a1	2.591347
32	0xbfdae7af	-1.7101954
33	0x3f3e0a33	0.7423431
34	0xc017ebc8	-2.373766
35	0xbf34cd85	-0.706261
36	0x40101a75	2.2516148
37	0x401d0eff	2.4540403
38	0x3fca3bc1	1.5799485
39	0x40170b29	2.3600562
40	0xbec75e20	-0.38939
41	0x3f6d5a34	0.92715764
42	0x3f9a7e61	1.2069818
43	0x3df35ecd	0.11883316
44	0xbc4c64af	-0.012475177
45	0x3ffe4074	1.986342
46	0xbcbad676	-0.022807341
47	0xbc2b8c91	-0.010470525
48	0x400a7b68	2.1637821
49	0x402c2bd6	2.6901755
50	0x3fca7a71	1.5818616
51	0x4072b038	3.7920055
52	0x3f873a91	1.0564748
53	0xbf14aabf	-0.5807304
54	0x3edcb6df	0.4310827
55	0x3e63b163	0.22235636
56	0x3fe8ec37	1.8197087
57	0x3f88dc9b	1.0692323
58	0x3f89d390	1.0767689
59	0x3dda86c6	0.10670237
60	0x3eebf118	0.46082377
61	0xbea791c2	-0.32728392
62	0x3f3af220	0.73025703
63	0xbff5d3d0	-1.9205265

features.bn3.running_var f4 [64]
0	0x40258492	2.5862164
1	0x404b51fa	3.1768785
2	0x4001c4a0	2.027626
3	0x401611d9	2.3448393
4	0x40330b7c	2.797576
5	0x407eaf69	3.9794562
6	0x400b7025	2.1787198
7	0x40637949	3.5542777
8	0x40042949	2.0650198
9	0x4035d745	2.841264
10	0x406f722a	3.741343
11	0x4075a9c9	3.8384879
12	0x40226722	2.5375447
13	0x404e6dc7	3.2254503
14	0x40286c08	2.6315937
15	0x4059025f	3.3907697
16	0x40785544	3.8802042
17	0x40548b02	3.3209844
18	0x40480ce1	3.125786
19	0x4018afe6	2.385736
20	0x40339a72	2.8063016
21	0x401931eb	2.3936718
22	0x4046a6cd	3.1039307
23	0x403c3ae8	2.9410954
24	0x4023287d	2.5493462
25	0x4055d247	3.3409593
26	0x405dc655	3.4652302
27	0x4067741a	3.6164613
28	0x403db22a	2.9639993
29	0x40287cdb	2.6326206
30	0x408ea2d1	4.457375
31	0x406770ed	3.6162674
32	0x4052cb4c	3.2936583
33	0x403aec6b	2.9206798
34	0x403b03a2	2.9220967
35	0x401dd5c4	2.4661722
36	0x401c03ca	2.4377313
37	0x405c6844	3.4438639
38	0x4015a2bf	2.3380582
39	0x407105c1	3.7659762
40	0x4049c609	3.152712
41	0x40235f60	2.5526962
42	0x402cc566	2.6995482
43	0x4049d28f	3.1534765
44	0x4013c092	2.3086286
45	0x40070ed4	2.11028
46	0x401698a0	2.3530655
47	0x3fd22fa0	1.6420784
48	0x402b47ca	2.6762567
49	0x407a9c9b	3.9158084
50	0x40624faa	3.5361123
51	0x4090e268	4.5276375
52	0x3fdb039c	1.7110476
53	0x403b9aed	2.931331
54	0x4006c151	2.105549
55	0x403aeae6	2.920587
56	0x4078c812	3.8872113
57	0x407db3ed	3.9641068
58	0x40385d97	2.8807123
59	0x4032cc43	2.7937171
60	0x401906f2	2.391049
61	0x405f1d46	3.4861617
62	0x4007f988	2.1246052
63	0x404ed1a8	3.2315464
