maml-notebook_original_test/maml-notebook/completed_model/model-epoch_00043-train_loss_0.129-train_acc_0.871-test_loss_0.479-test_acc_0.860.pt (torch_old, 305688 bytes, 20 tensors)

conv1.weight f4 [64, 1, 3, 3]
00000000: 204d 9a3c b12a 01bd 3f08 b1bb 8a34 7bbd
00000010: 8ee2 8cbc 95aa 80bd d76e a3bd c456 923d
00000020: bfb7 553d 82ac 7a3d dff6 2abd e650 86b9
00000030: 02a1 073c d919 3e3d b1cd d8bd 8fc1 ccbc
00000040: 4443 9f3d 6384 c13c 62a0 a83d 7761 1dbe
00000050: c088 1a3d ce02 31bc 7b74 6d3d 19ac 34bd
00000060: a055 023e 1392 c63d 2ed5 5b3d d551 c7bc
00000070: 4245 fabd aac5 1f3d 4ff6 3c3d a5e6 34bc
00000080: 65f8 fcbc 6145 dbbc ecd8 313b 502e 1bbd
00000090: 895c 223e 0aa0 7ebc dcbe 653d 36f6 3d3d
000000a0: 678f 2a3c 3dba e13c 1176 8cbc 6322 cd3d
000000b0: 1f7d abbd c6ac 2f3d a6a6 f63d 422b 1abd
000000c0: 4dc4 6bbc c764 b43d 6fc0 26bd 6c0c adbb
000000d0: 848c 823c c6c1 d73d 440d 25bd 3e95 0bbd
000000e0: 3e32 903d a934 113d ad21 96bc a9bb 88bb
000000f0: 2483 3cbc 7194 f0ba df5b 903c 6938 b53b
00000100: 42cc be3d 294b 37bd 9ed1 93bd 4344 7d3d
00000110: 075f 09b9 747d e0bc 3296 473d 437c 36bd
00000120: 2f96 0a3c f372 8ebb 7a78 a33c 2039 b43d
00000130: 88e8 92bd 8e57 a73d 6d3f cf3c 02a2 e5bd
00000140: 031a d93b 5078 47bc 45a5 233d d715 a6bd
00000150: efaf 773c 4bb4 723b c7a3 f43c 2713 223d
00000160: 6d12 133d 3e4b 703d 7d51 18be 886d 023e
00000170: 6cdd 223c b487 2fbd 0602 353d 8e25 ca3b
00000180: 7b2e 8d3c c56f d53c 6431 21bd 6339 f53c
00000190: 7b54 48bd 811c 893d 38e0 b0bd 87a8 253d
000001a0: 29c6 843d 8b8c e2bd 33ca 8d3d 250f 423d
000001b0: 1f0c 623d f6b0 b2bc 916d 2cbd a114 1b3c
000001c0: 1b71 d73c 0c83 7d3c d052 033d c647 993d
000001d0: f360 2a3c 5d75 303c 0ff4 d1bc 8c16 343d
000001e0: f3a0 d8bd 5d0b cb38 7830 5bbd af26 c3bd
000001f0: 38a4 7fbc b2f7 c3bd 2a64 083d 05ff 113d
00000200: 17fd 8b3d f1ad a5bd 47a9 86bc b08b 63bc
00000210: 2780 f13a dfd2 883d ffc0 9f3c 74be 033e
00000220: e55c 173d 3d2a 233a 9d41 52bd 0e3b c5bd
00000230: 1a10 35bd 49b1 a33d 2c3d d93d 557a c33c
00000240: c140 aebc e981 473d edde 833d 6561 a7bd
00000250: ea2c a33c de5a 72bc bdb3 31bd bb82 683c
00000260: 371d 1f3d 4477 b33d 44d4 a03d e2c2 ed3c
00000270: 88ba 62bc 9633 85bc 5a54 02bd b5b6 6d3a
00000280: 6e7e e8bc d841 f03c 68b9 963d b530 17bc
00000290: 2990 e03c 1d73 1c3d 81b0 713d 6141 813d
000002a0: 18ee 2ebd fbab bdbd 1969 77bd 69a5 e4bd
000002b0: 9f4c 2b3b fe84 ccbd 9609 b63c 9cf4 2a3d
000002c0: b257 b63c 6a2d f53c 818b 07bd 0f25 1c3c
000002d0: 4f9f 85bc 51e7 bcbc 435c cabc 646b bebc
000002e0: de1b 39bd 81c2 babc 501c 493d 78ac 8e3d
000002f0: 942b cb3d cb4e 8fbd f760 5ebc 3283 48bc
00000300: d534 77bc 0ccf ac3d f04c 4bbd 6789 4bbc
00000310: 0823 cdbb 5c41 d4bd c580 ca3b ac32 c0bd
00000320: 60f2 ca3d 7aa8 9abd abf0 6bbd 9121 8c3d
00000330: a266 80bc c4a1 e7bd 28a8 973c 3642 a1bc
00000340: e657 f4bb a10e aa3d ee92 e63c 8372 07bb
00000350: 01b2 9b3d 6517 b73b aaca d5bd 32e1 333d
00000360: 0c00 5c3d c3dc d9bc 7a2f d7bc f0ce de3c
00000370: 325a ac3c 69d6 69bd 0427 603d 688d 36ba
00000380: eb26 11bd 76e9 823c f271 2d3d 1e60 53bc
00000390: 3a7b 17bd 51dd a5bd a38a edbd 9064 e9bd
000003a0: 8ec4 173c 5bea 24bc ff57 55bd 2b11 533d
000003b0: a575 8e3c e116 723d 4ce3 3bbd 1e48 ad3d
000003c0: b7d3 333d 2018 8d3d e7f4 41bd 2418 c23d
000003d0: b896 75bd fe63 8cba bc3f 733b a037 78bd
000003e0: 469c 363d 25d7 23bd f460 60bc 1999 c33d
000003f0: 489a 353b dfc8 e23b 41a0 963d 619a aabb
0.018835604 -0.031534854 -0.0054025943 -0.061329402 -0.017197873 -0.06282536 -0.079801254 0.071454555
0.052177187 0.061199673 -0.04173934 -0.00025618746 0.008278133 0.04641137 -0.105861075 -0.02499464
0.07776502 0.023622697 0.082337156 -0.15369211 0.03772807 -0.010803891 0.057972413 -0.044109438
0.12727976 0.0969583 0.0536701 -0.024331013 -0.12220241 0.039006867 0.046133336 -0.011041318
-0.030880162 -0.02676648 0.0027137352 -0.037885964 0.15855612 -0.015541086 0.05609022 0.046377383
0.010410166 0.027554626 -0.017146142 0.10016324 -0.08373474 0.04288938 0.120435044 -0.03763891
-0.0143900635 0.08808284 -0.040710863 -0.005281022 0.015936144 0.10535006 -0.040295854 -0.034077875
0.07040833 0.03545061 -0.018326605 -0.0041727615 -0.011505876 -0.0018354786 0.017621933 0.0055304063
0.09316303 -0.044749413 -0.07217716 0.061832678 -0.00013100739 -0.02740357 0.04872722 -0.0445521
0.008458658 -0.004347199 0.019954909 0.08799958 -0.07173258 0.081709966 0.025298798 -0.11212541
0.0066254153 -0.012174681 0.039952535 -0.08109634 0.015117629 0.0037033733 0.029863251 0.039569046
0.035906244 0.058665507 -0.14874835 0.12737095 0.009940486 -0.042854026 0.044191383 0.0061690276
0.017234078 0.026054272 -0.039353743 0.02993459 -0.04890869 0.0669489 -0.08636516 0.040443923
0.064831086 -0.11061963 0.06923332 0.047377724 0.05518734 -0.021812897 -0.04209668 0.0094653675
0.02629905 0.015473139 0.032061398 0.07484393 0.010399091 0.010770169 -0.025629072 0.043966815
-0.105775736 9.681911e-05 -0.05351302 -0.09528863 -0.015603118 -0.095687285 0.03329865 0.035643596
0.068353824 -0.08089817 -0.01643814 -0.013888285 0.0018425033 0.066808455 0.019501207 0.12865621
0.036953826 0.00062242505 -0.051332105 -0.096304044 -0.04420481 0.07992799 0.10607371 0.023862043
-0.021271111 0.048707876 0.06439004 -0.081728734 0.019918878 -0.014792172 -0.043384302 0.014191325
0.03884622 0.087629825 0.078529865 0.029023591 -0.013838418 -0.01625995 -0.031818725 0.0009068058
-0.028380599 0.029328272 0.07359582 -0.009227921 0.02741249 0.038195718 0.059006218 0.06311298
-0.042707533 -0.09261318 -0.060402963 -0.11164362 0.00261382 -0.09986304 0.022221368 0.041737184
0.022258613 0.029928882 -0.033092026 0.00953032 -0.016311316 -0.023059519 -0.024702197 -0.023244567
-0.04519259 -0.022797825 0.049099267 0.069664896 0.09920421 -0.069974504 -0.013572923 -0.012238311
-0.01508828 0.084379286 -0.04963392 -0.012422896 -0.0062602796 -0.10364029 0.0061799013 -0.09384665
0.099095106 -0.075516656 -0.057602566 0.0684234 -0.01567394 -0.11310151 0.0185128 -0.019684892
-0.0074567674 0.083035715 0.028146233 -0.002066762 0.07602311 0.0055875056 -0.10439046 0.043915935
0.053710982 -0.026594525 -0.026267756 0.027198285 0.021039102 -0.057089243 0.05472471 -0.000696382
-0.035437506 0.015980463 0.042344995 -0.012901334 -0.036982752 -0.080988534 -0.115987085 -0.11396134
0.009263171 -0.01006564 -0.052085873 0.051530045 0.017390082 0.05910385 -0.045871064 0.08461021
0.04390308 0.06889367 -0.047352698 0.09477261 -0.05995819 -0.0010710952 0.0037116846 -0.060599923
0.044582628 -0.0400001 -0.01369499 0.095506854 0.0027710367 0.0069209184 0.07354785 -0.0052063917

conv1.bias f4 [64]
00000000: 40f6 893b c170 0b3b 5e62 c93b 5156 483b
00000010: 90e2 2dbb 53d0 883b 50a7 56bb 86b7 16bc
00000020: d4ea d2ba b16f cf3b cc6b aabb e86b 82bb
00000030: 671e ff39 8e5c f7bb 77a8 dabb e6d2 54bb
00000040: 99bc 123c 0050 173b 8e41 b73b 93da 17bb
00000050: e204 d83b 92a7 963b bb09 a4bb c1d5 f0b9
00000060: 91a4 623a ab96 963b a963 01bb 8660 d3bb
00000070: fde3 b93a 4bfe e7bb 922d dabb 4a64 223b
00000080: 3884 3fbc a7ea ac3a 4f2b 223c a28e c939
00000090: f352 873b 1afa 983a f731 08bc 4bcc 22bb
000000a0: 6249 413c 4613 a83a ede4 46bb cc1a 0b3c
000000b0: 862d 723c da82 00bc 073c ba39 6aff 3abc
000000c0: 5798 7c3c 9620 bf3b f4c1 7b3a f140 aabb
000000d0: 0561 79ba 6aba d73b 9b69 ec3b 4031 d7bb
000000e0: 4b04 ab3b f360 a33b 6322 a3ba 162b c3bb
000000f0: c31a 52bc 2586 1fbc c4df 18bc fd4a 483c
0.0042102635 0.0021276923 0.0061457595 0.0030569027 -0.0026532747 0.004175225 -0.0032753535 -0.009199029
-0.0016091713 0.0063304533 -0.0052008387 -0.0039801486 0.00048660042 -0.007548875 -0.0066729146 -0.0032474338
0.008956098 0.0023088455 0.0055925315 -0.0023171052 0.006592379 0.0045976127 -0.005006043 -0.00045935626
0.0008645738 0.0045955977 -0.001974324 -0.0064507155 0.0014182326 -0.0070798746 -0.0066582644 0.0024779015
-0.011689238 0.001319249 0.009898021 0.00038443977 0.0041297614 0.0011671216 -0.008312694 -0.0024841006
0.011797281 0.0012823127 -0.0030348853 0.008490276 0.014781361 -0.007843697 0.00035521408 -0.0114134345
0.01541718 0.005832742 0.00096037914 -0.00519573 -0.0009513053 0.0065835016 0.0072147376 -0.0065671504
0.0052190176 0.0049859225 -0.0012446161 -0.005956064 -0.012823763 -0.009736572 -0.009330694 0.01222491

conv2.weight f4 [64, 64, 3, 3]
00000000: 75b5 103d 4559 cc3d d971 863d ed8e e53b
00000010: cf3c c63a e369 393d 0880 bf3d e34b 71bc
00000020: 7362 243d a288 063d 6c54 fb3b f19e 45bd
00000030: 561d 6fbc 7828 0b3c 2870 aebc e3be 1e3d
00000040: 8009 f6bb b29c 1d3d 321d 15bd 1cbb 82bc
00000050: 94be 99bc 07f8 823a db14 b73c a15a 6dbd
00000060: d15f 463c f7ef c4bc 651b d7bc 97e1 213c
00000070: c8bf b4bc c6f0 b73c 06a9 4f3d c091 4dbd
00000080: ebe1 d93d 62f8 60bd 01b0 f9bc 4e26 ecbc
00000090: 99f8 99bd 07df 40bd 77fd 0ebc 1232 523d
000000a0: 2c77 93bd e095 48bd b452 68bb 00c4 78bc
000000b0: 36ae b2bc f39e 5cbd 31e6 11be fbf9 5ebc
000000c0: 1135 a0bc 896f 70bd 46c8 24bc e3a8 4b3d
000000d0: 2118 b93c 5324 10bd c0a2 043d 1cb6 2bbd
000000e0: 6cc9 eabc d241 b6bc 826a a6bd 2a98 a3bc
000000f0: 7423 9dba f053 65bd 0bbc 4d3c 67b4 d0bc
00000100: 5543 e7bc ed40 abbc 791a 41bd 1d96 87bc
00000110: bbbb 1b3d 4c91 a3bb e6a4 efbb 6179 053d
00000120: ef95 b03d b780 a6bb b23f 8abc eefe 903d
00000130: 0fe3 b5bc a9fb 833c 0614 293d cae2 403d
00000140: 8171 193d 9d41 893d b707 933c e89f b53d
00000150: 96d4 083d cbb2 dcbb 76d6 983b a42a 09bd
00000160: 422e 85bd 3fd7 a5bd 7033 c0bb d402 4f3c
00000170: b5a5 38bd 1099 1bbd 6193 c2bd 6332 b7bb
00000180: 7290 b2bc 7f35 07bd 2007 b43c 3ae9 0ebd
00000190: 9d1a 49bc de26 80bd 6758 fe3b cc45 c1bc
000001a0: cf05 d33b 3de0 3ebd caaf 0ebd 464f ff3c
000001b0: 9a76 a63c ce6b 3dbd 23f8 0cbd 95ef 9c3d
000001c0: 7fd2 ce3c 019d 17bd 39a3 c1bc 2fa2 7d3c
000001d0: a2e9 593c 9f37 9db9 0ef5 d2bc 0ed5 61bb
000001e0: ab30 d739 09be e53c aa82 1d3d e807 a33c
000001f0: 6728 04bd f344 7a3c e340 873c 0ac7 84bb
00000200: f181 863c 0266 723d dde7 173d 95d8 06bd
00000210: d3f2 f1bb de80 9cbd bb4c 043d 7224 9c3d
00000220: 824a 2c3d 679a 083c 1abd 853d 623e 643b
00000230: 8182 343d 413d 2e3d a5b2 9fbb 6842 8a3c
00000240: b21e 1a3d 3e4b 2bbd a269 54bb 6117 383d
00000250: 117b b63c 421a 2abc 2571 203b 8105 403d
00000260: 36ba 4f3c 49ba c03c c03a 9c3d 44c3 1fbd
00000270: a6bd 263d 5923 9dbd 910b 3cbd 69ba 1abd
00000280: bbf7 383d cfb7 19bd 5d64 893d 7da4 7dbc
00000290: 8398 17bd 5dd7 e23c 803c 383c 44d9 073c
000002a0: dc49 813d d519 5b3d cb67 9d3d 97c7 133d
000002b0: 626e f03c 81cb 2d3d bc5a 873d 75b8 40bd
000002c0: 7b79 723b 30fb c63d dd12 3ebd e942 133d
000002d0: 1f11 febc 9fb5 97bc 01fc 933d bb29 0f3d
000002e0: 260a c53c 7736 c1bd 1000 3a3d a570 46bd
000002f0: 205f 7ebd 3bf3 693d 3af8 8d3d 8ea1 4a3d
00000300: 8b04 883c b284 973d b7df 02bc afac a9bc
00000310: f5a9 1b3b 231b 0a3b dc78 d7bc aec2 9abc
00000320: 029f 00bd f12b debc 7a46 543b 02b1 2eba
00000330: b816 89bd 2b16 c43c d7fa 9d3c 6e17 f23b
00000340: cc29 04bd 119b 0dbd 3349 e4ba dbc5 49bc
00000350: 584b e5bc 5cf0 02bd 9e6a 8b3c b896 95bd
00000360: 22f0 ffbc 0d34 bbba 86d5 37bd 5928 b6b9
00000370: 7494 06bd 6b03 573c 300c 48bd 8ef2 8d3d
00000380: 803d 3f3a fc96 8f3c f1cf 01bd 3d98 133c
00000390: a09e 943c d2a5 b43c ef5e fc3c 45a1 823b
000003a0: e8f0 eabc 8ef4 d5bc 733b cbbc 42d3 a53b
000003b0: ae65 debc d700 003d edfb 043d 321e abbd
000003c0: 0840 253c 0241 2d3b 6d48 3d3c 37a2 7c3c
000003d0: f420 7a3d de6e ccbb 51ed 983d 304a 2d3c
000003e0: fb33 73bc 8393 de3b 8a0f 323d c0e8 363d
000003f0: 6048 813d e540 ab3c 067f 573d a49b f73c
0.0353293 0.09977964 0.065646835 0.0070055635 0.0015124324 0.045266997 0.09350592 -0.014727565
0.04013295 0.032845147 0.007669976 -0.04824728 -0.014594397 0.008493535 -0.021293715 0.038756263
-0.0075084567 0.038479514 -0.036404796 -0.015958361 -0.018767633 0.0009992131 0.022348812 -0.05794776
0.012107805 -0.024040205 -0.02625818 0.009880445 -0.022064105 0.022453677 0.050698303 -0.050187826
0.106387936 -0.054924376 -0.030479433 -0.028826859 -0.07518119 -0.047087695 -0.008727423 0.051317282
-0.072004646 -0.048971057 -0.0035449686 -0.015183449 -0.021811586 -0.053862523 -0.14247967 -0.013609405
-0.019556554 -0.05870012 -0.0100575145 0.04972161 0.022594513 -0.03519089 0.032381773 -0.04192172
-0.028660499 -0.022248182 -0.081257835 -0.019970018 -0.0011988715 -0.055988252 0.01255704 -0.025476648
-0.028230349 -0.020904982 -0.047144387 -0.016551072 0.03802083 -0.004991686 -0.0073133586 0.03258646
0.086223476 -0.005081262 -0.016876075 0.07079874 -0.022202997 0.016111212 0.04127886 0.047091283
0.03746176 0.06701968 0.017948015 0.0886839 0.033405863 -0.006735181 0.0046642376 -0.03348793
-0.065029636 -0.080976956 -0.005865507 0.012634952 -0.045079906 -0.03798777 -0.095007665 -0.0055907234
-0.021797393 -0.033010002 0.021976054 -0.03489039 -0.0122744115 -0.06257413 0.007762003 -0.023592852
0.0064399014 -0.04660057 -0.034835614 0.03116573 0.020320226 -0.04624539 -0.03441633 0.07662884
0.025246857 -0.037014965 -0.023637401 0.015480562 0.013300331 -0.00029986814 -0.025751617 -0.0034459266
0.00041044256 0.028044717 0.03845469 0.01990123 -0.032265093 0.015275228 0.016510433 -0.0040520476
0.016419383 0.059179313 0.037086356 -0.032921392 -0.007383683 -0.07641767 0.03229974 0.07624139
0.042063244 0.008337594 0.06530209 0.0034827222 0.04406977 0.042538885 -0.004873591 0.016877368
0.03762693 -0.041819803 -0.0032411595 0.04494417 0.02227548 -0.010382237 0.0024481502 0.04688025
0.0126786735 0.023526328 0.07628393 -0.03900458 0.040708207 -0.07672758 -0.045909468 -0.03777543
0.04515813 -0.03752881 0.06708596 -0.015481112 -0.03701068 0.027690584 0.011244893 0.008291546
0.06312916 0.053491432 0.076858126 0.036079016 0.02934951 0.042430405 0.06609103 -0.047050912
0.0036998678 0.09715879 -0.04640471 0.035952482 -0.031014023 -0.01851922 0.072258 0.034951907
0.02405269 -0.094342165 0.045410216 -0.04844727 -0.062102437 0.05711673 0.06932111 0.049470477
0.016603729 0.073983565 -0.007987908 -0.020712225 0.0023752425 0.0021073304 -0.026302747 -0.018891659
-0.03140164 -0.027120562 0.003239064 -0.00066639495 -0.066937864 0.023936352 0.019284649 0.007388047
-0.032266423 -0.03457171 -0.0017416835 -0.012315239 -0.027990028 -0.031967506 0.017018612 -0.07304138
-0.031242434 -0.001428248 -0.044881366 -0.00034743806 -0.03285642 0.0131233735 -0.048839748 0.06931029
0.0007295236 0.01752805 -0.03169245 0.009008464 0.018142045 0.022051726 0.030806987 0.00398651
-0.028679326 -0.02611759 -0.024808621 0.0050605843 -0.027148094 0.0312508 0.032466818 -0.08355369
0.010086067 0.0026436453 0.011552912 0.015419534 0.061066583 -0.0062388023 0.074671395 0.01057677
-0.014843936 0.006792487 0.04347185 0.04465556 0.063126326 0.020904968 0.052611373 0.030225582

conv2.bias f4 [64]
00000000: 790b a73b 2fc5 eaba 548e f6bb 542e 6639
00000010: 2eea c43a 116c 213c 5b8e 4a3b 2a27 90ba
00000020: 526a a43b c805 a1bb 28b7 e5ba c651 aebb
00000030: 5ce8 feba 45af 1dbb fffe 7c39 c738 7e3b
00000040: e118 9e3b 5bcb 143b 4495 2a3b 4475 e8ba
00000050: f6e7 02bb 6e57 a7ba 7e69 dd38 88b1 1dbc
00000060: 29c5 263a a45e a23b 9e4a b0ba ff64 26bb
00000070: 6a4a 1dbb f96b f33a a2bf 6bba d655 65bb
00000080: 08e5 9d3a 413c 7eba 5123 bc39 c0d2 1eba
00000090: 6cab 0dbc b2f9 7e3b 033c e93b 1322 953b
000000a0: 661f 803b cfd0 3d39 a134 003b 5cba a13b
000000b0: 3b10 e0bb 583e 623b 68d2 5b3a d5c3 f13b
000000c0: 44a3 c0b9 315c fb3a 5849 75bb 3572 79ba
000000d0: 416d e9ba ebdf eabb c98f 2dbb 0c8c 833b
000000e0: 24b9 0a3b 80e3 0839 5078 cf3a 666e 5fbb
000000f0: 209b 4bba f95c 0bbb 51f1 9fbb 6ad4 6fba
0.005097803 -0.0017911548 -0.007524291 0.00021951768 0.0015023404 0.009852425 0.0030907604 -0.0010998
0.005017557 -0.0049140193 -0.0017525898 -0.0053198067 -0.0019447911 -0.0024060768 0.00024127586 0.0038791166
0.004824743 0.0022704217 0.002602891 -0.0017735143 -0.0019974685 -0.0012767145 0.00010557751 -0.009624846
0.00063617766 0.0049551297 -0.0013449972 -0.0025389788 -0.0024000653 0.0018571607 -0.0008993094 -0.003499379
0.0012046406 -0.00096983096 0.00035884467 -0.0006058626 -0.008646827 0.0038906154 0.0071177497 0.004551181
0.003909993 0.00018102232 0.001956262 0.004935546 -0.0068378723 0.0034522023 0.000838554 0.0073780813
-0.00036742736 0.0019177255 -0.003742775 -0.00095156144 -0.001780905 -0.0071678064 -0.0026483408 0.0040144976
0.0021167481 0.00013054721 0.0015828703 -0.0034092902 -0.0007766951 -0.0021265133 -0.004881062 -0.00091487786

conv3.weight f4 [64, 64, 3, 3]
00000000: 3d8f 913c 32ff 803d 3541 563d 53ec 473d
00000010: babd 76bd 6b37 1abc ca8e 4cbc 8be5 813d
00000020: 5e93 fd3b 4439 eebc 4b0a a6bd c2ce 96bc
00000030: 722e 4e3d b823 213d 18de 6939 a5d7 b2bc
00000040: 9d32 513d ba32 a3bc aefb 91b9 7c72 abbc
00000050: 9786 b03b d5d7 a8bc 9623 563c 30e8 213d
00000060: 47c7 1f3d 9ee2 93bc 69ec 28bd c026 183b
00000070: 98c0 523c f6e4 7a3c 85f3 a13c 0b4f 453c
00000080: 1024 fcbb ca9a f23b dd85 263c d81d 9cbc
00000090: a9ee 7b3b 667f 5fbc e90f 6b3b a775 123d
000000a0: a5e4 743d 69f2 613d 7667 c1bd 1b52 7ebb
000000b0: 1a0c 8a3d fa37 5cbc 9186 903d e23c ea3c
000000c0: a98a 893d 3aca d23c 4550 c83c 06cb df3c
000000d0: d772 463d 8e4a c1bc 93a8 b13b 8d86 243d
000000e0: becb 043c ee23 7aba 5d28 09bd b02b 86bc
000000f0: c2d2 4bbd a985 89bd 22f5 893d 312b 8a3c
00000100: 07d2 af3c 2dff e9bc 67e3 603d 24cb 2fbb
00000110: f3b8 8a3c d6b4 7fbc 9819 073d 427b 213d
00000120: 85a6 2ebc a2a5 213c c436 1cbd 6bfb b5bc
00000130: f042 9fbc 1865 96bc cd4b d1ba 67b2 943b
00000140: 71f1 19bd a83c 363c fe3f 23bd df45 8bbb
00000150: c61e 2bbc a788 f2bc cd1c ca3c 2a59 833c
00000160: 0734 28bd a662 2fbd dd12 c23b d940 913d
00000170: a26a ac3c 7a67 093d b4bd fe3c 258e 6bbc
00000180: 698a 903d 9288 c13b 4f1d 063d 5f24 1fbd
00000190: 0119 fe3b b534 133c a173 283c f3cb 3abd
000001a0: 9342 08bb 607a 833d 3989 393c 2f39 18bb
000001b0: d225 bd3d 9e24 153d e986 34bd 35ef 493c
000001c0: 53b5 52bd 0d70 5b3c 16b0 ee3b cef1 153d
000001d0: bb91 a53c ee06 72bc 0f68 bcbd 6dd6 a23c
000001e0: 049a 81bd 7913 50bc cf29 6d3d d57e 4c3d
000001f0: 86de 0bbd 6ca6 58bc 3ca3 4ebd 236b 0b3b
00000200: 743a e83c 0ac1 bcbc 2a08 21bd 6be6 fd3c
00000210: 2a9c 42bd b9d2 cabb 29c5 53bd 029c 643b
00000220: 1398 963c bed2 c43d b308 883c 84b0 873d
00000230: ef52 903d 25a2 7cbc d7e0 a63a 9a50 15bd
00000240: 0208 903c 68f9 e2bb a2ff a5bc 5b85 bc3c
00000250: 5a88 01bd efda b5bb 86d5 533d 7f0c b93c
00000260: b707 e23b 6eba 4c3d e541 25bc 3680 96bd
00000270: 56bd 32bb a286 ddbc 55f8 ee3c 7688 45bd
00000280: 0d6b 8dbc 213c 80bd acfc 91bd 1f8c a13c
00000290: 6771 9bbc fa20 243d 6cc1 f03b d6ed 323d
000002a0: 09e3 113d 6657 0dbd 928f 33bd 2964 0e3d
000002b0: a490 93bd 3a89 3fbc 74e4 c23c d0ee 04bd
000002c0: 9a84 0b3d 0125 52bd 1d5b 2a3d 4a90 e0bc
000002d0: 7df8 213d c0e5 83bd 14a2 9eba 3af2 d8bc
000002e0: 3e98 943d b445 5ebd 103d 92bc ba55 b3bc
000002f0: 2833 4ebd eb03 123b 8956 b13b 3892 4d3d
00000300: f521 4e3d 44a8 f63c 22ef a13a fb6c 90bc
00000310: d28f 66bc 8742 723d 0ec2 f9bc fc04 a23d
00000320: d290 813c da4f c0bd b4ac e43c 17d1 babd
00000330: 0384 abbc e781 0a3d 63ed 4d3d 9117 303c
00000340: f388 853c 4791 0c3d 2ccd 543d b310 7abd
00000350: 504b 1fbc 00c5 a13c 28d9 883b 6653 6f39
00000360: 4608 2cbd 7844 4dbd 4689 d73d 0c52 353d
00000370: 1465 aabb d9b3 9dbd ef3f c13c e78c 643d
00000380: c6fa e1bc 4fc7 8eb9 0603 98bc ec49 8c3c
00000390: a262 bb3c 031c c7bb e9bb 213d a564 a7bc
000003a0: cb32 63bd 9a87 ad3c 921b ad3d 9374 35bb
000003b0: 9e80 34bc ded4 213d 46b2 d6bc fcae 86bd
000003c0: 4da7 dbb9 8243 04bd b17a b33c d618 343d
000003d0: 7365 703c 7466 383c 9c71 963c c713 c7bc
000003e0: 0321 113d 3f77 15bd 5b63 9dbc 718c 18bd
000003f0: c648 5e3d c5ce 5c3d e406 473d 7e99 443c
0.017768497 0.06298675 0.05230828 0.04880936 -0.06023953 -0.009412627 -0.012485215 0.0634261
0.007738515 -0.02908004 -0.08107432 -0.018409137 0.050337262 0.039340705 0.00022303348 -0.021831343
0.05107366 -0.01992165 -0.0002784407 -0.020928614 0.005387138 -0.02061073 0.013070008 0.039528072
0.039008405 -0.018052395 -0.041241083 0.0023216456 0.012863301 0.015313378 0.01976944 0.012042771
-0.0076947287 0.007403706 0.010163751 -0.0190572 0.0038441813 -0.013641214 0.0035867637 0.035756733
0.059788365 0.05516282 -0.09443562 -0.0038806263 0.067405894 -0.01344108 0.070569165 0.028593484
0.067159005 0.025731195 0.024452338 0.027318489 0.048449364 -0.02359512 0.005421707 0.04016738
0.008105217 -0.0009542097 -0.03348576 -0.016378254 -0.04976154 -0.06714947 0.067362085 0.016866298
0.021462454 -0.02856406 0.054904368 -0.0026823962 0.016933894 -0.0156070795 0.032983392 0.03942419
-0.010659819 0.00986615 -0.038138166 -0.022214612 -0.019441098 -0.018358752 -0.0015968025 0.004537869
-0.037583772 0.01112286 -0.03985595 -0.0042502726 -0.010444349 -0.029606177 0.024671936 0.016033728
-0.041065242 -0.042818688 0.005922659 0.07092447 0.02104694 0.03354595 0.031096317 -0.014377152
0.0705765 0.005906173 0.032742795 -0.038853046 0.0077544455 0.008984734 0.010281474 -0.045604657
-0.0020791634 0.064198256 0.01132422 -0.0023227443 0.09235729 0.036411874 -0.044073973 0.012325098
-0.051442456 0.013393414 0.0072841747 0.036607556 0.020211091 -0.01477216 -0.09199535 0.019877637
-0.06328204 -0.012699955 0.0579012 0.049925644 -0.03414776 -0.013223272 -0.05044864 0.0021273575
0.028348185 -0.023041267 -0.039314426 0.03099366 -0.04751221 -0.006189671 -0.0517017 0.0034883027
0.018383062 0.096105084 0.01660571 0.066254646 0.07047068 -0.015419518 0.0012731802 -0.03645382
0.017581943 -0.006926704 -0.020263497 0.023012808 -0.031624176 -0.0055497806 0.051717304 0.022588966
0.0068978923 0.04998248 -0.010086511 -0.07348673 -0.0027273498 -0.027041737 0.029171148 -0.048225842
-0.01726296 -0.06261469 -0.071282715 0.019720135 -0.018974973 0.04007051 0.0073472764 0.04368385
0.03561691 -0.034507178 -0.04383809 0.03476349 -0.072053224 -0.011690432 0.023790576 -0.03245431
0.034062006 -0.05130482 0.0415908 -0.027412552 0.039543618 -0.06440306 -0.0012102746 -0.02648269
0.072556004 -0.054265693 -0.017851382 -0.021891464 -0.050341755 0.0022280167 0.005411927 0.050188273
0.050325353 0.030109532 0.0012354592 -0.017630091 -0.014072375 0.059145477 -0.03048804 0.07911107
0.015816126 -0.093902305 0.027914383 -0.09121912 -0.020936972 0.03381529 0.050275218 0.010747806
0.016300654 0.034318235 0.05195348 -0.061051082 -0.009722546 0.019747257 0.0041762777 0.00022823885
-0.042000078 -0.050114125 0.1052423 0.0442677 -0.0052000377 -0.07700319 0.023590056 0.055798437
-0.027585398 -0.00027232847 -0.01855613 0.017125092 0.02287418 -0.0060763373 0.039485846 -0.020433733
-0.05546836 0.021182824 0.08452524 -0.0027687892 -0.011016993 0.039509647 -0.026208054 -0.06576344
-0.00041895584 -0.032290943 0.02190909 0.043968998 0.014672625 0.0112548955 0.01836472 -0.024301423
0.035431873 -0.036490675 -0.019212415 -0.03724331 0.05426862 0.05390813 0.048590556 0.011999486

conv3.bias f4 [64]
00000000: 1b91 083d 666f a8bc 42f2 aebc 0e33 1d3d
00000010: b398 c23c 5f2c 253d db93 173d 62fe 043d
00000020: 560f f9bc 5412 f13c 667f 093d 0e04 00bd
00000030: 4746 dd3c 0470 253d e244 603c 900a ba3b
00000040: 2455 123d 5c02 0a3d d68d 0e3b a04d 213d
00000050: c6f2 0dbd 3a9e f63c ee34 ddbc 677d a1bc
00000060: a2b0 463c 44fa 00bd 14e3 483c bf36 043d
00000070: a1ac 9cbc 6444 0dbd 1f22 d33c a2d2 643b
00000080: 2d18 073d 386c 0dbd 3705 083d cbf6 8bbb
00000090: 4b4b 193d 4bd2 1b3d bd68 183d 8191 193d
000000a0: ebdf c03c bf9c 163a 672d b0bc bf73 a73c
000000b0: 11ae 083d 1833 00bd c203 0cbd 74a9 1a3d
000000c0: b79d 143d baa0 0e3d 8710 133d 602a 133b
000000d0: f6fc 093d b4e7 e0bc 9bc9 1a3d 5206 f73c
000000e0: 9703 abbc 0747 da3b 6c2d 5a3c f4b4 033d
000000f0: cd19 003d 37a3 ecbc a0dd a23c dc7b 04bd
0.03334151 -0.020560931 -0.021355752 0.038378768 0.023754453 0.04032552 0.03700624 0.03246916
-0.03040282 0.029427685 0.033568762 -0.031253867 0.02701105 0.04039003 0.013688298 0.0056775287
0.035725728 0.033693656 0.0021752021 0.03938067 -0.034655355 0.030104745 -0.027002778 -0.019713117
0.0121270735 -0.031488672 0.012261171 0.032278772 -0.019125285 -0.03448905 0.025773106 0.0034915586
0.03298204 -0.034527034 0.0332081 -0.0042713634 0.03742532 0.038042348 0.03720926 0.03749228
0.023544272 0.0005745403 -0.021506025 0.020440934 0.033369128 -0.031298727 -0.03418327 0.03775926
0.03628322 0.03482125 0.035904434 0.0022455677 0.033688508 -0.027454235 0.037789922 0.030154381
-0.020875735 0.006661299 0.0133164935 0.032154992 0.031274606 -0.02888642 0.01988107 -0.032344684

bn1.weight f4 [64]
00000000: e00c 7c3f 3567 7a3f 630d 853f 98a4 7f3f
00000010: ceb5 823f 0da1 833f a349 803f 52e2 823f
00000020: 9f3b 7b3f bdd2 833f d3c8 813f 7853 843f
00000030: 19b0 823f 47f9 7e3f 56ab 793f d69d 7d3f
00000040: 89b2 7f3f 179f 7d3f 95a4 803f 5491 803f
00000050: 8261 823f b766 7d3f 0bff 7c3f e85f 803f
00000060: fd86 7e3f d55a 7a3f c21d 803f 301c 803f
00000070: cbd6 823f c50b 7d3f eb10 7c3f 3789 843f
00000080: baaf 7e3f a1ed 7f3f 3131 803f e155 803f
00000090: 842e 793f 5501 803f bd64 803f 16c4 823f
000000a0: 1bf1 813f c06d 843f 5230 803f 5bb1 833f
000000b0: 5cde 7e3f 429d 803f d978 813f 0944 7b3f
000000c0: 5572 823f 2801 7d3f 8dcd 7a3f 4dce 7c3f
000000d0: c7c1 833f 5753 7b3f d739 7b3f 4e7b 7c3f
000000e0: 4784 843f f815 823f 04e1 7a3f 26ed 813f
000000f0: 79e6 7e3f ea7f 7d3f 5900 7a3f a51a 803f
0.98457146 0.9781373 1.039471 0.99860525 1.0211732 1.0283524 1.0022472 1.0225317
0.9813785 1.0298687 1.0139412 1.0337973 1.0209991 0.9959912 0.9752706 0.99068964
0.998818 0.99070877 1.0050226 1.0044351 1.0186007 0.98984855 0.98826665 1.0029268
0.99424726 0.9779485 1.0009081 1.0008602 1.02218 0.98846084 0.98463315 1.0354375
0.9948689 0.9997197 1.0015012 1.0026208 0.973366 1.0000407 1.0030743 1.0216091
1.0151705 1.0345993 1.0014746 1.02885 0.99558043 1.0047991 1.0115005 0.9815069
1.0191141 0.9882989 0.97969896 0.9875229 1.0293511 0.9817404 0.9813513 0.9862565
1.0352868 1.0162954 0.97999597 1.0150497 0.99570423 0.99023306 0.9765678 1.0008131

bn1.bias f4 [64]
00000000: 4cf7 843c be20 81bc 1cc3 6c3c f2ea b3bb
00000010: f5ea b1bc 9c07 d93c 4ec7 0a3c 1182 8fbc
00000020: c452 ccbc f07b 643c 8ac4 af3c a391 063c
00000030: b0b7 8e3c ac3a 023c 8d8d dabc 3cb7 c4bc
00000040: 9770 fabc 0e57 593c b996 f7bc dc27 203b
00000050: 5e6f 2fbc 9020 9a3c ef6f a2bb 5926 35bc
00000060: 05e5 1abb fdc5 18bc e8fe 5dbc d64f bebc
00000070: 1180 703b 8ec1 b6bc ee67 a43c 8686 ff3a
00000080: b638 643c 16aa 5bbc 75e8 92bc 3135 33b9
00000090: c545 39bb 3129 683c 1564 d3bb 7150 1d3c
000000a0: 4717 cfbc a04a a93c d9a4 8a3c f6c6 ac3c
000000b0: c375 2e3c 37c0 8f3c b192 56bc d48c ca3c
000000c0: 9e44 ae3c 3005 593c fd95 92bc 9f6d 143c
000000d0: 1fa1 ff3c cd0d ac3c ca43 39bc 6892 ddbb
000000e0: dda1 9a3c 0ff0 40bb bfbc ff3c 6591 a53c
000000f0: 1d54 e1bc 1ca6 02bd 9044 63bc 2080 0abd
0.016231202 -0.015762683 0.014450815 -0.005490654 -0.021718482 0.026492886 0.0084703695 -0.017518075
-0.02494181 0.013945565 0.021456022 0.008213433 0.017421573 0.007948559 -0.026678825 -0.024013154
-0.030571265 0.013265384 -0.030223237 0.002443782 -0.010707704 0.018814355 -0.004957191 -0.011056506
-0.0023635041 -0.009324548 -0.013549544 -0.023231428 0.0036697427 -0.022309091 0.020069089 0.0019495047
0.013929537 -0.013407251 -0.01793311 -0.00017090586 -0.0028270346 0.014169977 -0.0064511397 0.009601698
-0.025279654 0.020665467 0.016924309 0.021090966 0.010648194 0.01754771 -0.013096497 0.024725355
0.021272954 0.013245866 -0.017893786 0.009059339 0.031204758 0.021002674 -0.011307666 -0.0067618378
0.01887601 -0.002943996 0.03121793 0.020210931 -0.027505929 -0.031896695 -0.013871327 -0.033813596

bn1.running_mean f4 [64]
00000000: 737c 313b 7e67 2b3b 5077 153c 6d99 5e3a
00000010: ace7 953a a0dd 013c 12a9 4bbb 8163 14bc
00000020: 5547 8eba d8d0 033c 74b2 acbb 3d31 44bb
00000030: 9030 1b3b db71 42bc 5937 b5bb f7ab 2eba
00000040: 8118 173c 3500 813b e7d4 c93b 2834 6ebb
00000050: 046c e73b 07b8 0d3b 95d7 ebbb 74a0 7d3a
00000060: 7241 603a 8b29 3b3a ae2e 063a 9109 b3bb
00000070: b100 253a c23b a8bb abd2 0dbc d14b a73b
00000080: 3e97 52bc 4530 e839 a87f 163c faa3 553b
00000090: 54bc 763b 671b 293a 9468 1dbc 55ab 9bba
000000a0: e62e 403c 4e3e 673b a0c8 c7bb 0274 1a3c
000000b0: 4a74 2e3c 3eb8 00bc f2a0 5439 bf62 58bc
000000c0: a40e 853c af43 853b 4c26 2cbb 636d 19bc
000000d0: acdc fc3a 8fab 453b 39a9 f33b 9f12 18bc
000000e0: 841b 103c f6c4 443a ea53 1abb 8df0 8dbb
000000f0: e534 44bc db1e 09bc 3752 56bc 7b33 653c
0.0027082234 0.0026154215 0.009122685 0.000849149 0.0011436841 0.007926375 -0.0031076116 -0.009056927
-0.0010854999 0.008045398 -0.0052702967 -0.0029936575 0.0023680069 -0.011867966 -0.0055302796 -0.0006663198
0.009222151 0.0039367923 0.006159413 -0.0036347006 0.007062437 0.0021624581 -0.0071973302 0.00096750935
0.0008554674 0.0007139674 0.000511865 -0.005463787 0.00062943535 -0.005134077 -0.008656184 0.0051054736
-0.012853442 0.00044286452 0.009185709 0.0032598958 0.0037648873 0.00064509216 -0.009607453 -0.0011876622
0.011729931 0.003528494 -0.0060969144 0.0094270725 0.010647843 -0.007856427 0.00020277852 -0.013207137
0.016242333 0.0040669064 -0.0026267944 -0.009364459 0.001929184 0.0030162071 0.0074359444 -0.009281783
0.008795623 0.0007506156 -0.0023548552 -0.0043316544 -0.011975502 -0.008369173 -0.013081125 0.013989325

bn1.running_var f4 [64]
00000000: 1e37 9f3c 2f99 503c ce94 803d ffae 993c
00000010: 1f5f 5f3d 0acb 413d d7b7 8f3b 6f14 623c
00000020: 4da8 9b3c 6cb1 963c 736d b63c cdc8 003d
00000030: 101e a33c 7a0e 893d 4d3c 843c fa34 263d
00000040: 51e8 843c 3b6f b43c d4b7 093d 5edf ba3c
00000050: ac6a e43c 3c79 c53c 0320 3c3d ccac ba3c
00000060: 2a45 4c3c 2db3 7c3d 59c0 aa3c 9cb6 833c
00000070: 1818 e83c 6bd9 f33c 59dc f53c 0564 093d
00000080: b4a5 f33c a0a4 d03c 4318 fa3c cbc3 033d
00000090: ffe0 e73b 0c84 e93b 221d 573c 17f1 ee3b
000000a0: b24b 793c 1487 133d 3aa7 1d3d 3275 0c3d
000000b0: 738d 4a3d eba9 eb3c 14c7 183d 401b ac3c
000000c0: c1ac e53c 98f0 9b3c 00fc 853d cf82 6a3d
000000d0: 8038 2b3d 2faf 733d 170c 143d b3f6 a63c
000000e0: 8858 403d 33f4 653d 1c57 e83c 1325 6f3c
000000f0: c53d a03c d507 043d 810f 4b3d 62eb d23c
0.019435462 0.012731834 0.06278382 0.018760202 0.054534074 0.047312774 0.004385929 0.013798817
0.01900115 0.018395148 0.022268986 0.0314415 0.019911796 0.06692214 0.016142035 0.040577866
0.016224058 0.022025695 0.033622578 0.022811588 0.027882896 0.02410566 0.045928966 0.022787474
0.012467662 0.061694313 0.020843672 0.016078286 0.028331801 0.029766759 0.030012297 0.03354265
0.0297421 0.025469124 0.030529147 0.032169145 0.007076382 0.007126337 0.013129504 0.0072919237
0.015215801 0.036017492 0.038489558 0.034291454 0.049451303 0.028767547 0.03729923 0.021009088
0.028036477 0.019035622 0.06542206 0.057253655 0.04180193 0.05949324 0.036144342 0.020381307
0.04695943 0.05614109 0.02836185 0.0145962415 0.019560704 0.03223403 0.049575333 0.025747005

bn2.weight f4 [64]
00000000: 8d26 7f3f 1301 7f3f f9e4 813f a85d 793f
00000010: 9b8b 7f3f 219f 7c3f 01d7 813f d8a7 803f
00000020: eb99 773f bd66 833f ebb6 803f 955b 7b3f
00000030: c141 7d3f a6ea 7d3f 6592 7f3f 57e7 7d3f
00000040: a73a 833f ddc2 7c3f abde 7d3f ed2f 7e3f
00000050: 091c 813f 3e2e 823f b1d7 803f 1afc 7c3f
00000060: b32d 803f 6e20 813f 2a5c 793f 9700 7c3f
00000070: a6ac 7d3f 6e96 813f 8395 803f 3e90 813f
00000080: d60f 813f c123 813f 02e9 823f 703d 7d3f
00000090: 6687 7c3f 16b5 7d3f c7de 783f 7cb4 813f
000000a0: 249d 7b3f 4a83 7e3f 6606 7d3f c6a1 833f
000000b0: 0bd5 7c3f cc55 7f3f 4be8 773f f0a3 833f
000000c0: c342 773f 5eea 7f3f 4605 823f 9009 823f
000000d0: 0a3b 833f 6415 823f e852 7e3f a166 7c3f
000000e0: 569c 813f b287 7e3f 7aad 7a3f 7359 823f
000000f0: 451a 813f b23f 7a3f 0529 813f c41e 813f
0.996682 0.99611014 1.0148002 0.97408533 0.99822396 0.9868031 1.0143739 1.0051222
0.96719235 1.0265728 1.0055822 0.9818662 0.9892846 0.9918617 0.99832755 0.9918112
1.0252274 0.9873484 0.9916789 0.9929188 1.0086681 1.0170362 1.0065824 0.98822176
1.0013946 1.0088022 0.97406256 0.984384 0.99091566 1.0124032 1.0045627 1.0122144
1.0082958 1.0089036 1.0227358 0.9892187 0.986441 0.9910444 0.9721493 1.0133204
0.9828665 0.9941908 0.9883789 1.0283744 0.9876258 0.9974029 0.96838826 1.0284405
0.96586245 0.9996699 1.0157859 1.0159168 1.0252392 1.0162778 0.99345255 0.985941
1.0125835 0.99425805 0.97920954 1.0183548 1.0086142 0.9775344 1.0090643 1.0087514

bn2.bias f4 [64]
00000000: 590d 54bc 800a 61bc 1bfa 56bc 278a b03c
00000010: 3e65 04bc 08a2 d2bc 9294 b5bb 9a62 42bc
00000020: 1c81 ffbc c138 d23c c929 d4bb 634e 9ebc
00000030: d6b7 183b df80 1bbd 8514 41bc d76f 503b
00000040: 4101 01bd de26 413b b1ce 13bd f00c cabc
00000050: c137 a93c 8c61 80bb 7537 06bc 068e c73c
00000060: ec67 ddba 3361 863c 5b6f b8bb c27a cf3c
00000070: 6eb9 11bd f4a1 3d3b 15aa 03bd 49e7 473c
00000080: 280e d43c 22b2 00bc 9e0e 283c d3b4 af3b
00000090: d67a adbc 6287 37bc 3774 fcbc bac0 0c3c
000000a0: 75bc fb3c d35c 50bc 0c67 3039 9ca3 03bd
000000b0: 92d5 d03a d706 35bc fc30 0dbd f3af 0f3d
000000c0: 6184 05bd 1126 e1bc 0a9b df3c cc1a 6dbc
000000d0: 3026 143d 9827 e4bc 2d31 e63b 672b 42bc
000000e0: 3378 873b 61bd 433c f6ea 903c bba2 05bd
000000f0: d30e 283c 186c f8bb ddf3 d2bc 22b1 dabb
-0.012942635 -0.013735414 -0.013121153 0.021550251 -0.008080779 -0.025712028 -0.0055413926 -0.011864329
-0.031189494 0.025661828 -0.0064747077 -0.019324487 0.0023302934 -0.037964698 -0.011784677 0.0031804943
-0.031495336 0.002947263 -0.03608579 -0.024664372 0.020656468 -0.0039178785 -0.008191933 0.024359714
-0.0016891933 0.01640377 -0.005628509 0.02532709 -0.03557723 0.0028935643 -0.032144625 0.012201139
0.025885656 -0.00785497 0.010257391 0.005362132 -0.021176737 -0.011201711 -0.030817134 0.0085908715
0.030729512 -0.0127174435 0.00016823056 -0.032138452 0.001593279 -0.011048994 -0.034470543 0.035079908
-0.03259695 -0.027483972 0.027295608 -0.014471721 0.03616923 -0.027850911 0.007024905 -0.011851168
0.004134202 0.011947007 0.017690163 -0.032625895 0.010257441 -0.007581245 -0.025751049 -0.006673948

bn2.running_mean f4 [64]
00000000: d44e e83f a280 c53f df70 de3f 55f6 c53d
00000010: fd31 b83f b62b 84bf 6386 533f a8f0 3d40
00000020: 2ebf 5f3e 9875 5f3f 5fd0 f13f 174a 0840
00000030: 6ae9 403f e502 4fbf dab0 3040 17ed ed3f
00000040: 8e08 a33f 6959 9fbe 721e 2c40 069a 8438
00000050: f9ef 5f3e 818e 71bd 2fa2 0b40 7190 b73f
00000060: 6f1e 3640 4725 eb3f b6ed 573d 5c84 4540
00000070: 4768 4ebf 5e73 883f 2275 1540 63d7 b8be
00000080: 0c77 4ebc 9e08 a53f 6d90 82be eed1 ee3f
00000090: 3c32 a6be ff60 aabf 80ed cbbf c1c9 26c0
000000a0: eef2 be3f 66cb 1f40 0637 04c0 dc4f 88be
000000b0: d9cc f63f 776b 7fbf 2294 6abf 4c96 ab3e
000000c0: cdc5 8abf 0eb3 673d fa45 ee3e d349 09bf
000000d0: e58c fd3d de3c a33f 4ddd ef3f 1e26 47c0
000000e0: 8fb9 603f 4158 1440 f54a 493e d405 4ebe
000000f0: 0933 b93f d80c c93f a29f d03f 970a b0bf
1.8149056 1.5429881 1.7378196 0.09666125 1.4390255 -1.032584 0.8262693 2.9678135
0.21850273 0.8728881 1.8891715 2.129522 0.7535616 -0.8086379 2.7607942 1.8587979
1.2736986 -0.31122902 2.6893582 6.3229396e-05 0.21868886 -0.058973793 2.181774 1.4340955
2.8456075 1.8370751 0.052716933 3.0862036 -0.80627865 1.0660207 2.3352742 -0.36101827
-0.012601625 1.2893255 -0.25500813 1.8657815 -0.324602 -1.3310851 -1.5931854 -2.606064
1.4917886 2.4967895 -2.0658584 -0.26623428 1.9281265 -0.99773353 -0.9163228 0.33513105
-1.0841614 0.056567244 0.46537763 -0.5362827 0.12380389 1.275295 1.8739411 -3.1117015
0.8778314 2.3178866 0.196575 -0.20119411 1.44687 1.5707045 1.6298716 -1.3753232

bn2.running_var f4 [64]
00000000: 95be 0141 9669 9740 8db3 1e40 10c3 6240
00000010: 3d7a 6040 8553 5940 94d1 2d40 8ed2 4241
00000020: f0b9 8c40 3d78 2b40 82da ce40 d7ff 3640
00000030: 97ee 0240 c325 8040 ee3f 0941 1044 e240
00000040: 678e 8f40 6a1f 4840 b582 4641 c916 ae40
00000050: 8018 3940 03fc 2a40 83a6 1f41 89a8 843f
00000060: c9da f840 0d62 7440 ba14 0b40 d8ac 5e41
00000070: 9e50 0b40 e81e 4440 0d7c d840 2e10 6240
00000080: 7003 7940 8481 af40 77b1 d03f 7d0a 1141
00000090: c557 ba40 6903 a140 f24b 1d40 5ca9 c640
000000a0: 4f44 7040 e252 1141 e930 0941 2ea4 2640
000000b0: 46cd bc40 10d8 8c40 d990 3440 7048 0b40
000000c0: 61c5 3140 330c 0140 57cf 2a40 2259 5640
000000d0: 1af1 4840 8c03 c740 3f9b 9440 7124 5741
000000e0: 6249 5440 4a25 ea40 65bb 9340 41a5 8440
000000f0: dc4d 5140 4090 e340 c521 e740 dbbb bd40
8.109029 4.731639 2.479709 3.5431557 3.5074608 3.3957226 2.7159166 12.176405
4.3976974 2.6792138 6.4641733 2.8593652 2.0458124 4.0046096 8.578108 7.0708084
4.486133 3.1269174 12.406911 5.4402814 2.8921204 2.6716316 9.978152 1.0363933
7.776707 3.8184845 2.17314 13.917198 2.1767955 3.0643864 6.765143 3.5322375
3.8908348 5.48456 1.6304158 9.065061 5.823214 5.0316663 2.4577603 6.2081738
3.7541692 9.082735 8.574441 2.6037707 5.900058 4.401375 2.8213408 2.1762962
2.777672 2.0163696 2.668905 3.3491902 3.1397157 6.219183 4.643951 13.446397
3.316979 7.317052 4.6166253 4.1451726 3.2703772 7.1113586 7.2228723 5.9291816

bn3.weight f4 [64]
00000000: f88c 853f 7b10 863f 37c3 853f 26ad 853f
00000010: 7804 863f 5fbd 853f 23fe 853f f6f5 853f
00000020: 5aa1 853f 009b 853f ffc0 853f 19fb 853f
00000030: c5a7 853f 8fa4 853f 4fa7 853f 2cd1 853f
00000040: afe3 853f 8891 853f 06e2 853f 56ca 853f
00000050: e4ed 853f 25e3 853f 5015 863f d59f 853f
00000060: 73a6 853f 30f4 853f 1b09 863f c39a 853f
00000070: 3fa1 853f 021b 863f a3d3 853f 50f7 843f
00000080: 34e1 853f 7be6 853f 78a3 853f 4bf7 853f
00000090: ce9a 853f 99a5 853f fac6 853f b033 863f
000000a0: c6d7 853f 3bf0 853f 7e0b 863f 7b9e 853f
000000b0: c187 853f 1deb 853f afcf 853f 89d4 853f
000000c0: f8e2 853f 2e95 853f def5 853f 52be 853f
000000d0: 34a2 853f 7d6e 853f bca4 853f 77e7 853f
000000e0: ddfe 853f 14df 853f c3ce 853f 507b 853f
000000f0: 73a3 853f ccea 853f a3f2 853f 58d2 853f
1.0433645 1.047378 1.04502 1.0443466 1.0470114 1.0448416 1.0468181 1.0465686
1.0439866 1.0437927 1.0449523 1.0467254 1.0441824 1.0440844 1.0441684 1.0454459
1.0460109 1.0435038 1.0459602 1.0452373 1.0463223 1.0459944 1.0475254 1.0439402
1.0441421 1.0465145 1.0471529 1.0437855 1.0439833 1.0476992 1.0455211 1.0387974
1.0459352 1.0460962 1.0440512 1.0466093 1.0437868 1.0441161 1.0451348 1.0484524
1.0456474 1.0463938 1.0472257 1.0438989 1.0432054 1.0462376 1.0454005 1.0455486
1.045989 1.0436151 1.0465658 1.0448706 1.0440125 1.0424343 1.0440898 1.0461262
1.0468403 1.0458703 1.0453724 1.0428257 1.0440506 1.0462279 1.0464672 1.0454817

bn3.bias f4 [64]
00000000: 73be 393d 5646 1e3d 8f94 3c3d 2ffa 3d3d
00000010: 6dfb 0f3d a743 3a3d 58a3 3d3d ccd9 083d
00000020: 3f76 333d c968 3e3d efc9 293d 3c8e 393d
00000030: 31b5 403d 760d 3c3d c0bf 1f3d 6a67 3a3d
00000040: 3b48 363d 8427 2b3d b814 1b3d cfb8 3a3d
00000050: 7482 3d3d 0605 303d eb6d 363d 0e8f 313d
00000060: 071d 323d 897a 2e3d c5da 2f3d d79a 2f3d
00000070: b0da 313d 0987 313d 5e7e 393d 4bb7 2c3d
00000080: 36ed 383d bc94 303d c498 3a3d 9be1 343d
00000090: 1096 303d 4798 3c3d f123 3c3d 0c6b 443d
000000a0: a246 303d 41f8 313d cb8b 3e3d 1a9e 323d
000000b0: 5087 3e3d 2eb8 3a3d ead8 2f3d 0f7d 343d
000000c0: 0832 3f3d 1459 2d3d 5291 423d 7f53 2e3d
000000d0: a4ba 483d 8222 283d 9f84 393d 2214 343d
000000e0: 6290 373d 87f0 353d f89f 3f3d feb2 273d
000000f0: 9558 323d 7ee1 3b3d a53d 283d ba2a 363d
0.045347642 0.038641296 0.046040114 0.04638117 0.035151888 0.045474675 0.046298355 0.033410832
0.04381394 0.04648665 0.041452345 0.04530166 0.047047798 0.045911275 0.039001226 0.04550878
0.044502478 0.041785732 0.037861556 0.045586403 0.046266988 0.04297354 0.04453842 0.04334932
0.043484714 0.042597327 0.042933244 0.042872276 0.043421447 0.04334167 0.04528653 0.04216699
0.045148097 0.043110594 0.045555845 0.044160467 0.04311186 0.04604366 0.045932714 0.04795365
0.04303611 0.043449644 0.046520036 0.04360781 0.046515763 0.045585804 0.042931475 0.044064578
0.046678573 0.04232128 0.04750187 0.042560097 0.04900612 0.041048534 0.045292493 0.043964513
0.04481543 0.044418838 0.046783417 0.040942185 0.04354151 0.045869343 0.041074414 0.04447434

bn3.running_mean f4 [64]
00000000: 09a5 fb3f 59b3 76bf 787d 1f3e bc71 1240
00000010: 0c8c 1940 5ecf 2140 32a7 cf3f 20ed cb3f
00000020: 3c8c 7bbf b033 1b3f 7337 af3f 2be8 1cbf
00000030: 010c 2e3f a07c 3240 b3b6 843f 76fb d63e
00000040: c0ca af3f ac3c 0740 8c24 bc3e 2eef 0140
00000050: f15a 8dbe 09cc a33f b198 0a3d 1dc7 cc39
00000060: 3f8c 063f 8a1b 8bbf 3647 9d3e ffbf ba3f
00000070: 8ddf 103e 054a afbf 0005 903f 94aa 073c
00000080: 3b37 bd3f 3cdf cfbf e9b2 0340 b219 f13e
00000090: b06a 1240 ec16 3040 6e96 8e3f 51da a63f
000000a0: 9ad4 413f ecb7 7a3e d0f9 273e d397 af3f
000000b0: 574a 903f e73f 47bf 328e 65bf 93ab 0040
000000c0: 3573 9e3f 20d9 1940 e12f 0040 bf33 703f
000000d0: 9b73 f53f 0f44 233e 533e 2040 5895 883f
000000e0: 4da5 3dbe ecd5 ad3f d764 d4bd b24c e43f
000000f0: 3596 cb3f 6755 c8be 76d3 c73e 2247 0c3e
1.965974 -0.9636741 0.15575206 2.2881918 2.3991728 2.5282817 1.6222899 1.593174
-0.98260856 0.60625744 1.3688797 -0.6129176 0.67987067 2.7888565 1.0368255 0.41988724
1.3733749 2.113078 0.36746633 2.0302234 -0.27608445 1.2796642 0.033837024 0.00039058263
0.5255775 -1.0867779 0.30718392 1.4589843 0.14147778 -1.3694464 1.1251526 0.008280415
1.478248 -1.6240001 2.0577948 0.47089916 2.2877617 2.751399 1.1139657 1.3035375
0.7571503 0.24484223 0.1640389 1.3718208 1.1272687 -0.7783188 -0.896701 2.010472
1.2378908 2.4038773 2.0029223 0.9382896 1.9175905 0.15943931 2.503804 1.0670576
-0.18520088 1.3580909 -0.10370796 1.7835906 1.5905215 -0.39127657 0.3902852 0.1369901

bn3.running_var f4 [64]
00000000: 2ed3 0e40 df7e a03f 373c 3a3f a05e d33f
00000010: 4aab 4a3f 1dc4 4c3f d71d 873f 6bc7 873f
00000020: fd4b 553f 0831 f43e d156 ad3f ac1d 3d3f
00000030: 4347 803f 9140 343f bd15 a63f f240 f13f
00000040: e3e0 8b3f 14e9 3040 43be a13f 43c2 3e3f
00000050: 028c 303f d0e6 893f b2c8 763f 16a0 9d3f
00000060: 3a7d ed3f b350 bb3f d99f 333f ef62 2840
00000070: ad6e 6c3f 13d2 cc3f fadd 1f40 f2d5 b43f
00000080: 32fd 0b3f 3c8c 2c3f cfad 5140 56ea a83f
00000090: ed18 ea3f 4914 1f3f 3a76 823f a079 be3f
000000a0: cc18 c53f 88c7 963f e0a7 513f 830b 3a3f
000000b0: cb97 533f 39ca 893f 1748 d63f c721 563f
000000c0: b0b6 e73f 307a d33f b05e 053f 6f01 b43f
000000d0: 220a aa3f 8429 0440 791b d93f 1e81 df3f
000000e0: 7da3 733f 8ce7 0f3f d546 663f 89da ef3f
000000f0: 5565 683f b4fc 3940 f48f 1c3f ad56 d13f
2.2316394 1.2538718 0.7274813 1.6513252 0.79167616 0.79986745 1.0555981 1.0607733
0.83319074 0.47693658 1.3542119 0.738734 1.0021747 0.7041102 1.2975384 1.8847945
1.0928005 2.764226 1.2636188 0.7451517 0.68963635 1.0773563 0.96399987 1.2314479
1.8553841 1.4634002 0.70165783 2.6310384 0.9235638 1.600161 2.4979234 1.4127791
0.5468322 0.6740148 3.2762334 1.3196514 1.8288857 0.6214033 1.019233 1.4880867
1.5398192 1.1779642 0.8189678 0.72673815 0.8265349 1.0764838 1.674075 0.8364529
1.8102627 1.6521664 0.52097607 1.4062937 1.3284342 2.065034 1.6961509 1.7461278
0.9517134 0.5621269 0.8995183 1.8738567 0.9077962 2.9060488 0.61157155 1.6354576

fc.weight f4 [5, 64]
00000000: f758 283c dc7a ce3b fe5a bd3a d66b 2a3c
00000010: f4d1 fe3b 6a44 e0ba 3435 2a3c c678 3dbc
00000020: 253d 23b9 c66d dd3a 0166 e43b 25a5 39bb
00000030: d1fd 2f3c 6988 ff3b 17db 33ba 072a 973c
00000040: 8054 2b3c 417b 8cba 5631 0c3c 4e93 fb3b
00000050: b4a5 653a 9ac0 353c 2d91 7c3c 1586 8f3b
00000060: 9261 893b 139a 1cba 8f22 aa3a 10d8 ccbb
00000070: 686b 983b 8f7d 363c d1aa 8c3c 02c9 293c
00000080: 9b35 663c f31e a33b 4aee 8f3c 58bb 803c
00000090: ee8b 813b c2e0 e43b ccc2 873c 7809 133c
000000a0: 7e31 243c 11bd 603c acd2 7e3b 5b5a 53bb
000000b0: f211 05bb 6fcd dbbb f561 bb3b 330c 1b3b
000000c0: 6315 af3b 613e ad3c 13f1 43bb 112e 1e3c
000000d0: d436 433b 6c37 9f3c b5d0 653c 59b1 ac3b
000000e0: c2a3 8b3c 446f 25ba 793a f43b b670 503c
000000f0: 1df6 123c 1949 eaba 504a 763b 732f 1a3b
00000100: 7608 a8bb 2f95 61bb 1803 80bb a5f2 8e3b
00000110: 37c5 263b b0c0 56bc 1012 14bc a8eb f9ba
00000120: 7f14 0dbc 31eb 99ba 593a 4abb e25d 49bc
00000130: be32 2e3b d8e6 703b 635d b1bb d5f2 4ab9
00000140: 5dbe 8339 ef64 d4bb f760 cebb ff0a b3bb
00000150: 5003 2bbc ecba 7e3a a45c de3b 558d 04bc
00000160: cd1e 3ebc 733e 90bb 8ecc d7bb 6719 24bc
00000170: a513 97bb 5aa0 033b 7d4a e739 093d c03b
00000180: d620 46ba c01b cfbb 25c4 4b3a f1c1 f43b
00000190: 1679 14bc 1fe6 3f39 8d3e d83a 112a 57bc
000001a0: c655 f13a 1b3f 233c 066c 0cbb ee46 8dbc
000001b0: 49d3 3ebc 158e 8ebc ddd2 0ebc 0325 f8bb
000001c0: 7013 26bc 6bf6 cfbb b86c 74bc 1759 33bb
000001d0: a66d 10bc b08f 9e3b 564e dd3b 37f3 0bbc
000001e0: 5f7f 7a3b 027a 1ebc 87fc 30bb 07ed 5abb
000001f0: 2beb 383b a1c2 34bc ed81 bbbb b473 9cbb
00000200: a564 ff3b f380 273c f9a3 e73b 5aed 813c
00000210: 193d 913c a0b3 99ba 0019 863b 8063 fa3b
00000220: de07 c93b 0a05 f13b 5f44 7f3b 1d33 9a3b
00000230: 48f6 283c cd9c 483c 2156 603b 3029 853c
00000240: 87d6 1f3c 673a 4f3c 2d32 143c 85a2 6f3b
00000250: 9bce b73b da0d 9c3c 8c96 8f3c f0dc 263c
00000260: df19 e13b f7e1 df3b c624 5539 abe0 623c
00000270: 487e 853b b11c 383c 8ec3 863c d179 653c
00000280: e721 3d3c f788 0b3c 1d12 733c 654b a83c
00000290: 2154 14ba bf48 2f3c 62dc 663c 0c83 733c
000002a0: 5d26 883c 28a5 923c 43a0 783b 7ac8 71bb
000002b0: 1947 9bba 9da8 35bb 58c0 023c b5f2 5e3b
000002c0: 7881 2eba f87e 7b3c 6ba3 313b 405a cb3b
000002d0: fcf6 bb3a fe55 963c 4e4a 4c3c 7808 4c3b
000002e0: 3539 8f3c 3431 d73a a686 4b3c a203 523c
000002f0: ca0a 143c 678d a53b 26d1 3d3c 792a 123c
00000300: 35b9 c1bb 3945 a2bb ebb2 b1bb e016 94bb
00000310: 2b05 1e3b 6a52 76bc 82e3 15bc 72b5 1fbc
00000320: b36a 82bc 86b0 adbb 4ad6 e6bb f2bc adbb
00000330: e348 223b 5781 e839 d4ed e9bb 9a07 643b
00000340: cb71 9eba 95c2 12bc c841 b1bb 6bf8 17bc
00000350: 1e73 3fbc 9a1a a1b9 ae57 c83b 247a 44bb
00000360: 2076 a8bb 0b2a 85bb 38e2 b3bb 1e4a d0ba
00000370: 27a3 39bb 69c3 cc3a 48d4 4ebb 121a fe3b
00000380: b0b4 ff3a ccc6 8abb 9bac 783a 6def 7ebb
00000390: f653 24bc 9677 e3bb 100e 023b 0add 4b3a
000003a0: 0aa7 6f3b 2ea9 dc3b 3ee1 c0bb 7736 01bc
000003b0: c2a7 0fbc 2c59 68bc 711d a1bb 8ab9 09bc
000003c0: ed9d 33bc 7451 b53a 1781 7ebc 8794 b3ba
000003d0: 2854 31bc d839 483b ef08 ae3b 3f23 edbb
000003e0: 3d9e 823b f5ef 8dbc ed8a d1bb 429f 72b8
000003f0: 13cf 48bb a7d6 e6bb 3eba b83a dbef 86bb
0.010275117 0.006301267 0.0014446673 0.010401687 0.007776493 -0.0017110233 0.010388661 -0.011564439
-0.0001556767 0.0016893677 0.0069701676 -0.0028327194 0.010741667 0.007798244 -0.0006860955 0.018452657
0.010457158 -0.0010717885 0.0085566845 0.007677472 0.00087603484 0.011093283 0.015415472 0.0043799975
0.0041925395 -0.00059738866 0.001298027 -0.0062513426 0.0046514757 0.011138334 0.017171295 0.010362865
0.0140508665 0.0049780547 0.01756968 0.015714332 0.0039534485 0.006984801 0.016572379 0.0089744255
0.0100215655 0.013716952 0.0038882894 -0.00322499 -0.0020304886 -0.006707839 0.0057184645 0.0023658394
0.0053431257 0.021147909 -0.002989833 0.009654538 0.0029787319 0.019435607 0.01402681 0.005270165
0.01704586 -0.00063108304 0.0074532595 0.012722185 0.008969811 -0.0017874568 0.0037580915 0.0023526817
-0.0051279617 -0.0034421196 -0.003906619 0.0043624216 0.002544714 -0.013107464 -0.00903751 -0.0019067423
-0.008610844 -0.0011743066 -0.0030857532 -0.01229045 0.0026580538 0.0036758687 -0.005412744 -0.00019354683
0.000251281 -0.006481759 -0.00629818 -0.0054639573 -0.0104378015 0.00097171846 0.006785946 -0.008090337
-0.011604023 -0.004401976 -0.006585664 -0.010015822 -0.004610496 0.002008459 0.00044115252 0.005866651
-0.00075579935 -0.0063204467 0.0007773063 0.0074694087 -0.009062072 0.00018300906 0.0016498134 -0.013132588
0.0018412403 0.009963776 -0.0021426692 -0.017245736 -0.011647054 -0.017401734 -0.008717266 -0.0075727715
-0.01013647 -0.006346514 -0.014918499 -0.0027366334 -0.008815205 0.004838906 0.006753723 -0.008541874
0.0038222892 -0.009672644 -0.0027005987 -0.003340544 0.0028216343 -0.011032731 -0.0057222755 -0.004774535
0.00779398 0.010223615 0.0070691076 0.015860248 0.017729329 -0.0011726506 0.0040923357 0.007641256
0.006134971 0.007355337 0.0038950664 0.0047058 0.010312624 0.0122444155 0.0034231024 0.016254991
0.009755737 0.012648202 0.009045166 0.0036565375 0.005609346 0.019049574 0.017527841 0.010184512
0.006869539 0.006832357 0.00020326962 0.01384751 0.004073892 0.011237309 0.01645067 0.014006094
0.0115437275 0.008516542 0.0148358615 0.020543763 -0.0005658288 0.010698496 0.014090629 0.014862787
0.016619856 0.017901018 0.003793732 -0.0036893175 -0.001184675 -0.002771891 0.007980429 0.0034019176
-0.00066568656 0.015350096 0.0027105461 0.006205827 0.0014340575 0.018351551 0.0124688875 0.0031132977
0.017483333 0.0016417862 0.012422239 0.012818249 0.009035775 0.005052257 0.011585509 0.008921259
-0.005911971 -0.0049520996 -0.00542294 -0.0045193285 0.0024111967 -0.0150342975 -0.00914848 -0.00974785
-0.015920019 -0.0053005842 -0.007044588 -0.005302065 0.0024762682 0.00044346854 -0.007138947 0.003479457
-0.0012088356 -0.008957525 -0.005409453 -0.009275536 -0.011685161 -0.00030728133 0.006113968 -0.0029980028
-0.0051410347 -0.00406385 -0.005489614 -0.0015891229 -0.0028326006 0.0015622202 -0.0031559635 0.0077545727
0.0019508805 -0.004235124 0.00094861694 -0.0038900033 -0.0100297835 -0.006941746 0.0019844808 0.0007776773
0.003656807 0.006734035 -0.005886226 -0.007886521 -0.008768024 -0.0141814165 -0.00491684 -0.008406052
-0.010962945 0.0013833479 -0.015533707 -0.0013700881 -0.010823287 0.0030552056 0.0053111236 -0.0072368677
0.0039861486 -0.017326334 -0.006394735 -5.7845617e-05 -0.0030641004 -0.0070446315 0.001409359 -0.0041179485

fc.bias f4 [5]
00000000: 512a 833f 13b1 793f afd3 843f e6d1 773f
00000010: c542 793f
1.0247289 0.9753582 1.0377101 0.96804655 0.9736751
