maml-notebook_original_test/maml-notebook/completed_model/model-epoch_00019-train_loss_0.154-train_acc_0.826-test_loss_0.618-test_acc_0.818.pt (torch_old, 305688 bytes, 20 tensors)

conv1.weight f4 [64, 1, 3, 3]
0	0x3cbb0deb	0.022833785
1	0xbcfbd2e6	-0.030740213
2	0xbaad1b4f	-0.0013206991
3	0xbd7fabde	-0.062419765
4	0xbc97059b	-0.01843529
5	0xbd6d8fc5	-0.057998437
6	0xbd9f2eaf	-0.07772576
7	0x3d863cba	0.065545514
8	0x3d289268	0.04115525
9	0x3da33054	0.07968202
10	0xbd20117a	-0.039079167
11	0xbb829813	-0.003985414
12	0x3b6f67c5	0.0036530357
13	0x3d1458a5	0.03621735
14	0xbdd276c7	-0.10276561
15	0xbcee8772	-0.02911732
16	0x3d86d306	0.06583218
17	0x3c7ade47	0.015311784
18	0x3d99f60f	0.07517635
19	0xbe133b37	-0.14378057
20	0x3d52dc92	0.051479883
21	0xbb03f925	-0.0020137515
22	0x3d920540	0.071299076
23	0xbd0bcf99	-0.034133527
24	0x3e1b6dac	0.15178555
25	0x3da26e3c	0.07931182
26	0x3d380e8d	0.04493575
27	0xbc977772	-0.018489573
28	0xbdef0992	-0.11671747
29	0x3d407c73	0.046993684
30	0x3d0fd4f1	0.035115186
31	0xbc07d552	-0.008290606
32	0xbce26f6e	-0.027641024
33	0xbd0bd0e3	-0.034134757
34	0x3b84afd3	0.00404928
35	0xbd106ee3	-0.035262
36	0x3e35c769	0.1775185
37	0xbc53be59	-0.0129238
38	0x3d196fb3	0.03746004
39	0x3d66fb5a	0.05639205
40	0x3be097b0	0.00685402
41	0x3c936050	0.017990261
42	0xbcd6260f	-0.026141195
43	0x3db9662f	0.09052693
44	0xbdaecf9c	-0.08535692
45	0x3d519b09	0.051173244
46	0x3e17f289	0.14838614
47	0xbca71604	-0.02039624
48	0x3c4b77a6	0.012418663
49	0x3de4d87f	0.11174106
50	0xbcb14dd5	-0.021643559
51	0x3ca2e09b	0.01988249
52	0x3d3834fe	0.044972412
53	0x3da936ef	0.08262431
54	0xbcd8da5c	-0.02647131
55	0xbcefdbfd	-0.029279703
56	0x3d7c743c	0.061634287
57	0x3d31aca5	0.043377537
58	0xbcb3a090	-0.021927148
59	0xbbc966fc	-0.00614631
60	0xbbcac0fa	-0.0061875554
61	0xbbb0de05	-0.0053975605
62	0x3ccd1aa4	0.025037117
63	0x3c479a22	0.012182744
64	0x3dd35ccd	0.10320435
65	0xbd1ade63	-0.03780974
66	0xbd8b68d7	-0.06807106
67	0x3d613a50	0.05498725
68	0x3b1a968d	0.002358827
69	0xbcd9bb18	-0.026578471
70	0x3d17b6bd	0.037039507
71	0xbd2207d3	-0.039558243
72	0xbb1e7b37	-0.0024182328
73	0xbbb2b4d1	-0.005453684
74	0x3caf720e	0.02141669
75	0x3dabe9ba	0.08394189
76	0xbd86a249	-0.06573922
77	0x3db283b6	0.08716528
78	0x3bcd4209	0.0062639755
79	0xbdee2a49	-0.11629159
80	0xba5bb8bf	-0.00083817163
81	0xbcc2bb4d	-0.023770953
82	0x3d092edc	0.033491954
83	0xbd8bc604	-0.06824878
84	0x3c66fe9a	0.014098788
85	0x3c2ef842	0.010679306
86	0x3d434bfe	0.047679894
87	0x3d1dde99	0.038542364
88	0x3d239464	0.03993644
89	0x3d7c451c	0.061589345
90	0xbe150819	-0.1455387
91	0x3e016753	0.12637071
92	0x3bfc045b	0.007690949
93	0xbd4661b2	-0.048433013
94	0x3d065ff2	0.032806344
95	0x3ab32be6	0.0013669699
96	0x3ceabaa7	0.028653456
97	0x3c34397a	0.011000032
98	0xbd306731	-0.04306716
99	0x3d230411	0.0397988
100	0xbd591645	-0.052999754
101	0x3d6df1f9	0.05809209
102	0xbd9f5451	-0.07779754
103	0x3d033aa7	0.032038357
104	0x3d49430c	0.049136207
105	0xbdce6bb3	-0.10079136
106	0x3dad003a	0.08447309
107	0x3d71402c	0.05889909
108	0x3d6e585f	0.058189746
109	0xbc02601d	-0.0079574855
110	0xbcf8c730	-0.030368418
111	0x3bcff64d	0.0063465
112	0x3cf70bfb	0.03015708
113	0x3c59898e	0.0132774245
114	0x3d41c688	0.047308475
115	0x3dbd9c5b	0.09258338
116	0x3bb93697	0.0056522596
117	0x3c510a8d	0.012758863
118	0xbd0463c3	-0.032321703
119	0x3d5d1b0a	0.053980865
120	0xbdea4d64	-0.11440542
121	0x3b71aba7	0.0036875994
122	0xbd1fc90d	-0.039010096
123	0xbdc1984c	-0.094528764
124	0xbc8a73c6	-0.016900908
125	0xbdac5d14	-0.08416191
126	0x3d05db3b	0.032679778
127	0x3cf94f66	0.030433368
128	0x3d90dbc4	0.07073167
129	0xbda3091d	-0.079607226
130	0xbc84cb33	-0.016210174
131	0xbc20d200	-0.009815693
132	0x3908157f	0.00012977979
133	0x3d7aad14	0.061200216
134	0x3c3b00b2	0.01141374
135	0x3df9061f	0.12159371
136	0x3d1c7842	0.038200624
137	0x3ba86254	0.0051386748
138	0xbd2067f4	-0.039161637
139	0xbdba9e24	-0.09112194
140	0xbd435fee	-0.047698908
141	0x3dc47e5c	0.09594414
142	0x3dd7e84c	0.10542354
143	0x3c5f34ee	0.013623459
144	0xbc0ac456	-0.008469662
145	0x3d579b5e	0.052638404
146	0x3d4eae9e	0.050459497
147	0xbdac4215	-0.08411042
148	0x3c5e3675	0.013562788
149	0xbcb209c2	-0.021733169
150	0xbcfead55	-0.03108851
151	0x3c7ea10d	0.015541327
152	0x3d07d49a	0.033161737
153	0x3d96794c	0.07347354
154	0x3d855e70	0.06512153
155	0x3cd6ed3e	0.026236173
156	0xbcac14ce	-0.021006014
157	0xbcb08bdb	-0.021551063
158	0xbcdf68d9	-0.027271675
159	0x3c00b096	0.007854601
160	0xbcafc4db	-0.021456173
161	0x3d2e1e62	0.042509444
162	0x3da3a416	0.07990281
163	0xbc82c601	-0.015963556
164	0x3c6dddc6	0.014518207
165	0x3d2e8f01	0.042616848
166	0x3d449e9f	0.048002835
167	0x3d602e7f	0.054731842
168	0xbd2ecba3	-0.04267467
169	0xbdc54c45	-0.09633688
170	0xbd80041c	-0.06250784
171	0xbdd9d56f	-0.10636412
172	0xb8dc2eb1	-0.000104991144
173	0xbdbf55ae	-0.09342514
174	0x3ccae101	0.024765493
175	0x3d2003ca	0.039066114
176	0x3cb370f6	0.02190445
177	0x3ce60577	0.028078778
178	0xbd30a0f3	-0.043122243
179	0x3c0fc47b	0.008774872
180	0xbc907a13	-0.017636335
181	0xbc50ca15	-0.012743493
182	0xbc364f49	-0.0111273015
183	0xbcaee8f1	-0.02135131
184	0xbd24cfa9	-0.040237103
185	0xbc354bc6	-0.011065429
186	0x3d39ceb2	0.045363136
187	0x3d667cd5	0.056271393
188	0x3dea671f	0.1144545
189	0xbd83fc7a	-0.064446405
190	0xbc12ee44	-0.00896794
191	0xbb755c03	-0.0037438876
192	0xbc5c431e	-0.013443736
193	0x3d96836b	0.07349285
194	0xbd79ab8a	-0.060954608
195	0xbbb4de16	-0.005519639
196	0xbcbcd10f	-0.023048906
197	0xbdc7617e	-0.09735392
198	0x3c220725	0.009889399
199	0xbdc93be9	-0.0982588
200	0x3db40f64	0.08791998
201	0xbd9dd575	-0.07706729
202	0xbd53ba34	-0.05169125
203	0x3d670d11	0.056408945
204	0xbcca797a	-0.024716128
205	0xbde7ace4	-0.11312273
206	0x3c2c62f0	0.010521635
207	0xbc917042	-0.017753724
208	0xbc1664f6	-0.009179344
209	0x3d9c6c71	0.07637871
210	0x3d0c90ab	0.034317654
211	0xb9e185ab	-0.00043014935
212	0x3d89513a	0.06704946
213	0x3c103b87	0.008803255
214	0xbdd1fd20	-0.10253358
215	0x3d265d3b	0.040616255
216	0x3d369f41	0.04458547
217	0xbd1389b6	-0.036020003
218	0xbc922fec	-0.017845117
219	0x3c988dff	0.018622397
220	0x3ca51773	0.020152783
221	0xbd624e46	-0.05525043
222	0x3d578e55	0.052625973
223	0xbc2da126	-0.010597503
224	0xbcf28e86	-0.029608976
225	0x3c4eb6ee	0.012616856
226	0x3d447f34	0.047972873
227	0xbb88cde1	-0.0041749333
228	0xbd1eb8c8	-0.03875044
229	0xbda77a7e	-0.081776604
230	0xbdd2f1d7	-0.103000335
231	0xbdf3c5e1	-0.11902977
232	0x3b4e477f	0.003147572
233	0xbbfcca0c	-0.0077145156
234	0xbd41b792	-0.047294207
235	0x3d4d8475	0.05017515
236	0x3cd08214	0.025452651
237	0x3d715d3e	0.058926813
238	0xbd6269c3	-0.055276643
239	0x3db37119	0.08761806
240	0x3d38eeb1	0.04514951
241	0x3d785d08	0.060635597
242	0xbd337368	-0.04381123
243	0x3dcdee09	0.10055167
244	0xbd619743	-0.055075895
245	0xbace3417	-0.0015732077
246	0x3a3af739	0.0007132176
247	0xbd4e19bf	-0.050317522
248	0x3d03a692	0.032141276
249	0xbd09abef	-0.033611234
250	0xbbb717e4	-0.005587565
251	0x3ddb502f	0.10708653
252	0xbbb5156d	-0.005526236
253	0xbb210d8e	-0.002457473
254	0x3d933b8b	0.07189091
255	0xbc41dce8	-0.011832453

conv1.bias f4 [64]
0	0x3b4c737d	0.0031196766
1	0x3ba6e27b	0.0050929165
2	0x3b387ebc	0.0028151711
3	0x39558030	0.00020361017
4	0xbbacb566	-0.005270648
5	0x3aac10bc	0.0013127546
6	0xbb4222cf	-0.0029622798
7	0xbc187aea	-0.009306649
8	0xbb0ab53e	-0.0021165158
9	0x3ba061c0	0.004894465
10	0xba8d40b9	-0.0010776735
11	0xba7711f8	-0.000942498
12	0xbb015863	-0.001973652
13	0xbc162f3c	-0.009166535
14	0xbbd328cf	-0.0064440737
15	0xbaaf8aa0	-0.0013392754
16	0x3bc630db	0.0060483045
17	0xbafb3b1a	-0.0019167394
18	0x3b975dce	0.0046193367
19	0xbb2b0684	-0.0026096413
20	0x3acb3273	0.0015502706
21	0x3b591b9c	0.0033128029
22	0xbb108610	-0.0022052564
23	0x3a5dbcd8	0.0008458621
24	0xba8e7082	-0.001086727
25	0x3bb707da	0.005585653
26	0x39b8ef72	0.00035273616
27	0xbbaa83ca	-0.0052036988
28	0x3b9c2bda	0.0047659697
29	0xbbfc3ec8	-0.007697914
30	0xbb1654c0	-0.0022938699
31	0x3b3ff93f	0.002929285
32	0xbc098f39	-0.008395963
33	0x3b0019f4	0.001954672
34	0x3babd56c	0.0052439477
35	0x3b75b4f3	0.0037491887
36	0x3b649d4d	0.0034883798
37	0xb73400fa	-1.0729063e-05
38	0xbb45a7af	-0.0030159762
39	0xbb797602	-0.0038064723
40	0x3ba9dd5d	0.0051838593
41	0xbb590d71	-0.0033119584
42	0x3aa4593f	0.0012538804
43	0x3c24308d	0.010021341
44	0x3c219567	0.00986228
45	0xbbaf0158	-0.0053407364
46	0xbb0d665a	-0.00215759
47	0xbc193bc7	-0.009352631
48	0x3bfc8461	0.0077062105
49	0x3be31bd9	0.00693081
50	0x3b145ed8	0.002263954
51	0xbba0941a	-0.0049004676
52	0xbae6366c	-0.0017563826
53	0x3c1162a3	0.0088736145
54	0x3bba95f1	0.005694144
55	0xbbd9ad5e	-0.0066429814
56	0x39f0eac1	0.00045951272
57	0x3c1bb353	0.009503203
58	0xbb4bd84c	-0.0031104265
59	0xbbc0983a	-0.005877522
60	0xbc14ef33	-0.009090233
61	0xbc14195d	-0.00903925
62	0xbbe6330d	-0.0070251287
63	0x3c10b5da	0.008832419

conv2.weight f4 [64, 64, 3, 3]
0	0x3cc87675	0.024470547
1	0x3dbc48ff	0.091936104
2	0x3d5161e0	0.05111873
3	0xbb666a5e	-0.0035158615
4	0xbbf8a73b	-0.007588295
5	0x3d0b2239	0.033968184
6	0x3db2b3d7	0.08725708
7	0xbcb4de4a	-0.022078652
8	0x3cdd31b6	0.027001243
9	0x3cd751e4	0.026284166
10	0xba015432	-0.00049335056
11	0xbd371a35	-0.044702727
12	0xbc9215e7	-0.01783271
13	0xba748fdf	-0.00093293
14	0xbcb2ba18	-0.021817252
15	0x3d1d8dee	0.038465433
16	0xbc3fa326	-0.011696612
17	0x3d0cf0d8	0.034409374
18	0xbd4ede43	-0.050504934
19	0xbc816212	-0.015793834
20	0xbc48f4c3	-0.012265387
21	0x3bc28ef6	0.0059374524
22	0x3cae2e12	0.021262202
23	0xbd333b56	-0.04375776
24	0x3c97c758	0.018527672
25	0xbc612683	-0.013742092
26	0xbc6119d0	-0.013739064
27	0x3b5d1ef6	0.0033740378
28	0xbcf02443	-0.029314166
29	0x3c86e10f	0.016464738
30	0x3d5fa4fa	0.054600693
31	0xbd5230c4	-0.051316038
32	0x3ddfd7c2	0.109298244
33	0xbd63e633	-0.055639457
34	0xbcff9c38	-0.03120242
35	0xbcc39495	-0.02387456
36	0xbd8c37a7	-0.06846552
37	0xbd1e00c9	-0.038574968
38	0x3ac75bd0	0.0015209857
39	0x3d5b1360	0.053485274
40	0xbd8865ec	-0.06660065
41	0xbd20300d	-0.039108325
42	0xbbd57399	-0.0065140245
43	0xbc4380a2	-0.011932524
44	0xbc8cf66a	-0.017207343
45	0xbd3e47d4	-0.04645522
46	0xbe075df5	-0.13219436
47	0x3b3973b8	0.0028297734
48	0xbc49de9e	-0.0123211425
49	0xbd470852	-0.04859192
50	0x3b0b85d4	0.0021289485
51	0x3d6d98ea	0.05800716
52	0x3d0a9dd0	0.033841908
53	0xbca9604e	-0.020675804
54	0x3cba860d	0.022768999
55	0xbd1d6f09	-0.03843597
56	0xbcc58462	-0.024110977
57	0xbcd06cfb	-0.025442591
58	0xbdb08ba0	-0.08620381
59	0xbc01c1ba	-0.007919723
60	0xbc051421	-0.008122475
61	0xbd5e4a82	-0.054270275
62	0x3ca6aefe	0.020347115
63	0xbcd9fd16	-0.026609939
64	0xbd24eb3b	-0.040263396
65	0xbc9160e7	-0.017746402
66	0xbd384ae8	-0.04499331
67	0xbcab7af2	-0.020932648
68	0x3d47efd4	0.048812702
69	0xbc45b155	-0.012066205
70	0xbcb6077a	-0.022220362
71	0x3c97a6dd	0.018512184
72	0x3da66ba4	0.081259996
73	0xbc61c735	-0.013780405
74	0xbcb90f77	-0.022590382
75	0x3d81b848	0.06333977
76	0xbd064853	-0.032783817
77	0x3c42a323	0.011879715
78	0x3d0bfc36	0.034176074
79	0x3d0d64db	0.03452001
80	0x3ccdbf3a	0.025115598
81	0x3d7c05e4	0.061529055
82	0x3c5623df	0.013070076
83	0x3da10d03	0.0786381
84	0x3d03edb9	0.032209132
85	0xbb3c92dc	-0.0028774058
86	0x3c5da584	0.0135282315
87	0xbc7c227b	-0.01538908
88	0xbd3f9108	-0.046769172
89	0xbd7fa130	-0.06240958
90	0xbc431b37	-0.011908344
91	0x3b1c4944	0.002384738
92	0xbd6091ed	-0.054826666
93	0xbd1eee16	-0.038801275
94	0xbdd246ab	-0.10267385
95	0xbbfffd21	-0.0078121577
96	0xbd0e3355	-0.034716923
97	0xbd1dfce2	-0.038571246
98	0x3cb4039f	0.021974383
99	0xbd0b9508	-0.034077674
100	0xbbba9db1	-0.005695068
101	0xbd675160	-0.05647409
102	0x3b51fe38	0.0032042395
103	0xbc8b8f39	-0.017036067
104	0x3c5a2316	0.013314029
105	0xbd62a32f	-0.055331405
106	0xbd251460	-0.040302634
107	0x3cf9aa42	0.030476693
108	0x3ca922fb	0.020646563
109	0xbd29c084	-0.041443363
110	0xbca62009	-0.020278947
111	0x3dab593e	0.08366631
112	0x3cc9f767	0.024654103
113	0xbcc66224	-0.024216719
114	0xbc3c0f44	-0.011478249
115	0x3cb97f70	0.022643775
116	0x3cc69d1b	0.024244836
117	0x3b1e8834	0.002419007
118	0xbcdc2ae5	-0.026875922
119	0xbbf7dd22	-0.007564203
120	0x3c324cf5	0.010882606
121	0x3d2649d3	0.040597748
122	0x3d13016f	0.03589004
123	0x3c84c29f	0.016206084
124	0xbd180b46	-0.037120126
125	0x3be60343	0.007019432
126	0x3bbe0f37	0.0058001536
127	0xbc5913ac	-0.013249319
128	0x3c4374bf	0.01192969
129	0x3d6310fe	0.055436127
130	0x3d0e7116	0.034775816
131	0xbd1aaee6	-0.037764452
132	0xbc2aa39f	-0.010414987
133	0xbda53d58	-0.08068341
134	0x3d087e1d	0.033323396
135	0x3d8d175b	0.0688922
136	0x3cff71ba	0.031182159
137	0x384afa94	4.8393922e-05
138	0x3d8048b8	0.0626387
139	0xbad90366	-0.0016556799
140	0x3d17c39f	0.037051793
141	0x3d2a9333	0.041644286
142	0xbc386b7d	-0.011256096
143	0x3c86d480	0.01645875
144	0x3d022fb2	0.031783767
145	0xbd4df611	-0.050283495
146	0xbbedb28b	-0.00725395
147	0x3d207b41	0.039180044
148	0x3cba02a1	0.022706332
149	0xbc6185c6	-0.013764804
150	0xbb6d2265	-0.003618383
151	0x3d33a2df	0.043856498
152	0x3b7b4445	0.0038340252
153	0x3c5b32b3	0.013378787
154	0x3d9eea0e	0.07759486
155	0xbd31a02c	-0.043365642
156	0x3d194de8	0.037427813
157	0xbda709ff	-0.081562035
158	0xbd434cc6	-0.04768064
159	0xbd196b13	-0.03745563
160	0x3d441aab	0.047876995
161	0xbd1b7d59	-0.037961338
162	0x3d892ca1	0.066979654
163	0xbc7f9e57	-0.015601716
164	0xbd24a187	-0.040193107
165	0x3cb9fcfb	0.022703638
166	0x3bda7477	0.0066667157
167	0x3b3887a0	0.002815701
168	0x3d7bef90	0.06150776
169	0x3d4a869c	0.04944478
170	0x3d9b6a9d	0.07588694
171	0x3cf9a423	0.030473774
172	0x3ca65956	0.02030627
173	0x3d04026e	0.03222888
174	0x3d8a384d	0.0674902
175	0xbd58b017	-0.052902307
176	0xba3209d6	-0.0006791627
177	0x3dd6f029	0.10495026
178	0xbd21cd6d	-0.03950255
179	0x3d0bfd0c	0.03417687
180	0xbd17a240	-0.037019968
181	0xbcadd9fc	-0.021222107
182	0x3d82ecca	0.0639282
183	0x3d2303ef	0.039798673
184	0x3cfac28c	0.030610345
185	0xbdb517d7	-0.08842438
186	0x3d5bfc6e	0.053707533
187	0xbd0422b2	-0.03225965
188	0xbd44e2f2	-0.048067994
189	0x3d5bcf58	0.053664535
190	0x3d75dc97	0.060024824
191	0x3d2fe998	0.04294738
192	0x3c9195a4	0.01777155
193	0x3d690ade	0.05689513
194	0xbc6de407	-0.014519698
195	0xbcf6a118	-0.030106112
196	0xbc55a26d	-0.013039214
197	0xbbdd10fe	-0.0067464104
198	0xbcd547fb	-0.0260353
199	0xbc76c1a2	-0.015060814
200	0xbce1a403	-0.027544027
201	0xbcb35caa	-0.021894772
202	0x3c7000e6	0.014648652
203	0x3c3d7877	0.011564366
204	0xbd8e737f	-0.06955623
205	0x3c875871	0.016521664
206	0x3ca8a816	0.020587962
207	0x3c25ffde	0.010131804
208	0xbce59e9c	-0.028029732
209	0xbcbc6336	-0.022996526
210	0xbc028168	-0.007965423
211	0xbc606f03	-0.013698342
212	0xbcab39b4	-0.020901538
213	0xbd094e33	-0.033521842
214	0x3c40ab8d	0.011759651
215	0xbd9d4ee1	-0.076810606
216	0xbd0244e7	-0.03180399
217	0xbb9fd116	-0.00487722
218	0xbd2146cb	-0.039374154
219	0x3bdded05	0.0067726397
220	0xbd17a83c	-0.037025675
221	0x3c870f73	0.016486859
222	0xbd4eafdd	-0.050460685
223	0x3d7abe91	0.061216895
224	0xbb650635	-0.0034946327
225	0x3c5d3f4a	0.013503859
226	0xbd24344e	-0.040088944
227	0x3b85b6e8	0.004080642
228	0x3cb817f2	0.022472356
229	0x3cb6772c	0.022273622
230	0x3ccc72ea	0.024957139
231	0xbaac7e88	-0.0013160268
232	0xbd1f6e92	-0.038923807
233	0xbd0fe0dd	-0.035126556
234	0xbcb004de	-0.021486696
235	0x3c43e742	0.011956992
236	0xbc8d5a2d	-0.017254913
237	0x3cee7b20	0.029111445
238	0x3d0e6134	0.03476067
239	0xbd960ecf	-0.07327043
240	0x3b2fde9d	0.0026835569
241	0x3bec41d0	0.007209994
242	0x3ca57438	0.020197019
243	0x3b6a5557	0.0035756433
244	0x3d67b4eb	0.05656902
245	0xbc4dd1db	-0.0125622405
246	0x3d80859a	0.062754825
247	0xbb944208	-0.004524473
248	0xbc10d21e	-0.008839158
249	0xba07de73	-0.0005182989
250	0x3cea5d43	0.028608924
251	0x3d1465ac	0.036229774
252	0x3d84e4f6	0.06488983
253	0x3ccba6c8	0.024859801
254	0x3d5ae305	0.05343916
255	0x3d099e37	0.03359815

conv2.bias f4 [64]
0	0x3b5298d4	0.003213455
1	0xbae96c8c	-0.0017808839
2	0xbb95bdde	-0.004569753
3	0x37fcbf8b	3.0129935e-05
4	0xba9044ff	-0.001100689
5	0x3bbef342	0.0058273384
6	0x3bab7074	0.0052319113
7	0xbad5a5c7	-0.0016300016
8	0x3b1001d2	0.0021973741
9	0xbb4c1d78	-0.0031145494
10	0xbae1603c	-0.0017194818
11	0xbb55ae97	-0.0032605284
12	0xbaafdbeb	-0.0013416981
13	0xbb6f9381	-0.0036556425
14	0x3a6c79ac	0.0009020816
15	0x3b581294	0.0032970058
16	0x3b58d34b	0.0033084925
17	0xba381f18	-0.00070236763
18	0x3b059cb7	0.0020387599
19	0xba6ed30e	-0.0009110429
20	0xbb0a312f	-0.0021086445
21	0x3ae050f5	0.0017113971
22	0x3a345e8b	0.0006880543
23	0xbb9b5e2b	-0.0047414503
24	0x3a6e2019	0.00090837624
25	0x3b09ac3f	0.0021007208
26	0xb9a61391	-0.00031676565
27	0xbb052156	-0.002031406
28	0x3a0bb89b	0.00053299376
29	0x3aa9fd4a	0.0012969163
30	0xbac0fd90	-0.0014724005
31	0xbaba46ea	-0.0014211808
32	0x3a9af84b	0.0011823265
33	0xb9bce51e	-0.0003602886
34	0x39bfd552	0.00036589295
35	0xba275bca	-0.0006384222
36	0xbbbaf67b	-0.0057056523
37	0x3b1a2ef1	0.0023526514
38	0x3b91ae6a	0.0044458406
39	0x3b4ce813	0.0031266257
40	0x3b534820	0.0032239035
41	0x3a73cfea	0.0009300696
42	0xb91cf095	-0.00014966943
43	0x3b9b83c5	0.0047459328
44	0xbb13ba4d	-0.0022541464
45	0x3b3814fa	0.0028088675
46	0x3b31de82	0.0027140682
47	0x3bac9a73	0.005267435
48	0xb8f9558d	-0.0001188918
49	0x3b4ca812	0.0031228107
50	0xbb4ebd61	-0.0031545984
51	0xbad31973	-0.0016105607
52	0xbad03a0e	-0.0015886442
53	0xbb9dab66	-0.004811692
54	0xba21348c	-0.00061494927
55	0x3b7ed94d	0.0038886846
56	0x3a39c37f	0.0007086321
57	0x381ccda4	3.7384816e-05
58	0x3b175404	0.0023090849
59	0xbab96a1a	-0.0014146001
60	0xb92d0451	-0.00016500174
61	0xba8eb757	-0.001088838
62	0xbb8b6b09	-0.004254703
63	0x3a9a21d1	0.0011759346

conv3.weight f4 [64, 64, 3, 3]
0	0x3ca9bfa6	0.020721268
1	0x3d81bfba	0.06335397
2	0x3d596a4e	0.053079896
3	0x3d42b4ed	0.047535826
4	0xbd8780c7	-0.06616359
5	0xbbfd4f98	-0.0077304356
6	0xbc8f139c	-0.017465405
7	0x3d83cb8f	0.0643531
8	0x3c763fae	0.015029831
9	0xbc9eaa95	-0.01936845
10	0xbd92613f	-0.071474545
11	0xbcaf09a8	-0.02136691
12	0x3d4b314e	0.049607567
13	0x3d4a980a	0.049461402
14	0xbb152315	-0.0022756506
15	0xbcae1efe	-0.021255013
16	0x3d6506f2	0.055914827
17	0xbc999e58	-0.018752262
18	0x3c2d9754	0.0105951615
19	0xbc845929	-0.016155796
20	0xbc186cbe	-0.00930327
21	0xbce232d8	-0.027612135
22	0x3caa56e4	0.020793386
23	0x3ce2149e	0.027597722
24	0x3cfc8a01	0.030827524
25	0xbc85d377	-0.016336186
26	0xbd27db0c	-0.040980384
27	0xbb182049	-0.0023212603
28	0xba570dff	-0.00082036847
29	0x3c59ae88	0.01328624
30	0x3cb6e728	0.02232702
31	0x3baf78cc	0.0053549763
32	0xbb959bb3	-0.00456568
33	0x3ad9b176	0.0016608674
34	0x3c0b5315	0.008503695
35	0xbcca88a4	-0.024723358
36	0x3a3edc60	0.0007280763
37	0xbcc37812	-0.023860965
38	0xb8a33fc3	-7.784322e-05
39	0x3d249bcb	0.04018764
40	0x3d767c00	0.06017685
41	0x3d6f707b	0.05845688
42	0xbdbc534e	-0.091955766
43	0xbc098e9a	-0.008395815
44	0x3d85c3b8	0.06531471
45	0xbccaa4cf	-0.02473679
46	0x3d933290	0.071873784
47	0x3cf1c05a	0.029510666
48	0x3d885a7b	0.06657883
49	0x3d0b2a9b	0.03397618
50	0x3ce50a6b	0.02795907
51	0x3d055e85	0.032560844
52	0x3d63a5bd	0.055577982
53	0xbc908fe0	-0.01764673
54	0xbb44986f	-0.0029998084
55	0x3cfa8cff	0.03058481
56	0x3bae1a14	0.0053131673
57	0x3bc57857	0.0060263085
58	0xbcdc25ac	-0.026873432
59	0xbc5f8c00	-0.013644218
60	0xbd4652fd	-0.048418988
61	0xbd90e2b7	-0.070744924
62	0x3d7d6141	0.061860327
63	0x3ca28da5	0.019842932
64	0x3ccb6bb1	0.024831625
65	0xbce529ae	-0.027973976
66	0x3d57bbb0	0.052669227
67	0xbbb4e295	-0.0055201747
68	0x3c884f74	0.016639449
69	0xbc908055	-0.017639318
70	0x3d0dd8b9	0.03463051
71	0x3d28af17	0.041182604
72	0xbbec07a9	-0.0072030616
73	0x3c9cf97a	0.019161928
74	0xbd2129cd	-0.039346505
75	0xbd0c32f8	-0.034228295
76	0xbcb6712a	-0.022270758
77	0xbc841575	-0.016123513
78	0xbc91a0e1	-0.017776908
79	0x3c5db258	0.01353129
80	0xbd22e319	-0.03976736
81	0x3ac324a5	0.001488824
82	0xbd1ca6db	-0.038245063
83	0xbbf3d0b0	-0.007440649
84	0xbbf2cab7	-0.0074094194
85	0xbc50cb5b	-0.012743796
86	0x3cba015d	0.022705728
87	0x3cbffe9f	0.023436842
88	0xbcfb70cb	-0.030693432
89	0xbd50c2d5	-0.050967056
90	0x3c1c3e01	0.009536267
91	0x3d9d2dc0	0.07674742
92	0x3c9c8050	0.019104153
93	0x3d0abe6f	0.033873018
94	0x3d130f4d	0.035903264
95	0xbc98fe0b	-0.018675825
96	0x3d840bad	0.064475395
97	0x3b422ed1	0.0029629956
98	0x3cd61a3d	0.026135558
99	0xbd072f60	-0.033004165
100	0x3c165f81	0.009178043
101	0x3ba48ed3	0.005021909
102	0x3bb2cfe3	0.005456911
103	0xbd408634	-0.047002986
104	0xbc14c997	-0.009081266
105	0x3d62b443	0.055347692
106	0x3bfafc47	0.0076594683
107	0x3a54c12d	0.00081159436
108	0x3da1dcae	0.079034194
109	0x3d0dd3b9	0.034625743
110	0xbd1bb0d5	-0.038010437
111	0x3c8268f5	0.015919188
112	0xbd335dbd	-0.043790568
113	0x3ca69bd0	0.020337969
114	0x3c35d0df	0.011097162
115	0x3d5d53ad	0.054034878
116	0x3c9916a2	0.01868755
117	0xbc828944	-0.015934594
118	0xbdc5cb9f	-0.09657978
119	0x3c3540a9	0.011062779
120	0xbd724985	-0.059152145
121	0xbc4199de	-0.01181647
122	0x3d689880	0.05678606
123	0x3d5988e4	0.053109065
124	0xbd120af1	-0.035654966
125	0xbc95379f	-0.018214999
126	0xbd4f65c6	-0.050634168
127	0x3aa64f67	0.0012688459
128	0x3cf31277	0.02967189
129	0xbcf66ade	-0.030080255
130	0xbd3a2c9a	-0.04545269
131	0x3d09a3cd	0.03360348
132	0xbd4a03ca	-0.04932002
133	0xbb81801e	-0.0039520403
134	0xbd4548dc	-0.048165187
135	0x3ca4dcae	0.02012476
136	0x3c090d28	0.008364953
137	0x3dc3b364	0.095557004
138	0x3caab77a	0.020839442
139	0x3d5c48e4	0.05378045
140	0x3d7dd117	0.06196698
141	0xbc60b915	-0.013716002
142	0xbbdd2405	-0.0067486786
143	0xbd0885df	-0.033330794
144	0x3ce62219	0.02809243
145	0xbc8a9fa8	-0.016921833
146	0xbcca437e	-0.024690386
147	0x3cd43f9a	0.025909234
148	0xbd2263d6	-0.039645992
149	0xbc1d7478	-0.009610288
150	0x3d27cf2f	0.04096907
151	0x3c11abf5	0.008891095
152	0x3a826354	0.0009947815
153	0x3d23008e	0.03979545
154	0xbcb2363a	-0.021754373
155	0xbda2ddca	-0.07952459
156	0x37ab0531	2.0387206e-05
157	0xbd32278a	-0.04349474
158	0x3d150803	0.036384594
159	0xbd47a913	-0.048745226
160	0xbc92a966	-0.017903041
161	0xbda642eb	-0.08118232
162	0xbd8c0619	-0.068371005
163	0x3ca114c7	0.019663228
164	0xbca08dd7	-0.019598885
165	0x3d204a77	0.039133515
166	0x3c083e83	0.008315685
167	0x3d243246	0.040087007
168	0x3d1240c3	0.035706293
169	0xbd03bddb	-0.032163482
170	0xbd3ae56e	-0.045628957
171	0x3d15a279	0.0365319
172	0xbd8a44e1	-0.06751419
173	0xbcafc63a	-0.021456826
174	0x3cb146c9	0.021640198
175	0xbc372496	-0.011178156
176	0x3d4534c9	0.048146043
177	0xbd77f2bb	-0.06053422
178	0x3d33147a	0.0437207
179	0xbc8f807b	-0.017517319
180	0x3d50b22e	0.050951175
181	0xbda3662b	-0.07978471
182	0xbbf8ddc7	-0.0075947973
183	0xbce3e7d0	-0.027820498
184	0x3d8adf41	0.067808636
185	0xbd560ef0	-0.05226034
186	0xbcc38d4f	-0.023871092
187	0xbd03e8e1	-0.032204513
188	0xbd4f34cf	-0.05058747
189	0xba9496e1	-0.0011336469
190	0x3c3993be	0.011326728
191	0x3d46e10b	0.04855446
192	0x3d79dbc0	0.061000586
193	0x3d34bc2b	0.044124763
194	0xbb4203e2	-0.0029604365
195	0xbc17216c	-0.009224277
196	0xbc098cf8	-0.008395426
197	0x3d855598	0.06510466
198	0xbcc4f7c4	-0.024043925
199	0x3d932d6a	0.071863964
200	0x3c5aafe9	0.013347604
201	0xbdc17b21	-0.09447313
202	0x3ca8f0cd	0.020622635
203	0xbdc17ff3	-0.094482325
204	0xbcaad43a	-0.02085315
205	0x3cce782a	0.025203783
206	0x3d53114b	0.051530164
207	0x3c800034	0.015625097
208	0x3c8e0a10	0.017338783
209	0x3cbaa6ef	0.022784678
210	0x3d7a9e27	0.061185982
211	0xbd611fc0	-0.05496192
212	0xbc4c88be	-0.012483774
213	0x3c94ad92	0.018149171
214	0x3c0c17a7	0.008550561
215	0xbc5df43e	-0.013547001
216	0xbcfc2218	-0.030777976
217	0xbd541930	-0.051781833
218	0x3dcebc5e	0.10094522
219	0x3d31b8cc	0.043389127
220	0xbc35506d	-0.011066538
221	0xbdaf4c1f	-0.08559441
222	0x3c68e7e2	0.014215441
223	0x3d522b15	0.051310617
224	0xbd06ce20	-0.03291142
225	0x3b0e8574	0.0021747025
226	0xbc0ede39	-0.008719974
227	0x3c04e89e	0.008112101
228	0x3ccd83e8	0.025087312
229	0x3c0f5458	0.008748136
230	0x3d0a8bd3	0.033824753
231	0xbc848e9e	-0.016181286
232	0xbd475f72	-0.048675008
233	0x3ccf6ede	0.02532142
234	0x3d97dc5c	0.07415077
235	0x3ab9d95d	0.0014179159
236	0xbba23b5b	-0.0049509234
237	0x3d519479	0.051166985
238	0xbc344346	-0.011002367
239	0xbd802b20	-0.062582254
240	0xbc113682	-0.008863093
241	0xbcc82f3c	-0.024436586
242	0x3c86857c	0.016421072
243	0x3d6bf960	0.05761087
244	0x3c1cd989	0.009573349
245	0x3bfd6528	0.007733006
246	0x3ccc207a	0.02491783
247	0xbd0a7b6b	-0.033809107
248	0x3d08fef2	0.03344626
249	0xbd1ca9ed	-0.03824799
250	0xbcb4c5cd	-0.022066975
251	0xbd21db60	-0.039515853
252	0x3d2e4125	0.042542595
253	0x3d032c55	0.0320247
254	0x3d407d7f	0.046994682
255	0x3c33cf12	0.010974662

conv3.bias f4 [64]
0	0x3c851988	0.016247526
1	0xbaa34bd4	-0.0012458512
2	0xbc3fbe5f	-0.011703103
3	0x3c91d3e7	0.017801238
4	0x3b42a9d8	0.0029703286
5	0x3c8d8d24	0.017279215
6	0x3c81d024	0.01584632
7	0x3c681325	0.014164721
8	0xbc50fd25	-0.012755667
9	0x3c3339f5	0.010939111
10	0x3c4bd533	0.012440967
11	0xbc30e480	-0.010796666
12	0x3c1c8831	0.009553955
13	0x3c957b5e	0.018247303
14	0xbb3c5d06	-0.002874197
15	0x3b244f93	0.0025071844
16	0x3c406a60	0.011744112
17	0x3c80cd18	0.015722796
18	0xba6efbe1	-0.00091165124
19	0x3c7a0c76	0.01526176
20	0xbc599c4c	-0.013281893
21	0x3c182e76	0.009288421
22	0xbc2c5909	-0.0105192745
23	0xbc41151f	-0.011784821
24	0xbaccf5e1	-0.0015637242
25	0xbc308ba1	-0.010775478
26	0x3baadf45	0.005214604
27	0x3c41ccd1	0.011828617
28	0xbc4e8455	-0.012604793
29	0xbc4ee5a4	-0.012627993
30	0x3c061b82	0.008185269
31	0x3b27387c	0.0025515845
32	0x3c61f7b7	0.01379197
33	0xbc4bb4d1	-0.012433247
34	0x3c7cef4b	0.015437911
35	0xbc1c1c23	-0.009528193
36	0x3c8be040	0.017074704
37	0x3c827713	0.01592592
38	0x3c8b64be	0.017015811
39	0x3c6b187c	0.014349099
40	0x3b3bed78	0.0028675478
41	0x3a6eda89	0.0009111544
42	0xbc5fb8aa	-0.013654867
43	0x3bdc8f96	0.006730984
44	0x3c764e16	0.015033266
45	0xbc625f7f	-0.013816713
46	0xbc7115e6	-0.014714694
47	0x3c816d3a	0.015799154
48	0x3c863dad	0.016386831
49	0x3c8a3375	0.01687024
50	0x3c7c1b97	0.015387437
51	0xba5d1af3	-0.00084344967
52	0x3c7d436f	0.015457972
53	0xbc84db84	-0.016217954
54	0x3c8d0af1	0.017217131
55	0x3c15aa2e	0.009134812
56	0xbc032bad	-0.008006019
57	0xbbcf52b7	-0.006326999
58	0x3c32484e	0.010881497
59	0x3c8ef9fa	0.017453182
60	0x3c5e8eae	0.013583822
61	0xbc2d0863	-0.010561082
62	0x3c1b7746	0.009488886
63	0xbc6a8674	-0.014314283

bn1.weight f4 [64]
0	0x3f7c1563	0.98470134
1	0x3f7c0def	0.9845876
2	0x3f823e07	1.0175179
3	0x3f803532	1.0016234
4	0x3f809a0e	1.0047014
5	0x3f8098ab	1.004659
6	0x3f8147e9	1.010007
7	0x3f816ff8	1.0112295
8	0x3f7c223b	0.9848973
9	0x3f818d5f	1.0121268
10	0x3f818033	1.0117248
11	0x3f827187	1.0190896
12	0x3f808ea6	1.0043533
13	0x3f804c4b	1.0023283
14	0x3f7c8142	0.9863473
15	0x3f7d1865	0.9886535
16	0x3f7ed1b6	0.99538743
17	0x3f80523f	1.00251
18	0x3f800465	1.0001341
19	0x3f810e50	1.0082493
20	0x3f80b89d	1.005634
21	0x3f7c734d	0.98613435
22	0x3f7ee7c7	0.99572414
23	0x3f7f784c	0.99792933
24	0x3f7e86e6	0.9942459
25	0x3f7cf3e4	0.9880965
26	0x3f7f0326	0.9961418
27	0x3f7e931e	0.99443233
28	0x3f81212f	1.0088252
29	0x3f7ccc85	0.9874957
30	0x3f7fd6da	0.9993721
31	0x3f8292e8	1.0201082
32	0x3f7e00c1	0.992199
33	0x3f8149ab	1.0100607
34	0x3f7f4284	0.9971087
35	0x3f7ebb95	0.9950498
36	0x3f7c2382	0.9849168
37	0x3f803cf1	1.0018598
38	0x3f80c853	1.0061134
39	0x3f825ef8	1.0185232
40	0x3f81ef43	1.0151142
41	0x3f81c7c1	1.0139085
42	0x3f808f36	1.0043705
43	0x3f81e22e	1.014715
44	0x3f8023ae	1.0010889
45	0x3f80b838	1.0056219
46	0x3f80fb5e	1.0076711
47	0x3f7f9ae1	0.998457
48	0x3f819b47	1.0125512
49	0x3f7e690c	0.9937904
50	0x3f7bfee2	0.98435795
51	0x3f7decfc	0.99189734
52	0x3f80efac	1.0073142
53	0x3f7d2606	0.98886144
54	0x3f7c985d	0.9866999
55	0x3f7de05c	0.9917047
56	0x3f825a3e	1.018379
57	0x3f818fd1	1.0122014
58	0x3f7ba9ff	0.9830627
59	0x3f81fb4a	1.0154812
60	0x3f7f1627	0.99643177
61	0x3f7ec79d	0.99523336
62	0x3f7c49b0	0.9854994
63	0x3f800050	1.0000095

bn1.bias f4 [64]
0	0x3b9a954b	0.004717504
1	0xbbec91f6	-0.0072195483
2	0x3c828985	0.015934715
3	0xb90ced22	-0.0001343978
4	0xbc432cef	-0.0119125685
5	0x3bfe9652	0.0077693844
6	0x3c26ce15	0.01018097
7	0xbc68c803	-0.014207843
8	0xbc8f57e4	-0.017497964
9	0x3be20106	0.0068970947
10	0x3c1be9b4	0.009516168
11	0x3c6c7e49	0.014434406
12	0x3c1f180d	0.009710324
13	0x3bcd4d0a	0.0062652873
14	0xbc649c9c	-0.013953354
15	0xbc75367e	-0.014966605
16	0xbc90e808	-0.017688766
17	0x3c1a3755	0.009412606
18	0xbc8726ab	-0.01649793
19	0x3b8698f7	0.0041075903
20	0xbbed2594	-0.0072371457
21	0x3c191030	0.009342238
22	0xba0aaee6	-0.0005290344
23	0xbc2966b0	-0.010339424
24	0xbaeaf80f	-0.001792671
25	0xbbb00e1e	-0.0053727766
26	0xbc32481c	-0.01088145
27	0xbc61b167	-0.013775206
28	0x3a1534e3	0.00056917797
29	0xbc40f435	-0.0117769735
30	0x3c513ce6	0.012770867
31	0x3c566ae3	0.013087007
32	0xbab3b943	-0.0013711829
33	0xba8e637f	-0.0010863392
34	0xbc613851	-0.013746337
35	0x3a284814	0.0006419432
36	0xbba3dc45	-0.0050006234
37	0x3b0c4447	0.0021403
38	0x3a071956	0.00051536167
39	0x3c80e5c6	0.015734565
40	0xbc1ca835	-0.009561588
41	0x3c627c1a	0.013823533
42	0x3c205889	0.009786733
43	0x3c898e76	0.016791563
44	0x3ba9adba	0.0051781805
45	0x3c23f4a9	0.010007062
46	0xbbb3846a	-0.0054784315
47	0x3c7074b9	0.014676266
48	0x3c95532f	0.018228142
49	0x3b599537	0.0033200511
50	0xbc79ef77	-0.015254847
51	0x3b5ec7fc	0.0033993712
52	0x3c8969c9	0.016774075
53	0x3c67b6d1	0.014142708
54	0xbc66a59a	-0.014077568
55	0xbba2fc2d	-0.0049739094
56	0x3c78f338	0.015194707
57	0xbb64ca41	-0.0034910592
58	0x3c5ecd43	0.013598743
59	0x3c821b60	0.015882194
60	0xbc89bf22	-0.016814772
61	0xbc49e9c8	-0.012323804
62	0xbbe7a18a	-0.0070688175
63	0xbc5cc3c9	-0.013474413

bn1.running_mean f4 [64]
0	0x3ca5c5a0	0.020235837
1	0x3ac34754	0.0014898577
2	0xbd240795	-0.040046293
3	0x3cb31942	0.02186263
4	0xbd2f877e	-0.042853825
5	0xbd7a9141	-0.06117368
6	0xbc00a322	-0.007851394
7	0xbc718d70	-0.014743194
8	0xbb432478	-0.0029776376
9	0xbc953d1d	-0.018217618
10	0x3b515d40	0.003194645
11	0xbc6a367c	-0.014295217
12	0xbd0773fb	-0.033069592
13	0x3d10edb0	0.035382926
14	0xbca7c935	-0.020481685
15	0xbcf7b9fd	-0.030240053
16	0x3b4bc7e0	0.0031094477
17	0xbca1fa92	-0.019772802
18	0x3ab167b0	0.001353493
19	0x3c738c61	0.014865012
20	0xbc5b42fe	-0.013382671
21	0x3d04f50b	0.032460254
22	0x3cd6ccf8	0.026220784
23	0xbc53d408	-0.01292897
24	0x3a39494e	0.0007068113
25	0x3d41e4f1	0.047337476
26	0xbcd2bf82	-0.025726084
27	0xbc9cb050	-0.019127041
28	0x3ccd234b	0.025041243
29	0xbd13faad	-0.036127735
30	0x3cac105c	0.021003895
31	0xbcb4df67	-0.022079183
32	0x3b69eb4e	0.003569323
33	0x3c762683	0.01502383
34	0x3ca626e9	0.020282226
35	0xbd0e25a3	-0.034703862
36	0x3c087a32	0.008329915
37	0x39e05b31	0.00042792552
38	0x3c7fdc4a	0.015616486
39	0xbc397016	-0.011318227
40	0x3b99e8e9	0.0046969545
41	0xbd60a209	-0.05484203
42	0x3d15350f	0.036427554
43	0xbbff1145	-0.007784041
44	0x3d628509	0.055302653
45	0x3aac8f9f	0.0013165361
46	0xbbc6c56f	-0.0060660164
47	0x3c4bff04	0.012450937
48	0xbc2cdcbb	-0.010550673
49	0x3cbf76e0	0.023372114
50	0x3d249970	0.040185392
51	0x3d29f32d	0.041491676
52	0xbd36961f	-0.04457676
53	0x3d3e59b7	0.046472277
54	0x3bab9936	0.00523677
55	0x3c8b1b19	0.016980695
56	0xbd32bfbe	-0.04363989
57	0x3d70b74d	0.05876856
58	0x3bdbd34b	0.0067085377
59	0xbc92d093	-0.017921722
60	0xbc89e34d	-0.016832018
61	0xbcce47e2	-0.02518076
62	0x3d062068	0.03274575
63	0xbba03edb	-0.0048903055

bn1.running_var f4 [64]
0	0x3cd14637	0.025546176
1	0x3c9ace37	0.018897159
2	0x3dc8e5b0	0.098094344
3	0x3cbc74f7	0.023004992
4	0x3daef256	0.08542316
5	0x3e181433	0.14851455
6	0x3bdce61f	0.0067412998
7	0x3cf111e2	0.029427473
8	0x3d144f60	0.03620851
9	0x3cfb9696	0.030711453
10	0x3d1b2cec	0.037884638
11	0x3d54c979	0.05194995
12	0x3d30f2aa	0.043200172
13	0x3da9a8b0	0.08284128
14	0x3cb66db6	0.022269111
15	0x3d83650c	0.064157575
16	0x3cc14a1d	0.02359491
17	0x3ca361e7	0.019944144
18	0x3d1f7aa0	0.038935304
19	0x3cd8df43	0.026473647
20	0x3d0c5646	0.034261964
21	0x3d18410f	0.03717142
22	0x3db21951	0.08696235
23	0x3d0e2302	0.034701355
24	0x3ca368d9	0.019947456
25	0x3da36372	0.07977952
26	0x3ce18d3b	0.027533164
27	0x3ce962e9	0.028489547
28	0x3d25a87d	0.040443886
29	0x3d5255cb	0.05135135
30	0x3d31a9e3	0.043374907
31	0x3d24451c	0.04010497
32	0x3d320ac7	0.04346731
33	0x3d2f03c4	0.0427282
34	0x3d73fb0c	0.05956559
35	0x3d7b749c	0.061390504
36	0x3c40c43c	0.011765536
37	0x3c44c829	0.0120106125
38	0x3c9d1150	0.019173294
39	0x3baa5b68	0.0051988848
40	0x3c594a9f	0.01326242
41	0x3db8d257	0.09024494
42	0x3d546006	0.051849388
43	0x3d43b18f	0.047776755
44	0x3d96ff16	0.073728725
45	0x3d15ebf4	0.036601976
46	0x3d414244	0.047182336
47	0x3ce56701	0.028003218
48	0x3d248748	0.040168077
49	0x3cc17cb0	0.023619026
50	0x3db39465	0.087685384
51	0x3da6540d	0.081215
52	0x3dac6702	0.08418085
53	0x3dd2bb92	0.102896824
54	0x3d5d1b45	0.053981084
55	0x3cb36227	0.021897389
56	0x3da96fd4	0.08273283
57	0x3db0f065	0.086396016
58	0x3d2c00c3	0.041992914
59	0x3c9b6fd9	0.018974232
60	0x3cec375d	0.028834993
61	0x3d4056f2	0.046957918
62	0x3d86ccec	0.065820545
63	0x3cecf7b0	0.0289267

bn2.weight f4 [64]
0	0x3f803197	1.0015134
1	0x3f8044d1	1.0021001
2	0x3f8131ed	1.0093361
3	0x3f7c483a	0.9854771
4	0x3f812204	1.0088506
5	0x3f7e76f1	0.9940024
6	0x3f7ff8a2	0.9998876
7	0x3f80b709	1.0055858
8	0x3f7b87b3	0.98253936
9	0x3f81c12b	1.0137075
10	0x3f80849c	1.0040469
11	0x3f7bd6a2	0.9837438
12	0x3f7d8940	0.9903755
13	0x3f7d2a62	0.98892796
14	0x3f8136d5	1.0094858
15	0x3f7ce038	0.9877963
16	0x3f823a1f	1.0173987
17	0x3f80441b	1.0020784
18	0x3f7cb710	0.9871683
19	0x3f7d986a	0.9906069
20	0x3f819e97	1.0126523
21	0x3f820855	1.0158793
22	0x3f813e65	1.0097166
23	0x3f7e4cc7	0.993359
24	0x3f811d16	1.0087001
25	0x3f81f654	1.0153298
26	0x3f7db092	0.9909755
27	0x3f7ed829	0.99548584
28	0x3f7cd281	0.98758703
29	0x3f7fb153	0.9987995
30	0x3f7eb90c	0.9950111
31	0x3f7e8fb8	0.9943805
32	0x3f81aba0	1.0130501
33	0x3f810b48	1.0081568
34	0x3f820848	1.0158777
35	0x3f7ec12f	0.99513525
36	0x3f7d481c	0.98938155
37	0x3f7de964	0.9918425
38	0x3f7b920d	0.9826973
39	0x3f803382	1.0015719
40	0x3f7c7d61	0.98628813
41	0x3f8004ed	1.0001503
42	0x3f7cc6dc	0.98740935
43	0x3f81d36b	1.0142645
44	0x3f7c6906	0.98597753
45	0x3f8057b3	1.0026764
46	0x3f7ba012	0.9829112
47	0x3f81ec16	1.0150173
48	0x3f7c5765	0.98570853
49	0x3f7e544b	0.9934737
50	0x3f8021dc	1.0010333
51	0x3f80ce16	1.0062892
52	0x3f81ea89	1.01497
53	0x3f814bbc	1.0101237
54	0x3f80072e	1.0002191
55	0x3f7d6762	0.98985875
56	0x3f7f4562	0.99715245
57	0x3f7f0996	0.99624
58	0x3f7bff4a	0.98436415
59	0x3f813c95	1.0096613
60	0x3f801118	1.0005217
61	0x3f7c596d	0.9857395
62	0x3f80ce5c	1.0062976
63	0x3f810885	1.0080725

bn2.bias f4 [64]
0	0xbb2c89c0	-0.0026327223
1	0xbb811cb2	-0.0039401883
2	0xbc5a217e	-0.013313649
3	0x3c3596e5	0.011083339
4	0x3c1fe535	0.009759237
5	0xbbc8ee5c	-0.0061319303
6	0x3acb825f	0.0015526525
7	0xbb7d94f4	-0.003869352
8	0xbc526618	-0.012841724
9	0x3c4ed79e	0.012624649
10	0x39c84d58	0.00038204598
11	0xbc3f1dd5	-0.011664827
12	0xbb5b3ef2	-0.0033454266
13	0xbc986b10	-0.018605739
14	0x3b178c45	0.0023124379
15	0x3c132f09	0.008983382
16	0xbc815143	-0.015785819
17	0x3c43261f	0.011910944
18	0xbc9d17e4	-0.019176431
19	0xbc63c446	-0.013901776
20	0x3c79d1ad	0.0152477445
21	0x3c110d4a	0.008853266
22	0x3b3efa32	0.0029140827
23	0x3bceb583	0.006308259
24	0x3b9344df	0.004494294
25	0x3c3680fa	0.011139149
26	0x3ac28630	0.0014841016
27	0x3c656a5f	0.014002412
28	0xbc8e225e	-0.017350372
29	0xbb821a09	-0.003970389
30	0xbc872031	-0.016494842
31	0xbb805244	-0.003916057
32	0x3c83770c	0.016047977
33	0xb9e7ec66	-0.00044235884
34	0x3bbaa650	0.0056960955
35	0x3b9b3a22	0.0047371546
36	0xbc42195f	-0.011846869
37	0xbb8e4b63	-0.004342483
38	0xbc7c8875	-0.015413393
39	0x3a392e85	0.0007064122
40	0x3c1193d3	0.008885342
41	0xbbc94364	-0.006142067
42	0xbb22f01f	-0.0024862362
43	0xbc363c9b	-0.011122848
44	0xbbb2f6c3	-0.005461545
45	0x3b95758f	0.004561133
46	0xbc8489e7	-0.016179038
47	0x3c91410d	0.017731214
48	0xbc591808	-0.013250358
49	0xbc02613a	-0.007957751
50	0x3b8f78ef	0.00437843
51	0x3bce5987	0.0062972936
52	0x3c876a67	0.016530229
53	0xbbe4abcb	-0.006978487
54	0x3c2e9ec8	0.010657974
55	0xbbadd0c1	-0.0053044264
56	0xbc22ff0e	-0.009948505
57	0x3c1e4d1a	0.009661937
58	0xbb1bff7e	-0.0023803408
59	0xbc8b6a2f	-0.017018406
60	0x3c74fa6f	0.014952286
61	0x3b0c5f5c	0.0021419143
62	0xbba996af	-0.0051754336
63	0x3aec93e0	0.0018049441

bn2.running_mean f4 [64]
0	0x3fa7021d	1.304752
1	0x3fe4a2e9	1.7862216
2	0x3f995cb8	1.198142
3	0x3bd252f6	0.006418581
4	0x3f300900	0.6876373
5	0xbf2b8b96	-0.67009866
6	0x3eab639a	0.33474427
7	0x402b5af3	2.677426
8	0x3da3467a	0.07972427
9	0x3ee53e5c	0.4477414
10	0x3fe599e7	1.7937592
11	0x3feda3ed	1.8565651
12	0x3e0179ab	0.12644069
13	0xbf861871	-1.0476209
14	0x402125a5	2.5179226
15	0x401f1e8f	2.4862401
16	0x3f7c28fe	0.9850005
17	0x3de89248	0.11356026
18	0x400e7e6c	2.2264662
19	0xbd56caa2	-0.05243934
20	0x3f247538	0.6424136
21	0xbeb6afea	-0.35681087
22	0x4008b7f8	2.1362286
23	0x3fa8bd42	1.3182757
24	0x401ebb4f	2.4801824
25	0x3f86d523	1.0533794
26	0xbf03f0f5	-0.51539546
27	0x40134f54	2.3017168
28	0xbf540ad8	-0.82829046
29	0x3f1fd7c3	0.624386
30	0x40222353	2.533406
31	0xbe8c785d	-0.2743558
32	0xbf006c8c	-0.5016563
33	0x3f9c6af5	1.2220141
34	0x3cdfe342	0.027330045
35	0x3fdc705f	1.7221793
36	0xbf350d87	-0.70723766
37	0xbfd4c817	-1.6623563
38	0xbfb0ea0e	-1.3821428
39	0xc01b4d29	-2.4265845
40	0x3fcc8e92	1.5981009
41	0x3ffe6e8f	1.987749
42	0xc013bfda	-2.3085847
43	0xbd2c7e45	-0.042112608
44	0x4003f710	2.0619545
45	0xbf888250	-1.0664768
46	0xbf1ffac7	-0.6249203
47	0x3ec1ce70	0.37852812
48	0xbeefdff2	-0.46850544
49	0xbf63bda7	-0.8896126
50	0x3f2cae6d	0.6745365
51	0xbf302cf0	-0.6881857
52	0x3ea656d7	0.3248813
53	0x3fa2c1be	1.2715375
54	0x3fac5a47	1.346505
55	0xc026703c	-2.6006002
56	0x3f1f70ba	0.6228138
57	0x3ff68cfc	1.9261775
58	0x3ed23d3c	0.41062343
59	0xbe9e756c	-0.3094896
60	0x3f83568a	1.0260785
61	0x3fd1d107	1.6391915
62	0x3fd5ba79	1.6697532
63	0xbfaafcb8	-1.3358374

bn2.running_var f4 [64]
0	0x4046a03f	3.1035306
1	0x402e4a9e	2.7233043
2	0x3f935480	1.1510162
3	0x4017eca9	2.3738196
4	0x3fc3e96f	1.5305613
5	0x3f9dd0ab	1.2329305
6	0x3faaddc0	1.3348923
7	0x40c6682e	6.2002172
8	0x3fbdf57e	1.4840543
9	0x3fe943e7	1.8223847
10	0x4081ccfe	4.0562735
11	0x3faa6eae	1.3315027
12	0x3f529522	0.8225881
13	0x40528052	3.289082
14	0x408d9841	4.4248357
15	0x40b30b1e	5.595107
16	0x4018c62f	2.3870962
17	0x3fe422a9	1.7823077
18	0x40c2cf48	6.087803
19	0x4041d2f2	3.0285
20	0x401a2b4c	2.4088926
21	0x3f7c34d6	0.9851812
22	0x40ade0be	5.4336843
23	0x3f323a28	0.6961999
24	0x4057dd32	3.3728757
25	0x3f7add94	0.9799435
26	0x3fad6678	1.3546896
27	0x40e76fa0	7.232376
28	0x3ffd0600	1.9767456
29	0x3fffb2bd	1.9976422
30	0x40868427	4.203632
31	0x400fc0bf	2.2461393
32	0x4022b6c7	2.5424058
33	0x4030d896	2.7632194
34	0x3f88abc6	1.0677421
35	0x40a7c334	5.2425785
36	0x4055b220	3.338997
37	0x4075c2f2	3.8400235
38	0x3fde436e	1.7364328
39	0x40670771	3.6098292
40	0x400fca75	2.246732
41	0x406e8825	3.7270596
42	0x40cb8fa4	6.3612843
43	0x4027f69c	2.6244268
44	0x4049dbb1	3.154034
45	0x402836d8	2.6283474
46	0x3fc99e2d	1.5751396
47	0x3f941c3c	1.1571116
48	0x3f99a7f9	1.2004386
49	0x4012ea8c	2.2955656
50	0x4012d646	2.2943282
51	0x401dd0e0	2.4658737
52	0x40215a2c	2.5211287
53	0x4070025b	3.7501438
54	0x3fb26e5a	1.3939927
55	0x40cd1f31	6.4100575
56	0x405535a4	3.331399
57	0x405b2f60	3.4247665
58	0x40277d36	2.6170173
59	0x40565292	3.3487897
60	0x3f983cba	1.1893532
61	0x408c1619	4.3776975
62	0x407a75ec	3.9134474
63	0x404544cb	3.0823238

bn3.weight f4 [64]
0	0x3f82936b	1.0201238
1	0x3f829b7b	1.0203699
2	0x3f8291ac	1.0200706
3	0x3f828f5d	1.0200001
4	0x3f829763	1.020245
5	0x3f829a3c	1.0203319
6	0x3f829ba8	1.0203753
7	0x3f829d13	1.0204185
8	0x3f8292ff	1.020111
9	0x3f829c98	1.0204039
10	0x3f8299d6	1.0203197
11	0x3f829d26	1.0204208
12	0x3f8291a7	1.02007
13	0x3f82a0a0	1.0205269
14	0x3f828e5d	1.0199696
15	0x3f82a5f4	1.0206895
16	0x3f829fe7	1.0205048
17	0x3f827df6	1.019469
18	0x3f829f0c	1.0204787
19	0x3f829c96	1.0204036
20	0x3f8297f6	1.0202625
21	0x3f829f42	1.0204852
22	0x3f82a31f	1.0206031
23	0x3f829778	1.0202475
24	0x3f8294a7	1.0201615
25	0x3f829360	1.0201225
26	0x3f82a07b	1.0205225
27	0x3f8291e4	1.0200772
28	0x3f829a8e	1.0203416
29	0x3f82a9dc	1.0208087
30	0x3f82a15d	1.0205494
31	0x3f827bc4	1.019402
32	0x3f829f20	1.0204811
33	0x3f82912d	1.0200554
34	0x3f829486	1.0201576
35	0x3f82a892	1.0207694
36	0x3f828650	1.0197239
37	0x3f829340	1.0201187
38	0x3f8295df	1.0201987
39	0x3f829e46	1.0204551
40	0x3f82a717	1.0207242
41	0x3f828da9	1.0199481
42	0x3f829286	1.0200965
43	0x3f829875	1.0202776
44	0x3f829687	1.0202187
45	0x3f82a009	1.0205089
46	0x3f828a9a	1.0198548
47	0x3f82a78b	1.020738
48	0x3f82980a	1.0202649
49	0x3f8281f6	1.0195911
50	0x3f82ac9e	1.0208929
51	0x3f82918f	1.0200671
52	0x3f8296ce	1.0202272
53	0x3f828f50	1.0199986
54	0x3f827b65	1.0193907
55	0x3f82a4f3	1.0206589
56	0x3f82a113	1.0205406
57	0x3f82996c	1.0203071
58	0x3f829429	1.0201465
59	0x3f828863	1.0197872
60	0x3f828d25	1.0199324
61	0x3f829986	1.0203102
62	0x3f82a211	1.0205709
63	0x3f827bcc	1.019403

bn3.bias f4 [64]
0	0x3ca89dc7	0.020583047
1	0x3c3b72e3	0.011440965
2	0x3ca57126	0.020195555
3	0x3c9d74f0	0.0192208
4	0x3c364cd6	0.011126718
5	0x3ca7d71c	0.020488314
6	0x3c932891	0.01796368
7	0x3b9f285b	0.0048571057
8	0x3ca0e00f	0.01963809
9	0x3ca9bfb6	0.020721298
10	0x3c9f255a	0.01942699
11	0x3ca5b5fd	0.02022838
12	0x3ca8ac01	0.02058983
13	0x3ca1245f	0.019670663
14	0x3c97a752	0.018512402
15	0x3ca5ecf2	0.020254586
16	0x3c9e384e	0.019313958
17	0x3c906695	0.01762704
18	0x3c287d96	0.010283848
19	0x3ca1ffe3	0.019775337
20	0x3ca5d40a	0.02024271
21	0x3c872b60	0.016500175
22	0x3ca6e722	0.020373885
23	0x3ca30bd1	0.019903095
24	0x3ca08777	0.019595845
25	0x3c8cf37d	0.017205948
26	0x3c81bde7	0.015837623
27	0x3c919c3a	0.01777469
28	0x3c92867c	0.017886393
29	0x3c8b87fb	0.017032614
30	0x3ca0224d	0.019547606
31	0x3ca4f1af	0.020134775
32	0x3c8f8bff	0.01752281
33	0x3c8fb722	0.01754338
34	0x3ca5eae7	0.020253612
35	0x3ca4ee39	0.020133125
36	0x3c9add33	0.018904304
37	0x3ca5bba9	0.020231085
38	0x3c9f9f06	0.019485008
39	0x3ca42b04	0.020040043
40	0x3ca0742b	0.019586643
41	0x3c7c64f0	0.015404925
42	0x3ca87c0e	0.020566966
43	0x3ca516bc	0.020152442
44	0x3ca96735	0.020679096
45	0x3ca6849f	0.02032691
46	0x3ca2f7a2	0.019893471
47	0x3c918094	0.017761506
48	0x3ca8de5b	0.02061384
49	0x3c8c51e3	0.01712889
50	0x3ca8c875	0.020603398
51	0x3c8232ec	0.015893422
52	0x3ca7b785	0.020473251
53	0x3ca6c62f	0.020358173
54	0x3c9d90e6	0.019234132
55	0x3ca1ec45	0.019765982
56	0x3ca69ccb	0.020338437
57	0x3ca2320a	0.019799251
58	0x3ca1cb9f	0.019750414
59	0x3c8e1a1c	0.017346434
60	0x3ca187df	0.019718109
61	0x3ca09013	0.01959995
62	0x3c6bfeaf	0.014403983
63	0x3ca1a06b	0.019729814

bn3.running_mean f4 [64]
0	0x3f9d76b8	1.2301855
1	0xbfd43f42	-1.6581805
2	0xbe44fb2a	-0.19236436
3	0x40204887	2.5044267
4	0x3ed32ce4	0.41245186
5	0x400cda42	2.2008214
6	0x4008a7b2	2.1352353
7	0x3fb086f3	1.3791183
8	0xbf132ef1	-0.574935
9	0x3c796f6c	0.015224319
10	0x40024896	2.0356803
11	0xbfa3f13b	-1.2807993
12	0x3e47ab46	0.1949893
13	0x401de375	2.4670079
14	0x3fb97253	1.4488014
15	0x3eaf6335	0.34255376
16	0x3fd01634	1.6256776
17	0x3fcf9c28	1.621953
18	0xbea4246b	-0.32059035
19	0x3fcfa7e2	1.6223109
20	0xbfef56b8	-1.869834
21	0x3ed8dc68	0.42355657
22	0xbf4cb405	-0.7996219
23	0x3de8cdaa	0.11367352
24	0x3f4003ab	0.75005597
25	0xbf7ddc76	-0.9916452
26	0x3e06edf1	0.13176705
27	0x3f478207	0.7793278
28	0xbf216967	-0.63051456
29	0xc00d7733	-2.2104003
30	0x3f0f3e47	0.559544
31	0xbee34f80	-0.4439659
32	0x3f8c020c	1.0938125
33	0xc019cfce	-2.4033084
34	0x3fa5b451	1.2945653
35	0x3f08e7ef	0.534789
36	0x401bf228	2.436655
37	0x3fffb305	1.9976507
38	0x3fb0b502	1.3805239
39	0x3f9b7b0c	1.2146926
40	0x3fbc6005	1.4716803
41	0x3e86f836	0.26361245
42	0xbf4f76e8	-0.8104081
43	0x3f91cd29	1.1390735
44	0x3fe24a28	1.7678881
45	0xbfd1efa8	-1.6401262
46	0xbff57d83	-1.9178928
47	0x3f7813ef	0.96905416
48	0x3f60c7bf	0.8780479
49	0x403020ef	2.75201
50	0x3ff40471	1.9063855
51	0xbf175feb	-0.59130734
52	0x3fce1078	1.6098776
53	0xbf5c3fff	-0.8603515
54	0x4042647b	3.0373828
55	0x3f8f9b2c	1.121923
56	0xbfad0a2e	-1.3518732
57	0x3f173e75	0.59079677
58	0xbba2b2ef	-0.004965178
59	0x4016f6e0	2.358818
60	0x3fa74566	1.3068054
61	0xbff5466b	-1.9162115
62	0x3cdaad31	0.026693912
63	0xbfdce414	-1.7257104

bn3.running_var f4 [64]
0	0x3f48bfae	0.7841748
1	0x3f35c1cc	0.70998836
2	0x3f377274	0.71659017
3	0x3f80b92d	1.0056511
4	0x3fa8e566	1.3195007
5	0x3f62d0e5	0.886
6	0x3fcc0cf3	1.5941452
7	0x3f416985	0.75551635
8	0x3f7b1ba4	0.9808905
9	0x3f92f51c	1.1481051
10	0x3f992530	1.1964474
11	0x3f918fd3	1.1372017
12	0x3f117e84	0.5683367
13	0x3f498218	0.7871413
14	0x3f8f6442	1.1202471
15	0x3f82b4ba	1.0211403
16	0x3f10d9dc	0.5658243
17	0x4001255e	2.0179057
18	0x3f3d97d6	0.7405981
19	0x3f546816	0.8297132
20	0x3f871369	1.0552799
21	0x3f852850	1.0402927
22	0x3fdba9d0	1.7161198
23	0x3f5bc910	0.8585367
24	0x3fedc9f9	1.8577262
25	0x3f9c9f07	1.2236031
26	0x3f1745c5	0.59090835
27	0x3faed396	1.3658321
28	0x3f7e4f1d	0.9933947
29	0x3fac18ea	1.3445103
30	0x3f9399aa	1.153127
31	0x3f488af3	0.7833702
32	0x3f3334d7	0.700025
33	0x3f5a6d13	0.85322684
34	0x3f5202ca	0.82035506
35	0x3f0ae653	0.54257697
36	0x3f79d96a	0.9759737
37	0x3f02a692	0.51035416
38	0x3f443cb7	0.76655143
39	0x3f68cf32	0.90941155
40	0x3f9b3402	1.2125247
41	0x3f76071c	0.961046
42	0x3f5c5585	0.8606799
43	0x3f9996fc	1.1999202
44	0x3f687697	0.90805954
45	0x3fe12a32	1.7591002
46	0x3f95aece	1.1693971
47	0x3f6e5e38	0.93112516
48	0x3f513fa0	0.8173771
49	0x3f9990ed	1.1997353
50	0x3f201fb7	0.62548393
51	0x3f481c59	0.78168255
52	0x3f3e36ab	0.74302167
53	0x3f93ccf4	1.1546922
54	0x3f83b56b	1.0289739
55	0x3f34c5ad	0.7061413
56	0x3f526344	0.8218272
57	0x3f20fd31	0.6288634
58	0x3f91985c	1.1374621
59	0x3f87feab	1.0624593
60	0x3f3374be	0.7010001
61	0x3f623f92	0.8837825
62	0x3f3a91ef	0.72878927
63	0x3f85daf4	1.0457444
