maml-notebook_original_test/maml-notebook/completed_model/model-epoch_00029-train_loss_0.143-train_acc_0.844-test_loss_0.533-test_acc_0.843.pt (torch_old, 305688 bytes, 20 tensors)

conv1.weight f4 [64, 1, 3, 3]
000000 ed 3f a5 3c b4 6b e3 bc 33 34 2e bb b1 d1 82 bd
       0.020172084 -0.027761318 -0.0026581406 -0.06387652
000010 cc 5b 91 bc df 42 79 bd b4 76 a0 bd 63 bb 8e 3d
       -0.017743967 -0.06085479 -0.07835141 0.06969335
000020 9b fc 38 3d 37 1a 92 3d 0f 1e 28 bd d8 75 71 bb
       0.04516278 0.07133906 -0.04104429 -0.0036843922
000030 79 d8 a7 3b f6 db 27 3d 32 b4 d4 bd 19 b2 e1 bc
       0.005122241 0.040981255 -0.10385932 -0.027550744
000040 2a c0 92 3d 49 8f 97 3c f4 c8 9b 3d 4b 93 1a be
       0.07165559 0.01850094 0.07606688 -0.1509525
000050 8c e3 2e 3d 3c 6d 0b bc 29 8f 82 3d 8a de 30 bd
       0.042697474 -0.00850993 0.06374962 -0.04318098
000060 3f 07 10 3e cc c5 af 3d 3c b6 36 3d ff 99 c1 bc
       0.14065264 0.08582649 0.044607386 -0.023633001
000070 5a 06 f7 bd 76 ea 2c 3d 43 63 1f 3d 2c 9a 33 bc
       -0.12061758 0.042215787 0.038913023 -0.01096205
000080 77 55 f4 bc 86 32 ed bc 26 6d 6f 3b a1 2c 11 bd
       -0.029825909 -0.028954756 0.0036533563 -0.035442952
000090 ca a9 2d 3e 40 b4 86 bc 98 d5 3d 3d 1f d5 4f 3d
       0.169593 -0.016443372 0.046346277 0.050740357
0000a0 34 29 ba 3b b3 69 b9 3c 98 27 b2 bc ea 42 c3 3d
       0.0056811813 0.02263341 -0.021747395 0.09534247
0000b0 10 5e ad bd 2f 7a 48 3d f5 c8 0c 3e a8 44 f3 bc
       -0.084652066 0.04894465 0.13748534 -0.029695824
0000c0 80 3b 32 3b 72 bd d1 3d 59 d0 ef bc 60 07 36 3c
       0.002719611 0.10241212 -0.029274153 0.011110157
0000d0 92 8a 0a 3d 99 c9 ba 3d d3 19 09 bd d4 8c f5 bc
       0.033823557 0.09120483 -0.033471894 -0.029974379
0000e0 d7 e2 86 3d ce 8c 22 3d bb 2c 9c bc aa cd 99 bb
       0.06586235 0.039685063 -0.019064298 -0.0046937065
0000f0 90 16 17 bc 63 c9 1c bb c3 00 b0 3c be c0 ee 3b
       -0.009221688 -0.0023923747 0.021484738 0.0072861603
000100 2c bc c9 3d 36 f8 25 bd 9d 3f 8d bd e4 4c 71 3d
       0.09850344 -0.040519916 -0.06896899 0.05891122
000110 7a c6 2d ba 3b 51 dd bc 5a 34 2f 3d d9 15 33 bd
       -0.00066290016 -0.027016273 0.042774536 -0.043722007
000120 55 7d 89 3b 20 f4 d8 bb 0b 32 b7 3c ae ae b0 3d
       0.004195849 -0.006620899 0.02236273 0.086270675
000130 47 6e 8b bd b2 66 af 3d ef cc 78 3c f3 72 e8 bd
       -0.06808143 0.085645095 0.015185579 -0.1135005
000140 3e bd 8b 3b 78 87 a9 bc 99 bb 05 3d 1b 6c 9f bd
       0.004264503 -0.02069448 0.03264961 -0.07784291
000150 67 15 69 3c 78 ed 22 3b 3b a4 14 3d f1 3b 1e 3d
       0.014226294 0.002486078 0.036289435 0.038631383
000160 cd d0 01 3d 2a ea 54 3d 5e 45 17 be 7a 0b 02 3e
       0.03169327 0.05198113 -0.14772555 0.1269969
000170 56 0d 1e 3c fb 35 3e bd 97 34 1c 3d 46 97 8c 3b
       0.009646734 -0.0464382 0.03813609 0.004290494
000180 6a cc ba 3c d6 31 8d 3c d8 7e 27 bd c6 1a 0f 3d
       0.02280255 0.017235678 -0.040892452 0.034937643
000190 bc 8f 5c bd 04 98 75 3d 16 d0 a8 bd 19 7a 0e 3d
       -0.053848013 0.059959427 -0.08242814 0.03478441
0001a0 0f d2 6a 3d 57 57 d9 bd f9 a1 9d 3d 84 a9 57 3d
       0.057329234 -0.10612362 0.076969095 0.052651897
0001b0 d1 6f 61 3d 9a 5c 6e bc 22 84 10 bd 5f a5 a7 3b
       0.055038277 -0.014548445 -0.03528226 0.0051161493
0001c0 6f a0 de 3c 8e 7f 6b 3c e0 22 27 3d f2 e9 b2 3d
       0.02717611 0.014373673 0.040804744 0.08736028
0001d0 a1 35 06 3c 69 55 33 3c d1 f3 e6 bc 17 8f 42 3d
       0.008191497 0.010945656 -0.028192433 0.047499742
0001e0 c9 5b e5 bd 8d fd 97 3a 83 7a 42 bd 50 28 c3 bd
       -0.11199147 0.001159595 -0.047480118 -0.095291734
0001f0 eb 0a 86 bc 5e 8f b6 bd 96 84 04 3d 63 4c 01 3d
       -0.016362628 -0.08914064 0.032353006 0.03156699
000200 0c 1f 8b 3d 87 99 a5 bd b3 76 98 bc 57 a3 5b bc
       0.06793031 -0.08085924 -0.018611288 -0.0134056425
000210 9a af 13 b9 08 3d 81 3d b8 62 6b 3c 33 33 fe 3d
       -0.00014084429 0.06310469 0.014366798 0.12412109
000220 e6 4b 1a 3d f8 86 71 3b bb 95 35 bd c8 12 c1 bd
       0.03767004 0.003685413 -0.044332247 -0.0942741
000230 7f 18 41 bd 8c df b7 3d 08 5a d5 3d 59 04 91 3c
       -0.047142502 0.08978185 0.10417563 0.017702268
000240 2b b5 86 bc 54 c6 50 3d 47 ee 6c 3d 24 95 aa bd
       -0.01644381 0.05097039 0.057844426 -0.083292276
000250 c8 0a 78 3c 83 3b a0 bc a7 d8 17 bd 4c c3 6b 3c
       0.015139289 -0.019559627 -0.03707185 0.014389824
000260 e1 95 0d 3d 5e 2c a6 3d 16 93 94 3d f1 0a eb 3c
       0.034566764 0.08113931 0.07254617 0.02869174
000270 58 c0 85 bc 15 3c 97 bc 43 9e ec bc 29 12 de 3b
       -0.016327068 -0.018461267 -0.028884059 0.006777067
000280 81 2f ba bc 6e 54 1c 3d e7 9f 9c 3d 5e ec 69 bc
       -0.02272773 0.038166456 0.076476865 -0.014277546
000290 76 3a a5 3c df a1 2a 3d c7 7a 4e 3d 8b a8 70 3d
       0.020169478 0.04165828 0.05041006 0.058754485
0002a0 c1 44 2d bd 50 15 c6 bd 3e c4 7f bd 7b ea dd bd
       -0.042301897 -0.09672034 -0.06244301 -0.10835739
0002b0 e1 6d 7e 3a 87 eb c5 bd ec 0e c5 3c 32 97 28 3d
       0.0009705704 -0.09664064 0.024054967 0.041159816
0002c0 24 83 bb 3c a8 c2 ee 3c 1a 0e 1a bd 0d 51 20 3c
       0.022889681 0.029145554 -0.037611105 0.009784949
0002d0 5e b4 93 bc 66 8b 94 bc 12 18 9d bc 1d f3 b6 bc
       -0.018030342 -0.018132877 -0.019176517 -0.022332722
0002e0 d3 0b 2a bd e8 72 91 bc 0b ac 48 3d 8d e2 7f 3d
       -0.041515183 -0.017754987 0.048992198 0.062471915
0002f0 07 a9 db 3d 17 1a 85 bd 34 74 a5 bb 85 b8 17 bc
       0.10725599 -0.06499117 -0.005049253 -0.0092603015
000300 ba 55 66 bc 90 dc a3 3d 7d df 6a bd f8 13 1d bc
       -0.014058525 0.08001053 -0.05734204 -0.00958728
000310 49 3b 83 bc d0 ee cd bd 84 69 eb 3b 46 67 c7 bd
       -0.01601948 -0.100553155 0.0071842093 -0.09736495
000320 ce bf b9 3d e3 f3 9a bd 42 69 63 bd 14 c5 7a 3d
       0.09069787 -0.07566049 -0.055520304 0.061223105
000330 4d 4a ac bc 35 e6 eb bd 04 50 6d 3c 91 25 81 bc
       -0.021031523 -0.11518518 0.014484409 -0.015764983
000340 7f 42 27 bc 06 0b a6 3d 4a a6 fe 3c 3c ce 0d bb
       -0.010208725 0.08107571 0.031085152 -0.0021637818
000350 a1 fa 94 3d a1 ad e1 3b d6 d3 d0 bd 5c e4 34 3d
       0.07274366 0.0068871533 -0.101966545 0.044163093
000360 3e ae 47 3d 1d f8 fe bc a0 4c c3 bc 0c af ba 3c
       0.048750155 -0.031124169 -0.023840249 0.022788547
000370 8b 8e 9e 3c 14 2a 65 bd 8f a0 60 3d af 4f da bb
       0.01935508 -0.055948332 0.05484062 -0.006662331
000380 5d e9 08 bd 77 bc 55 3c 06 71 38 3d 21 3c e5 bb
       -0.033425678 0.013045422 0.045029663 -0.0069956933
000390 c6 29 26 bd d6 8e a7 bd 0f 88 de bd e7 de ee bd
       -0.040567182 -0.08181541 -0.10865795 -0.11663609
0003a0 d5 cf ee 3b 31 a5 ae bb 04 fa 4b bd ed 20 55 3d
       0.007287959 -0.005329751 -0.04979898 0.052033354
0003b0 e6 17 c0 3c f9 63 68 3d 16 54 55 bd 5d e4 ae 3d
       0.023448896 0.056735966 -0.052082144 0.085396506
0003c0 5d c6 31 3d 27 a3 81 3d 97 aa 3c bd 5a 2c c6 3d
       0.043402065 0.06329947 -0.046061125 0.09676428
0003d0 a3 6c 68 bd f2 65 0f bb 9a 93 ef 3a 88 29 5f bd
       -0.05674423 -0.0021880833 0.0018278242 -0.054482967
0003e0 86 96 1e 3d 95 eb 1d bd 52 9f 18 bc 79 a4 d1 3d
       0.03871777 -0.038554747 -0.009315329 0.10236449
0003f0 16 2a 7a bb a3 e2 82 3a 33 b1 92 3d 78 d8 1c bc
       -0.0038172058 0.0009985756 0.07162704 -0.009573095

conv1.bias f4 [64]
000000 6b b5 61 3b 35 e6 3d 3b b5 1c 7f 3b 0d 70 f6 3a
       0.003444041 0.0028976325 0.0038927023 0.0018801704
000010 ec 1c 59 bb 1e a7 64 3b 1c 5c ca bb 98 5d 24 bc
       -0.003312881 0.0034889649 -0.006175531 -0.01003208
000020 57 79 8c ba 20 ce ca 3b d8 a2 20 bb 8e bd 1b bb
       -0.0010717314 0.006189123 -0.0024511125 -0.0023764106
000030 13 c6 e5 ba 79 97 21 bc 53 44 0c bc 46 a9 93 ba
       -0.0017530344 -0.009862774 -0.008561212 -0.0011265657
000040 8c 0d f4 3b da 63 44 ba 0e 7e c6 3b ab 1e b0 ba
       0.007447904 -0.00074916857 0.0060575074 -0.0013436874
000050 39 84 20 3b 04 0f b1 3b 2a a8 20 bb 2f d6 af 39
       0.0024492873 0.0054034013 -0.0024514296 0.0003353818
000060 80 3f ce b8 23 1b a4 3b b4 41 a4 ba 2c 57 b1 bb
       -9.834673e-05 0.0050081178 -0.0012531788 -0.005412003
000070 0f 25 bb 3b 55 a6 08 bc 00 44 9e bb 92 56 0e 3b
       0.005711205 -0.008340438 -0.0048298836 0.002171908
000080 37 be 0a bc 8b 28 03 3b 2b 99 e6 3b 05 f4 d0 3a
       -0.008468202 0.002001318 0.007037302 0.0015941864
000090 de 51 84 3b ac 10 01 b9 a7 3e b8 bb af f6 1d bb
       0.0040380796 -0.0001230861 -0.005622703 -0.0024103334
0000a0 2f 9e f4 3b d0 01 df ba 90 26 8f 3a 88 4a 29 3c
       0.007465146 -0.001701409 0.0010921527 0.010332711
0000b0 5e 1e 53 3c 3e 48 c9 bb 2a 68 2d bb 0e a7 28 bc
       0.012885658 -0.006142645 -0.0026459792 -0.010293735
0000c0 04 4e 2e 3c 26 73 d6 3b 79 b0 d6 3a 6c 66 b4 bb
       0.010638718 0.0065444885 0.0016379497 -0.0055053737
0000d0 5b 87 9a ba 68 1a 07 3c 7c 1d 02 3c a5 6e dd bb
       -0.0011789607 0.008246042 0.0079416 -0.0067575746
0000e0 c1 9f 5f 3b dd cf 11 3c 3d 89 39 bb 46 ad b0 bb
       0.003412232 0.008899656 -0.002831056 -0.0053917496
0000f0 d2 77 34 bc cc b9 13 bc 95 67 fc bb 13 45 32 3c
       -0.0110148955 -0.009016465 -0.0077027776 0.010880726

conv2.weight f4 [64, 64, 3, 3]
000000 b6 5c f0 3c f1 9d c3 3d f0 d0 6b 3d f1 5c 8f 3b
       0.029341083 0.09551609 0.057572305 0.004375093
000010 d0 16 09 bb 4e eb 1b 3d 10 d0 b9 3d 25 97 9d bc
       -0.0020918138 0.0380662 0.09072888 -0.01923711
000020 d3 00 06 3d 58 f3 ec 3c a1 88 86 3b a3 3f 3f bd
       0.03271563 0.02892463 0.004105643 -0.046691548
000030 0a 78 7f bc cd 81 55 3b e2 24 af bc 08 70 1a 3d
       -0.015592584 0.0032578588 -0.021379892 0.037704498
000040 31 57 2a bc c1 69 11 3d 6c a7 3f bd fd 33 86 bc
       -0.010396765 0.035501245 -0.046790525 -0.016382212
000050 ac 7a 78 bc b9 bf 3d 3b ba ea af 3c 00 7c 4e bd
       -0.015165966 0.0028953387 0.021474231 -0.050411224
000060 d6 20 63 3c 25 53 9e bc 2f c2 a7 bc 63 b6 e2 3b
       0.013862809 -0.019326756 -0.020478336 0.006918715
000070 36 39 cf bc 99 24 a2 3c e6 8b 5c 3d 4a 31 51 bd
       -0.025295835 0.019792842 0.053844355 -0.051072396
000080 73 de dc 3d ff bc 59 bd f6 1d 02 bd 3c d3 e5 bc
       0.10784616 -0.053158756 -0.031766854 -0.028054826
000090 7c c8 93 bd a0 7e 2d bd 79 9a 79 bb b6 36 51 3d
       -0.07215974 -0.042357087 -0.0038086458 0.051077567
0000a0 45 1e 8f bd 16 5d 31 bd 69 05 c3 bb 30 c9 53 bc
       -0.06988195 -0.043301664 -0.0059515727 -0.012926385
0000b0 96 62 9e bc 1d 6b 4d bd 9b 9e 0c be 40 23 74 bb
       -0.019334119 -0.05015098 -0.13732378 -0.0037252456
0000c0 21 fb 93 bc 60 87 59 bd 67 39 42 bb 1b 8c 59 3d
       -0.018064084 -0.05310762 -0.0029636265 0.05311213
0000d0 5e df ec 3c 3d ce df bc 00 9c eb 3c 7d 08 1c bd
       0.028915104 -0.027320022 0.02876091 -0.038094033
0000e0 75 dc d1 bc 89 55 a9 bc 05 e6 a8 bd cd 4c 49 bc
       -0.025617817 -0.02067067 -0.08246998 -0.012286377
0000f0 eb 1b 72 bb 3f 36 66 bd cf 5e 80 3c 37 da ce bc
       -0.003694291 -0.056204077 0.015670208 -0.025250537
000100 42 0d 0c bd 87 fd 91 bc 89 bf 3b bd d2 5c a0 bc
       -0.03419233 -0.017821087 -0.04583696 -0.01957551
000110 0b 90 31 3d ce b0 ff bb 53 9e 75 bc 91 79 cb 3c
       0.04335026 -0.007803059 -0.014991361 0.02483824
000120 35 5d af 3d c8 d0 0f bc 4e 1c 9c bc 6f e9 8a 3d
       0.085627 -0.008777805 -0.019056465 0.06782805
000130 9a 65 e6 bc 3d 77 57 3c 10 4c 23 3d e8 c0 26 3d
       -0.02812462 0.013150987 0.03986746 0.040711313
000140 89 03 00 3d 80 af 82 3d d7 18 81 3c 41 a4 aa 3d
       0.03125337 0.0638113 0.015758915 0.0833211
000150 44 7d 05 3d 15 0e 1c bb 15 7b 2c 3c d2 cd cd bc
       0.032590166 -0.0023812104 0.010527392 -0.025122557
000160 be f2 62 bd 97 01 94 bd 39 6f 0f bc 2e 14 fa 3b
       -0.05540728 -0.07226866 -0.008754545 0.0076318
000170 e3 31 48 bd c5 d5 20 bd 3a c6 cc bd e5 32 e7 bb
       -0.0488757 -0.039266367 -0.09998746 -0.0070556276
000180 e2 63 e4 bc 83 10 14 bd 5f e5 a7 3c a4 f6 0f bd
       -0.02787966 -0.03614856 0.020495115 -0.035147324
000190 b8 a9 06 bc 28 3e 73 bd e9 a2 a6 3b a2 33 a3 bc
       -0.008219175 -0.05938545 0.0050853384 -0.019922081
0001a0 a7 06 15 3c f8 50 4e bd a0 b5 19 bd e8 81 fa 3c
       0.009095824 -0.050370187 -0.037526727 0.030579522
0001b0 93 f0 9f 3c ae ff 32 bd d4 03 db bc d8 3c a1 3d
       0.019523894 -0.043700866 -0.026735224 0.07872933
0001c0 39 e8 c0 3c 61 72 fa bc 64 9e 95 bc e1 7c 9b 3c
       0.023548232 -0.030572118 -0.018264003 0.018980445
0001d0 ff 63 9f 3c f4 39 1d 3b 5a 29 cf bc 2b 8a 85 bb
       0.019456862 0.0023990842 -0.025288273 -0.004075309
0001e0 43 74 0c 3c b9 58 0f 3d 9a 14 18 3d 3f ec a5 3c
       0.008572641 0.034996722 0.037129022 0.020254252
0001f0 f3 b0 08 bd 7b 7b 2d 3c 09 8c 2e 3c 88 23 1a bc
       -0.033371877 0.010588522 0.010653504 -0.009407885
000200 03 cc 63 3c ae 21 74 3d d8 cf 1c 3d 2f 69 0f bd
       0.013903621 0.059602432 0.038284153 -0.03501242
000210 5a 8b 16 bc 11 54 a0 bd 68 91 03 3d 0f 5a 94 3d
       -0.009188497 -0.078285344 0.032121092 0.0724374
000220 e9 dd 15 3d 0a 8b 53 3b 95 73 85 3d be 49 00 3b
       0.036588583 0.0032278919 0.06516186 0.0019575204
000230 4b e8 27 3d 51 df 27 3d 05 fc 13 bc de 23 89 3c
       0.040993016 0.040984455 -0.009032254 0.016740736
000240 88 5f 10 3d 15 92 3a bd 32 96 a5 bb 89 2f 37 3d
       0.035247356 -0.04554947 -0.005053305 0.044723067
000250 7d 02 cd 3c 6d 99 50 bc 9d 99 2f 3a 08 5e 3e 3d
       0.0250256 -0.012731892 0.00066986104 0.046476394
000260 7e cb ec 3b a5 dc 99 3c 8a 45 9c 3d 7f e8 33 bd
       0.0072264066 0.01878197 0.07630451 -0.043922897
000270 2a 03 27 3d a2 d2 9f bd 6c f4 3a bd eb 01 1f bd
       0.0407745 -0.07803847 -0.045643255 -0.03882019
000280 2b cb 41 3d e7 ce 17 bd 62 90 8d 3d 28 ef 68 bc
       0.047312897 -0.03706255 0.069123045 -0.014217176
000290 a7 f1 1c bd 01 26 d2 3c de 32 07 3c d0 f6 ae 3b
       -0.038316395 0.025652887 0.008251874 0.005339481
0002a0 2c 88 85 3d 28 0a 5c 3d d8 e3 a0 3d 3e ce 0b 3d
       0.06520113 0.053720623 0.07855958 0.034132235
0002b0 f9 0f ce 3c 80 23 19 3d e8 be 8b 3d 00 98 49 bd
       0.0251541 0.03738737 0.06823522 -0.049217224
0002c0 dd 62 19 3b 68 dd d1 3d c0 a4 30 bd 7b a7 0f 3d
       0.0023404874 0.10247308 -0.043125868 0.03507183
0002d0 98 3d 0e bd fb 9b a0 bc 1b f4 8a 3d b8 15 20 3d
       -0.03472671 -0.019605627 0.06784841 0.039083213
0002e0 6e 1a f4 3c 58 07 b8 bd 99 db 4b 3d 85 a3 23 bd
       0.029797759 -0.08985776 0.04976997 -0.039950866
0002f0 93 28 63 bd 0a 12 68 3d 54 db 85 3d 29 22 3e 3d
       -0.055458616 0.05665783 0.06535974 0.046419296
000300 64 6e 8d 3c 75 9b 81 3d 8f 8b 36 bc a0 ae c3 bc
       0.017264552 0.06328479 -0.011141672 -0.023886979
000310 af 88 ae bb cc b5 3a bb b5 2d cd bc 28 a0 72 bc
       -0.0053263525 -0.0028489707 -0.025046209 -0.014808692
000320 e7 5b e6 bc fa 12 b7 bc 11 09 1e 3c 0d 8e ab 3b
       -0.028119994 -0.022347916 0.009645716 0.0052354396
000330 39 91 87 bd 24 77 a9 3c 39 37 9e 3c be cd 41 3c
       -0.06619496 0.020686693 0.019313442 0.011828838
000340 5e 94 e3 bc 33 74 e1 bc 16 da 77 bb 0a 1d 50 bc
       -0.027780708 -0.027521228 -0.0037819198 -0.012702236
000350 d3 20 cb bc 04 cd f3 bc 2a 5b 80 3c 78 d0 99 bd
       -0.024795925 -0.029760845 0.01566847 -0.075104654
000360 01 cc 00 bd cb 81 19 bb 6c 33 2c bd 38 c8 53 3b
       -0.031444553 -0.002342331 -0.042041227 0.0032315385
000370 f6 d0 14 bd d8 0f 80 3c 3a 43 4b bd 90 5e 83 3d
       -0.036332093 0.015632555 -0.04962466 0.06414521
000380 7d 8f c2 ba 1c 62 85 3c fb b1 11 bd f7 88 d1 3b
       -0.0014843788 0.016282134 -0.035570126 0.0063945013
000390 47 49 c0 3c d4 05 c0 3c 2e 33 e6 3c e7 4d 1d 3b
       0.023472441 0.023440279 0.028100576 0.0024002732
0003a0 88 62 09 bd 29 90 fa bc 07 5e c8 bc 1b 7b 01 3c
       -0.033541232 -0.030586319 -0.024458898 0.007902886
0003b0 cc 08 ba bc b3 e4 e6 3c 7a 8c 05 3d b3 67 a0 bd
       -0.022709273 0.028185224 0.032604672 -0.07832279
0003c0 3e c7 98 3b 3a 5e 92 3b 42 1c 78 3c a2 94 28 3c
       0.0046624234 0.004466799 0.015143456 0.010289343
0003d0 a0 84 74 3d 84 42 20 bc b9 30 8f 3d f0 2d 1c 3b
       0.059696794 -0.009781484 0.06991715 0.0023831092
0003e0 ab a5 52 bc 48 4e 50 3b de fb 09 3d 26 50 26 3d
       -0.012856881 0.003178494 0.033687465 0.04060378
0003f0 ba 1b 85 3d 36 f1 c5 3c 21 eb 5b 3d 65 67 07 3d
       0.06499429 0.02416287 0.053691033 0.03305759

conv2.bias f4 [64]
000000 bb 81 89 3b 0a f1 da ba c1 66 97 bb 1e 20 27 b8
       0.0041963733 -0.0016703915 -0.0046204035 -3.9845814e-05
000010 c8 ad 0d ba 75 d1 ef 3b 9e 59 94 3b 4f 2f c2 ba
       -0.00054046186 0.0073186704 0.0045272848 -0.0014815124
000020 52 f1 3b 3b d1 d3 86 bb 77 50 ae ba 4d 7b 9c bb
       0.0028677774 -0.004114606 -0.0013299127 -0.004775441
000030 a1 11 41 ba 3a 11 6b bb ec de 83 39 2a bc 8b 3b
       -0.00073649926 -0.0035868422 0.00025152357 0.0042643743
000040 aa 91 8c 3b 72 13 03 3a 1c 7e 02 3b 6a 77 a9 ba
       0.0042898254 0.0005000151 0.0019911593 -0.0012929265
000050 0e 79 1d bb 9b 1c a5 3a d6 48 51 3a 61 e0 d0 bb
       -0.0024028453 0.0012597026 0.00079835707 -0.0063744043
000060 cc 07 64 3a 1e b8 70 3b 1f 0f 97 ba de ab 20 bb
       0.00086986716 0.0036730836 -0.0011524892 -0.0024516503
000070 1d 23 48 ba 9e cd c6 3a 83 ae d6 ba 6d 7d 18 bb
       -0.0007634627 0.001516748 -0.0016378913 -0.002326812
000080 25 f6 8f 3a 88 d8 33 ba 80 c7 4f 38 f1 42 b0 ba
       0.0010983391 -0.0006860574 4.9538445e-05 -0.0013447684
000090 85 d0 e0 bb 88 65 22 3b ff 53 c4 3b e0 95 63 3b
       -0.006860795 0.0024779756 0.0059914584 0.0034726784
0000a0 d0 67 4c 3b 2b 4e 72 3a b2 44 be 39 97 8d b5 3b
       0.0031189807 0.00092432153 0.00036290806 0.0055405605
0000b0 c0 f5 81 bb d6 dd 34 3b 68 bb 5b 3b eb 05 d3 3b
       -0.0039660633 0.0027598045 0.003352845 0.0064399145
0000c0 af 70 ac b9 f1 cf 06 3b 51 52 85 bb e5 82 d1 ba
       -0.00032890352 0.002057072 -0.004068651 -0.0015984444
0000d0 f8 d5 c4 ba b2 98 c4 bb ea c0 00 bb 28 9c 92 3b
       -0.0015017381 -0.005999648 -0.0019646236 0.0044741817
0000e0 04 92 1f 3b c6 7b b7 b7 fe 00 01 3b 56 3b 12 bb
       0.0024348507 -2.1872936e-05 0.001968443 -0.00223132
0000f0 7e 46 5d b8 1f cb cd ba d8 62 99 bb df a4 aa b7
       -5.2756157e-05 -0.0015700794 -0.0046809725 -2.0342353e-05

conv3.weight f4 [64, 64, 3, 3]
000000 b5 b5 a9 3c 36 40 82 3d 0d 89 5a 3d 59 c9 45 3d
       0.020716527 0.063599035 0.053353358 0.048287723
000010 69 8e 7c bd d3 b3 dd bb 14 ad 79 bc 0b db 87 3d
       -0.06165925 -0.0067658215 -0.015239019 0.06633576
000020 a1 41 5b 3c bb ac be bc b8 01 9a bd 07 5c a4 bc
       0.013382346 -0.023275724 -0.07519859 -0.020063413
000030 b6 33 50 3d ac 2c 42 3d 63 46 bd 3a 7e 58 a7 bc
       0.050830565 0.047405884 0.0014440533 -0.020427939
000040 3f d7 67 3d 95 21 99 bc b9 f0 7b 3b e6 73 98 bc
       0.05660176 -0.018692771 0.0038443042 -0.018609952
000050 34 b8 a3 bb 31 9a cb bc b8 9c 92 3c 6d 15 0b 3d
       -0.004996324 -0.024853798 0.017896995 0.03395598
000060 10 2e 18 3d 94 93 74 bc fe d6 2a bd 64 5b 13 bb
       0.037153304 -0.0149277635 -0.04170894 -0.0022484893
000070 16 83 b4 3b 94 52 70 3c c5 af 90 3c ec a5 fc 3b
       0.0055087907 0.014668126 0.017661938 0.007710209
000080 7f 77 c3 bb a4 f1 5b 3a 48 a7 1b 3c 2f 7e ab bc
       -0.005965173 0.0008390194 0.009500332 -0.020934192
000090 77 35 5e 3b 29 dd 91 bc ef bd 87 3b 95 93 22 3d
       0.003390638 -0.017805653 0.004142515 0.039691526
0000a0 10 d5 80 3d b2 11 78 3d a7 8e b9 bd b9 61 58 bb
       0.062906384 0.06056375 -0.09060412 -0.0033017232
0000b0 6b f3 88 3d a6 d4 98 bc 64 ab 95 3d df a7 00 3d
       0.06687053 -0.018656086 0.07308081 0.031410094
0000c0 0c 9a 8d 3d 70 3c 02 3d 0e f9 e9 3c 0c 04 fd 3c
       0.06914148 0.03179592 0.028561141 0.030885719
0000d0 18 c1 50 3d e0 79 9e bc 88 b1 a6 3a e0 89 0c 3d
       0.0509654 -0.019345224 0.0012717703 0.034311175
0000e0 ea 09 b8 3b 56 ed b1 3b d2 41 f3 bc 2e d4 89 bc
       0.005616416 0.005429904 -0.029694472 -0.016824808
0000f0 18 c6 48 bd 3e 0f 8d bd e2 77 77 3d 2d f1 9e 3c
       -0.049017042 -0.06887673 0.060417064 0.019402111
000100 b9 05 c4 3c f8 6d e5 bc dc cd 5e 3d fc a9 ba ba
       0.02392851 -0.028006539 0.05439554 -0.0014241333
000110 98 3c 98 3c c6 ef 84 bc 3d 09 18 3d 17 11 2a 3d
       0.01858358 -0.016227614 0.037118185 0.041520204
000120 16 86 41 bc 2c 22 68 3c c7 21 27 bd 25 9c fa bc
       -0.011811754 0.014168303 -0.040803697 -0.030592034
000130 8d 1e a3 bc 0c 89 8e bc 92 be 27 bc 39 89 30 3c
       -0.019912029 -0.017399333 -0.010238307 0.010774904
000140 aa 0a 24 bd f8 64 e2 3b b5 48 1e bd cf 41 ad bb
       -0.040049233 0.006909009 -0.038643558 -0.005287386
000150 3c 97 05 bc 1f 18 ad bc 4e ca c3 3c c2 ae b1 3c
       -0.008153733 -0.021129666 0.023900177 0.021689776
000160 78 41 08 bd e3 4a 39 bd 31 c7 03 3c 82 3d 99 3d
       -0.03326556 -0.045237433 0.008043096 0.07482435
000170 00 d0 a2 3c 24 4b 0c 3d e4 a5 16 3d 28 08 7c bc
       0.019874573 0.034251347 0.0367793 -0.015382804
000180 90 8b 8a 3d 78 21 ec 3b 46 35 f6 3c a3 3f 17 bd
       0.06764901 0.007206138 0.0300547 -0.036925923
000190 44 05 ee 3b d3 cc c6 3b e4 52 08 3c dd 6d 3a bd
       0.0072638113 0.0060668974 0.008320544 -0.04551493
0001a0 c2 0f e3 bb b9 e9 77 3d 15 e1 4a 3c 28 9c 17 ba
       -0.0069293687 0.06052563 0.012382765 -0.0005783462
0001b0 ae 8b b0 3d ac 7c 0c 3d 82 23 34 bd 37 4b 7b 3c
       0.08620392 0.034298584 -0.043979175 0.015337757
0001c0 ec 68 38 bd 93 71 80 3c 96 29 f8 3b 55 22 44 3d
       -0.045021936 0.015679156 0.007573317 0.047884304
0001d0 ce f6 83 3c 8c c1 62 bc 74 cc c1 bd 7f 6f 86 3c
       0.016108897 -0.0138400905 -0.094628245 0.016410587
0001e0 ea f7 63 bd b5 14 57 bc d8 23 67 3d ec 52 63 3d
       -0.05565635 -0.013127496 0.056430668 0.055499002
0001f0 81 89 19 bd 18 1a 90 bc 9b 44 4a bd fa 1c dc 3a
       -0.03748465 -0.017590567 -0.049381834 0.0016793304
000200 8d 44 f0 3c cf 91 d8 bc dd 20 2a bd 4a 03 0a 3d
       0.029329563 -0.026436714 -0.041535247 0.033694543
000210 67 d3 44 bd 39 d7 e3 ba 05 90 42 bd 40 77 51 3c
       -0.04805317 -0.0017382867 -0.04750063 0.012784779
000220 aa d0 5b 3c 04 12 c4 3d 99 7e 8f 3c f6 8d 74 3d
       0.013416449 0.09573749 0.017516421 0.059705697
000230 8e 35 86 3d 5d 82 62 bc 32 06 e6 b8 2b 93 08 bd
       0.065531835 -0.013825026 -0.000109684086 -0.033343475
000240 26 86 af 3c e8 a4 44 bc f1 00 be bc 95 48 c3 3c
       0.021426272 -0.012002207 -0.023193808 0.02383832
000250 4a 3d 0e bd d1 98 f2 bb 70 34 42 3d 9f fa 8f 3c
       -0.03472642 -0.007403471 0.04741329 0.01757556
000260 65 19 51 3b 07 9c 39 3d 86 5f 87 bc 1d 1c 9b bd
       0.0031906005 0.045314815 -0.016525041 -0.075737216
000270 ad 4a f1 3a a4 6d 16 bd 4c 5c 03 3d 7d 6b 33 bd
       0.0018409096 -0.036725655 0.032070443 -0.04380368
000280 00 d9 98 bc f6 c8 96 bd bc ca 8d bd 34 01 a4 3c
       -0.018658161 -0.07362549 -0.06923434 0.020020105
000290 fe 10 a0 bc 37 0a 22 3d 44 af 2a 3c 9c bc 33 3d
       -0.019539353 0.039560523 0.010417763 0.043881044
0002a0 e5 f2 10 3d d3 a1 00 bd 40 60 35 bd e4 4a 0a 3d
       0.035387892 -0.031404328 -0.044281244 0.033762828
0002b0 32 46 8e bd 7b 7e 91 bc 41 f2 cc 3c ff 7b 9b bc
       -0.069469824 -0.017760506 0.02501786 -0.018980024
0002c0 ad d0 32 3d ed af 62 bd 31 4e 2c 3d 9d cd b6 bc
       0.04365604 -0.055343557 0.042066757 -0.02231484
0002d0 d0 ff 3b 3d 69 85 95 bd d7 85 97 bb c5 5a cd bc
       0.04589826 -0.073008366 -0.0046241092 -0.025067696
0002e0 2d 6f 91 3d 60 d0 58 bd 1d a2 9d bc 6a f1 cb bc
       0.07101283 -0.052933097 -0.01924234 -0.024895389
0002f0 ed cb 53 bd 5f 26 47 3b 17 d0 30 3c 3b 0f 51 3d
       -0.05170815 0.0030387861 0.0107918 0.051039916
000300 e3 a6 69 3d 9f 63 20 3d 51 ae 13 3a 81 e3 4c bc
       0.05704392 0.039157506 0.000563358 -0.012505413
000310 35 b2 0a bc 5e 7b 85 3d 8a d2 d4 bc 60 7e 9c 3d
       -0.008465339 0.06517671 -0.0259793 0.076412916
000320 ff eb 6b 3c 07 b1 c0 bd 20 f7 d9 3c bb 67 bd bd
       0.014399528 -0.09408765 0.026607096 -0.09248301
000330 40 4a b1 bc 65 c0 03 3d c4 d9 53 3d 85 1d 53 3c
       -0.02164185 0.032165904 0.05172135 0.012885456
000340 4f 33 83 3c 91 db e4 3c 44 91 6d 3d 21 3d 67 bd
       0.016015677 0.027936729 0.057999864 -0.05645478
000350 4c 0c 41 bc f8 b4 a7 3c f7 ee a1 3b d1 16 1d bc
       -0.011782717 0.020472035 0.004941817 -0.009587959
000360 6c 07 1a bd 0d be 4c bd 74 c1 cf 3d 0d ca 2b 3d
       -0.037604734 -0.049985934 0.1014432 0.041940738
000370 d9 12 fe bb 71 7f a8 bd de dc 9d 3c d9 93 63 3d
       -0.0077537117 -0.082274325 0.019270357 0.05556092
000380 51 22 fd bc a3 2d c6 3a 9f 98 64 bc 83 03 4e 3c
       -0.030900152 0.0015119802 -0.013952403 0.012574079
000390 16 f2 d6 3c ac fe 3d 3b c6 8c 1f 3d ba 0d 85 bc
       0.026238482 0.0028990908 0.03895261 -0.016241897
0003a0 a6 fb 49 bd 8a 0c c8 3c 31 8f 9f 3d ba 9d 38 bb
       -0.049312256 0.024420042 0.077909835 -0.0028170184
0003b0 d6 fc 1b bc d8 80 46 3d 82 2d 99 bc e7 2c 8a bd
       -0.00952073 0.04846272 -0.018698458 -0.06746846
0003c0 c8 8a 93 bb 8e 6d f1 bc c4 9b 97 3c b0 1d 50 3d
       -0.004502628 -0.029471185 0.018506892 0.050809562
0003d0 fc 62 48 3c ea b9 14 3c d1 2b a3 3c ab 7f e4 bc
       0.012230631 0.0090775285 0.019918354 -0.027892908
0003e0 da 68 0e 3d ee d6 21 bd 26 bb 94 bc b5 df 19 bd
       0.034767963 -0.039511614 -0.018155646 -0.03756686
0003f0 30 ae 46 3d 78 6c 2e 3d 99 7d 4d 3d d7 be 57 3c
       0.048505962 0.042583913 0.050168607 0.013168058

conv3.bias f4 [64]
000000 fd 97 bc 3c 9e e1 14 bc df a2 91 bc d9 7f da 3c
       0.023021692 -0.009086994 -0.017777858 0.02667229
000010 f7 26 14 3c db 8a dd 3c 92 91 ca 3c 68 82 b5 3c
       0.009042493 0.02704375 0.024727616 0.02215691
000020 60 d8 9c bc 0d fc 93 3c 78 a4 b1 3c 7b 21 9f bc
       -0.019146144 0.018064523 0.02168487 -0.019425144
000030 ea d5 80 3c ee 53 e5 3c 9b af 71 3b a6 52 30 3b
       0.015727002 0.027994122 0.003687835 0.002690473
000040 f2 1f b1 3c 49 94 ba 3c 8b 57 11 38 e3 c9 ce 3c
       0.021621678 0.022775786 3.4652225e-05 0.025242751
000050 73 03 b5 bc 87 3c 85 3c 72 f1 8d bc 6b 7e 81 bc
       -0.022096371 0.016264213 -0.017327044 -0.015807351
000060 70 4f 77 3b 3b 91 9c bc eb 07 03 3c 63 35 a2 3c
       0.0037736557 -0.01911222 0.007997493 0.019800847
000070 fd 9b 7c bc 9f 8e b6 bc a2 e3 6f 3c c0 fd 21 3b
       -0.01541805 -0.022284804 0.014641674 0.0024717897
000080 10 d4 ae 3c 44 58 ae bc ea 45 b5 3c a2 03 21 bc
       0.021341354 -0.021282323 0.022128064 -0.009827526
000090 9e 8e d0 3c 87 39 cc 3c 55 a5 d2 3c f9 83 be 3c
       0.02545863 0.024929775 0.025713602 0.023256289
0000a0 66 df 41 3c 74 da ed 3a 2e 69 a7 bc 62 f8 4a 3c
       0.0118330475 0.0018146769 -0.020435896 0.012388321
0000b0 da af bb 3c 44 f3 ac bc 51 e8 b8 bc c7 cc c9 3c
       0.022911001 -0.021112092 -0.022571715 0.024633778
0000c0 e9 46 ca 3c 20 b3 c8 3c 4e 0d c3 3c 9d 18 10 bb
       0.024692016 0.024499476 0.023810055 -0.0021987327
0000d0 60 42 b7 3c ca c8 b7 bc 14 68 d1 3c fc 39 94 3c
       0.022370517 -0.02243461 0.025562324 0.018094055
0000e0 cc 84 63 bc b3 3a 7e bb 6e df 57 3c 8f 18 c4 3c
       -0.013886642 -0.0038792312 0.013175828 0.023937492
0000f0 02 2f a6 3c 06 72 95 bc a7 58 67 3c 66 86 ba bc
       0.020286087 -0.018242847 0.014120257 -0.022769164

bn1.weight f4 [64]
000000 85 4d 7c 3f 1a 19 7b 3f 79 95 83 3f c7 1b 80 3f
       0.98555785 0.98085177 1.027999 1.0008477
000010 ef 6f 81 3f c1 be 81 3f 98 ca 80 3f f4 0b 82 3f
       1.0112284 1.0136338 1.0061827 1.0159898
000020 54 5a 7b 3f 7c c9 82 3f d6 b6 81 3f 63 36 83 3f
       0.98184705 1.0217738 1.0133922 1.0250973
000030 e7 52 81 3f 7b d4 7f 3f 57 cf 7b 3f 64 33 7d 3f
       1.0103425 0.99933594 0.9836325 0.9890654
000040 3e 8a 7e 3f 41 31 7f 3f b0 45 80 3f c0 07 81 3f
       0.9942969 0.9968453 1.0021267 1.008049
000050 be 78 81 3f 7c 8d 7c 3f 15 12 7e 3f 62 a8 7f 3f
       1.0114973 0.9865339 0.9924634 0.99866307
000060 75 0c 7e 3f 6c be 7b 3f 71 a8 7f 3f e1 1b 7f 3f
       0.9923776 0.98337436 0.99866396 0.99651915
000070 b6 06 82 3f b2 90 7c 3f ff f2 7d 3f 1f 73 83 3f
       1.0158298 0.9865829 0.9919891 1.0269507
000080 cc f3 7d 3f 0a e3 80 3f 52 e6 7e 3f de 93 7f 3f
       0.9920013 1.0069287 0.9957019 0.99835
000090 06 a2 7a 3f 03 24 80 3f 06 c4 80 3f c4 c3 82 3f
       0.9790348 1.001099 1.0059822 1.0215993
0000a0 6a 1a 82 3f fa b4 82 3f 35 79 80 3f c4 f2 82 3f
       1.0164311 1.021148 1.003699 1.0230336
0000b0 dc 0c 80 3f 94 b9 80 3f a2 48 81 3f 59 14 7e 3f
       1.0003924 1.0056634 1.0100291 0.992498
0000c0 7b 89 82 3f 2d f9 7d 3f d3 8d 7b 3f 97 f1 7c 3f
       1.0198206 0.9920834 0.9826328 0.98806137
0000d0 1f 2f 82 3f 61 b6 7c 3f ac 4a 7b 3f 55 1d 7d 3f
       1.017063 0.9871579 0.98160815 0.9887288
0000e0 cf 5f 83 3f 82 ce 81 3f ba b6 7b 3f 4f ef 81 3f
       1.0263613 1.0141146 0.98325694 1.0151156
0000f0 e2 ad 7e 3f d3 97 7e 3f fd 48 7b 3f d1 0b 7f 3f
       0.99484074 0.99450415 0.98158246 0.99627405

bn1.bias f4 [64]
000000 88 1e 45 3c f2 82 37 bc c3 67 9f 3c cb 4f 36 bb
       0.012031205 -0.011200653 0.019458657 -0.0027818556
000010 8d 93 87 bc 03 de 78 3c ed a0 19 3c 4b d4 8f bc
       -0.01654985 0.0151896505 0.009376747 -0.017557284
000020 57 ea ba bc b4 35 6b 3c 80 28 69 3c 4d 11 51 3c
       -0.02281682 0.014356066 0.014230847 0.0127604725
000030 c9 c8 5f 3c fc d4 f9 3b a6 4b 99 bc 15 85 9d bc
       0.013658711 0.0076242667 -0.01871283 -0.019228498
000040 bf 41 c3 bc 84 75 54 3c bb 69 b3 bc 5b 48 7d 3b
       -0.023835061 0.012967471 -0.021901002 0.0038647864
000050 1f ff c7 bb 83 7b 5a 3c 69 16 f2 ba 62 a9 2a bc
       -0.006103411 0.013335112 -0.0018469814 -0.010416361
000060 82 1e 2b bb 62 87 d4 bb 4e 29 32 bc 53 1b 97 bc
       -0.0026110713 -0.0064858655 -0.010874106 -0.018445646
000070 5f 65 4b 3b 29 bc 89 bc 9f 69 7f 3c f7 63 18 3c
       0.0031035764 -0.016813355 0.015589147 0.009301177
000080 76 1a 3e 3b 89 f0 c4 bb fb b5 95 bc 04 86 55 3b
       0.0029007471 -0.0060101193 -0.018275252 0.00325811
000090 7c f2 a4 bb 99 6e a4 3b 7c c4 f4 ba 25 53 87 3c
       -0.005033789 0.005018067 -0.001867428 0.016519139
0000a0 55 71 55 bc 36 02 98 3c 24 7a 54 3c a3 52 ba 3c
       -0.013027509 0.018555742 0.012968574 0.022744482
0000b0 4a 2f 0e 3c 5c 78 64 3c 07 98 dd bb 23 b6 a9 3c
       0.008678267 0.013944712 -0.006762508 0.020716732
0000c0 b8 9a c1 3c ac 5d 1b 3c 15 5c 74 bc 2e 90 9d 3b
       0.023633346 0.009482782 -0.014914532 0.0048084473
0000d0 60 70 d0 3c 82 1d 93 3c 7b 42 82 bc ad 57 ab bb
       0.02544421 0.017958406 -0.015900841 -0.0052289576
0000e0 f6 4b 98 3c 45 fb 97 ba d7 f9 ab 3c 8d 87 9b 3c
       0.018590908 -0.001159527 0.020993156 0.018985534
0000f0 c5 d6 b5 bc bf 3b 9d bc 60 6d 28 bc 5b 50 b3 bc
       -0.022197137 -0.019193528 -0.010279983 -0.021888902

bn1.running_mean f4 [64]
000000 bf 86 02 3c f8 f4 f0 3a 78 64 ce bb 7e c9 06 3c
       0.007966696 0.0018383553 -0.006298598 0.00822675
000010 36 05 68 bc 4c 6c 3a bc e7 9e e9 bb b8 3a 34 bc
       -0.014161399 -0.011378359 -0.0071295383 -0.011000328
000020 62 c7 14 bb cc 7b f9 3a 9c 66 b1 ba d3 0b ab bb
       -0.002270185 0.0019034087 -0.0013534608 -0.0052199154
000030 90 7b 19 bc 14 23 3a 3b c8 61 4a bc b2 77 0e bc
       -0.0093678385 0.0028402256 -0.012352414 -0.00869553
000040 f9 12 d7 3b d4 73 d2 bb 24 e4 a1 3b 5c 83 46 3b
       0.006563541 -0.006422499 0.0049405266 0.0030290699
000050 7b 3a 85 ba 04 d5 55 3c 0c 40 ac 3b 4b e1 78 bb
       -0.0010164523 0.013051275 0.0052566584 -0.0037976082
000060 37 6d 68 b7 28 db 87 3c 3f d4 05 bc fb 6b 0c bc
       -1.3853706e-05 0.016583994 -0.008168279 -0.008570666
000070 f6 8c 2b 3c 00 d3 79 bc 2f 45 f3 3a 16 c0 a1 bb
       0.010470619 -0.01524806 0.0018560047 -0.0049362285
000080 32 3a 95 bb 7c 1d b3 3b fe 56 24 3c 63 80 02 bc
       -0.0045540566 0.0054661613 0.010030506 -0.00796518
000090 83 b1 a3 3b 0d 56 1e 3a a0 3a 9f ba 77 5f 98 bb
       0.0049955263 0.0006040044 -0.0012148209 -0.004650052
0000a0 65 b6 ee 3b 06 43 5a bc d9 49 30 3c f6 ac f9 3b
       0.0072849267 -0.013321644 0.010759794 0.0076194955
0000b0 ac 8d cd 3c f0 23 9f bb c7 ce 54 bb 85 2e 97 bb
       0.025091968 -0.004856579 -0.0032471882 -0.0046137
0000c0 5b c2 fa 3b de cc 3f 3c c6 27 4e 3c 60 e4 ef 3b
       0.0076525635 0.011706559 0.012582725 0.0073209256
0000d0 7b 6d 3a bc 89 ef 9a 3c 1f f2 ef 3b ba 47 21 3a
       -0.011378641 0.018913047 0.0073225643 0.00061523507
0000e0 20 11 00 bc 8c 68 b7 3c 62 31 52 38 57 0a 16 bc
       -0.007816583 0.022388719 5.0113893e-05 -0.009157739
0000f0 2f c9 57 bc c4 1a 5a bc a2 09 78 3b fe 05 bd 3b
       -0.0131705245 -0.0133120455 0.0037847538 0.0057685366

bn1.running_var f4 [64]
000000 ef c6 a5 3c c3 d7 7d 3c 6d 11 91 3d 94 85 ba 3c
       0.02023646 0.015493336 0.07083402 0.022768773
000010 17 07 83 3d e2 a9 c3 3d fe 5f 9e 3b a8 eb 8e 3c
       0.06397837 0.09553887 0.0048332205 0.017446354
000020 24 cc b7 3c 1f 81 8c 3c 42 ae cf 3c 03 8e 0d 3d
       0.022436209 0.017151413 0.025351647 0.03455926
000030 7a b9 f2 3c f2 84 97 3d 8f 37 88 3c 48 fb 46 3d
       0.029629458 0.07398404 0.016628055 0.048579484
000040 4f d7 8d 3c 0a 28 a9 3c ae 1a f2 3c f8 33 b3 3c
       0.017314581 0.020648975 0.029553737 0.021875367
000050 9a 57 d2 3c 93 fa ed 3c ae d0 73 3d d5 74 d4 3c
       0.025676537 0.029050147 0.059525184 0.025934616
000060 ff 9f 6a 3c e1 99 86 3d 54 cb ba 3c b3 75 99 3c
       0.014320373 0.06572319 0.022802033 0.018732881
000070 9c db fd 3c 5b e5 19 3d ba 3f 0d 3d 60 8f fc 3c
       0.030988507 0.037572246 0.034484603 0.030830085
000080 6a b5 ff 3c 41 91 00 3d 15 d9 21 3d db 5d 36 3d
       0.031214435 0.031388525 0.039513666 0.0445231
000090 8d 41 0b 3c ca 28 00 3c 7f f9 66 3c 4d 85 a5 3b
       0.008499515 0.007822225 0.01409757 0.005051291
0000a0 a5 b5 3e 3c dd 1a 70 3d 9e de 2c 3d 6e 39 0b 3d
       0.011639987 0.05861937 0.04220449 0.033990316
0000b0 41 8b 7a 3d 70 b8 e5 3c 51 1c 05 3d 8c 7e b5 3c
       0.06116796 0.028042048 0.032497708 0.022155069
0000c0 9b 5e da 3c 22 f7 9e 3c da 6c 9c 3d 42 73 8a 3d
       0.02665644 0.019404951 0.07637949 0.06760265
0000d0 4d eb 7e 3d 9e 42 96 3d 0e 09 23 3d 76 97 af 3c
       0.06223612 0.07336925 0.039803557 0.021434527
0000e0 ca c8 70 3d 32 1f 91 3d d3 f0 f3 3c 5e f1 7e 3c
       0.058785237 0.07086028 0.02977792 0.015560476
0000f0 dc 81 b0 3c 7d 3f 0b 3d 19 6f 69 3d de 0f dd 3c
       0.021546297 0.033996094 0.056990717 0.026985105

bn2.weight f4 [64]
000000 1e a0 7f 3f 27 2b 80 3f 11 b7 81 3f ea b9 7a 3f
       0.99853694 1.0013169 1.0133992 0.9793993
000010 bc ab 80 3f 56 bb 7d 3f b7 8b 80 3f 6f b1 80 3f
       1.0052409 0.99113977 1.0042638 1.0054148
000020 c8 a6 79 3f 4a 89 82 3f d0 96 80 3f 38 72 7b 3f
       0.97520113 1.0198147 1.0046024 0.9822116
000030 8a 8f 7d 3f a8 06 7d 3f 45 a1 80 3f 9f 90 7d 3f
       0.9904715 0.9883828 1.0049216 0.990488
000040 1e c8 82 3f e1 e5 7e 3f ad 91 7c 3f d9 d1 7d 3f
       1.0217321 0.9956952 0.98659784 0.9914833
000050 97 be 81 3f cb 2a 82 3f ea 45 81 3f b3 7d 7d 3f
       1.0136288 1.0169309 1.0099461 0.99019927
000060 79 ca 80 3f c8 d3 81 3f c4 18 7c 3f 99 cb 7d 3f
       1.006179 1.0142756 0.9847529 0.9913879
000070 12 e3 7c 3f 17 df 80 3f e5 da 7f 3f 15 6b 80 3f
       0.9878398 1.0068082 0.9994338 1.0032679
000080 71 85 81 3f 25 4e 81 3f 41 59 82 3f 5a 8b 7e 3f
       1.0118848 1.0101973 1.0183488 0.99431384
000090 ec d5 7c 3f 9e b4 7d 3f 83 d7 79 3f 75 c7 80 3f
       0.9876392 0.99103725 0.9759447 1.006087
0000a0 07 e2 7b 3f 56 12 7f 3f 60 56 7c 3f 60 05 83 3f
       0.98391765 0.99637353 0.985693 1.0236015
0000b0 3e aa 7c 3f 45 f6 7f 3f c8 65 79 3f a1 7c 82 3f
       0.9869727 0.9998515 0.9742093 1.0194284
0000c0 05 b4 79 3f e7 51 7e 3f 6b 9e 80 3f a7 4a 81 3f
       0.97540313 0.99343723 1.0048345 1.0100907
0000d0 93 97 82 3f e5 df 81 3f b9 3f 7f 3f 82 cb 7c 3f
       1.0202507 1.0146452 0.9970661 0.9874803
0000e0 41 5c 80 3f 1a 9a 7e 3f d0 db 7a 3f 50 bd 81 3f
       1.0028154 0.9945389 0.9799166 1.0135899
0000f0 95 4f 80 3f ee 5c 7b 3f 5b 1e 81 3f ac 14 81 3f
       1.0024287 0.98188674 1.0087389 1.0084434

bn2.bias f4 [64]
000000 50 53 f1 bb c8 58 d1 bb 85 58 64 bc 82 c4 8c 3c
       -0.007364668 -0.0063887574 -0.01393712 0.017183546
000010 b6 83 5f 3b 7c e3 3c bc 12 4d 2f bb 71 82 f2 bb
       0.0034105605 -0.011528846 -0.0026748818 -0.0074008037
000020 cd a2 a0 bc 91 73 a2 3c 78 f0 f4 ba e8 ec 70 bc
       -0.01960888 0.019830497 -0.0018687388 -0.01470492
000030 9a ed 2e bb f4 59 dd bc 0c f4 6c bb e4 63 15 3c
       -0.0026691915 -0.027020432 -0.0036156205 0.009118054
000040 61 45 b3 bc 34 cc 28 3c 06 2e e1 bc a6 89 88 bc
       -0.021883668 0.010302592 -0.027487766 -0.016667198
000050 2c 3a a7 3c 6d a0 68 3b fa 94 92 3a 73 4c 54 3c
       0.02041348 0.0035496012 0.0011183314 0.01295768
000060 98 bc bc 3a 34 40 84 3c 5d b1 da ba 2c 09 9c 3c
       0.0014399467 0.016143896 -0.0016684938 0.019047342
000070 4b 4e cd bc e7 7c b4 39 27 44 c7 bc ab d2 82 3b
       -0.025061747 0.00034425335 -0.02432449 0.0039923987
000080 12 82 a7 3c ee 27 03 bb 5b 3d f8 3b 3e db d2 3b
       0.020447765 -0.0020012814 0.0075756735 0.006434827
000090 9f 67 79 bc 6b 32 b4 bb e0 7c b8 bc 38 f4 65 3b
       -0.015222459 -0.0054991744 -0.022520483 0.0035088193
0000a0 a6 55 8c 3c 3f 67 27 bc 14 29 86 bb db 84 94 bc
       0.017130684 -0.010217487 -0.0040942524 -0.018129757
0000b0 d7 a7 fb ba c6 ac 17 ba 6c b7 d0 bc bf 10 e0 3c
       -0.00191998 -0.0005785938 -0.025478087 0.027351735
0000c0 fc 3e b9 bc 38 fd 80 bc 7f 58 66 3c 5a 15 c9 ba
       -0.022613041 -0.015745744 0.014059185 -0.0015341446
0000d0 d7 d7 c9 3c 0a c5 76 bc e7 0c 50 3c c0 62 08 bc
       0.024639053 -0.015061626 0.012698389 -0.008324325
0000e0 4f 59 a3 bb 43 78 36 3c 6e 28 d1 3b ee a4 c5 bc
       -0.0049850116 0.011137071 0.0063829934 -0.024126496
0000f0 bf 3c 82 3c 4f 22 40 39 e1 7a 5b bc 28 a1 83 39
       0.015898107 0.00018323328 -0.013395996 0.00025106338

bn2.running_mean f4 [64]
000000 de a7 d8 3f a8 30 f0 3f 69 d3 c8 3f fe 80 6f be
       1.6926229 1.8764849 1.5689517 -0.2338905
000010 77 d5 48 3f 85 ef 83 bf 4f 8c 11 3f 95 eb 42 40
       0.7845072 -1.030747 0.5685472 3.0456288
000020 c2 73 3f 3e 4a fd 1b 3f 36 b1 01 40 7b a5 09 40
       0.18696502 0.60933363 2.026441 2.1507251
000030 c3 1a f8 3e cb f8 58 bf 79 3f 27 40 73 60 09 40
       0.48457918 -0.8475463 2.613249 2.1465118
000040 2e e4 88 3f f0 de 51 be 47 64 29 40 a8 7c 3c 3d
       1.0694635 -0.204952 2.6467454 0.04601732
000050 20 a9 fd 3e 9e 24 10 be ab c9 0c 40 3d 70 c0 3f
       0.49543095 -0.14076468 2.1998088 1.5034252
000060 62 d0 2a 40 a5 17 c0 3f aa 84 a5 be 02 82 26 40
       2.6689687 1.5007216 -0.32327777 2.601685
000070 77 86 1b bf 3c 32 4c 3f ce f5 20 40 59 b5 17 be
       -0.6075205 0.7976415 2.5150027 -0.14815272
000080 5d 14 03 bf 99 a3 8b 3f 03 3a 26 bd 21 b9 f5 3f
       -0.51202947 1.0909301 -0.040582668 1.9197122
000090 07 43 42 bf 4b 2a c1 bf 60 b0 cf bf 91 56 1e c0
       -0.75883526 -1.5091032 -1.62257 -2.4740336
0000a0 67 c1 c9 3f ee 45 13 40 6d e8 14 c0 5d 79 f3 be
       1.5762147 2.3011432 -2.3266861 -0.4755353
0000b0 a9 d8 f1 3f 43 d6 75 bf 48 3a 84 bf e6 d5 e3 3d
       1.8894244 -0.9603006 -1.0330286 0.11124782
0000c0 c5 0b 3c bf d0 4d db be 05 a2 af 3e 2f 82 19 bf
       -0.7345546 -0.42832804 0.343033 -0.5996427
0000d0 2f 35 40 3e f8 c1 8c 3f 74 d3 cf 3f 0f 0a 3d c0
       0.18770288 1.0996695 1.6236405 -2.953739
0000e0 2c 6d 17 3f 7c cd 0b 40 ed cf 12 3f 83 62 57 be
       0.5915096 2.1844168 0.5734852 -0.21033673
0000f0 14 dc a5 3f dc 78 d0 3f a3 27 d5 3f af 76 a2 bf
       1.2957788 1.6286883 1.6652721 -1.2692469

bn2.running_var f4 [64]
000000 79 c1 c9 40 ee 3c 8e 40 d8 dc f1 3f 62 56 71 40
       6.3048673 4.4449377 1.8895521 3.7708974
000010 cc c3 17 40 bf 28 39 40 8a e3 02 40 fd e5 3b 41
       2.3713255 2.893112 2.045138 11.7436495
000020 6f d1 10 40 54 d4 2c 40 c1 0c cd 40 64 1b 1f 40
       2.2627828 2.7004595 6.407807 2.4860468
000030 29 23 aa 3f 48 4d 6c 40 06 55 e8 40 21 00 ea 40
       1.329198 3.6922169 7.260379 7.3125157
000040 84 57 5c 40 69 e7 19 40 50 9d 3b 41 1e 14 92 40
       3.4428415 2.4047492 11.725906 4.5649557
000050 ac c7 4a 40 56 f9 cd 3f de ad 10 41 04 4f 9e 3f
       3.168437 1.6091716 9.042448 1.2367864
000060 51 b3 b8 40 58 c2 02 40 a3 6b ff 3f 5e 9c 3d 41
       5.771889 2.0431118 1.9954723 11.850676
000070 45 7b f5 3f c4 a6 28 40 b6 a6 e6 40 2a ec 53 40
       1.9178244 2.6351786 7.2078505 3.3112893
000080 93 52 74 40 38 8e 93 40 86 b9 87 3f d2 c4 0a 41
       3.81754 4.6111107 1.0603492 8.673052
000090 6e 28 b7 40 8c f9 a4 40 74 42 3d 40 08 2e b6 40
       5.7236853 5.1554623 2.957181 5.693119
0000a0 06 a0 6a 40 ea cb de 40 0a d8 16 41 38 c6 f2 3f
       3.666017 6.962392 9.427744 1.8966742
0000b0 71 b0 99 40 d3 cd 77 40 9e 46 41 40 4a b3 bc 3f
       4.8027883 3.8719375 3.0199351 1.4742215
0000c0 ed 45 d1 3f 14 d6 36 40 71 4e 34 40 f8 19 5b 40
       1.6349465 2.8568163 2.8172877 3.42346
0000d0 b8 ca 38 40 51 c2 a7 40 e1 41 1e 40 22 eb 3f 41
       2.887373 5.2424703 2.472771 11.994905
0000e0 db ae 82 40 0c 59 be 40 80 0f 9b 40 89 6b 7e 40
       4.0838447 5.94837 4.845642 3.9753134
0000f0 e1 86 36 40 14 c5 d0 40 af df e3 40 42 9f 8b 40
       2.8519824 6.5240574 7.121055 4.3631907

bn3.weight f4 [64]
000000 dc d3 83 3f da 08 84 3f 25 dc 83 3f 1e de 83 3f
       1.0299029 1.0315201 1.0301558 1.030216
000010 9b fe 83 3f 87 ef 83 3f 47 02 84 3f d4 fc 83 3f
       1.0312074 1.0307473 1.0313195 1.0311532
000020 c7 dc 83 3f 36 e6 83 3f 90 ef 83 3f f6 ff 83 3f
       1.0301751 1.030463 1.0307484 1.0312488
000030 b5 d6 83 3f 49 f1 83 3f 70 d7 83 3f 97 01 84 3f
       1.0299898 1.0308009 1.0300121 1.0312985
000040 5e ff 83 3f 55 c2 83 3f f3 f6 83 3f 00 f3 83 3f
       1.0312307 1.029368 1.0309738 1.0308533
000050 fd f7 83 3f 21 f5 83 3f cc 07 84 3f ec df 83 3f
       1.0310055 1.0309182 1.031488 1.030271
000060 43 dd 83 3f ce f8 83 3f f0 02 84 3f 5f d4 83 3f
       1.0301899 1.0310304 1.0313396 1.0299186
000070 fb d8 83 3f 2b 1b 84 3f 9a fa 83 3f 36 84 83 3f
       1.0300592 1.0320791 1.0310853 1.0274723
000080 cf f5 83 3f 96 f2 83 3f 23 d4 83 3f 21 06 84 3f
       1.030939 1.0308406 1.0299114 1.031437
000090 6c cd 83 3f 34 db 83 3f 1f e9 83 3f d2 0d 84 3f
       1.0297065 1.030127 1.0305518 1.0316718
0000a0 43 05 84 3f 82 fb 83 3f 6a fc 83 3f 53 dc 83 3f
       1.0314106 1.0311129 1.0311406 1.0301613
0000b0 80 d1 83 3f 6d f9 83 3f 8c dd 83 3f 0f 03 84 3f
       1.0298309 1.0310494 1.0301986 1.0313433
0000c0 aa f1 83 3f 23 c6 83 3f bb 0e 84 3f 63 df 83 3f
       1.0308125 1.0294842 1.0316995 1.0302547
0000d0 41 da 83 3f de bf 83 3f 07 c6 83 3f 3b 05 84 3f
       1.0300981 1.0292928 1.0294808 1.0314096
0000e0 42 04 84 3f f3 e8 83 3f 75 e4 83 3f 3e c4 83 3f
       1.0313799 1.0305465 1.0304095 1.0294263
0000f0 9c ca 83 3f c3 f9 83 3f 99 ff 83 3f a0 d7 83 3f
       1.0296206 1.0310596 1.0312377 1.0300179

bn3.bias f4 [64]
000000 2b b3 ff 3c 53 a1 ba 3c de 90 fd 3c 1a 0d f6 3c
       0.031213364 0.022782004 0.030952867 0.030035544
000010 7d 58 ae 3c 05 40 00 3d 15 38 f0 3c 88 f7 84 3c
       0.021282429 0.031311054 0.029323617 0.016231313
000020 d2 2a f2 3c 7a c6 02 3d d8 12 ea 3c f7 06 fd 3c
       0.029561434 0.031927563 0.028573439 0.03088711
000030 6c ca 01 3d 4f 18 ff 3c a8 1d d7 3c 71 3d fd 3c
       0.031687185 0.03113952 0.026259258 0.030913087
000040 e2 6a f4 3c 89 f6 dd 3c dc 4e b0 3c e9 40 f7 3c
       0.029836122 0.027095096 0.021521978 0.030182319
000050 dc 84 fd 3c 94 8a dd 3c 48 07 f8 3c 91 da f1 3c
       0.030947141 0.027043618 0.03027691 0.029523166
000060 8c 5d ee 3c d6 c7 e3 3c 79 ad d9 3c 77 01 e7 3c
       0.029097341 0.02780525 0.026571976 0.02819894
000070 df c5 e9 3c 6b f9 e5 3c 21 4e f9 3c ad d3 f0 3c
       0.028536735 0.028073033 0.030432763 0.02939781
000080 58 fb ec 3c 4b 4d e6 3c 1e 62 f6 3c a4 f1 f5 3c
       0.028928444 0.028113028 0.030076083 0.03002245
000090 22 21 eb 3c 44 db fb 3c 9b 50 f9 3c 8e f4 ff 3c
       0.028702322 0.030744202 0.030433943 0.031244542
0000a0 91 08 ec 3c 71 86 dc 3c 3b 4d 00 3d 86 9a f3 3c
       0.028812679 0.026919575 0.031323653 0.029736768
0000b0 0b a9 00 3d 26 2d f9 3c d7 fb ef 3c 23 75 eb 3c
       0.031411212 0.030417036 0.029294891 0.028742379
0000c0 2f cd ff 3c 11 0d de 3c 69 b9 03 3d 4a 6d d9 3c
       0.031225769 0.02710584 0.032159243 0.02654137
0000d0 75 98 03 3d b2 1c f2 3c bd 48 f3 3c f3 86 f5 3c
       0.032127816 0.029554699 0.02969777 0.029971575
0000e0 eb 67 f5 3c 6f 23 f0 3c 36 f0 f9 3c 83 12 db 3c
       0.029956779 0.029313771 0.03051005 0.026742226
0000f0 dc bc ef 3c fd 3e f9 3c b6 53 ce 3c 03 36 f6 3c
       0.02926486 0.030425543 0.0251864 0.030055052

bn3.running_mean f4 [64]
000000 f9 a3 0e 40 de 6b d8 bf ea c8 7a be 71 6f 32 40
       2.228758 -1.6907918 -0.24490705 2.7880518
000010 80 5b d1 3f 73 36 32 40 07 f7 12 40 71 c7 b3 3f
       1.6356049 2.7845733 2.2963274 1.404524
000020 6c 27 2f bf f8 6e 2f 3f 4f cb c8 3f 00 3d c7 bf
       -0.6841953 0.685287 1.5687045 -1.5565491
000030 a4 e6 84 3f de 52 46 40 02 b5 75 3f 42 c6 ab 3d
       1.0382886 3.0988078 0.9597932 0.08387424
000040 fe 07 ed 3f a5 f7 14 40 a5 37 07 3f 9b aa 01 40
       1.8518064 2.327615 0.5281928 2.026038
000050 60 93 96 bf 24 a1 a2 3f d9 3c e1 be 4f 75 97 be
       -1.1763725 1.2705426 -0.43991736 -0.29581687
000060 53 1c 2a 3f 3b a4 bc bf 84 0e 8d 3e a1 9b cd 3f
       0.6644947 -1.4737619 0.27550137 1.6063119
000070 5b 3a ab be e0 81 8d bf 78 03 8a 3f 94 dd a2 3d
       -0.3344296 -1.105526 1.0782309 0.07952419
000080 17 87 5d 3f ac 68 04 c0 8d f7 07 40 5e 83 c1 3e
       0.86534256 -2.0688887 2.1244843 0.37795538
000090 ff a6 2c 40 e4 19 0d 40 4c 2f cc 3f b4 4f d3 3f
       2.6976926 2.2047052 1.5951934 1.6508698
0000a0 9d 7c 85 3f 42 f9 4a bd 07 17 a7 3e 7c f6 a4 3f
       1.0428654 -0.049554117 0.32634756 1.2887721
0000b0 4b 7e b3 3f 76 a9 00 c0 4a 1a 0e c0 06 2b d8 3f
       1.4022917 -2.010343 -2.2203546 1.688813
0000c0 73 9b b9 3f a5 bd 3e 40 b6 80 04 40 c2 dc ad 3e
       1.4500564 2.980325 2.070356 0.33957487
0000d0 e0 fe 10 40 07 4d 83 be e1 e2 3f 40 90 3f 9a 3f
       2.2655563 -0.25644705 2.9982226 1.2050648
0000e0 e7 06 42 bf eb 09 5a 3e 1f 1b 02 3e 76 04 19 40
       -0.7579178 0.21292846 0.12705658 2.3908973
0000f0 58 0b c7 3f d0 f7 c9 bf 86 4e e4 3e 2f 37 b2 bf
       1.5550337 -1.5778751 0.4459116 -1.3923091

bn3.running_var f4 [64]
000000 0b a9 7d 3f 2f 0b ad 3f 28 4a 89 3f 99 6f 16 3f
       0.99086064 1.3519038 1.0725756 0.58764035
000010 71 8a 19 40 bd b0 c8 3f 95 81 97 3f 19 4f 19 3f
       2.3990748 1.5678936 1.183642 0.5988632
000020 d6 f6 88 3f e6 40 5b 3f c9 f4 39 3f 8c f2 3a 3f
       1.0700328 0.856459 0.7263914 0.7302635
000030 38 a6 84 3f 2b 32 ce 3f 12 9c 0f 3f ec f9 0f 3f
       1.0363226 1.610906 0.5609752 0.56240726
000040 cd 6a 83 3f c2 6e a2 3f ed 04 04 40 c5 84 7f 3f
       1.0266968 1.2690051 2.0628006 0.99811965
000050 5d 46 d3 3f 52 06 ae 3f f7 5d c7 3f 05 43 2a 3f
       1.6505848 1.3595679 1.5575551 0.66508514
000060 c1 df 97 3f 3c 55 68 3f 65 9f c0 3f 8c 94 e6 3f
       1.1865159 0.9075506 1.5048643 1.8014083
000070 d8 7a 83 3f b1 7c 9e 3f ea cb a9 3f 85 6c 79 3f
       1.0271864 1.2381803 1.3265355 0.9743121
000080 97 89 98 3f 2c dc 69 3f 6d f6 8a 3f 0e 33 19 3f
       1.1916989 0.9135158 1.0856453 0.5984353
000090 a9 49 12 3f 5b 80 76 3f 20 1a 4d 3f 50 70 93 3f
       0.57143646 0.96289605 0.8011799 1.151865
0000a0 94 2f 75 3f a3 14 88 3f 64 8f 13 3f 79 e8 83 3f
       0.95775723 1.0631298 0.5764067 1.030532
0000b0 7d b8 80 3f 8d e4 d6 3f a9 46 91 3f a3 76 cf 3f
       1.0056301 1.6788498 1.1349689 1.620808
0000c0 65 6e a3 3f bd 35 85 3f 30 98 46 3f 60 a3 d9 3f
       1.2768065 1.0407025 0.7757597 1.7002983
0000d0 71 51 6a 3f f6 cc 8c 3f 69 fc 80 3f 60 56 84 3f
       0.9153052 1.1000049 1.007703 1.033886
0000e0 da 72 7b 3f 80 d1 0d 3f e7 66 aa 3f ac e8 09 3f
       0.98222125 0.55397797 1.3312653 0.53870654
0000f0 0d 7c 24 3f c0 49 c2 3f eb 87 2a 3f 82 ed 80 3f
       0.64251786 1.5178757 0.66613644 1.0072482
