maml-notebook_original_test/maml-notebook/completed_model/model-epoch_00031-train_loss_0.140-train_acc_0.851-test_loss_0.523-test_acc_0.850.pt (torch_old, 305688 bytes, 20 tensors)

conv1.weight f4 [64, 1, 3, 3]
0	0x3ca36188	0.019943967
1	0xbce3e859	-0.027820753
2	0xbb3d7d63	-0.0028913848
3	0xbd826126	-0.06366186
4	0xbc9190a3	-0.017769163
5	0xbd7b867e	-0.06140756
6	0xbda082b4	-0.0783743
7	0x3d8fdd14	0.07024589
8	0x3d3cce49	0.046095166
9	0x3d8eb403	0.06967928
10	0xbd29acd0	-0.041424572
11	0xbb4d4563	-0.0031321875
12	0x3bada6c9	0.0052994234
13	0x3d2b72a1	0.041857366
14	0xbdd4b55a	-0.103861526
15	0xbcded6be	-0.027202006
16	0x3d95443e	0.07288407
17	0x3ca1cda1	0.019751372
18	0x3d9c851b	0.07642575
19	0xbe1bdb0b	-0.15220277
20	0x3d2901bc	0.04126142
21	0xbc1f438b	-0.009720693
22	0x3d7f9b86	0.062404178
23	0xbd364e05	-0.044508
24	0x3e0db818	0.13839757
25	0x3db289a1	0.08717657
26	0x3d387f57	0.045043316
27	0xbcc57ae9	-0.02410646
28	0xbdf804df	-0.12110304
29	0x3d2a9f08	0.04165557
30	0x3d241a21	0.04006398
31	0xbc3744a3	-0.011185798
32	0xbcf59aaf	-0.029980985
33	0xbce57624	-0.028010435
34	0x3b79ca5c	0.0038115
35	0xbd11585e	-0.035484664
36	0x3e2c4399	0.16822661
37	0xbc86ca78	-0.016453966
38	0x3d454bbb	0.048167925
39	0x3d4ce4d2	0.050022908
40	0x3bccbdce	0.0062482124
41	0x3cc4cd99	0.024023818
42	0xbcac6a9d	-0.02104693
43	0x3dc4ef73	0.09615984
44	0xbdabe820	-0.08393884
45	0x3d46414f	0.048402127
46	0x3e0a6ba3	0.13517623
47	0xbd0102c5	-0.03149678
48	0x3a1a73b9	0.0005891878
49	0x3dcd542b	0.100258194
50	0xbcff9477	-0.031198723
51	0x3c13a7db	0.009012188
52	0x3d00785b	0.03136478
53	0x3dbe3783	0.09287932
54	0xbd0e1e0e	-0.03469663
55	0xbcf8a410	-0.030351669
56	0x3d882eda	0.06649561
57	0x3d1fe228	0.03903404
58	0xbc995def	-0.018721549
59	0xbb9dc1e1	-0.004814372
60	0xbc1a1363	-0.009404036
61	0xbaf4b38c	-0.0018669232
62	0x3caaaf45	0.020835528
63	0x3be05f99	0.0068473336
64	0x3dc85c1a	0.09783192
65	0xbd28592f	-0.041100677
66	0xbd8e09f1	-0.0693549
67	0x3d72ead7	0.059305992
68	0xba828e22	-0.0009960572
69	0xbcdda4b0	-0.027056068
70	0x3d33113e	0.043717615
71	0xbd34e7bd	-0.044166315
72	0x3ba67a37	0.005080487
73	0xbbd428e3	-0.0064746006
74	0x3cb5076b	0.022098264
75	0x3db17f1e	0.08666824
76	0xbd8c69a1	-0.068560846
77	0x3dae3440	0.0850606
78	0x3c8a32d3	0.016869938
79	0xbde81f6e	-0.1133412
80	0x3b9b8ee0	0.0047472566
81	0xbc9f3b08	-0.019437328
82	0x3d0a0727	0.033698227
83	0xbda2376f	-0.07920729
84	0x3c6d0b1d	0.014467982
85	0x3ae63efe	0.001756638
86	0x3d0c4714	0.034247473
87	0x3d1eb668	0.038748175
88	0x3cfe6c2b	0.031057438
89	0x3d50cb42	0.05097509
90	0xbe1765ce	-0.14784929
91	0x3e025ad7	0.12729965
92	0x3c242831	0.010019348
93	0xbd3d22d6	-0.0461758
94	0x3d1f9df1	0.038968984
95	0x3b93bfb9	0.004508939
96	0x3cb35f40	0.021896005
97	0x3c953495	0.01821355
98	0xbd2777b2	-0.040885635
99	0x3d0b627a	0.03402946
100	0xbd5aae0b	-0.053388637
101	0x3d798021	0.06091321
102	0xbdaa2dd0	-0.08309519
103	0x3d125af4	0.03573127
104	0x3d709df3	0.058744382
105	0xbddb5758	-0.10710019
106	0x3d9a94ba	0.075478986
107	0x3d52f50f	0.051503237
108	0x3d5dea26	0.05417838
109	0xbc83efaa	-0.016105492
110	0xbd156d95	-0.03648146
111	0x3baded43	0.005307825
112	0x3cd9d4d5	0.026590744
113	0x3c6fbb88	0.014632113
114	0x3d206f86	0.039168857
115	0x3dafa6ff	0.08576774
116	0x3c0cf23a	0.008602673
117	0x3c33e57b	0.010980005
118	0xbce19f89	-0.027541893
119	0x3d3ed0f2	0.046585985
120	0xbde3b3e6	-0.11118297
121	0x3a773496	0.0009430138
122	0xbd483d19	-0.048886392
123	0xbdc3191c	-0.095262736
124	0xbc85614f	-0.016281752
125	0xbdb8952a	-0.09012826
126	0x3d0512d5	0.032488663
127	0x3d0254a5	0.031819005
128	0x3d899a3b	0.0671887
129	0xbda64d6a	-0.08120234
130	0xbc9c6124	-0.019089289
131	0xbc6454e8	-0.013936259
132	0xb97cb24d	-0.00024099015
133	0x3d817497	0.06321066
134	0x3c76c8d6	0.015062531
135	0x3dff6322	0.1247008
136	0x3d18d3c5	0.037311334
137	0x3b47202f	0.0030384173
138	0xbd3a4233	-0.04547329
139	0xbdc218ba	-0.094773725
140	0xbd401ca3	-0.04690231
141	0x3db4ba72	0.08824624
142	0x3dd5d911	0.10441793
143	0x3c9812c0	0.018563628
144	0xbc91806a	-0.017761428
145	0x3d4d2cf3	0.050091695
146	0x3d700922	0.05860246
147	0xbdaad03d	-0.083404996
148	0x3c7e2657	0.015512071
149	0xbc9cdc63	-0.019148057
150	0xbd1d060f	-0.038335856
151	0x3c67c675	0.014146437
152	0x3d100f61	0.035170916
153	0x3da85d1f	0.082208864
154	0x3d96f76c	0.07371411
155	0x3cec6569	0.02885695
156	0xbc814669	-0.015780644
157	0xbc92db5d	-0.017926866
158	0xbcef2d65	-0.02919645
159	0x3bc776e5	0.0060871714
160	0xbcbf2014	-0.023330726
161	0x3d17f68a	0.037100352
162	0x3d9b7f8a	0.075926855
163	0xbc61a3f7	-0.013772002
164	0x3cae7267	0.021294786
165	0x3d298008	0.041381866
166	0x3d5253f8	0.05134961
167	0x3d73f8ca	0.059563436
168	0xbd2ce05a	-0.042206146
169	0xbdc574fe	-0.09641455
170	0xbd7e678f	-0.06211048
171	0xbddef139	-0.10885853
172	0x3aa0dbbe	0.001227252
173	0xbdc73e39	-0.09728665
174	0x3cc35acd	0.023847008
175	0x3d292b6c	0.041301176
176	0x3cb82a86	0.022481214
177	0x3cf0176b	0.029308042
178	0xbd16b3c9	-0.03679255
179	0x3c1d8ace	0.009615613
180	0xbc938de5	-0.018011997
181	0xbc9c27de	-0.019061979
182	0xbca61967	-0.020275785
183	0xbcb8acb2	-0.022543285
184	0xbd2b7931	-0.041863624
185	0xbc980024	-0.018554755
186	0x3d49ac31	0.04923648
187	0x3d823098	0.06356925
188	0x3dd94441	0.106087215
189	0xbd869dec	-0.0657309
190	0xbbb81840	-0.005618125
191	0xbc21a958	-0.009867035
192	0xbc698374	-0.014252532
193	0x3da5b979	0.08092017
194	0xbd654b20	-0.055979848
195	0xbc262508	-0.010140665
196	0xbc71918d	-0.014744175
197	0xbdcef611	-0.10105527
198	0x3bdd51cd	0.006754136
199	0xbdc67839	-0.096908994
200	0x3dbc2536	0.09186785
201	0xbd9af506	-0.07566266
202	0xbd6605db	-0.056157928
203	0x3d7d9920	0.06191361
204	0xbca68021	-0.020324768
205	0xbdebdfc0	-0.11517286
206	0x3c76269e	0.0150238555
207	0xbc83373a	-0.016017545
208	0xbc1f8cd0	-0.009738162
209	0x3da796d2	0.081830636
210	0x3cfabd3b	0.03060781
211	0xbb0643b7	-0.0020487139
212	0x3d96567a	0.07340713
213	0x3bd8ecfa	0.0066200467
214	0xbdd17d91	-0.10229028
215	0x3d34349a	0.043995477
216	0x3d4a78b5	0.04943152
217	0xbcf838cb	-0.030300518
218	0xbcca6306	-0.024705421
219	0x3cc08e5f	0.023505388
220	0x3c9f3819	0.01943593
221	0xbd668997	-0.05628356
222	0x3d60c66f	0.05487674
223	0xbbbe7625	-0.005812424
224	0xbd0b78e9	-0.034050856
225	0x3c5c15e9	0.013432958
226	0x3d36010e	0.0444346
227	0xbc00718a	-0.00783957
228	0xbd25ee0d	-0.040510226
229	0xbda76175	-0.08172885
230	0xbde0ea25	-0.109821595
231	0xbdeddd24	-0.11614445
232	0x3c0628f7	0.008188478
233	0xbbacb764	-0.0052708853
234	0xbd4d3bd0	-0.05010587
235	0x3d55b2ea	0.05217258
236	0x3cbd1531	0.023081394
237	0x3d679b8d	0.05654483
238	0xbd523deb	-0.05132858
239	0x3daec87f	0.08534335
240	0x3d33480d	0.043769885
241	0x3d833025	0.06405667
242	0xbd3dad7d	-0.04630803
243	0x3dc48d9c	0.09597322
244	0xbd6b12b6	-0.05739089
245	0xbb12563a	-0.0022329227
246	0x3aef4831	0.0018255768
247	0xbd63818f	-0.05554348
248	0x3d229bbd	0.039699305
249	0xbd215623	-0.039388787
250	0xbc2adf6a	-0.010429243
251	0x3dcf0ee1	0.1011026
252	0xbb469e3d	-0.003030672
253	0x3ad6ca97	0.0016387281
254	0x3d92d1ce	0.07168923
255	0xbc130a48	-0.008974619

conv1.bias f4 [64]
0	0x3b6242e8	0.0034524743
1	0x3b2662ea	0.0025388547
2	0x3b9097f1	0.004412644
3	0x3b09a72d	0.0021004186
4	0xbb2f13c2	-0.0026714657
5	0x3b72d347	0.00370522
6	0xbbcadce9	-0.0061908853
7	0xbc23d5c4	-0.009999696
8	0xba7cc23b	-0.00096419797
9	0x3bce7134	0.006300116
10	0xbb5b93ae	-0.0033504772
11	0xbb1edcf1	-0.0024240578
12	0xbad47427	-0.0016208933
13	0xbc18e4b6	-0.009331873
14	0xbc08e05e	-0.008354275
15	0xba9e1df2	-0.0012063368
16	0x3bfcde22	0.00771691
17	0xb9c5aaf8	-0.0003770215
18	0x3bbc6966	0.005749869
19	0xbabeb97d	-0.001455113
20	0x3b35a75a	0.0027718158
21	0x3bbb3ed3	0.0057142763
22	0xbb35c103	-0.0027733452
23	0x39a2166d	0.00030915756
24	0xb817a83c	-3.6157886e-05
25	0x3ba8c2cc	0.0051501747
26	0xba9f7483	-0.001216546
27	0xbbb1cd0b	-0.0054260544
28	0x3bb80f07	0.005617026
29	0xbc0a11c5	-0.008427088
30	0xbbad4147	-0.0052873227
31	0x3b13ddcd	0.0022562623
32	0xbc0cfa2b	-0.008604567
33	0x3af34db1	0.0018562583
34	0x3bfcffbd	0.007720916
35	0x3aaacb57	0.0013030571
36	0x3b84dc2a	0.004054566
37	0xb94387b0	-0.00018647197
38	0xbbb36d49	-0.0054756743
39	0xbb120db6	-0.0022286004
40	0x3bfdeb17	0.007748972
41	0xbad31a83	-0.0016105924
42	0x39e7afcd	0.00044190735
43	0x3c259434	0.010106135
44	0x3c5966d3	0.013269144
45	0xbbd54f06	-0.0065096645
46	0xbb1f37d3	-0.0024294748
47	0xbc2b1b3d	-0.010443506
48	0x3c3e9371	0.011631832
49	0x3bd03c0d	0.006354815
50	0x3ac7225d	0.0015192736
51	0xbbc29871	-0.0059385826
52	0xbaba1ffa	-0.0014200204
53	0x3c01d3e5	0.007924055
54	0x3bffc19b	0.007805062
55	0xbbe1ad60	-0.006887123
56	0x3b67a8e2	0.0035348465
57	0x3c04fb99	0.008116626
58	0xbb27155a	-0.0025494904
59	0xbbab5dda	-0.005229694
60	0xbc3b6873	-0.011438477
61	0xbc18a313	-0.009316224
62	0xbc031370	-0.00800024
63	0x3c393a95	0.011305471

conv2.weight f4 [64, 64, 3, 3]
0	0x3cf8996e	0.030346598
1	0x3dc53cc0	0.09630728
2	0x3d70654b	0.05869035
3	0x3bb460f9	0.005504724
4	0xba9bd518	-0.0011889068
5	0x3d1fae44	0.038984552
6	0x3dbaf24b	0.09128245
7	0xbc98f3f1	-0.018671008
8	0x3d09670c	0.03354554
9	0x3cf19442	0.02948964
10	0x3b98a456	0.0046582622
11	0xbd40ee9e	-0.047102563
12	0xbc7a2397	-0.015267274
13	0x3b8623f9	0.0040936437
14	0xbcaeff36	-0.021361928
15	0x3d1a388d	0.037651587
16	0xbc25eb61	-0.0101269195
17	0x3d12458d	0.03571086
18	0xbd3acf6b	-0.045607965
19	0xbc86b1b4	-0.016442157
20	0xbc7c8b0e	-0.015414013
21	0x3b22e00d	0.0024852783
22	0x3cb1fe0d	0.021727586
23	0xbd528171	-0.051392976
24	0x3c5852eb	0.013203363
25	0xbca58ca2	-0.02020866
26	0xbcb0a909	-0.021564977
27	0x3bf7ea04	0.0075657386
28	0xbcca3204	-0.024682052
29	0x3ca6bae7	0.020352794
30	0x3d5b855b	0.053593975
31	0xbd51ad5d	-0.051190723
32	0x3ddc3e4b	0.10754069
33	0xbd587338	-0.052844256
34	0xbd027b12	-0.03185565
35	0xbce9e75b	-0.028552702
36	0xbd950a20	-0.07277322
37	0xbd309707	-0.04311278
38	0xbb990cb5	-0.0046707042
39	0x3d5010fb	0.050797444
40	0xbd8fe7c5	-0.070266284
41	0xbd34ed00	-0.044171333
42	0xbbb9262c	-0.0056503024
43	0xbc5948d8	-0.013261996
44	0xbca18b47	-0.019719733
45	0xbd5008da	-0.05078969
46	0xbe0d5f37	-0.13805853
47	0xbba76b03	-0.0051091923
48	0xbc991617	-0.018687291
49	0xbd5ce1f9	-0.05392644
50	0xbb7e816a	-0.003883446
51	0x3d565881	0.052330498
52	0x3ce4fda8	0.027952984
53	0xbce8c2b8	-0.028413162
54	0x3cf226c6	0.029559504
55	0xbd1e4989	-0.038644347
56	0xbcd43bfb	-0.025907507
57	0xbca5bb95	-0.020231048
58	0xbda7c175	-0.08191196
59	0xbc59c9a5	-0.013292705
60	0xbb3c1f80	-0.00287053
61	0xbd67a51d	-0.05655395
62	0x3c74dfc3	0.014945927
63	0xbccc0ad2	-0.024907503
64	0xbd079c80	-0.033108234
65	0xbc94fc55	-0.018186728
66	0xbd3c0db9	-0.045911524
67	0xbc9ebd57	-0.019377394
68	0x3d2d2e0c	0.04228024
69	0xbbec6f90	-0.0072154477
70	0xbc62f64b	-0.013852666
71	0x3cd4db0c	0.025983356
72	0x3db06d62	0.08614613
73	0xbc060ac1	-0.008181275
74	0xbc988858	-0.018619701
75	0x3d8c517d	0.0685148
76	0xbce009c8	-0.027348414
77	0x3c5c406a	0.013443092
78	0x3d26cc26	0.040722035
79	0x3d2ac36e	0.041690283
80	0x3d03e924	0.032204762
81	0x3d835fb4	0.06414738
82	0x3c862d47	0.016379012
83	0x3daca9a8	0.08430797
84	0x3d066066	0.032806776
85	0xbb2743d6	-0.002552261
86	0x3c22cc2f	0.0099363765
87	0xbcdc44a4	-0.0268882
88	0xbd69a7d0	-0.057044804
89	0xbd9726f2	-0.07380475
90	0xbc066907	-0.008203751
91	0x3c0b81ff	0.00851488
92	0xbd454dcf	-0.048169907
93	0xbd202ce1	-0.0391053
94	0xbdcb1c46	-0.09917502
95	0xbbea05f7	-0.0071418243
96	0xbcda7c77	-0.026670678
97	0xbd11d420	-0.03560269
98	0x3ca7813e	0.02044737
99	0xbd0fcda3	-0.03510822
100	0xbc0b81c2	-0.008514823
101	0xbd75cc5d	-0.06000935
102	0x3bb7ebbe	0.0056128195
103	0xbca6f09f	-0.020378409
104	0x3c0aac78	0.008463971
105	0xbd4a787a	-0.0494313
106	0xbd1735d4	-0.03691657
107	0x3cfa78d0	0.030575186
108	0x3c9fbf1e	0.019500311
109	0xbd3499bc	-0.044091925
110	0xbce4a9b9	-0.027912961
111	0x3d9fe02e	0.07806431
112	0x3cc134ab	0.023584684
113	0xbd019101	-0.031632427
114	0xbc9f3270	-0.01943323
115	0x3c96867b	0.018374672
116	0x3c991300	0.018685818
117	0x3b190ba8	0.0023352895
118	0xbccd9fff	-0.025100706
119	0xbb73abae	-0.0037181186
120	0x3bfe3dba	0.007758823
121	0x3d0abb00	0.033869743
122	0x3d187268	0.03721848
123	0x3ca8c604	0.020602234
124	0xbd0740bb	-0.033020716
125	0x3c353749	0.011060544
126	0x3c3f1a13	0.011663931
127	0xbc0b38fd	-0.008497474
128	0x3c67b354	0.014141876
129	0x3d758319	0.059939478
130	0x3d1dd870	0.03853649
131	0xbd0d94fb	-0.034565907
132	0xbc15a888	-0.009134419
133	0xbd9fe41a	-0.07807179
134	0x3d024c35	0.031810958
135	0x3d958d64	0.07302359
136	0x3d197467	0.037464526
137	0x3b7a6be5	0.0038211283
138	0x3d85e609	0.06538016
139	0x3b1cdb53	0.0023934438
140	0x3d2a6186	0.04159691
141	0x3d276ea2	0.040876992
142	0xbc0dc99c	-0.008654024
143	0x3c8840f3	0.016632533
144	0x3d1357f8	0.035972565
145	0xbd3686cf	-0.044562157
146	0xbba09ad6	-0.0049012704
147	0x3d39833f	0.04529118
148	0x3ccd6ba0	0.025075734
149	0xbc4dd379	-0.012562626
150	0x3aacb99c	0.0013177874
151	0x3d3f7a0a	0.046747245
152	0x3c002651	0.007821635
153	0x3ca379d8	0.01995556
154	0x3d9c33ee	0.07627092
155	0xbd327971	-0.043572847
156	0x3d280d2f	0.041028198
157	0xbd9eec05	-0.07759861
158	0xbd3a135e	-0.045428626
159	0xbd1f7ae5	-0.03893556
160	0x3d40c578	0.04706332
161	0xbd1859de	-0.03719508
162	0x3d8db6d2	0.06919636
163	0xbc69a347	-0.01426012
164	0xbd1b94c7	-0.037983682
165	0x3cd56515	0.026049176
166	0x3c0c218a	0.008552918
167	0x3bbb80ea	0.005722155
168	0x3d86147a	0.06546874
169	0x3d5cdd76	0.05392214
170	0x3da09d52	0.078425065
171	0x3d0ddd71	0.03463501
172	0x3cd49161	0.025948228
173	0x3d1ce856	0.03830751
174	0x3d8b9d7e	0.068171486
175	0xbd473ba1	-0.04864085
176	0x3b321b4b	0.0027176912
177	0x3dd05c4f	0.101738565
178	0xbd341129	-0.043961678
179	0x3d0faf6d	0.03507941
180	0xbd0c675f	-0.03427827
181	0xbc9e199c	-0.01929932
182	0x3d8ca3dd	0.06867192
183	0x3d1e917c	0.038712963
184	0x3cf0c8fe	0.029392716
185	0xbdb895ed	-0.09012971
186	0x3d48a186	0.048982166
187	0xbd2984d4	-0.04138644
188	0xbd688cc6	-0.056774877
189	0x3d69a850	0.05704528
190	0x3d876f54	0.06613031
191	0x3d408c6d	0.04700892
192	0x3c8b61af	0.017014353
193	0x3d847041	0.06466723
194	0xbc2ed492	-0.010670798
195	0xbcbc3b5d	-0.022977525
196	0xbb879110	-0.004137166
197	0xbb101299	-0.0021983741
198	0xbccc3e30	-0.024931997
199	0xbc793ca7	-0.015212215
200	0xbce97613	-0.028498685
201	0xbcb8d19e	-0.02256089
202	0x3c0c93f9	0.008580201
203	0x3b877d56	0.0041348143
204	0xbd86e451	-0.06586517
205	0x3cae2023	0.021255558
206	0x3c9cd566	0.019144725
207	0x3c4006e4	0.011720393
208	0xbce85c08	-0.028364196
209	0xbceb818a	-0.028748292
210	0xbb4ec348	-0.0031549502
211	0xbc4f77b9	-0.012662821
212	0xbcd0991c	-0.025463633
213	0xbcf0e3c1	-0.029405477
214	0x3c82fd2a	0.015989859
215	0xbd992dc9	-0.07479436
216	0xbd001b67	-0.031276133
217	0xbb07dd0d	-0.0020731122
218	0xbd2e3907	-0.042534854
219	0x3b2a58a7	0.0025992782
220	0xbd13a25a	-0.036043502
221	0x3c7ad3d2	0.015309291
222	0xbd4a6dd5	-0.04942115
223	0x3d8483b4	0.06470433
224	0xba97ff69	-0.0011596504
225	0x3c8993ff	0.016794203
226	0xbd0ea0d6	-0.034821354
227	0x3bddc868	0.006768275
228	0x3cbe7da8	0.023253277
229	0x3cbffe95	0.023436824
230	0x3ce9b496	0.028528493
231	0x3b39cf70	0.0028352402
232	0xbd067020	-0.032821774
233	0xbcf5da32	-0.03001127
234	0xbccb66da	-0.024829317
235	0x3bf1c742	0.0073784897
236	0xbcc0ab4f	-0.023519186
237	0x3ce83afb	0.028348437
238	0x3d0506ad	0.03247707
239	0xbda24e37	-0.079250745
240	0x3bafba10	0.0053627566
241	0x3b87fa66	0.004149723
242	0x3c6ccb89	0.014452823
243	0x3c3a53d0	0.0113725215
244	0x3d7650dd	0.06013571
245	0xbc16b7f7	-0.009199134
246	0x3d9192c8	0.071080744
247	0x3b711e99	0.003679192
248	0xbc5a88c2	-0.01333827
249	0x3b811847	0.0039396617
250	0x3d0f483b	0.034980994
251	0x3d28d2d9	0.041216705
252	0x3d850a4e	0.06496106
253	0x3cc27e1c	0.023741774
254	0x3d5bde81	0.053678993
255	0x3d065db5	0.03280421

conv2.bias f4 [64]
0	0x3b8c93c5	0.0042900764
1	0xbadd46e4	-0.0016882089
2	0xbbaa98d5	-0.0052062073
3	0xb65bc999	-3.2750888e-06
4	0xb9772c0f	-0.00023572169
5	0x3bfcf993	0.0077201813
6	0x3b912ffb	0.0044307685
7	0xbaadf455	-0.0013271669
8	0x3b4388d9	0.0029836206
9	0xbb89332b	-0.004187008
10	0xbaac6d90	-0.0013155211
11	0xbba1a756	-0.004933278
12	0xba4c0af1	-0.0007783613
13	0xbb5f6cda	-0.003409198
14	0x38dbde90	0.00010484189
15	0x3b8c0d90	0.0042740777
16	0x3b90f0e3	0.004423247
17	0x3a2a243d	0.0006490385
18	0x3b042f7a	0.00201699
19	0xbab8b583	-0.0014092181
20	0xbb265fd9	-0.002538672
21	0x3a7757cd	0.00094353856
22	0x3a346d7c	0.00068827695
23	0xbbe3cf82	-0.006952227
24	0x3a4fe156	0.0007930001
25	0x3b739807	0.0037169473
26	0xba8debf6	-0.0010827768
27	0xbb274319	-0.002552217
28	0xba63f1a2	-0.0008695369
29	0x3acffbb0	0.0015867855
30	0xbace0e21	-0.0015720763
31	0xbb2438bd	-0.0025058233
32	0x3a9cb4ac	0.00119557
33	0xba26cc51	-0.0006362843
34	0xb860cb45	-5.359507e-05
35	0xbab1df85	-0.0013570642
36	0xbbe9f351	-0.0071396013
37	0x3b342baa	0.0027491846
38	0x3bcbe33d	0.0062221573
39	0x3b6daa71	0.003626492
40	0x3b50c135	0.0031853442
41	0x3a58ba0a	0.0008267468
42	0x3a074447	0.00051600154
43	0x3bb7e79d	0.0056123273
44	0xbb8f1dc9	-0.0043675643
45	0x3b3285ed	0.002724047
46	0x3b41272e	0.0029472816
47	0x3bd6c3cf	0.006554104
48	0xb9c9de3e	-0.0003850329
49	0x3af8c6bd	0.0018980127
50	0xbb87ad2e	-0.0041405177
51	0xbac6aa39	-0.0015156931
52	0xbac8f0e0	-0.0015330575
53	0xbbc876c2	-0.0061176727
54	0xbb0edd09	-0.0021799228
55	0x3b93bd09	0.0045086187
56	0x3b29ee15	0.0025929261
57	0xb8ccc4b0	-9.764114e-05
58	0x3afcc266	0.001928401
59	0xbb29f692	-0.002593432
60	0xb97fca14	-0.00024393975
61	0xbad70283	-0.0016403947
62	0xbb9f0be9	-0.0048537147
63	0xba056c35	-0.00050896715

conv3.weight f4 [64, 64, 3, 3]
0	0x3ca7a476	0.020464163
1	0x3d820f1a	0.06350537
2	0x3d5ad5f3	0.053426694
3	0x3d46a2d8	0.048495144
4	0xbd7abbaf	-0.061214145
5	0xbbde4793	-0.0067834347
6	0xbc7068bd	-0.014673409
7	0x3d879d54	0.06621805
8	0x3c50cad3	0.01274367
9	0xbcc5d87e	-0.024151083
10	0xbd9bcd04	-0.07607463
11	0xbca0f2a2	-0.019646946
12	0x3d515762	0.051108725
13	0x3d3e5d17	0.046475496
14	0x3aed0b8e	0.0018085109
15	0xbca661e8	-0.020310357
16	0x3d661025	0.05616774
17	0xbc9a321e	-0.018822726
18	0x3b497fe9	0.0030746406
19	0xbc9bc0f0	-0.019012898
20	0xbb68eac2	-0.0035540317
21	0xbcc53fb1	-0.024078222
22	0x3c8e53e8	0.017373994
23	0x3d107a14	0.035272673
24	0x3d1b68c2	0.0379417
25	0xbc7571fe	-0.014980791
26	0xbd2ac061	-0.041687373
27	0xbab3be6a	-0.0013713364
28	0x3bdc93a2	0.0067314664
29	0x3c72badf	0.014815061
30	0x3c90e65a	0.017687965
31	0x3c08d3b1	0.008351252
32	0xbbca82a7	-0.0061801258
33	0x3abfa31d	0.0014620755
34	0x3c1e68de	0.009668557
35	0xbca6a6fc	-0.020343296
36	0x3b5e6052	0.0033931923
37	0xbc87c963	-0.01657552
38	0x3b9d83aa	0.0048069553
39	0x3d2073a2	0.039172776
40	0x3d813694	0.06309238
41	0x3d77294b	0.060342114
42	0xbdba749c	-0.09104273
43	0xbb3a6493	-0.0028441295
44	0x3d88cc3a	0.06679578
45	0xbc924791	-0.017856391
46	0x3d95bd2b	0.073114716
47	0x3d00266c	0.031286642
48	0x3d8d68f5	0.069047846
49	0x3cffce02	0.031226162
50	0x3ce6257f	0.028094051
51	0x3cf8d401	0.030374529
52	0x3d4e4526	0.050358914
53	0xbca30243	-0.01989854
54	0x3af772b2	0.0018878786
55	0x3d10b8b6	0.035332404
56	0x3bcb33de	0.0062012514
57	0x3b9ef5eb	0.004851093
58	0xbcf8f4af	-0.030390112
59	0xbc8c8052	-0.017151032
60	0xbd491f8e	-0.04910236
61	0xbd8ca3a9	-0.06867153
62	0x3d796d34	0.06089516
63	0x3c9c3db9	0.0190724
64	0x3cc0ab67	0.023519231
65	0xbce41dc8	-0.027846232
66	0x3d5fe8d5	0.054665405
67	0xba9b8c43	-0.0011867363
68	0x3c9aa1fe	0.018876072
69	0xbc8276c0	-0.015925765
70	0x3d16d6b7	0.03682586
71	0x3d297237	0.04136869
72	0xbc44f0ea	-0.012020329
73	0x3c58efb8	0.013240747
74	0xbd2663fb	-0.040622693
75	0xbcf2134d	-0.029550219
76	0xbca0856c	-0.01959487
77	0xbc8fb6cb	-0.017543217
78	0xbc0fec54	-0.008784372
79	0x3c239e67	0.0099864965
80	0xbd22f965	-0.039788622
81	0x3bfc1ca3	0.0076938435
82	0xbd1f225e	-0.038851134
83	0xbba79e34	-0.005115295
84	0xbc0bd865	-0.008535479
85	0xbcb888c7	-0.022526158
86	0x3cc6f226	0.024285387
87	0x3cae226f	0.021256654
88	0xbd0bfcba	-0.034176566
89	0xbd371ae0	-0.044703364
90	0x3bfda650	0.0077407733
91	0x3d981066	0.07425003
92	0x3ca56998	0.020191953
93	0x3d0c6261	0.03427351
94	0x3d150d9f	0.036389943
95	0xbc735e38	-0.0148540065
96	0x3d8be525	0.06830815
97	0x3bee3428	0.007269401
98	0x3cfa610d	0.030563856
99	0xbd19302e	-0.037399463
100	0x3bef5401	0.007303715
101	0x3bd7d503	0.0065866723
102	0x3c1199ed	0.008886796
103	0xbd3a281c	-0.045448408
104	0xbbcadd0e	-0.0061909026
105	0x3d7ac483	0.061222564
106	0x3c4e71f5	0.012600412
107	0xba66f8ed	-0.00088108965
108	0x3db32492	0.087472096
109	0x3d0c04f3	0.034184407
110	0xbd35b00d	-0.04435735
111	0x3c7d9bed	0.01547907
112	0xbd3b77c8	-0.04576853
113	0x3c74b5aa	0.01493589
114	0x3bfa0150	0.007629551
115	0x3d3d7d5f	0.04626214
116	0x3c842a6f	0.016133515
117	0xbc6441a4	-0.013931666
118	0xbdc028b4	-0.093827635
119	0x3c8e2af9	0.017354475
120	0xbd66aef4	-0.056319192
121	0xbc4f85a1	-0.012666137
122	0x3d65b048	0.056076318
123	0x3d60c3b1	0.054874126
124	0xbd1720af	-0.036896404
125	0xbc8e2185	-0.017349968
126	0xbd4a64b7	-0.049412455
127	0x3ad437a6	0.0016190901
128	0x3cf0ef39	0.029410945
129	0xbcd33f0e	-0.025786903
130	0xbd2836ff	-0.041068073
131	0x3d09d7bf	0.033653017
132	0xbd43b486	-0.047779582
133	0xbaff77df	-0.001949068
134	0xbd43eb90	-0.04783207
135	0x3c3e466d	0.0116134705
136	0x3c6a2d52	0.014293032
137	0x3dc4bafc	0.09605977
138	0x3c8c128b	0.017098686
139	0x3d78f86c	0.06078379
140	0x3d886ac1	0.06660987
141	0xbc660dce	-0.014041377
142	0x3a0a7205	0.00052812725
143	0xbd09092a	-0.033456005
144	0x3ca7a461	0.020464124
145	0xbc335784	-0.010946158
146	0xbcb6da8b	-0.022321006
147	0x3cc02264	0.023453899
148	0xbd0add3e	-0.0339024
149	0xbbdc93d0	-0.006731488
150	0x3d456237	0.048189368
151	0x3c99f5a0	0.018793881
152	0x3b7f7560	0.0038979873
153	0x3d3cce4b	0.046095174
154	0xbc79b8cd	-0.015241814
155	0xbd998688	-0.07496363
156	0x3ab8800a	0.0014076245
157	0xbd0fd892	-0.035118647
158	0x3d00b014	0.03141792
159	0xbd357215	-0.04429825
160	0xbc975ba8	-0.018476322
161	0xbd93ce26	-0.07217054
162	0xbd8e60e9	-0.06952078
163	0x3ca3c3f7	0.019990904
164	0xbc9d1ae6	-0.019177865
165	0x3d22a493	0.03970773
166	0x3c29fc86	0.010375148
167	0x3d360eef	0.044447836
168	0x3d112db9	0.035443995
169	0xbd019605	-0.03163721
170	0xbd34b661	-0.044119243
171	0x3d094576	0.03351351
172	0xbd8ee779	-0.06977744
173	0xbc8a02de	-0.01684707
174	0x3cd02870	0.025409907
175	0xbcaacf46	-0.020850789
176	0x3d2d1dbf	0.042264696
177	0xbd5f840e	-0.054569297
178	0x3d2b7401	0.041858677
179	0xbcbdc731	-0.02316627
180	0x3d372c12	0.044719763
181	0xbd928d8d	-0.07155905
182	0xbb6f6384	-0.0036527822
183	0xbccdb95b	-0.025112798
184	0x3d92510e	0.07144366
185	0xbd58b691	-0.052908484
186	0xbc9b75cd	-0.01897707
187	0xbcc5cd9b	-0.024145892
188	0xbd52c3fb	-0.051456433
189	0x3b599a42	0.0033203517
190	0x3c248304	0.010041002
191	0x3d5085a3	0.050908696
192	0x3d664027	0.056213524
193	0x3d1b3c9a	0.03789959
194	0x3a6bf60e	0.00090012036
195	0xbc531503	-0.012883428
196	0xbc1390a2	-0.009006651
197	0x3d83f064	0.06442335
198	0xbcd9e2bd	-0.026597375
199	0x3d9d8533	0.07691421
200	0x3c7250be	0.014789758
201	0xbdc088b7	-0.09401076
202	0x3cde7ebe	0.027160045
203	0xbdbc67e8	-0.09199506
204	0xbcb07b66	-0.021543216
205	0x3d065052	0.032791443
206	0x3d53aa48	0.051676065
207	0x3c4c1eed	0.012458545
208	0x3c83ad29	0.01607378
209	0x3cee49e9	0.029087977
210	0x3d6a5acf	0.057215508
211	0xbd696333	-0.05697937
212	0xbc3f9efd	-0.011695621
213	0x3ca814b1	0.020517679
214	0x3b9139e0	0.004431948
215	0xbc0baca5	-0.008525048
216	0xbd1db894	-0.038506106
217	0xbd4c181f	-0.04982769
218	0x3dd11e15	0.10210816
219	0x3d2c7725	0.042105813
220	0xbbeb648c	-0.007183617
221	0xbda667e8	-0.08125287
222	0x3ca4a347	0.020097388
223	0x3d649a2c	0.055811092
224	0xbcf8acc3	-0.030355817
225	0x3aa4a6eb	0.0012561952
226	0xbc70eda6	-0.014705097
227	0x3c5b7763	0.013395163
228	0x3cd53072	0.026024077
229	0x3ad894aa	0.0016523798
230	0x3d227bda	0.039668895
231	0xbc8762b8	-0.016526565
232	0xbd4c9120	-0.04994309
233	0x3cc3f8e0	0.023922384
234	0x3da169a0	0.078814745
235	0xbb43e3bf	-0.0029890386
236	0xbc25b432	-0.010113763
237	0x3d431c63	0.047634494
238	0xbca5442b	-0.020174107
239	0xbd8ac17c	-0.067751855
240	0xbb676f7e	-0.0035314257
241	0xbcf5f651	-0.03002468
242	0x3c991792	0.018687997
243	0x3d4c4bc5	0.049876947
244	0x3c4c7f3c	0.012481507
245	0x3c1d1961	0.00958857
246	0x3c9fa7de	0.019489225
247	0xbcded77f	-0.027202366
248	0x3d0fa4c2	0.035069235
249	0xbd20b635	-0.039236266
250	0xbc9457d5	-0.018108288
251	0xbd18af33	-0.037276458
252	0x3d48f962	0.049065955
253	0x3d3699b4	0.044580176
254	0x3d503660	0.050833106
255	0x3c4e98a5	0.0126096355

conv3.bias f4 [64]
0	0x3cc81633	0.024424648
1	0xbc2fc053	-0.010727006
2	0xbc99103b	-0.018684497
3	0x3ce8f62d	0.028437698
4	0x3c303814	0.010755558
5	0x3cedb576	0.029017191
6	0x3cd8df24	0.02647359
7	0x3cc06e17	0.023489995
8	0xbca8d356	-0.020608585
9	0x3ca00019	0.019531297
10	0x3cc06bfb	0.02348899
11	0xbcadc742	-0.021213178
12	0x3c8d4da5	0.017248938
13	0x3cf499be	0.029858466
14	0x3b9f3cc2	0.004859538
15	0x3b35b2b0	0.0027724914
16	0x3cc1aafe	0.023641106
17	0x3cc696e3	0.02424187
18	0x39e24fab	0.00043165436
19	0x3cdf9cab	0.027296385
20	0xbcc3d6cb	-0.023906132
21	0x3c94023b	0.01806747
22	0xbc99f632	-0.018794153
23	0xbc873bab	-0.016507944
24	0x3ba720cd	0.0051003457
25	0xbcaad9cf	-0.020855812
26	0x3c0d8017	0.008636496
27	0x3cb04d9f	0.021521388
28	0xbc816767	-0.015796376
29	0xbcc5cf44	-0.024146684
30	0x3c84fcc1	0.016233804
31	0x3b2f7803	0.0026774413
32	0x3cbad8f2	0.022808526
33	0xbcbd6945	-0.023121485
34	0x3cc12a2a	0.023579676
35	0xbc19deba	-0.009391481
36	0x3cddebe7	0.027090026
37	0x3cdb43fa	0.026765812
38	0x3ce04919	0.027378606
39	0x3cceec9a	0.025259305
40	0x3c5e48b6	0.01356714
41	0x3ac789fb	0.0015223617
42	0xbcad3ceb	-0.021147212
43	0x3c5c70a6	0.013454592
44	0x3cc73f3c	0.024322145
45	0xbcb9058c	-0.022585653
46	0xbcc6b42a	-0.02425583
47	0x3cd81ee1	0.026381912
48	0x3cd774eb	0.026300868
49	0x3cd4ece3	0.025991863
50	0x3cd0d86e	0.025493827
51	0xbb03ba03	-0.0020099885
52	0x3cc29930	0.023754686
53	0xbcbf7039	-0.023368942
54	0x3cdfcd45	0.02731956
55	0x3ca306f8	0.019900784
56	0xbc71bf46	-0.014755076
57	0xbb49661f	-0.0030731035
58	0x3c587e3c	0.01321369
59	0x3cce8837	0.025211437
60	0x3cb2ace2	0.021810953
61	0xbca1e9b3	-0.019764757
62	0x3c783959	0.0151503915
63	0xbcc89983	-0.024487263

bn1.weight f4 [64]
0	0x3f7c4869	0.9854799
1	0x3f7af265	0.98026115
2	0x3f83d7c0	1.0300217
3	0x3f801b40	1.0008316
4	0x3f81959b	1.0123781
5	0x3f820356	1.0157268
6	0x3f80b501	1.0055238
7	0x3f821b95	1.0164667
8	0x3f7b47b0	0.9815626
9	0x3f82fe5d	1.0233876
10	0x3f81bd67	1.0135926
11	0x3f835e97	1.0263242
12	0x3f818205	1.0117804
13	0x3f7fbfd9	0.9990211
14	0x3f7b9ce9	0.982863
15	0x3f7d41dc	0.9892862
16	0x3f7ecfb1	0.9953566
17	0x3f7eec7e	0.9957961
18	0x3f804e39	1.0023872
19	0x3f80f9f3	1.0076278
20	0x3f819751	1.0124303
21	0x3f7ca6ee	0.98692214
22	0x3f7de4e4	0.99177384
23	0x3f7fc4fd	0.99909955
24	0x3f7e16c8	0.9925351
25	0x3f7b7fb8	0.9824176
26	0x3f7fae55	0.99875385
27	0x3f7f5084	0.9973223
28	0x3f822bdd	1.0169636
29	0x3f7c8f27	0.98655933
30	0x3f7d9fc3	0.990719
31	0x3f83969c	1.0280337
32	0x3f7e0feb	0.9924304
33	0x3f80c0b2	1.0058806
34	0x3f7f17bf	0.9964561
35	0x3f7fbb79	0.99895436
36	0x3f7a6662	0.97812474
37	0x3f8022d9	1.0010635
38	0x3f80b33e	1.00547
39	0x3f82c801	1.0217286
40	0x3f821ba8	1.016469
41	0x3f82eca8	1.0228472
42	0x3f80730c	1.003511
43	0x3f8313e4	1.0240445
44	0x3f7fea77	0.9996714
45	0x3f80ae31	1.0053159
46	0x3f81441e	1.0098913
47	0x3f7dc290	0.99125004
48	0x3f8292ab	1.020101
49	0x3f7ddd02	0.99165356
50	0x3f7b7ba3	0.9823553
51	0x3f7ce6fa	0.9878994
52	0x3f82701c	1.0190463
53	0x3f7c8b97	0.986505
54	0x3f7b4cb4	0.98163915
55	0x3f7cfb01	0.988205
56	0x3f838e3d	1.0277783
57	0x3f81da2e	1.0144708
58	0x3f7ba119	0.9829269
59	0x3f81ea71	1.0149671
60	0x3f7eae4d	0.9948471
61	0x3f7e759d	0.99398214
62	0x3f7b2012	0.9809581
63	0x3f7effa8	0.9960885

bn1.bias f4 [64]
0	0x3c545e98	0.012962006
1	0xbc424ee0	-0.011859626
2	0x3c9ef219	0.01940255
3	0xbb58093c	-0.0032964488
4	0xbc8f84d7	-0.017519398
5	0x3c8b1395	0.01697711
6	0x3c180a0f	0.009279742
7	0xbc9341d7	-0.01797573
8	0xbcc2198b	-0.02369382
9	0x3c7baa0e	0.015360368
10	0x3c7b0d61	0.015323014
11	0x3c46e504	0.0121395625
12	0x3c69caac	0.014269512
13	0x3c04ae69	0.008098223
14	0xbca05d44	-0.019575723
15	0xbca42b4c	-0.020040177
16	0xbcc98692	-0.024600301
17	0x3c5746f6	0.013139477
18	0xbcbd1c96	-0.02308492
19	0x3b6fc2d4	0.0036584632
20	0xbbc9d796	-0.006159733
21	0x3c6bece1	0.014399738
22	0xbb0e22bf	-0.002168819
23	0xbc28ae1b	-0.010295416
24	0xbb108605	-0.0022052538
25	0xbbe234b5	-0.006903256
26	0xbc3577a0	-0.011075884
27	0xbc9e0cd8	-0.019293234
28	0x3b5f6558	0.0034087505
29	0xbc929bd2	-0.017896567
30	0x3c84c2f0	0.016206235
31	0x3c046100	0.008079767
32	0x3b919830	0.004443191
33	0xbbea2ace	-0.007146216
34	0xbc94a152	-0.01814333
35	0x3b42d2ad	0.0029727623
36	0xbb9e78ff	-0.004836201
37	0x3bd39e4d	0.00645808
38	0xbb299dba	-0.0025881366
39	0x3c812b97	0.015767856
40	0xbc65fdc5	-0.014037554
41	0x3c9e4cee	0.019323792
42	0x3c5ec112	0.013595836
43	0x3cbd7d74	0.02313111
44	0x3c14b267	0.009075738
45	0x3c6ae996	0.014337918
46	0xbbfa5c7d	-0.00764042
47	0x3cb14504	0.021639355
48	0x3cc3da30	0.02390775
49	0x3c280cb5	0.010256936
50	0xbc76c76b	-0.015062193
51	0x3bae8ad4	0.005326608
52	0x3cdb7789	0.026790397
53	0x3c97ed16	0.018545669
54	0xbc81d006	-0.015846264
55	0xbbb247d4	-0.0054406915
56	0x3c9a80cb	0.018860241
57	0xba90ccc8	-0.0011047358
58	0x3cb8322f	0.022484867
59	0x3c9ddcfd	0.019270414
60	0xbcbdc72e	-0.023166265
61	0xbcaabbb3	-0.020841455
62	0xbc2ef9ca	-0.010679672
63	0xbcc18e04	-0.023627289

bn1.running_mean f4 [64]
0	0x3c3f87b7	0.011690072
1	0x39ae5e90	0.0003325832
2	0xbc5c9c9b	-0.013465072
3	0x3c60bcf3	0.013716924
4	0xbcb5111b	-0.022102883
5	0xbcb4fdc4	-0.022093661
6	0xbc0676a2	-0.008206995
7	0xbc42d822	-0.01189235
8	0xbb51eb90	-0.0032031275
9	0xbac38880	-0.0014918
10	0xbaf157cd	-0.0018413007
11	0xbbfbf213	-0.0076887696
12	0xbc72c46e	-0.01481734
13	0x3c6242cd	0.013809872
14	0xbc7a1b50	-0.015265301
15	0xbc70a091	-0.0146867195
16	0x3bd3bde6	0.0064618466
17	0xbc2d82d6	-0.010590276
18	0x3b68cb60	0.0035521612
19	0x3bdd8fcb	0.006761526
20	0xbb4be002	-0.003110886
21	0x3c9fc996	0.019505303
22	0x3c322b95	0.010874649
23	0xbbedba6a	-0.0072548883
24	0x398fc8a2	0.00027424569
25	0x3cd52721	0.026019635
26	0xbc61f349	-0.013790914
27	0xbc30c1f0	-0.010788426
28	0x3c681e5f	0.014167397
29	0xbca95507	-0.020670427
30	0x3bde5e1f	0.0067861225
31	0xbc35c433	-0.011094141
32	0xba8f2f34	-0.0010924102
33	0x3c073e1f	0.008254557
34	0x3c59c069	0.013290503
35	0xbc810ef5	-0.015754202
36	0x3bbb4e69	0.0057161343
37	0x3aaf8e55	0.0013393859
38	0x3b1a9a76	0.00235906
39	0xbbd1fb8a	-0.0064081596
40	0x3beb205e	0.0071754893
41	0xbcb19f95	-0.02168254
42	0x3c92a29b	0.017899802
43	0x3bb249b1	0.0054409136
44	0x3d116ef7	0.035506215
45	0xbb846436	-0.0040402664
46	0xbb5ab5fe	-0.0033372636
47	0xb93ba215	-0.0001789409
48	0x3be0661c	0.00684811
49	0x3c8085c6	0.015688788
50	0x3cae7ce7	0.021299792
51	0x3c8a8438	0.01690875
52	0xbca04cc1	-0.01956785
53	0x3cdf1f0f	0.02723649
54	0x3be53ac2	0.00699553
55	0x3bde405c	0.0067825746
56	0xbc873104	-0.016502865
57	0x3d048f2d	0.032363106
58	0x3b3482ec	0.0027543856
59	0xbc45d13a	-0.012073809
60	0xbc7faedc	-0.015605655
61	0xbc89f87d	-0.016842121
62	0x3c51ebfb	0.01281261
63	0x3aefeee3	0.0018305447

bn1.running_var f4 [64]
0	0x3cbd9b6e	0.023145404
1	0x3c8f8a28	0.017521933
2	0x3d9f2a08	0.07771689
3	0x3ccbf611	0.024897607
4	0x3d8f5a7d	0.06999681
5	0x3dc4f2a3	0.09616592
6	0x3bb85b3c	0.0056261104
7	0x3ca64097	0.02029447
8	0x3cd9f86c	0.026607715
9	0x3c9aa97c	0.018879645
10	0x3ce95a96	0.028485578
11	0x3d213680	0.039358616
12	0x3cffb1cf	0.031212715
13	0x3da542b2	0.08069362
14	0x3ca6ebbb	0.020376077
15	0x3d72d241	0.059282545
16	0x3cae5d1e	0.021284636
17	0x3ccb3ed1	0.024810227
18	0x3d173fc1	0.036926035
19	0x3cdc5edc	0.026900701
20	0x3d00fac8	0.031489164
21	0x3d016c56	0.031597458
22	0x3d8937a2	0.06700064
23	0x3cf88a5b	0.03033941
24	0x3c8b5a5f	0.017010866
25	0x3d94dfb4	0.072692305
26	0x3cc722fc	0.024308674
27	0x3ca5b715	0.020228902
28	0x3d10be58	0.035337776
29	0x3d331c14	0.04372795
30	0x3d1ff4f6	0.039051972
31	0x3d0fb6b2	0.03508634
32	0x3d11e555	0.0356191
33	0x3d12ee50	0.035871804
34	0x3d39285e	0.045204513
35	0x3d40dca9	0.047085438
36	0x3c22137e	0.009892343
37	0x3c1cddfb	0.009574409
38	0x3c73cf03	0.014880898
39	0x3bc61cba	0.006045905
40	0x3c7a7620	0.015286952
41	0x3d74a045	0.059723157
42	0x3d392be7	0.045207884
43	0x3d2a038c	0.04150729
44	0x3d84b3bc	0.06479594
45	0x3d136d47	0.035992887
46	0x3d1f6ae6	0.038920306
47	0x3cd7b434	0.026331045
48	0x3ceab22a	0.028649408
49	0x3cc1af88	0.02364327
50	0x3dab32ab	0.083592735
51	0x3d94cabd	0.07265232
52	0x3d83bf10	0.06432927
53	0x3da6f807	0.08152776
54	0x3d3ea0f8	0.04654023
55	0x3cc3e858	0.023914501
56	0x3d7b8f75	0.06141611
57	0x3da1a997	0.07893675
58	0x3d1238f8	0.03569886
59	0x3c897137	0.016777618
60	0x3cc89d57	0.024489088
61	0x3d186883	0.037209045
62	0x3d7bde4b	0.061491292
63	0x3d007f55	0.031371433

bn2.weight f4 [64]
0	0x3f7f800d	0.99804765
1	0x3f801bb3	1.0008453
2	0x3f81bf0b	1.0136427
3	0x3f7a840b	0.9785773
4	0x3f807f92	1.0038931
5	0x3f7d976b	0.9905917
6	0x3f80b623	1.0055584
7	0x3f80aeef	1.0053385
8	0x3f794f2d	0.9738644
9	0x3f82aa10	1.0208149
10	0x3f809617	1.0045804
11	0x3f7b6a5c	0.98209167
12	0x3f7db2b7	0.9910082
13	0x3f7d2c57	0.9889578
14	0x3f8077f1	1.0036603
15	0x3f7db8fd	0.99110395
16	0x3f82e323	1.0225567
17	0x3f7e9c54	0.9945729
18	0x3f7ca484	0.9868853
19	0x3f7ddeb0	0.9916792
20	0x3f81b400	1.0133057
21	0x3f822942	1.0168841
22	0x3f812fd5	1.0092722
23	0x3f7d5476	0.98957
24	0x3f80b313	1.0054649
25	0x3f81b931	1.0134641
26	0x3f7bb210	0.98318577
27	0x3f7d9004	0.99047875
28	0x3f7ceb1d	0.98796254
29	0x3f811354	1.0084023
30	0x3f800cc0	1.0003891
31	0x3f80a40d	1.0050064
32	0x3f81769c	1.0114322
33	0x3f81435b	1.009868
34	0x3f826e2b	1.018987
35	0x3f7e77da	0.9940163
36	0x3f7cd43c	0.98761344
37	0x3f7dba32	0.99112236
38	0x3f799577	0.9749369
39	0x3f80ee01	1.0072633
40	0x3f7bc893	0.98352927
41	0x3f7ef4ab	0.99592084
42	0x3f7c6481	0.98590857
43	0x3f83304c	1.0249114
44	0x3f7cb4aa	0.9871317
45	0x3f7fc1b2	0.9990493
46	0x3f791021	0.97290236
47	0x3f82a50e	1.0206621
48	0x3f7947b6	0.9737505
49	0x3f7e89cd	0.9942902
50	0x3f80d30d	1.0064408
51	0x3f816ed3	1.0111946
52	0x3f82bcd0	1.0213871
53	0x3f81ef29	1.0151111
54	0x3f7f2670	0.99668026
55	0x3f7cad0d	0.98701555
56	0x3f808ea5	1.0043532
57	0x3f7ea4fb	0.9947049
58	0x3f7abd94	0.97945523
59	0x3f81e79f	1.014881
60	0x3f805819	1.0026885
61	0x3f7b3874	0.98133016
62	0x3f8124cd	1.0089356
63	0x3f80ff96	1.0077999

bn2.bias f4 [64]
0	0xbc0909fc	-0.008364197
1	0xbbf5d924	-0.007502692
2	0xbc655c4b	-0.013999055
3	0x3c94760c	0.018122695
4	0x3afa5a55	0.0019100407
5	0xbc5919d6	-0.013250789
6	0xbb5f6ce4	-0.0034092003
7	0xbc034606	-0.0080123
8	0xbcab792c	-0.020931803
9	0x3caabf4c	0.02084317
10	0xbb263d0a	-0.0025365972
11	0xbc761c94	-0.015021462
12	0xbb19891e	-0.0023427675
13	0xbcea3d70	-0.028593749
14	0xbba05467	-0.004892874
15	0x3c0d9aa7	0.008642829
16	0xbcbb81d8	-0.022889063
17	0x3c1d32c1	0.00959462
18	0xbced55ee	-0.028971639
19	0xbc8ed4e3	-0.017435497
20	0x3cac9ead	0.021071756
21	0x3b1e26eb	0.0024132084
22	0x38d57982	0.00010179264
23	0x3c6c3c00	0.014418602
24	0x3a8e93ce	0.001087779
25	0x3c85b52c	0.016321741
26	0xbb2e4325	-0.0026590314
27	0x3ca2c25e	0.019868072
28	0xbcdaed47	-0.02672447
29	0x3a87da35	0.0010364713
30	0xbcd2a9fd	-0.025715822
31	0x3bbaf707	0.0057057175
32	0x3cad0cb9	0.02112423
33	0xbb4369f0	-0.0029817782
34	0x3bf8a5fb	0.007588146
35	0x3be05145	0.0068456256
36	0xbc81cf43	-0.0158459
37	0xbbc375d0	-0.005964972
38	0xbcc55406	-0.024087917
39	0x3b8a8583	0.0042273416
40	0x3c9a78cf	0.018856434
41	0xbc3009aa	-0.010744492
42	0xbb759492	-0.0037472588
43	0xbca33364	-0.019921966
44	0xbae66b60	-0.0017579608
45	0xbb05a1e0	-0.0020390674
46	0xbcdd7633	-0.0270339
47	0x3cec5c35	0.028852561
48	0xbcc7e49a	-0.024400998
49	0xbc8b1301	-0.016976835
50	0x3c8482ab	0.016175589
51	0xbb59307d	-0.0033140474
52	0x3cd8d3b9	0.026468145
53	0xbc8a7b83	-0.016904598
54	0x3c486bcf	0.012232735
55	0xbc126abe	-0.008936582
56	0xbb7b6c58	-0.0038364138
57	0x3c3bfa70	0.011473283
58	0x3c0404cd	0.008057785
59	0xbccf5430	-0.025308698
60	0x3c7b0b85	0.015322571
61	0xba235b28	-0.000623154
62	0xbc791bb4	-0.015204359
63	0xba59c780	-0.0008307621

bn2.running_mean f4 [64]
0	0x3fe644a6	1.79897
1	0x3ffa42c0	1.955162
2	0x3fe4262d	1.782415
3	0xbe017839	-0.12643518
4	0x3f6644dc	0.8994882
5	0xbf8cc481	-1.0997468
6	0x3f1a07d9	0.60168225
7	0x404f3e0f	3.2381628
8	0x3e86f277	0.2635686
9	0x3f3c3ae5	0.73527366
10	0x4008e438	2.1389294
11	0x4011d578	2.278654
12	0x3f269757	0.65074676
13	0xbf51dd73	-0.8197853
14	0x40328d6a	2.7898812
15	0x400920d7	2.1426294
16	0x3f8f180e	1.1179216
17	0xbe82d49b	-0.2555283
18	0x4035c078	2.8398724
19	0x3cf17f72	0.029479716
20	0x3edf7ff6	0.43652314
21	0xbd8659f9	-0.0656013
22	0x401323e3	2.2990654
23	0x3fc84d6f	1.5648631
24	0x4036b792	2.8549542
25	0x3fd6f8a9	1.6794635
26	0xbebd8b09	-0.37020138
27	0x4036fa1e	2.859016
28	0xbf3ffc8c	-0.7499473
29	0x3f5f665c	0.87265563
30	0x4025a96e	2.5884662
31	0xbe00824f	-0.12549709
32	0xbee67f1a	-0.45018846
33	0x3f99cbbb	1.2015299
34	0xbd05b8a3	-0.032646786
35	0x3ffe773d	1.9880139
36	0xbf414f93	-0.75512046
37	0xbfc18208	-1.5117807
38	0xbfd968d2	-1.6985114
39	0xc0270c95	-2.610143
40	0x3fd89cc1	1.6922837
41	0x401e4b74	2.4733553
42	0xc0180aec	-2.3756666
43	0xbf063c92	-0.5243617
44	0x4003d7ed	2.060054
45	0xbf898ef3	-1.074675
46	0xbf8e628c	-1.1123824
47	0x3e47be17	0.19506107
48	0xbf57d114	-0.843034
49	0xbec512d4	-0.38490927
50	0x3ef614f9	0.48062876
51	0xbf1d9aff	-0.6156463
52	0x3dc93c34	0.09825936
53	0x3f8da1ed	1.1065041
54	0x3fe4965c	1.7858386
55	0xc04b8845	-3.1801922
56	0x3f321738	0.6956668
57	0x4010e194	2.2637682
58	0x3f1c8c90	0.6115198
59	0xbe13b9dc	-0.14426368
60	0x3fafb108	1.3725901
61	0x3fd8309d	1.6889836
62	0x3fdb7aac	1.7146811
63	0xbfae4f3d	-1.3617932

bn2.running_var f4 [64]
0	0x40baf710	5.842659
1	0x4088dc3d	4.2768846
2	0x3fe6ded5	1.8036753
3	0x404e6691	3.2250102
4	0x4017548d	2.3645356
5	0x40427bde	3.0388103
6	0x40046afb	2.0690296
7	0x412b727b	10.715449
8	0x402b36ee	2.6752276
9	0x40312383	2.7677925
10	0x40ba9fde	5.832015
11	0x401062c9	2.2560294
12	0x3fb23aa9	1.3924152
13	0x404a1e17	3.1580865
14	0x40da274f	6.8172984
15	0x40c6d170	6.213066
16	0x404be2af	3.1857107
17	0x401183a7	2.2736604
18	0x412cf70a	10.810312
19	0x40962f8e	4.693305
20	0x402cd1ab	2.700297
21	0x3fe59bf8	1.7938223
22	0x4101f848	8.123116
23	0x3fa4a22c	1.2861991
24	0x40aa6189	5.324406
25	0x400e4ad9	2.2233183
26	0x40031860	2.0483627
27	0x4127a0e6	10.476782
28	0x3fd5449a	1.666156
29	0x403b3276	2.924955
30	0x40ce4745	6.4462
31	0x404281e4	3.039178
32	0x40686e28	3.6317234
33	0x4088efbd	4.279265
34	0x3f965c89	1.174699
35	0x40f88059	7.7656674
36	0x409ef4f9	4.967404
37	0x4087f842	4.249055
38	0x40272619	2.6117003
39	0x40a639a6	5.194537
40	0x40495b45	3.1461957
41	0x40d793f1	6.7368093
42	0x4105d261	8.363862
43	0x3ff7b4d2	1.9352057
44	0x409ac63f	4.8367
45	0x4067684a	3.6157403
46	0x403d07a2	2.9535909
47	0x3fc0b3ad	1.5054833
48	0x3ff308c8	1.8987055
49	0x4019a0d3	2.400441
50	0x40214916	2.5200858
51	0x4047492f	3.1138418
52	0x402bcccc	2.6843748
53	0x4094c688	4.649235
54	0x4035f819	2.8432677
55	0x41307c6a	11.030375
56	0x405835b6	3.3782783
57	0x40a77854	5.2334385
58	0x40871b4c	4.222082
59	0x40556419	3.3342345
60	0x402e801b	2.726569
61	0x40c8b1c5	6.2717004
62	0x40c7c7a8	6.243122
63	0x4082b32e	4.0843725

bn3.weight f4 [64]
0	0x3f84138b	1.0318464
1	0x3f84527b	1.0337671
2	0x3f841f4a	1.0322049
3	0x3f8420ca	1.0322506
4	0x3f8446f4	1.0334153
5	0x3f8432e5	1.0328032
6	0x3f844ac6	1.0335319
7	0x3f84421b	1.0332674
8	0x3f841dfd	1.0321652
9	0x3f84270c	1.0324416
10	0x3f8432f7	1.0328053
11	0x3f844763	1.0334285
12	0x3f84185c	1.0319934
13	0x3f843209	1.032777
14	0x3f8417c5	1.0319754
15	0x3f84454b	1.0333647
16	0x3f8445ae	1.0333765
17	0x3f8403d8	1.0313673
18	0x3f843cd2	1.0331061
19	0x3f84378f	1.0329455
20	0x3f843ef9	1.0331718
21	0x3f843aed	1.0330483
22	0x3f845073	1.0337051
23	0x3f84204c	1.0322356
24	0x3f841eb0	1.0321865
25	0x3f844057	1.0332135
26	0x3f844af9	1.033538
27	0x3f84146e	1.0318735
28	0x3f84195d	1.032024
29	0x3f846548	1.0343409
30	0x3f843ee5	1.0331694
31	0x3f83b76e	1.0290353
32	0x3f843bb0	1.0330715
33	0x3f8439fb	1.0330194
34	0x3f84148c	1.031877
35	0x3f844bf1	1.0335675
36	0x3f840ee2	1.0317042
37	0x3f841cc9	1.0321285
38	0x3f842c7c	1.0326076
39	0x3f845b73	1.0340408
40	0x3f844930	1.0334835
41	0x3f84449f	1.0333441
42	0x3f84469b	1.0334047
43	0x3f841ce2	1.0321314
44	0x3f840ee2	1.0317042
45	0x3f843eb6	1.0331638
46	0x3f8423a1	1.0323373
47	0x3f8446c3	1.0334095
48	0x3f843822	1.032963
49	0x3f8406e0	1.0314598
50	0x3f845595	1.0338618
51	0x3f8421da	1.0322831
52	0x3f841a6d	1.0320565
53	0x3f83fcb8	1.0311499
54	0x3f840aa2	1.0315745
55	0x3f844afc	1.0335383
56	0x3f844b26	1.0335433
57	0x3f842cd5	1.0326182
58	0x3f8429ac	1.0325217
59	0x3f8403c3	1.0313648
60	0x3f840bb1	1.0316068
61	0x3f843fae	1.0331933
62	0x3f844676	1.0334003
63	0x3f841fee	1.0322244

bn3.bias f4 [64]
0	0x3d084957	0.033273067
1	0x3ccd2286	0.025040876
2	0x3d07950c	0.033101127
3	0x3d0433a0	0.032275796
4	0x3cbe8148	0.023255005
5	0x3d08f253	0.033434223
6	0x3d01dacd	0.031702805
7	0x3c987310	0.018609554
8	0x3d016f84	0.03160049
9	0x3d0bbe45	0.034117002
10	0x3cf8896b	0.030338963
11	0x3d072257	0.032991733
12	0x3d0ac7b9	0.033881877
13	0x3d08a62c	0.0333616
14	0x3ce42dc4	0.027853854
15	0x3d074551	0.03302509
16	0x3d03197e	0.032006733
17	0x3cee7090	0.029106408
18	0x3cc321f3	0.0238199
19	0x3d0487c3	0.032356035
20	0x3d07a686	0.033117794
21	0x3cefdc08	0.029279724
22	0x3d041e5b	0.03225551
23	0x3d00fa3e	0.03148865
24	0x3cfe420d	0.031037355
25	0x3cf5195c	0.029919319
26	0x3cec3882	0.028835539
27	0x3cf8207f	0.030288933
28	0x3cfb14e4	0.03064961
29	0x3cf80e79	0.030280339
30	0x3d056f71	0.032576982
31	0x3cff3a4f	0.031155733
32	0x3d0023e8	0.031284243
33	0x3cf7ae5a	0.030234504
34	0x3d036e1f	0.03208744
35	0x3d03074a	0.031989373
36	0x3cfb52b2	0.03067908
37	0x3d06bd22	0.032895215
38	0x3d05bdd5	0.03265174
39	0x3d0952ed	0.03352635
40	0x3cfbb8e7	0.030727817
41	0x3ceff49d	0.029291445
42	0x3d0945ed	0.033513952
43	0x3d01f1ef	0.031724866
44	0x3d096a86	0.033548854
45	0x3d04fa41	0.032465223
46	0x3cff7d98	0.031187817
47	0x3cfd6fe6	0.030937146
48	0x3d0909b6	0.033456527
49	0x3ceeb3e8	0.02913852
50	0x3d0d2488	0.034458667
51	0x3ceb057c	0.028689139
52	0x3d0d6cd0	0.0345276
53	0x3cffbf2d	0.03121909
54	0x3d02a9b5	0.031900126
55	0x3d02ed20	0.03196442
56	0x3d02950d	0.031880427
57	0x3d0049c7	0.03132036
58	0x3d06555d	0.032796253
59	0x3ceb69da	0.028736997
60	0x3cff5021	0.031166138
61	0x3d05a74f	0.03263026
62	0x3ce07c37	0.02740298
63	0x3d03d704	0.032187477

bn3.running_mean f4 [64]
0	0x40079d4e	2.118976
1	0xbfb14327	-1.3848618
2	0xbdf85288	-0.121251166
3	0x403026c1	2.7523654
4	0x3fcd3059	1.603038
5	0x401d31bd	2.4561608
6	0x40045cdf	2.0681684
7	0x3fcd2287	1.6026162
8	0xbf7086d9	-0.9395576
9	0x3f04d5ff	0.5188903
10	0x3fdebc96	1.7401302
11	0xbfb888f3	-1.4416794
12	0x3f71ff71	0.945304
13	0x40454362	3.0822377
14	0x3f773249	0.96561104
15	0x3e0bd482	0.13655284
16	0x3fe1b17e	1.7632291
17	0x40173830	2.3628044
18	0x3ef13260	0.47108746
19	0x4010daa2	2.2633443
20	0xbfa3e48f	-1.2804126
21	0x3fd64d17	1.6742276
22	0xbee023bf	-0.43777272
23	0xbdf72c88	-0.120690405
24	0x3f38af18	0.7214217
25	0xbfc22d1e	-1.5170019
26	0x3eb6a42b	0.35672125
27	0x3fdbee36	1.7182071
28	0xbe847c7c	-0.25876224
29	0xbfac4e22	-1.3461344
30	0x3f8f7558	1.1207685
31	0x3df17d4d	0.11791477
32	0x3f5ee491	0.87067515
33	0xbff97838	-1.9489813
34	0x40064854	2.0981646
35	0x3eea0bf4	0.45712245
36	0x402a24a2	2.658486
37	0x40290586	2.6409621
38	0x3fc41b1d	1.5320774
39	0x3fc085e2	1.5040858
40	0x3fa76a25	1.3079268
41	0x3da3766e	0.07981573
42	0x3ea119f0	0.314651
43	0x3fb88eb6	1.4418552
44	0x3fbde3d8	1.4835157
45	0xbff71c9b	-1.9305605
46	0xbfef755b	-1.8707689
47	0x3fd75b78	1.6824789
48	0x3fa9e937	1.3274297
49	0x403a0317	2.9064386
50	0x3fe8f606	1.820008
51	0x3f06f7ff	0.5272216
52	0x401901e2	2.39074
53	0xbe35603d	-0.17712493
54	0x4051c36f	3.2775533
55	0x3f934281	1.150467
56	0xbf1e7759	-0.6190086
57	0x3ead2e9b	0.3382462
58	0x3dedee72	0.116177455
59	0x4012d00d	2.2939484
60	0x3fe907a8	1.8205462
61	0xbfbff79b	-1.4997438
62	0x3e59d875	0.21273978
63	0xbf8e657c	-1.112472

bn3.running_var f4 [64]
0	0x3fcb2f86	1.5873878
1	0x3f9ac8e8	1.2092562
2	0x3fc311d5	1.5239817
3	0x3f8a8ca9	1.0824176
4	0x3ff0e338	1.8819342
5	0x3fa8240e	1.3136003
6	0x3fd6bd55	1.677653
7	0x3f2335a4	0.63753724
8	0x3fad2cb8	1.3529272
9	0x3f41773b	0.75572556
10	0x3f9cff32	1.226538
11	0x3f9069a8	1.1282244
12	0x3fdb117a	1.7114708
13	0x3fcd4f53	1.6039833
14	0x3f7da10c	0.99073863
15	0x3f5df097	0.86695236
16	0x3f5a92fd	0.85380536
17	0x3fb6a604	1.4269414
18	0x40108d4e	2.2586246
19	0x3f84e869	1.0383426
20	0x3f752697	0.9576201
21	0x3f934505	1.1505438
22	0x3fdbdab3	1.7176117
23	0x3fbaa54d	1.4581696
24	0x3fa72056	1.3056743
25	0x3fd69f3f	1.6767348
26	0x3f82e99b	1.0227541
27	0x3fbba66f	1.4660167
28	0x3fb5c578	1.4200888
29	0x3f58ac14	0.8463757
30	0x4001dba9	2.029032
31	0x3ff21639	1.8913032
32	0x3f545a4d	0.8295029
33	0x3f8e077f	1.1096038
34	0x40173e0c	2.363162
35	0x3f55cb83	0.8351366
36	0x3f616c70	0.8805609
37	0x3fa8f927	1.3201035
38	0x3f5b0f72	0.8557044
39	0x3f68bfc3	0.90917605
40	0x3f877168	1.0581484
41	0x3f707d3d	0.939411
42	0x3f7d1de9	0.98873764
43	0x3fbd38ae	1.4782922
44	0x3fcc520a	1.5962536
45	0x3fe84863	1.8147091
46	0x3f81f4de	1.0152853
47	0x3fddc926	1.7327011
48	0x3f323549	0.69612557
49	0x3fd931b9	1.6968299
50	0x3f4d6ed4	0.80247235
51	0x3fd44e74	1.6586442
52	0x3f085520	0.5325489
53	0x3faeccad	1.3656212
54	0x3f4ad6e6	0.7923416
55	0x3f7bedcd	0.9840973
56	0x3f6dd583	0.9290392
57	0x3f636969	0.8883272
58	0x3fb8fb25	1.4451643
59	0x3fad4a25	1.3538252
60	0x3f6bb6fa	0.92076075
61	0x3f51d065	0.8195861
62	0x3f9478a5	1.1599318
63	0x3f9a37c2	1.2048266
