maml_omniglot_dup_1_layer_drop/maml_omniglot/output/maml-omniglot-5way-1shot-TEST/train_iter_500.pth (torch_old, 310758 bytes, 20 tensors)

features.conv1.weight f4 [64, 3, 3, 3]
-0.060306236 0.06533559 -0.09070687 -0.038832955 0.017573472 -0.06532308 0.010427442 -0.008910434
-0.118709356 -0.080423884 0.0077528274 -0.027751049 -0.061603177 -0.012152067 -0.04957657 -0.050200608
0.048801508 0.03430631 -0.07040059 -0.004719697 0.020675272 -0.10196128 0.018841928 0.047211837
-0.03298804 -0.0022627886 -0.016440349 0.058827434 -0.0585973 -0.0030575413 0.06803094 0.012946506
-0.122971 0.018492375 0.03285018 0.056877144 -0.021753749 0.02607175 -0.09989588 0.04781365
0.024273258 -0.025236517 -0.0041356757 0.10454466 0.05649244 0.099114366 -0.06463924 -0.107175626
0.0638795 -0.13017662 -0.031320322 0.008074935 -0.0032327287 0.003973946 0.025209362 -0.0643655
-0.052005496 -0.01268857 -0.040009752 -0.08706186 -0.060735095 -0.0597312 0.05546009 -0.024499394
-0.033135325 -0.039254706 -0.08249606 0.029362472 -0.013780988 0.0017627078 -0.13568138 -0.031964753
-0.03430523 -0.05500747 -0.03448061 0.042598836 0.0028643843 -0.09737957 -0.079841234 -0.026523117
-0.028270248 -0.044872906 0.14146517 -0.0343687 -0.101931736 0.061128482 -0.011547546 -0.016589608
0.034325168 -0.06631929 -0.014386355 0.065881684 -0.062247884 0.008629411 0.08056538 -0.026134603
-0.011699473 0.06538814 -0.016595965 -0.051030304 -0.07568622 -0.033330675 -0.018101092 0.033536647
-0.068862945 -0.036044758 0.11667709 0.07095119 -0.020540224 0.069015816 0.05515604 -0.048941907
0.027040934 -0.034328025 0.0031757744 -0.02846669 -0.037135325 -0.036799427 0.07897807 0.09556031
0.089333005 -0.03594667 0.005198974 0.031984355 -0.04519168 -0.09044553 -0.00381442 0.0664764
-0.020383114 0.10596595 0.07585744 0.0110348575 0.05082614 -0.10529651 -0.12774974 -0.023941476
0.017981032 0.060221605 -0.07178543 0.0605976 -0.043749265 -0.014363232 -0.039854486 0.043385673
-0.050970435 -0.013625133 0.122358225 -0.087014884 -0.0043866807 0.07240182 -0.0519744 -0.04750256
0.110704996 0.07939807 0.10842615 0.00065710937 -0.04329849 -0.03347743 0.16478547 0.02752212
-0.047753304 0.051791467 0.05602394 -0.0187207 0.052271876 0.04071903 -0.058547534 -0.04751453
0.071194775 0.093323804 -0.1068493 0.04409902 -0.05266535 -0.06221276 0.0793683 -0.024874171
-0.026166229 0.020373853 -0.07442887 0.02888743 -0.050448813 0.03193141 0.04149547 0.00569117
-0.0033463163 0.008577473 -0.018689025 -0.051915634 -0.06128611 0.038885426 0.037481867 -0.05098655
0.107014745 0.046996776 -0.05598154 -0.05096489 0.06203119 0.072986916 0.080254614 -0.051240154
-0.049390133 -0.025424521 0.14313747 0.039430793 -0.084730655 -0.042953886 0.041317444 0.0745281
-0.090646006 -0.18443131 0.070846006 -0.018829344 -0.02307774 -0.06786998 -0.08639533 0.09052835
-0.07633272 -0.00017613501 -0.029850375 0.041269235 -0.020680668 -0.068501726 0.06917045 -0.16328117
-0.09652444 -0.05182866 -0.05488294 -0.062227186 -0.039014243 0.011807529 0.019998923 0.08169685
-0.003571167 -0.11059797 0.060027584 -0.095646985 -0.011778663 -0.08831274 0.04141361 -0.00318411
0.09359259 0.018580252 0.08134538 0.08381539 0.007960097 0.023054209 -0.016919794 -0.104470894
0.08259682 -0.089785896 0.06891178 0.12114814 -0.012696875 -0.06343933 0.04017981 -0.020170067
00000000: ac03 77bd aace 853d 86c4 b9bd 4e0f 1fbd
00000010: 3ef6 8f3c 1bc8 85bd ddd7 2a3c 12fd 11bc
00000020: e41d f3bd 47b5 a4bd 6e0b fe3b 2b56 e3bc
00000030: 9d53 7cbd 7719 47bc cd10 4bbd 279f 4dbd
00000040: 17e4 473d c684 0c3d 2f2e 90bd b0a7 9abb
00000050: 305f a93c 13d1 d0bd 635a 9a3c 3361 413d
00000060: 781e 07bd 4b4b 14bb e9ad 86bc 09f5 703d
00000070: b903 70bd 0861 48bb ce53 8b3d 951d 543c
00000080: 38d8 fbbd 527d 973c e98d 063d 02f8 683d
00000090: eb34 b2bc 6c94 d53c 3696 ccbd 3fd8 433d
000000a0: b6d8 c63c d0bc cebc 9084 87bb 831b d63d
000000b0: 9e64 673d 79fc ca3d 9461 84bd e57e dbbd
000000c0: 41d3 823d 054d 05be bd49 00bd bb4c 043c
000000d0: 30dc 53bb e037 823b dd83 ce3c 0fd2 83bd
000000e0: b703 55bd b8e3 4fbc 44e1 23bd 7d4d b2bd
000000f0: 5dc5 78bd b4a8 74bd 1f2a 633d f4b2 c8bc
00000100: e8b8 07bd 8bc9 20bd b2f3 a8bd 9189 f03c
00000110: a7c9 61bc a90a e73a 0ff0 0abe 79ed 02bd
00000120: a483 0cbd 834f 61bd 8a3b 0dbd 1e7c 2e3d
00000130: 65b8 3b3b f16e c7bd cd83 a3bd 0247 d9bc
00000140: 0297 e7bc a7cc 37bd 3fdc 103e 32c6 0cbd
00000150: 96c1 d0bd dc61 7a3d eb31 3dbc eee6 87bc
00000160: 8c98 0c3d 68d2 87bd bfb4 6bbc faec 863d
00000170: a3f7 7ebd 6062 0d3c 76ff a43d 3c18 d6bc
00000180: 25af 3fbc 38ea 853d 43f4 87bc 2705 51bd
00000190: 6001 9bbd bf85 08bd be48 94bc b95d 093d
000001a0: 0408 8dbd aba3 13bd 66f4 ee3d dc4e 913d
000001b0: f943 a8bc 2a58 8d3d 4deb 613d 4f77 48bd
000001c0: f384 dd3c 8b9b 0cbd a720 503b fa32 e9bc
000001d0: 361b 18bd ffba 16bd 41bf a13d 20b5 c33d
000001e0: 39f4 b63d d13c 13bd 285c aa3b 0702 033d
000001f0: e91a 39bd 823b b9bd 59fb 79bb c724 883d
00000200: 7dfa a6bc ad04 d93d 255b 9b3d 8ccb 343c
00000210: 122f 503d b2a5 d7bd d4d0 02be ea20 c4bc
00000220: f54c 933c eeaa 763d 3d04 93bd 3035 783d
00000230: 6e32 33bd c353 6bbc 753e 23bd 2db5 313d
00000240: 60c6 50bd f33b 5fbc f396 fa3d dc34 b2bd
00000250: 25be 8fbb 6847 943d 1ce3 54bd 0b92 42bd
00000260: 4db9 e23d 759b a23d 880e de3d dd41 2c3a
00000270: c259 31bd a11f 09bd 86bd 283e 1276 e13c
00000280: f898 43bd 4a23 543d 5c79 653d 275c 99bc
00000290: 091b 563d ffc8 263d 8acf 6fbd 999e 42bd
000002a0: 91ce 913d 8d20 bf3d ced3 dabd 2da1 343d
000002b0: 9fb7 57bd cfd2 7ebd d98b a23d ebc4 cbbc
000002c0: 8f5a d6bc 11e7 a63c 2a6e 98bd 55a5 ec3c
000002d0: 6aa3 4ebd 83ca 023d 27f7 293d ff7c ba3b
000002e0: df4d 5bbb 8888 0c3c ba19 99bc 7da5 54bd
000002f0: 2507 7bbd 5346 1f3d 9686 193d 46d7 50bd
00000300: 8c2a db3d b17f 403d e64c 65bd 8fc0 50bd
00000310: 6b14 7e3d 2a7a 953d 885c a43d 32e1 51bd
00000320: 4f4d 4abd 1647 d0bc a192 123e 2f82 213d
00000330: 4487 adbd 6af0 2fbd 7b3c 293d 30a2 983d
00000340: 9da4 b9bd 90db 3cbe b617 913d ff3f 9abc
00000350: 870d bdbc 6bff 8abd 09f0 b0bd ed66 b93d
00000360: 5454 9cbd e2b0 38b9 c688 f4bc ee09 293d
00000370: 816a a9bc a24a 8cbd 3da9 8d3d 2e33 27be
00000380: 9bae c5bd 4a4a 54bd efcc 60bd efe1 7ebd
00000390: 66cd 1fbd 5e74 413c c8d4 a33c ae50 a73d
000003a0: 3d0a 6abb 3081 e2bd 7cdf 753d 91e2 c3bd
000003b0: 4bfb 40bc 4fdd b4bd 51a1 293d 80ac 50bb
000003c0: 79ad bf3d 9d35 983c 6898 a63d 67a7 ab3d
000003d0: 116b 023c 2edc bc3c 619b 8abc d6f4 d5bd
000003e0: 8628 a93d abe1 b7bd 9f21 8d3d 841c f83d
000003f0: 8e06 50bc 7bec 81bd 9693 243d b23b a5bc

features.conv1.bias f4 [64]
3.294023e-05 0.0015562245 0.00046717498 -9.163563e-05 0.00047086555 -0.0004806153 -0.00037708678 0.00058034755
0.0008105067 -0.00014770769 4.7160967e-05 0.00031179585 0.0005585005 0.0010519779 -0.00053286646 -0.0017565053
0.00042475536 0.00026002672 7.998714e-05 0.0009446435 0.00064847135 -0.00023588326 -0.00040214756 -0.0021364163
-0.00041125383 0.000230734 0.00024420317 0.00021001452 0.00048665766 4.7804708e-05 -0.00043890992 -0.00026671303
-0.0013070337 0.0013906686 -0.0007966761 -0.0008183321 -0.0013591412 0.0007428744 0.0010132267 -0.0012098234
8.134667e-05 -0.0012529901 -2.451089e-05 0.00061050424 -0.00025334742 -0.000747822 0.0010085093 -0.00061243854
0.0013249983 0.00042387465 0.0003514924 0.00031804843 0.0012946447 -8.914084e-05 -0.0012268258 -0.00050106354
0.00047418874 -0.00056812 6.586724e-05 0.00019084856 -0.001027355 -0.00011737974 0.0006600532 -0.00058961194
00000000: 4d29 0a38 3bfa cb3a 2aef f439 812c c0b8
00000010: 81de f639 18fb fbb9 bbb3 c5b9 7722 183a
00000020: 2f78 543a fbe1 1ab9 b4ce 4538 8878 a339
00000030: 5668 123a 85e2 893a 10b0 0bba 8a3a e6ba
00000040: b3b1 de39 3254 8839 c5be a738 f4a1 773a
00000050: 2dfe 293a 6e57 77b9 55d7 d2b9 1e03 0cbb
00000060: 8e9d d7b9 30f1 7139 6508 8039 5837 5c39
00000070: 1626 ff39 ea81 4838 7e1d e6b9 9ed5 8bb9
00000080: c650 abba 1847 b63a 07d8 50ba 5685 56ba
00000090: 3625 b2ba 75bd 423a 3fce 843a f092 9eba
000000a0: a998 aa38 5f3b a4ba bc9c cdb7 3f0a 203a
000000b0: b7d3 84b9 7c09 44ba f52f 843a 0e8c 20ba
000000c0: 91ab ad3a 7e3b de39 8348 b839 bdbf a639
000000d0: 11b1 a93a 20f1 bab8 71cd a0ba ce59 03ba
000000e0: 899c f839 e3ed 14ba 3522 8a38 851e 4839
000000f0: 50a8 86ba c529 f6b8 6c07 2d3a 3090 1aba

features.bn1.weight f4 [64]
0.9779308 1.0806981 0.9543846 1.017287 1.0089197 1.0472194 1.0166907 1.0916153
0.9665596 1.0458952 0.95749676 0.9370533 0.96716106 1.1301175 1.0330495 0.94069695
0.9926983 0.9337304 0.9724195 1.1492405 0.9160273 0.9425258 0.98335564 1.0142351
1.0586815 1.0147619 0.9811722 0.93532777 1.066827 1.0204524 0.972339 0.99647903
1.0374099 1.0115438 1.0357062 1.0102171 1.1299106 1.0721924 1.0185686 1.1580052
0.9282151 0.9213102 0.9618215 0.9704798 1.062096 1.0688865 1.0275853 0.96226346
0.96888226 1.038796 0.9431661 1.1506304 0.9564078 0.9580919 0.9960422 0.988593
1.0775262 1.0361389 0.98394805 1.0125468 0.968808 1.1570383 0.93513495 0.9523322
00000000: ac59 7a3f 5154 8a3f 8d52 743f 7636 823f
00000010: 4824 813f 490b 863f ec22 823f 0dba 8b3f
00000020: 7370 773f e5df 853f 821e 753f bae2 6f3f
00000030: de97 773f b1a7 903f f73a 843f 84d1 703f
00000040: 7a21 7e3f f508 6f3f 7cf0 783f 501a 933f
00000050: c480 6a3f 5f49 713f 32bd 7b3f 75d2 813f
00000060: e082 873f b8e3 813f 1a2e 7b3f a471 6f3f
00000070: ca8d 883f 2f9e 823f 35eb 783f 4019 7f3f
00000080: d9c9 843f 447a 813f 0592 843f cb4e 813f
00000090: e9a0 903f 9a3d 893f 7560 823f 8439 943f
000000a0: 819f 6d3f fcda 6b3f ef39 763f 5d71 783f
000000b0: c3f2 873f 46d1 883f ea87 833f e656 763f
000000c0: ab08 783f 44f7 843f 5573 713f db47 933f
000000d0: 24d7 743f 8345 753f 9ffc 7e3f 6e14 7d3f
000000e0: 61ec 893f 33a0 843f 05e4 7b3f 229b 813f
000000f0: cd03 783f d519 943f 0165 6f3f 0bcc 733f

features.bn1.bias f4 [64]
-0.057092793 -0.09139875 -0.06559442 0.028365156 -0.029500453 0.0024315873 -0.041282665 -0.007719752
-0.05770096 -0.021375287 -0.043150455 -0.073226556 -0.011607207 -0.0076091727 -0.06968837 0.020023834
-0.00796093 0.004884771 -0.031620882 -0.018772729 0.023136279 0.0014589201 0.027164094 -0.120241545
-0.042522028 0.007976597 -0.021362387 -0.031485077 -0.032511704 -0.057446558 -0.010134766 -0.061757445
-0.06272229 -0.10301723 -0.054574326 -0.01493871 -0.030171933 -0.014755322 -0.096974544 0.01365274
-0.0369128 -0.011661106 -0.04206679 0.058690432 0.05229768 0.0023551004 -0.055167634 -0.10977457
-0.062825784 0.0015116255 -0.09039633 -0.03196576 -0.061871365 -0.0049335975 -0.011987725 -0.017892057
-0.055611778 -0.03595434 -0.023676172 -0.03366645 -0.08892313 -0.09643709 -0.09452404 -0.066831976
00000000: 22da 69bd 452f bbbd 5e56 86bd 0b5e e83c
00000010: efaa f1bc 445b 1f3b 0318 29bd f9f5 fcbb
00000020: d857 6cbd 3a1b afbc 88be 30bd cef7 95bd
00000030: 282c 3ebc 5e56 f9bb c7b8 8ebd 0609 a43c
00000040: 8f6e 02bc 6e10 a03b e684 01bd 44c9 99bc
00000050: 4b88 bd3c 3c39 bf3a 3c87 de3c 3341 f6bd
00000060: 942b 2ebd 46b0 023c 2c00 afbc 7ff6 00bd
00000070: fe2a 05bd 154d 6bbd 4a0c 26bc 60f5 7cbd
00000080: 8b74 80bd b3fa d2bd 5489 5fbd 7ec1 74bc
00000090: 212b f7bc 4ec0 71bc 979a c6bd beaf 5f3c
000000a0: e031 17bd 390e 3fbc 3a4e 2cbd 6165 703d
000000b0: 1836 563d 0758 1a3b 75f7 61bd 7dd1 e0bd
000000c0: ceaa 80bd bc21 c63a b621 b9bd 87ee 02bd
000000d0: d46c 7dbd 04aa a1bb 2a68 44bc 5d92 92bc
000000e0: 2dc9 63bd dc44 13bd 88f4 c1bc d5e5 09bd
000000f0: 541d b6bd cf80 c5bd d295 c1bd 34df 88bd

features.bn1.running_mean f4 [64]
-0.03482742 -0.1727901 -0.15955971 -0.06046765 0.030846955 0.26953858 -0.09042642 -0.25201723
0.19351792 -0.0581366 0.04888821 0.06490818 0.017731167 -0.16606888 0.30468333 0.16057312
0.06974037 -0.17023675 -7.343778e-05 -0.12163848 0.15294892 0.11513145 -0.07261073 -0.08658656
0.0057247933 -0.13427481 0.14200857 -0.080538906 0.030726809 0.35629773 0.40800852 0.2645192
-0.027265837 -0.4281482 -0.062427748 -0.03124649 -0.14090705 0.012222893 -0.07282262 -0.22559962
-0.08021276 0.0036508713 -0.024968034 0.09163045 -0.075139396 0.27306113 0.1782467 0.11443805
0.20747234 -0.19897586 0.15972683 -0.22199498 -0.30751717 -0.030948957 0.19026828 0.034546435
-0.31317815 0.15142803 0.2176303 -0.17244346 -0.10591729 -0.20120846 -0.21000996 0.0073652924
00000000: 32a7 0ebd e3ef 30be 9f63 23be edac 77bd
00000010: c1b2 fc3c f600 8a3e 7d31 b9bd 6708 81be
00000020: 9029 463e a520 6ebd 013f 483d 94ee 843d
00000030: f440 913c f60d 2abe 74ff 9b3e 486d 243e
00000040: 0ad4 8e3d 8b52 2ebe 9c02 9ab8 981d f9bd
00000050: a49e 1c3e 0aca eb3d efb4 94bd 4b54 b1bd
00000060: 0c97 bb3b 567f 09be b26a 113e 95f1 a4bd
00000070: cab6 fb3c a86c b63e 7ee6 d03e 106f 873e
00000080: 9b5c dfbc 3e36 dbbe 3db4 7fbd a4f8 ffbc
00000090: f049 10be 8742 483c 0724 95bd 9603 67be
000000a0: 9646 a4bd 7543 6f3b c389 ccbc bfa8 bb3d
000000b0: afe2 99bd abce 8b3e 4e86 363e 7f5e ea3d
000000c0: a173 543e 54c0 4bbe 6e8f 233e a752 63be
000000d0: e472 9dbe ab88 fdbc b0d5 423e 9080 0d3d
000000e0: e358 a0be f30f 1b3e 7ada 5e3e 0595 30be
000000f0: 2aeb d8bd 9709 4ebe da0c 57be 8d58 f13b

features.bn1.running_var f4 [64]
1.1007634 0.7913719 1.9771156 0.54208744 0.53921837 1.0632998 0.5526496 0.81110203
1.7732636 1.0841974 0.69823056 0.9399346 1.8773328 1.2230587 1.3232169 0.4281988
1.4774044 0.76902086 0.4558197 0.8801035 0.485612 0.892254 0.34745905 0.4755508
0.76788116 1.4981178 0.8042421 0.5703377 0.84921736 2.0368593 1.124812 1.0464729
0.5747584 0.9807268 0.7647512 0.4692206 0.8116194 0.99223316 0.6660824 0.6298041
0.74653536 0.83234596 0.5393041 2.3985085 0.6085858 1.0908941 0.87927127 0.79470307
0.59535235 1.0736492 0.8997747 1.1476715 0.90336883 2.3591335 0.694186 1.3093274
0.60434604 0.641981 1.2827739 0.87049615 1.196007 1.3410954 0.60394937 1.0222028
00000000: d1e5 8c3f 5997 4a3f 2012 fd3f 3ec6 0a3f
00000010: 370a 0a3f 351a 883f 727a 0d3f 62a4 4f3f
00000020: 4dfa e23f fbc6 8a3f 3dbf 323f 8e9f 703f
00000030: 714c f03f 308d 9c3f 2c5f a93f e03c db3e
00000040: 961b bd3f 8dde 443f 3361 e93e 774e 613f
00000050: 23a2 f83e c26a 643f 27e6 b13e 657b f33e
00000060: dc93 443f 53c2 bf3f cfe2 4d3f a701 123f
00000070: 4f66 593f e75b 0240 d7f9 8f3f d3f2 853f
00000080: 5e23 133f e910 7b3f bcc6 433f af3d f03e
00000090: 4ac6 4f3f fe02 7e3f 6084 2a3f d73a 213f
000000a0: f11c 3f3f a014 553f d50f 0a3f 2a81 1940
000000b0: 47cc 1b3f 6ba2 8b3f ec17 613f a971 4b3f
000000c0: 0369 183f 566d 893f a257 663f e6e6 923f
000000d0: 2e43 673f 0bfc 1640 2cb6 313f 0a98 a73f
000000e0: 6cb6 1a3f de58 243f ef31 a43f d6d8 5e3f
000000f0: c216 993f 04a9 ab3f 6d9c 1a3f 8bd7 823f

features.conv2.weight f4 [64, 64, 3, 3]
0.015666507 0.14607325 0.07572107 -0.02952666 0.059185803 -0.018891701 -0.004369043 0.040263645
0.15563153 -0.09447898 -0.12054912 -0.08304495 -0.055953477 -0.06502392 0.14404057 -0.12214118
0.044060767 -0.028382432 0.034309197 0.006424714 -0.048402578 0.038690142 -0.005771204 -0.042825565
-0.16233706 0.0034049181 -0.028946197 0.08813096 -0.031950302 -0.0007590331 -0.0671581 0.06962256
0.006122897 0.025051042 0.007452637 0.005099514 -0.018675564 0.090053186 0.025662862 0.0762038
0.016624117 0.121599585 -0.09667697 0.013359296 0.053925704 -0.11077249 0.03904099 -0.012533452
0.04563519 -0.011071022 -0.08953195 -0.066018276 -0.042724755 -0.0009486484 0.11332968 0.017355526
0.059722163 -0.022955818 0.006957799 0.13110386 -0.051294304 0.005875133 -0.061660826 -0.020161493
-0.089310154 -0.032596666 -0.015984956 0.01653979 -0.07851864 -0.040569995 -0.012879315 -0.030250369
0.033086766 0.05649032 -0.028115354 0.09964135 0.016777238 0.071984805 -0.0028540662 0.042970143
0.002959696 -0.07062131 0.14074455 0.012542192 0.16120388 -0.07018519 -0.038709678 -0.010513553
0.0597943 -0.10742699 -0.12842138 -0.031129492 0.108226426 -0.0010923372 0.07230511 0.036909148
-0.019428315 0.029078957 0.05038356 0.06647718 0.006142259 0.099620156 -0.07119389 -0.113025144
-0.05259293 -0.16062795 0.030941013 -0.019969108 0.080624655 -0.02275566 -0.022266172 -0.07365203
-0.012684468 0.03347037 -0.10198249 -0.036782548 -0.011515231 0.020393077 0.010762437 0.073720165
-0.041739322 -0.06506369 0.050861433 -0.053442936 0.0068826056 -0.049775038 -0.08665275 0.008211026
0.07795958 -0.09901286 0.008037445 -0.118685536 0.030633222 0.027337752 0.04194544 0.0016238968
-0.03093663 0.05849185 -0.14773592 0.034316607 0.0019027026 -0.082078576 0.08498916 -0.083424084
0.014040619 -0.06408731 0.046997737 -0.067804754 0.06689733 -0.049928237 0.13535482 0.002968259
-0.0611301 0.025110783 -0.03583138 -0.006707933 -0.036357936 0.03671953 0.12128413 -0.087005556
-0.03475689 -0.02741827 -0.09037197 -0.053159423 0.048906397 -0.11512982 -0.01882404 -0.01454387
-0.019656105 0.02586555 -0.021138372 -0.09857713 -0.008594503 0.046018496 -0.032387465 -0.053329807
-0.069752894 0.03118194 0.013869166 -0.068656005 -0.047490522 -0.061452437 -0.007557425 -0.11036684
0.08396936 0.09535945 -0.0486691 -0.055498295 -0.030700155 -0.13963376 -0.085043155 -0.09333194
-0.007195028 0.03501234 -0.046288334 -0.078932725 0.0555772 0.07555004 -0.12182398 -0.072496474
0.0489612 -0.099115476 -0.083487034 0.03404396 0.0030533287 0.004371245 0.017751321 0.026218787
0.025802294 0.08205019 0.02680475 0.059553318 0.06281123 -0.060470983 -0.042551726 0.14557198
-0.09771586 -0.0017975639 -0.016172236 -0.019315528 -0.11400995 0.014239209 -0.10311168 -0.07507627
-0.03352078 0.014237851 -0.02597071 -0.069762096 -0.0444625 -0.022259226 0.07033126 0.07223804
0.0051535745 -0.06538398 -0.053608615 0.012454491 -0.031406067 0.082368776 0.13028276 -0.047550812
0.035109553 0.10421982 -0.05198039 -0.026375359 -0.03887844 0.011800373 0.040054895 0.10260308
-0.035173524 0.03664704 0.034153793 0.016502911 -0.054451857 0.015857061 0.047775198 -0.1982509
00000000: 0c57 803c 3a94 153e a613 9b3d e5e1 f1bc
00000010: d06c 723d c5c2 9abc 302a 8fbb 7eeb 243d
00000020: df5d 1f3e 327e c1bd 75e2 f6bd 7913 aabd
00000030: 792f 65bd 432b 85bd 5f7f 133e 2825 fabd
00000040: 1079 343d 4682 e8bc cd87 0c3d 6886 d23b
00000050: c841 46bd 8e79 1e3d 5e1c bdbb dc69 2fbd
00000060: b03b 26be 0c25 5f3b 9320 edbc 017e b43d
00000070: 52de 02bd d9f9 46ba 308a 89bd 4696 8e3d
00000080: 95a2 c83b d837 cd3c 4035 f43b d319 a73b
00000090: 7ffd 98bc ce6d b83d ec3a d23c bd10 9c3d
000000a0: 4d2f 883c 3409 f93d 93fe c5bd f3e0 5a3c
000000b0: 33e1 5c3d b0dc e2bd 72e9 1f3d 1c59 4dbc
000000c0: f7eb 3a3d 3b63 35bc 875c b7bd 9734 87bd
000000d0: 2700 2fbd b7ae 78ba 6419 e83d 2d2d 8e3c
000000e0: 3a9f 743d d70d bcbc 40fe e33b 1740 063e
000000f0: fa19 52bd 3084 c03b 1090 7cbd b729 a5bc
00000100: 3ee8 b6bd 1584 05bd e2f2 82bc 747e 873c
00000110: 61ce a0bd b92c 26bd c303 53bc 9fcf f7bc
00000120: fd85 073d 6562 673d 2c52 e6bc c410 cc3d
00000130: 6b70 893c c56c 933d 490b 3bbb 7601 303d
00000140: 76f7 413b e8a1 90bd 571f 103e c47d 4d3c
00000150: a112 253e 41bd 8fbd 0a8e 1ebd 0a41 2cbc
00000160: deea 743d af02 dcbd e580 03be 4703 ffbc
00000170: d1a5 dd3d c12c 8fba b414 943d 0c2e 173d
00000180: 2128 9fbc fe36 ee3c fe5e 4e3d 3025 883d
00000190: 0145 c93b a705 cc3d 1ace 91bd ba79 e7bd
000001a0: af6b 57bd a77b 24be 0278 fd3c 4196 a3bc
000001b0: 8a1e a53d 146a babc 8c67 b6bc e0d6 96bd
000001c0: 84d2 4fbc 3a18 093d 32dc d0bd 4ca9 16bd
000001d0: 61aa 3cbc 620f a73c ef54 303c 99fa 963d
000001e0: daf6 2abd 1d40 85bd 1454 503d fbe6 5abd
000001f0: 7b87 e13b e9e0 4bbd ff76 b1bd 8a87 063c
00000200: 46a9 9f3d 41c7 cabd 7daf 033c 6711 f3bd
00000210: 86f2 fa3c 6cf3 df3c fbce 2b3d efd8 d43a
00000220: d16e fdbc 2695 6f3d 1648 17be 928f 0c3d
00000230: 1b64 f93a d018 a8bd cc0e ae3d 3fda aabd
00000240: a00a 663c 3540 83bd b380 403d 38dd 8abd
00000250: 7801 893d 8d81 4cbd 749a 0a3e 1f87 423b
00000260: 8e63 7abd 21b5 cd3c edc3 12bd 38ce dbbb
00000270: 0fec 14bd 3867 163d d063 f83d f82f b2bd
00000280: 3e5d 0ebd 489c e0bc f014 b9bd b2bd 59bd
00000290: 1352 483d 2fc9 ebbd e034 9abc 6a49 6ebc
000002a0: d705 a1bc fde3 d33c 612a adbc cee2 c9bd
000002b0: f5cf 0cbc e47d 3c3d b8a8 04bd 5b70 5abd
000002c0: 9bda 8ebd 4571 ff3c 803b 633c 859b 8cbd
000002d0: 6c85 42bd 8db5 7bbd 47a4 f7bb 0308 e2bd
000002e0: 21f8 ab3d d14b c33d 4059 47bd 2e52 63bd
000002f0: e47e fbbc 27fc 0ebe 1b2b aebd d124 bfbd
00000300: 45c4 ebbb 1969 0f3d d698 3dbd 7ba7 a1bd
00000310: eba4 633d fbb9 9a3d da7e f9bd 0879 94bd
00000320: 8a8b 483d 0efd cabd 40fb aabd ae71 0b3d
00000330: 5b1a 483b a93c 8f3b 386b 913c c8c8 d63c
00000340: 555f d33c ee09 a83d a395 db3c 2eee 733d
00000350: 2da3 803d 6cb0 77bd b84a 2ebd d210 153e
00000360: 411f c8bd 3c9c ebba a37b 84bc 993b 9ebc
00000370: 0c7e e9bd 924b 693c 372c d3bd 96c1 99bd
00000380: 164d 09bd e045 693c 87c0 d4bc 6edf 8ebd
00000390: 4f1e 36bd fb58 b6bc d609 903d 8af1 933d
000003a0: 51df a83b 09e8 85bd b594 5bbd ec0d 4c3c
000003b0: a6a3 00bd f6b0 a83d d868 053e a4c4 42bd
000003c0: 09cf 0f3d 3371 d53d 64e9 54bd 2311 d8bc
000003d0: 003f 1fbd 5a56 413c 9a10 243d 9021 d23d
000003e0: 1d12 10bd 351b 163d d9e4 0b3d 1d31 873c
000003f0: e908 5fbd abe6 813c edaf 433d 4902 4bbe

features.conv2.bias f4 [64]
0.00044133008 0.0001038287 -0.000107454776 -0.00013378041 0.00018573574 0.00041821116 -7.328313e-05 -7.090332e-05
0.00021684746 -5.1987336e-05 0.00014984551 2.8536575e-05 0.00010410635 -0.00054275425 4.580677e-05 0.00011344737
2.9887487e-05 5.7992445e-05 -6.709256e-05 -0.00012811931 0.0001170229 -0.000119347686 -0.00026495743 0.00020195854
-8.663884e-05 -5.911046e-05 2.437447e-05 0.00023526949 -0.00013723853 -8.628719e-05 7.2118186e-05 5.5979413e-05
-9.577988e-05 4.6759997e-05 -0.00012513119 1.320452e-05 -0.00018907429 -0.00015680665 0.00018563643 7.3949304e-05
0.00018930384 -4.8315844e-05 -0.00032200507 -0.00010279009 2.484474e-05 -7.495424e-05 -0.0003413892 0.00026192513
-0.00018328021 -0.00040670874 0.0005210568 0.00016619559 -0.00025296203 4.715025e-05 -7.4269956e-05 -2.6346988e-06
-8.158053e-05 3.3513684e-06 -0.00016500958 -4.4624827e-05 8.359148e-06 0.00025237064 0.0001405955 6.997897e-06
00000000: 5262 e739 9cbe d938 5859 e1b8 6847 0cb9
00000010: 0fc2 4239 5a43 db39 95af 99b8 eeb1 94b8
00000020: 8c61 6339 fa0c 5ab8 d91f 1d39 d461 ef37
00000030: ac53 da38 9f47 0eba a520 4038 98ea ed38
00000040: e4b6 fa37 ea3c 7338 0bb4 8cb8 c457 06b9
00000050: 316a f538 4d4a fab8 fce9 8ab9 d5c4 5339
00000060: dfb1 b5b8 60ed 77b8 c777 cc37 acb2 7639
00000070: b0e7 0fb9 15f5 b4b8 283e 9738 70cb 6a38
00000080: 6edd c8b8 2a20 4438 a635 03b9 fb88 5d37
00000090: 3e42 46b9 776c 24b9 66a7 4239 3b15 9b38
000000a0: dd7f 4639 bea6 4ab8 cad2 a8b9 0291 d7b8
000000b0: ac69 d037 c030 9db8 7cfc b2b9 ff52 8939
000000c0: e82e 40b9 863b d5b9 8897 083a ca44 2e39
000000d0: fd9f 84b9 32c3 4538 61c1 9bb8 c8cf 30b6
000000e0: 3716 abb8 12e8 6036 6c06 2db9 8b2b 3bb8
000000f0: 443e 0c37 9d50 8439 d16c 1339 7acf ea36

features.bn2.weight f4 [64]
1.0602361 0.98572266 0.9310253 1.020823 1.0474522 1.1306874 0.94606626 0.9123068
0.9591476 0.9696374 0.9476795 0.9518852 1.0047287 1.173395 1.066887 1.0355948
0.9298645 0.96348 0.95190686 0.9437454 0.9879426 0.96904975 1.0175667 0.9908551
1.1704814 0.98184294 0.9964571 0.9511141 0.93096924 0.9054917 1.0170233 0.95526737
0.922814 0.9654732 1.0277022 1.0056565 1.0014917 1.041735 0.9824762 1.0103241
1.0537049 0.9409517 1.013863 0.93325853 0.97492254 1.027375 1.0342203 1.0139648
0.976015 1.0120497 1.0048107 1.0038241 0.98138714 0.9373235 1.0183908 0.9457861
0.9992996 0.9515973 1.020311 0.97196746 0.97515893 0.9633667 1.0087955 1.0122269
00000000: d1b5 873f 5258 7c3f ad57 6e3f 54aa 823f
00000010: ea12 863f 5dba 903f 6631 723f f08c 693f
00000020: b28a 753f 283a 783f 209b 723f c0ae 733f
00000030: f39a 803f cf31 963f c18f 883f 5f8e 843f
00000040: 9a0b 6e3f a0a6 763f 2bb0 733f 4c99 713f
00000050: cee9 7c3f a513 783f a03f 823f aea8 7d3f
00000060: 56d2 953f 0f5a 7b3f d017 7f3f 377c 733f
00000070: 0054 6e3f 4ece 673f d22d 823f 678c 743f
00000080: 8a3d 6c3f 4029 773f bf8b 833f 5ab9 803f
00000090: e130 803f 9357 853f 8f83 7b3f 4d52 813f
000000a0: cddf 863f 36e2 703f 43c6 813f 08ea 6e3f
000000b0: 8694 793f 0681 833f 5561 843f 99c9 813f
000000c0: 1edc 793f d88a 813f a39d 803f 4f7d 803f
000000d0: 303c 7b3f 6ff4 6f3f a15a 823f 0a1f 723f
000000e0: 19d2 7f3f e19b 733f 8d99 823f dcd2 783f
000000f0: 04a4 793f 339f 763f 3620 813f a790 813f

features.bn2.bias f4 [64]
-0.1197699 -0.012164671 0.042309072 -0.1158935 -0.02567149 0.027801994 -0.10007619 0.025475645
0.03064907 -0.16073352 0.058940265 -0.101052575 -0.06456627 -0.15657467 -0.17981918 -0.13102302
-0.064579256 -0.03122639 -0.06301551 -0.028852193 -0.03859356 -0.23937063 -0.033417463 -0.16156334
-0.12360363 -0.01557264 -0.16081254 -0.16494389 -0.06445297 -0.0817124 -0.0076865344 -0.03304634
-0.050684836 -0.025816737 -0.09461274 -0.07970597 -0.120991245 -0.18044055 -0.2085152 0.009810321
-0.21167284 -0.088800676 -0.110134155 -0.054715674 -0.09700645 -0.18463072 -0.016172903 -0.14152084
-0.19906934 -0.10568168 0.0042566922 -0.21615523 -0.038713314 -0.12062008 -0.093454115 -0.16909692
-0.07722409 -0.04113507 0.05162104 -0.14439921 -0.17045043 0.111106195 0.01558605 -0.042640537
00000000: ec49 f5bd 544e 47bc 474c 2d3d 9259 edbd
00000010: 044d d2bc 02c1 e33c bff4 ccbd 4db2 d03c
00000020: c213 fb3c 5497 24be 596b 713d a7f4 cebd
00000030: 523b 84bd 1c55 20be 8522 38be e62a 06be
00000040: 2142 84bd 7cce ffbc 470e 81bd 6f5b ecbc
00000050: 4814 1ebd 931d 75be c0e0 08bd dc70 25be
00000060: e623 fdbd 6324 7fbc 0bac 24be 0de7 28be
00000070: ebff 83bd d558 a7bd 53df fbbb 995b 07bd
00000080: e79a 4fbd 9f7d d3bc 53c4 c1bd e23c a3bd
00000090: 42ca f7bd 68c5 38be 0285 55be 78bb 203c
000000a0: c4c0 58be 21dd b5bd 048e e1bd 8b1d 60bd
000000b0: 51ab c6bd d60f 3dbe 097d 84bc d7ea 10be
000000c0: d5d8 4bbe a36f d8bd b97b 8b3b cc57 5dbe
000000d0: da91 1ebd a907 f7bd df64 bfbd be27 2dbe
000000e0: aa27 9ebd 3f7d 28bd 9570 533d 63dd 13be
000000f0: 8f8a 2ebe a58b e33d a25c 7f3c d8a7 2ebd

features.bn2.running_mean f4 [64]
-1.164284 2.887821 0.2240129 -0.18954365 0.43710092 0.29085964 2.0471144 0.92155045
3.6068869 3.5881202 1.2235826 -0.30110765 1.1061451 1.058544 0.918194 -0.3146544
3.3997326 -2.552089 3.2505536 2.0129936 1.2538658 3.06006 1.6234592 -0.65593904
1.7338024 -2.744794 -1.7131717 3.3210504 0.6812949 2.3864844 -3.4801593 -3.4017293
3.321466 2.6548328 -1.1104295 -2.7407682 1.8829156 -0.9626402 2.8695972 -4.617258
-0.12148589 1.6422507 -0.6690639 -3.0779638 -1.0789081 -1.5596904 1.5414206 -1.1797813
3.259329 -0.13231905 1.0817884 1.0308193 3.2442138 2.083389 -0.07799582 1.9115571
-0.26420248 -2.9626675 1.9597484 -0.7840473 2.3689315 2.0601015 -4.056328 -2.405778
00000000: 4207 95bf 0fd2 3840 a363 653e bb17 42be
00000010: b1cb df3e 8eeb 943e ec03 0340 bbea 6b3f
00000020: 3cd7 6640 c3a3 6540 5b9e 9c3f c82a 9abe
00000030: 2a96 8d3f 5f7e 873f c30e 6b3f 621a a1be
00000040: 3895 5940 6d55 23c0 1209 5040 e3d4 0040
00000050: ad7e a03f 06d8 4340 83cd cf3f 9feb 27bf
00000060: 3ded dd3f b4aa 2fc0 3649 dbbf 178c 5440
00000070: 5869 2e3f 29bc 1840 eeba 5ec0 efb5 59c0
00000080: e692 5440 c8e8 2940 8e22 8ebf bf68 2fc0
00000090: 6103 f13f 976f 76bf 7ba7 3740 94c0 93c0
000000a0: 98cd f8bd 4535 d23f c647 2bbf 5cfd 44c0
000000b0: a919 8abf efa3 c7bf 454d c53f 1303 97bf
000000c0: d998 5040 a57e 07be 0b78 8a3f e3f1 833f
000000d0: 33a1 4f40 3f56 0540 46bc 9fbd e7ad f43f
000000e0: 8c45 87be 589c 3dc0 09d9 fa3f 53b7 48bf
000000f0: 939c 1740 b4d8 0340 70cd 81c0 44f8 19c0

features.bn2.running_var f4 [64]
7.125456 19.278116 9.058793 6.7320848 9.327956 5.4200587 9.51193 4.7877746
16.744282 14.3227 3.005936 9.8436 7.875169 4.0327277 7.656527 6.0951753
18.140491 10.086614 10.450567 9.119675 4.825572 13.888051 3.4731524 5.143048
5.2513704 10.818484 11.241418 15.188147 4.096655 10.510706 12.494439 9.605563
23.333933 6.446612 8.299649 13.172894 9.6685095 6.597687 9.916986 15.487749
2.7780304 8.085212 3.212808 10.813408 4.642905 6.854703 5.5198383 7.7654963
11.985004 4.443863 5.253951 5.4686475 8.544106 10.812648 4.581207 13.083243
11.964234 10.019018 4.7159634 8.171121 12.259571 10.148653 13.348099 9.886021
00000000: bc03 e440 9539 9a41 d1f0 1041 3d6d d740
00000010: 4f3f 1541 1f71 ad40 de30 1841 7335 9940
00000020: 4af4 8541 c729 6541 4161 4040 637f 1d41
00000030: 6201 fc40 1b0c 8140 4502 f540 ad0b c340
00000040: ba1f 9141 c562 2141 8635 2741 30ea 1141
00000050: 166b 9a40 7535 5e41 2148 5e40 d993 a440
00000060: 3a0b a840 8318 2d41 d9dc 3341 a602 7341
00000070: cc17 8340 da2b 2841 39e9 4741 63b0 1941
00000080: e5ab ba41 a54a ce40 5dcb 0441 2cc4 5241
00000090: 37b2 1a41 4020 d340 faab 1e41 d2cd 7741
000000a0: 40cb 3140 075d 0141 a59e 4d40 b803 2d41
000000b0: ae92 9440 ba59 db40 84a2 b040 f27e f840
000000c0: 94c2 3f41 2034 8e40 5e20 a840 29ff ae40
000000d0: a8b4 0841 9b00 2d41 3f99 9240 f754 5141
000000e0: 816d 3f41 e64d 2041 2ce9 9640 e9bc 0241
000000f0: 3427 4441 e260 2241 d091 5541 242d 1e41

features.conv3.weight f4 [64, 64, 3, 3]
0.043795228 0.01547469 0.012330939 -0.021514999 0.046725173 0.14219995 0.035756644 0.04946158
0.022900617 -0.10369941 -0.009816812 0.00010112147 -0.10715756 -0.030309368 -0.099256635 0.029818194
-0.068360575 -0.10857418 -0.078471154 0.11936077 0.010706393 -0.097267956 0.023849709 -0.15253113
0.10024094 -0.12852202 -0.022960069 -0.042567477 0.13521537 -0.050036687 -0.06945387 0.08003049
-0.040365297 0.05402255 -0.08194679 -0.016199913 -0.082380936 0.040119626 -0.011361124 -0.06633636
0.10015603 -0.08303341 -0.09065859 0.0027394032 0.036531366 -0.012125741 0.04041364 0.12344733
0.002795497 -0.013275614 0.069666244 -0.093072124 -0.03246366 0.079514965 -0.1164624 0.04786882
-0.066324055 -0.028722247 0.029602231 -0.030486785 -0.06424292 -0.061157726 -0.0974655 0.029029394
0.03307424 -0.03111215 0.0029259995 -0.097630866 -0.08108416 0.010711128 0.052652743 0.0014523282
-0.0699147 0.03345112 -0.078153394 0.03646228 -0.097568005 -0.11886795 -0.015262047 0.032376498
-0.038992357 -0.06624105 -0.10288069 -0.08797554 0.035168912 -0.0013608957 -0.07821006 -0.045552272
-0.007357632 -0.1748866 0.067558765 0.0665778 -0.001654772 -0.027559416 0.0032037252 -0.022772694
-0.016744874 -0.051499624 -0.09355408 -0.0925911 0.014854116 0.02939496 -0.022759609 0.0076090684
0.010968594 -0.012966631 0.016000954 -0.027292581 -0.033589922 0.06531535 -0.008788812 -0.019958315
0.0009540145 -0.032094803 -0.04829635 0.008435493 0.02619046 0.039002433 0.07594603 0.039762918
-0.021159377 -0.10201443 -0.020341085 -0.00870568 -0.088455945 -0.044665728 0.007118245 0.04649406
-0.21288855 -0.03594881 -0.008858384 -0.039000336 0.077017814 -0.0035809847 -0.059542947 0.030528912
6.804463e-05 0.10022688 -0.10864446 0.049026236 -0.016633045 0.06038227 0.07434598 0.13422343
-0.059166394 -0.0053777527 0.05379945 0.0065639196 0.053135082 -0.020136602 0.014124001 -0.10288076
-0.12086213 -0.04152513 0.014143151 0.0016500119 -0.050927803 -0.05284525 0.038801797 0.016310886
-0.097801596 0.016454404 -0.08891292 -0.013027176 0.06136918 0.0027297754 -0.0005592226 -0.07938525
-0.011530771 0.0019169349 -0.10061522 -0.0019549064 -0.036115576 0.073825516 0.055562828 -0.0019226298
-0.011662699 -0.0733349 -0.046872627 -0.037387896 -0.036982726 0.010859363 0.022760004 -0.030929651
-0.015956316 -0.12182117 0.108267166 -0.14180118 0.007335891 -0.015738249 -0.001309542 -0.0026030357
0.027418263 -0.051314984 0.023509441 -0.067235425 -0.009971755 -0.22331466 0.11649796 0.11250001
0.010497664 -0.06441458 -0.051256288 -0.044610206 0.089416444 0.03685597 -0.04609969 -0.008193448
0.029136278 0.06980813 -0.07252047 0.07156859 0.070013806 0.053537667 0.04974306 0.05875995
0.024847863 -0.07713882 -0.053583704 0.048389934 -0.027342822 -0.09793613 0.010629782 0.028197402
-0.050953194 0.0092639355 -0.048330568 0.039836437 -0.0679401 -0.044055767 0.03541288 -0.024856001
-0.074307255 -0.06188648 0.0020820554 0.10654479 -0.042624723 0.024224538 -0.044190027 -0.10040692
-0.0046881484 -0.08649968 -0.0989017 -0.014381066 0.038719065 -0.020467147 0.032580476 -0.010193603
0.01937666 -0.06559382 -0.017695935 -0.07666591 -0.11507712 0.10192643 0.044732854 -0.039998528
00000000: a062 333d 8e89 7d3c b507 4a3c 3940 b0bc
00000010: e562 3f3d dd9c 113e 8f75 123d 3a98 4a3d
00000020: 139a bb3c 5b60 d4bd b2d6 20bc 2d11 d438
00000030: 6c75 dbbd 5a4b f8bc 1047 cbbd 4945 f43c
00000040: a100 8cbd 245c debd 7cb5 a0bd 6b73 f43d
00000050: de69 2f3c 6c34 c7bd 7760 c33c 1f31 1cbe
00000060: 1f4b cd3d 479b 03be c116 bcbc 3c5b 2ebd
00000070: e675 0a3e 45f3 4cbd d53d 8ebd 07e7 a33d
00000080: 1556 25bd c046 5d3d b8d3 a7bd aeb5 84bc
00000090: 56b7 a8bd 7a54 243d 0224 3abc 5cdb 87bd
000000a0: 9b1e cd3d 6c0d aabd 36ab b9bd 8f87 333b
000000b0: eaa1 153d 0bab 46bc c688 253d f4d1 fc3d
000000c0: a834 373b f681 59bc 2dad 8e3d 999c bebd
000000d0: 9df8 04bd bed8 a23d d783 eebd 1912 443d
000000e0: e8d4 87bd eb4a ebbc 6180 f23c 6cbf f9bc
000000f0: cb91 83bd 8680 7abd fe9b c7bd 0dcf ed3c
00000100: db78 073d e8de febc 20c2 3f3b b1f2 c7bd
00000110: 740f a6bd ba7d 2f3c 67aa 573d 0c5c be3a
00000120: 702f 8fbd 0b04 093d e30e a0bd 7959 153d
00000130: bcd1 c7bd 0a71 f3bd aa0d 7abc 389d 043d
00000140: 73b6 1fbd 63a9 87bd 1cb3 d2bd 852c b4bd
00000150: 470d 103d 1560 b2ba 992c a0bd 0595 3abd
00000160: 4a18 f1bb 7915 33be 405c 8a3d f159 883d
00000170: efe4 d8ba 49c4 e1bc 97f5 513b cd8d babc
00000180: 8c2c 89bc 45f1 52bd 4899 bfbd 67a0 bdbd
00000190: ae5e 733c b3cd f03c 5c72 babc 7e55 f93b
000001a0: 9eb5 333c fe71 54bc 6f14 833c b194 dfbc
000001b0: 9695 09bd 0ec4 853d f3fe 0fbc 9f7f a3bc
000001c0: d416 7a3a d775 03bd 65d2 45bd 0635 0a3c
000001d0: 608d d63c 04c1 1f3d 9889 9b3d 71de 223d
000001e0: 6e56 adbc f1ec d0bd 59a2 a6bc 45a2 0ebc
000001f0: 6428 b5bd 69f3 36bd 2b40 e93b 8e70 3e3d
00000200: 75ff 59be 0f3f 13bd c122 11bc d1be 1fbd
00000210: 84bb 9d3d f4ae 6abb 4ee3 73bd c517 fa3c
00000220: 2fb3 8e38 c043 cd3d fd80 debd bccf 483d
00000230: 0642 88bc 6653 773d b542 983d de71 093e
00000240: 7658 72bd dc37 b0bb d05c 5c3d 2616 d73b
00000250: 2ca4 593d 84f5 a4bc 5b68 673c 26b3 d2bd
00000260: 9086 f7bd 4116 2abd adb8 673c 3645 d83a
00000270: ac99 50bd 4374 58bd a2ee 1e3d 689e 853c
00000280: 344c c8bd 63cb 863c fa17 b6bd f06f 55bc
00000290: 405e 7b3d 08e6 323b cb98 12ba bc94 a2bd
000002a0: 8feb 3cbc a941 fb3a 5a0f cebd e31d 00bb
000002b0: eded 13bd d531 973d d995 633d c000 fcba
000002c0: e814 3fbc 9c30 96bd 83fd 3fbd 0d24 19bd
000002d0: 337b 17bd 78eb 313c 3073 ba3c 2e60 fdbc
000002e0: d2b6 82bc 617d f9bd 2dbb dd3d 5434 11be
000002f0: ea61 f03b 80ed 80bc f0a4 abba b197 2abb
00000300: 449c e03c a92f 52bd df96 c03c bab2 89bd
00000310: 9260 23bc 99ac 64be 7c96 ee3d 6866 e63d
00000320: 65fe 2b3c cbeb 83bd 1df2 51bd 31b9 36bd
00000330: f81f b73d 49f6 163d 07d3 3cbd d03d 06bc
00000340: 34af ee3c 91f7 8e3d 9d85 94bd 8e92 923d
00000350: 6663 8f3d 504a 5b3d 61bf 4b3d 46ae 703d
00000360: bf8d cb3c f5fa 9dbd 967a 5bbd 8634 463d
00000370: 0efe dfbc bd92 c8bd 8a28 2e3c 3dfe e63c
00000380: 4cb4 50bd c3c7 173c 46f6 45bd 882b 233d
00000390: 2e24 8bbd d273 34bd 190d 113d d09e cbbc
000003a0: 672e 98bd ad7c 7dbd 1873 083b 2834 da3d
000003b0: 4397 2ebd 8a72 c63c 9a00 35bd 25a2 cdbd
000003c0: 0a9f 99bb bf26 b1bd f98c cabd 909e 6bbc
000003d0: e297 1e3d b8aa a7bc 1b73 053d 1203 27bc
000003e0: cdbb 9e3c 0d56 86bd 11f7 90bc 0403 9dbd
000003f0: 8ead ebbd cebe d03d cc39 373d 7fd5 23bd

features.conv3.bias f4 [64]
-0.0028428042 -0.00026550706 -0.0026916417 0.0001468212 -0.0018453686 6.334553e-05 0.0030135917 0.0007317444
-0.0007474505 0.0009859791 -0.0012017232 0.00028044495 0.00022742784 0.0039524985 0.0025885992 -0.0014243961
0.00078454474 0.0016769653 0.001205689 -0.00021229018 0.0031272448 -0.002289742 0.0032027431 0.00024350302
-0.0015818191 -0.00029793766 -0.0006517396 -0.0005062943 0.0024009526 0.0017400733 -0.0021830336 0.0030363917
-0.001928469 0.0010709866 -0.001904967 0.00043370487 0.0004994257 0.0012860278 -0.0007467326 0.0035048404
-0.00045866202 0.0022405272 0.0005150001 0.0036389343 0.0009813831 0.0024351666 -0.0012529566 -0.002237377
0.0021584767 0.0024798296 0.0013435485 0.0017040718 -0.0006622618 -0.0009951313 0.00086963386 -0.0014849036
0.0023708672 0.0032525517 -0.0011713011 -0.0012245473 0.00075287843 0.0010024179 -0.0016170049 -0.0029725588
00000000: 574e 3abb c133 8bb9 4166 30bb 04f4 1939
00000010: 4ce0 f1ba 5fd8 8438 ae7f 453b 89d2 3f3a
00000020: 8ef0 43ba f83b 813a 2483 9dba af08 9339
00000030: b279 6e39 f683 813b 7da5 293b cdb2 baba
00000040: e8a9 4d3a 9ecd db3a 3608 9e3a 369a 5eb9
00000050: 76f2 4c3b 7f0f 16bb 1de5 513b d854 7f39
00000060: 0b55 cfba 8434 9cb9 81d9 2aba d6b8 04ba
00000070: 4d59 1d3b 2c13 e43a 3a11 0fbb 33fe 463b
00000080: afc4 fcba 5960 8c3a 16b0 f9ba e262 e339
00000090: e4eb 023a ef8f a83a 60c0 43ba 77b1 653b
000000a0: 9378 f0b9 cfd5 123b 1201 073a 307b 6e3b
000000b0: c1a1 803a 5197 1f3b 3f3a a4ba f5a0 12bb
000000c0: 3b75 0d3b a384 223b 021a b03a 295b df3a
000000d0: a39b 2dba 116f 82ba 24f8 633a 19a1 c2ba
000000e0: 8d60 1b3b c328 553b 5886 99ba fd80 a0ba
000000f0: d15c 453a 9063 833a aef1 d3ba 43cf 42bb

features.bn3.weight f4 [64]
1.3674748 1.3462132 1.3992136 1.3707975 1.3798 1.336041 1.4034593 1.3414915
1.3964629 1.3819417 1.3515517 1.2945689 1.4065938 1.3702648 1.4282943 1.2957455
1.3498993 1.3276063 1.3867267 1.3622903 1.3334441 1.3231679 1.353212 1.3918779
1.3280903 1.3322053 1.3146042 1.3485903 1.3381822 1.3565495 1.4001695 1.327646
1.37845 1.3501458 1.33935 1.3550502 1.326639 1.3158448 1.3326797 1.348221
1.3447869 1.4130489 1.3558522 1.3775111 1.2931768 1.376537 1.3365022 1.3237796
1.3528345 1.3283697 1.3344215 1.346855 1.3368086 1.3272194 1.3235558 1.3961436
1.3728245 1.3409342 1.3530747 1.3862128 1.3121285 1.3163 1.3661238 1.3581983
00000000: 6a09 af3f b750 ac3f 6e19 b33f 4b76 af3f
00000010: 499d b03f 6403 ab3f 8ea4 b33f feb5 ab3f
00000020: 4cbf b23f 77e3 b03f a5ff ac3f 6fb4 a53f
00000030: 440b b43f d664 af3f 59d2 b63f fdda a53f
00000040: 80c9 ac3f 01ef a93f 4380 b13f 875f ae3f
00000050: 4cae aa3f 915d a93f 0d36 ad3f 0e29 b23f
00000060: ddfe a93f b485 aa3f f344 a83f 9b9e ac3f
00000070: 8e49 ab3f 6aa3 ad3f c138 b33f 4ef0 a93f
00000080: 0d71 b03f 94d1 ac3f d26f ab3f 4972 ad3f
00000090: 4fcf a93f 9a6d a83f 4095 aa3f 8192 ac3f
000000a0: fa21 ac3f c9de b43f 918c ad3f 4952 b03f
000000b0: d186 a53f 5d32 b03f 8112 ab3f 9c71 a93f
000000c0: ae29 ad3f 0508 aa3f 53ce aa3f bf65 ac3f
000000d0: 8b1c ab3f 53e2 a93f 476a a93f d5b4 b23f
000000e0: b7b8 af3f bba3 ab3f 8d31 ad3f 6c6f b13f
000000f0: d4f3 a73f 857c a83f 25dd ae3f 71d9 ad3f

features.bn3.bias f4 [64]
0.29658908 0.21618535 0.26063195 0.3519832 0.30795267 0.23133768 0.25130284 0.24801925
0.35881925 0.2794838 0.31355312 0.23242171 0.32190335 0.25259975 0.3096623 0.26648867
0.24797961 0.24950646 0.24121344 0.23512974 0.23988324 0.33357432 0.26516458 0.3333636
0.33566117 0.21431871 0.26237023 0.26627424 0.21171154 0.23729993 0.25439426 0.24278207
0.35349396 0.23834346 0.35289863 0.31863204 0.31414467 0.24076663 0.2586132 0.1939326
0.23709561 0.29661942 0.25659186 0.29953736 0.2623901 0.25685787 0.30328354 0.26629293
0.28613284 0.24015044 0.24059854 0.18105206 0.28760126 0.27781713 0.27377987 0.35271466
0.2744966 0.2670593 0.23612905 0.32309613 0.28829885 0.26012743 0.27312598 0.31707057
00000000: 86da 973e b15f 5d3e 8d71 853e 2437 b43e
00000010: f9ab 9d3e c9e3 6c3e c4aa 803e c2f8 7d3e
00000020: 28b7 b73e 8018 8f3e 098a a03e f5ff 6d3e
00000030: 84d0 a43e c154 813e 0f8c 9e3e 3471 883e
00000040: 5eee 7d3e 9f7e 7f3e a800 773e dac5 703e
00000050: f4a3 753e 41ca aa3e a7c3 873e a2ae aa3e
00000060: c8db ab3e 5d76 5b3e 6455 863e 1955 883e
00000070: e9ca 583e c1fe 723e f73f 823e dd9b 783e
00000080: 29fd b43e 4f10 743e 21af b43e bd23 a33e
00000090: 92d7 a03e 878b 763e f368 843e 4496 463e
000000a0: 31c9 723e 80de 973e 0260 833e f65c 993e
000000b0: ff57 863e e082 833e fb47 9b3e 8c57 883e
000000c0: 0180 923e ffe9 753e 775f 763e b665 393e
000000d0: 7940 933e 0c3e 8e3e e02c 8c3e 0497 b43e
000000e0: d18a 8c3e ffbb 883e d0cb 713e db6c a53e
000000f0: e89b 933e 6c2f 853e 2bd7 8b3e 1357 a23e

features.bn3.running_mean f4 [64]
-2.8529236 -1.0727837 -1.3400186 0.69288325 -1.0224038 0.46616098 2.7414033 0.036009632
0.08164008 0.90614367 -1.2393593 0.15010838 0.520292 3.8335466 1.4883571 -1.4555124
1.270087 1.0057328 1.1689979 0.9554976 3.5495806 -1.9784143 3.0196602 1.6135017
-0.27746746 -0.7817478 -1.8018508 -0.12197289 1.1077212 1.9932921 -1.1643656 3.038199
-1.1252551 0.9250933 -1.3578349 0.739291 -0.232161 1.6891309 -1.1388777 2.6858792
-0.25520346 1.4767331 0.27725607 1.2244647 0.33212078 2.2911856 -0.41174942 -0.54496723
0.67659396 2.2836375 1.3354995 2.089942 0.17018673 -0.7109737 0.51930183 -0.38077685
2.5199337 2.7553906 -0.6279314 0.3491028 0.41321272 0.66310096 -0.50954646 -0.9676667
00000000: 4d96 36c0 fa50 89bf bb85 abbf cc60 313f
00000010: 21de 82bf a7ac ee3e 2773 2f40 d67e 133d
00000020: ea32 a73d 08f9 673f 53a3 9ebf 03b6 193e
00000030: db31 053f d458 7540 7c82 be3f 3b4e babf
00000040: 3692 a23f dabb 803f b9a1 953f 7e9b 743f
00000050: 542c 6340 ae3c fdbf 1d42 4140 3987 ce3f
00000060: 3710 8ebe a020 48bf 0ca3 e6bf eccc f9bd
00000070: cfc9 8d3f 3224 ff3f ef09 95bf da71 4240
00000080: 5c08 90bf ead2 6c3f 89cd adbf 2d42 3d3f
00000090: 9dbb 6dbe 7135 d83f bfc6 91bf 72e5 2b40
000000a0: 07aa 82be 9705 bd3f 82f4 8d3e 42bb 9c3f
000000b0: bc0b aa3e c9a2 1240 d2d0 d2be f982 0bbf
000000c0: 4335 2d3f 1e27 1240 a6f1 aa3f 9cc1 0540
000000d0: 6e45 2e3e 5f02 36bf f7f0 043f 2ff5 c2be
000000e0: 9846 2140 5258 3040 1dc0 20bf 9abd b23e
000000f0: 9e90 d33e fcc0 293f a371 02bf 01b9 77bf

features.bn3.running_var f4 [64]
2.8645806 3.4283142 1.844138 1.9270942 2.5218046 3.1737041 3.2853117 2.6778433
2.1385198 2.085395 2.4124787 2.5759706 2.4912953 2.8459013 1.8440158 2.9423058
2.1890213 3.2964666 2.99494 2.6083436 4.4875355 2.9826736 2.78576 1.9111383
2.058213 2.7447793 2.6362863 3.239477 2.461439 3.0993235 2.4345715 3.6956012
2.3041022 2.2477696 2.7928133 2.4388058 2.0544286 4.1157546 1.7768803 3.105403
3.7055721 2.0772662 3.2620091 2.0804079 1.8573054 2.7879167 2.2610097 1.5723926
1.6999382 4.3221993 2.7684474 2.7912056 1.9352328 2.3201036 1.8618051 2.3515306
2.347306 3.0008998 2.3514998 2.4142435 2.6150374 3.440378 2.223009 2.3106046
00000000: 4a55 3740 8069 5b40 b70c ec3f 06ab f63f
00000010: 3f65 2140 f81d 4b40 8c42 5240 c961 2b40
00000020: 82dd 0840 1d77 0540 0d66 1a40 b4dc 2440
00000030: 6271 1f40 3f23 3640 b608 ec3f bd4e 3c40
00000040: ed18 0c40 4ff9 5240 19ad 3f40 1aef 2640
00000050: e499 8f40 20e4 3e40 e449 3240 2ea0 f43f
00000060: c3b9 0340 77aa 2f40 eab8 2840 9753 4f40
00000070: 3788 1d40 515b 4640 05d0 1b40 bb84 6c40
00000080: 6976 1340 75db 0f40 74bd 3240 6515 1c40
00000090: c27b 0340 43b4 8340 d070 e33f ecbe 4640
000000a0: 1828 6d40 eef1 0440 c2c4 5040 6725 0540
000000b0: 2fbc ed3f 3a6d 3240 62b4 1040 2944 c93f
000000c0: 9397 d93f 754f 8a40 3e2e 3140 1da3 3240
000000d0: b5b5 f73f 947c 1440 a14f ee3f 7a7f 1640
000000e0: 433a 1640 be0e 4040 f97e 1640 f782 1a40
000000f0: c65c 2740 272f 5c40 c845 0e40 f2e0 1340

fc.weight f4 [5, 64]
0.013617807 0.032352395 0.020921271 0.008761081 0.015018894 0.020186907 0.023200706 0.027940022
0.017264038 0.015978632 0.016136441 0.019266099 0.019947924 0.015681643 0.010774537 0.025510885
0.005430273 0.015413344 0.010901335 0.036084905 0.008751861 0.021729968 0.01291358 0.03355641
0.018804664 0.017512528 0.021039084 0.021580232 0.016857186 0.024696447 0.02331401 0.014130663
0.02630878 0.016260175 0.011025988 0.032637853 0.020473624 0.011435056 0.025170675 0.014780663
0.016956775 0.019325407 0.009088246 0.016151452 0.020938717 0.017678699 0.022167128 0.0056676953
0.016274517 0.024083702 0.0063652876 0.015524258 0.017759698 0.01878336 0.012448416 0.030457875
0.0083966525 0.018750135 0.014878249 0.014697807 0.027090427 0.0151696205 0.014954071 0.015309182
-0.0321434 -0.026320739 -0.02828174 -0.029991742 -0.030167438 -0.04039946 -0.031990267 -0.035250615
-0.02756304 -0.040554155 -0.030335482 -0.035953306 -0.031200236 -0.017363453 -0.021204848 -0.02281974
-0.029334432 -0.034913253 -0.032939617 -0.03145665 -0.024065219 -0.036956545 -0.017321901 -0.027757702
-0.038774483 -0.011537692 -0.035707347 -0.032102317 -0.028678598 -0.04356357 -0.026392836 -0.019776853
-0.034419086 -0.029361252 -0.03666075 -0.032648586 -0.01906029 -0.027496086 -0.037804805 -0.040187865
-0.023649758 -0.029312104 -0.029816573 -0.015439293 -0.030371482 -0.023776142 -0.030801281 -0.026970306
-0.030175649 -0.027532935 -0.034360133 -0.035262525 -0.022330249 -0.026736587 -0.027942084 -0.036350794
-0.031067288 -0.01733457 -0.016599739 -0.029855143 -0.024767056 -0.033846777 -0.030987946 -0.027760526
0.017909756 0.019608295 0.026792182 0.01898263 0.01535412 0.03366491 0.0033872162 0.017759917
0.015784545 0.015449479 0.019056836 0.014249973 0.0071376096 0.008652353 0.018148988 0.019321023
0.011589119 0.015994234 0.014806696 0.008954928 0.014882764 0.019222004 0.013978948 0.0071901567
0.016124258 0.0115194125 0.01749815 0.02257491 0.024576766 0.010771561 0.015544772 0.008663226
0.010406235 0.017021999 0.023104854 0.011667562 0.011274641 0.02130144 0.014863943 0.014866657
0.013197112 0.011774159 0.0033744678 0.006448595 0.019945513 0.015236438 0.0075845 0.008858111
0.013480242 0.016405849 0.0122249415 0.016054366 0.018530194 0.017863195 0.020828571 0.02523496
0.023807108 0.013045517 0.018954437 0.02115596 0.012794838 0.026291898 0.024794474 0.014707586
-0.003315162 -0.015901547 0.0012934137 0.0009203146 -0.011808499 -0.009261488 0.0015251908 -0.0116457455
0.002338814 8.940477e-05 -0.009574183 0.0024521947 0.009577173 -0.005027881 -0.007345123 -0.016646067
-0.0020828152 -0.00095686247 0.004570439 -0.016171444 0.0076170843 0.0006859697 -0.010517064 -0.005155943
-0.00072869303 -0.010398985 -0.007848158 -0.007663948 -0.017514387 -0.0060400288 -0.0056969956 -0.007232115
-0.008462374 -0.00082994247 2.955779e-05 -0.0062858416 -0.00048170838 -0.010947429 -0.0005390869 0.0057170144
0.008865107 -0.0034618771 0.013005588 0.004718255 -0.012079802 -0.012080167 -0.010057902 0.0036289073
-0.002396156 -0.0052608643 0.010727478 -0.0077778497 -0.0057788263 0.0019913365 0.0038214985 -0.0034215604
0.0044797375 -0.008755959 -0.0073693697 -0.0054380503 -0.010011928 0.00096247415 0.0014740907 -0.013660286
00000000: 391d 5f3c f283 043d 1663 ab3c a38a 0f3c
00000010: cf11 763c 035f a53c 680f be3c 79e2 e43c
00000020: 506d 8d3c 9fe5 823c 9230 843c f0d3 9d3c
00000030: d469 a33c ca76 803c af87 303c 34fc d03c
00000040: 6ef0 b13b 4088 7c3c 839b 323c c4cd 133d
00000050: f763 0f3c 0c03 b23c 7b93 533c 7272 093d
00000060: 3d0c 9a3c 6f76 8f3c 285a ac3c 07c9 b03c
00000070: 1518 8a3c 3450 ca3c 06fd be3c 4c84 673c
00000080: 8385 d73c 0f34 853c 58a6 343c 45af 053d
00000090: 4db8 a73c 1a5a 3b3c bb32 ce3c 982a 723c
000000a0: efe8 8a3c 5150 9e3c dee6 143c 0d50 843c
000000b0: ac87 ab3c ebd2 903c d697 b53c 13b8 b93b
000000c0: 2352 853c 2f4b c53c e793 d03b 7559 7e3c
000000d0: c97c 913c 90df 993c 71f4 4b3c cb82 f93c
000000e0: 1d92 093c e299 993c e6c3 733c 12cf 703c
000000f0: beec dd3c 008a 783c eb01 753c 5dd3 7a3c
00000100: cca8 03bd 979e d7bc 1caf e7bc 3eb1 f5bc
00000110: b421 f7bc e779 25bd 3a08 03bd f362 10bd
00000120: e2cb e1bc 1d1c 26bd 1e82 f8bc c643 13bd
00000130: a397 ffbc cd3d 8ebc cab5 adbc 77f0 babc
00000140: c34e f0bc 3301 0fbd b1eb 06bd b0d8 00bd
00000150: 6c24 c5bc bf5f 17bd a9e6 8dbc 1f64 e3bc
00000160: fed1 1ebd 9608 3dbc de41 12bd b87d 03bd
00000170: 61ef eabc b76f 32bd ca35 d8bc 1103 a2bc
00000180: 07fb 0cbd 0287 f0bc 9529 16bd 86ba 05bd
00000190: 5324 9cbc 793f e1bc 36d9 1abd 089c 24bd
000001a0: 23bd c1bc f01f f0bc e341 f4bc 17f5 7cbc
000001b0: 9dcd f8bc 2fc6 c2bc f852 fcbc d5f0 dcbc
000001c0: ec32 f7bc c08c e1bc 36bd 0cbd 706f 10bd
000001d0: eded b6bc b006 dbbc cce6 e4bc 92e4 14bd
000001e0: d380 febc 3a01 8ebc 2dfc 87bc c692 f4bc
000001f0: 48e4 cabc eba2 0abd 6fda fdbc 0b6a e3bc
00000200: 7bb7 923c 93a1 a03c 477b db3c 7681 9b3c
00000210: d98f 7b3c 37e4 093d 0ffc 5d3b 3f7d 913c
00000220: 974e 813c d01f 7d3c 151d 9c3c b878 693c
00000230: 9ce2 e93b 99c2 0d3c 30ad 943c 1f47 9e3c
00000240: 4ae0 3d3c 5706 833c c997 723c b1b7 123c
00000250: d6d6 733c 7777 9d3c f507 653c 689b eb3b
00000260: 0517 843c ebbb 3c3c 4858 8f3c 05ef b83c
00000270: 3755 c93c 347b 303c 80af 7e3c 34f0 0d3c
00000280: ea7e 2a3c b871 8b3c 6446 bd3c 4d29 3f3c
00000290: 46b9 383c 5c80 ae3c e587 733c 4793 733c
000002a0: b338 583c 67e8 403c 2d26 5d3b bc4e d33b
000002b0: c664 a33c 41a2 793c 6687 f83b 9c21 113c
000002c0: 3cdc 5c3c 8f65 863c 1f4b 483c 7284 833c
000002d0: a2cc 973c d655 923c aea0 aa3c 8cb9 ce3c
000002e0: 2007 c33c ddbc 553c 5646 9b3c 444f ad3c
000002f0: 71a1 513c 1b62 d73c c81d cb3c 16f8 703c
00000300: 3043 59bb f643 82bc c387 a93a 4441 713a
00000310: 6f78 41bc 7fbd 17bc e9e8 c73a cccd 3ebc
00000320: ca46 193b d27e bb38 09dd 1cbc 00b5 203b
00000330: 93e9 1c3c ecc0 a4bb 5caf f0bb 555d 88bc
00000340: d77f 08bb f4d5 7aba 9fc3 953b fa79 84bc
00000350: bc98 f93b a6d2 333a c34f 2cbc 2ff3 a8bb
00000360: c305 3fba 8160 2abc 8f95 00bc db21 fbbb
00000370: 557a 8fbc 6feb c5bb ddad babb 61fb ecbb
00000380: c5a5 0abc 7f90 59ba dff2 f737 76f9 cdbb
00000390: ce8d fcb9 d85c 33bc 8251 0dba cb55 bb3b
000003a0: f43e 113c a9e0 62bb 6415 553c 979b 9a3b
000003b0: 5dea 45bc e5eb 45bc e6c9 24bc f6d2 6d3b
000003c0: d408 1dbb 5463 acbb 4ec2 2f3c 55dd febb
000003d0: 4f5c bdbb 1581 023b 1b72 7a3b 423c 60bb
000003e0: c3ca 923b 2775 0fbc c17a f1bb ac31 b2bb
000003f0: 1209 24bc 8c4e 7c3a 4736 c13a 64cf 5fbc

fc.bias f4 [5]
1.0364071 0.8542962 1.043121 1.0393735 1.0620846
00000000: fda8 843f 28b3 5a3f fd84 853f 310a 853f
00000010: 63f2 873f
